1D_supercritical_InverseProblem_C_initial_60/AdamOptimized.h5-50000.pt (torch, 82759 bytes, 43 tensors)

linears.0.weight f8 [30, 1]
0.8197715179067431 0.2194791018914739 0.014029028896088305 0.007221573365738538 -4.79885462025014 -0.2584828224293867 0.005486443126376447 0.005965264423017219
-0.024989497768496963 -1.6422157294295943 -3.1061282131132604 0.720254498828846 -0.0034750127796774844 1.0869587270267438 3.3403398621085567 4.8348974483443
-0.3774194990150588 -3.9454733374989983 0.12479943732602412 1.6542826915006654 -0.04513239909566426 0.0032295992374853366 -0.003974574923888596 -1.34941521398404
-0.0035920047971850708 -4.694367969697992 0.005566733858525535 2.735670698115459 -0.9565383495325449 4.283705470777829
00000000: 7441 737a 913b ea3f 28c1 6326 e417 cc3f
00000010: 9b3c 6d62 40bb 8c3f c778 e756 5e94 7d3f
00000020: 70ee 10f2 0632 13c0 105e 3a89 fb8a d0bf
00000030: 6352 c9dc f378 763f d3da bd79 086f 783f
00000040: b1fa a2ce d896 99bf c007 2e00 8446 fabf
00000050: f408 a4bf 59d9 08c0 5489 a829 530c e73f
00000060: 769e bd47 a177 6cbf 10e8 8ad5 2e64 f13f
00000070: 4f40 0a1b 04b9 0a40 489c 505b ef56 1340
00000080: c81c 491d a427 d8bf a662 3e53 5490 0fc0
00000090: 9ddd df1d dbf2 bf3f f258 a520 f177 fa3f
000000a0: 4238 3604 981b a7bf 007e 55e3 f574 6a3f
000000b0: cc84 04d5 a447 70bf a994 4c68 3497 f5bf
000000c0: 7007 31e4 fa6c 6dbf 9ff8 a465 08c7 12c0
000000d0: 53ee e2bd 24cd 763f 4740 a851 a7e2 0540
000000e0: 4d96 1350 f69b eebf 8cbf daaf 8322 1140

linears.0.bias f8 [30]
-1.2014755392731453 -2.1725350578092226 -0.5908251644361207 -0.827082492258235 -0.41570748066205193 2.323165325671429 -1.25148084655766 -0.7087573017792533
0.0027494595619244164 -0.3162259802516608 -1.32079152052571 -2.4239416698774345 0.5715974604832773 -1.003722836218507 2.5312718932528817 2.3936944797372735
2.477280674674414 -2.3690910557252316 -1.4103803902831886 -1.4946416053255493 0.7671958847323281 -1.2039326334009754 0.1596349693970642 -0.7893969508866949
0.5137655021935186 -2.5426969974131723 -1.1209514697224872 0.9888796760685855 0.9479027462672867 2.7074131828384744
00000000: 37f4 416a 3e39 f3bf f5a1 750f 5a61 01c0
00000010: d205 dd2c 0ae8 e2bf 41fc eab3 7577 eabf
00000020: 2359 898c f39a dabf 08ae c7b3 d795 0240
00000030: 9691 b8c7 1006 f4bf d72d feca 23ae e6bf
00000040: 19f2 cddc 0886 663f 26e4 d4e4 0b3d d4bf
00000050: 62df 174a f621 f5bf 1c48 bc87 3b64 03c0
00000060: 1313 e8c1 864a e23f dee8 3cad 3f0f f0bf
00000070: e870 767a 0b40 0440 d7b2 984a 4926 0340
00000080: 57ea c587 78d1 0340 18b0 ec02 e6f3 02c0
00000090: e7f9 3207 eb90 f6bf a8d3 e150 0dea f7bf
000000a0: e6a2 5162 de8c e83f a5b5 70dd 4e43 f3bf
000000b0: 77de 6d2e eb6e c43f eada f364 bd42 e9bf
000000c0: 647e b759 c470 e03f 3d37 fc85 7157 04c0
000000d0: 8bc7 edce 6aef f1bf c598 8cfd e6a4 ef3f
000000e0: ec35 e023 3855 ee3f 7567 283e c8a8 0540

linears.1.weight f8 [30, 30]
-0.2044750597984131 -0.13585373443005752 0.129956377231295 0.24503876674620195 -0.0672621732102047 -0.14692356738928525 -0.006850320734119915 -0.17375424533320527
-0.13538440126946194 -0.32894425661277715 -0.1455529672204725 -0.22493414316441593 -0.01703024375189717 -0.06870426306257238 -0.15106229674048582 -0.028934536500751458
-0.24244483897020355 0.019637371932938224 -0.26160788368989374 0.03633755214796452 -0.05710601207550784 0.03918054529841009 -0.2295434698212481 0.26262026701138713
0.10139483883911267 -0.2899879166131261 -0.4061234271909762 0.10602763239740015 0.07610619782935969 -0.2352467601030288 -0.0662640511216148 0.2078054461798912
-0.03788794677294871 0.10996548558664287 -0.13859404887620147 0.17663270511972348 -0.03122637486660156 0.275774432209715 0.01612766387793124 -0.06881856171628332
-0.07287164687201772 -0.22761108931307264 -0.10207450983115336 -0.10905129774646287 -0.2972736420373765 -0.03525603912955401 0.0190367110516788 0.21184956778368627
0.0690201983875513 -0.21153077867949813 0.12804381249820837 0.502386586673161 -0.15720920577702485 -0.10707400962789482 -0.34177562029303604 -0.03534255004746676
0.1430107640384933 -0.09635525863033596 0.16731390573498725 -0.09440357783278065 -0.016310064742424447 -0.12468515718459973 0.21034103266390813 0.03634362291170089
0.29519068496594647 -0.015378237400985045 0.09010159168076697 -0.2423356179246654 -0.20900743658247156 -0.17921149979194298 0.20697183717965062 0.25600910834289514
-0.4012679063807235 -0.24077643024260187 -0.19156200843257493 0.12870703704305633 0.02061497513078084 0.00013671736915481965 0.1529728085217907 0.2494665707763567
-0.25277435478835764 0.21886176976146218 0.22673863910215736 0.23679036917503352 -0.3423547225232986 -0.03718296033704037 0.07081087891696833 0.19741031208027882
0.02743843152301471 -0.09689177692881906 -0.05444667834500933 0.27642708675248046 0.1177533113738301 0.21786053563037755 -0.10387818167414022 -0.04246323510516509
0.06706902832157277 -0.036796086721401236 0.11021621426718257 -0.01658727272725942 0.16828788923639781 0.38370593189313557 -0.039850885238507425 -0.08214620618209448
0.3950648500771358 0.31843844726308973 -0.0031590628067935367 -0.1262248362561738 -0.12023008055679274 0.015388089475465988 0.04175410313669249 0.0035602837257432576
-0.19108443725990876 -0.39299482985157713 -0.04181387852769671 -0.2922504397059906 0.03506539111703092 0.06966570964047233 -0.31876774242744776 -0.12189735868436546
-0.43536861497628726 -0.062408588058153656 0.16483267122303327 0.012668028514974209 -0.17104066676722077 0.19999874678794158 -0.1746081344006661 0.19736217278691723
0.32328248616194205 -0.07573792008679973 0.3092345952234995 0.14467116978380212 0.3020816278710285 -0.27556591066126157 0.015345269527028823 -0.3625120765821464
0.4280799151192604 0.4305321658725718 -0.40017311952924894 -0.15875308009239977 0.25926553645181405 0.150502008227401 0.3241827897222598 -0.02507021478317703
0.16160873608772972 0.24956034503138755 0.17771675464636544 -0.020131334142825582 -0.03513089557133259 -0.18428003627993592 0.23837938271708023 0.22719901104655518
-0.2732612539471675 0.025102457452624342 -0.2627032951483669 -0.24144269203054927 -0.09954441019301095 -0.32338351545135624 -0.18036722333044025 -0.11177789698864496
0.037019583178712984 -0.05875149510079371 0.10078010445041942 -0.29122752311436845 -0.18496521299411 -0.2885286544474662 0.1538925871620824 0.17236004485296816
-0.12582598784366097 0.002567941203344345 -0.0753274941962863 -0.01440377907755018 -0.024360911123671048 -0.23502785470213372 -0.08930469823137947 -0.1580421735550862
-0.032801363953144924 0.19448322031219223 0.09630310436782809 -0.24793984250953696 -0.20780120235056995 0.14458462738104236 0.10498812484780966 -0.05827714145866931
0.12064171583210519 0.2078836647935809 0.17537561385011144 -0.25188212744136784 0.27338256072718753 -0.07658165647381024 -0.2995948087265793 0.2202948964927201
0.07433220271704338 0.2901441703367025 0.14587782536133231 0.022764203190512693 -0.12183093867722739 -0.1780054298543042 0.18190102207712702 0.25422038805644315
-0.08827915154008081 -0.16828766418911784 0.2332184455232556 0.19418824175809835 0.2503736613381496 0.2544619834403236 0.020656922316027632 0.2731607496683371
0.12474372796582242 -0.27328336897838146 0.3003441979963707 -0.21004968223205703 -0.07389080878362946 0.16898884225423155 0.07803902035329101 0.2816235921093286
0.31178625155375866 -0.196285302554412 0.23747778532076066 -0.17705284643570898 0.06946242256220252 0.0821286808631049 0.07303949428350279 0.2593599121287868
0.10092202996690305 -0.2954626159047514 -0.11186926264137782 0.2821480142149397 0.03990094872680598 0.08653608285830738 -0.10267553939931452 0.3664735564769847
-0.224903679781761 -0.08484044174738793 -0.32742911609200975 0.08256263802044272 0.13326939969239054 -0.06916362085095219 0.2170457172427534 -0.10625733274985304
0.10897110822574252 0.03922634974608757 0.22376701537409938 0.13040128840536125 0.011436349195713635 -0.12065590113282969 0.2333724979006104 0.2635272254151767
0.14356815895172104 -0.06686833860856688 0.07423513594047114 -0.03611078288110629 -0.24840362109855504 -0.10961286932157663 -0.05251648950887823 -0.03768264252639066
00000000: 2946 571f 3d2c cabf 0b52 35b9 a763 c1bf
00000010: feb9 0e1b 69a2 c03f 88ab b628 6e5d cf3f
00000020: 7a1a 3202 1838 b1bf c86c 7936 64ce c2bf
00000030: d58e 52f8 140f 7cbf c8a6 9f40 943d c6bf
00000040: f4a1 ebab 4654 c1bf 60f8 1636 6c0d d5bf
00000050: b01a 06c9 7aa1 c2bf ab8d 525a a4ca ccbf
00000060: 3448 d44f 6070 91bf 5814 f342 9a96 b1bf
00000070: 3a5b 1464 0256 c3bf 928a fbdf 03a1 9dbf
00000080: 6502 3bb7 6e08 cfbf 1be9 ecb8 d11b 943f
00000090: 36ba 34fe 2ebe d0bf 1f35 2fec d59a a23f
000000a0: 05e0 89cc ff3c adbf 9169 64f1 780f a43f
000000b0: 7d41 f22f ae61 cdbf 1d2a 853c c5ce d03f
000000c0: f513 cc1c 03f5 b93f d5aa 857a 298f d2bf
000000d0: f52d 7b1d edfd d9bf 3480 9e7d a024 bb3f
000000e0: 9933 b31e b27b b33f a8f4 90da 901c cebf
000000f0: 3fc2 774c aef6 b0bf 2dfc a26d 5e99 ca3f
00000100: a0d4 9a88 0c66 a3bf 488c 48b4 b226 bc3f
00000110: 2af8 ab25 73bd c1bf 2b55 f285 e69b c63f
00000120: 8d7b 4c8b cef9 9fbf fa79 dacd 49a6 d13f
00000130: ef97 aa33 c583 903f b1df eddf 179e b1bf
00000140: 56f8 1e5c b7a7 b2bf 153e 6734 5c22 cdbf
00000150: 85e3 7a19 8e21 babf 734c 682d c9ea bbbf
00000160: 9cda a006 8806 d3bf 628a 185e 140d a2bf
00000170: 1dbb 8f0d 5c7e 933f d1bd a6fa e21d cb3f
00000180: dc84 d6c6 4eab b13f 554f 43c8 7013 cbbf
00000190: 6746 9159 bd63 c03f bfba f608 8d13 e03f
000001a0: 66a2 b866 6e1f c4bf 4078 9ac9 3369 bbbf
000001b0: 15a3 eed9 a6df d5bf cde3 3831 6b18 a2bf
000001c0: 03ba 423d 2d4e c23f 0d6b 9dfc bcaa b8bf
000001d0: 371e a6c4 8a6a c53f 89cc 6a37 d52a b8bf
000001e0: da4c a8ea 95b3 90bf b18b 67d0 5deb bfbf
000001f0: 7030 2678 74ec ca3f bed7 a59f a19b a23f
00000200: 18ce 8078 67e4 d23f a3a9 a815 a07e 8fbf
00000210: eb20 96dd e510 b73f d039 d280 da04 cfbf
00000220: 8c0a 5f74 c1c0 cabf 7135 5605 67f0 c6bf
00000230: ec97 f09b 0d7e ca3f 0ee5 f306 7462 d03f
00000240: f6bb b595 5fae d9bf a011 c516 c3d1 cebf
00000250: c2de af98 1a85 c8bf e9b7 6ee1 7879 c03f
00000260: 296d fa8f 171c 953f 0d97 3542 79eb 213f
00000270: 57a1 e3ec 9c94 c33f 1c01 7745 85ee cf3f
00000280: 0458 c57c 742d d0bf 432e bc97 a903 cc3f
00000290: ca76 d78f c505 cd3f 19a9 ce95 254f ce3f
000002a0: 2599 37c8 23e9 d5bf 5e6b 3b1d a509 a3bf
000002b0: be3e 2669 a920 b23f e893 23b9 bd44 c93f
000002c0: fbf5 2df8 d118 9c3f 6c1d 2945 e6cd b8bf
000002d0: 293c bc5d 6fe0 abbf 3b26 553c fbb0 d13f
000002e0: 74a7 58bd 1425 be3f c88d cfa1 dae2 cb3f
000002f0: e9f1 0eb1 c297 babf e83a 1ebc bdbd a5bf
00000300: 0635 3793 6f2b b13f 62ab 2dca efd6 a2bf
00000310: e337 c43b 2137 bc3f 94da 9207 41fc 90bf
00000320: 44a6 4a22 758a c53f 39c8 3053 a38e d83f
00000330: cecf a1d1 5567 a4bf cae5 0aa5 8807 b5bf
00000340: 2759 b814 be48 d93f e92c 32a7 4b61 d43f
00000350: bb36 1eee 08e1 69bf 72e4 d4ab 2228 c0bf
00000360: 88a3 fc07 66c7 bebf 3d42 5c68 ca83 8f3f
00000370: b24d e436 cb60 a53f 275d 54c5 742a 6d3f
00000380: d026 6770 7475 c8bf 396a 6dc9 d326 d9bf
00000390: 433b 97f1 a068 a5bf abd8 3130 3bb4 d2bf
000003a0: a560 2348 17f4 a13f 46f7 8ea8 9cd5 b13f
000003b0: 90b8 2fd1 b066 d4bf 40a4 0451 aa34 bfbf
000003c0: 41ca c152 14dd dbbf 730b 66b9 04f4 afbf
000003d0: 418d 1baa 3c19 c53f 55b2 6901 b2f1 893f
000003e0: 458f 061b a9e4 c5bf 1ffc 5816 8f99 c93f
000003f0: 4be7 6e31 8f59 c6bf ff2c cbe6 2943 c93f
00000400: e7d8 5b06 a9b0 d43f 7b01 d771 8f63 b3bf
00000410: eab5 51e6 7fca d33f 889f 72bb 9584 c23f
00000420: b36c 1b2e 4e55 d33f 54af 8b33 dfa2 d1bf
00000430: 6b99 2236 576d 8f3f cdd2 54da 6533 d7bf
00000440: 5bbf e04c a965 db3f 9c1e 13c9 d68d db3f
00000450: 7a73 47b7 6f9c d9bf 916c 915b 0552 c4bf
00000460: 8696 027a ce97 d03f 54d5 a859 a643 c33f
00000470: 241f f22b 69bf d43f 98c7 63a2 01ac 99bf
00000480: 2352 1f56 98af c43f 8be6 24e8 97f1 cf3f
00000490: 8a25 9430 6cbf c63f 0fb9 12f7 4e9d 94bf
000004a0: a8ba 1d3f adfc a1bf e762 90fc 7c96 c7bf
000004b0: 5bbf 6732 3783 ce3f 9972 1071 db14 cd3f
000004c0: e8e3 3dc5 1c7d d1bf aea6 3b67 75b4 993f
000004d0: caac 4d7b 21d0 d0bf 7990 1019 98e7 cebf
000004e0: bf51 4712 be7b b9bf 2476 bbc5 50b2 d4bf
000004f0: aebe bcee 4516 c7bf f25c fbeb 799d bcbf
00000500: dcd4 2016 3bf4 a23f 4218 190c ad14 aebf
00000510: 49b7 b394 b9cc b93f b929 dec3 78a3 d2bf
00000520: 528b 5aaa f0ac c7bf 5ee3 b3e3 4077 d2bf
00000530: df9e 7a96 c0b2 c33f 6bea e3d9 e40f c63f
00000540: e140 63e3 101b c0bf dfb5 90ef 5c09 653f
00000550: c30b 10a4 a948 b3bf f876 9d80 ba7f 8dbf
00000560: adc6 4e12 11f2 98bf 441f cc8a 6415 cebf
00000570: b36d 4836 acdc b6bf ac67 67d7 b93a c4bf
00000580: 70ca e222 57cb a0bf d849 6e7f d3e4 c83f
00000590: 495a c3fb 51a7 b83f d117 7a25 7ebc cfbf
000005a0: 7f24 15d4 3a99 cabf e38e 0dc3 bf81 c23f
000005b0: ab90 b072 80e0 ba3f 19b5 5661 80d6 adbf
000005c0: 633f 0820 60e2 be3f 809d d492 ee9b ca3f
000005d0: 8f46 0047 b572 c63f 60af f336 d61e d0bf
000005e0: 27ae 6791 197f d13f 324d 07fe da9a b3bf
000005f0: d60c 62b4 8f2c d3bf 62ba f487 9f32 cc3f
00000600: 8c97 b56b 6f07 b33f fc27 aeda b891 d23f
00000610: 14bb 91e4 1fac c23f ce18 e4d0 7f4f 973f
00000620: f079 42f9 4f30 bfbf 4b09 dec5 e1c8 c6bf
00000630: ed11 775e 8848 c73f 5172 2b97 2545 d03f
00000640: b884 c864 7699 b6bf 5299 013f 738a c5bf
00000650: e254 2c1e 1ada cd3f fc33 cf09 29db c83f
00000660: 5589 ce3f 1f06 d03f 1be5 3cea 1a49 d03f
00000670: d526 2297 1627 953f 2116 9839 777b d13f
00000680: 468c fe77 34ef bf3f e261 1387 797d d1bf
00000690: 4604 fcde d638 d33f 7966 dc71 e8e2 cabf
000006a0: a35f 330f 82ea b2bf 4677 6f27 6da1 c53f
000006b0: ffb0 3a80 5dfa b33f 2310 79f5 1e06 d23f
000006c0: 3d03 7152 4ef4 d33f 980d 9475 e01f c9bf
000006d0: a355 bd0c ac65 ce3f 4573 8dec aaa9 c6bf
000006e0: b3a1 3411 4ac8 b13f 5ae3 5e9e 6206 b53f
000006f0: 0a97 435f b7b2 b23f 0324 1f51 5a99 d03f
00000700: 2a5e 27b2 06d6 b93f da18 2008 dce8 d2bf
00000710: 15ec 78c8 76a3 bcbf ffce 6b8b b60e d23f
00000720: 96d5 b8ab e56d a43f 78e5 cc8d 3a27 b63f
00000730: 19b8 d1b3 f148 babf a3b7 fa80 4d74 d73f
00000740: 02d4 b4ce a4c9 ccbf c9e7 ae6a 1ab8 b5bf
00000750: 48e5 5740 99f4 d4bf 7056 2b36 d322 b53f
00000760: 5e41 9ec0 f80e c13f 69b6 a001 b5b4 b1bf
00000770: d2b1 a570 27c8 cb3f 4fed 1e39 ae33 bbbf
00000780: 40d7 09d2 87e5 bb3f 1710 9ae2 7915 a43f
00000790: d046 7ac6 65a4 cc3f 4c55 874a fdb0 c03f
000007a0: 66f3 3fce f06b 873f 7356 6f1d 4ee3 bebf
000007b0: f76c 2267 26df cd3f 2ae2 b04b a1dd d03f
000007c0: b8e7 b801 7160 c23f 9f2e 768f 481e b1bf
000007d0: 7f14 14e9 1201 b33f e6bd 03cf 1c7d a2bf
000007e0: 33c3 699a b0cb cfbf f6f6 f4c8 960f bcbf
000007f0: d2f9 e1f9 70e3 aabf 932f 8eaa 234b a3bf

linears.1.bias f8 [30]
0.023808981654060014 -0.0073512744953305505 -0.012735183848755358 0.12746537555402396 -0.16218721877631678 0.009954896373272876 0.006405770607666207 0.02216189634907201
0.03808787456584867 -0.051875425779968586 0.061717607479359275 0.012692189482456146 0.17288803688432927 0.0051821500916898805 -0.03266239562688026 0.014007140402035833
-0.15046829726483923 -0.2309631679459917 -0.131098059564678 0.10572325573961244 -0.009790612852504434 -0.03660073075042197 -0.016510134411133675 -0.008740722788730183
0.05673744613851961 -0.0046870102989869065 -0.03887331102497395 0.10746535575753499 0.02090452436609788 0.034063120968580406
00000000: ea93 38b6 6161 983f e66c a9b8 5e1c 7ebf
00000010: b292 1c71 e714 8abf f53d b011 c950 c03f
00000020: eb9a 3c00 8dc2 c4bf d0bf dd92 3b63 843f
00000030: 68ea 3ff4 ef3c 7a3f 117c 25b0 9bb1 963f
00000040: 48d9 44ff 4080 a33f 0bd0 6172 6a8f aabf
00000050: 1f24 6c43 7399 af3f 9d2c efd5 5cfe 893f
00000060: cfd7 24f8 3121 c63f 8718 abd2 e039 753f
00000070: b58c 0d22 20b9 a0bf 666f 7f8f c6af 8c3f
00000080: 582c eb8f 8b42 c3bf ac4c 747a 3390 cdbf
00000090: f71d 333b d2c7 c0bf 240a d4e5 ad10 bb3f
000000a0: e10d 13d0 190d 84bf 0860 2abb 54bd a2bf
000000b0: 9bbe 645d 08e8 90bf 0701 2bf4 a7e6 81bf
000000c0: d03b 3fc7 b00c ad3f 1cdf 33bf af32 73bf
000000d0: 4239 14df 33e7 a3bf 867e 6e7c d982 bb3f
000000e0: f79a f6e1 fe67 953f db96 1ead b870 a13f

linears.2.weight f8 [30, 30]
-0.14422616920036585 0.09509105219711356 -0.21378449185868778 -0.3110916038864044 -0.15472451990297342 0.22458659656982227 0.37898227396707285 -0.27303471712373284
-0.03472992454182574 -0.2827403838229626 -0.6066715272591265 -0.24008076391172495 -0.08662972673405249 -0.2797541840427163 0.2007031277341319 -0.36894213094506556
0.18942353100884768 0.32644604784573616 -0.13906896208522082 -1.0237126698990313 0.2115372223322516 0.24867703502953228 -0.19246952358971267 0.13392043196896664
-0.6179772817696578 0.14051722067666036 -0.11882999550708 -0.32331684483147727 -0.12648479431407708 -0.017618823752357165 -0.17566608142761503 0.084456155510664
0.27930093072955753 -0.29773924219887093 0.40912931814544545 0.24584672165081267 -0.19682614384332717 -0.2749642368450655 0.31470962664922175 -0.030989188752104664
-0.07957987899276943 0.07688496802674527 -0.07026110332801234 0.16184964853865524 -0.08818475682124996 0.10931203484585372 -0.20956268372051218 -0.009482899621539273
-0.03212133988841607 -0.01839415443620568 -0.033792816597917254 0.1004027753703296 -0.2316212492205025 -0.004295239577839609 0.044312487386685605 -0.4641532106195943
0.3574892408514648 -0.3298032292990513 -0.308653241079949 0.07229772133221564 0.3452592063942839 -0.35797315944285035 -0.478069115256926 0.012615165742885903
0.4015427011587846 -0.10536372001385413 0.1623765581427638 -0.1583614712519615 -0.27857895295027973 -0.13361667393986001 -0.08888991718226241 -0.14582248821172167
0.114857057226715 0.2344006197034122 0.23609577847019916 0.26069764325611805 0.306727664821063 -0.23230352322919004 0.0959541619407213 0.250682974994708
-0.33204125239822774 0.3893466339203045 -0.07275477497777098 0.11997132000038058 0.004726002684890656 -0.06687081348890436 0.34393307288012304 -0.11701636762595237
-0.3234863536945313 0.15771083266077535 -0.2097267558887116 0.1773267625930888 -0.22587660148739305 -0.12711099591915115 0.29851959013894824 -0.2651585558657036
0.2928938862079526 0.0990842084116481 0.33881426941347104 -0.12714761065038654 -0.6109062663506083 0.11492753233646877 -0.16919311736565942 -0.0260068797031159
0.19908683769447288 -0.23878629670008536 0.08367923725113142 0.21108371007573087 0.2624613069410134 -0.47960874163835626 0.23810159267818046 0.06132185798850996
0.21238821308182496 0.15297800551191573 -0.4680216050988619 -0.06583911568707088 0.15423460683177798 0.2379644189997641 -0.20094982224250524 0.05304766850454896
0.02896261452033783 -0.22018936294942196 -0.24005031370814361 0.22474370906459165 -0.13707269897510843 0.15004201521799335 -0.20556817350096254 -0.11177394068673822
0.17640575800099578 0.2925113268090949 0.534140326192725 -0.23102445102396107 -0.15045726056272749 0.41764203779293735 -0.09180186111536735 -0.16559786875909074
0.13443367300876555 0.08898410901320149 -0.15769235094070816 0.5387907545056433 -0.22207499743056489 0.12294609052706296 -0.02984487293754025 0.014239539516130847
0.5358141622850515 0.15105455820669408 0.22128943304954424 -0.16009781229840508 0.07406202095307986 0.08434441260759919 -0.1014986605355673 0.2764101944702426
0.09265554641312054 -0.013913559871684631 -0.08526237250324713 -0.23705492595123956 0.1431124203695049 0.09899220573068267 0.3064284517869405 0.2834297199614378
-0.08952164214083537 0.03478647894958385 0.22369459845868972 -0.3326088634035314 0.2706788401545795 -0.04694110844476669 0.22339108266290666 0.12577259720847808
-0.162862206444228 -0.07805130631407686 -0.06821992307417367 -0.04001317955839049 0.20733027737990134 0.1387035243652239 -0.45439986172703173 -0.42977320190710155
-0.0787964619587221 -0.14266992248587712 -0.10144695266462404 -0.14730604042687004 -0.21998050740849445 0.03527709889701236 0.003399919085186625 0.14512631502245021
-0.16107784892539417 -0.25838116103890024 0.12268525372082009 -0.3009528625948356 0.2406338265170455 -0.10862781273837585 0.752138133162741 -0.03381063013366969
0.04026038245048012 0.37357589073309044 -0.14428242011679343 0.2778742604347026 -0.03277061920432313 0.0717635595310922 -0.19419636375842528 0.9317793944065033
-0.05999507563070517 0.008656642191938043 -0.215400442009309 0.1165916504457871 0.7403590013146344 0.42538114311735153 -0.2436306252500122 -0.30661709394228165
-0.1723774919577828 0.3652580145264617 0.12888255113024855 0.48380108126071997 0.3283713323319942 -0.14586376558862968 0.303423597934739 -0.05226636429794808
0.15255943067286654 0.009260557199182244 0.10771091035536645 0.070280913626486 -0.5677781648817959 -0.13531092323161586 -0.12728040159485854 -0.48452198731979385
-0.10728767957372937 -0.20661170929756592 0.17123645245788438 0.2972503684398094 0.2939579948147725 -0.46586393293304096 0.2569783196623667 0.3023967267248441
0.24051540450801467 0.07921467235800074 -0.6708629869999032 -0.3522647523608637 -0.27535372189778756 -0.13464472222436905 -0.5281323543116254 0.041228102342134566
0.22009140997974241 -0.518289128193461 -0.29043468551433954 0.18218602239962908 0.19571823763267243 0.22827750510086606 -0.14523559533547073 -0.20041915393317067
-0.19421282300627007 -0.023353745170641885 0.5075821374257636 -0.060016367208714096 0.059546719150438986 0.09976721610406798 0.10347650325139544 -0.056649193721464076
00000000: 0eb2 f8cb 0076 c2bf 502e 541f e357 b83f
00000010: c967 764c 4a5d cbbf 9325 30c2 ece8 d3bf
00000020: 70b0 6f58 03ce c3bf 1c94 b1eb 40bf cc3f
00000030: 52f2 1cde 3e41 d83f d004 2e9b 6679 d1bf
00000040: 7b0a 33e4 1ec8 a1bf 96cc 711f 6b18 d2bf
00000050: 18c1 1f68 da69 e3bf a424 b36a f7ba cebf
00000060: eb25 2fa3 5d2d b6bf 097d d817 7ee7 d1bf
00000070: 4c58 e9dc a3b0 c93f 88a3 a174 bf9c d7bf
00000080: d04e 63bf 073f c83f 12fa d9f6 7de4 d43f
00000090: 51b8 0502 03cd c1bf 9579 5b89 2061 f0bf
000000a0: b1df e6d5 a613 cb3f 4bea 5b2a a6d4 cf3f
000000b0: b7b2 a562 d7a2 c8bf f054 c901 4e24 c13f
000000c0: 9ee4 db4a 78c6 e3bf 8b60 aae1 77fc c13f
000000d0: b39a 7c80 a46b bebf b603 b322 39b1 d4bf
000000e0: 7b97 825b a730 c0bf 8bcf 3d3f ab0a 92bf
000000f0: 12c1 5fe5 397c c6bf b13b dd29 eb9e b53f
00000100: b073 ce02 11e0 d13f e4b7 fee4 280e d3bf
00000110: f53e 51bc 2c2f da3f d0d6 a8c6 e777 cf3f
00000120: 5f06 675d 9931 c9bf 076d 3499 0399 d1bf
00000130: 3c77 8cd8 3324 d43f 2223 e140 a1bb 9fbf
00000140: 998e b1d1 585f b4bf a897 3ab7 bbae b33f
00000150: 4585 f9b4 a1fc b1bf ecda ab41 7db7 c43f
00000160: 3290 8db6 4693 b6bf 18df b89e dffb bb3f
00000170: de52 8534 f3d2 cabf 0b52 f73d c56b 83bf
00000180: f51d a650 3572 a0bf d0dc f6ce ead5 92bf
00000190: 756c 41c4 4a4d a1bf c0a8 a40c ffb3 b93f
000001a0: fff8 3add c3a5 cdbf 78b1 3e98 e297 71bf
000001b0: 23ad 4258 20b0 a63f a173 fcaa afb4 ddbf
000001c0: 0940 888d 1ae1 d63f 6718 fd00 7f1b d5bf
000001d0: c989 0f86 f9c0 d3bf e57a b27c 1a82 b23f
000001e0: a9ce 0612 ba18 d63f 10c8 2941 08e9 d6bf
000001f0: cb64 d033 af98 debf 00ff 64e2 fad5 893f
00000200: b32a 5b28 e0b2 d93f acf7 a4e3 1df9 babf
00000210: 761b 6e4b c1c8 c43f 8b9f fc4d 3045 c4bf
00000220: bb9f 11d1 3cd4 d1bf b5d0 62e6 591a c1bf
00000230: 74f1 3d57 7dc1 b6bf 2202 f2b0 4faa c2bf
00000240: 17e8 80a8 4567 bd3f a4e6 e4e9 d600 ce3f
00000250: c167 a0ef 6238 ce3f af79 fb2a 45af d03f
00000260: a7d5 4b12 6da1 d33f cde9 8131 1fbc cdbf
00000270: 0b53 73b3 7390 b83f 590a d19a 300b d03f
00000280: 0d4a fef3 2940 d5bf 81b4 df24 0eeb d83f
00000290: 1b49 2893 0ea0 b2bf c80d dcbf 70b6 be3f
000002a0: 8601 8faf 925b 733f fae3 fd14 721e b1bf
000002b0: 3f1b 02dd ff02 d63f 81d8 0ce0 c8f4 bdbf
000002c0: cf7f 741b 00b4 d4bf f460 405a de2f c43f
000002d0: 44b0 d18a 53d8 cabf d97c 05b3 a4b2 c63f
000002e0: 0bf5 2844 86e9 ccbf aea5 3751 2c45 c0bf
000002f0: c22c 37e9 f11a d33f 86a8 6c97 5bf8 d0bf
00000300: 3f89 9dff c5be d23f 6f96 ad2a 955d b93f
00000310: ac22 a30b 22af d53f 8e04 c176 5f46 c0bf
00000320: e9b6 5c4c 8b8c e3bf b68c cb08 e46b bd3f
00000330: 239b e5bc 1ea8 c5bf 85fd 2e27 8ca1 9abf
00000340: f41c 7b70 ad7b c93f 29a8 87a3 8c90 cebf
00000350: ad0b 59a3 006c b53f 9b2e bf7f ca04 cb3f
00000360: 85bb 7182 2acc d03f d798 0ddd e8b1 debf
00000370: 79d2 d6ec 1c7a ce3f fe63 2e1d 9465 af3f
00000380: 4304 9f76 892f cb3f 8b2a 5785 c894 c33f
00000390: 8025 eee3 10f4 ddbf 766c ac10 d5da b0bf
000003a0: f27f 20a8 f5bd c33f b199 9b3a 9e75 ce3f
000003b0: d093 5549 b9b8 c9bf 0951 b662 1029 ab3f
000003c0: 319f af28 60a8 9d3f 5dbd 6540 2a2f ccbf
000003d0: b2b0 62fb f7b9 cebf 3103 35e0 66c4 cc3f
000003e0: b4e2 a223 998b c1bf 4990 31a6 9334 c33f
000003f0: c37d 24d3 0e50 cabf e369 cb8b 379d bcbf
00000400: f45d b8c0 7694 c63f 45b2 966d 81b8 d23f
00000410: ef1e 0f74 ad17 e13f c4b4 dc8e 3592 cdbf
00000420: 6905 c8fa 2e42 c3bf 7d59 70ab a5ba da3f
00000430: e7d2 33a7 5380 b7bf abc5 4d9b 4f32 c5bf
00000440: 1de3 8662 1f35 c13f 5d4d 139e a9c7 b63f
00000450: 3652 0f51 432f c4bf 17a5 bf1b c63d e13f
00000460: 9f9d 9c19 f46c ccbf 401b fc1d 6579 bf3f
00000470: 844a e184 a78f 9ebf 2b4b 41a4 9e29 8d3f
00000480: 11ef f7bd 6325 e13f d369 b479 c155 c33f
00000490: 5ef7 f24e 3653 cc3f 46cc fdc9 157e c4bf
000004a0: 4580 de85 baf5 b23f f1fd bf6d 9897 b53f
000004b0: 968b 96f3 d0fb b9bf dcf6 6162 b4b0 d13f
000004c0: 362a a31d 46b8 b73f ff65 f564 b67e 8cbf
000004d0: c316 7b3d c1d3 b5bf b87b 28d9 d057 cebf
000004e0: 00b8 91fe 8151 c23f 5f14 2c9e 8d57 b93f
000004f0: dd48 bf14 869c d33f 5db9 7c68 b623 d23f
00000500: 5173 47ed e3ea b6bf aee7 dc8a 88cf a13f
00000510: 9e01 564c 06a2 cc3f b162 abaf 7649 d5bf
00000520: 69b8 8b57 cd52 d13f 2a6e 373b aa08 a8bf
00000530: f1aa 2039 1498 cc3f 8b27 df03 5119 c03f
00000540: 9057 3735 abd8 c4bf 106f 07a0 2bfb b3bf
00000550: c709 8a62 dc76 b1bf 857a 3983 9b7c a4bf
00000560: ca9c 686c cc89 ca3f a789 7e7e 09c1 c13f
00000570: 642b 5b28 e314 ddbf 5ed8 b875 6781 dbbf
00000580: 6539 2743 012c b4bf ae8f 990d 0243 c2bf
00000590: 1332 f96f 6df8 b9bf 197e 11a1 ecda c2bf
000005a0: 22da 893e 5228 ccbf 20f0 1e04 d70f a23f
000005b0: a520 f5a8 25da 6b3f c0bb 67c4 7f93 c23f
000005c0: f24e 9fee 329e c4bf 2d22 2423 5189 d0bf
000005d0: c2b0 6e00 4d68 bf3f a7df 9ecb cf42 d3bf
000005e0: b6dc 99d7 16cd ce3f d8b7 2547 08cf bbbf
000005f0: 5a45 80fd 8311 e83f 8fce 5c7d a04f a1bf
00000600: fe05 e643 029d a43f cd73 51da aae8 d73f
00000610: c209 e5a9 d877 c2bf 2be7 3d1f b1c8 d13f
00000620: 4225 8183 4fc7 a0bf f407 3bbd 185f b23f
00000630: 6b1a ac2b 6ddb c8bf f500 4205 23d1 ed3f
00000640: 9185 82af acb7 aebf f141 dcd8 92ba 813f
00000650: a1a9 fcde 3d92 cbbf dfbc a64d f3d8 bd3f
00000660: 2842 3e5c 05b1 e73f 308b 81d4 7139 db3f
00000670: df5c e0cf 492f cfbf 301b b84d 9d9f d3bf
00000680: 1a39 4335 7710 c6bf 118e bf26 6360 d73f
00000690: 5292 1033 397f c03f d630 72cf 98f6 de3f
000006a0: cad4 5331 0904 d53f 10f2 6ff3 a9ab c2bf
000006b0: 07b8 7dcf 4a6b d33f 3257 ae2a a8c2 aabf
000006c0: 06da b742 1187 c33f 297c 81f2 32f7 823f
000006d0: 5410 6635 f192 bb3f c60a 8f11 eefd b13f
000006e0: 509b 311d 3d2b e2bf 3822 094b de51 c1bf
000006f0: e0c5 2265 b94a c0bf efcf 6e82 6802 dfbf
00000700: cc6b 0893 3477 bbbf 99ac 33a3 4072 cabf
00000710: 2e47 9879 13eb c53f 5111 cb68 2606 d33f
00000720: cf23 8831 35d0 d23f 9455 15f5 b6d0 ddbf
00000730: 0cc7 ae31 5572 d03f 86d7 eccc 775a d33f
00000740: b8e7 4572 35c9 ce3f 8116 24ab 6947 b43f
00000750: dc5d a8a7 b577 e5bf c719 bb75 818b d6bf
00000760: 0d81 9837 659f d1bf 832e 44cb 093c c1bf
00000770: 164b b7d2 75e6 e0bf bda1 788e d91b a53f
00000780: b82b ff8f f42b cc3f 14d3 ee14 d395 e0bf
00000790: db1e fa5c 7b96 d2bf 5353 ff1f df51 c73f
000007a0: 8e79 ee92 4b0d c93f 770c 6981 3238 cd3f
000007b0: f128 177a 1497 c2bf 4c46 d1b7 55a7 c9bf
000007c0: 504c a33d f7db c8bf 14f4 fc4e 0bea 97bf
000007d0: bae0 08e5 1c3e e03f f5b5 c51c 77ba aebf
000007e0: 93a3 ab56 e87c ae3f 8543 6122 588a b93f
000007f0: a782 5ea5 6f7d ba3f 15c5 c184 1f01 adbf

linears.2.bias f8 [30]
-0.058441232978674845 -0.08175157024539034 -0.06283385940865029 -0.04899424736241935 0.02600882629304608 -0.038847849497490566 -0.041571256293008334 -0.03308309376746273
-0.006813345763476494 0.014704680979991171 -0.0300503215039764 -0.04224730657412146 -0.08992140788183878 0.07394450302584979 -0.07387433327443317 -0.014667460906490295
-0.04926199335024027 0.03541717736347927 -0.03141558375938339 -0.01947576578326783 0.030762485102873913 -0.016666920382303795 -0.14386720978230969 -0.027212420901542706
-0.028657630020856844 -0.00639816556852906 -0.043614302046152506 0.02513598547267528 -0.05717626059071722 0.07768292552200495
00000000: 0c3d c360 02ec adbf cec0 99c0 abed b4bf
00000010: 79da 3d3b e115 b0bf 363a 3a24 c615 a9bf
00000020: 920a 58c9 0ea2 9a3f 742a 3986 dde3 a3bf
00000030: 77d6 76e4 d348 a5bf 0b42 906b 44f0 a0bf
00000040: 1603 b093 4fe8 7bbf 21e5 41df 7c1d 8e3f
00000050: ee1d 60f0 82c5 9ebf 90ed 2860 70a1 a5bf
00000060: f811 10e2 1605 b7bf 1a0a 37e6 06ee b23f
00000070: 5170 6da5 6de9 b2bf 8116 4547 f909 8ebf
00000080: be06 c034 de38 a9bf 004d fc44 3322 a23f
00000090: 35a0 a911 b415 a0bf 042e 6a84 74f1 93bf
000000a0: 5995 d76d 3380 9f3f 463d de17 2211 91bf
000000b0: 57ab 7da0 3d6a c2bf 35b9 44a7 92dd 9bbf
000000c0: 1bbd e1fe 6c58 9dbf 368a f07d f634 7abf
000000d0: 9628 da21 9d54 a6bf a642 3b6e 3fbd 993f
000000e0: 0e7d b0f2 3446 adbf f819 9338 07e3 b33f

linears.3.weight f8 [30, 30]
-0.07726540245728167 0.1348953262044559 0.1409811478740142 -0.14829633912463414 -0.4120106862720933 0.20667415392132613 0.244727987317272 -0.17278392216780744
-0.32354127707423286 -0.4401233994253218 -0.25496038937046894 0.08809388733879993 0.15816477601448697 -0.04797003103292107 0.21918046042091255 -0.4754489512194046
-0.20505547581705139 0.37600324722907663 -0.2149712371112518 0.37552300739728706 -0.0647672934565247 0.3686573675395169 -0.12232939579139639 0.038552810817961386
0.06585791479675454 -0.15514902472557357 -0.18968368563216542 0.12493395086895528 0.3041144190216549 0.04263188130857284 -0.16327450882045563 0.1551052965994424
-0.2905734634523242 -0.2674449776756074 -0.2170789460533613 -0.12158180083771836 -0.07335402166115788 0.08558038590767104 0.0033927115955365962 0.17222386499818984
-0.12263272545548252 -0.2717487167402692 0.036648850412725704 0.06820793555587887 -0.34407122512376265 -0.011997272546098406 -0.28212783490911997 -0.2715181366309857
-0.3350639972971245 -0.16942477436276282 0.6022030031627422 -0.20355336081607783 0.01313844581169324 -0.38693744132629126 -0.24192791752871637 -0.16363986896326985
-0.2060976437609804 -0.009478128118728207 -0.3538110659585775 0.376391032833288 -0.04585597222774599 0.14137787097104265 -0.37782433254782744 0.028682252207432365
-0.12572446196497652 -0.2062399737652438 -0.1586860847313052 0.01338901400767796 -0.677861604150157 -0.36327702889632824 0.09346471588931658 -0.3647216143526618
-0.22205199630126898 0.13430873199003449 -0.0034991826660878108 -0.38106672018775 -0.3742212316428164 0.1356655046198007 0.20584786210566802 0.000638034391645031
-0.42232803086473103 0.22126713560067743 -0.4891775508613564 0.03301010330818461 -0.19880887985033174 0.02654227354213727 0.008466382001845754 0.11925788875529986
0.022284051400224946 0.247992371191033 -0.23476373713593252 -0.24626031577932336 -0.10982588576116711 0.13202613291746643 0.06979043930532912 -0.3460061290441691
-0.2417425779010403 0.1893703339756114 0.4442584163755766 0.27892560554880813 0.2248816004873511 -0.026056997514871234 -0.28837131667771243 0.06908469130159288
0.23998976245740758 -0.0035629512825095175 0.05004321867563352 -0.22555909624025391 -0.3164901043661661 -0.5596721245759728 0.45719144808607426 0.010565999070280913
-0.10993921820572841 0.0343290113351403 -0.11252026948632303 -0.16840317454043632 -0.25897190026150524 0.24525438614932185 0.08222333434452272 -0.21217931897786815
-0.16311531959757505 -0.2278191317332783 0.16536583662026944 -0.050275344749239774 -0.2677194194860959 -0.1707227696847482 -0.514944793186233 0.3421325086568983
0.05169393035189436 -0.47449202123950524 0.3490439169261053 -0.15098361902154697 -0.1669041364678782 -0.3559289794170248 0.5078292330587189 -0.5159637764017592
0.3418808868465858 0.16232804432964845 0.8551573831461049 0.5300937912598551 -2.4371003587260516 1.5374671720099395 0.12370093151178976 0.37823473458935
0.030639600227675992 -0.5577236447855526 0.36763102879890763 -0.15401318135523917 0.4077327364009477 -0.6161868283904182 0.10849925229595253 0.1912266138065557
-0.2620940541183328 0.14479648804827203 -0.6451267483480739 -0.25807653660115143 0.016758895630528303 -0.1348771277241551 -0.2773090117597092 -0.5085345459541716
0.20392584084429358 0.18055806117337792 -0.05883039793502275 0.17069902472506257 -0.051898137931508735 -0.6415165566173946 -0.020820762289917916 0.15169730390006964
-0.11795896406083918 0.6877755794197734 -0.35443200808335945 0.1172048235507532 -0.4395913277956003 -0.21056752011067503 0.1530836985452579 -0.11891834503920878
0.10995283866869665 0.26499896061042744 -0.17951975337711745 0.23641740093556973 0.012475852479481155 0.04763467117074063 0.2980880890398734 0.16989265407570273
0.13038004961745875 0.22477774481199495 0.37669915970030193 -0.16142576132296618 0.1607889948098017 0.4698218490140983 0.20294175026040584 -0.06339564699441763
-0.24403434398270551 -0.15965615655560184 0.11728113440353843 0.6928556164749841 0.29329548689695895 -0.11110222291950173 -0.2738729947737788 -0.41757325313400284
0.3111035122889711 -0.19380305671802198 0.4054784196462936 0.10308105544631242 -0.04252930509534251 -0.22169448365012298 0.16318721035691755 -0.1972197445572782
0.013473408379976548 -0.05403521790427347 0.07062283395385792 -0.4348768604245613 0.13864774937774724 -0.259472533408789 -0.020323288716057628 -0.014849462176890352
0.09993792253391652 -0.2712761449158757 0.13065613159440398 -0.06040155734116447 -0.2021684077274921 -0.28777557100151757 -0.23461789241581588 -0.02035129279413939
0.22701259298972917 0.1351468536806149 -0.08145001853018773 0.1126252205775224 -0.2714460009524767 0.10861961131869032 0.08097742592654471 -0.15610032289378714
-0.20384865450533896 -0.20030353843372925 -0.23417849813658517 0.09844735055413283 -0.31187141360771103 0.22658105091223252 -0.3737811359267375 0.12433997921951863
-0.15221145937791622 -0.14221169108519213 -0.1569857675555944 0.14623907379787907 -0.09971523243607254 -0.25773930187890376 0.41917538973220453 -0.3941201052702509
0.37980203093668247 0.005195478141997416 -0.06950707104853732 -0.02820715010532738 -0.3205790035810434 0.3057333503677239 -0.2702612001234617 0.3480963159668935
00000000: d292 aa58 aac7 b3bf c937 3703 4044 c13f
00000010: d957 bc95 ab0b c23f f812 54db 5ffb c2bf
00000020: b708 c911 625e dabf e7a1 0276 4c74 ca3f
00000030: 6dc7 f826 3f53 cf3f b31f 7e97 c81d c6bf
00000040: 6627 fc78 e6b4 d4bf 4d1c af55 fb2a dcbf
00000050: 22c8 8761 4551 d0bf ddff 182d 528d b63f
00000060: ec41 2e4e be3e c43f cff1 f224 878f a8bf
00000070: 9c0b b7f6 1a0e cc3f efe8 1970 c16d debf
00000080: 83fe 3f01 423f cabf d879 82ec 6f10 d83f
00000090: 419b 7c70 2d84 cbbf b8ae eaa6 9108 d83f
000000a0: 8307 3fdf 9694 b0bf 51bf 4012 1598 d73f
000000b0: eb73 43b2 fa50 bfbf 0498 43ab 31bd a33f
000000c0: da1c 3c76 10dc b03f e8ef 9959 ecdb c3bf
000000d0: 94fc 2f15 8e47 c8bf 6e69 24e1 abfb bf3f
000000e0: c029 fc52 9c76 d33f fb7b f98f d8d3 a53f
000000f0: c6c0 d3d9 2de6 c4bf b85d 2a88 7dda c33f
00000100: 673e a770 c198 d2bf e027 268a d11d d1bf
00000110: d083 f92e 3ec9 cbbf 6404 6322 fc1f bfbf
00000120: 5f93 1044 54c7 b2bf a90a a79e 98e8 b53f
00000130: 5a74 1f2b 08cb 6b3f 5304 e17d 6e0b c63f
00000140: 372a 40b9 db64 bfbf 7b48 c8ba 5464 d1bf
00000150: 91d4 ea5b a3c3 a23f ee48 8a44 1376 b13f
00000160: 7ead d950 4305 d6bf 8843 d0a9 0692 88bf
00000170: 1676 0ee8 610e d2bf da75 469b 8d60 d1bf
00000180: db52 9d43 b071 d5bf 6897 8204 b6af c5bf
00000190: ff61 843b 3f45 e33f a214 d959 090e cabf
000001a0: 91e4 a658 54e8 8a3f aa09 0642 95c3 d8bf
000001b0: 793a e376 7ef7 cebf 976d c2b6 26f2 c4bf
000001c0: 8437 de57 6861 cabf 16bd 60d2 4469 83bf
000001d0: be51 502b d7a4 d6bf 60b4 216a ca16 d83f
000001e0: 95c2 161a 6f7a a7bf 2e70 198a ab18 c23f
000001f0: b842 fb1b 462e d8bf bf80 d35c e15e 9d3f
00000200: c32f 393a bd17 c0bf 278d 394b 1266 cabf
00000210: a828 205c d34f c4bf 682e 4f0a b36b 8b3f
00000220: ab3f a1d1 0ab1 e5bf 93db 9f4b ee3f d7bf
00000230: 7715 13ba 4ded b73f 167f 7253 9957 d7bf
00000240: 2e0f 1027 336c ccbf 5972 bb4d 0731 c13f
00000250: ba6c a263 51aa 6cbf 4039 33ab 6563 d8bf
00000260: b0fb d79b 3df3 d7bf e6c8 c4bc 7c5d c13f
00000270: 9e01 d905 3959 ca3f fb70 446c 38e8 443f
00000280: d8e0 2f26 6c07 dbbf 1fd1 8a43 7b52 cc3f
00000290: 02c3 b85b af4e dfbf 39df 4a44 b3e6 a03f
000002a0: de47 8ec2 9172 c9bf ccc3 4cd3 e52d 9b3f
000002b0: 68c8 818e d256 813f 0878 fe5b af87 be3f
000002c0: 8305 f25f a1d1 963f 3024 f6c9 36be cf3f
000002d0: 968d a4f6 bc0c cebf eb93 4941 7585 cfbf
000002e0: ae33 999b 8c1d bcbf eb86 8c79 3be6 c03f
000002f0: f7cd 6346 c9dd b13f ef74 1de4 f624 d6bf
00000300: a25e 11b9 6bf1 cebf 2f01 a17f 493d c83f
00000310: 1693 53da ba6e dc3f 1958 76c8 ead9 d13f
00000320: 195c c897 ebc8 cc3f 0220 a280 afae 9abf
00000330: 140e 8ff7 ac74 d2bf b76a cbc9 88af b13f
00000340: 558f 900a fcb7 ce3f 3032 8ae7 0c30 6dbf
00000350: 6c64 32c7 439f a93f 0b67 d5d6 1edf ccbf
00000360: eca8 f0b5 5f41 d4bf 2a2c f183 d5e8 e1bf
00000370: b698 62eb 9f42 dd3f 10c1 a663 a0a3 853f
00000380: 22cd bd02 fa24 bcbf ec14 fa79 9293 a13f
00000390: 83b3 94dd 20ce bcbf edcc 9837 3c8e c5bf
000003a0: 6131 8de0 fe92 d0bf 4d1f dbe7 7e64 cf3f
000003b0: 0451 faa3 960c b53f 25e1 f221 b128 cbbf
000003c0: 53f7 9279 f6e0 c4bf 3149 1964 2d29 cdbf
000003d0: 3e72 142e b52a c53f ef78 fca2 b0bd a9bf
000003e0: cc99 cca1 5022 d1bf 9840 3d64 3eda c5bf
000003f0: 105f bf80 6d7a e0bf b11b e5bf 7fe5 d53f
00000400: 7ab3 8678 a077 aa3f 75f1 5bc8 135e debf
00000410: e92e 044c bc56 d63f 3ff2 f664 6e53 c3bf
00000420: 152c d95f 1d5d c5bf a7dd 9257 8ac7 d6bf
00000430: 2614 7e17 2340 e03f 691e 3277 c682 e0bf
00000440: 4a8c 085f 60e1 d53f 114b cf54 2ac7 c43f
00000450: 6d74 3104 735d eb3f 62c2 2841 87f6 e03f
00000460: d662 0e79 2e7f 03c0 fe4c 672d 7799 f83f
00000470: 7aef 533f ddaa bf3f 9c70 d175 ff34 d83f
00000480: a4f3 c2c3 fc5f 9f3f 73ea d141 dfd8 e1bf
00000490: c2e9 6b4b 4487 d73f fe6d 8934 b4b6 c3bf
000004a0: 3371 160c 4b18 da3f be35 8570 cdb7 e3bf
000004b0: d466 4064 9bc6 bb3f f044 361a 1d7a c83f
000004c0: c983 ba23 26c6 d0bf 131a 5ffa b088 c23f
000004d0: ebc0 bdd9 e0a4 e4bf f747 2473 5384 d0bf
000004e0: 13cd 9972 3e29 913f 5ede 465a a743 c1bf
000004f0: cb37 194c 6ebf d1bf cf4c 783d ea45 e0bf
00000500: 3d26 9ef0 3d1a ca3f e068 e2cb 861c c73f
00000510: 4f7e 4896 041f aebf 579d 5334 77d9 c53f
00000520: ab3b 478a 6492 aabf ac74 d0ba 4d87 e4bf
00000530: 00b3 73b4 0952 95bf b432 9237 d16a c33f
00000540: d14d e904 8f32 bebf 550d 93ee 4102 e63f
00000550: a9e9 d796 03af d6bf ce7c 15a4 2201 be3f
00000560: 3c30 1faa 4322 dcbf 6cd2 3c62 e0f3 cabf
00000570: c7bb 6623 3f98 c33f 0c7d d6c2 6e71 bebf
00000580: e835 2f86 de25 bc3f 07ee 5233 bef5 d03f
00000590: 6ccf ded6 80fa c6bf a89e 9ce6 ec42 ce3f
000005a0: 4edc 1c93 f08c 893f f407 ab55 9263 a83f
000005b0: 9437 7010 e013 d33f fbfa 8ae0 0abf c53f
000005c0: 3034 9420 4bb0 c03f 0707 6b63 84c5 cc3f
000005d0: 8bfb d5ca d61b d83f e998 ce6e 99a9 c4bf
000005e0: 5ce5 21d9 bb94 c43f 2a8e 1da9 8f11 de3f
000005f0: c043 2eca fef9 c93f acbe 8c76 b23a b0bf
00000600: 20d6 4073 843c cfbf 7074 81e9 9c6f c4bf
00000610: 4c73 b3ec 2206 be3f eb84 b38a df2b e63f
00000620: 825b 126f 5ac5 d23f dcc0 f3fd 3171 bcbf
00000630: c0e6 f398 2287 d1bf 9445 792a 85b9 dabf
00000640: 5beb bcb4 1ee9 d33f 97ff 3bdf 89ce c8bf
00000650: 8655 e7c1 5bf3 d93f a1a4 fa21 8563 ba3f
00000660: d51f 03ad 66c6 a5bf a38d 7d1e 7c60 ccbf
00000670: 25e1 cd89 51e3 c43f b4de 7f20 7f3e c9bf
00000680: 7378 dc42 f297 8b3f 3251 760b 81aa abbf
00000690: afc2 2e8a 5614 b23f a6e1 53c1 05d5 dbbf
000006a0: 23e7 9e9e 35bf c13f 73dd 4caf 329b d0bf
000006b0: 09d1 87d1 a0cf 94bf d5af 4d13 6569 8ebf
000006c0: 7fd1 e91c 8895 b93f 2a50 a69e 965c d1bf
000006d0: a223 1c12 57b9 c03f 3fc7 d0f2 f3ec aebf
000006e0: 1fab bc85 a7e0 c9bf f982 823a ea6a d2bf
000006f0: 7cbe 7d87 f507 cebf 81b8 ed23 f8d6 94bf
00000700: d3e4 55a7 bf0e cd3f c296 5bfa 7d4c c13f
00000710: 1783 d88d e8d9 b4bf 9dd2 15a7 01d5 bc3f
00000720: c522 2e0c 5f5f d1bf dd68 51ae 7ece bb3f
00000730: 0b9b 11c4 efba b43f 4fa7 dc6a 18fb c3bf
00000740: 6c8e 3774 b617 cabf f747 6cdd 8ba3 c9bf
00000750: db25 769f 8ff9 cdbf 5302 0277 d833 b93f
00000760: 7527 8084 b3f5 d3bf 4eda c79d 9b00 cd3f
00000770: 3fb1 aab6 07ec d7bf 7549 55b0 bed4 bf3f
00000780: f762 0d44 aa7b c3bf bbed 2821 fe33 c2bf
00000790: b25b cb10 1c18 c4bf f5fa ad43 f6b7 c23f
000007a0: 2bd9 39fe ef86 b9bf 4bae 1dfc cc7e d0bf
000007b0: 1b06 8c03 c5d3 da3f 4a3c b588 4339 d9bf
000007c0: a3f4 742d ad4e d83f 1fb7 4f8b da47 753f
000007d0: f484 fe24 37cb b1bf 02ec dccc 55e2 9cbf
000007e0: e08c 0acc 5d84 d4bf 7b0e 489d 2291 d33f
000007f0: 551c faa1 f54b d1bf a0e5 3bc5 3547 d63f

linears.3.bias f8 [30]
0.005391761567975843 0.04218127998141352 0.08220543736516688 0.04365040185957609 -0.045865804779139055 -0.00859966410651848 -0.01483872842827614 0.10527005365292937
0.07717877810653834 0.060688024465770506 0.021574621187228027 -0.10644466001001422 -0.04126372411061101 0.0552073668998633 -0.014471217162096903 0.04688696953200974
0.06065152163192952 -0.13191256437418367 -0.19955961183039742 -0.12905981725865248 0.09534787629349847 -0.10570239722101095 0.029837550878945077 0.09631142358057734
-0.009082699451611057 0.0024191912613581953 0.10676167371857702 0.05897823680299136 -0.09133611266514537 -0.0637061973969708
00000000: 91f6 a2f9 ab15 763f 1014 0ce4 c898 a53f
00000010: a369 0961 6a0b b53f e965 e370 5859 a63f
00000020: 52ef 0f07 b97b a7bf 07ae c060 b39c 81bf
00000030: 3466 826a c463 8ebf cdff af6d faf2 ba3f
00000040: c4ae e907 fdc1 b33f f3bc ad30 8012 af3f
00000050: f0e0 b051 a817 963f 73ac 930d f53f bbbf
00000060: 56ea 21d3 8420 a5bf 5497 aad6 2344 ac3f
00000070: 9260 8ee3 15a3 8dbf 5c3f 7fa1 9101 a83f
00000080: 6c3a b95b b70d af3f 2195 f5ca 82e2 c0bf
00000090: 55fe 345b 2b8b c9bf 5d44 2d37 0885 c0bf
000000a0: fe72 6cea b768 b83f 914c 2cf3 4f0f bbbf
000000b0: 5108 df24 bc8d 9e3f 2281 828e dda7 b83f
000000c0: e220 d548 f399 82bf 75ad 356b 69d1 633f
000000d0: 1f67 16a9 bb54 bb3f 183b 7d3c 6532 ae3f
000000e0: a52f d7b0 cd61 b7bf cf5c 5fa2 0c4f b0bf

linears.4.weight f8 [3, 30]
-0.2516072379456654 -0.2510170134710174 -0.1704434069204208 -0.19463632450475918 0.09524793542843722 0.20339912046550437 -0.23200016886574437 0.17578329416904798
0.07772289208906084 -0.09702012154025973 0.27184244042283884 -0.41896904870358986 0.20192972223329972 0.20481472382619545 0.09039095594410762 -0.29951279422027743
-0.08022003405940763 0.23591220080569109 -0.4199100750470477 -0.47858039694153404 -0.2997918398172243 0.3314093709395142 0.3433215094252202 0.28340631760684026
-0.03334472703838456 0.008986390109988692 0.03787240239450221 0.1747568827465035 0.24066929360824085 0.24457610438436647 -0.14727933892343945 0.03755769027561618
0.1291953785668249 0.12374786176817941 0.07266980071889076 0.3000623604547748 -0.30883358189965365 0.6007670325348469 -0.08533122501315159 -0.31461201052506554
0.04324862859293791 0.3531450270341588 -0.3745661521362581 0.07179762717527546 -0.4637557046338231 -0.10960499114005401 0.3538930883939696 -0.5595200196433187
-0.4310414861762684 -0.31922213219795853 0.06823810149232033 0.08958375083603679 -0.010632007982082125 0.3553956932855822 -0.08248746197420068 0.11815919347280168
0.4413207691640144 0.2399360234369195 -0.5525435522376831 -0.5982112451143271 -0.4539761684012778 0.47157637103037947 -0.6071090654082975 0.35458234348757667
-0.5370344185008066 -0.5998627930366817 0.6417990836983375 0.7069357775871238 0.6642563204583989 0.5572598624641777 0.3792475747210078 -0.7170706458865828
-0.5710859645327276 0.46705385126310683 -0.4005388113140127 -0.8144691256972209 0.37845285557562175 -0.30111695907940694 -0.2282843431195754 -0.23560685474762172
0.694844211847765 -0.5718644648898781 -0.7126317855880486 0.8158318479964987 -0.557259345159821 0.4606606359792758 0.5464957518522111 0.46783833628625304
-0.6815104736552475 0.19075191924313367
00000000: 2a77 9a3e 551a d0bf 433f e6a9 a910 d0bf
00000010: 2761 45ed 16d1 c5bf 6348 2ed4 d7e9 c8bf
00000020: 6f39 ad2f 2b62 b83f e19d 377d fb08 ca3f
00000030: d4f0 f878 2eb2 cdbf 96d1 d125 1180 c63f
00000040: 3b4d acbf a5e5 b33f 9fc1 1189 4fd6 b8bf
00000050: 9dfa d1d5 dd65 d13f 2af6 8d8e 63d0 dabf
00000060: a38b 8a48 d5d8 c93f e750 496e 5e37 ca3f
00000070: a055 a297 dc23 b73f 0638 fab5 372b d3bf
00000080: cbe7 c4d6 4c89 b4bf c00a 98f9 5e32 ce3f
00000090: 64a1 e581 cedf dabf b3b7 57ac 0fa1 debf
000000a0: 7bd9 e71c ca2f d3bf 3b7b 71a6 cf35 d53f
000000b0: c8a8 bfc7 faf8 d53f 8979 6640 5423 d23f
000000c0: f370 3f60 8f12 a1bf 7e4f 0ddd 7467 823f
000000d0: 3422 69f3 0264 a33f 75d5 12fc 6e5e c63f
000000e0: d072 995c 40ce ce3f 4362 db10 454e cf3f
000000f0: f7bd 06a4 0cda c2bf 31e6 e4f6 c23a a33f
00000100: b692 de62 7989 c03f c787 3e9b f0ad bf3f
00000110: ca95 7ef1 7c9a b23f 0d7c 3ac2 3834 d33f
00000120: 5f98 8aed edc3 d3bf 7e11 a8c8 7b39 e33f
00000130: 9754 c264 44d8 b5bf df92 086a 9a22 d4bf
00000140: 059a ce2a af24 a63f f5d4 7699 ed99 d63f
00000150: 5248 674f e4f8 d7bf 06f1 a54c 5461 b23f
00000160: ce15 2f68 2cae ddbf 5cc6 6c9c 120f bcbf
00000170: aeae 3b32 2fa6 d63f 1d69 3a87 96e7 e1bf
00000180: ed29 9607 2f96 dbbf 95c6 7caa 226e d4bf
00000190: 3f2a 405e 0d78 b13f aa02 18f0 f5ee b63f
000001a0: 9940 97f4 3bc6 85bf ac40 f393 cdbe d63f
000001b0: 425d 82f7 e51d b5bf c0fa af4f ae3f be3f
000001c0: 70b8 a677 993e dc3f 2a9d e53e 39b6 ce3f
000001d0: a03f cfd0 6fae e1bf f8b1 bbe8 8b24 e3bf
000001e0: a199 1c0f f20d ddbf ef13 c9a8 4e2e de3f
000001f0: 9514 a1fd 6f6d e3bf de29 4124 7ab1 d63f
00000200: e731 09ce 622f e1bf a1c0 c574 1332 e3bf
00000210: bdc9 623b 9e89 e43f 257d a3c7 379f e63f
00000220: bcf6 9078 9641 e53f f906 95a2 12d5 e13f
00000230: 1ce6 a09e 9745 d83f 9e24 a023 3ef2 e6bf
00000240: 01ed 9b12 5646 e2bf 4c56 29d6 35e4 dd3f
00000250: 64d5 d789 6da2 d9bf b314 4f8e 2110 eabf
00000260: 599b 7153 9238 d83f e816 e110 8045 d3bf
00000270: f296 f1dd 6b38 cdbf de5e ed8b 5d28 cebf
00000280: f96e b6ed 293c e63f 464a ceb4 b64c e2bf
00000290: a61a a62c e1cd e6bf 3dc4 4564 4b1b ea3f
000002a0: 0142 db8c 11d5 e1bf a979 85bf 767b dd3f
000002b0: 3276 b3a8 e47c e13f 4887 8a34 10f1 dd3f
000002c0: 5e62 870d efce e5bf fe34 6613 8f6a c83f

linears.4.bias f8 [3]
0.08767260040255129 0.14618725916526246 0.22766826003361573
00000000: c6f6 7b27 b671 b63f 7174 9a9c 43b6 c23f
00000010: c83e 97c9 3b24 cd3f

step f8 []
50000.0
00000000: 0000 0000 006a e840

exp_avg f8 [30, 1]
0.01070218771754891 -1.4837022037133751 -3155.1046203057704 -31470.865232368025 5.615252690533796e-06 -1.0305921835736775 -156637.20708397686 -40023.59374345304
-175.64685671647305 0.003329078615463044 -0.00014942300131205472 -0.0022827300903124847 2203703.1905800696 -0.02069448026719221 4.229412452877097e-06 2.500747549696759e-07
2.433367585301269 -2.6091922770284165e-06 44.24244270361542 -0.00030385885941429294 -560.3576373012047 -15338102.348709645 107980.58503228439 0.004180554565007972
1242656.2228243449 3.3338053934831417e-07 -148194.69228377726 0.0003053236864019702 -0.008098545369781177 1.0769276213531132e-07
00000000: 2fb1 f051 07eb 853f b43b 9f85 3ebd f7bf
00000010: 90ef ca90 35a6 a8c0 0795 f75f b7bb dec0
00000020: 7bb7 12e8 548d d73e 1065 bf3a 4e7d f0bf
00000030: e1a4 1ba8 e91e 03c1 2145 f2ff f28a e3c0
00000040: 644e db0c b3f4 65c0 e76c ef78 9545 6b3f
00000050: a0b1 ccce cd95 23bf 73ed ab62 3bb3 62bf
00000060: 7fed 6498 1bd0 4041 3b3c d20f ef30 95bf
00000070: fe17 eb0a 4cbd d13e f3f4 5267 40c8 903e
00000080: 9f1f b06c 8977 0340 5681 b49f 32e3 c5be
00000090: 4d97 cd5c 081f 4640 f0f6 20dd e7e9 33bf
000000a0: 0804 f270 dc82 81c0 21a1 28cb 4e41 6dc1
000000b0: 09d0 4a5c c95c fa40 ee73 2c12 a11f 713f
000000c0: 2a04 0b39 20f6 3241 6f06 321e 6f5f 963e
000000d0: b713 cc89 1517 02c1 c934 6f3f 7b02 343f
000000e0: c82a 115c f895 80bf 774f 6c1b 97e8 7c3e

exp_avg_sq f8 [30, 1]
0.002557510398205789 17.8082277251098 1733848505.7892418 217936834573.48538 2.9334070735866002e-09 4.7291849064350595 4476450609780.816 1889963015485.9104
3986699.8369585676 0.0008774512607110229 7.896866152397013e-07 0.06085364672289606 2908458812715753.0 1.0926611772580135 5.912003432436092e-11 1.308592653936333e-11
23.212080000350408 4.3052229556571964e-10 6753.922919403481 0.0020885251069758842 6740973.6608830625 1.4626225720019968e+17 6622167979462.55 0.0005055740538079578
987524116198155.6 3.5408764758011068e-12 19311787964742.434 2.4495206596991873e-06 0.039322242325156694 2.953383746214371e-12
00000000: 8587 9ff0 7cf3 643f 2b11 1f03 e8ce 3140
00000010: f082 726e 1bd6 d941 21be 0618 065f 4942
00000020: 2fec 1c60 a132 293e 6980 b772 afea 1240
00000030: 44d3 69fe 0449 9042 91de d32f a980 7b42
00000040: 5675 21eb 856a 4e41 7aaf fa3b 98c0 4c3f
00000050: 6e41 443b 5b7f aa3e 50cb 088d 3528 af3f
00000060: d265 c0ac 74aa 2443 95e9 5e49 8a7b f13f
00000070: c2dd b3db 3340 d03d 4991 adc3 b8c6 ac3d
00000080: 03a4 f9df 4a36 3740 743a c50c d495 fd3d
00000090: cb2e 7244 ec61 ba40 09b5 0061 f41b 613f
000000a0: 79e8 4b6a fbb6 5941 c0b7 e3fb 053d 8043
000000b0: 331a 57e1 5f17 9842 ae8d 6e03 1091 403f
000000c0: 5d98 3901 2f11 0c43 1a70 2a51 5825 8f3d
000000d0: 6f46 f942 6090 b142 8c0f 5239 4e8c c43e
000000e0: 8178 9581 0b22 a43f dc65 f1d0 6dfa 893d

step f8 []
50000.0
00000000: 0000 0000 006a e840

exp_avg f8 [30]
0.008343599117455476 -0.09675099010522578 -4.711077990596894 -99.79125348316693 5.351852632761725e-06 -0.10359527468723594 -288.37351920886476 -102.73148638838408
-7.164483146436155 0.006385481465375848 -0.00018651318089405684 -0.005061127559477452 3574.155720136569 -0.08352231327612736 4.742659086202442e-06 3.289825078583e-07
0.2973523836694568 -3.2033217954046533e-06 1.7110709409688596 0.025991694001538203 -15.968688272063012 -20389.819529606077 188.28230061870565 0.007045525147235588
2110.731778444967 3.467939121806343e-07 -363.6332181257183 0.0003938044558906921 0.0008030683504378586 1.474971505443918e-07
00000000: a426 b9ea 7216 813f 5689 5b42 acc4 b8bf
00000010: 8313 2ad4 24d8 12c0 1343 a6e5 a3f2 58c0
00000020: 0e97 ca0c 8272 d63e bf43 cd4c 3885 babf
00000030: 0828 47ef f905 72c0 0be5 48ac d0ae 59c0
00000040: f1be 1a45 6ea8 1cc0 e10f 02a1 a927 7a3f
00000050: 21c5 4006 5872 28bf 33d9 9415 faba 74bf
00000060: c9bb 8cba 4fec ab40 10da 01e4 b761 b5bf
00000070: 6a77 f533 64e4 d33e ce54 f35e e013 963e
00000080: 9ade cf4a d207 d33f b70e e1c7 14df cabe
00000090: 208e 49ec 8b60 fb3f da25 d10e 919d 9a3f
000000a0: 0c0f c1e8 f7ef 2fc0 0d4e 2c73 74e9 d3c0
000000b0: 679f 4e9b 0889 6740 a7c7 72c1 c4db 7c3f
000000c0: 1a12 aaab 767d a040 aaf2 6ac1 df45 973e
000000d0: 1d53 54a9 21ba 76c0 9762 5242 f1ce 393f
000000e0: d547 9a26 a050 4a3f 716e 1da8 f6cb 833e
