1D_supercritical_InverseProblem_C_initial_60/Models/Model.ckpt-9500.pt (torch, 82380 bytes, 43 tensors)

linears.0.weight f8 [30, 1]
000000 c7 a5 71 80 1b 08 d2 3f 46 a5 ff 5b 8b 4d e3 3f
       0.28174483817437274 0.6032158657882654
000010 b3 fe b5 64 df c9 69 bf 83 ad 84 c1 c2 0e d8 3f
       -0.0031480181839354747 0.37590092561978156
000020 0c 90 f7 48 04 a2 ad bf 1b 97 23 b0 46 d1 d3 3f
       -0.0578767146178337 0.30964820099903684
000030 96 f4 77 6f d2 9f e2 bf 57 f9 ec 4e fc 75 e4 3f
       -0.5820095231171247 0.6394025365369015
000040 86 bc b0 e8 2c 54 98 3f 2d 09 ce 7c a5 3d d9 3f
       0.02375860376576757 0.39438759983035504
000050 f7 8e 23 1d fc 14 d6 3f 35 f6 9e dd 7a 81 e3 bf
       0.34503081174464917 -0.6095556572469777
000060 b5 b6 ec 2e 6b ca e3 3f 23 65 c7 10 eb 11 da 3f
       0.6184593121049234 0.4073436416488951
000070 4d 7f ee 87 b2 f1 d3 bf 8f 11 d2 ca 67 07 63 3f
       -0.31162703775952566 0.002322867125771739
000080 04 c7 ce 4e 96 86 ac 3f be ec 06 73 4f f2 83 bf
       0.055714318389972234 -0.00973951406273554
000090 1f ef a3 af f9 60 cf bf 75 60 a5 56 31 d1 da 3f
       -0.24514695240201775 0.41901811086200463
0000a0 f0 ac c2 9e d9 e8 62 3f 25 bf 06 6d 23 04 d6 bf
       0.0023082971948348227 -0.3440025868139734
0000b0 6d 29 1c b7 25 68 e1 3f e4 8b 09 b4 43 83 d8 3f
       0.54396329654382 0.383011747186343
0000c0 e4 c4 f2 ab 33 be d6 3f b8 1b f4 3c 54 bc af bf
       0.3553589991743833 -0.06198371166288247
0000d0 49 89 37 eb e2 b8 cc bf 26 b4 f8 a5 6d 81 b0 bf
       -0.22439228520586088 -0.06447491933859392
0000e0 37 2d 47 4d 85 a5 d7 3f 1e 0a 70 2b 48 a0 cb bf
       0.3694775824230478 -0.2158289157960817

linears.0.bias f8 [30]
000000 6c 3b b0 86 18 72 ad 3f 28 90 2d a4 40 8c c9 3f
       0.05751110691209402 0.19959266678336118
000010 51 0b d5 c7 7e 53 c1 3f 37 15 0b e8 6f 24 c1 3f
       0.13536057240897972 0.13392447309721842
000020 10 17 be f0 56 5c 9f bf 06 37 ea c9 75 c2 d5 3f
       -0.030625685161360272 0.33999390333416135
000030 47 0f 54 c8 ca 56 c4 bf d8 73 7b 90 8f b2 c6 3f
       -0.15889868528040038 0.17732424311443995
000040 c7 20 d4 2a 57 de d1 bf 51 25 82 a0 ab c0 dc 3f
       -0.27919558699114727 0.44925966906210585
000050 a0 8a 53 ea 5f 17 c4 3f ef 60 d3 79 6b 47 d1 bf
       0.15696333829608466 -0.26998412034073643
000060 90 cf bf ec b2 65 c6 3f 83 14 b5 b4 8b b2 c0 3f
       0.17497860488913064 0.1304487831459121
000070 5c d6 48 19 5f d4 cd bf 9b 0f c2 df f4 37 de bf
       -0.23304356321902986 -0.4721653161179746
000080 19 3a 0f fe 69 8b 88 3f c4 15 17 be 74 4a b6 3f
       0.011984661165027654 0.08707360878823694
000090 7f 09 c7 31 30 33 c1 bf ee bd 4a 48 c6 49 a1 3f
       -0.13437464170972288 0.03376598007650587
0000a0 9c 65 12 4a d2 b9 e1 bf f0 29 a8 b8 b2 31 c6 bf
       -0.5539332815853188 -0.1733916665692301
0000b0 f9 53 9e 76 33 7b c3 3f 90 b9 46 a5 9e 1a cc 3f
       0.15219729701917098 0.2195623690617592
0000c0 07 13 7f d9 57 e9 d2 3f f7 35 f8 23 57 35 c6 bf
       0.29549213638192423 -0.1735028195984538
0000d0 d9 6d 69 4e e9 e0 c3 bf 14 48 c9 13 c1 85 b0 bf
       -0.15530124977782014 -0.06454092724860089
0000e0 93 27 a8 2d e1 ca c1 bf 6e d5 7e 91 d1 5f b7 bf
       -0.13900389413202827 -0.09130582620749347

linears.1.weight f8 [30, 30]
000000 b1 e6 c0 b6 64 27 c9 bf 2e 72 2d d2 6c b6 b3 bf
       -0.1965146915770695 -0.07700233584677882
000010 8b ae 80 8e a5 b1 d1 bf 90 70 6b 25 69 6f c3 bf
       -0.27646769443774905 -0.15183748557217713
000020 75 c4 d0 85 84 fe c1 3f a0 07 6f a9 6c cb b5 bf
       0.14057976278266762 -0.08513526093068302
000030 2d d5 33 80 8a 8a c5 bf e9 4a 1d c7 a8 b9 9e 3f
       -0.16829043636213595 0.030005108979206083
000040 18 bf cb 47 6d 8f c1 3f e7 96 1b 55 30 81 a8 bf
       0.13718954091700009 -0.04786063231385445
000050 d2 74 e0 d4 f2 0f d2 bf 62 6c 68 cf 05 39 c2 3f
       -0.28222342289684577 0.14236519458140423
000060 34 9b 07 d5 45 db c1 bf b1 b6 95 a2 8e de ad bf
       -0.1395041742500439 -0.05833860144308057
000070 e1 95 40 af f0 b3 ba bf 47 67 83 43 19 04 db 3f
       -0.10430816916103637 0.4221251639661329
000080 da 44 67 e4 9f 0f b2 bf 43 e4 38 84 83 e8 bd 3f
       -0.0705509121537661 0.11682912805635319
000090 02 c3 b6 5d 26 47 bc bf 03 2f bb 8b c4 c7 d2 bf
       -0.11046066081940967 -0.2934428562700619
0000a0 02 2f 0c a1 78 86 da 3f 7c 4f 00 56 fe 05 d0 bf
       0.41445747115425047 -0.25036581419521275
0000b0 46 d0 f9 3d 32 74 d3 bf 6f d6 50 1e 93 9a be 3f
       -0.3039670567734486 0.11954612245684769
0000c0 ee 90 2d 6b f3 30 c1 3f 9c 96 3f 1f f2 d7 a5 3f
       0.1343063615160029 0.04266316062402817
0000d0 b3 38 6c 5a 4b 0a c1 bf 36 f8 da bb 5f fe d1 bf
       -0.1331266585843359 -0.28115075440644277
0000e0 d8 3c 2d 55 56 8c b6 bf af 3e 82 b0 55 db a9 3f
       -0.08807887629994882 0.05050151614807185
0000f0 23 5a d2 e8 b0 63 ca 3f c4 04 7d f6 47 b2 b2 bf
       0.20616732948538283 -0.07303285377294616
000100 9f 15 c4 8d eb 88 b6 3f e1 77 09 2f e0 48 d5 3f
       0.08802673541148075 0.33257298081832515
000110 a6 fc 67 6d c8 d1 bf bf 7f 8d 57 ba 99 a7 ac 3f
       -0.12429478331613328 0.055966190335108294
000120 eb 27 d5 ee 2c 55 c4 bf 5d fe b4 e9 a5 25 b7 bf
       -0.15884935056448 -0.09041821437585314
000130 70 58 5b 7e a9 42 c8 bf f9 40 98 d6 c5 1d 9a bf
       -0.1895343653656627 -0.025504199240516254
000140 94 59 b9 1e 9d 61 bd 3f 99 88 ac e3 ef 62 cb 3f
       0.11477071762178631 0.21395681969540162
000150 ea 87 1b 66 c0 4b c4 3f 08 c3 c9 ca 1e 9d c2 3f
       0.1585617540904985 0.1454199304748942
000160 a0 9c c5 df 02 2d cc bf 05 ee 0f 35 15 a9 c6 bf
       -0.22012363363612497 -0.17703499880722987
000170 75 d4 d9 c3 46 10 ca 3f 54 53 48 a2 3f 64 ae 3f
       0.20362171710044988 0.05935858589160739
000180 f2 2e 1a b7 c9 06 d3 bf ad 27 2c 3e b4 80 c8 bf
       -0.29728930359918515 -0.1914277366234364
000190 fa 00 77 c1 25 8f a1 bf 62 8d ad bc 7c 7e 95 3f
       -0.03429525362617088 0.020990323081958258
0001a0 df 5a ac d5 ab 80 d4 3f 02 93 a8 33 d3 79 b5 3f
       0.32035346857575847 0.08389015208429032
0001b0 a3 45 85 45 da fa cc 3f 6d f7 b6 ef 3c c8 b5 bf
       0.22640541452942128 -0.08508663990411743
0001c0 04 91 13 72 9d 11 ce 3f 50 19 07 dd 54 35 c7 bf
       0.23491256780756242 -0.18131504814500454
0001d0 fc cb c3 fd 1c 56 c7 3f d1 d7 7e ab 96 92 b5 3f
       0.18231546774731544 0.08426801382924444
0001e0 c5 71 0e c3 9b f7 b4 bf 7b 1b ba 21 ab 6b d4 bf
       -0.08190320503349031 -0.3190715627064759
0001f0 2a 59 a9 d1 92 b0 c8 3f 17 9c 45 e7 1c 98 9d bf
       0.19288859593752622 -0.028900577178685518
000200 7e 0c 56 26 14 5d d0 3f 14 6c a5 f7 5f 76 a5 bf
       0.25568107360613357 -0.04191875360512412
000210 0d bd a6 f5 51 15 d7 3f 0d a6 7f cd d5 88 b0 3f
       0.36067627896677906 0.06458793894821487
000220 55 25 14 ac 52 61 cd 3f 17 4e 61 61 7f e5 a9 3f
       0.22953256037025463 0.05057905257913491
000230 e3 87 1c 55 66 20 ae 3f 63 44 51 43 ec b0 d5 3f
       0.05884094037016021 0.3389235169789286
000240 53 d3 94 1a 8c b0 a3 bf b0 f1 54 01 77 78 d5 bf
       -0.03845632385711064 -0.33547759180126047
000250 a9 35 a1 64 da 8b bc 3f fa b6 42 81 c6 31 ba 3f
       0.11150898892193219 0.10232201247955777
000260 47 b3 d9 25 81 eb c0 bf 2f 2c 99 d7 de 8e a2 3f
       -0.13218702648318922 0.03624626523795659
000270 ba f3 1a 1e 1d 38 b6 bf 66 1a 7a 93 fd da cc bf
       -0.08679372773163055 -0.22543306065581986
000280 52 b7 bd 51 a0 c9 ae 3f 02 0e 86 fc 5c f8 d7 3f
       0.06013203618827724 0.37453388844025437
000290 90 a9 67 f4 91 19 bc bf c2 14 32 07 40 14 ce bf
       -0.10976516930501234 -0.23499298430775722
0002a0 fa 51 0e be 20 98 b1 bf a5 6f 2e b1 cb f7 af 3f
       -0.06872753753697927 0.062437405947292114
0002b0 05 68 d6 01 6a 48 cc 3f e7 97 7a 0f ff 45 a5 3f
       0.2209599026653565 0.04154965461684395
0002c0 54 b3 d7 bf 74 dd b9 bf e0 4e fb ee d6 43 d2 3f
       -0.10103540118843785 0.28539059961370405
0002d0 af 59 aa fb ae 5c c9 bf 16 b3 4a 28 48 df cf bf
       -0.1981409767947304 -0.24900152175305185
0002e0 d9 dd cb b5 af 9b 86 bf 6a 97 f3 e9 69 b7 ca 3f
       -0.01103913568066066 0.20872234271444806
0002f0 ae d3 b4 73 21 28 ba bf 94 0b 63 4d b8 41 d1 bf
       -0.10217484545576269 -0.26963622624696737
000300 95 a7 23 52 e8 d3 d0 3f 17 aa a4 7f df d7 c7 bf
       0.2629338075772634 -0.18627542240695114
000310 77 f2 3f ac e8 e1 d3 3f 6e c2 83 9c d7 88 aa 3f
       0.3106633836867227 0.05182527337627084
000320 4f a2 59 20 4e ab b2 bf 91 dd bf 59 94 0f c7 3f
       -0.07292640962408224 0.18016294843958439
000330 ba e7 e6 1b a8 91 cf bf a0 3e 82 f0 db c5 d2 3f
       -0.24663258898163837 0.29332636344131835
000340 6a cd f4 22 d1 7b c0 3f 56 e0 f3 a8 b8 96 dd 3f
       0.12877859312866785 0.4623242998054641
000350 7e 40 93 dd df b9 c1 3f 99 6f 4a f9 f1 1d d1 bf
       0.138484938803689 -0.2674527105789309
000360 d8 92 70 b8 49 57 be bf 89 37 cd 75 01 4f d0 3f
       -0.11851940873072964 0.2548221254736452
000370 9a 4f 44 4d 89 7b db 3f a3 3b f1 e1 d4 49 d1 3f
       0.4294150595244389 0.2701313215701992
000380 ec c7 cf 79 b2 ae 7c 3f 96 9d a5 16 c3 25 8a 3f
       0.007002541705320536 0.012767337921743043
000390 c9 90 41 62 12 b3 79 bf e3 aa 84 88 1c 95 c2 3f
       -0.006274291812676754 0.14517552057198832
0003a0 f4 e8 37 2e 50 4a c9 3f 2c 7c 69 69 45 24 d4 bf
       0.19758035904653293 -0.3147138146795807
0003b0 52 40 ad 14 b7 65 cb bf ac 17 96 ca 8f 96 b7 3f
       -0.21404160031898073 0.0921411389918762
0003c0 dc 0d 32 e7 84 13 93 3f 81 9f 08 e3 68 07 a9 3f
       0.018629147158675127 0.04888465663344644
0003d0 e9 56 e1 61 aa b2 ba bf 21 74 65 82 4e b6 c7 3f
       -0.10428872003225433 0.1852510582638454
0003e0 34 98 10 04 88 4a c0 bf 5b 88 7a 80 10 70 ca bf
       -0.12727451513745935 -0.20654493592616316
0003f0 50 23 96 b3 92 97 d2 bf 7f 6f 3e 20 6a 67 c0 3f
       -0.2905012849592383 0.12815596174629815
000400 c3 f1 f2 7c f9 4e cc 3f 80 ce a0 11 ae 32 af bf
       0.22116011239076103 -0.060933532382844824
000410 07 42 55 29 75 6e bb 3f 8b 59 17 9a 87 d7 b6 bf
       0.10715420016391174 -0.0892262221526378
000420 f1 5c 7e 10 dd 35 90 bf 9e 83 d2 cb 37 ce 93 3f
       -0.01583047307175617 0.01934134656460495
000430 81 ee 93 5e 59 c2 b7 bf b0 a8 f3 15 d9 2d d2 bf
       -0.09280928191213357 -0.28404833930711515
000440 20 cb 93 0b cf 09 d1 3f 17 6d fa 69 57 6b d2 bf
       0.2662236798343418 -0.28780160283504713
000450 3e d0 62 d5 82 e9 c4 bf 2d e9 74 b8 a0 4b b2 bf
       -0.1633761922763614 -0.07146648887001979
000460 f0 3b 3f f9 bf 79 d0 bf eb 37 5c aa c9 38 bf bf
       -0.2574310239842239 -0.12196026238618145
000470 d4 16 ec 42 7a dc d2 3f a1 29 a9 a3 e1 8a b9 bf
       0.2947068837678277 -0.09977541204094688
000480 11 a5 8f 0d 9f 3a c1 bf 76 48 ff 64 86 97 bd 3f
       -0.13460148012317366 0.11559333768608035
000490 77 f6 f8 8a 09 c3 d1 bf 9f 8f ff 32 d0 2c cd bf
       -0.27752913066419843 -0.22793009271765372
0004a0 8d 13 31 08 63 dc cb bf b4 13 5d ec ca 3d ce 3f
       -0.21766317272172522 0.23626076260748408
0004b0 26 92 63 a0 0e 98 a6 3f 12 7c 0a 86 82 7a ba bf
       0.04412885387299452 -0.10343185207828778
0004c0 46 ff 2d 04 ad fd c0 bf 3f eb 97 ec 44 de c4 bf
       -0.13274157241903078 -0.16303311874784218
0004d0 81 09 63 cd bb 64 a5 3f 01 be 5b 83 ae 9f c4 3f
       0.041784161397589344 0.16112309850676357
0004e0 c9 bc 56 69 a7 d4 a7 bf 63 e3 09 f9 d7 e2 d2 3f
       -0.04654429589151616 0.2950954372423011
0004f0 79 0d f8 54 64 f2 c3 bf e3 81 08 8b be ce d1 3f
       -0.1558347144019583 0.2782436712023168
000500 9d 89 da c2 f6 7d cf bf 61 f8 45 2f 76 73 c5 bf
       -0.24603161348666172 -0.1675861101938976
000510 8e 44 70 cc ea 90 b3 bf 28 88 44 a6 fe a7 ae bf
       -0.07643001071143571 -0.05987544803271333
000520 09 2e 3c 76 2a af b4 bf b4 e0 df 2e 86 ea e0 bf
       -0.08079781900976725 -0.5286284366148011
000530 ec 5a 9b 7f 0c 2f b8 bf 7e df 30 d0 d0 91 ce bf
       -0.09446790805246125 -0.23882494130679882
000540 69 f9 84 09 d9 13 a7 bf 51 20 b2 a4 5b 65 d2 bf
       -0.04507330170825947 -0.28743640025686995
000550 e0 3f 0f f9 39 4e df bf 61 f4 2e 93 ef 52 c5 3f
       -0.48914956400130727 0.1665935009640718
000560 49 6e 5c db 57 9d cf 3f 4e d9 20 bd 57 d1 a2 3f
       0.2469892331217685 0.03675340827651273
000570 b5 4b e3 c6 4c 68 cb 3f b4 90 46 55 d4 cc 9d 3f
       0.21412048064538927 0.029101674752056453
000580 02 80 e2 65 3c 3e 74 bf 7d 52 06 fb d1 c3 a3 3f
       -0.004942165307653569 0.03860336484209357
000590 31 17 52 fe f4 00 cd 3f 2d ed 93 6e 0a 0c a7 bf
       0.22659170549393928 -0.04501373863055345
0005a0 0d 21 83 ed fd 1a a9 bf 27 88 36 26 3a 8a d4 3f
       -0.04903405689543847 0.3209367154287314
0005b0 04 df bb f1 11 8b d4 3f bf ee a3 f4 ca d5 45 3f
       0.3209881649668065 0.0006663552278775782
0005c0 37 9a 89 f8 62 0f b8 3f 73 dc 23 f7 b2 9d bf 3f
       0.09398478095827377 0.12350004705136701
0005d0 33 9c fa 67 42 88 d1 bf bf dd 30 a0 a1 42 cf 3f
       -0.2739416137141603 0.24422092744656074
0005e0 e1 8d 9d 85 5b 1d c4 bf b5 fc 93 2c 8c a8 a2 bf
       -0.15714592003051478 -0.036442165795955196
0005f0 a3 8d ef 42 0a 62 c6 3f b1 3b bf de 27 90 aa 3f
       0.17486694591853533 0.05188107103423734
000600 45 1f dc 4e 6a 3a c7 bf 77 c1 1b 76 0c c2 c8 3f
       -0.18147019243792264 0.19342189566624388
000610 65 48 34 e5 fd ae d1 bf c6 e6 b5 25 5a 6b e2 bf
       -0.27630565055108597 -0.5756045090231161
000620 1b 57 a9 7b de f6 c7 bf c2 72 0d 47 7e 0e bb bf
       -0.18722134626539674 -0.10568989977532353
000630 b2 88 a6 77 b3 ed c3 3f cd 5b 24 9c 71 ef bd bf
       0.1556915601950713 -0.11693487226544548
000640 4d 7d 76 1f 60 0f de bf b0 be ab 13 c5 1d c4 3f
       -0.4696884448294057 0.15715850315563307
000650 f2 35 2e 0f ed 1b c4 3f 0e 01 b5 2f 4e 81 98 bf
       0.15710223427997466 -0.02393076101475438
000660 3a cb fb 34 4f 85 c1 bf cf bc e6 79 80 9b a5 bf
       -0.1368807800968968 -0.0422020100407906
000670 8e e2 f5 38 b9 44 d2 3f 2b 48 3a 81 2a fb b3 bf
       0.2854445511107223 -0.07805123953792818
000680 e8 16 b9 35 55 9c d0 3f b4 1b 76 8a b7 a6 be 3f
       0.2595417999876717 0.11973139887241652
000690 23 6e 00 a9 8a 19 90 bf 9e 80 88 21 ca 25 86 3f
       -0.01572243362907789 0.010814265392639574
0006a0 38 04 f1 ba 16 0b cb bf f4 1e 52 db f5 67 c2 3f
       -0.21127590301515098 0.14379761895201393
0006b0 7d 14 eb cc 98 3d d2 3f bf f5 9b 81 4f 64 99 bf
       0.28500957500029483 -0.024796716962546258
0006c0 6c 8e 44 75 92 79 d0 bf ba 03 87 8e cc 08 bd 3f
       -0.25742017223294655 0.1134155128447806
0006d0 44 8d 88 24 5f 14 86 3f a3 ae 88 c4 bb 36 d5 3f
       0.010781043341074999 0.33146566574826347
0006e0 8a 58 57 6f 24 3f ba 3f 9e 42 da b1 82 21 d0 bf
       0.10252597540179145 -0.252045320209655
0006f0 a3 c0 69 a1 82 e6 b4 bf e0 11 47 3c 08 af b6 bf
       -0.08164230767011076 -0.08860827895757195
000700 07 19 51 c1 f3 ac cc 3f 47 90 e6 5c 49 59 c7 bf
       0.22402808131500526 -0.18241230999149335
000710 86 ce e4 b1 1c 46 ab 3f 87 72 5f e8 68 b8 b1 3f
       0.053269287791775574 0.06922012017407485
000720 8f d0 b7 7a a9 6c d2 3f e7 03 ad c7 df 79 d2 bf
       0.2878822039049362 -0.2886886072120078
000730 13 f3 ee 12 cf 75 d8 3f 15 31 3f 2a 30 cc d1 bf
       0.3821904835602236 -0.27808765531223517
000740 6a 73 67 f6 f8 71 81 3f 8a 1e 71 db 5d fd aa 3f
       0.00851816656079914 0.052714283978784485
000750 c4 22 1b a9 3f 69 c1 bf 0d 54 fd 77 f8 a4 af bf
       -0.136024434634484 -0.06180550064770083
000760 9c 6f 32 ad 5c b4 b0 3f 5c 5c d0 f2 27 cc d3 bf
       0.06525210598414194 -0.3093356963376601
000770 39 65 7a 92 95 fe 95 bf a4 c7 9a 2f 18 a4 c7 3f
       -0.02147897440463462 0.18469526600307262
000780 28 66 1f 5f c3 3d ae bf 12 5e 03 18 7c 2d a4 3f
       -0.05906496559300606 0.03940952103738139
000790 5e 71 70 a1 a7 b7 cd 3f b5 16 ed 51 d1 fb ba bf
       0.23216719992422957 -0.10540493250035861
0007a0 c7 79 3c 6a e1 1d ba bf 2b 1d 70 b4 01 62 c5 bf
       -0.10201844066293751 -0.16705342588850533
0007b0 32 61 28 1e 05 65 d9 3f 4f 6a d6 41 0f fd d4 bf
       0.3967907709607231 -0.3279455321259421
0007c0 17 9b 93 63 c4 ec d1 bf 4f 28 f0 2c a7 e9 d3 bf
       -0.28007611965442564 -0.311136049160841
0007d0 8a 0a 21 fd 16 83 c8 3f 08 81 af 88 81 35 c4 bf
       0.19150054321115234 -0.1578828732881521
0007e0 b9 df e6 63 09 4e ba 3f 17 77 a4 5e 05 4e d5 bf
       0.1027532452488903 -0.3328870224230384
0007f0 ae 7c 90 23 9c 2a bf 3f 38 4c 82 9b ae 27 c5 bf
       0.12174392574569268 -0.16527350037776656

linears.1.bias f8 [30]
000000 84 e5 36 10 8f 36 80 bf 22 6c ea da b9 78 af 3f
       -0.007916562731099537 0.061467941258534844
000010 8f 70 2d 0e fe ba b7 bf 0f 46 45 4b 32 5c 63 bf
       -0.09269702764635411 -0.002363298635977846
000020 31 86 af 43 d3 62 a2 3f 77 54 27 b6 5a 3a a0 3f
       0.035910226833732024 0.03169520829730115
000030 bc 29 ae 9c 2d bf 9b 3f 46 47 f6 96 cd 4d 9b 3f
       0.027096474349983288 0.02666398271464423
000040 9a 7b f3 60 b7 75 bc bf 97 96 05 67 ec aa aa 3f
       -0.11117120854349452 0.05208529241171538
000050 ad 57 ce 44 39 df a3 3f da 1f 70 46 00 16 83 bf
       0.03881243672292043 -0.009319307469937078
000060 da a7 2d 5f 16 6f 7b 3f fa ea 1a fe 7c 87 b2 3f
       0.006697738065534831 0.0723798866628548
000070 b4 0d 4a a4 12 09 91 3f 9d f0 04 72 54 75 bf bf
       0.016636172559186327 -0.12288406165765982
000080 5f 73 54 20 e3 4c ba bf 8d ef 2f f5 70 09 ba bf
       -0.10273570575050205 -0.10170656190888235
000090 0e f1 64 9f 6b be 93 bf 8f f0 25 f6 96 8f a7 3f
       -0.019281083682686044 0.046017377421749044
0000a0 5c 5c e4 64 62 84 a9 3f 25 0b b5 e3 bb 9b a4 3f
       0.049838137451097636 0.04025065569523737
0000b0 40 f1 7b 0e c2 91 95 bf b1 78 64 dc 4e 44 ae bf
       -0.02106383527187572 -0.05911489906633117
0000c0 c9 74 86 e5 40 38 85 3f cc 6c 3b 17 29 10 a9 bf
       0.010361201290658777 -0.04895141991229365
0000d0 e4 7f 02 9e ea 65 b5 3f f2 ec 74 ae 65 cf 97 3f
       0.08358637197170499 0.02325209500598375
0000e0 13 8a 29 82 54 25 8c 3f b0 f5 d8 8c 78 be 98 3f
       0.013743076536404641 0.024164088818215468

linears.2.weight f8 [30, 30]
000000 7e ce a4 e9 5e 4b 90 3f 3a 54 c5 85 4d 32 b9 bf
       0.015912516603931774 -0.098423810156718
000010 f2 aa b4 01 26 63 ca bf 4f 96 60 98 97 9e ac 3f
       -0.20615077098167195 0.05589746222566971
000020 30 fb ea 93 79 ff d0 bf 7e 60 5b d5 98 65 d1 3f
       -0.2655929512510964 0.27182598910940914
000030 1e a5 fb 30 e0 e4 db 3f 49 55 07 f7 da 2a d8 bf
       0.43584446700568147 -0.3776156818760979
000040 89 be ff 59 03 cf 9a 3f 5f 06 10 76 a1 67 d5 3f
       0.026180317276099294 0.33445011643934736
000050 c6 48 33 5b 4d 9b b7 3f fb b9 fd 2b f3 c1 d6 bf
       0.09221347309656655 -0.35558776184089397
000060 23 b9 9b de 6b 28 b1 3f a4 5b 75 88 c7 88 d6 bf
       0.06702303108952327 -0.35209835363405717
000070 d6 cd 16 a8 0e c0 bf 3f d2 b6 d4 3b 97 a9 9f bf
       0.12402431110131515 -0.030920374895848486
000080 ea a7 5c 0a 8a b9 c1 bf 00 3e 36 ae e1 f2 cf bf
       -0.138474707660236 -0.24959965712012888
000090 1d 6d 9a 3a 16 a5 c8 3f eb 81 f6 2f 7c 4c ce 3f
       0.19253805028424945 0.23670914022387932
0000a0 c5 1a 02 f4 62 9f d4 bf d6 6e b6 e6 21 00 bb bf
       -0.32222818211486653 -0.10547077067024743
0000b0 9c 72 24 c5 94 e2 c5 bf fd 35 62 00 68 83 ac 3f
       -0.17097720743267508 0.05569005016978321
0000c0 fe 41 50 2d db 5d c6 3f dd 72 e6 75 77 70 b7 bf
       0.1747392627007826 -0.09155985477850544
0000d0 7e 3d d3 9f 31 98 ce 3f 66 b1 f9 48 9e 7e b2 bf
       0.23901958755457636 -0.07224454194665028
0000e0 ca 60 26 0b e2 22 c6 3f 00 d2 53 73 be da c7 bf
       0.17293954414777196 -0.18636303549978095
0000f0 4b 53 99 ae 73 6e c7 bf 04 13 f3 63 9d a8 d3 3f
       -0.18305822396600954 0.3071664310521529
000100 a8 a8 13 ea 5c f2 b2 3f 67 c3 8f fd 21 ff c5 3f
       0.07401066508069454 0.17184853440223977
000110 62 90 1b 15 cc 54 d0 bf 8c 19 ad cb 52 58 de 3f
       -0.255175610173188 0.47414083376170235
000120 15 c5 97 1b ad 14 b9 3f 82 79 be dd f2 c0 95 3f
       0.0979717438092574 0.021243853363210892
000130 2e 7c c0 0b 07 6e d2 bf a6 47 cb 52 2b d6 ca 3f
       -0.28796554706235866 0.20966092627219018
000140 c5 f8 66 85 62 4c bd 3f 8b f0 07 2f 83 d4 82 3f
       0.11444679028406586 0.009194397804997109
000150 8f 34 23 95 2c 68 b2 3f 6e 26 3c 1f d2 c2 cc bf
       0.07190207139065506 -0.224695458651968
000160 e2 84 a6 e9 12 b5 d4 3f 3b 80 99 0d 6d 32 b3 3f
       0.3235518724196266 0.07498818952581214
000170 03 f6 a1 7a 75 cc ad bf b4 76 e3 54 7d e7 cd bf
       -0.05820052263241495 -0.233627001237371
000180 de 71 3d 25 c3 ec bc 3f 30 a3 e1 40 71 0a c9 bf
       0.11298770579509873 -0.19563117664372376
000190 9a 3e 4f d1 1f f3 d4 3f de 84 a8 86 48 45 cd 3f
       0.3273391288794102 0.22867685866461945
0001a0 e8 1f f1 1c 40 5d d7 bf c1 97 59 48 47 dd ca 3f
       -0.3650665552745509 0.20987788231576412
0001b0 86 cc 66 6c 8d 7f d2 3f 79 9d 9b a5 33 86 b0 bf
       0.28903518282022167 -0.06454775612984588
0001c0 d2 fd 75 ce 36 ec a8 bf e5 c9 11 6e 43 f0 cb 3f
       -0.04867717046999655 0.21826975702749887
0001d0 32 8d c2 3c 23 47 d1 3f 57 16 a5 8d 29 e7 d5 3f
       0.2699668973311474 0.34223402817256016
0001e0 a2 9d eb c0 b2 b8 c8 bf 5a 28 cc fa 75 84 cb 3f
       -0.19313654346408976 0.21497988458605982
0001f0 48 5c b3 53 d0 46 c9 bf 6c 84 eb bd 81 2b db bf
       -0.1974735649771182 -0.42453044459222755
000200 41 34 a7 96 19 47 c8 3f e4 68 5d 1b 87 46 e1 3f
       0.18966979843244938 0.5398593458624217
000210 c6 06 82 94 fa bf ba bf c7 2d 8d 00 0e a6 c2 3f
       -0.10449186444932498 0.14569258715560648
000220 41 29 b4 ca d8 20 c4 bf a0 04 f2 b4 de 04 c9 3f
       -0.15725240609783422 0.1954611190340403
000230 26 9f 02 1c 95 e9 d7 3f 8f 52 46 ab 6e 7d d5 bf
       0.3736317418611058 -0.3357807800869432
000240 a8 63 86 9d a7 4e a8 3f 58 47 dc a7 6c 78 c8 bf
       0.04747508809959494 -0.19117506214439106
000250 55 20 10 56 ab 3b c7 3f 30 26 65 b9 75 46 cb bf
       0.18150846197409246 -0.21308776428695486
000260 f7 43 6f ba 4d c8 ce bf bb 29 1c 0e eb 7a ac bf
       -0.2404877815556856 -0.05562529132119517
000270 03 08 e8 e5 35 6e c5 bf f4 c2 ff 79 64 ee cb bf
       -0.16742585874459345 -0.21821266133294837
000280 0b b3 24 83 1b f1 d4 3f b3 b6 2c 06 1b e2 a7 3f
       0.3272160320946546 0.04664692354559232
000290 2e 22 1e 9a 8b d4 c7 3f 08 27 9f be b5 98 be 3f
       0.18617386842039835 0.11951766876077496
0002a0 6b 2a 3a 04 48 d8 c0 3f f5 1e 1c 00 af 35 c4 3f
       0.1316003819122956 0.15788829331744805
0002b0 3a 89 8d 38 17 50 bc 3f 07 17 93 c5 14 3d cc 3f
       0.11059708719907216 0.22061404845424468
0002c0 b2 38 f7 46 f6 06 9d 3f 25 dc 03 21 7c 8e ce bf
       0.028346870499995354 -0.23872329341949797
0002d0 8d b0 38 35 aa 44 b5 3f 4f f1 a7 10 74 cb bd 3f
       0.08307899283744487 0.11638570219651466
0002e0 03 cb 4c 87 d3 38 d6 bf 10 21 01 96 cf 8e cb bf
       -0.34721840107810936 -0.21529574226793402
0002f0 91 d0 b8 a5 54 a9 c1 3f 98 72 a1 58 ff ac c2 3f
       0.13798006145373568 0.14590446307820026
000300 c4 0f 98 f2 44 0a c4 bf b5 73 52 4d 81 55 d2 3f
       -0.1565633949795694 0.2864688162897509
000310 ca 07 66 c1 3d 9e d1 bf 67 14 1e 59 df cf d0 bf
       -0.2752832783372666 -0.2626875276840281
000320 e6 63 e7 dc 84 b1 b1 bf 96 b8 fc e1 3f 9a b8 3f
       -0.06911497491036264 0.09610366122498912
000330 d6 f1 b2 95 f2 0e c3 3f 36 e6 33 64 b9 61 aa 3f
       0.14889366445085156 0.05152682636430621
000340 bc f6 16 19 1d db b9 3f 7b 9f 7c 3c 4d f6 c0 bf
       0.10099965918103754 -0.1325165315004105
000350 66 27 6b 94 1d eb ca bf 2f af 9e 5a 6a 5c b2 3f
       -0.2103001570415543 0.07172264778517666
000360 79 60 22 b0 13 79 d3 3f f3 66 10 9e da 65 d3 bf
       0.3042649478970883 -0.3030916732401316
000370 d7 cd 48 6f 99 7a bb 3f 1e eb 78 bb 92 0d a9 bf
       0.10733946768669199 -0.04893168009262737
000380 52 0c 34 3d 8d 92 d5 bf ab b4 29 c2 fa ca b4 3f
       -0.33706980683218035 0.08122222175889486
000390 03 77 f2 3b 54 4f bc 3f 68 4d 79 ea 7d f7 bf bf
       0.11058546508362714 -0.1248701760717289
0003a0 4c bc 2b db 99 a1 ae bf b4 0b 30 dc 80 3e d0 3f
       -0.059826667789700666 0.2538149023313807
0003b0 55 bb cd 8f 5f c7 d1 bf 89 73 be 1f 60 48 d0 3f
       -0.2777937797863406 0.2544174489974514
0003c0 c7 38 62 2d fa 8e c3 3f 1e 0e 45 10 00 47 c2 3f
       0.15280081954956 0.14279175562306617
0003d0 8f 67 db 4a 95 4c 79 3f d8 4f 09 c6 6b 4a c1 3f
       0.006176551030614776 0.13508364839310505
0003e0 17 cd 31 d1 d7 f6 b8 3f 33 c1 c7 ad c4 e1 d9 bf
       0.0975165258149001 -0.4044048020432626
0003f0 71 fd dc e9 59 e3 e3 bf 51 a4 ee 0e 63 08 a3 3f
       -0.6215028350488138 0.03717336232450264
000400 e1 e6 db b4 e8 a4 82 bf 9e d0 c5 b1 56 ea d1 bf
       -0.009103601474169167 -0.2799278961240449
000410 cf 8f 25 4f 3f be cb 3f 68 7f 18 8b 95 d0 dc 3f
       0.21674338688455783 0.45023096641124605
000420 a9 44 7f a4 48 56 ba bf 2f af 6f 4e eb 62 d9 3f
       -0.10287908569377414 0.39666254672805484
000430 58 58 ea 48 e2 f4 cc bf 1d b7 7e 73 b7 b6 b0 3f
       -0.2262232643158224 0.0652880341501398
000440 1f 7a 4f 51 a3 72 c8 bf 29 49 0d 3e c5 3f ac bf
       -0.19099847288357893 -0.05517403013677075
000450 72 28 63 64 8b be bb bf 5a 17 e8 95 4f c2 dc bf
       -0.10837622834074681 -0.44935979499165557
000460 95 c7 9f 37 ee 46 ca 3f 43 da a6 00 a3 d5 c1 3f
       0.20528962818167132 0.13933217555832486
000470 1c 24 fd 4b 74 26 a5 3f 1a 40 31 f8 fd 08 a2 3f
       0.04130900790784883 0.03522485403721039
000480 ff 27 6e 39 88 72 d2 bf e4 2e 0e f3 d2 22 8d bf
       -0.2882404862253906 -0.01422657779928422
000490 35 55 e5 02 65 36 bb 3f 54 50 cd 48 d3 be d9 bf
       0.1062987453527356 -0.402272053809843
0004a0 6b b4 d9 3d d1 76 d7 bf 65 fe b1 f3 ac b1 d1 3f
       -0.3666270355232146 0.2764694576107785
0004b0 f2 fc 67 56 6f f9 c3 3f 37 dc 48 b8 3f 65 c1 bf
       0.15604964942028904 -0.13590237139007552
0004c0 71 4c 7a b8 36 af c7 bf 9a 84 e9 04 c6 79 d9 3f
       -0.18503459937764746 0.39805746535973585
0004d0 7b 7b 31 07 7c be cf bf 02 11 d6 f8 66 7e d2 bf
       -0.24800062514529117 -0.288964980129336
0004e0 f1 fc d9 7d 52 8a d4 bf 21 ba 04 8a 08 df 7b bf
       -0.32094251909434407 -0.0068044980583139856
0004f0 2c 7f 03 e2 a2 d3 d3 3f d9 c4 c6 29 06 f1 c8 3f
       0.3097922522701875 0.19485547103753367
000500 8a c3 76 0b 50 a8 b6 3f 06 62 9b 9c 84 8b d1 3f
       0.08850574760323418 0.27414050382279276
000510 e2 3a 3f 74 ee f2 c9 bf 73 c6 60 f0 4d e5 b9 3f
       -0.20272617984888713 0.1011551582203312
000520 24 3c ca 76 5d b5 cc bf 99 03 52 9a d9 f9 b7 3f
       -0.2242848234204483 0.09365615861498923
000530 f3 e2 83 26 cf 5f b7 3f f4 3f 0f b4 4a da 74 bf
       0.09130568208992056 -0.0050909917926702415
000540 08 1e b0 9e e5 12 c5 3f 7a 67 98 8c 59 35 d1 bf
       0.16463918922839604 -0.26888121347439375
000550 07 96 f2 7b c5 a8 99 3f 7f 7f 18 7c b6 53 c7 3f
       0.02505787438408016 0.18224221286163453
000560 77 ce 19 e5 75 3d 8d 3f 36 14 c0 2a 44 34 b9 bf
       0.014277382902242437 -0.09845377010067655
000570 f9 19 49 d9 a3 6e ce bf 87 55 ba 19 83 ca c0 bf
       -0.2377514658894169 -0.13118017917865307
000580 11 40 ca 0f 6e 33 a8 bf 73 a1 67 2a f4 07 d1 bf
       -0.047267379214758994 -0.26611045971960506
000590 7e b8 0e da 56 93 da bf 9a 99 99 f1 72 ef b1 bf
       -0.4152428750484275 -0.0700599517673254
0005a0 7c 7b 50 95 de 2d d1 3f d6 ef d1 ad bf f0 d5 bf
       0.2684246500156673 -0.34281913733115965
0005b0 19 84 0e 92 81 94 d4 3f 15 22 11 0c 8d 1d c9 bf
       0.3215640951476089 -0.1962143238945521
0005c0 9a aa c1 9b 3f 2c ce bf 89 bf 31 30 9a 07 c8 bf
       -0.23572535615251838 -0.18773200371969903
0005d0 ce e0 bc 9e 42 8a cc 3f 94 0b 19 bd fb 9b cd bf
       0.2229693675124111 -0.23132273419659255
0005e0 c2 65 1a 95 2a 9b d0 3f 74 a5 25 6d ff 79 b7 bf
       0.2594706016621694 -0.0917052880737595
0005f0 95 d5 95 6c 3b c0 a9 3f 82 b4 89 3c e2 3b cc bf
       0.050294739728012385 -0.22057750659897485
000600 f3 d0 f2 30 d5 07 bf 3f ef f9 c0 ec c8 9c c1 3f
       0.12121326870948561 0.1375971942924958
000610 a0 b8 e1 17 64 8a d0 bf b1 bf c9 3d 84 03 d1 3f
       -0.2584467156619983 0.2658396342658263
000620 d0 57 9d a9 c1 31 b7 bf 15 54 6c 15 aa 5d b3 3f
       -0.09060297385198557 0.07564795516039198
000630 e2 cb d8 7a 9e 16 d6 bf 65 a6 1b 57 7b fa b0 3f
       -0.3451305579830529 0.06632204891834588
000640 33 3f cf 19 ca 68 b8 bf 05 da 82 e7 cc a5 87 3f
       -0.09534896021000065 0.01154670793071678
000650 8e 1e 42 79 b0 7d c9 bf 65 eb 9b c7 8b b2 bd bf
       -0.1991482345658721 -0.11600564597385483
000660 99 71 3e ba 26 43 d1 bf 2d cc 44 2a 59 da d2 3f
       -0.26972358882792374 0.29457692268187224
000670 b4 1e 30 01 0c 5e c1 bf 9b 46 35 70 6f 98 c3 bf
       -0.13568258340841555 -0.15308945635711244
000680 53 e8 f4 dc 0a bf ad 3f 9c ed 3d 79 04 88 bf 3f
       0.05809816310143447 0.12316921195991032
000690 c1 80 14 fe 51 93 cd bf 39 38 2b 81 cf 20 c4 3f
       -0.23105835825209023 0.1572512989718591
0006a0 51 34 0b 77 21 81 d1 3f bb 79 d5 f1 a9 d7 c0 bf
       0.27350651383750796 -0.131581538279489
0006b0 65 8d a1 79 a0 24 b9 bf 5b 90 25 7f 81 ff 56 bf
       -0.09821513146885293 -0.0014036907783401473
0006c0 19 a2 15 f7 7a 43 c3 bf e1 9b ca 50 e6 23 ca bf
       -0.1504968363253887 -0.2042205709924181
0006d0 82 f7 46 93 d3 5a c6 bf da c2 e2 ac d8 02 ac 3f
       -0.17464680377264236 0.054709216217252624
0006e0 b4 7e 35 7e 04 9d c0 3f aa 9f da 2c ea 51 d0 3f
       0.12979179537341212 0.2549996793773014
0006f0 ce d1 9e 3a 42 c7 c5 3f 27 66 5b 6d 2b c7 d2 bf
       0.1701433931572311 -0.29340634993931974
000700 24 7a 23 41 23 c8 c6 3f b5 eb 5b c1 e4 5f d6 3f
       0.17798271828265044 0.3496028793594477
000710 e9 82 9f c3 21 9c d0 3f 32 2f f0 22 ee 20 cb 3f
       0.2595295343763114 0.21194245058028965
000720 06 d2 db 36 ce 27 b5 bf 60 a6 68 5b 1d bb aa bf
       -0.08263863410304148 -0.052208821686076545
000730 f7 94 34 f9 a9 b3 d0 bf 1a d9 be 9e a5 4f d1 3f
       -0.26096581779923106 0.2704862642525697
000740 35 6a bb 11 c4 d7 d0 3f d2 72 c9 65 f1 bb b1 3f
       0.263169305149549 0.06927403197318974
000750 ea 5a d4 16 de 6f cb 3f ed 45 37 93 25 2e d2 3f
       0.21435142626497533 0.28406657578042777
000760 7f 48 f5 a9 e1 8f d3 bf e4 ca eb be 91 52 be bf
       -0.305656829809898 -0.1184474078288918
000770 70 b2 9b 5f ad e9 cd bf 69 59 64 64 b2 db ca 3f
       -0.2336937634312508 0.209829615611578
000780 19 a8 db 9b d5 2f e0 3f 60 77 84 70 f7 ac d2 bf
       0.5058391613104077 -0.29180704105407607
000790 bd c3 8e e4 ae 14 cf 3f f0 27 d7 1b 92 11 95 3f
       0.24281870040934264 0.020574839543577583
0007a0 b5 3e aa 3e e1 55 c7 bf 5a 29 eb bd dc 03 ed bf
       -0.1823083454114475 -0.9067214688632632
0007b0 16 93 47 b6 dc 9c c4 3f 23 b2 8a 0a be a1 d8 3f
       0.16103705311174882 0.3848719695040776
0007c0 22 cc 36 a0 f4 9d b6 3f 5c 4e bb 42 53 3c c0 bf
       0.08834771071887862 -0.12684098013288547
0007d0 71 2c 62 d7 11 fa d1 bf 7a d6 9d 01 0b 1d d8 3f
       -0.28088804276985174 0.37677264364115326
0007e0 85 19 06 e2 3d 22 a0 bf 24 d2 37 56 d1 ee 9c bf
       -0.0315112436683647 -0.028254767310459297
0007f0 bc 99 3a 8c 9a d8 aa bf 55 91 19 bf 28 a8 b5 bf
       -0.052433805101191194 -0.08459715524219764

linears.2.bias f8 [30]
000000 ca 3c 96 8f d9 b4 a5 bf 52 3f ce 99 0b f4 99 3f
       -0.04239539983529424 0.02534502149825297
000010 a3 df f3 c6 4e 8a 91 3f d0 de 60 4d 40 01 ac 3f
       0.017129164593796663 0.05469704575119538
000020 dc 1d 94 b9 9a 23 b4 3f 51 8e 83 aa b7 4b 71 bf
       0.07866827994086328 -0.0042226004081587646
000030 c0 79 4f f4 e7 76 ac bf 3b 9c 9c 2d 16 35 a9 bf
       -0.055594681332638896 -0.04923314387115637
000040 c9 29 15 39 74 05 89 bf d4 30 5d 4d 68 63 9d bf
       -0.012217433921837622 -0.028699521753240045
000050 b4 05 8b c6 c8 26 9b 3f 78 92 10 ff 7c 1e a8 bf
       0.026515137785059387 -0.04710760701735678
000060 23 ab 79 16 af bf a9 bf 16 fa cd 65 ef 11 9f bf
       -0.050290557378352106 -0.03034185465684843
000070 3c b2 b0 2f 99 ec ae 3f d1 1e ef 91 10 b7 a0 3f
       0.060398852416572585 0.032646673025337976
000080 9e 90 c7 6b 94 ca a3 bf 2b 43 e2 b7 f8 bb ab bf
       -0.03865493598621693 -0.05416848416019201
000090 86 61 7b 5f 37 2b a9 bf 1f 70 95 d3 eb a9 a2 bf
       -0.04915783920813781 -0.036452645853131786
0000a0 38 de 9e 4a b9 5a a8 3f bc fe c0 08 57 16 b2 bf
       0.04756716762443286 -0.07065338100164359
0000b0 0d 1d 8e ad 5f 6c a6 bf 17 9b f0 fa f4 d4 a2 3f
       -0.043795576034478235 0.036780982620532914
0000c0 d0 c2 17 47 63 8d 86 3f 25 e6 20 e3 81 c1 b4 bf
       0.011011863333778932 -0.0810776881707161
0000d0 19 12 68 c5 09 5d ae 3f 8b f6 41 f7 06 4a 86 bf
       0.05930357489345201 -0.010883383198456961
0000e0 98 56 ce c1 26 33 a9 bf ce 5f 17 a9 39 c8 ad bf
       -0.04921837917133337 -0.05816822232344486

linears.3.weight f8 [30, 30]
000000 75 5b f6 be 07 42 d3 bf c3 ac 88 2e 65 17 c4 3f
       -0.30090516709008536 0.15696396610414895
000010 a9 e6 c8 fc 95 bd 8a 3f 85 5e 41 69 6c 81 a0 3f
       0.01305691888511558 0.03223742279868439
000020 37 06 62 27 45 f4 a0 3f 8b 5e 95 ce 7c 29 94 bf
       0.03311363321064358 -0.01968951235661946
000030 fa 06 90 29 d2 5f cb 3f 2b a2 8d c9 ea 21 bf 3f
       0.2138617232267775 0.1216112844537142
000040 d2 f6 d8 e7 f5 05 b2 3f 59 d6 b5 69 f0 ed c4 bf
       0.07040345106448889 -0.16351132547031247
000050 ad 4b 7c 0c 98 45 21 bf b5 1c 3d 75 81 25 62 3f
       -0.00013177376808268024 0.0022151497341017187
000060 40 c6 22 64 df ee cc bf 24 f3 e1 e3 ac 8c c0 3f
       -0.22603981389470285 0.1292930710514152
000070 d7 83 f6 7d 67 f0 92 3f 6b 60 53 7a fb 11 90 bf
       0.018495194495361602 -0.015693597165267564
000080 7e ef ac d0 8e c5 c6 3f 71 4f f9 97 89 8c a2 3f
       0.17790398778185684 0.03622846584462892
000090 cb 8e 84 29 ef e4 d3 3f ef 47 86 b6 14 cf 5e bf
       0.31084803633187325 -0.0018804266238459063
0000a0 b2 06 01 70 a9 1e ce bf ec cb bd 87 d6 ca b1 3f
       -0.23531072586961482 0.0695013123893628
0000b0 e3 b7 6f 89 21 a9 cc 3f 41 57 18 58 b5 71 ba bf
       0.22391146860849095 -0.10329755211600135
0000c0 6c 55 07 75 4e fd cf bf 67 fe ac c9 9e f2 d7 3f
       -0.24991780008592046 0.3741833657731832
0000d0 85 ba ba 76 c3 44 d5 bf 86 b0 2b fb e2 8c 89 3f
       -0.33232199282330327 0.012475751199837026
0000e0 72 5a 5a 36 db 39 d0 3f c7 da a5 9d 6c 78 a1 bf
       0.25353126819519567 -0.03412188934719534
0000f0 6a fb c1 21 2d ee 95 3f be 4b c7 85 0d 7b c9 3f
       0.021416382966431703 0.19906777412560744
000100 b0 42 44 76 bb f8 cc 3f 6c 94 82 7d 0a 6b c5 bf
       0.22634070658434302 -0.16732913139745464
000110 3e d9 d2 19 68 93 d6 3f 97 cd 4d aa 96 11 de 3f
       0.3527469875511037 0.4698235190509989
000120 1a 3b 7d bf f3 1d ba bf 87 2d 99 fc 9a 83 c1 3f
       -0.10201953339604267 0.1368287785902391
000130 6f c2 1b 54 78 8f c8 3f ee ae 4e 3b 5c 57 c6 3f
       0.19187835795266348 0.17454102416865375
000140 d6 f6 d4 42 3f 56 c0 bf bc 7c 67 64 37 18 c5 bf
       -0.1276320530250163 -0.16480152514029622
000150 5f 88 dd 58 54 5c d4 bf 43 9b ca e6 c6 22 cf 3f
       -0.31813534429796236 0.2432488085662162
000160 5e 80 72 78 07 2b cc 3f e8 62 14 ab 89 49 cb bf
       0.22006314641203323 -0.21318169454095615
000170 ef 8c 69 b6 e8 38 cc 3f bb 20 a2 bc 25 9d ba 3f
       0.22048672587252535 0.10396037917428462
000180 3a 3f 72 80 dc 53 d1 bf d8 df c5 0c b0 49 c8 3f
       -0.27074348968107 0.1897487699859528
000190 55 59 6f bd 3b cf d5 bf 39 33 50 1d 8b 87 a9 3f
       -0.3407735204649687 0.04986223919704575
0001a0 db 37 e4 91 8d bc dc 3f 53 15 00 cb 01 1b c1 3f
       0.44900836226667956 0.1336366883480574
0001b0 a0 ba e2 97 68 54 d8 bf 5e 3b 7d d3 32 4e d0 3f
       -0.38015189011177064 0.25477286008110933
0001c0 a7 8a f2 29 da 23 d0 3f ea 11 7c 91 ea 1c be 3f
       0.25218824478558094 0.11762872745391176
0001d0 c6 b9 2e 18 9b c7 c0 3f ba e8 0e 7b d8 a6 d0 bf
       0.13109148674761978 -0.26018344895750156
0001e0 d8 40 85 43 06 2c c8 3f 98 90 57 11 0f fe b6 3f
       0.1888435201349299 0.08981413052930731
0001f0 e1 0d 5b 50 fe 3d c9 bf a5 d8 c3 97 ec 16 cf bf
       -0.19720438884370053 -0.24288709078218065
000200 f2 df 64 f7 63 0b c3 bf f7 11 4f 50 8c b9 c0 bf
       -0.14878511028086866 -0.1306624786503929
000210 28 1e b2 f0 71 e5 a3 bf 3c 71 1e c3 a5 29 ae bf
       -0.038859902030761895 -0.05891149527380654
000220 1b d3 ee 92 a6 25 bd 3f 5d f2 33 fa 74 ef b4 bf
       0.11385575377682892 -0.08177882297963764
000230 4b c6 fc 84 a2 24 cc bf a6 7e 30 d9 79 e5 8b bf
       -0.21986800664449144 -0.01362128442821071
000240 dd 77 ce ad 33 39 d8 3f a0 46 6e 30 cf a8 d0 bf
       0.3784913251237166 -0.2603033040005389
000250 7f c2 f0 9c 80 cc d1 3f 52 54 a6 90 75 6e c6 3f
       0.2781068356153255 0.1752459484384042
000260 3f 14 fb 7c b5 a9 9b bf b8 eb 89 64 c5 86 c4 bf
       -0.02701457572290544 -0.16036288651579667
000270 84 cd a6 1e 26 86 d5 bf c4 25 70 b9 c1 a6 d2 bf
       -0.33631279939000813 -0.2914280234259332
000280 c8 a8 c3 fd b6 92 ca bf 38 3b 5e 9e 19 6e db 3f
       -0.20760238066515613 0.4285949751437559
000290 b0 97 5e e5 c6 5c 9f 3f 59 70 6e eb eb 3e 81 bf
       0.030627353429416082 -0.008420794603630254
0002a0 67 50 b9 1a 89 4c bc bf 1b e8 d5 88 a8 68 c8 3f
       -0.11054284002722313 0.19069391900467356
0002b0 7b 08 57 5d d8 0b d3 bf c2 62 eb 22 9d 55 b6 bf
       -0.29759797206146005 -0.08724386312986623
0002c0 b4 13 5d 9d 3d 3b d1 bf 66 36 1f 8e dd c5 cf 3f
       -0.26924076430833144 0.24822587432429372
0002d0 b2 ae 9c 2f 10 59 95 bf 11 5d 1e f5 60 15 d7 bf
       -0.020847561746605243 -0.36067985474933645
0002e0 7c 75 6f d3 92 bf c1 bf d4 23 34 e1 56 75 b7 3f
       -0.13865886043542364 0.09163420675407902
0002f0 f9 3f 37 25 d0 ab d0 bf c1 1c 15 8c 72 e7 d2 3f
       -0.2604866374431363 0.2953764312737342
000300 df be e1 0e 91 b5 c1 bf 5b 56 47 47 ed be 9a 3f
       -0.13835347391749672 0.026118953204635847
000310 e0 8c de 1a 95 3f b2 bf eb c9 78 a4 72 fe 91 bf
       -0.07128269105901408 -0.01757220391136542
000320 ac b2 0c 61 0b f9 cd bf a5 e0 f4 22 5c e1 c9 3f
       -0.23416273344755234 0.20218993861067705
000330 51 67 4e dc 25 02 6a bf 77 db df 92 98 c5 d2 3f
       -0.0031748523201259667 0.2933103021927574
000340 4e 21 cb e8 9a 99 88 3f 84 53 b1 d2 1d b0 db bf
       0.012011728505414123 -0.4326242978616437
000350 b9 2e 62 64 57 aa d6 3f f7 78 d7 94 da 01 d7 3f
       0.3541468124683252 0.35948814902611964
000360 b6 2c 18 21 a1 3d ca 3f 93 10 e3 fd 46 35 a1 bf
       0.2050057803720386 -0.0336095986290569
000370 01 19 71 9a 69 7a d5 bf 7f 4f 44 87 1f a5 b9 3f
       -0.3355964668484291 0.1001758294335655
000380 16 3b ef a3 45 ad c1 3f a7 25 9c 0c e0 39 c0 3f
       0.13810034279455213 0.1267662107059497
000390 7a e5 a6 8d 28 7a a0 3f 44 61 82 41 e6 17 b0 3f
       0.03218199471616408 0.06286467646930755
0003a0 48 68 5b cf 91 cd cb bf 37 7e 34 a3 31 43 c2 bf
       -0.21721098542076533 -0.14267559498783708
0003b0 66 45 2c 15 5e cd d0 3f b8 c5 b9 5c fe 1a d9 3f
       0.2625346380965169 0.3922725587391045
0003c0 20 88 75 e4 b0 da a6 3f cb 69 d3 93 29 19 ca bf
       0.04463722981269336 -0.20389289587076428
0003d0 85 2b 52 89 a0 3e c0 3f 12 ca 31 fb e5 cf a0 3f
       0.12691122727514084 0.03283613864268288
0003e0 e0 2d 8e 85 3d 75 cf 3f 85 09 61 42 69 4e 81 bf
       0.24576539059886127 -0.008450338686206713
0003f0 cc 52 fe e9 a1 74 a4 3f dc d2 10 6e 10 ac c5 3f
       0.03995233517995231 0.1693134820394765
000400 bb cd 57 e0 2a cb d5 3f 1c aa 7d ed 1d 09 c3 3f
       0.34052535923475674 0.14871572586282944
000410 60 19 92 54 84 bc c8 bf ec 44 98 9f 37 44 d4 3f
       -0.1932530796950216 0.31666365228109217
000420 ab 46 7b 54 fe a3 d2 bf 60 86 70 2d 67 30 ce 3f
       -0.2912593674674137 0.23585214346626326
000430 1f 78 12 2f fc 0d d2 bf 7d b7 fc b5 19 88 cb bf
       -0.28210358235253524 -0.21509095560162086
000440 29 2a dd 3b 57 bd d1 3f a2 fb 6c 4a 2b f6 d6 3f
       0.2771814427002562 0.3587749697507495
000450 9c ae 3e e3 75 41 ca bf 7c e8 d5 ee d4 90 cd bf
       -0.20512269588413268 -0.2309824148358678
000460 9c 4d 95 31 01 be d3 bf c5 68 49 10 33 76 b7 bf
       -0.308471964284047 -0.09164733073831417
000470 ae df 40 1b 0e 1b d6 3f a0 b1 c6 e9 00 b1 c3 3f
       0.34540131246057626 0.15383922018862695
000480 65 12 48 2b 3e a5 c1 bf 2b 2b dc 8b d8 aa c2 3f
       -0.13785531152111044 0.1458388026151963
000490 c2 6a e8 e4 69 e1 c9 bf 43 00 66 cc 8c eb b9 bf
       -0.20219157864706544 -0.10125045767017675
0004a0 ca 9f 7a 2b 53 c1 c2 3f 65 33 62 b6 12 d5 a9 bf
       0.14652480719564515 -0.050453743709204336
0004b0 73 44 8f b1 e8 f6 c5 3f 3a 4c f7 2c 3a f2 c0 bf
       0.17159756345657548 -0.1323921889839726
0004c0 aa 46 83 06 6f d7 d6 3f 7a 8b 67 16 72 bc cf bf
       0.35689902912154514 -0.24793840497940406
0004d0 93 59 01 e4 59 70 b3 bf c9 7e 2f 59 ee 50 d4 bf
       -0.07593309227499949 -0.31743963918232204
0004e0 3f ec ac de 3f d0 c7 3f d7 bc b1 a3 18 f1 d0 bf
       0.1860427701265923 -0.2647153471543339
0004f0 b9 06 d1 7c 82 27 9b 3f 93 71 39 c2 a5 9a d6 bf
       0.026517905109591598 -0.35318893401361
000500 88 57 02 dd 81 63 dd 3f aa 0e c5 9a 06 56 bf bf
       0.45919844229626294 -0.12240639952238533
000510 dd f5 a1 97 8b 87 c5 bf 06 b0 8e a9 e7 44 df bf
       -0.1681990137475812 -0.488580623229382
000520 33 82 b6 f2 ee 00 ba 3f ef 93 a8 5d 02 5f d7 3f
       0.1015767424164629 0.36517390390719034
000530 de 3d 5b 61 e1 ff c5 bf 1b 90 37 df 64 e4 d3 bf
       -0.17187134984713642 -0.310815065369981
000540 c3 e2 0e e0 96 29 d2 bf 4a 78 d9 0a 4e 49 a6 bf
       -0.28378841286352613 -0.04352802164497456
000550 6b d7 ce d1 c9 24 d9 3f 37 1a 4d 5b 1f 38 b6 bf
       0.3928703831583024 -0.08679386118920084
000560 d8 e7 b9 c5 e0 36 ca 3f 54 db b6 b9 52 bd c8 3f
       0.20479974417304336 0.1932776839073208
000570 fe f4 1b 8b d6 51 c1 3f 28 5c f0 d7 2a 5e 93 bf
       0.1353099993938613 -0.01891390746103752
000580 74 f2 5f 5f fd a6 b9 3f 7a 40 8f 2c 68 f9 ba bf
       0.10020431116567768 -0.10536814773445427
000590 74 b4 d7 d9 31 3f c9 3f f3 d7 cf a7 f8 06 d3 bf
       0.19724105011792725 -0.2973004950321176
0005a0 aa 0f 67 c4 c3 cf b7 bf a2 29 69 a8 26 c0 d2 3f
       -0.09301398797020846 0.2929779667507778
0005b0 df 91 0f 4e 7d 70 d2 3f 73 9a 65 4b 4a b5 d0 3f
       0.28811581252219115 0.2610650764749273
0005c0 b4 24 f0 f4 18 fe a5 bf 06 28 9d 3b e0 5e d6 bf
       -0.04295423498121789 -0.3495407659689821
0005d0 52 8f 31 4d e5 e9 d0 bf d2 44 06 f4 64 48 c9 3f
       -0.26427586115300017 0.19752180018671212
0005e0 c6 da d2 ac b3 e3 c4 bf 98 ac f0 b3 34 b6 b3 3f
       -0.16319890917448826 0.07699899094648044
0005f0 54 ad 90 f1 4e 3f d6 3f 3c 0b b1 ab 89 24 a2 3f
       0.3476140364679925 0.035435011108822384
000600 04 be 42 85 89 d4 b2 bf 96 43 31 f7 07 5a be bf
       -0.07355556014476156 -0.11856126580211276
000610 bb 05 85 32 d1 0a c0 bf a2 ec 4a 22 c4 58 c4 3f
       -0.1253301140477968 0.15895892786452231
000620 2a 0d 5e 14 d8 ec d8 bf b8 4f f9 58 52 6e d0 3f
       -0.3894558142566945 0.2567335003743625
000630 f8 1b b9 a0 b5 9f d5 bf 49 b4 9c 99 5c a7 c6 bf
       -0.33787289329160286 -0.17698247433273398
000640 9f 41 5a a7 b2 ce d6 3f 7f be 24 38 eb 23 b2 bf
       0.35636583655380066 -0.07086057778064435
000650 41 1b cc a3 4f 90 c7 bf 9c 22 91 dc ed 50 d1 3f
       -0.18409152505793183 0.27056452312221224
000660 71 45 c7 da 2c 28 cb 3f 80 fc b3 a6 54 c6 d0 bf
       0.21216355021037317 -0.26210514335247836
000670 4b 7a 55 22 dd 48 c2 3f 06 9b 22 3d 84 7a c8 3f
       0.14284862686595753 0.19123890862575638
000680 a3 43 24 27 b5 05 ce bf f6 dc d1 78 a5 d9 d1 bf
       -0.2345491829987881 -0.2789090804939883
000690 23 5f b1 a7 ba ef d4 3f 22 60 84 71 f6 bc c0 3f
       0.3271319043756071 0.13076668303324462
0006a0 6d f9 fc 50 5b fe cf bf 9f 74 58 dc f0 a0 d2 bf
       -0.2499498506021597 -0.2910730506717502
0006b0 3e f6 38 f7 76 b9 d5 bf fe 5b 5d a9 91 c2 c2 bf
       -0.33944486754248604 -0.14656277436981208
0006c0 b1 91 82 da f4 9c bd bf 1d c6 1a be b2 8e d1 bf
       -0.11567621550290742 -0.27433460774327206
0006d0 d4 1e 55 70 8c 12 c2 3f 30 99 47 20 82 be b2 bf
       0.14119105801568443 -0.07321942604139475
0006e0 87 ac a0 15 1b 8e d3 3f 6d e6 aa 92 bd aa ce 3f
       0.3055484496314382 0.23958558713438852
0006f0 05 ad 05 5d 65 e8 b7 3f 15 e0 61 77 eb ab c3 3f
       0.09338983079003434 0.1536840756341468
000700 6e b9 92 7a 5f 0d bd 3f e7 4d 8e e6 b0 7a ca 3f
       0.11348530523784969 0.20686923272715704
000710 d7 7a d2 db 83 c5 6e bf 75 4d 9f 99 44 eb a3 bf
       -0.0037562919010974793 -0.03890432715675277
000720 12 0c e5 13 4e 0b 9c 3f 85 1d 48 67 04 e8 d6 bf
       0.027386875118519845 -0.35791120611289556
000730 b8 33 f5 f9 01 7d 80 bf 5c ad fe 2f 2e 08 dd 3f
       -0.008050933304412186 0.4536242932033099
000740 c5 9f 59 31 84 26 c5 bf 44 27 4f 86 47 5d c0 3f
       -0.16523792657539907 0.12784666116777477
000750 99 ef 74 a7 27 58 d1 3f d8 99 9c d9 bd e6 cd 3f
       0.27100554803086535 0.23360417485782992
000760 2c cd 68 de a0 e3 cc 3f 7f 5c ad 71 70 90 ca bf
       0.22569666728814164 -0.20753293562549754
000770 3f e5 c6 35 94 83 c8 bf 4e 96 00 65 9e 8f cf 3f
       -0.19151547075106554 0.24657039577248202
000780 d6 12 31 d1 e5 46 b3 3f ab d8 5a f6 7e 2f b5 3f
       0.07530056340426525 0.08275598063014182
000790 3f 07 a4 a9 f0 78 d2 bf a0 54 3c 84 20 ea c9 3f
       -0.288631597199231 0.2024574895555462
0007a0 74 b5 bb 7a 59 d5 e6 bf 67 da ac 51 8e aa d4 bf
       -0.7135436436780496 -0.322909908066697
0007b0 ef 58 79 61 e5 75 c5 bf 78 25 9e 4c 28 63 ab bf
       -0.16766040095780663 -0.053490886070970356
0007c0 b5 9e 27 15 73 72 c3 bf d1 c8 a1 23 7e a8 c2 bf
       -0.15193022282550364 -0.14576699008791263
0007d0 22 54 5a 33 0f 5d de 3f 17 61 6e 3f fe d7 c5 3f
       0.4744298936360015 0.1706540879938607
0007e0 06 64 e2 74 88 42 8f 3f 7e 18 30 db 0a fb d7 bf
       0.015263620440508784 -0.3746974125391559
0007f0 65 4a f4 8d 37 1b a7 bf a7 22 6b 55 8d 3e d4 3f
       -0.045129524305725956 0.31631787625932833

linears.3.bias f8 [30]
000000 08 2a 17 2f b0 f6 b1 bf 42 1e 34 6b a5 9b 9a bf
       -0.07017041349096342 -0.025984368007838883
000010 7c dc 9f 1c c2 c9 9c 3f 18 ca a8 42 a8 c0 b1 bf
       0.02811339664182498 -0.06934596660065784
000020 2d 16 9d 0c 70 b8 a8 bf ef 8e a9 6d d7 40 b1 3f
       -0.04828214792227601 0.06739565303137927
000030 98 a7 62 57 07 23 a6 3f aa ec 6c 22 3d 31 68 3f
       0.04323599759784641 0.0029531663925844347
000040 c2 bc 82 5d d1 04 a7 bf 15 16 a0 f3 a2 e0 b0 3f
       -0.044958632149581415 0.06592768142589762
000050 06 55 c8 c1 86 da b0 bf 11 3d fd 64 74 63 ac 3f
       -0.06583444815654013 0.05544627888468246
000060 6a 19 79 61 af 51 a1 bf 36 aa d3 99 ed cf b2 3f
       -0.03382633271080489 0.07348523145234584
000070 7b e7 f7 f4 f9 90 78 bf a6 ab 78 41 ee dc a3 3f
       -0.005997635263605856 0.03879494237147378
000080 4a 39 2c b4 4e e6 af bf f1 73 71 33 e0 1f b0 bf
       -0.06230398129820232 -0.06298638587891482
000090 70 9d 36 2c a8 04 a4 3f f3 38 95 78 6c bc a0 bf
       0.039098029515396315 -0.03268755886039001
0000a0 d4 1a 34 b8 29 00 a0 bf 03 16 df 05 da 36 91 bf
       -0.03125124333933163 -0.016810804947246193
0000b0 dc c8 df 8f 2b 56 a2 3f 41 96 5c 21 49 18 b3 bf
       0.03581367617870665 -0.07458931984418717
0000c0 e7 09 97 fa a8 6b 61 3f 82 b6 f2 e6 90 ba 9e bf
       0.0021265316360949862 -0.030008567901566703
0000d0 c4 6e 12 6f f3 f8 b3 3f d9 8a 47 30 5f 8b ab 3f
       0.07801743947714629 0.053797697680939734
0000e0 55 64 f9 70 54 e3 a7 3f 9e 4e 43 c7 c9 89 b1 bf
       0.04665626410560068 -0.06850873102967589
