1D_supercritical_InverseProblem_C_initial_60/Models/Model.ckpt-32500.pt (torch, 82425 bytes, 43 tensors)

linears.0.weight f8 [30, 1]
00000000: e1fc 7b6f a39b fb3f e9ff 1d38 43b8 c73f
00000010: e1c8 fd78 ff7c a43f 79af 572c b70c 9d3f
00000020: 8a73 a800 2649 05c0 6239 7d4d 7d1d d9bf
00000030: c365 bd77 a219 983f c687 00eb f36a 993f
00000040: 3dd8 33e7 96e2 9dbf bc34 6408 8816 05c0
00000050: 408c ba98 8edc 00c0 c330 1d61 5fd3 e83f
00000060: f1de e976 ff80 6abf 979c 2885 ce4b 0140
00000070: 6431 9bf9 6100 0140 d96b 89b0 d872 0640
00000080: 966e 68e2 83ee d3bf cc4c cb79 892a 01c0
00000090: b104 2fb0 5c4c ca3f 74a4 337b a9bf ef3f
000000a0: 19d6 eb47 17f2 b7bf b942 bb0f b502 693f
000000b0: ebae d55f 4c44 70bf 67e7 f4db 7793 e6bf
000000c0: 6206 f3bd 0d67 6bbf e00a 3800 8efc 07c0
000000d0: eefe 0b58 b8f7 843f 17a4 beed a3a4 fe3f
000000e0: 8f27 d998 b25f dbbf ec42 2d30 96f7 fe3f
1.7254976611000574 0.18531074752900104 0.040016158599330394 0.028368818360760415 -2.6607170154006257 -0.39242489402103875 0.023535288389529684 0.02482205507124726
-0.029184682713968114 -2.6360016494350855 -2.107693856423367 0.7758023163564974 -0.003235339120973062 2.162014999677534 2.1251868725286602 2.806077365106358
-0.3114328108801855 -2.145770026699756 0.20545538523405107 0.9921462446483376 -0.09353776460542242 0.0030530487400500486 -0.003971384370156743 -0.7055014892605244
-0.003345038261245035 -2.9983177201369102 0.010238113581635368 1.9151953970815663 -0.427715920701865 1.9354459649950355

linears.0.bias f8 [30]
00000000: 7406 c469 9154 e0bf 6b6c 855c f980 f5bf
00000010: 35db 2a71 7685 ddbf d2f5 90d2 c41f e3bf
00000020: 68ad 3aa5 4309 f13f 2593 6d41 9c97 f93f
00000030: 3ca9 af45 0d9f f1bf 87a1 bbee b618 e0bf
00000040: 2f9b c407 d873 9ebf 821f 5cf9 ba23 f4bf
00000050: 0fa5 09f2 cfc5 e3bf bd75 a1a9 d80e 03c0
00000060: ae13 8eda fbdd dc3f c069 0efa c8c7 f8bf
00000070: f37c bd40 ae7a fa3f f754 b540 96b3 f23f
00000080: 5cee 2b43 20bf f43f ba5f 64e0 986c efbf
00000090: 47f9 6fde 5326 f9bf a2c3 3d75 c88f ebbf
000000a0: eb35 45b3 0982 e63f 3d5b 0e49 fe06 f1bf
000000b0: 63ec bf83 3ed3 933f d1a5 4378 f9a6 00c0
000000c0: a7ff 1ad1 558a d93f 32fe 6812 a848 f5bf
000000d0: 10f6 c5f2 6cc2 f0bf cb23 04e0 35d5 d73f
000000e0: a8ea 15ae eded e13f 706c 971c 4996 f23f
-0.5103232446419512 -1.3439878095730602 -0.46127091456894515 -0.5976280319807137 1.0647617773309666 1.5995142513067517 -1.101331016742349 -0.5030169165375334
-0.029738784288521444 -1.258723234235703 -0.617897007684549 -2.3822491886519104 0.4510488161397984 -1.5487756507705939 1.6549513367570483 1.1688444640797664
1.2966616271868565 -0.9820064909608768 -1.5718573273621403 -0.8613016404980167 0.7033737660764791 -1.064207349181472 0.0193605201638828 -2.0815305133480497
0.3990683118863622 -1.3302384108682301 -1.0474671824771384 0.37238833309725966 0.5602939987287145 1.1616908184867292

linears.1.weight f8 [30, 30]
00000000: afa2 efca 8700 cbbf e10e 9bfe 43d6 c1bf
00000010: 02b9 096d 5118 c03f 0403 118a 152b cf3f
00000020: 4b60 b339 2ce3 aebf 3257 292f 594d c2bf
00000030: c58a 0ce0 4496 843f 9fd6 40ff 3214 c3bf
00000040: d3bc b46f 8a61 c0bf 7294 54a7 879b d4bf
00000050: ba73 b85b a1bd c1bf 04b7 6937 0051 cdbf
00000060: 1ce0 50cc 0c73 a0bf 452c f24a 7634 b3bf
00000070: 9ce9 486d f439 c4bf 05be be3c 4e60 a2bf
00000080: cab0 3bf4 3096 cebf 4dd0 ff50 343b 9b3f
00000090: 9c0b 539f b7fb d0bf b82b 9a89 2a50 9f3f
000000a0: d93d 0e42 ef5c aabf 239b 2a9d 2f1e 993f
000000b0: 8885 34b4 79d1 d1bf aaca 0fa4 6840 d13f
000000c0: af39 406c 308a b33f 55e2 a666 2f1d d2bf
000000d0: 7c34 ecde efb2 d0bf 9eac 3af9 685d b93f
000000e0: 3961 cdd3 a5d7 b43f 10a7 95e1 7b00 cfbf
000000f0: 6de1 2f69 e7c2 b0bf 61e9 a86a e8b2 ca3f
00000100: 9430 c359 9c02 a3bf 96fb 6bce 5c55 bc3f
00000110: abdb 9491 63d7 c1bf a4cf e219 5682 c63f
00000120: 735b bd80 89ad 9fbf 9efc b777 02a6 d13f
00000130: d188 d7b5 a46c 8f3f 6ab4 8d3b fad1 b1bf
00000140: fd6f b6a8 99db b2bf 791e 6e95 d108 cdbf
00000150: 205a 87d6 1c29 b8bf a577 5cc6 0eb7 bbbf
00000160: 8f06 9665 8ff9 d2bf d325 5351 4fa5 a1bf
00000170: a455 c82f 0bb2 923f eb1b 65bf f103 cb3f
00000180: c246 f83c 6bde b13f db38 583b a8f9 cabf
00000190: bee6 4922 114a c03f f87e 0d48 c86e de3f
000001a0: c577 3a11 0ece c3bf 7b16 8f04 159d bbbf
000001b0: ad3b 1495 f06d d5bf 81bf 2a43 3080 a2bf
000001c0: 3eea 68aa db9b c13f 7b33 f436 db76 b8bf
000001d0: b2e2 2d22 d250 c53f 9017 9ec3 f2f6 b7bf
000001e0: 57c0 61be 84cd 95bf 87bf bec2 d799 c0bf
000001f0: 19a6 b2ac a340 ca3f 2789 2932 ab98 9f3f
00000200: 5d05 f277 f535 d33f ce56 8beb 283c 85bf
00000210: 649f ab50 1998 b53f 463a cccb 84cb cfbf
00000220: 73fc 7b4e 3a1d cabf 9c55 1d1a 4b4d c6bf
00000230: 9ae4 b2f7 2821 cb3f 172f 568a 7410 d03f
00000240: f65b 1635 20d6 d8bf 93db 95d9 0375 cfbf
00000250: 5f90 e0d9 3528 c9bf 3c14 8642 bbac bf3f
00000260: 1ccf c011 533f 9a3f badd d2ad c4f2 743f
00000270: 712a 7de5 a5f0 c23f 7934 c47d 284b cf3f
00000280: 9d9b 2883 e9b8 cfbf 81d4 d247 fdce c73f
00000290: 96ee 910e 3c26 ce3f 7fd2 ba4f 42f2 ce3f
000002a0: 8da8 cfea cc1a d5bf eaf7 2321 387d a0bf
000002b0: 994d e44c 1d16 ae3f e4f9 6b1a a2a1 c83f
000002c0: 5345 6e51 8b9a a03f 1296 c1d5 1c14 babf
000002d0: 8b49 a409 0f95 b2bf 2536 ad32 6a7a d03f
000002e0: 1d0a be99 734c b93f 9715 24cd d97a c93f
000002f0: 6983 2bd7 d3d5 b5bf 82e5 3f5e 9328 98bf
00000300: c45c 78e7 7849 a93f 6975 b356 08e0 abbf
00000310: 6fab 5acb 8581 c03f 6924 c21a 6d5b 603f
00000320: cf49 3f5b a9eb c73f c2d8 7119 7858 d73f
00000330: f7c7 f3da 9313 a0bf cc3d a926 7f9f b9bf
00000340: b91c 5a2c 1d18 d83f 682f ab7d aa30 d33f
00000350: b444 de32 1037 903f c938 ea23 c68d bbbf
00000360: e697 5e61 39ce c1bf 5128 1494 7eda 61bf
00000370: 36a8 ba63 bf0c af3f 33b4 01be 83b9 903f
00000380: 0126 88e3 87a4 c6bf 7f6f a0d3 9bf6 d7bf
00000390: 4435 b64b 26da a0bf 67a3 cfcd 9983 d1bf
000003a0: c142 b5f7 1bb0 993f b5df cf64 fd26 aa3f
000003b0: 9ed4 e3a7 ac43 d3bf 7af4 e138 94fb c1bf
000003c0: 761b 10c6 709d dabf ee67 7f84 556a a6bf
000003d0: d8ae 4f0a 959c c73f fafa bb26 9b5b a03f
000003e0: 3c77 3aa2 6bec c8bf 084e 9c81 2f40 c73f
000003f0: c128 0ae4 4308 c4bf 8c1c 3565 19ac cb3f
00000400: 30be 7c68 f859 d33f 1c4d 205c 126e b9bf
00000410: 0829 ba37 5846 d23f d104 0169 feae c43f
00000420: d264 7725 068b d23f b083 bc4a 5b65 d0bf
00000430: d474 0f3a 37fd a33f b19f a5f8 28af d5bf
00000440: 020e 7b4a 0b37 da3f 02b1 5a2b 9d09 da3f
00000450: 134c 780c 776c d8bf 4ac9 67d6 edff c1bf
00000460: 31de a0c4 74bd ce3f 3e84 84c1 5a5f c23f
00000470: 8a3d a817 328d d33f 1cc8 f4c2 dbe2 a8bf
00000480: aa65 e46b 25f5 c23f 16cc 6216 1de9 cc3f
00000490: e5cb bb1a 42e6 c83f 9968 b985 e90b 6d3f
000004a0: 93e6 75f7 270e abbf 4445 b2fa 0a8e c4bf
000004b0: dc0f 24bb 1d1f ca3f 1407 9725 0bfb c83f
000004c0: 7b1c 2db2 8f98 d3bf 78f4 f97b ea47 72bf
000004d0: b084 5380 e639 cdbf 3e24 94c4 44ce cabf
000004e0: 4617 ab33 5871 bcbf 216c bfe4 f8c1 d4bf
000004f0: d983 e307 58ad c2bf 74ce df5c 61d0 b3bf
00000500: 8790 5cec 3a47 b23f 202b 424b b748 b7bf
00000510: 98e5 0ff2 8087 b53f 1aea cbea ddd5 d4bf
00000520: db3f 30c4 8313 ccbf 4922 b27d 8aaa d4bf
00000530: 936d 2180 c1c4 c73f 896f e047 7676 ca3f
00000540: 9725 2dab d93e c4bf 537c 48f9 252f a0bf
00000550: e5e6 8a80 cd98 a5bf 95d8 c300 e657 9dbf
00000560: 63fb 4cfb 2cd6 aebf 71dc e6db e6ae c9bf
00000570: 8efb 62c2 eab1 bdbf 8ec5 b1a1 4ca8 bfbf
00000580: b16a e431 447c c03f a872 9e8c 4c7e c43f
00000590: 2c1e 1e6b d3a2 c03f 7a20 80ba 8711 d2bf
000005a0: e7d6 802b a41d ccbf 52b3 5285 0325 bf3f
000005b0: dae0 0099 493c b53f 9701 2200 ff42 b3bf
000005c0: 3aaf 47cc c7da c03f 39fd 35de c97a cd3f
000005d0: 574d 8988 7d87 c63f 7841 1bac a868 cfbf
000005e0: 3bd6 b632 d57c d23f 053e 2ab2 7ec8 b0bf
000005f0: a8ff 5346 2678 d2bf 837d a895 4a54 c93f
00000600: 00ef 7337 42a3 633f 6115 8dcd a4cf d13f
00000610: 1e47 026b 6843 c13f 7056 34cd 9813 883f
00000620: 3f2a 070d 5b2a b9bf d04f 754d 2360 c5bf
00000630: c995 16b6 8b8a c43f 43e5 3e11 a3e5 ce3f
00000640: 1e83 e269 a288 b1bf 45fe ea64 12e1 c6bf
00000650: 0208 082a ca1f c83f 698f ebca 0a45 ca3f
00000660: fc59 0d7f 0ca1 c43f d3dd cd6d 75fd d03f
00000670: abb9 396c 37de c03f 4fb2 c3b6 ecc6 d03f
00000680: 808e 47b9 91e2 c13f 0cb2 c26e d931 d2bf
00000690: 4634 614e 312d d33f c6b5 561f 90fb cabf
000006a0: 7dd2 9286 191e b3bf cc0a e5a4 b785 c53f
000006b0: 8e4a 08ee ca28 b43f 82ca be64 6812 d23f
000006c0: 9c6b 9b4a a2e2 d33f c54d 899f a150 c9bf
000006d0: fb5b ac45 467d ce3f 38f3 5378 7492 c6bf
000006e0: b118 dfab b6f6 b13f d412 ebce 69d5 b43f
000006f0: 108a f63a 8e02 b53f 4c1c 8ae8 b68d d03f
00000700: daf2 7b30 9aa7 b93f feac 5b28 77f4 d2bf
00000710: 9bf5 006d 0d72 bcbf 79e0 97ad 511a d23f
00000720: 08fe 904e d90b a43f e4df ca45 7af8 b53f
00000730: 4084 8c3b 1f19 babf 3f0e 8e30 cb9a d53f
00000740: 83e5 1dff fe46 ccbf edff 755f ac89 b5bf
00000750: d1b4 2a1d dc6c d4bf 0a35 a4b5 3f51 b53f
00000760: 11f7 cb98 7840 c03f f7cb 73d6 21e3 b1bf
00000770: 635b f07e cbdf cb3f f59e aec2 1a62 bbbf
00000780: af01 e5cd 202e bc3f 5c6f 3e98 fe66 a33f
00000790: 9294 eb3b ba71 cc3f 1768 45c1 8806 bf3f
000007a0: 6258 95e1 46e3 833f de39 c495 a6a6 bebf
000007b0: 7575 181c 19ce ca3f 576e a51c 35d3 cf3f
000007c0: 9d57 e9f0 fbf4 c13f 4331 a659 5c8f b1bf
000007d0: f40a 06da 3d8f b23f 79b5 24b1 f602 a3bf
000007e0: f6c7 f6b4 244c cdbf 56e4 b85c 27cd bbbf
000007f0: d65a d9ea 85ff a9bf e0f1 4816 3667 a2bf
-0.2109536877535638 -0.13935136730116596 0.1257421286022194 0.24350232354665746 -0.06032694057802298 -0.14298548510367365 0.010052240455086356 -0.1490539308885461
-0.12797670797724567 -0.3219927915654984 -0.13859955767193616 -0.2290344496317901 -0.03212776178446594 -0.07501925782905612 -0.15801863990948284 -0.03589100352780509
-0.23895847249457908 0.026593034213832124 -0.26536360320113217 0.030579247139524063 -0.051490284741813226 0.024529212920835108 -0.2784103641334572 0.2695561983265785
0.07632734911769633 -0.28303132080649124 -0.2609214474658257 0.09908157429406336 0.08141552372888307 -0.24220226778862086 -0.06547399824183282 0.2085848351287707
-0.03712929340108065 0.11067752875895417 -0.13938564880819845 0.17585254920925053 -0.030935429079672127 0.2757574242713846 0.015343939589858387 -0.06961025194114404
-0.07366333359681217 -0.22683162495035328 -0.09437732923047593 -0.10826198904803037 -0.2964819423724316 -0.034464338948577165 0.018257307807365245 0.2110578712983789
0.06980009306451065 -0.21074393174826053 0.12726034330608188 0.47551161800764374 -0.154725798046398 -0.10786563264181297 -0.3348351913309056 -0.03613425083074074
0.13756891079704475 -0.09556360332153517 0.16652895611675472 -0.09361188197917003 -0.021291803474412365 -0.12969491013563703 0.2050976365328985 0.03085582250276633
0.30016838754098335 -0.010368652046433804 0.08435209483616074 -0.24839839888632492 -0.2040169604515288 -0.17423380637289376 0.21194946379344942 0.25100434789122644
-0.3880692022734701 -0.2457585155895826 -0.19653962267432498 0.12372942327608966 0.025632188757483396 0.005114334370936497 0.1479689951468859 0.2444811452955127
-0.24783057121495924 0.18600431448945545 0.2355418273108298 0.24176815884642974 -0.32976077013757604 -0.03220534710452212 0.05876246989842144 0.19243265428663314
0.03242907876041081 -0.10186939448029644 -0.07258695588487833 0.25747160862815327 0.09882280829882757 0.19906160847328344 -0.08529399874852363 -0.023592283847369007
0.04938867402614158 -0.05444360788690512 0.12895271710780373 0.0019967204044105025 0.186879319719607 0.36477472767672847 -0.031399364926883715 -0.10008997625231258
0.3764717991948135 0.29984533569653715 0.0158350497291095 -0.10763204933957406 -0.13910596136446357 -0.0021793815836917215 0.06064413158794972 0.016332682106100015
-0.17689608201935417 -0.37442680040998505 -0.032914349310071006 -0.27365727518786404 0.025085865968608404 0.051078718715813855 -0.3010055198240681 -0.14049008157227033
-0.41585940687257705 -0.043780014442475465 0.18446600917319844 0.03194889877157965 -0.19471497937495907 0.18164628819123174 -0.15650223383665288 0.21618955079813806
0.30236635402522705 -0.09933581113027795 0.2855434936724497 0.16159038664958428 0.2897353521235121 -0.25618631647563017 0.03904125770325498 -0.3388159206574484
0.4096096255636611 0.4068367884999732 -0.3816201802994225 -0.14062283486380017 0.24015674210544227 0.14353498887160926 0.30549289999267926 -0.04860579256855166
0.14810626762554807 0.22586406319678137 0.1945269232306536 0.003545719240531997 -0.052842377622210134 -0.1605848049262396 0.204074589135529 0.19516124091574538
-0.3061866035463436 -0.004463115648488551 -0.22832947984628538 -0.2094198188645197 -0.11110450040277184 -0.32433912600180476 -0.1459150351065819 -0.07739838139951322
0.07139938612505335 -0.09095330798497203 0.08409887227744262 -0.3255533974585504 -0.21934554175868368 -0.3229089953897853 0.1856920123708333 0.20674017438511452
-0.15816803796978426 -0.03160971324927488 -0.04218141740916596 -0.02865561847371419 -0.06022778098712569 -0.2006500791301025 -0.11599604841010899 -0.12366179416291898
0.1287923091520802 0.1601043402305511 0.12996905069688702 -0.2823199578565504 -0.2196545803469043 0.12165853505093807 0.08295116410670592 -0.07524102929347119
0.13167664980516652 0.23030970907346118 0.176009837787755 -0.24538143542896385 0.2888691897636339 -0.06555930948001538 -0.2885833441541714 0.1978848677399406
0.0023971837323396583 0.2782985694251093 0.13486962533038932 0.011756128084509515 -0.09830254619661448 -0.16699639589444226 0.1604780806639339 0.24138296453547
-0.06849112591818282 -0.17874364783891586 0.18847014477074714 0.20523199947558204 0.16116481975286934 0.2654698917681035 0.13178150925109597 0.26214139793481633
0.1397268442807338 -0.28429256264169633 0.2996333375384136 -0.21080209284029489 -0.07467803512083467 0.1681432299756892 0.07874744712197865 0.2823735221710778
0.3107076386056009 -0.1977731732355165 0.23819807436004212 -0.17634445071589666 0.07017080017166923 0.08138142873492465 0.08207024516608663 0.258649565781927
0.10021365817733444 -0.2961709875223305 -0.1111153021929198 0.2828563876387374 0.03915289959013185 0.08582271770399036 -0.10194583133535762 0.33757285825433664
-0.22091662842630563 -0.08413197832669513 -0.3191442761261217 0.08327100929837541 0.12696750126627213 -0.06987201200153935 0.2177671785181828 -0.10696570637685084
0.11007885958407003 0.03789516075559504 0.22222068715851556 0.12119345396550361 0.009710839995630664 -0.11973038822564017 0.20941461440899514 0.2486330404161545
0.14028882277733326 -0.06859376133633525 0.072498193481845 -0.0371319857825751 -0.22888621173984774 -0.1085991479275362 -0.05077761165437315 -0.03594368955643623

linears.1.bias f8 [30]
00000000: 2062 2a4b b841 913f b070 6101 36de 7abf
00000010: 7536 b9a7 4d23 92bf 8a01 6ca5 0bdf bb3f
00000020: 404e 66ef 10ba c1bf 37a4 4eee 0003 99bf
00000030: bdaf 6ca8 86d9 72bf c62f dbb7 e9f7 953f
00000040: 2f91 d7ee 3364 a43f ed0f edf6 ba6b a9bf
00000050: c41b 10f1 406a ae3f 7c76 fde5 28b0 a53f
00000060: 19cf 8eb5 151d c33f d256 8c0d 78e6 6b3f
00000070: c8cc 94e2 322b a0bf 0e71 e5d5 a7f7 953f
00000080: 9165 30c7 425a c2bf 0c4c effd e698 c6bf
00000090: 961e 8aa3 8fe4 c0bf d9f5 f765 21b0 ba3f
000000a0: 5c8d 548d 112d 94bf feda a4c1 3753 a3bf
000000b0: 3f02 aa77 ed13 90bf 84d6 05a1 7406 82bf
000000c0: d148 dd4c 4727 ac3f 587f 12a2 ede5 693f
000000d0: cc41 9c69 668b acbf af78 8c99 f913 ba3f
000000e0: 9665 d2f1 d975 933f 56d0 d7f8 7fd3 9f3f
0.01685226401113671 -0.006559573134009053 -0.01771279655650067 0.10887215412731713 -0.1384907883590234 -0.02442552046310117 -0.0046019802164600195 0.021453525397006755
0.039826987176441946 -0.04965004219278044 0.05940440123236315 0.042359617304765756 0.14932509770516658 0.0034057945998807538 -0.03157958045849224 0.021452543668929507
-0.1433795425989897 -0.17654120825918118 -0.13197513089493346 0.10425003756969121 -0.01970317292319855 -0.03774427641694976 -0.015701017788616985 -0.00880137554552652
0.05498717129980125 0.0031613961478597456 -0.05575103797139355 0.10186729429958306 0.01900425470794217 0.03108024555508878

linears.2.weight f8 [30, 30]
00000000: dc1e df47 9464 bebf 4e12 e74c 1829 b53f
00000010: fa90 d87d 696e ccbf 6b92 4379 20a0 d4bf
00000020: 949c 4625 856c c2bf 7b34 9cac 147c ce3f
00000030: 75c7 d0af 8ff0 d83f adb3 d3d4 c9be d1bf
00000040: 846f 8806 3e10 a8bf ff91 d230 8009 d1bf
00000050: ad6f 0663 ddec d6bf b048 c690 648a d0bf
00000060: a337 04f3 a3eb b8bf d206 781f 4511 d1bf
00000070: 885e d185 a81f cb3f a2f0 e5e6 0d36 d4bf
00000080: a548 d446 6ca6 c93f eb94 09fc 2494 d53f
00000090: 4255 d69d cd5a c0bf 46c2 d9f7 65d9 e0bf
000000a0: 1f58 7320 7696 ca3f bad6 eaf7 9900 d13f
000000b0: 29e2 2bc4 1a06 cabf 99f5 1a13 75fd c13f
000000c0: ba21 ed2b d18a d6bf deb3 83ee fb18 b43f
000000d0: b970 8796 c678 bbbf 9b3e aa49 4264 d5bf
000000e0: f5f5 a60c 0e77 c3bf 2c91 47a0 720a a5bf
000000f0: 8541 bb08 12b1 d2bf 51ae 039b 1446 b73f
00000100: d897 66f3 5028 d23f f5a2 7b70 cfb9 d2bf
00000110: 967f 28f3 64da d93f 9d43 3168 37db cf3f
00000120: eb56 0105 f4e6 c6bf 00b1 e3c6 8b45 d1bf
00000130: 0888 6e9c e14d d43f 2392 deb7 0fb7 a1bf
00000140: 7d8e 71df 68fc acbf c67d 1d7d 90a7 a53f
00000150: 955d 949d c299 b0bf 6238 465a 980d c53f
00000160: 3ca5 fa1a aacf b7bf e867 a9d1 340a c23f
00000170: 2721 da36 da66 cbbf 9f03 703a 4291 8ebf
00000180: 37b0 7cf0 40ab a3bf 709a bf36 01b5 7abf
00000190: 0ac7 3132 cf5e a1bf ab15 01cd 7bcb a73f
000001a0: 7fbd 3743 2c37 cdbf ba7e 176e fcf9 81bf
000001b0: 4799 b2c5 1b55 ab3f e3b6 3115 76be ccbf
000001c0: fe5b 2039 5c8f d63f c46a 96c6 5bc4 d4bf
000001d0: 7f47 6c58 65ef d6bf 4b85 12e0 6f38 b03f
000001e0: 13ac bdd3 e6c9 d13f a8b5 a893 1d03 d8bf
000001f0: d211 149b d97b debf 8c72 b51e 0ae7 9d3f
00000200: 5ebe 37e3 98ac d83f 1ce0 36df 214f bfbf
00000210: 5630 4924 51dc c63f 0d8a 61e1 884f d1bf
00000220: c58c c34c 1a7a d0bf 1767 7083 1df5 c4bf
00000230: e96c 77b9 1caa b2bf a1c7 9c6b c51f c1bf
00000240: 1274 0461 9cbe c03f ab0b 0937 b7c4 d03f
00000250: 5277 d852 db20 cc3f 7ff4 1ea3 f24d cf3f
00000260: 7fb9 7de3 5798 d23f 1f20 b133 cec5 cfbf
00000270: fa1c 6754 2455 b43f 9c68 f4e8 d7f0 d03f
00000280: 1b7b 8e27 f356 d6bf caa4 9bad 1120 d73f
00000290: e23f 5159 5687 b8bf ae04 cabf d2c8 c93f
000002a0: 54f4 9a28 f09d 9a3f 071e 562d fcc1 b73f
000002b0: 212e b5de 5ee4 d43f 3f53 ea27 2bd3 b9bf
000002c0: 1cb3 9b26 6e12 d3bf 3dfa dfe3 124b c73f
000002d0: 8475 a217 051a cdbf 030d c4a9 eb5e c73f
000002e0: b31e 43cf e9de cbbf 7024 4d18 b955 bfbf
000002f0: 2ded dbe1 49c9 d23f 0d9b 8bca a716 d1bf
00000300: 60cb a8f2 6af6 d13f 106b d7f4 3628 bc3f
00000310: af3d cea6 2bf3 d53f ea58 906d 0317 bebf
00000320: 4118 fd0b 07f1 e1bf fca2 f4de cfb9 b63f
00000330: 69dd 1143 5004 c5bf 2544 ff73 40a0 9dbf
00000340: f6dd bfad 6bcd c83f 491b d8db 9bac cdbf
00000350: 437f 63e6 a623 b43f 3316 7656 c860 ca3f
00000360: e7aa f312 8a79 d03f a56c 3c21 c9c8 dbbf
00000370: 72a5 876e a6ef c63f cf91 d4e6 8eaa ae3f
00000380: 64b9 27ee a6ed cb3f 936f a7be 6463 c23f
00000390: 577b e0e2 c1b9 dcbf a283 9553 e50b b33f
000003a0: f2ea bbea c91f c33f 3d5b 3ce9 481b cf3f
000003b0: 69e7 e51c 3a2e cbbf 1435 f883 c1d7 a73f
000003c0: be60 2009 98aa 973f 8afa 16eb df1f cabf
000003d0: 3ed1 4971 43bb cebf a60c a55f ef16 cd3f
000003e0: 4061 2f33 93d3 c1bf 93c7 2098 66c0 c23f
000003f0: f072 b76d 1b51 cdbf d8e4 bc73 0b3f bdbf
00000400: e2a3 b75d 7b04 c73f 187f d2c8 15e4 cd3f
00000410: 4d04 75ff f484 df3f a306 9c46 4968 d0bf
00000420: 44ca 9cd7 ddfa c2bf 741c dd0f 8b46 da3f
00000430: 263e bee0 4809 b8bf fe18 538d fe46 c4bf
00000440: bb2f 43dd b6ed c03f a942 c5fb a739 b63f
00000450: 9b5a 25d1 0677 c4bf 2a29 10a2 db25 e03f
00000460: 99f2 3057 81d1 cbbf a579 a089 a827 bd3f
00000470: de86 67bc c4d0 92bf 7b82 a301 2b69 8d3f
00000480: 6279 fa96 3f09 e13f b031 0393 eeaf ca3f
00000490: 5d6c 2e8d 3c01 cc3f 233a b5c7 dd37 c4bf
000004a0: df96 8991 2cea b53f a444 20ad e7bd b83f
000004b0: 126e e84d 5996 c3bf 1fb9 98b8 f43f d23f
000004c0: a8ee f352 5ae8 b83f 01c9 b5a7 8291 8bbf
000004d0: b776 2085 9004 b6bf 8547 7993 1d2c cebf
000004e0: 8184 484b 1c1f c33f c802 b217 9df2 bb3f
000004f0: 50f7 cd10 4599 d33f 62f1 6598 6846 d33f
00000500: 71b4 45df 74a7 aabf 9e8b 115d d102 953f
00000510: 7bf0 bfea a8bc cc3f cee4 79fb bf74 d5bf
00000520: b15f 900c 1045 d13f e253 8764 e151 a73f
00000530: b802 e159 ff83 cc3f f5f9 5c15 78fc bf3f
00000540: 692e 8545 37e5 c4bf e003 0ec8 9cc5 aabf
00000550: 7ba8 1b10 e73b 5abf 8093 4893 f603 a2bf
00000560: 9a61 3b5c 3083 cb3f 5d6e 1385 35b2 c03f
00000570: 6a19 761d 75e5 dcbf c7cc 12c0 78ed 813f
00000580: 5646 3685 373f b4bf c36f 7f7e 4d2d c2bf
00000590: 1924 50af 0b59 c3bf 3329 138f 5b02 c5bf
000005a0: f8df 90e8 b9dd c6bf a0ce 6828 e0b6 9f3f
000005b0: 2edf 37c8 b3db 71bf 2fd2 b00a 0407 c23f
000005c0: 6fe1 d21c 6f08 c4bf 9007 9109 ae69 d0bf
000005d0: 92da 1e28 ddc1 c13f 987d 2635 c9f0 d3bf
000005e0: 9288 ac0d 9653 ce3f e12c 92f7 5578 bfbf
000005f0: 6418 1eb8 54b8 e53f 84f4 da71 b246 9dbf
00000600: b744 69df 7444 a23f e64c 59aa e21c d83f
00000610: f7d2 9777 90d7 c1bf 88bd b066 8179 d23f
00000620: 0d13 aa48 71d5 9cbf a5e5 fb8f c68b b33f
00000630: dcd0 fefb 6b43 c8bf b5eb 6a82 6e69 eb3f
00000640: 5954 2c9c 5bed a5bf 6d2d fb55 8a9e 813f
00000650: 10bd 29af af42 ccbf 225f 75f3 0c10 c03f
00000660: ab7f 9a87 51b4 e63f 6519 7b26 c8a9 d53f
00000670: 36b5 0408 c79e cebf fc50 1b38 cceb d3bf
00000680: df37 9146 dfbd c4bf d7f1 3ad4 62d0 d73f
00000690: 7834 915c 5048 9d3f e708 dcf3 a9b7 df3f
000006a0: 2fc0 954b 67fc d53f 13ef 3a36 242e c1bf
000006b0: 1485 381c e8a7 d23f 6f8c 6d4c f37c afbf
000006c0: cf74 755b d4f5 bd3f bad3 fd9f bd66 9b3f
000006d0: 99af 842e 066a be3f c3ee 1e5d 75bf b43f
000006e0: 8adb 12d8 fcf7 e0bf 65e6 51ad 9901 c2bf
000006f0: be32 5895 e686 bdbf c50c 60be d8a1 dfbf
00000700: b4d2 ca23 4997 bebf f48f 9c6f b69a cdbf
00000710: aa1c 2e04 b663 c43f 3ebf 821c 6a42 d23f
00000720: 5ffe 1842 880c d23f 250c 79f7 9c9d dbbf
00000730: fbc3 5765 a3d1 d03f 484c 3560 fdb9 d23f
00000740: b15f 54e4 8e34 d03f d5a5 35b8 4222 b03f
00000750: 86ac ffc3 f40b e5bf 6580 8436 96a7 c8bf
00000760: 06bc 5fcb 805f d2bf de0f 09ea b466 bfbf
00000770: 4455 feb5 bef4 e0bf de01 3a43 f7f0 a53f
00000780: e2f3 2733 29c0 b43f 023c 3546 92ca dabf
00000790: 924f 49fc 7784 d2bf 67b0 0fb4 85c1 c73f
000007a0: c5db a107 1fa9 c83f a753 0bbf 5ca2 cc3f
000007b0: 09a9 71f3 03f8 b1bf 3238 0611 bd7b c9bf
000007c0: d3b9 43b1 7b42 c8bf a719 f1a8 064f a5bf
000007d0: 1a42 3aa5 6dfc df3f fe3b af71 016e b2bf
000007e0: b2d5 375d aa05 b03f fc6a 4d41 fd5b bc3f
000007f0: fa81 d6e2 ecb2 b93f 74e2 3acb ae93 a4bf
-0.11872221712757941 0.08265830876832433 -0.22211950917074558 -0.3222733673303881 -0.1439367706309197 0.23816164425116768 0.38968269509779613 -0.2772698000324521
-0.0469989188170237 -0.26620487945390886 -0.3582070796053312 -0.25844682825221366 -0.09734558756846794 -0.2666790778458622 0.2119036343963112 -0.3157992129197372
0.20039132555445352 0.3371670209219945 -0.12777109343429954 -0.5265378800232348 0.2077167185258881 0.26566170893361696 -0.20331129625971414 0.1405474036491057
-0.3522227219550832 0.07850622723681464 -0.10731164145494433 -0.3342443198571147 -0.15207076661856403 -0.04109533506906113 -0.29205752232248755 0.09091309341936805
0.2837107064209454 -0.29259096131003953 0.40395473237912805 0.24887745463868508 -0.1789231323661434 -0.2698697511939514 0.3172534968999803 -0.03459977263927196
-0.05661323287565965 0.0422940399864689 -0.06484619471699767 0.16447739036488246 -0.09301245840710676 0.1409364722956632 -0.21407630613635684 -0.01492549649083391
-0.03841593680985549 -0.006520275823254637 -0.03392646301007403 0.04647433164113165 -0.22824624330631235 -0.008777591809973163 0.05338370121289642 -0.224562416409234
0.3525000150561367 -0.32448477166478207 -0.35836156497054356 0.0633611604739787 0.2779480998785299 -0.37519015712572434 -0.4763092054784269 0.029201658367457514
0.385534498112042 -0.12230121326035753 0.17859854003688963 -0.27047941217293286 -0.25745255943747863 -0.16373032491610992 -0.07290820625296458 -0.13378207926285504
0.13081698167016548 0.2620065724806248 0.2197527079123867 0.24456627812279305 0.2905482980339897 -0.24822404407518747 0.07942416248907938 0.26469991445049756
-0.3490569959921445 0.36133233980087864 -0.0958150833187115 0.20144113888458065 0.025993111112928638 0.09280372721524809 0.3264386343841768 -0.10087842678542545
-0.297999894812891 0.18197857023911182 -0.22735656408341864 0.18258424558016637 -0.21774027462219223 -0.12240177958769194 0.29353568131019153 -0.2670077779752525
0.2806651468010184 0.10998862721991665 0.34296695031749896 -0.11753865647219511 -0.5606723055032107 0.08877276604892964 -0.16419413828746635 -0.028931624488738223
0.19376893981801374 -0.23183010325029788 0.07866900562976036 0.20607856961957935 0.2574181733204299 -0.43412998433786704 0.17918854138342116 0.05989500587228102
0.21819006565733468 0.14365824994353868 -0.4488377299875785 0.07440026560426685 0.14940761529563634 0.24302016628709025 -0.21234823618925283 0.04656796203571836
0.023111701542888545 -0.2040977380656453 -0.24008982688577335 0.22726242227699806 -0.13926925658484812 0.14649660518767557 -0.22903769356971493 -0.11424323630935207
0.17982427669565398 0.23352310472272886 0.49249005267126195 -0.25636512656647364 -0.14828084018661702 0.4105556158942314 -0.0938916729630753 -0.1584165754376911
0.13225446513967917 0.08681726357213883 -0.15988240444376775 0.5046213307662459 -0.2173310924280443 0.11388638839750927 -0.01837451362542352 0.01436074827910371
0.5323789547726785 0.20849401644080734 0.21878773587818304 -0.15795490504611207 0.08560446313057522 0.09664772011480466 -0.15302578262422678 0.285153560896008
0.09729542279449765 -0.01346113275824168 -0.08600714922109885 -0.2357212991797121 0.1493869178384877 0.10917074039935948 0.3062298454386694 0.301172398401624
-0.052058841948430586 0.020518561654522587 0.22450744116202145 -0.3352508502790216 0.2698402521796153 0.04554657318264056 0.22277824295635695 0.1249461223751281
-0.16324511427443447 -0.05228891317438644 -0.001601195952782435 -0.035186486700957254 0.21494106772912575 0.13043850896689238 -0.4515049731930022 0.008753722535720944
-0.07908961298223835 -0.14200752903604838 -0.15115495739181098 -0.16413444982601674 -0.17864154678113642 0.03097105261458799 -0.004359915040815383 0.14083910486228166
-0.15650738627824576 -0.25645018514853124 0.13872875651368993 -0.31157140913452386 0.23692584674524092 -0.12292992872442056 0.6787513347669685 -0.028590000342536573
0.035678531906009274 0.37676302562358754 -0.1393910011244299 0.2886661055408344 -0.02815796857841506 0.0763515569232341 -0.1895575504728474 0.8566200778217224
-0.04282652169619245 0.008603173016487909 -0.2207851033485686 0.12548982513066514 0.7095115326410356 0.3384876609601604 -0.23922050372622444 -0.3112669513623272
-0.1620444387976354 0.3720938751755773 0.028596168184141096 0.49558495344548564 0.3435304868826305 -0.13422062538108345 0.2914982104867516 -0.06150017078359659
0.11703231079941932 0.026759112253291063 0.11880530009938041 0.08104642413575917 -0.5302719326199263 -0.14067383730780417 -0.11533967157465505 -0.49425333587005255
-0.11949593662104513 -0.23128395509513633 0.15929293827159557 0.2853036192345718 0.28201490835997406 -0.4314949433066338 0.2627953042675128 0.29260191340762676
0.2532078962117295 0.06302277562431098 -0.6577094867801783 -0.19261434232703603 -0.2870790468286376 -0.12266092981104701 -0.5298760942993472 0.042854048687334986
0.08105714320113536 -0.4186139760612947 -0.2893352473959051 0.18559333126120522 0.19266116974514894 0.22370490387279782 -0.07019066518265417 -0.1990887005926552
-0.18952890544410525 -0.04161854564931682 0.499782000880289 -0.07199105287075722 0.06258644843895558 0.11077864498421869 0.1003864339641111 -0.04018923025927715

linears.2.bias f8 [30]
00000000: 4fce 5999 f5b0 b1bf 32a0 cca7 b17c b3bf
00000010: 543d 18f5 350a a8bf 056e be7f 5c85 a6bf
00000020: aa9c b823 b8d8 9c3f 46a4 d878 b473 a3bf
00000030: 5808 481d 2fa2 a7bf dc54 3a0a baa3 95bf
00000040: 35dd aef3 b110 6fbf d57e aaf3 54eb 933f
00000050: 222c 9f1c b594 98bf 33fb b35d 3a52 a5bf
00000060: 252e 042e d7a0 b5bf c69e d435 3b0f b13f
00000070: 1a79 0c36 fd9a a8bf 24e6 927d 9db1 85bf
00000080: 0513 9392 d04c a0bf b5c2 17e3 53ac a03f
00000090: 3619 d07c 1133 9dbf 8f32 ab73 5e3b 92bf
000000a0: cff9 520c f3c0 9e3f b34c 285f f810 91bf
000000b0: 26e4 3a65 1616 c0bf 6739 782b c508 98bf
000000c0: f96a c28f b5fb a2bf e239 b5fb 95da 7dbf
000000d0: b5c8 8548 efcd a3bf dafa a096 6ff4 9b3f
000000e0: e225 974b b93a adbf 8f65 c2cf a1db b03f
-0.06910643571773643 -0.07612142893469878 -0.04695290200117577 -0.04398621615765922 0.028170468502278702 -0.03799213385747939 -0.046159241032015685 -0.021132380365618583
-0.0037921405432503005 0.019452407238189934 -0.024004773971494704 -0.04164297479473191 -0.08448548196263823 0.06663866104338032 -0.04805747303747605 -0.010592680353840818
-0.03183604993095027 0.03256475588921629 -0.02851512264535324 -0.017804599580630905 0.030032918574528552 -0.01666629868311693 -0.1256740564620326 -0.023470955637145432
-0.03707663898349795 -0.007288537857063267 -0.038680532076698006 0.027299636429456743 -0.057088652112337504 0.06585131952524235

linears.3.weight f8 [30, 30]
00000000: 2c1b 301a c5fe b1bf 9794 1603 49a2 c23f
00000010: c39a a3c3 b710 c33f 9275 077e a330 c2bf
00000020: a67f 0077 fa78 dabf 15b6 e5a6 2635 d63f
00000030: 6bf4 949d 4da8 ce3f 69ba f1ae 625d c5bf
00000040: 22c7 3eb3 fff4 d3bf 5ec8 673c 4835 e0bf
00000050: 0493 5ad5 299f cfbf be93 2173 1806 b93f
00000060: 5139 b37f b555 c53f 8292 f477 e46f aabf
00000070: f598 91a3 3a32 cd3f fcd7 3b15 dcee ddbf
00000080: 1e54 3e3d 522e c9bf 3094 dc34 b058 d73f
00000090: 1408 76bb 499e cabf 6f77 89fd e7f5 d73f
000000a0: 2e88 166f f07f b1bf 9248 fb28 ced8 d73f
000000b0: 3d3e 78af 3934 bdbf fe4a 87ed d469 a73f
000000c0: 682b feff 07ec b13f 0f04 d651 9164 c4bf
000000d0: 6e14 c9b0 1b4e c7bf 0aba b300 2a61 bc3f
000000e0: 4699 8715 75ea d33f fdd6 c276 9762 a23f
000000f0: 58e2 4cae 9fa4 c2bf 5325 c6bc afab c53f
00000100: d32b 52aa 517d d1bf f884 a8c1 8ecc cfbf
00000110: bdac 6bd1 12b3 c9bf 0065 722a 3501 c3bf
00000120: 084f 9e57 fcf4 b7bf 3ca9 e71f d998 b93f
00000130: 84f3 f9fd bd43 953f 194a 66bc e4c6 c83f
00000140: 2f4e 887e 34c9 bbbf d083 ed0d de76 d0bf
00000150: ff12 93e4 ab96 a93f 5b9f ebe9 1293 b53f
00000160: 7a86 3b5a 2f58 d5bf 5d89 1b90 decb 763f
00000170: 8c21 a5d3 a759 d1bf d09a 4200 8a89 d2bf
00000180: 91ae bcdf e91c ddbf 063d 4120 09ba c5bf
00000190: 993b 694e 4aca e13f 6429 8838 9e51 c7bf
000001a0: 1180 12c0 0b04 9f3f ea8b e3ac 52e3 d7bf
000001b0: 4b0d 7c81 7304 ccbf c9e5 5c5a b88a c0bf
000001c0: 57a8 ca10 2b66 c8bf 54bc 7541 aeb3 383f
000001d0: 89c3 52d0 f791 d5bf b391 6544 f816 d73f
000001e0: 95e9 c066 3093 a2bf ff41 518a bdcb c33f
000001f0: 1579 992d ada1 d7bf b5a0 adc0 2a59 a33f
00000200: 6f32 6e87 ee17 c1bf 935a 99c3 a209 c9bf
00000210: a76a f08d e284 c5bf a88b cfc3 d764 973f
00000220: 4ffb b2e1 c80f e5bf 6a99 0597 18c8 d7bf
00000230: da6c c631 926f ba3f 45c8 f56b 6f89 d6bf
00000240: 1546 0124 2435 cbbf fd89 46b0 a310 c03f
00000250: b7e3 c317 6669 7c3f 8d78 1e5c fa74 d9bf
00000260: bf8c 5eee d950 d7bf d84b faac f8e2 b63f
00000270: 8bf0 e91e 4b89 cb3f 7d67 64af c2fc 823f
00000280: d389 a710 f09e dbbf ea96 68f8 1f81 cd3f
00000290: 2429 f702 23c8 debf 08ea dcd8 60e5 a53f
000002a0: 2fe6 2d3f 934e c8bf 8aee 0f13 9db7 913f
000002b0: 6049 2f25 f157 923f 0641 f141 2300 bb3f
000002c0: 1dcb 0208 6a5c a03f ff4e 75b5 c284 ce3f
000002d0: 347e 3f2a aba4 cebf adf7 9a93 ec4d d0bf
000002e0: 5286 0a6d be91 bdbf 90cb e9b8 238b c03f
000002f0: 91b5 88ac 8ba9 ab3f 3597 d700 bf6e d6bf
00000300: 068d 8913 79f5 cebf 75d4 2ffa 94f2 c73f
00000310: 06ab f5e1 36ed db3f 83c6 4c11 6a5e d13f
00000320: 5f94 0989 bd10 cc3f d579 5829 271a a1bf
00000330: 0026 6701 f6ef d2bf 274c 62c2 801d b03f
00000340: 28e6 b4a9 7da8 cd3f 2af2 56cc d8ab 85bf
00000350: 7d73 a6eb c694 a53f f7f5 8d2e 521b ccbf
00000360: 7ebc e275 04ba d4bf 245f 69fa 072c dfbf
00000370: 5167 78e4 40c4 dc3f b1ca 2c5a 6630 8f3f
00000380: 8e63 6942 979f bdbf 9d8f 895e 92e3 9d3f
00000390: b8d7 21ba 2d5c bcbf 89b7 dba5 6ca0 c6bf
000003a0: 937f 99d2 0ef6 d0bf d7b0 710c 5a91 d03f
000003b0: d063 1676 2ed6 b33f 2534 d4fa fc9c cabf
000003c0: 5fb4 0813 5c6e c5bf a9cf fa08 ba3b cdbf
000003d0: ea81 c0eb 7dae c43f bf46 22b1 91c8 adbf
000003e0: 00ac 978e b806 d1bf 49ef bc92 ccb2 c4bf
000003f0: 4542 7409 e6b1 dfbf 2027 014c b1fa d43f
00000400: f0db 7c49 34da a83f 734d 881c dcb6 debf
00000410: 2f13 4671 7807 d63f 09bb 5abb fc6f c3bf
00000420: aa8a 9ece 287d c5bf bb26 a943 d67a d2bf
00000430: 9492 788b b037 e03f faa0 8cf2 b89f e0bf
00000440: 664c 3d08 2bdb d53f 8b0f df0f d648 c53f
00000450: daa7 5ed5 fd5d eb3f ad18 4554 1525 e03f
00000460: e888 e1fa 62d8 ffbf 178a e8cc 7620 f33f
00000470: 6060 4e2a 1ebe be3f 2a6f d2d4 8edb d73f
00000480: c95f 1c45 2266 8a3f 3fc0 6207 a8ac e0bf
00000490: 78d9 5d42 b45b d73f 737e 6adf c736 c6bf
000004a0: 7094 4468 c1cf d93f e24c cbcd ae68 e3bf
000004b0: d52f c03e 9baf bc3f 327f 66cc 555c c93f
000004c0: c70a 0a23 a287 d0bf 41d9 bbee 62e8 c23f
000004d0: 6609 9d8e 7373 e4bf 5cc3 677b 9916 cdbf
000004e0: 1a3f 4194 6369 8c3f 341b 2d46 e3d5 c0bf
000004f0: 72f2 9dd3 32b8 d0bf 7257 c84b ccf9 dfbf
00000500: c85d c09a 45aa ca3f 4c0f 0a0c 61d2 c73f
00000510: dd10 2bb1 e3c9 abbf edd8 f664 aca3 c53f
00000520: df43 f001 7ff1 a7bf 2bd5 9808 da50 e4bf
00000530: 38b1 c4dc 4a81 90bf a105 1a72 6826 c23f
00000540: 0481 2cef 9729 bdbf b903 6c5b 3b05 e63f
00000550: 0e0c ae09 fad9 d6bf bc85 717d 6aac be3f
00000560: 8e27 dfda aadf dbbf 79e1 4ab3 4d76 cabf
00000570: 2f63 4bd0 d7cf c33f 1dfb d707 6828 bfbf
00000580: e503 2686 bf23 bd3f d0c0 d59b 5957 d03f
00000590: 23b0 1168 9a84 c6bf b874 5cf0 40c7 cd3f
000005a0: 33b7 2e76 d360 743f aa7f 337e aacc a23f
000005b0: 52ff 9be5 5a86 d23f 95d4 8ab5 70dc c43f
000005c0: 2679 99ca 2509 c13f 0400 e171 656e cb3f
000005d0: eadb f0fc 8390 d83f 2cdd ab0a bb9b c5bf
000005e0: e6d2 1c11 efa7 c03f 22d2 a510 4e71 de3f
000005f0: 8493 b410 f2f2 c83f a96c f8c7 a6c0 b2bf
00000600: 2d9f d19d 1820 d0bf 0d33 9397 8aa5 c3bf
00000610: c6a2 a2de 12c7 bb3f 2ad2 64cb 92e1 e53f
00000620: 628a 77be e73c d23f 4cfa ddb6 7c10 b7bf
00000630: b62c a41b f202 d2bf 3ab0 8273 d513 dbbf
00000640: ebfd a9c4 d559 d43f 69b7 4610 a4af c9bf
00000650: be44 7a1c dc63 d93f cf30 72bd 6e66 b83f
00000660: b303 a7df 5ff0 a8bf 0bbb 7de6 987c cbbf
00000670: 1109 b339 a0eb c33f 6ac3 2ce5 af9c c7bf
00000680: b730 8ecb 594e 783f 360d 3e8b 9abe a7bf
00000690: 9b81 baf5 0a44 b73f b0a0 25bc 1bd3 dabf
000006a0: 00af 8a0e edde c33f c76b a0c8 6e5a cebf
000006b0: b954 3068 db69 7fbf 6a0e 3305 24a0 a4bf
000006c0: bf55 c6c6 e336 b33f a110 ae63 6d02 d0bf
000006d0: 235b 1044 f6ca c23f 392e 94ec 15e9 a4bf
000006e0: 9477 42aa 277e c7bf 7d6f 759c ac6e d1bf
000006f0: cf5c cb47 09de cbbf cfa6 3d83 db8e afbf
00000700: 76cc 90cb 1908 cf3f 3b8a c2c5 596a c33f
00000710: 88fe 7ff0 55d2 b0bf 4747 ea12 f380 b83f
00000720: 4ae8 388c 66c1 d1bf 5011 b099 0304 c43f
00000730: 6959 d7af dd8c a43f 04bd 670f 01ae bfbf
00000740: 88b3 45df 26ff c7bf 7e25 3afe e244 c7bf
00000750: c107 574c 1a89 cabf d99b 4ad9 b5eb a03f
00000760: 7ab1 fc4d c6c4 d2bf 9370 fb10 e229 cc3f
00000770: 87cd a45c 36a8 d6bf 3c7e 114d dea7 ba3f
00000780: ef7d d38c 7728 c1bf bbd0 6c75 954d c0bf
00000790: 7adf 4597 f5c8 c1bf 936e 844c 2d3e c53f
000007a0: 1c11 0d1b fb47 b5bf cf30 5a46 c336 d2bf
000007b0: 8e84 5fd5 926f d93f 9572 a399 d937 d8bf
000007c0: 16bc 3c3a 0a76 d93f 7c6c ece8 dc7d 9b3f
000007d0: bce3 8d87 a4f8 abbf 2f4b c306 f6b6 8abf
000007e0: 4694 d719 ff9f d3bf 8d3f e4c3 6c4c d43f
000007f0: 0fc2 0db7 d692 d0bf 258f fb9d 5d71 d73f
-0.07029373063424477 0.14557755137244463 0.14894768765153374 -0.1421093335510873 -0.41363393422397576 0.34699407862248793 0.23951120562006464 -0.16691239874076594
-0.3118285417977963 -0.506504171351718 -0.24704478185335443 0.09774926005191184 0.16667813048702354 -0.051634921687115046 0.22809536921267407 -0.4677038390503865
-0.19672611227420672 0.36478810465115696 -0.20795556691524608 0.3743839240977342 -0.06835844719037773 0.3726077461443619 -0.11407814535072532 0.04572930717008282
0.07000780105424342 -0.1593190812673417 -0.18207117206671647 0.11085760609760356 0.31118514158733424 0.0359084446403539 -0.14564891825445403 0.1693019553897935
-0.27327386505993195 -0.24843010383577968 -0.2007773897706552 -0.1484743554363277 -0.09358193530198033 0.09998852757386073 0.020766228319633054 0.193569747917153
-0.10853889550372096 -0.25725509033332816 0.04997765698639078 0.08427541933963083 -0.33350738345880127 0.005565518747717793 -0.27109714191876644 -0.28964471841247263
-0.45488974427528556 -0.16973985743468506 0.5559436351266981 -0.18217828522058277 0.030288871381913 -0.37324969180752865 -0.21888583967675354 -0.12923340236902295
-0.19061792678741327 0.0003769207409822274 -0.3370341810614766 0.36077696494455863 -0.0362792134696576 0.15465516332416482 -0.36924294903828186 0.03778966524152009
-0.13354283917250906 -0.1956065611909322 -0.16811782770749525 0.022845622373903446 -0.6581768425165623 -0.37158789394597724 0.10326493945324292 -0.35213838141419657
-0.21255923994117212 0.12550779444889307 0.006936453628662179 -0.39776476856230475 -0.3643097713304079 0.08940080855454313 0.21512736329521362 0.009271164872689525
-0.43157579065714663 0.23050307874034753 -0.4809653786620791 0.042765642616775124 -0.18989792427946514 0.017301992691484837 0.01791359700639228 0.10547085151597821
0.03195506427564097 0.23842653141274892 -0.2394002872742803 -0.25475611128410486 -0.11550512468468213 0.12924620179145707 0.05402790528419666 -0.3505094059204226
-0.24186624006242868 0.18709051338342744 0.43635341707583597 0.27138759316867594 0.2192608756187466 -0.033402656361648 -0.2958960546207834 0.06295017953588965
0.23170443331200485 -0.010581678138685897 0.0421507036837516 -0.21958377144976257 -0.3238536025264195 -0.48706244901903717 0.4494783621936352 0.015229034068032861
-0.1157164132249717 0.02918842985162905 -0.11078153414004432 -0.17677076433704667 -0.2650181824337718 0.2588715669178447 0.07748690016741411 -0.2079158997297849
-0.16743040971178666 -0.2283852142187446 0.16157506953551543 -0.05817084586409526 -0.26603521275563935 -0.16170651593153654 -0.4952330677342938 0.3278010599357106
0.04853976628367451 -0.47991087709780017 0.34420596181762425 -0.15185507915654053 -0.1678820618518178 -0.28874737365240905 0.5067980503123004 -0.5194973695079448
0.34150195889123436 0.16628528380362825 0.8552235762956528 0.5045267721077572 -1.9903287696875456 1.1954257969124507 0.12008846791138827 0.3727757528629235
0.01289011739167724 -0.521076216149602 0.36497217637170065 -0.17354677590354903 0.40330538923655634 -0.6065286654869875 0.11205454141617051 0.19813034515845512
-0.2582784025363875 0.14771687180445706 -0.639093187848897 -0.22725218320513363 0.013872888528708983 -0.13152733732769095 -0.26124258676262635 -0.49962146187441825
0.20832128578397957 0.18610776031357046 -0.05427466905305931 0.1690574162473192 -0.04676434420264974 -0.6348695915136536 -0.016118211483602013 0.14179711886758375
-0.11391591633992354 0.6881386552414518 -0.3570542425661082 0.11981835901817467 -0.4355265748423499 -0.20673533682362313 0.15478036566380513 -0.12171030227180464
0.11382672333822048 0.2553314229799186 -0.17592172700403905 0.23264323936829157 0.004975152990409448 0.03671772757093035 0.28945038245000376 0.16297730316515371
0.1330916632895846 0.21430652676099282 0.3838205309033912 -0.16881502171575258 0.13012493453574975 0.4756655848098338 0.19491411033336814 -0.07325212843027153
-0.25195899402614225 -0.15348942185519157 0.10850637374336278 0.6837858173881319 0.28496736145294765 -0.09009532417801686 -0.281429793351616 -0.4230855587036363
0.31798309522125007 -0.2006726340745744 0.39671995907799473 0.09531299710414774 -0.04870891194469298 -0.2147399068303105 0.15562823121406003 -0.18446921053103021
0.005934096109637624 -0.04637606572853274 0.09088200091583191 -0.4191350304959185 0.15524066171689554 -0.23713478847716216 -0.0076693125329444995 -0.040284276613900286
0.07505630114459104 -0.2501481507718016 0.14681890796119842 -0.04084080231595206 -0.18353744328936428 -0.272380020896655 -0.21771350865922165 -0.061636791010483465
0.24243471564986735 0.15168306499715975 -0.06570946809369549 0.095717613332707 -0.27742923444350664 0.15637249950681076 0.040137222018233505 -0.1237488424883289
-0.18747411634413091 -0.18178975499567324 -0.20730904319321833 0.033048327231248904 -0.2932601701347931 0.2200281699105103 -0.3540168671344976 0.10412396794844708
-0.13404745460773834 -0.12736767038007266 -0.1389452923428925 0.1659599898929299 -0.08312959108758772 -0.28459245558111673 0.3974349101754989 -0.3784088135123878
0.39782958686095193 0.026847316471599644 -0.05463136820521394 -0.013044282990824023 -0.3066404106487578 0.3171646035198073 -0.25896232487051035 0.36629429271691755

linears.3.bias f8 [30]
00000000: dff3 7730 e607 5dbf 0c5a 75a6 0075 993f
00000010: 1226 86e5 f799 b23f ef45 aa1f c5f1 a83f
00000020: 0f32 9707 08ac a5bf 0414 fc22 5e25 89bf
00000030: c19a 3cc7 f3d2 7dbf 9656 74b8 d1da b53f
00000040: ee3c e64d af62 ae3f cee0 3d32 9219 b03f
00000050: b198 3de6 c52e 993f 4cf1 4348 2a29 b9bf
00000060: d03c 67c4 c3f0 a7bf 9fad 4ca0 cfe9 a73f
00000070: 4017 6880 5437 95bf ea46 1565 af99 a03f
00000080: c6ff 590b 92e5 aa3f f9e8 5958 9779 bcbf
00000090: 89f1 ada4 c82b c8bf d317 9242 b60d bfbf
000000a0: 1270 cca6 90b9 b53f 05e3 3244 2533 b9bf
000000b0: b185 ba59 2eef 8d3f 9da2 02bf 7ef4 b53f
000000c0: d432 26a7 920d 92bf f071 1b19 078b 63bf
000000d0: 6050 5ae7 4dfe b53f 6620 1790 e369 ab3f
000000e0: 39d0 a4cc 95b6 b3bf 93c1 6c00 ee53 afbf
-0.0017719028418234845 0.024860391769232534 0.07266187051404696 0.04871955882584788 -0.042328120161617126 -0.01227830452217838 -0.007281257876263937 0.08537016633303049
0.05934665513916025 0.06289018370250973 0.02459248750474136 -0.09828438057224281 -0.04675876400471568 0.04670571166783621 -0.020718880021397768 0.032422524537322264
0.05253273380822025 -0.11123033434879294 -0.18883617440213765 -0.12130297780285497 0.08486274788123208 -0.09843666949280923 0.01461635791139568 0.08576194918954134
-0.017629901363352143 -0.002385629523685255 0.08591162584554146 0.05354224332728634 -0.07700477834879473 -0.06118720774827859

linears.4.weight f8 [3, 30]
00000000: 4ce1 1ed3 9e02 d1bf d7c9 1b13 7ffa cebf
00000010: 14db 9756 a95d c7bf 74fc 4fd8 36cc bbbf
00000020: 8dd0 8cc7 3034 b83f e4dc 004a 1db8 c83f
00000030: 2eda 3f95 fbdd cfbf 84fa 3232 7a64 c83f
00000040: 4ad6 f549 0e23 b43f 62ee 76e9 e70b c5bf
00000050: c337 36a9 a466 d13f ebab 50fd 8ced d9bf
00000060: 8ce4 9668 4653 ca3f 5f81 51bf 8c3d c93f
00000070: 98a8 11fc 3dcd b63f b0e8 93cc b1de d3bf
00000080: a089 f431 d9b5 b4bf d70b b036 8910 cc3f
00000090: 7f5e 7416 05db dbbf 81a7 5b93 1cc9 ddbf
000000a0: 22b2 650d e299 d3bf d6f2 0326 df57 d63f
000000b0: 19d3 c526 0699 d63f f846 6b26 52d0 d23f
000000c0: ca78 a4e5 a27a 92bf e5de 91cb 0d93 a3bf
000000d0: 14b2 43e6 269e ab3f afc1 f04c c782 c53f
000000e0: 5e5d 67a1 f316 cd3f efd5 1c00 68d9 cb3f
000000f0: 38f2 d654 73f8 c2bf 7f50 f6d9 3e29 a33f
00000100: a4ac 0beb 26cd bc3f 064d 2505 2de0 c13f
00000110: d5d5 f2ff ae1d b23f ae29 c789 cd6e d33f
00000120: 28e0 9f9c 740d d4bf 1f9c c37f 1140 e33f
00000130: 6651 768b 43d6 b5bf fca4 134b d84a d4bf
00000140: 5186 babb 324e a63f 04c9 ec42 79a1 d63f
00000150: 424c 9e97 f8a2 d7bf 9eb0 2c98 8e64 b23f
00000160: 94c5 fb28 22f7 dcbf d61c 1ad6 58d5 bebf
00000170: 31dd b1db 06a7 d63f 94c5 9379 10ec e1bf
00000180: 2884 4482 ac94 dbbf f7c2 312d 055f d4bf
00000190: b7ee af20 8a4c b13f 9dcc bf87 0811 b73f
000001a0: a7f3 d45c fd43 90bf 5f5b 43c8 41bc d63f
000001b0: 7b74 2247 8fbf b4bf f89d a466 fa0d bb3f
000001c0: 7b97 a299 a04d dc3f fa4b 2eb9 51a5 ce3f
000001d0: f7cc aa49 6bb1 e1bf 4fbc 7fa1 3182 e3bf
000001e0: 2835 f023 a9b4 dcbf 1200 7660 d734 de3f
000001f0: c31e f7d8 052d e3bf 5b61 0b7d 0bdd d73f
00000200: 8bd2 f633 fe28 e1bf 89a3 0705 13f1 e2bf
00000210: ce20 c262 3853 e43f d89b 498d 24a2 e63f
00000220: b467 ae02 db4a e53f e941 d7a4 46e1 e13f
00000230: ef47 ff09 8621 d93f eb0e de1f 6ffe e6bf
00000240: 2546 0f0e cb0b e2bf fea6 87d5 38f7 dd3f
00000250: acbd 231f 0c0d d9bf 1d2f 64f2 50ce e9bf
00000260: f4e3 95ec 1741 d83f cc57 8af0 af49 d3bf
00000270: c8de 8225 7a36 cdbf c214 7a11 e654 cebf
00000280: 6d43 98b3 f743 e63f 029c b8dd 5e54 e2bf
00000290: 133d 5d3b b389 e6bf 4e16 4055 261d ea3f
000002a0: cc10 6a83 4cb5 e1bf ac18 0d01 7451 dd3f
000002b0: 84a4 c45c aa7f e13f 385d 5927 35fe dd3f
000002c0: 262c d213 17d0 e5bf dc89 8d64 8933 c73f
-0.2657849370694023 -0.24201954300913428 -0.18254582145865383 -0.10858481198373388 0.09454636451556749 0.19311872590490176 -0.24896187579698065 0.19056632472161905
0.07865990930243885 -0.16442583942067573 0.27188984417523104 -0.405123946550417 0.20566635233788977 0.19719085065572536 0.08906924633052637 -0.31046719530389577
-0.08089978665933595 0.21925463838860423 -0.43524291222409056 -0.46539987936431976 -0.3062672739822877 0.3491132613415123 0.35308984552766415 0.2939648986040164
-0.018045945421470568 -0.03823130712492943 0.053940978630496655 0.1680535436330621 0.22726292973559742 0.21757221227169007 -0.14820710794983127 0.03742405329390496
0.11250537146013301 0.13965380431418611 0.07076543568367495 0.30363787131195863 -0.3133212594543715 0.6015708442108724 -0.08530065684164398 -0.3170681698962452
0.04356535474404367 0.3536055711330308 -0.3693219643257103 0.07184687819671118 -0.4525838279942829 -0.12044291712855978 0.353944506211934 -0.5600664495997756
-0.4309493324418008 -0.31829957402719294 0.06757415102031926 0.09010365785779802 -0.01588436011410335 0.35524029309219957 -0.08104796873745272 0.10568203931745035
0.4422379970877654 0.23942014257463012 -0.5529076041042619 -0.6096428064610196 -0.4485266543350286 0.4719751779557565 -0.5992459523776791 0.3728665085923432
-0.5362540259289558 -0.5919280145873113 0.6351587227700521 0.7072928199312356 0.6653876354569008 0.5587495059535829 0.3926711175564596 -0.7185588476572468
-0.5639395975687803 0.4682142338993883 -0.3914213470552237 -0.8064350828367172 0.3789729891209952 -0.3013725136782994 -0.2282250102195944 -0.23696590283740276
0.6957968242369198 -0.5727991419306593 -0.7043090972382821 0.8160583176656446 -0.5533812109647669 0.4580965051903927 0.5468341647985118 0.4686406025188776
-0.6816516291741024 0.18126027498062924

linears.4.bias f8 [3]
00000000: af72 3758 b2d7 ba3f a33e c125 e6b1 c23f
00000010: 332a b361 351d cd3f
0.10485376981473381 0.14605404704569933 0.227453873353015

step f8 []
00000000: 0000 0000 00bd df40
32500.0

exp_avg f8 [30, 1]
00000000: 0b09 ae56 1c04 8a3f d76d d7c2 3981 01c0
00000010: 5e6c 3575 4340 8a40 f9f4 e18d 3ddb a740
00000020: 4282 baac c19e 633f 5a90 1908 74ea d43f
00000030: b4f2 ae5c 374d bd40 65a8 b427 15b4 8740
00000040: 27a3 4fd4 0d43 7ec0 9009 67b2 6ecb 0abf
00000050: dfef 08b0 b17d 3a3f 927a 3107 cb28 cfbf
00000060: 08d6 6439 6fac cec0 0c41 7309 c60f ab3f
00000070: 4a11 27c0 11dc 16bf 5246 e0ec 0935 12bf
00000080: c356 d233 1580 e53f 0aeb c30a 9d2b 313f
00000090: ac45 a6ca bb0a f93f 379f 5555 a252 a2bf
000000a0: 2960 c12e 54c8 50c0 9751 5bcf ce45 4541
000000b0: 5fb9 2f70 73e6 d440 7285 2e63 870a 433f
000000c0: efd9 a864 6467 0441 fdb4 54b2 1af8 f23e
000000d0: 99ef bc18 b77e c640 7015 5047 f492 1dbf
000000e0: 666f b9f3 f326 84bf a306 5860 7013 15bf
0.012703153033502909 -2.188098451804517 840.0329384015747 3053.62022310367 0.0023950369557755044 0.3268098906612572 7501.216257986311 758.5103296388521
-484.1908763037522 -5.110675401766567e-05 0.00040422046734866866 -0.24343240596040921 -15704.868939022548 0.0528547178779509 -8.720262852707664e-05 -6.945489005285549e-05
0.6718851101056419 0.00026199897798988346 1.5651204982753866 -0.03578669826202801 -67.13013810047472 2788253.619974326 21401.803722315814 0.0005810891219547988
167148.5491501833 1.809039817606428e-05 11517.430442444793 -0.00011281600912134925 -0.009839921832444264 -8.039830580488598e-05

exp_avg_sq f8 [30, 1]
00000000: 4794 a9c5 b26a 563f 3885 01fa 184a 4740
00000010: d995 6151 400a 4f41 15dc f705 c210 8f41
00000020: 8133 5137 5f1f 243f bc33 5853 720f ef3f
00000030: 0bab 529b dc2b c041 96e5 4284 365a 5441
00000040: 9e4a c783 eeaa 3841 d7e2 0e49 c87c cf3e
00000050: 2281 8d4a af53 cf3e 64fd 5b08 2ef8 e53f
00000060: d98f 2d7f 5b1e 3043 18cf 2c68 e723 ae3f
00000070: ec98 dbb5 ccd1 e63e 5bfb bf75 97af d53e
00000080: 22f8 9f21 0668 0840 516c cad8 c65c e93e
00000090: 1027 f363 f965 4c40 d1b8 baee 503f 953f
000000a0: 9ecb 2b9c fcb9 da40 dd40 8a12 17ae 8643
000000b0: ff2c d67f 1b73 8542 9af1 76d4 b9ec 163f
000000c0: 969a 4ee7 b047 1643 486f db8e 91c8 aa3e
000000d0: 307a 950d 49a1 3542 cb9d 81d8 1a09 103f
000000e0: f15f 8d73 2727 733f daaf 7ecf 7798 d03e
0.0013682123013947377 46.57888722490537 4068480.6357905683 65148992.74602524 0.0001535228472299387 0.9706355693648372 542619958.6458448 5335258.066583058
1616622.5147596966 3.7535942926904568e-06 3.734456715795543e-06 0.6865453875797525 4536977951920089.0 0.05886767527263553 1.0881199780720924e-05 5.170322619817528e-06
3.050792944616675 1.2093739109977698e-05 56.79667329189954 0.020749344416508834 27367.947031926007 2.042836353973032e+17 2948015848133.6245 8.745083061162951e-05
1567818652034725.5 7.982096385766489e-07 92900232597.4773 6.117082932776475e-05 0.00467601214116796 3.9566941651240595e-06

step f8 []
00000000: 0000 0000 00bd df40
32500.0

exp_avg f8 [30]
00000000: ab7c 25e9 a528 843f 8daa a94a 88a1 b1bf
00000010: 5e88 deb2 e561 3640 2de1 a8b0 1a26 4d40
00000020: 64af 827c 3c7a 723f 920b 6983 be15 a43f
00000030: 7d07 6009 4e36 5d40 cdcc e2f5 c9ef 2c40
00000040: 592d 259e 57d3 25c0 2877 2e80 9276 12bf
00000050: e6c2 d0d1 592a 443f 2b63 0f1e ba60 93bf
00000060: dd41 9f5b 5c60 83c0 58fc c176 915b 943f
00000070: 8dca 9cd5 52b0 0dbf de7d b61d ba89 07bf
00000080: 168f df70 f3e0 b03f 373d 8951 f95d 383f
00000090: 215d 4db0 5367 9abf 7bb8 1351 4967 93bf
000000a0: 4ce3 4c86 c546 05c0 2241 6d66 f011 c140
000000b0: e165 fe1e fc8a 5040 02c7 2e6c 7ecf eb3e
000000c0: cc1a 6d83 fafe 0540 7aad 819f aa61 e33e
000000d0: 465d 4e6e 51dd 6940 f6fb 7cf6 1743 47bf
000000e0: 1005 1367 9813 90bf 9e3c 2036 d942 13bf
0.009843155076565266 -0.0688710386545301 22.38241117413451 58.2976895165069 0.0045111048458855475 0.039228395024586096 116.84851297738892 14.468337711272762
-10.912777845419145 -7.043141526571746e-05 0.000615400178167827 -0.018923671803210567 -620.0450966302848 0.019880555032156216 -5.662682333564427e-05 -4.489516478689189e-05
0.06593247895903817 0.0003718122184510233 -0.025784785876877273 -0.01894869382243101 -2.659556435796196 8739.878125817111 66.17163824885894 1.326109066277252e-05
2.7495012538596253 9.241824031578099e-06 206.91619029336488 -0.00070990247784397 -0.01569975022426201 -7.347536805489766e-05
