1D_supercritical_InverseProblem_C_initial_60/Models/Model.ckpt-500.pt (torch, 82335 bytes, 43 tensors)

linears.0.weight f8 [30, 1]
000000 36 56 3e 3a d2 0c e4 3f 44 27 12 3a 74 61 be 3f
       0.626565088040201 0.11867453019854418
000010 6e e8 f8 34 a1 0e a7 3f 40 79 f2 3a d4 fd d6 3f
       0.045033490864128875 0.3592424941688428
000020 45 9b 70 b2 70 d1 e3 bf 5a 5d 4f 1d d1 49 d4 bf
       -0.6193164334443756 -0.3170054231863638
000030 79 61 dd a6 9d 68 d2 3f 3b b5 11 09 3e 25 a1 3f
       0.2876352433718448 0.03348726139743482
000040 07 d4 21 bc cc be cb bf f1 6e bd fd 5e 83 e0 bf
       -0.21676024614467357 -0.516036506257903
000050 44 0d 76 eb 8d e6 dd bf f1 c3 94 18 c3 79 e0 3f
       -0.46719692224742837 0.5148635368442439
000060 57 ac 7b 89 19 7f 55 bf 3c 8a af b1 97 ed e1 3f
       -0.0013120412240208623 0.5602529974388015
000070 e4 34 42 0e 7f 6b ca 3f 0f b0 ae 59 0f 7e de 3f
       0.20640552707883508 0.4764440894894059
000080 a4 e5 84 18 05 96 e2 bf 2d 1d 29 6b e1 5a e3 bf
       -0.5808129767312278 -0.6048438160877702
000090 97 29 61 12 77 5c da 3f 25 c9 58 9e 08 2b e2 3f
       0.4118936233031944 0.5677531330787003
0000a0 03 cb a4 3d 63 19 db bf ff 97 3c e6 74 d1 5e 3f
       -0.4234245397557716 0.0018809930415470964
0000b0 ab d9 1f 4f 70 71 b9 bf 71 64 9f d0 d4 1f c6 bf
       -0.09938718730686584 -0.17284641443874052
0000c0 6f fa ca 86 24 39 98 bf 16 43 e5 85 89 5d e1 bf
       -0.023655482031922078 -0.5426681151530797
0000d0 b1 d2 3f d4 7a 0e d0 3f 6f 42 6d b8 30 ea d5 3f
       0.250883776926723 0.3424188424151344
0000e0 82 0f 41 5d 99 dd e0 bf 01 ae 0d 72 ae e7 d2 3f
       -0.527050668847082 0.29539071214705365

linears.0.bias f8 [30]
000000 5a 5a cf 25 7d 82 c5 3f 39 14 6a f5 8a 40 ca 3f
       0.16804470392408427 0.20509469016192997
000010 d5 22 7c 38 6d 4b c2 3f 07 c7 8c eb 76 15 cb 3f
       0.1429268384747703 0.2115925455232672
000020 61 7a 25 9d fa 36 c3 bf 88 81 db 34 f6 9e bf bf
       -0.15011532471813196 -0.12351931372132274
000030 9a c8 dd 92 e0 e6 86 bf a6 2a f2 ba ef 28 c4 3f
       -0.011182550889973709 0.15749928119870055
000040 89 72 bf da da 82 c4 bf 47 8d b7 ee ee 14 c9 bf
       -0.1602433746437735 -0.19595133453467836
000050 ea 9a d4 0d 8e 2d c1 bf cd 09 2c 9b d7 69 c0 3f
       -0.13420272517506443 0.12823004795798312
000060 03 77 08 b5 70 8a a4 3f a2 c5 6a 22 d6 3e cb 3f
       0.04011871538044256 0.21285511665841478
000070 bd c1 6b 04 bc a6 c5 3f ca 95 ce c9 a2 e7 c2 3f
       0.16915083137383916 0.1476939664254771
000080 03 4d d8 42 0d 60 c3 bf 62 a5 51 88 88 0b c3 bf
       -0.15136876834785803 -0.14878946930120224
000090 d4 4f 64 9e c9 34 bc 3f 79 1e de 52 76 e3 98 bf
       0.11018047444332463 -0.024305199439849965
0000a0 bc 3f 71 45 db d5 bd bf a7 c1 69 5c 9b af e2 bf
       -0.11654444165583205 -0.5839363865798547
0000b0 87 8d 49 7f 40 d7 c4 bf a3 8b ad fd f7 0e c3 bf
       -0.16281896796418158 -0.14889430891625208
0000c0 96 39 d5 93 25 ac 75 bf f5 9d 53 f6 01 84 c2 bf
       -0.0052911250944148915 -0.1446535542265647
0000d0 3f 1f e9 67 11 a4 c3 bf b0 6c 19 d3 09 42 c7 3f
       -0.1534444577575815 0.18170283134063459
0000e0 a8 72 7f 24 bd bf c2 bf 60 f9 5d 85 c5 77 bf 3f
       -0.14647640497323278 0.12292131906540282

linears.1.weight f8 [30, 30]
000000 59 cd 4a bf 6b d2 c7 bf 8d 3d d4 36 7a 18 bc bf
       -0.1861090358776021 -0.1097484954700489
000010 3f 23 d9 f4 d1 09 c4 3f 19 db 61 2f d1 8e d1 3f
       0.15654968696096636 0.27434186579869074
000020 02 f9 0e 36 8c ed b5 bf eb 95 c0 d3 25 b6 c6 bf
       -0.08565594024455339 -0.1774337085673062
000030 11 f9 70 53 82 78 a7 3f 4b 2a b0 55 c4 ef bc bf
       0.045841286359506246 -0.11303355304713951
000040 db f7 16 08 63 14 c4 bf 66 f3 52 e2 96 21 d6 bf
       -0.1568721570492347 -0.34580013372379026
000050 08 74 e3 73 eb ef c4 bf 54 96 7d 3c 99 72 c9 bf
       -0.16357176931970252 -0.19880977109567033
000060 f6 49 83 ca e5 cc c1 bf 9d e6 51 fe f7 6b a9 bf
       -0.1390654791672003 -0.04965186099520944
000070 ce 97 d1 69 c9 02 c1 bf a3 6e 6b f7 72 85 88 bf
       -0.1328975454991323 -0.011973283935211859
000080 94 16 93 ec 68 13 d1 bf 37 b0 49 20 46 a1 62 3f
       -0.2668096838282079 0.0022741670275561415
000090 c8 0c f3 28 b2 8e cd bf 44 24 95 ea 3b 58 af 3f
       -0.23091723441584677 0.06122004736477796
0000a0 72 fc 78 eb 12 c8 b5 bf 2b ed 7f 38 df e8 80 bf
       -0.08508413552134345 -0.008256668006643672
0000b0 8d d9 3c 61 a9 23 d6 bf b1 03 23 f8 1b 13 cf 3f
       -0.3459266137682782 0.24277066818288298
0000c0 da 7d 34 07 e1 c1 a3 bf a2 a7 13 7b 99 a4 d3 bf
       -0.038588554505846154 -0.306921358291783
0000d0 a8 f9 80 e9 ca 09 c3 bf 58 68 87 1a 00 fc bf 3f
       -0.14873634721329876 0.12493897102049922
0000e0 b3 ea 8e 08 00 cb aa 3f bb 77 79 0f 91 b0 cb bf
       0.05233001808615736 -0.21632588630285263
0000f0 59 60 f9 fd 4c a0 b7 bf 8f fd c8 42 bc 21 c7 3f
       -0.09228974533596225 0.18071702252380503
000100 7a 2e 48 9a 05 86 b1 bf 3e 15 f8 f5 92 50 b5 3f
       -0.06845126167916674 0.08326071267227506
000110 88 36 b0 16 07 d2 bc bf a5 d6 55 62 c2 0c ca 3f
       -0.11257976821817739 0.20351438333061825
000120 67 e6 b0 1e a7 ec ae bf 71 d0 ad d9 ba 24 cf 3f
       -0.06039926767011821 0.24330840710502202
000130 e6 13 9c f2 97 1d a6 3f 1e 5f d1 22 1c e0 a5 bf
       0.04319453083557061 -0.042725447893358956
000140 ef c2 04 b2 13 c3 a7 bf bd c1 e1 ff f0 43 d0 bf
       -0.04641019390181166 -0.2541468142362893
000150 a9 2e c5 ec 09 3f 86 bf c7 ac b3 c9 37 43 c1 bf
       -0.010862424410013576 -0.1348638281700458
000160 b7 b4 62 44 4c bf d4 bf b9 b1 fc 71 b1 89 af bf
       -0.32417589834478683 -0.06159739033168727
000170 c6 fe 55 31 d0 29 a7 3f 2a fe 5a 8b 7f 76 ce 3f
       0.045240884802294754 0.23799127869095688
000180 a5 a3 a1 4f 9d a2 a5 3f cb 3d 6c 64 87 90 ce bf
       0.04225627514899281 -0.238785671267108
000190 66 9e aa 76 c6 cf c3 3f f6 17 b5 03 58 be d2 3f
       0.15477829736959164 0.29286766397524333
0001a0 eb ec 5a 7b 8f 0f c0 bf 1b 79 11 03 23 83 b4 bf
       -0.12547486804201155 -0.08012598824413823
0001b0 5b 51 ea 98 85 65 d1 bf cd 38 d1 85 9c 9d 82 bf
       -0.271821402865745 -0.009089682420519907
0001c0 8e 7d 2b 89 96 18 bb 3f fa 42 53 f6 39 72 bf bf
       0.10584393357156882 -0.12283670676994154
0001d0 f8 4c 32 65 5b c7 c8 3f c2 3f 14 f6 d6 08 bf bf
       0.1935838932155105 -0.12122863300123668
0001e0 25 8b 1f bc 07 54 a0 bf 0a 7b 2a 2d 0b 03 c2 bf
       -0.031891099657306556 -0.1407178850685898
0001f0 f7 07 a6 cd c4 43 c8 3f 28 8c c9 a5 05 21 94 3f
       0.18956813851769969 0.019657219165662237
000200 30 10 11 5c 57 e3 d3 3f 5b d9 49 32 7a b7 47 3f
       0.3107508086288844 0.0007237764990140437
000210 eb 7f 1b 48 6b bc b1 3f 2a fc 2e bc f8 e4 d0 bf
       0.06928129682955812 -0.2639753186921917
000220 96 73 d7 e4 a1 aa c8 bf 33 66 41 f9 fb f2 c4 bf
       -0.1927072875395452 -0.16366529150654827
000230 cf 7f 99 ef 32 85 cc 3f d8 1c 4b 49 2d b9 ce 3f
       0.22281490992736372 0.2400261505010579
000240 47 e7 79 51 8e 1a d3 bf d8 43 73 d4 f0 62 d0 bf
       -0.29849584538134305 -0.2560388636312019
000250 b0 ef cf 93 7a 90 ca bf 12 cd 6e eb 8e ea bc 3f
       -0.20753414361376832 0.11295407531615734
000260 6e 17 d0 50 47 9d a2 3f fa 5d a6 3d ca 31 90 3f
       0.03635619031415059 0.015814933789071596
000270 3d 23 f7 c6 d5 85 c1 3f 30 fc da 0b 52 c9 cd 3f
       0.13689682211977497 0.23270631388547391
000280 ba c9 79 a3 88 4e ce bf 67 b4 d6 a1 fd a7 95 bf
       -0.2367716596814498 -0.02114864635739302
000290 07 f4 10 4d 0b ec cf 3f 24 ea bf 91 42 2e d0 3f
       0.24939099562644193 0.2528234885536753
0002a0 5e 80 85 28 c9 df d0 bf f4 96 94 a7 1e f9 95 bf
       -0.2636587997167278 -0.02145812890844119
0002b0 97 ad be 01 d7 31 a4 3f 30 a5 48 20 26 42 c7 3f
       0.03944274803447028 0.1817062051425551
0002c0 c8 38 59 51 93 1b a6 3f 04 ad 8f 6f ea e4 bc bf
       0.04317913406394919 -0.1128679773680013
0002d0 c3 b8 d5 d8 fe a1 ba bf 8e 1f b3 f7 f5 5e cd 3f
       -0.10403435510463326 0.22946047396385122
0002e0 6f 39 d9 76 fc e4 b3 3f dc 7c ec 42 db e0 c5 3f
       0.07771280194831374 0.17092457549822526
0002f0 c7 ca 2e 2c 6b 7e ab bf e0 cf f6 9c 68 60 68 3f
       -0.05369887270298573 0.002975658724347227
000300 f4 d4 9d e8 ae 88 a0 3f 04 fc eb c6 ae 70 b3 bf
       0.03229281034047374 -0.07593815189828496
000310 a2 cf c9 b2 66 ef c3 3f af e0 cb d1 c9 19 a1 3f
       0.1557434437742105 0.03339987455359627
000320 36 f6 02 d2 33 a9 cb 3f 3d 69 99 9e 8f 8c d5 3f
       0.21610114817114984 0.3367041634388846
000330 3c bd 44 06 40 a3 ad bf 60 dd c7 a6 c5 08 c1 bf
       -0.05788612438697746 -0.13308020251836705
000340 75 83 b2 04 3c 54 d6 3f 35 76 36 35 cd 44 d1 3f
       0.34889126261446474 0.26982431599194295
000350 cd a0 a6 29 78 9c a7 3f 65 53 35 b0 96 a9 b3 bf
       0.04611564167436342 -0.07680646707497159
000360 5c 6a 02 68 b4 3d c5 bf 83 94 fd 60 fa a6 9a bf
       -0.16594557837091173 -0.026027595681985104
000370 53 4a 60 27 b9 80 b6 3f 4f 4c 72 4b a6 ce be 3f
       0.0879016610272541 0.12034072248415949
000380 e0 24 52 98 c0 9b c3 bf 1c 83 0d 8f 5b 39 d6 bf
       -0.15319068372290356 -0.3472508332252333
000390 1a d3 63 f9 b4 d1 a6 bf 5c 80 00 8e 21 23 cf bf
       -0.04456868690787115 -0.24325961526574502
0003a0 54 06 4e 53 55 87 8d 3f d6 33 21 38 9a 2b 96 3f
       0.014418284039268738 0.02165070502842411
0003b0 5f 5d d7 59 0f 59 d1 bf eb 32 cd b5 e1 80 c5 bf
       -0.271060788856138 -0.16799565674809655
0003c0 9b 86 79 47 26 3f d7 bf 6b 75 b6 a4 97 89 72 3f
       -0.36322934131576695 0.004525749547068396
0003d0 93 fb 0f 58 72 39 cd 3f fe 8b 94 ed 50 c5 b4 3f
       0.22831563281939946 0.08113580513285965
0003e0 1d 9d ed 59 02 ab cf bf 70 5a a5 ca b7 24 c1 3f
       -0.24740628615402552 0.13393304247684368
0003f0 4b ab b2 08 1d 9f bd bf 42 f7 d2 f2 14 aa d0 3f
       -0.11570912802077975 0.2603809710816344
000400 55 47 6b 3a 86 50 d0 3f 47 40 4d 08 43 6b c3 bf
       0.25491481499658636 -0.1517108717475841
000410 5e 8d d4 d8 a6 17 ce 3f 5c cd f3 ea bb 03 cb 3f
       0.23509679400840872 0.21105145427973582
000420 82 0b c2 75 35 c0 d2 3f df cf 8c 89 f1 f0 c9 bf
       0.29298149585536504 -0.20266551224051363
000430 1e 8c 7b 94 e6 42 b6 3f 0d 85 f8 e3 51 6a d2 bf
       0.08695832371772425 -0.2877392507817412
000440 37 14 96 ae 24 eb d6 3f ff cd 90 54 82 b4 d6 3f
       0.35810200738370973 0.3547674012981758
000450 4c b9 e7 65 43 55 d5 bf 6b 0e 45 01 96 17 b8 bf
       -0.3333290572326362 -0.09410989314079081
000460 61 e2 ba e2 59 80 c8 3f 93 8c 9d 59 40 1d a4 3f
       0.1914169652061615 0.03928567022264775
000470 61 22 8e 24 78 98 d0 3f 93 84 9a 0e 77 a6 b8 bf
       0.2593059880241864 -0.09629005533726546
000480 9e 9e d8 1f 51 78 c1 3f 4c dc a2 1b b0 4f c6 3f
       0.13648428015698227 0.17430688237593228
000490 a8 54 ba fe d3 f3 cd 3f bc 65 d4 71 5e 76 ab 3f
       0.23400354326137074 0.053637458224510465
0004a0 23 f3 55 da 6e 9c ba bf ad 43 4c 7f 8e bd bc bf
       -0.10394947843992645 -0.11226740463122438
0004b0 52 d5 12 44 13 ba c8 3f 71 da 78 85 07 b5 c7 3f
       0.19317856620697654 0.18521207825843392
0004c0 34 72 34 fd a7 04 d4 bf 6c cb b5 34 68 bd 8a bf
       -0.31278419234311916 -0.013056577786050481
0004d0 99 e3 a0 82 d4 d7 cb bf 8e 90 6a 1f 1f 9c c9 bf
       -0.2175241124948826 -0.20007695230481598
0004e0 cf 4c 87 00 94 af bc bf a1 3b ea d9 b4 3d d5 bf
       -0.11205410969641892 -0.3318912628246214
0004f0 ee 99 3f b2 ac 66 c1 bf 32 76 af 28 2d f6 b0 bf
       -0.13594587996995194 -0.06625635379119713
000500 8d 9b 8d 29 eb 27 b5 3f 63 92 cb ef 22 b8 b9 bf
       0.08264035953980749 -0.10046594957709369
000510 e3 fe c5 07 5a 5d 83 3f 2a e5 0d 4d 41 86 d5 bf
       0.009455397951341598 -0.3363192799075302
000520 6e 8b e5 57 0d 90 cd bf 86 01 21 0d f9 62 d5 bf
       -0.23095862190083544 -0.3341658237659647
000530 b8 0c 96 46 ac 01 c9 3f cc 77 06 e9 d3 e1 cb 3f
       0.19536355444515663 0.2178292167490653
000540 6e fc fb 39 9d 77 c5 bf 90 d4 4f b5 10 9f a5 bf
       -0.1677128346563878 -0.04222919667510283
000550 04 45 de 66 4b 87 a0 bf 25 49 49 38 55 39 c2 bf
       -0.03228221541133716 -0.14237466095307486
000560 c4 ec 6b 37 56 e5 b4 bf 2b 1f 82 27 97 34 c8 bf
       -0.08162440159860568 -0.18910493306270246
000570 f6 bd cf bb 14 da c9 bf da e4 45 ab 80 ca bc bf
       -0.2019678036735823 -0.1124649446627645
000580 28 45 b6 13 b6 f0 c6 3f 42 84 5d 3f b2 0c c3 3f
       0.17922092401981016 0.1488249596978069
000590 86 4d 23 59 84 f1 c1 3f 5a 49 fd 77 3d ce d2 bf
       0.14018301346241574 -0.2938378974696626
0005a0 8f 70 33 dd 12 f1 d0 bf 41 b0 4e 85 2e ea b2 3f
       -0.2647139702000993 0.07388582949232704
0005b0 df ac a5 3f cf 7e a2 3f b9 8e e7 10 e9 61 be bf
       0.03612373020117742 -0.1186814943571858
0005c0 c0 92 a3 4c 12 a1 c6 3f 0c b9 85 68 83 cc d1 3f
       0.17679051153313274 0.2781075020528909
0005d0 f5 2f 1a fc dc df c0 3f 2b 43 57 62 11 b4 d2 bf
       0.13183176335985505 -0.2922404728279157
0005e0 45 09 ee c2 5a 61 d5 3f fe 32 c9 55 57 18 95 bf
       0.3340670493709193 -0.02060066662879744
0005f0 dc 0a a5 cf 43 19 cf bf ad 19 d7 8e 73 40 c3 3f
       -0.2429585231676218 0.1504044005834663
000600 4b f4 0e 7f 03 b0 8b bf fd a9 98 c8 56 e1 cd 3f
       -0.013519313159003362 0.23343930048697806
000610 d2 7f 48 64 d9 c5 b6 3f 21 b1 25 b6 db 36 a1 bf
       0.08895643900223085 -0.033621660218019274
000620 0f d5 46 e2 99 66 aa bf 30 3f 57 3a 72 31 bf bf
       -0.05156403433958633 -0.12184823917709475
000630 5a 6f 7b b8 55 ba bc 3f 2d a7 c8 27 76 c9 c8 3f
       0.11221824411353279 0.19364811842506793
000640 9e 1c a2 2c c3 30 95 bf 71 c4 92 af dd 04 c6 bf
       -0.020693826293179833 -0.17202349732318425
000650 b3 80 f4 2a 96 da cb 3f f6 2e e1 07 71 13 d0 3f
       0.21760823342720456 0.2511866166066591
000660 c8 5a e4 05 3d 40 c2 3f a0 92 05 99 2d e3 d3 3f
       0.14258539951034366 0.31074085181743705
000670 f1 a6 5a a5 58 d4 b8 3f 12 40 4d 99 35 b8 cb 3f
       0.09699014698949406 0.21655912385404058
000680 ab f3 9b 22 65 cd c7 3f b3 65 7a 7e 93 23 d5 bf
       0.18595565977002812 -0.330296395791801
000690 9b a1 08 55 74 7d d4 3f bb 41 3b 9f 15 53 c8 bf
       0.320157130280245 -0.19003553652738767
0006a0 20 6b 80 7c 02 68 ac bf 6d 72 ac b6 b0 21 c8 3f
       -0.055481031129792635 0.18852814597711945
0006b0 9c e3 b7 35 23 ce ad 3f 76 86 f9 98 16 c1 d0 3f
       0.05821332960835621 0.2617851728337891
0006c0 92 98 cb 96 2f 19 d5 3f e5 3c ad cb 3b c6 c6 bf
       0.3296622250185318 -0.17792460866119267
0006d0 55 5d a4 6c 17 db cb 3f 5d 82 d7 7f a5 34 c9 bf
       0.21762364201343112 -0.19691914312626838
0006e0 4f 83 4a e8 ab 66 a9 3f ae 56 e9 77 bc 15 ba 3f
       0.049611446481555015 0.10189416816259708
0006f0 8c a5 e7 b9 c4 da c0 3f 65 8f fa 78 6e df d1 3f
       0.13167628362070294 0.2792621785576926
000700 73 86 f0 87 e5 f3 be 3f d9 a9 29 4a 87 a3 d1 bf
       0.12090906685673435 -0.27560598604637004
000710 4d 7b 9d 1e 42 d9 c0 bf 46 c5 95 af 21 ca d0 3f
       -0.1316301965225314 0.2623371329019232
000720 a9 35 3f 6c 34 91 ae 3f 40 e3 46 d4 43 30 bb 3f
       0.05970157452939457 0.10620521481076839
000730 a0 15 f0 17 ca 5b bf bf ee 81 4c 38 25 92 c6 3f
       -0.12249434551639249 0.17633500336616187
000740 dd ac e6 49 27 c0 ce bf 4a 07 16 c9 d5 d2 ba bf
       -0.24023905857516228 -0.10477958831145631
000750 a2 a8 62 10 dc 9a d2 bf 76 56 06 99 42 0f b0 3f
       -0.2907018814099819 0.0627328513713453
000760 93 b3 31 ef 1d 5f c2 3f e1 78 91 9e de 32 a9 bf
       0.14352773837472607 -0.04921622930190651
000770 ad 3e 40 66 b6 3e c9 3f 33 2e 92 d7 fe 18 b6 bf
       0.1972263335487602 -0.0863189007088117
000780 bc c3 09 e4 c5 cb 96 3f eb e8 05 94 8d b7 ad bf
       0.02226170734724396 -0.05804102355883053
000790 6e df 57 83 4c 60 b4 3f 7c 92 a2 bb 66 dc 8a 3f
       0.07959440428373707 0.013115694619338251
0007a0 db fc e8 9d 15 db b8 3f 8d 68 b2 e0 2c 22 95 bf
       0.09709296326853993 -0.020638180937205198
0007b0 cf 69 8f e9 bd d8 a1 3f bd cf 57 3b 09 3e bc 3f
       0.034856734047668085 0.11032159518055003
0007c0 b3 8b 7d 6a f0 73 cf 3f 2b 20 f0 11 ca aa 93 3f
       0.24572568130232994 0.019206197113845896
0007d0 f4 ee 16 dd 7e de c4 3f 32 ab dc fe 00 c4 c0 bf
       0.16304002566709352 -0.13098156399186106
0007e0 68 62 4d 83 6c 5b a3 bf 90 20 a8 2e 01 e1 c8 bf
       -0.03780688383875913 -0.19436659601365536
0007f0 31 99 c9 b2 00 73 c2 bf 64 fd f7 53 cd fb bf bf
       -0.1441346047387895 -0.1249359445573553

linears.1.bias f8 [30]
000000 4f 07 17 a7 1e d4 a2 3f 97 51 6a 0b 81 89 9f bf
       0.03677459516212755 -0.030797973939642977
000010 98 12 fe a6 53 94 9a bf 7b 42 92 78 d0 1b b1 3f
       -0.02595644671193273 0.06683066314350043
000020 9b 80 84 e1 d9 a5 b3 bf 57 c3 6d 23 62 ff a1 bf
       -0.07674943691063378 -0.03515154535751346
000030 3a d6 4f c5 12 0d a7 bf 83 05 15 b3 55 a2 a5 3f
       -0.04502161654083321 0.042254140959367546
000040 64 75 3e 10 9c bd 9a bf d3 13 36 75 59 78 9a bf
       -0.02611392830987337 -0.025849721697813365
000050 ce 38 1d cf b1 08 9c 3f 28 0d af 60 28 e0 b0 3f
       0.02737691713928641 0.06592037544674112
000060 cf 43 7f 63 6b 93 b3 3f 57 ff d8 83 0d 35 93 bf
       0.07646819285515892 -0.018757067844716726
000070 b0 fa 2e 80 58 09 a2 bf d8 ff 09 34 c5 c3 60 bf
       -0.03522755207767625 -0.0020464755655780036
000080 78 46 b6 a3 de a8 b7 bf 87 45 1d 21 7e b9 b6 bf
       -0.09242049691081344 -0.0887678938718378
000090 e7 4b 39 98 d8 50 b8 bf 29 7f 7d 11 c3 e2 b2 3f
       -0.09498361317064018 0.07377261330611574
0000a0 54 55 ce fd 17 4d 9f bf 42 c6 9e c0 8f fd ab bf
       -0.03056752668961356 -0.05466889597245174
0000b0 95 61 aa 4d 93 a4 63 bf 41 08 26 29 d5 08 30 3f
       -0.00239781160537351 0.00024466709250970184
0000c0 d4 d7 8e ea 07 c0 a3 3f 8f 22 69 c0 47 e7 9d 3f
       0.03857445467239953 0.029202576750579964
0000d0 49 df 19 2e 0f 34 a4 bf 4c 81 2e 66 a4 8f b5 3f
       -0.03945968091733094 0.08422305578870243
0000e0 5b 59 17 06 0a 44 a2 3f b3 8e 0c 5a 56 27 a1 3f
       0.035675347560458724 0.03350324486953351

linears.2.weight f8 [30, 30]
000000 6c 66 0f 49 81 2e 97 bf 33 ef 74 ea 89 ae 9c 3f
       -0.022638340076673577 0.02800956243048276
000010 42 cc 8f d7 74 bd d2 bf 7e 70 7c ea 30 3c d4 bf
       -0.29281350184391297 -0.3161737718489873
000020 c1 5b 5b ba f2 00 c5 bf e5 c7 c0 c9 88 8c cd 3f
       -0.16409143542725071 0.23085126734946396
000030 0a 28 05 70 cb 43 d7 3f 4b 1f ac 48 e4 d0 d2 bf
       0.36351285876719486 -0.2939997396174376
000040 82 b8 23 c1 4d eb b0 bf f0 4b dc 5c 7f 5d d2 bf
       -0.06609044995613725 -0.28695663517390724
000050 62 50 ea 58 c0 89 d1 3f bd 58 57 91 d5 f7 d0 bf
       0.2740326755822534 -0.26512660211063716
000060 f5 8f d2 a4 20 b4 b7 bf 19 11 50 56 52 9f cd bf
       -0.0925922777556137 -0.2314246102761295
000070 71 3f 07 8f e9 1b ca 3f ef 26 3e 46 c5 9f d0 bf
       0.20397681697658812 -0.2597516237225212
000080 1d 77 bf 93 91 15 c9 3f f8 0a 5f 7a 03 38 d5 3f
       0.19597072328809242 0.33154379797285527
000090 ff ba f2 1a 6c 13 c1 bf 78 e0 de ec 54 71 d2 bf
       -0.13340522113636408 -0.28816722041984333
0000a0 c7 32 2a 84 e0 d1 cf 3f 73 85 05 88 88 4d ce 3f
       0.24859243825303265 0.23674112931898214
0000b0 0d 07 8d 80 74 09 cf bf 32 cb 9d bc 6a dd c5 3f
       -0.24247604634188527 0.17081960878166452
0000c0 ce ce aa 17 7f 50 d0 bf 6f cc 31 a1 ad 3f 94 3f
       -0.2549131137013604 0.0197741632113772
0000d0 33 9c d8 d8 dc 8e bb bf 06 d3 01 d8 dc 07 d5 bf
       -0.1076486615571504 -0.32860489935346526
0000e0 ae 40 e7 52 de 27 bf bf e8 04 5d 17 12 f6 a3 bf
       -0.12170209430701348 -0.0389867452163431
0000f0 2e c5 a6 d9 63 ca c7 bf b0 d1 eb 9e d0 ad b8 3f
       -0.18586395385276816 0.0964022052756437
000100 d6 75 55 bd 7b 9d d2 3f 8c 6f d5 b4 9f 3d d0 bf
       0.29086202134734884 -0.25376122149986524
000110 f0 ef 3e 87 2f bf d6 3f 72 f3 99 ce e9 77 ca 3f
       0.35541904647447975 0.20678446376760068
000120 be 23 57 c5 06 f1 cb bf 05 06 25 9f 6f 92 cd bf
       -0.21829304347764195 -0.2310313727448802
000130 a1 9c 6e c3 96 bf d5 3f ac a2 01 cd fc 59 87 bf
       0.3398186596409208 -0.011402106291101909
000140 7c 80 44 1b f2 bd b3 3f 76 a0 6f 4b 71 91 b0 3f
       0.07711709180557763 0.06471927730274438
000150 c9 18 f4 f9 bb ba 9b bf ab 7d ae 9a 39 1a c4 3f
       -0.027079522257758257 0.15705032398998972
000160 c9 94 f3 82 1b 47 c1 bf 6b 0a 6e 60 32 bc cf 3f
       -0.13498252767673183 0.24793081005562398
000170 b5 4e db 14 a6 1d d0 bf 7c ad 6f bd d8 11 ab bf
       -0.2518096164396682 -0.052870534061947944
000180 bc d2 8a 25 a1 97 b3 bf c9 a2 dc de 32 12 c3 3f
       -0.0765324322372391 0.14899288064886765
000190 2f 09 22 9b c1 65 9c 3f fc 9b ab 41 6f 9d 59 3f
       0.02773191937786484 0.0015634142388820651
0001a0 13 c0 7c e4 cf 3d cb bf 86 82 f9 08 f2 26 a1 bf
       -0.21282385498625497 -0.03350025519899184
0001b0 df ce 56 1e a6 af c1 3f 21 c3 7b b8 9b 50 ce bf
       0.13817287904168205 -0.2368349695966794
0001c0 9b 6c 71 6a 45 44 d4 3f f6 ef a1 b4 3f 50 d2 bf
       0.3166669406397859 -0.28614800109767147
0001d0 d8 2d 5b 09 8b 24 d5 bf 45 5f 6f f9 34 07 b6 3f
       -0.33035541452110584 0.08604746904108847
0001e0 f1 04 26 bf 19 e0 c7 3f 61 f1 5f 39 01 c6 c8 bf
       0.18652650674270135 -0.19354262639525202
0001f0 57 98 db cd 87 71 c8 bf a1 f7 26 84 11 73 c0 3f
       -0.19096467544221937 0.1285116095804684
000200 39 bf d5 91 76 a1 d2 3f 10 b9 38 92 fa 5e cc bf
       0.2911049293679642 -0.221648522755864
000210 88 cf 11 2e b7 a4 c3 3f 8a e1 16 82 f7 9f a6 bf
       0.15346421956530443 -0.04418920004849543
000220 a3 db 46 bc b5 7b ca bf dc 4d 56 84 e0 5c b8 bf
       -0.20690032666399558 -0.0951671908463178
000230 e5 fa f4 ab d6 ed c8 bf 4b 7f 0c c6 88 c8 a3 bf
       -0.19475825687728512 -0.038639330078011534
000240 32 d9 58 59 9a 0d cc 3f 02 42 09 f6 29 cc b5 3f
       0.21916512835168472 0.08514654404394409
000250 35 a8 27 f3 0d 75 bb 3f cf 8e 52 5a cc 9b cc 3f
       0.10725485979460887 0.22350458536413106
000260 d8 ee cd 73 c8 c6 ca 3f 83 42 13 f2 6f e7 d4 bf
       0.2091913762522981 -0.3266258110061601
000270 30 d8 2b 1d 24 24 4c bf 32 01 c0 c5 a2 92 c6 3f
       -0.0008588005387923977 0.17634997039568528
000280 7f b8 d4 95 3c af d1 bf f2 8e dc 18 85 45 d1 3f
       -0.27632059699943307 0.269868158606399
000290 2e b3 b3 ea c7 8e b4 3f 80 44 7f c4 54 6e a1 bf
       0.08030366401699204 -0.03404488466879574
0002a0 3f 16 9e cf 0b b4 b1 bf 93 8e 32 77 cf 2e d2 3f
       -0.06915353602206496 0.28410708084468544
0002b0 c7 11 0f dc 8b 96 ce 3f 3b 3f 1a 28 25 33 94 bf
       0.23896930928289192 -0.01972635323778536
0002c0 b9 63 04 e1 93 e8 ce bf 65 60 d1 e1 85 f2 cf 3f
       -0.24147270667233814 0.2495887138964036
0002d0 a3 1a 98 cf 64 6d c9 bf e0 f6 5f 1e 10 cf b6 3f
       -0.1986509336131422 0.08909703008245229
0002e0 1e dc 78 c4 dd 74 d1 bf ca 1c 80 38 70 96 c1 bf
       -0.2727579516098916 -0.13740351446924698
0002f0 2a 38 44 d1 1e 68 d3 3f 84 7c 99 3d 1c f4 cf bf
       0.30323000370197184 -0.24963715560713606
000300 23 48 49 3f c3 dc d2 3f f4 63 70 ba 83 0d aa 3f
       0.2947242849378446 0.050884357937498154
000310 65 64 99 f4 f7 73 d5 3f 40 e3 ac 54 0b 99 cf bf
       0.33520316015853374 -0.24685804018533908
000320 53 a0 dd 71 54 6a d6 bf 4d 03 24 b2 95 a2 b0 3f
       -0.3502398597688671 0.06498084639680464
000330 05 1d e2 6f 7e 5c c6 bf 55 d9 36 66 bf 39 a4 3f
       -0.1746976896576841 0.03950307963116254
000340 20 fc 01 e4 6c 74 ca 3f 18 81 6a a8 b6 2c bd bf
       0.20667801984015544 -0.11396352397651233
000350 92 fd b2 7a 02 36 b6 3f 8a 73 53 1e bb 54 cb 3f
       0.086761622386794 0.2135232828212817
000360 18 bf bb 28 40 f7 d0 3f 15 d1 72 7a 02 bd ca bf
       0.2650909803187331 -0.20889311770373156
000370 51 81 3b b8 a8 58 bf 3f 7c fd 46 50 80 a1 a1 3f
       0.12244657991278031 0.034435281562305214
000380 35 e9 4c 09 73 15 c3 3f 1c fc 42 59 a3 26 c8 3f
       0.14909208253977516 0.188679140648646
000390 1e 86 96 e8 f2 f3 c7 bf 49 f7 da cf 58 0f bb 3f
       -0.18713222843966631 0.10570292543976935
0003a0 f3 f1 8d 45 bf 62 c4 3f b3 23 2a 75 70 20 ce 3f
       0.15926352401937968 0.23536496849945152
0003b0 2c 7c 2d a2 c9 dc b9 bf df b6 e1 0a c7 8f b5 3f
       -0.10102520188728253 0.08422512069384024
0003c0 f7 5a d1 6b e7 72 b3 3f 08 6d 5f 7a 95 16 94 bf
       0.07597204572935455 -0.019617400735893603
0003d0 4c 86 10 9e 2c be b9 bf 87 32 ae 0c 07 59 cd 3f
       -0.10055807932851585 0.22927940482295048
0003e0 ac b4 04 84 26 44 c1 bf 8c ed c0 f8 f9 40 c2 3f
       -0.13489228674135256 0.14260792394803123
0003f0 cb 43 a5 f2 fc 7b cc bf 8e 05 ca ad 8c 56 a1 bf
       -0.22253381584098827 -0.033863445486541285
000400 6e d2 38 95 36 fe c6 3f 83 b2 9d 7c ea 8b d1 3f
       0.17963297163227615 0.2741647927239585
000410 30 43 86 ca 1f 48 c5 3f 9c 29 6c 11 0f c4 cf bf
       0.1662635554207781 -0.24817074156483165
000420 6f 72 27 6e ce 40 c3 bf 61 b1 21 9a 2c 91 d4 3f
       -0.15041523340814275 0.32136073161998097
000430 cb 31 58 73 48 69 b8 bf 20 cd 53 84 d4 c5 c6 bf
       -0.09535649124172278 -0.1779122968797333
000440 b7 c0 de aa 8d ad c1 3f 6e 71 a6 ae 7c b7 b7 3f
       0.13810892909305547 0.09264354003830075
000450 62 a6 cd 62 62 ac c3 bf 93 25 61 58 0a 32 d3 3f
       -0.15369825195675718 0.2999292243080955
000460 d5 4e 6f 96 59 2e d2 bf 5c f1 a3 d7 f6 46 c3 3f
       -0.28407897654436215 0.1506031563693665
000470 8e ff d3 23 71 48 b6 3f 28 a7 d3 fc 4f 70 ab bf
       0.08704287647924344 -0.05359125100387835
000480 3d fd 93 ba 19 2b cf 3f 90 dd 8b e3 4e 99 cd 3f
       0.24350282297380402 0.231241093737236
000490 68 20 1e 0e f0 81 cc 3f d8 18 e2 b2 45 0a c5 bf
       0.22271538438167515 -0.16437598452120628
0004a0 08 57 be 19 35 19 99 3f 54 21 aa fb 1f c9 a9 3f
       0.02451022119165372 0.0503625864703873
0004b0 f6 51 40 e4 4f 08 b3 bf 0a fc a4 0c df 18 cd 3f
       -0.07434558222332285 0.22732151143461038
0004c0 ea cf 96 07 f5 1f 5e bf 78 61 31 96 d7 25 a5 bf
       -0.0018386738650919506 -0.04130433758172364
0004d0 93 5c 6d ec 5f d7 af bf c3 3e 7a 80 22 15 cb bf
       -0.06219005356859344 -0.21158248208347716
0004e0 95 a6 d2 d5 ca b3 c4 3f a0 c2 fe fb 95 0c aa 3f
       0.16173682632988987 0.050877272616508096
0004f0 cb 39 f3 05 6e 32 d3 3f b1 40 8c 29 d6 4b d1 3f
       0.2999529893976642 0.27025369698913965
000500 2e 23 a5 5b 0b ef c5 3f 4f 62 fc 88 7f 44 8b bf
       0.17135755514962042 -0.013314243667580742
000510 c8 aa d0 6f fe 1a ca 3f dd 35 7e 46 9f 7d d2 bf
       0.20394878825876206 -0.28891736873705814
000520 87 87 96 fe 69 61 d3 3f 9b 09 6d cc 2d e0 c3 3f
       0.3028206812106124 0.1552788971112705
000530 b5 03 d0 97 e5 a6 ce 3f 0a 63 ae 45 2c ef c1 3f
       0.23946828758928765 0.14011147882845193
000540 b5 3b 9f c6 98 d4 c2 bf aa f5 b3 a1 53 59 d4 3f
       -0.14711293886509016 0.31795206824593925
000550 68 bc 64 fc e9 bc b1 3f ba f4 5d d0 3c a8 91 bf
       0.06928884899092369 -0.017243337838853214
000560 d7 a0 f4 f4 6c c2 c5 3f 6a 80 4e c7 d2 1b c8 3f
       0.16999589882585184 0.18834910136957045
000570 43 50 af 23 79 ba c7 bf 91 24 2f db 02 51 bb bf
       -0.18537821047232414 -0.10670488215613917
000580 21 2f cc 7c 31 a6 ae bf a7 fe 08 68 f8 49 c4 bf
       -0.05986170433433658 -0.1585073955520688
000590 6a da f7 f3 d4 b6 c4 bf da 51 05 45 08 cf c7 bf
       -0.1618295851946699 -0.18600562448649677
0005a0 b8 4e b3 60 e4 7c c0 bf 8c 67 86 07 e5 b1 d2 3f
       -0.1288114044351596 0.29210782751908293
0005b0 e3 16 95 5e 50 a1 bc 3f a5 47 69 a5 a3 b8 c4 3f
       0.11183645543232106 0.16188474251481214
0005c0 ee 0e 3d e5 7f d2 c5 bf 66 87 fa 72 49 2b d2 bf
       -0.17048643773352218 -0.28389202335721675
0005d0 c9 18 da 7f b3 b2 bc 3f 3d 8d f4 e2 38 99 c9 bf
       0.11210176345238944 -0.19998847085762775
0005e0 36 a7 ac ab 2e 51 d1 3f b0 d0 7a de e5 60 c8 3f
       0.2705799747951575 0.19045709002751243
0005f0 dd 54 89 a6 4d c8 c9 3f 66 60 47 3f 46 24 4e bf
       0.20142527228987364 -0.000919851589567433
000600 18 36 d4 ef 58 db ab 3f 9f aa b3 e4 98 79 ce 3f
       0.05440786292647831 0.23808585326272166
000610 d3 26 38 99 17 cf c3 bf 12 f3 6d de 5b 5b d3 3f
       -0.1547574518338509 0.30245110246305373
000620 69 43 dc d0 ea 85 a6 bf 48 f7 b2 86 fa 02 af 3f
       -0.04399045753064607 0.06056960005069684
000630 76 23 c4 ef 08 43 ca bf 1b 88 ff f6 c0 3a d3 3f
       -0.20517074305851296 0.3004610454646596
000640 6e 7b b6 67 93 81 b7 3f 65 6e b8 a6 b2 b7 ab 3f
       0.09182091981936732 0.054135878421416796
000650 6f 4f 46 11 72 a9 b0 bf 89 44 31 17 88 a7 a3 3f
       -0.06508553430313467 0.03838753970252024
000660 fc 8c 64 63 f1 14 cf bf 8b 28 d4 fc 3b ad d2 3f
       -0.24282662728464988 0.29182338419253345
000670 1e 8b d3 bd a7 69 d0 bf b6 ee 03 5f 91 ed d2 bf
       -0.25644868409851707 -0.29574999121517054
000680 4a 65 e4 fd 96 67 d4 bf f7 3f 43 d5 fa 3e d2 3f
       -0.3188226203361252 0.28509398294863736
000690 43 d7 ad a9 8c 9e c6 bf f1 1c 16 2d 1e 53 bc 3f
       -0.17671354565725936 0.11064327812902143
0006a0 27 eb 8a 94 31 ba cd 3f ed 92 e1 22 ab 37 c5 bf
       0.2322446799569999 -0.16576136782818854
0006b0 5d 96 5b 53 8f 77 d4 3f eb 44 d4 37 d2 98 69 bf
       0.3197973550835281 -0.003124628622238936
0006c0 33 e1 f7 d9 c6 bb c6 3f c9 64 68 5e 86 15 c9 bf
       0.17760549204809592 -0.19596938714747683
0006d0 7d f4 af 76 36 d3 ba 3f a4 15 6e 33 61 4b cf bf
       0.10478535077705149 -0.24448790560942968
0006e0 a7 52 3c 2c a8 77 c5 bf 1e d0 cb 04 69 8e c4 bf
       -0.16771413955634282 -0.1605960153025316
0006f0 a5 52 3b 71 42 fb c0 bf a7 dc 07 13 54 a4 d2 bf
       -0.13266783265011842 -0.29127981050937496
000700 e6 e7 5f 03 e3 9f b5 bf 79 29 cf 97 1b 68 c6 bf
       -0.08447092850101931 -0.17505211746749774
000710 6f c7 7e 7c db 9b c5 3f f4 69 96 c8 10 b7 d2 3f
       0.16881888941639597 0.29242343510273305
000720 96 8d 32 09 82 a2 d2 3f b7 e8 e7 d9 5c 2c b6 bf
       0.29116869829359737 -0.08661442108123905
000730 32 fb 42 84 c4 54 aa bf 5a 70 46 9d 46 f2 c9 3f
       -0.05142797579309501 0.20270617179346823
000740 77 aa 41 2f 76 80 a2 3f 66 33 af c5 0a 29 c6 3f
       0.03613633467542326 0.17312750484998246
000750 76 60 39 bd 9a 27 c9 bf eb dc 2a be c1 85 c0 bf
       -0.1965211318918169 -0.12908193383712016
000760 a1 36 17 e5 12 9b d1 bf d9 89 06 5c 4f e7 c0 bf
       -0.27508995411049325 -0.13205902093348135
000770 e4 72 11 36 68 d5 c2 bf ae ec 4a 62 07 b8 cc 3f
       -0.14713766708418696 0.22436611461111994
000780 7c 15 21 5a 18 74 c5 3f 6b 67 fa 7e 78 6d cb bf
       0.16760544205514438 -0.21427828025917547
000790 63 8f 77 59 7b 77 b9 bf 7a d7 62 4c 86 61 cd 3f
       -0.09947939810041144 0.22953871469297465
0007a0 12 b2 29 02 97 77 c3 3f f9 af 31 aa b1 13 c7 3f
       0.15208709340676357 0.18028851328142517
0007b0 a1 e7 be e0 7a 9d 91 bf 9b e2 a1 74 fe 75 b9 bf
       -0.017202300994291545 -0.09945669505567382
0007c0 4c 9b e7 a9 46 25 c4 bf bf d2 dd 9e 1a 7f a4 bf
       -0.1573875741589411 -0.040032226460345204
0007d0 a9 dd 97 40 25 6f d7 3f 82 49 69 fd 58 37 9a bf
       0.3661587839883063 -0.02560175940227217
0007e0 52 17 f2 21 e1 93 b9 3f 34 a0 4a 33 44 e8 b8 bf
       0.09991271094085377 -0.09729410412057932
0007f0 42 89 45 b3 02 92 aa 3f 73 88 1b d6 ed fe b7 bf
       0.05189522207617127 -0.09373365857348563

linears.2.bias f8 [30]
000000 c4 aa fa 3b dd 4d af bf 96 c9 d3 38 b2 e6 a2 bf
       -0.0611409316746481 -0.03691632217114031
000010 d2 cc 1c d8 d8 c2 9c 3f c0 3d 81 a1 a8 84 a9 bf
       0.02808703249975226 -0.049840230669925045
000020 83 f6 b0 ea 46 b4 95 3f 40 da ab b8 b3 b8 a9 bf
       0.021195514749925436 -0.0502372897080261
000030 0a fb 04 6e 30 03 a0 bf 30 55 87 9c e8 13 97 bf
       -0.031274331503018685 -0.022536882928610058
000040 3a f6 80 4f 82 98 9b 3f 1e dd 00 f4 4f 71 a9 3f
       0.026948963263057936 0.04969262937123119
000050 b0 fb dc cb 26 77 9f bf 01 8a 29 45 67 e0 a7 bf
       -0.03072796458513566 -0.046633937065752924
000060 ce a0 36 25 47 13 af bf ea 92 ce 33 3f 33 b3 3f
       -0.06069395379319219 0.07500071539704903
000070 fd e8 4d 40 4c e8 a4 bf 65 a6 30 52 9e 9a 8c 3f
       -0.04083479199376148 0.013966786273232399
000080 7c 97 d7 72 33 c1 ad bf d1 5d 7f e2 bc d7 9b bf
       -0.05811463143235948 -0.027190162014304967
000090 be e1 3f 4e 73 7c a0 bf 02 c3 13 1e b7 0d 91 3f
       -0.03219948129839477 0.016653882227674728
0000a0 e7 e1 3c f0 7f 37 98 bf 6b 51 ce 32 53 ca a8 bf
       -0.023649214780762675 -0.04841861720265935
0000b0 f2 a7 01 c8 55 4a ae bf ea c4 79 e7 26 db a3 bf
       -0.0591608816765329 -0.038781371837908044
0000c0 61 1d 95 ca f0 b9 a2 bf 15 3e ee eb 2e 9b 9a 3f
       -0.03657486412935885 0.02598260226255718
0000d0 03 61 45 8e a4 85 a5 bf 2a ad f4 4f e6 99 a5 3f
       -0.042035238616053426 0.0421897862055068
0000e0 d2 4e 3d 47 42 35 aa bf 9c 12 93 c2 25 14 b4 3f
       -0.05118758315680129 0.0784324264560134

linears.3.weight f8 [30, 30]
000000 42 1b ab df 98 66 7a 3f 59 e6 10 cc 32 20 cd 3f
       0.006445500529202177 0.2275451179901207
000010 cb a9 83 03 96 37 cd 3f c4 f7 1b 70 c5 c0 b9 bf
       0.22825884982678554 -0.10059770571748944
000020 41 0a aa 8d 6e 49 c1 bf ff a9 f2 ff bf f5 d6 3f
       -0.13505346219251815 0.3587493895999216
000030 b3 a2 3c dc d4 d1 cf 3f bc 1c 84 95 ed cc c0 bf
       0.24859104875328839 -0.13125390816296612
000040 21 15 42 e2 08 c9 c6 bf a8 78 eb af c4 02 d4 bf
       -0.17801009223709577 -0.3126689641920941
000050 cd 41 d2 57 18 4a c9 bf 3e c3 63 04 63 31 c4 3f
       -0.19757370269918653 0.1577571650919029
000060 06 e4 92 1d 16 bb d0 3f 5f 4f 80 11 0d dd a4 bf
       0.2614188469702302 -0.04074898565900641
000070 c1 10 d2 ab 46 1b d2 3f d7 fd 3e 09 c3 8c d2 bf
       0.282914798539661 -0.28984142210898994
000080 9f 0e c8 09 be 85 c1 bf e2 a3 5e d5 2f 06 d3 3f
       -0.136893992210493 0.2972526153267251
000090 99 ac 95 df ab 69 c6 bf fd 82 6d f4 dc b0 ca 3f
       -0.17509983460636105 0.20852243361425585
0000a0 cb 17 b7 3e 61 ab b6 3f 36 c3 a1 8a 45 a8 d5 3f
       0.08855254918225268 0.338395486242962
0000b0 1b 0d 24 6a cd 83 95 bf fd c6 54 3b 33 55 b7 3f
       -0.021010598758050763 0.09114380072130852
0000c0 77 c5 d6 41 3f 1b c1 3f 81 ad 57 8a f6 69 cb bf
       0.13364401545326718 -0.21417123560909704
0000d0 65 d5 26 01 37 91 c0 bf df 8a ea 75 71 06 ad 3f
       -0.12943160587534944 0.05668978275686753
0000e0 c6 31 6d 63 2c 57 d9 3f db e1 68 20 41 6d 84 bf
       0.39594564160941237 -0.009974011231961668
0000f0 5a ae 30 e2 be 3f c6 bf 3c 67 3b c2 ed 2e c1 3f
       -0.1738203625148909 0.13424465164171717
000100 50 4d 95 ed ce ab d4 bf 01 f5 0c c4 87 47 cd bf
       -0.3229863472126526 -0.2287454325941454
000110 69 e5 f7 06 e3 4c d4 bf bc d5 a0 f0 e4 ed b7 bf
       -0.3171927993822324 -0.09347372889245426
000120 46 6c c5 c1 40 11 c7 bf 61 63 b1 66 8d 0e c7 3f
       -0.18021401845439494 0.18013160242369522
000130 8e 5c 99 5d 04 27 b0 bf b3 c7 a9 96 bf 71 b5 3f
       -0.06309535298474797 0.08376691273022523
000140 b3 f8 49 dd 35 23 ba bf 84 4b bf ba db 1a d2 bf
       -0.10209976818620951 -0.2828893016532492
000150 4f 65 c2 f9 81 be 9d 3f df fc c9 ab df 33 bb bf
       0.029047041768170797 -0.10626028007571929
000160 c0 2f f8 67 9c cf d3 bf 84 66 d6 cb 77 54 c2 bf
       -0.30954656747121234 -0.14320275738719002
000170 2c a3 49 2a 3c f2 d1 bf ac 9c c9 9d 0b 83 cb bf
       -0.2804098523106855 -0.21493668751211226
000180 03 78 36 22 24 9f d6 bf 7f 09 1e c1 31 87 90 bf
       -0.3534632047757215 -0.016140725528666074
000190 9a c8 c9 33 a7 e2 cc 3f d1 e1 e5 ce 42 bd a0 bf
       0.22566690472337286 -0.03269394660577841
0001a0 a4 5a 67 42 5c e9 97 bf 81 c6 29 a8 84 38 d7 bf
       -0.023351136734926073 -0.362824596616612
0001b0 dc 91 3d 54 f8 17 cf bf 3a dd e8 5a b3 7d bf bf
       -0.24291900742822647 -0.12301178903077395
0001c0 40 7f 43 6e e1 d5 ca bf 64 9c 72 cb f2 ab 75 3f
       -0.20965211757629199 0.005290935913911363
0001d0 a6 32 6d be d5 36 d6 bf 94 01 51 e0 b7 ac d1 3f
       -0.34709685894339726 0.276166886385931
0001e0 fd 52 40 9d 47 30 bd 3f 30 43 86 df e8 f9 d3 3f
       0.1140179404176926 0.31212827518997965
0001f0 51 c9 d0 64 4c f7 c8 bf 11 0d e4 b5 43 0e c4 3f
       -0.19504694864878983 0.15668531781566533
000200 85 44 0c e1 f9 88 b1 3f 76 21 43 18 e0 23 ac bf
       0.06849633926710126 -0.05496120735330383
000210 ac 83 17 29 16 56 c0 bf 4d 71 b4 98 f9 35 c2 3f
       -0.12762715345800524 0.14227218586246196
000220 3d a9 32 e8 b8 ad d6 bf 23 71 44 ee a4 03 cd bf
       -0.35435316730094596 -0.22667371400974287
000230 9b f6 5f b2 91 a9 cc 3f 54 c0 8c ec 64 95 cb bf
       0.22392483911237523 -0.21549665022166897
000240 bb ba 35 ef a0 13 aa bf 2b be 10 ba b8 2a a7 3f
       -0.05093100471537101 0.04524781485849546
000250 6e d0 7d f7 b9 03 c2 3f 7e df 33 0a 7d 2a c1 bf
       0.14073872170013452 -0.1341091441934132
000260 96 7f 2a 22 a0 e0 cd bf 64 38 66 39 e8 fb a5 3f
       -0.233417526896116 0.04293752384829544
000270 f4 12 5e 0f 23 e0 d4 3f 86 4c 56 7a 46 a0 c9 bf
       0.3261802339623465 -0.20020371411792243
000280 b6 1a 76 f4 da 91 d2 bf c2 bd 34 18 4f bd c8 3f
       -0.29015230057886343 0.19327725107130617
000290 53 3f 7f 89 17 6e d0 bf 46 86 23 46 cb d7 c4 3f
       -0.25671947886893526 0.16283551144356262
0002a0 00 df 20 34 53 69 ad bf 0e 76 fd 44 b0 12 be bf
       -0.057444191087084207 -0.11747266468361081
0002b0 56 3b c7 46 9a 1f c2 3f 09 78 d4 41 d5 66 95 bf
       0.14158943611115643 -0.02090008940023583
0002c0 18 0a 71 ec 59 25 c6 3f 88 2c 8e 6d 7f 76 ba 3f
       0.17301487011907635 0.10337063240710809
0002d0 89 12 03 df f8 bf ce bf b2 6b f2 b5 6d 5c d1 bf
       -0.24023352517373933 -0.2712663914514294
0002e0 8b b2 98 a3 f8 3d c6 bf c9 c3 24 8e 4b f5 c0 3f
       -0.17376621234997844 0.13248581352811886
0002f0 3d 9f c8 61 03 45 ae bf 7b 07 41 15 a6 b3 d6 bf
       -0.059120279013141964 -0.35471489024722985
000300 cb 91 22 53 b9 67 d2 bf e7 7f e4 33 65 d1 c7 3f
       -0.2875808059564206 0.18607773813073367
000310 0b 3b dd 02 64 84 d5 3f a4 25 63 f3 85 24 c5 3f
       0.3362054851503877 0.16517710098405047
000320 5a f1 23 05 6d 05 cc 3f 3d 91 d4 9d 3e da a5 bf
       0.218915584096872 -0.0426806991256705
000330 04 04 fb fd d5 39 d3 bf ba b2 bd 8f 5f a2 b0 3f
       -0.30040502360139976 0.06497761973669017
000340 e2 17 0e 7c 5b 1b cb 3f e0 bd 84 cf b7 ab c6 bf
       0.2117723804223593 -0.177115417792705
000350 2a b6 56 7f 24 cf 9c 3f 1f 49 bb 34 79 f5 c1 bf
       0.02813393618787622 -0.14030375551971816
000360 d7 1e 5e 6d 72 15 d6 bf 64 6f a5 64 a7 56 b1 bf
       -0.3450590198558365 -0.06772848326857922
000370 95 01 ed 8a 8e b9 cd 3f 66 69 5d 24 29 8c ad 3f
       0.2322252443646106 0.05770996636302321
000380 38 09 88 e1 37 77 c8 bf 15 e1 a7 6a 13 8e 98 3f
       -0.191138253329038 0.023979476341964807
000390 a8 08 20 f5 ce 13 bc bf d2 24 5e bf 74 43 c6 bf
       -0.10967725262165351 -0.1739335951245154
0003a0 15 2c e5 13 10 9b d1 bf 21 6d f3 e7 99 43 d1 3f
       -0.27508928244486813 0.26975104953244694
0003b0 21 88 ca 1d 47 ac b8 3f a0 1c 17 62 83 25 c9 bf
       0.09637875058481928 -0.19645731248440246
0003c0 9f 34 d8 49 e0 ab c7 bf 60 1a 1d b7 94 e4 cc bf
       -0.18493274312678395 -0.2257257360563072
0003d0 bf 17 5e c7 45 99 c8 3f 73 a4 0d da 0d 7b c8 bf
       0.1921775077318539 -0.19125531336911514
0003e0 2b eb 2b 31 2b d7 a4 3f a1 1d 28 95 d9 af cc bf
       0.04070410704840407 -0.22411651404420943
0003f0 d6 5a 98 de 68 59 b8 bf 70 8f 1d c3 d7 eb 5d bf
       -0.09511428293658794 -0.001826248841518354
000400 3a 40 69 cf 99 bb cc 3f ed 48 c1 94 fe 46 d1 bf
       0.224475122714013 -0.2699581577954991
000410 bb 5b 76 a8 d8 f5 ca 3f 5d cc eb 7a ad 54 c8 bf
       0.21062763429355677 -0.19008415700918393
000420 5c a3 a2 93 3b 5c c7 bf ab 78 d8 0e 6c a9 ab 3f
       -0.18250221928362975 0.054026963054853404
000430 b6 4b fb 40 5d 9d d4 3f 3e ca 27 0c 6c 64 d2 bf
       0.3221047529779598 -0.28737927615216907
000440 6a 3c 47 a2 a9 2f d0 3f c0 22 22 f0 df 52 b6 3f
       0.2529090962170303 0.08720206844931067
000450 97 96 96 cf 16 fa a4 3f db 58 c3 87 b9 35 c7 3f
       0.04097052845035625 0.18132704857879997
000460 86 4a ab f5 c5 b4 b5 bf 13 7d c6 73 1a c2 c4 3f
       -0.0847896313455668 0.16217356350987497
000470 ef 12 97 73 ad 68 c8 3f 76 d6 73 24 d9 63 cd 3f
       0.19069450515794226 0.22960962562472148
000480 dc b2 f8 b9 2d 94 a0 bf 13 fc 73 1c 4a 30 d4 bf
       -0.032380513145062045 -0.31544735697383536
000490 fe 18 9b 9c 66 f3 d3 3f 34 da da 65 fb a8 af bf
       0.3117310075143819 -0.061836105521639345
0004a0 3f 4f 37 31 e6 45 d6 3f 09 00 2a de 04 d5 cd bf
       0.3480163078904645 -0.2330633244309868
0004b0 87 2c 17 45 e9 db c2 3f bb 20 f5 14 1b ec cf 3f
       0.1473361575466223 0.24939287684742859
0004c0 f0 a4 10 62 c0 79 c2 bf af 2d 1f d9 33 ae c4 3f
       -0.1443405608018007 0.1615662393727297
0004d0 24 6b 7e 81 7e 87 d3 bf 89 e2 28 48 cb e3 c6 bf
       -0.3051449074352368 -0.1788267233221357
0004e0 b5 6d c9 f0 27 39 b5 3f e8 55 9a ff 67 78 be bf
       0.08290338162026141 -0.11902475347809338
0004f0 88 a8 8b 8b 6e 19 b2 bf 4d 7c a7 7e eb 53 cb bf
       -0.07070055872796577 -0.21349853214539607
000500 87 4c 63 37 cd 92 cc 3f e7 c4 0f ad ce 93 cc 3f
       0.22323003010260242 0.22326072168610908
000510 f2 2b d0 33 33 6e 8c bf 85 87 8f 1f 3a ae ca 3f
       -0.01388206483718155 0.20844198742912226
000520 05 54 3d 14 bb 30 a0 bf 90 45 96 d1 79 ba d9 bf
       -0.03162178632798177 -0.40200658290367475
000530 bd 66 e5 57 ce 56 8c 3f d8 87 dd 05 b4 66 a6 3f
       0.013837444360138002 0.043752313343034366
000540 1c e9 d8 63 69 2f bd bf b8 de ce 3d 15 e5 dc 3f
       -0.11400469482115166 0.45148211513467684
000550 ef f0 78 ac 2f da cb bf c7 30 98 0c 90 34 96 3f
       -0.21759601518159097 0.021684885758120467
000560 5c 1b f3 2f 44 85 d1 bf d9 97 55 0c b5 16 c8 bf
       -0.27375893290120756 -0.18819296934378718
000570 4d 07 4e f3 2a ee c6 3f 32 8f 81 5a 37 b4 c2 bf
       0.179143303681537 -0.14612476271860825
000580 b1 ab 6d 4e b6 9a c2 3f 4e 05 54 48 2e 42 ce 3f
       0.14534643964301844 0.23639467746401482
000590 c0 ca 3c ca a4 97 c3 bf dc 65 31 9e 41 81 ca 3f
       -0.15306529879452135 0.20706958984628343
0005a0 69 1b 53 5f d8 86 b6 bf 2b 00 01 39 b3 9b af bf
       -0.08799507453214307 -0.06173477240417954
0005b0 31 38 40 43 14 df c4 3f 65 f4 87 6c 20 3f b9 3f
       0.16305783542378685 0.09861948632892988
0005c0 07 92 bc ed 54 17 b0 bf 5b 63 76 3d b2 7e a0 3f
       -0.06285601429096498 0.03221661567949382
0005d0 92 9c f0 66 46 26 d5 3f 1d 21 1d da 6c e1 cd bf
       0.33046112110827963 -0.2334419312485431
0005e0 e4 04 df 83 1a c1 b1 bf 40 b4 4d ea 85 fd d5 3f
       -0.06935277671347567 0.34359882241443884
0005f0 df 94 b0 2b 0d 42 c0 3f fa d9 71 4f ac f1 c3 bf
       0.12701573022164944 -0.15581277732026405
000600 1e 68 e0 4d 6a b7 d6 bf d9 89 78 f7 97 da bd bf
       -0.35494477849135986 -0.11661672393578416
000610 82 01 e5 a9 a4 ec 9d 3f 4a f0 31 7e 30 88 db 3f
       0.029223034734287896 0.43018734287011695
000620 a4 38 8f 84 ab 0a ca 3f b0 8e e2 84 ea 4e 81 bf
       0.20345062229757105 -0.008451301746681267
000630 e1 bb 22 87 d1 13 d6 bf ea 46 d0 d2 fb 70 cf bf
       -0.344959623306691 -0.24563548844940125
000640 0f df f9 3d 97 80 c8 3f 08 84 c5 91 68 65 c5 bf
       0.19142427946257398 -0.167157241036904
000650 10 4b f5 17 95 ed ca 3f 0f 51 72 cf cf 73 9b 3f
       0.21037543935616343 0.026808974300892404
000660 84 87 af 7d f6 3f c0 bf 67 9d 58 a9 49 52 c1 bf
       -0.12695199143405145 -0.13532372254233424
000670 f1 76 95 46 14 81 b4 3f 93 29 eb 96 b2 ac bb bf
       0.08009459231604034 -0.10810390648399552
000680 8d c8 3c 69 6c c6 b3 bf 8d 8c 06 fc 77 e9 9f 3f
       -0.07724645203851051 0.03116404987089232
000690 f4 d6 86 7c cc 46 c4 3f 83 c2 5c 5a c6 01 d8 bf
       0.1584106071510899 -0.37510832619140205
0006a0 df e4 99 d0 90 f2 c5 3f 02 6e 87 05 35 cc c7 bf
       0.17146501718142468 -0.18591940660449785
0006b0 22 72 86 17 0d 07 8f bf 51 f7 9d 04 0b e9 ae bf
       -0.01515016773265027 -0.06037172728882346
0006c0 01 c7 d8 f5 8b b1 83 bf 02 9e 34 a3 81 54 ca bf
       -0.00961598724379398 -0.20570393055935204
0006d0 2a 85 a7 cf 59 16 c2 3f ec 57 60 66 db 5d a7 bf
       0.1413070930421239 -0.04563794731818391
0006e0 9a b9 60 b7 a2 1c c1 bf 3b 91 74 2d 71 8f cd bf
       -0.13368638948436457 -0.23094000548838686
0006f0 a5 97 d3 20 5e 74 c2 bf 8d 37 15 2c 67 05 b8 bf
       -0.14417626002176323 -0.09383244348756943
000700 53 ee 27 d4 1f 94 d1 3f 20 d6 f9 5d dd a3 bf 3f
       0.27466579168660593 0.12359412712415763
000710 13 a4 a2 1a 78 e2 9a bf bf ef a5 7e 7f 26 ba 3f
       -0.026254536271753958 0.10214993326184095
000720 f5 25 4a 52 a1 9f cf bf 69 01 18 f6 fa 31 c7 3f
       -0.24705902593659315 0.18121277824685514
000730 df 3f e8 82 a3 e8 ba bf a8 2a bd 8e ee 2b b0 bf
       -0.10511228509881175 -0.06317034706914149
000740 28 2e 51 1d ce 11 c7 bf 90 44 a4 1c ce a2 c1 bf
       -0.1802308695936159 -0.13778091810721493
000750 5e be d1 9c db 3a c3 bf 44 8c 0c 2f 73 45 90 bf
       -0.15023369939034387 -0.015889930483478545
000760 fe a1 e7 2f 52 66 d0 bf c4 31 c1 70 f1 56 c7 3f
       -0.2562451808758225 0.18234079366301448
000770 d1 3f fe d7 ef 4f d0 bf 90 be d4 34 4b de ab 3f
       -0.2548789605434623 0.05443034191045826
000780 69 8c 08 23 b1 ab c0 bf c8 73 3f a0 d6 05 c1 bf
       -0.13023962221732013 -0.13299067329981384
000790 33 db cd ab b2 9a c2 bf 60 df bd 6e 43 67 cb 3f
       -0.1453460062873205 0.21408884913739268
0007a0 f2 d6 4e 82 d0 b8 c3 bf ea 7e 94 13 43 82 d1 bf
       -0.15407759058660236 -0.27357556259265314
0007b0 dd 21 0c a8 f4 33 d3 3f 70 d8 f0 27 5f 65 d2 bf
       0.3000461236083803 -0.28743723774403573
0007c0 e0 f0 4e d9 43 3e d7 3f 12 4e 89 bc e2 70 9a bf
       0.3631753561164839 -0.025821249730439595
0007d0 d1 58 1d 62 16 a2 90 bf 0a fe e0 20 47 23 75 bf
       -0.016243314493601006 -0.005160596700136031
0007e0 74 e9 43 c4 98 50 d3 bf d9 37 d9 33 6c 27 cc 3f
       -0.3017942349103102 0.21995308429398966
0007f0 26 6f 72 95 6f 17 cc bf a5 2e fe f9 bd d1 d1 3f
       -0.2194652061197015 0.27842664159173075

linears.3.bias f8 [30]
000000 02 6e f8 8d ee dc a9 bf d7 8f b8 04 74 5f a6 3f
       -0.050513701277136405 0.04369700009945603
000010 ba 71 06 21 2f ba a6 bf 8b 6f ce a9 60 d6 ac 3f
       -0.044389221936600845 0.0563230712207022
000020 84 5f 42 63 b0 1e 67 3f 45 17 cd 4d cd 5e a7 bf
       0.0028222508499985994 -0.0456451566192713
000030 e4 4f 77 4c be ff b0 3f b0 4a 2f d9 3f 82 a8 3f
       0.06640233389708744 0.04786872411900356
000040 e3 ec 9e da 60 17 a7 3f b4 a3 b4 0a 4c 9f b0 3f
       0.045100237547979004 0.0649306799065375
000050 7f 04 a9 b3 eb 9a a3 3f 8d a5 0e 55 89 ab b1 bf
       0.038291326218776504 -0.06902368856994752
000060 b8 1a 2a d7 cc 70 aa bf 53 bd 79 33 25 1c a3 3f
       -0.05164184690970813 0.037324106725345495
000070 6b 2b 89 7a 6a 58 ab bf 01 5e 2c b0 93 b5 a6 bf
       -0.05340893502996987 -0.04435407186081975
000080 8f e2 22 4d e0 ed a3 3f eb 63 f4 7e b0 ab ac bf
       0.03892422620396473 -0.05599738645305038
000090 5d d1 57 c8 08 45 b1 bf 08 05 b9 5f db da b5 bf
       -0.06745962992846928 -0.08537074172001635
0000a0 3d 3d 7d b4 92 d6 a9 3f b3 41 66 d0 b6 6e ae bf
       0.05046518758046623 -0.059438431681999936
0000b0 18 3a 91 c7 8b 1a b1 bf a6 88 47 a3 17 19 b2 3f
       -0.06681131002662999 0.07069537864984685
0000c0 81 22 71 ad cf 4a aa bf d8 fb bd 20 35 b2 7a 3f
       -0.05135201446734517 0.006517608195166745
0000d0 08 e9 df 1e ad c6 a6 3f e6 9d 33 bc 01 2d a6 3f
       0.04448452951324283 0.04331212446578174
0000e0 cb 42 40 a5 37 1d a9 bf d2 b6 4d f2 c2 8b 91 bf
       -0.04905103580688815 -0.017134710349117573
