1D_supercritical_InverseProblem_C_initial_60/Models/Model.ckpt-6000.pt (torch, 82380 bytes, 43 tensors)

linears.0.weight f8 [30, 1]
00000000: 07f1 715b f70f d93f 5746 8346 f917 e33f
00000010: c53f 918f 923e 6cbf 5c08 54c9 67f4 d93f
00000020: 5e80 5c0c 9c48 bdbf 135b 0449 e116 d33f
00000030: 1fc7 7733 5285 e3bf d08a 105e 8586 e33f
00000040: 2a0d 0adc c21d 993f f906 69e3 63bd d73f
00000050: d3be 18af 951e d63f 5635 96f7 a508 e3bf
00000060: 2e4f 7c64 2e26 e43f 0cd6 3ed1 9149 d93f
00000070: b21b 53df b323 d3bf 4bc0 3a8f 521b 613f
00000080: c849 e3c1 749a a73f 8b8c e61f ce01 83bf
00000090: ff1c c7e4 0b54 d0bf 4d3b 0864 e63e dd3f
000000a0: e315 da31 c4e0 603f 61e1 0d7e 7090 d5bf
000000b0: 4003 bc72 e7f3 e13f 016e 1521 2273 d53f
000000c0: f498 1784 8c29 d73f cc0c 907b 9c74 bfbf
000000d0: 2155 b1da b7ac cbbf dad7 a9d0 48f3 acbf
000000e0: d4dc a3a1 8acd d43f 0a84 52ec 7606 d0bf
0.3915995018976592 0.5966764809802027 -0.003447805644590548 0.405542322740194 -0.11438918401518225 0.29827148562019196 -0.6100245480758736 0.6101710164260457
0.02452759235394556 0.37093445976289235 0.34561674212725996 -0.5948057017973649 0.6296607935532614 0.3951153319752343 -0.29905411538168913 0.002088223694805468
0.046100281398725296 -0.00928078684666491 -0.25512978879528697 0.45696410912289737 0.002060301964607035 -0.33694088277800033 0.5610234490305643 0.3351521800120452
0.3619109430277512 -0.12287309662501683 -0.21620844057421443 -0.056543612929928336 0.32504525933422923 -0.25039456442215224

linears.0.bias f8 [30]
00000000: 44d5 ee6b b06d b23f 4eac a296 9ad6 c93f
00000010: 7b0d 5780 5c75 ba3f b404 50ca 7546 c23f
00000020: 8633 4a28 72f3 a8bf fd68 f759 5e23 d63f
00000030: d3ea 2eae eda0 c7bf d376 2af6 2bed c83f
00000040: 11fc 2603 e3fa d0bf a1a6 de5c a32c dd3f
00000050: 3959 a16d 66ee c33f 4689 e7d3 b26e d1bf
00000060: f519 584b 777f c63f 95fc 42ba c07e c03f
00000070: d230 82e3 baeb cdbf 9d6f 5da5 0623 dcbf
00000080: 4d3d b6dc c6b0 933f df76 e6f8 845b 9f3f
00000090: 6254 40be 5b3e c1bf d6bb b1e7 0b8e a13f
000000a0: d677 3175 e4ab e0bf dc2e b035 006f c6bf
000000b0: cb12 4ae8 25d4 c33f dbcc c7f6 546a cb3f
000000c0: 545e cde5 5a7d d33f 9901 b084 60cb c9bf
000000d0: d3a9 30ba d5b4 c3bf 4fa0 8036 adda b6bf
000000e0: 738c 9a96 5867 c2bf bf80 6282 604c b7bf
0.07198622355538925 0.2018616900944345 0.10335329182912815 0.14277527216476005 -0.04873234502620165 0.3459087256029674 -0.18459864621202957 0.1947379066449942
-0.26531291301574905 0.45584949559506965 0.15571289399185576 -0.2723815030459672 0.1757649534121836 0.1288681897621912 -0.23375640972915918 -0.43963781498836757
0.019229037495788238 0.030622556392350894 -0.1347155264817586 0.03428685382174705 -0.5209829605989806 -0.17526247617239832 0.15491174547437078 0.21418249177768342
0.30452606622336487 -0.2015190742386153 -0.15395614234269192 -0.08927424030901075 -0.14377887109467088 -0.09100917037221999

linears.1.weight f8 [30, 30]
00000000: 4b22 adba 9fe3 c8bf 16cb 3fc5 eb2e b3bf
00000010: b4ba 6be8 a4b7 d1bf ef83 538b a52b c3bf
00000020: 739a 0520 b7ba c13f 1b8b 4869 e643 b5bf
00000030: 6b1d bf23 4bce c5bf 97bf 8d11 d66b a03f
00000040: 4e13 529d 4ad3 c13f c553 78d9 2a72 a7bf
00000050: 9522 e7bb 10ee d1bf aad5 c1a5 45f5 c13f
00000060: e3d2 e677 8597 c1bf 5a41 f12f 80cf acbf
00000070: a984 5bea 783b bbbf f88d c4ea 0c91 da3f
00000080: da55 7f0d fe87 b1bf 3e47 ca18 d065 bd3f
00000090: 82c7 04a5 b2ce bcbf 9f38 d59e e2a5 d2bf
000000a0: abf9 73ee d7ef d93f 152d c964 e027 d0bf
000000b0: 1ae1 9698 5152 d3bf 4439 fb21 1a22 bf3f
000000c0: a9b5 9b13 b674 c13f 1f00 6298 cdc8 a43f
000000d0: 4061 f3ea 114e c1bf 8c18 5adc 4620 d2bf
000000e0: fca5 a177 c604 b6bf 4f9b dab4 39cc a83f
000000f0: da23 d412 a8e5 ca3f 1167 79b9 ceaa b1bf
00000100: 9f02 4eae 14e3 b43f 1fcc 0b81 498a d53f
00000110: 39c7 79dc 656b c0bf 09e5 940c 6cbd ae3f
00000120: 0b6a 509a a0d8 c4bf c059 12b3 5d1e b6bf
00000130: 6e5c ad52 89c2 c7bf 720a 589f b2e8 95bf
00000140: c8e9 f419 d267 be3f 247e 93eb 3dde ca3f
00000150: 5e6f 57e5 2dcf c43f 4a08 7a2b c21f c33f
00000160: 7ee8 5034 2cb1 ccbf 1e7d 38c9 139a c4bf
00000170: da35 ff38 ad92 ca3f 9ab1 f52a 5925 ac3f
00000180: 13a7 2713 5148 d3bf 7559 04fd 6eff c7bf
00000190: 0bae 7975 f039 8fbf 4ca2 d151 aa63 913f
000001a0: bb38 5f2e 2dc2 d43f aab8 c681 8d81 b63f
000001b0: 85a2 7726 c17f cd3f b0f1 f5e4 d9d0 b6bf
000001c0: 3dca 53f6 398e cd3f 59ba a288 84b8 c7bf
000001d0: dc44 f712 40d5 c73f f55e f82a 978d b43f
000001e0: bc28 f44c 1fb9 b4bf 7cbd f926 3161 d4bf
000001f0: 808f 8891 e6a8 c83f 7dba a1ff 42ba 9cbf
00000200: ef8b ca34 5b47 d03f d020 d4e6 cf13 a5bf
00000210: 95bd fed5 8c0a d73f 94cb 6ac9 98b2 b03f
00000220: a30a b99a 0e9a cd3f 6978 9f0b 4136 aa3f
00000230: e08a e73a 3593 ae3f a848 c33d 2aa7 d53f
00000240: 03a2 0171 fa5c a3bf 61d0 012c 916a d5bf
00000250: a6ad 7f0a 8654 bc3f cca3 640e 9b11 b83f
00000260: 1f27 4c74 a6be c0bf 87e2 82af 8bcc a13f
00000270: 2592 c783 0d79 b6bf b45d d3fc ecbd ccbf
00000280: 25e7 c26b 8693 a93f 3c01 a1d6 2fea d73f
00000290: 6c09 e0ca 9feb bbbf 104f 5662 8ef9 cdbf
000002a0: c12e 7bd9 c367 b1bf d885 459c b966 af3f
000002b0: 4f68 a606 8f27 cc3f b043 9a21 5d9d a43f
000002c0: a079 1d2a 1390 b9bf 7bac aefa b832 d23f
000002d0: d73b ef0c 46e8 c8bf 2627 6c31 da6a cfbf
000002e0: c416 df4e c57d 8abf e64f 608a d32b cb3f
000002f0: 5c2c 625f b110 bbbf 6bfc fb3a 8707 d1bf
00000300: aa6f b40d b199 d03f 579d 8ecc 7063 c7bf
00000310: 52a6 8d74 1a1c d43f bb15 6bba 625a ac3f
00000320: 878b 9e8a 7fc2 b1bf 051e 9e9d 289b c63f
00000330: be39 4fe0 381d cfbf 0a7e d70f 1100 d33f
00000340: 38da 5a30 6d07 c03f a8e8 87e5 0c47 dd3f
00000350: 62e6 38c3 232e c23f 9029 0e18 6856 d1bf
00000360: 816b 45a7 0d40 bfbf 842f af6e 3889 d03f
00000370: 5938 5dec 650a db3f 5d60 ca8c a10f d13f
00000380: 90da 7cbb 409e 853f cab0 bfdf 16b6 903f
00000390: cb46 08fa dd4c 66bf 17a3 3f62 cd20 c23f
000003a0: c13d 99e4 f0d5 c83f 4b0c cce6 675e d4bf
000003b0: e26b 7589 4cf1 cabf b00d 3f7d cdad b63f
000003c0: 2754 5102 47f0 993f 2865 6ef0 21a0 ac3f
000003d0: 6594 abde c36b bcbf 44ce 22f7 df94 c83f
000003e0: fb14 5411 0f08 c1bf 2204 def0 0094 c9bf
000003f0: 9715 5913 c90a d3bf 2e73 4b1a 784e c13f
00000400: 19ad ba9f ce01 cd3f 2ffd 87fc 90b4 abbf
00000410: db54 39c6 5227 bd3f 4398 bc87 25a3 b8bf
00000420: 03ef 0a34 c0fb 81bf 0d58 ee3e ddc5 9a3f
00000430: d8cb f691 7678 b9bf 76d8 2fc5 90da d1bf
00000440: c750 c18b 6765 d13f 71c4 12a0 abbb d2bf
00000450: 6488 e532 96bf c5bf 3620 334f 388b b0bf
00000460: d502 5a36 5e2a d0bf 20bc 4cd3 a578 c0bf
00000470: 8a14 3ffe f94e d33f 4be6 6913 8fcf b7bf
00000480: 9354 691f 535c c0bf f858 e0b8 4608 bc3f
00000490: d2d1 ef29 ff2c d2bf a6cf 2531 84e8 cdbf
000004a0: c5da 44ae a204 cbbf 0a56 03f9 fd69 cd3f
000004b0: f3fc 4488 ae66 a53f 0c4f 3a72 4e13 bbbf
000004c0: 5cc4 d04f 22ea c0bf b3e1 1db9 9f2a c5bf
000004d0: 893e 1e0d b694 a63f a9c3 990f 6153 c43f
000004e0: 2540 540a 0ca3 a6bf 20aa 164d a4bc d23f
000004f0: 925c 7439 9f3e c4bf 2b68 14f9 95a8 d13f
00000500: 3bf8 f75a 4cca cfbf 89bd 5dae 1327 c5bf
00000510: 0489 f499 bb29 b4bf ea08 a094 6dd9 afbf
00000520: c3a7 58c5 8b16 b4bf 9897 e457 e1ad e0bf
00000530: af15 c912 dcc6 b8bf 1891 c038 e848 cebf
00000540: bd0e 94c9 b7e2 a5bf 1065 f7c2 8c8b d2bf
00000550: bb8f 4ebc cfae debf 39b7 6115 449f c53f
00000560: bc3e 71e7 f150 cf3f 7237 e8f6 02a0 a13f
00000570: bc39 3311 f91b cb3f 65c8 e3c6 d216 a03f
00000580: 2f19 7196 f56b 65bf 9d5c 0ba9 9bf3 a43f
00000590: f742 71af 9eb4 cc3f bdeb a1fe f4da a5bf
000005a0: 1656 1dec 7af1 aabf 67c9 d695 4c4f d43f
000005b0: 95f0 6be8 cab4 d43f 1715 9e67 d2f5 67bf
000005c0: 5e30 3bb8 23f8 b83f 30e9 b894 b9b2 be3f
000005d0: 2357 1652 534d d1bf 90b2 3f23 c1cc ce3f
000005e0: 99ce 5a07 ba92 c4bf e80a f816 c17e a4bf
000005f0: ddb1 a540 71ec c53f ad95 b009 6367 ac3f
00000600: 8723 6372 4eb0 c7bf 5404 5d6f 5b4c c83f
00000610: 1927 48d6 3c74 d1bf 1812 3fae 4262 e2bf
00000620: 0816 baa4 f56a c8bf b225 578d a83c babf
00000630: 60b8 7722 1863 c43f de3e a192 02db bebf
00000640: a2d5 ab3d 3ee7 ddbf 6289 3d45 5a93 c43f
00000650: abd1 f8e4 12a6 c33f 22dc e69b 172e 9cbf
00000660: 66b1 0fa8 e3fa c1bf 1248 25a4 9dc8 a3bf
00000670: 9577 18f1 5f7f d23f 9b21 4a55 c212 b3bf
00000680: 7b16 a821 8a61 d03f a496 8dc2 6791 bf3f
00000690: 1182 495f 4ae5 8fbf 260c 57a9 0d7c 863f
000006a0: b372 3bdf 29d7 cabf b0d1 39ff fc6c c23f
000006b0: 43e2 6aed 293c d23f 87e4 d0b8 b33c 99bf
000006c0: 7958 9697 437c d0bf 6327 514f 9e13 bd3f
000006d0: 9ab7 0ff8 b449 863f 44d5 cbfb 5039 d53f
000006e0: ccca 7f7a fc48 ba3f 4801 a622 3624 d0bf
000006f0: ca33 f809 abdb b4bf 984f 4cfa f5a4 b6bf
00000700: adfb fee6 15a8 cc3f 40a4 6c90 7374 c8bf
00000710: 8bc0 6975 804f ab3f 901b d09b b6c3 b13f
00000720: e3fd 0ba7 606a d23f ff2a c94e 5777 d2bf
00000730: 20a9 580d e2c5 d73f afbb 61d5 a5ce d1bf
00000740: 63f6 9b5e 20c7 813f 246b 1836 5111 ab3f
00000750: e040 25a8 3064 c1bf 4eb1 3217 47b3 afbf
00000760: 4643 5870 79ab b03f adee d9ee 79cd d3bf
00000770: 9ca6 d46b 1fda 95bf e0cc 9e30 a89f c73f
00000780: 95a3 7b45 dea5 afbf 65c0 b501 6337 a23f
00000790: 5efc 4e23 08d0 cd3f 0653 4117 5fd1 bbbf
000007a0: 5ba4 9206 0aa0 b9bf 2135 8efd ccfd c5bf
000007b0: 21bc 0de9 cda4 d93f 56f2 6f9b 4a49 d5bf
000007c0: 27fc 0392 ade7 d1bf da17 d02b 9940 d4bf
000007d0: 21b7 2aa3 5f11 c83f 0680 fbd9 36ae c3bf
000007e0: 6986 c2d1 d263 b93f 2c3a e3da 0684 d5bf
000007f0: 72c7 e088 6d14 c03f a9d3 5f6b 6803 c5bf
-0.19444653143934185 -0.07493470731405369 -0.2768337506994769 -0.14976949027098338 0.13851059974259136 -0.08306732244868124 -0.17035807843624737 0.032072724955354896
0.13926060372991816 -0.045792902990946106 -0.2801553568829516 0.14029760926829954 -0.13743656496594445 -0.0562706049464647 -0.10637622567766648 0.415103177323743
-0.06848132924581965 0.11483479123333226 -0.112528958595048 -0.29137483130478786 0.40526388441494515 -0.2524338707196006 -0.3018993368273343 0.12161410646078702
0.13637424428399683 0.04059450612203385 -0.13519500705911902 -0.28322001951927045 -0.08601036472978046 0.04843311627091983 0.2101335613190532 -0.06901256588153283
0.0815899777935649 0.33656537630230504 -0.12827752366461612 0.06003892568191744 -0.162860942219439 -0.08640084859721409 -0.18562428032848594 -0.02139548394735375
0.11877167829235369 0.20990728380910284 0.16257260988538297 0.1494066917694588 -0.22415688089842328 -0.16095206570842263 0.2076012161545993 0.054972445005520856
-0.3012888609942916 -0.18748271326394286 -0.015247229180395136 0.01698175548918561 0.3243515923358122 0.08791431825986487 0.23046125772750173 -0.08912431564198786
0.23090290572834418 -0.18531853362715614 0.18619538236683908 0.08028549956395266 -0.08094974163774088 -0.31843212896543327 0.19265443903088553 -0.028054282047771373
0.2543552413500824 -0.04116677944881675 0.36001892946202335 0.06522517125521993 0.23126394800973057 0.05119517580872996 0.05971685737656229 0.3383279421951877
-0.03781874303314583 -0.33462933824126223 0.11066472774807909 0.09401864148516309 -0.13081818274104592 0.03476368443938776 -0.08778461901926755 -0.22454607338907595
0.04995365205236472 0.37366863212448087 -0.10906408980375709 -0.23417835046404223 -0.06798957881545233 0.06133060486423475 0.21995723557194188 0.040263090469245255
-0.09985465791894521 0.28434586029715775 -0.19458842879836766 -0.24544837392050417 -0.012935201138940207 0.21227497345591856 -0.10572346285532447 -0.2660844875353578
0.2593805917583675 -0.18272218692912176 0.31421529180679386 0.05537708783735292 -0.06937405714283616 0.17661006637739277 -0.24307928993807865 0.2968790678696399
0.1252266393764374 0.4574615708840022 0.14203307182633568 -0.2708988413729907 -0.12207112630623664 0.2583752709294844 0.42250965197024964 0.2665790438563869
0.010555749627753103 0.01631961575178379 -0.0027221999628260544 0.14162604615491922 0.19402896081963486 -0.318262076747662 -0.21048886024331553 0.0885895186211687
0.025330647961102095 0.05590921459151793 -0.11101936517987239 0.19204330031571903 -0.13305843683352933 -0.19982921372505397 -0.29753329171611526 0.13520718845293217
0.2266176490714791 -0.054111986948550565 0.11388127650691919 -0.09623941959270703 -0.008780957782952742 0.02614541718102008 -0.09949437202048672 -0.2789651799824989
0.27181423805201316 -0.2927044928756635 -0.16990926251588967 -0.06462432797991444 -0.2525859385278129 -0.1286818773018874 0.3016953451991148 -0.09301084732023772
-0.12781752618562744 0.1095012856825156 -0.2839963826693551 -0.23365833663740182 -0.21107896336771695 0.2297971216091102 0.041799024710138875 -0.10576334275020488
-0.13214520356408144 -0.1653632787599811 0.04410332594045225 0.15879452955007636 -0.04421270013892834 0.29276378181626406 -0.15816107087514247 0.2759146625918471
-0.24836115304782588 -0.1652550317189532 -0.07876179226562746 -0.06220571936866455 -0.07846902435326712 -0.5212256161364506 -0.09678435763006264 -0.2365999486074848
-0.042745345455867924 -0.28976744689642064 -0.47941964520782293 0.16892291111019533 0.24465774346253066 0.03442391647341382 0.21179116573189372 0.03142412832120626
-0.002614955581097387 0.04092108191041997 0.22426208082699592 -0.04268613441759992 -0.05262359745271909 0.3173400367042149 0.32353470513749844 -0.00292483420065771
0.0975363087447376 0.11991462593951918 -0.27034457222304037 0.24062360974439345 -0.16072774275891247 -0.04002955823309212 0.17127814919093867 0.05547627919467444
-0.1850679453403041 0.18983023584044878 -0.27271958280526715 -0.574494686436597 -0.19076414626412963 -0.10248807383245298 0.1592741173075778 -0.12052932815390302
-0.46723896048146163 0.1607468450629979 0.15350567035933457 -0.027519577875605113 -0.14046903329961963 -0.03863995197993132 0.289024339146516 -0.07450499136223813
0.2559533432653109 0.12331245899039317 -0.015574055703099028 0.010978800516460007 -0.209691270828349 0.14395105802726738 0.2849221056490345 -0.024645622401497504
-0.25758447459646266 0.11358060299349186 0.01088277227423955 0.33162331189608474 0.10267618170454823 -0.2522101724971617 -0.08147686952015856 -0.08845460282128526
0.22387956408598822 -0.19105381538364163 0.053340925533917526 0.06939259819055921 0.2877427703205894 -0.2885339993851374 0.37145282080986597 -0.27823777998031124
0.00868058479999973 0.05286649499267629 -0.13587005815725828 -0.061914655286588 0.06511649124901195 -0.30941627812692724 -0.021339884716474175 0.18455984472311737
-0.06181234930210803 0.035578817328201486 0.2329111263661358 -0.10866350476983308 -0.10009825382680175 -0.17180788403167305 0.4006838584818429 -0.33259835414336203
-0.2797655034955277 -0.3164427688465118 0.18803019969112092 -0.1537540974013611 0.09917943593111435 -0.33618327499144374 0.12562340911386688 -0.16416650050055395

linears.1.bias f8 [30]
00000000: 6645 674a 5cf5 77bf 7209 861a a7d5 b03f
00000010: 0356 c34a f3a7 b7bf 50d0 3588 2c71 533f
00000020: 838a 558c ebac a53f 3a5c 9edd e912 9e3f
00000030: aadd da22 5515 983f 020c 443d 4778 9b3f
00000040: dced f9db c4ef bcbf 42ea b206 2d5f a73f
00000050: f3f3 e232 c6ba a33f 76ec 26e6 59bb 80bf
00000060: cb0d af93 7fe3 803f 76ac e094 3f84 b13f
00000070: 3ed2 607b 9737 903f 9276 d04f a577 bebf
00000080: 9f22 d860 b86d b8bf 7f7a 9cfc 73ba babf
00000090: 5396 9477 3ece 87bf 68da 6136 785b a63f
000000a0: 1928 e4b1 383d a83f 2757 640f 3991 a43f
000000b0: 4fa0 78c7 ba8e 95bf 1414 c0a2 c1b5 adbf
000000c0: ee06 f063 5ace 7c3f 3ef0 b94f e79b a9bf
000000d0: feac 2d3c 08f3 b43f 9b0e a276 c55c 963f
000000e0: 705f 4d30 9375 863f aa34 9946 a219 9b3f
-0.005849228391938998 0.06576008222149257 -0.09240646910924259 0.0011866507419116164 0.042334900742180735 0.029369024421239433 0.02351887727010441 0.026826012720459154
-0.11303358431353366 0.04564800936482928 0.0385343491666176 -0.008169843994315178 0.008246418661548646 0.06842419991214563 0.015837065606506544 -0.11901314924804243
-0.09542419781076682 -0.10440754811541274 -0.011623847984604618 0.04366660751195611 0.04734208270572555 0.040170462731266725 -0.02105228273845255 -0.05802731620500637
0.007032731139590116 -0.05001757477018075 0.08183337659072618 0.021838269582544183 0.010966443931166941 0.02646497302912524

linears.2.weight f8 [30, 30]
00000000: 6ac7 4fe1 370a 803f 8e41 53fb 77ca b8bf
00000010: a6a1 c51b a48f cabf d34e e720 65e3 aa3f
00000020: 7d10 2cb1 95e7 d0bf e325 c311 b27f d13f
00000030: c492 2995 4bfd db3f bbde b760 904a d8bf
00000040: 1c4d 7801 aa6b 993f e37d 1048 5a54 d53f
00000050: a544 cdeb cf83 b83f 258d 5b1a f5db d6bf
00000060: 879d fba8 c9cd ac3f e5ff 3c39 a671 d6bf
00000070: 2b3d c985 8da6 c23f 584d c239 9f84 a0bf
00000080: df60 ae82 33e6 c1bf a3c1 336c 810f d0bf
00000090: bcba b537 ccb6 c83f dd92 b72f 4b55 ce3f
000000a0: 8aa2 f560 1186 d4bf 940d 7473 2537 babf
000000b0: 1a9b 84fb fe72 c6bf 0c53 5155 ebd6 ab3f
000000c0: c20f b1e8 0132 c73f 6439 fb19 a8a4 b7bf
000000d0: 48a9 9c54 1dc4 ce3f 849e 0a78 dbd7 a9bf
000000e0: e776 9490 a4b4 c63f d01e 4f41 b575 c7bf
000000f0: c61f 2886 72c0 c2bf f039 0ec6 d9dc d33f
00000100: faa1 dc7a 2c28 b23f 9d67 3e57 8599 ca3f
00000110: c996 6054 2a2b d0bf 68e3 6bc7 1c38 d53f
00000120: 815a 772c 7053 b63f 9624 58ea 46e4 983f
00000130: 29da 501b 7aa0 d2bf 7dea 7c74 a75b ca3f
00000140: 5ea4 3763 829a bd3f cc91 660b 41ef 8d3f
00000150: bb9a f2ee a5d6 b03f dce3 abf3 8858 ccbf
00000160: 136b 3359 106e d23f 6b00 febb 2f67 b23f
00000170: 34df 89a9 2268 afbf 4f1c 856a 7c4c cebf
00000180: 31cd a8aa 0b9f bd3f f1d1 f009 e2f3 c9bf
00000190: 7887 0c3a 5126 d53f 2f10 0e29 18d4 cd3f
000001a0: 1caf 471c 8200 d7bf 0691 de95 9878 ca3f
000001b0: 3dff e427 01fc d03f 766c d6f2 7219 b1bf
000001c0: e495 3d95 d757 a7bf 08af f6f3 a656 c83f
000001d0: d3a2 03ae 429c d03f 979d bfae 04b8 d53f
000001e0: aff3 8f66 88fe c2bf 2b22 6846 c236 cd3f
000001f0: dc7d b1fb 42f9 cabf 6c14 f31b 1a58 d8bf
00000200: de7d a86a f7d8 c93f a42a 2e37 8915 dd3f
00000210: 4a89 b118 ba45 c0bf ea8f dce8 2f80 c43f
00000220: 36df 00c7 dbd2 c5bf 104b 7c76 bc33 c73f
00000230: 940e f9a2 1d79 d83f f695 cb3f 0463 d4bf
00000240: d319 ad13 6137 a33f 828c 7e63 77bd c6bf
00000250: ce23 e2d7 64a6 c13f d3d8 a4b3 27fa ccbf
00000260: 67dc 1dfd c73e d0bf 43b8 5948 0da2 b1bf
00000270: 9e9e 4456 48c5 c3bf 859c fe6f 005d cebf
00000280: f249 8eea c2ca d53f 0e6b f931 3c43 af3f
00000290: d713 e099 c4ba c83f 21ba 80db 8a34 bb3f
000002a0: 97b1 3389 4bae b83f 31e5 30e1 aba0 c23f
000002b0: 0dc5 3f1d e7b4 bf3f 90c3 bff7 7842 c73f
000002c0: 0a77 f5ef 74cb 733f 64bc 63c6 d473 cebf
000002d0: d661 7c6a cec1 b33f 2b9a 8ed9 6a73 bf3f
000002e0: 9e2a efa8 0c9a d6bf 3b2a 6dfa c3cf ccbf
000002f0: 61c7 621a 288a c23f 850e 661f 1ebd c53f
00000300: b680 80b5 f892 c4bf 8cd6 983e e380 d23f
00000310: 325a ef24 e1fd d1bf 610e ae00 ac1f d1bf
00000320: 8933 367f 05f7 adbf f1f3 59a8 1106 b83f
00000330: 6aa6 644e b867 bf3f 8a9f 07b0 a2ea ad3f
00000340: 4aed b45e 1ee2 bb3f f6c7 720e 25c7 c1bf
00000350: 7d59 d1df 27bc cbbf 7263 d0c5 3bd7 b03f
00000360: 12d6 3e17 c6c9 d33f cf4b b920 bc80 d3bf
00000370: f865 d616 af3f bd3f d643 df13 27d9 a4bf
00000380: 0e2a 7463 1288 d6bf 0c28 a233 ab2d b33f
00000390: 400b a863 5a85 bd3f 445a 8c98 d6c4 c0bf
000003a0: 4205 88b1 9382 abbf c2a0 9be2 7125 d13f
000003b0: d4b7 73d6 85bd d1bf 4f5f 8116 5c00 d13f
000003c0: d244 94bd e274 c43f e04b e1e8 3e59 c13f
000003d0: 1b21 269c 2e37 8b3f 6f14 c2c1 8a04 c23f
000003e0: cdfb db0a 7816 b73f 15c7 3ad0 5b5a dabf
000003f0: b684 e734 07b6 e3bf ed59 48a1 11e3 a03f
00000400: a5ea ed24 ca47 60bf 8930 939a 8d61 d1bf
00000410: 7689 02a8 9391 ca3f 2a80 05dd 1d4d dc3f
00000420: f602 fba3 21d3 b7bf 4747 0c22 e0ed d83f
00000430: 4810 2b9e a87f cebf b876 00f7 2b87 b23f
00000440: 2ba7 d249 9e88 c7bf 0c59 4a96 5a9e a8bf
00000450: e4f7 182b ed54 bdbf 5061 bca9 b95e dcbf
00000460: 113b 05df 3559 c93f 3a76 fe89 f3a8 c03f
00000470: 2bb6 a3df 868a a93f 327c 939f 57a7 a53f
00000480: 4421 091a 94ce d2bf c720 93ae 5ae2 7ebf
00000490: 8c22 64f9 8b66 b93f ee85 0f6c 0339 dabf
000004a0: 2180 d694 78a4 d7bf ed3e 8620 d833 d13f
000004b0: 0d7e e7a9 9daa c13f 86e1 2a81 d752 c1bf
000004c0: cd54 5a76 2fc9 c7bf 8da6 7fbc 1197 d83f
000004d0: e8a4 9ad9 aaa7 cfbf 7e3e 216a 9c08 d2bf
000004e0: 0db3 89a3 1c72 d4bf 60c6 ed22 29f3 6ebf
000004f0: 6b86 2a80 8dc6 d33f 301e cb3a 4bd9 c83f
00000500: 8575 9270 1f68 b63f d28e c0ee 3ab3 d13f
00000510: 67d1 ec9a d1c8 c8bf 3e7a 710e b913 ba3f
00000520: c6ff 77b1 47da cebf ff44 ce18 34c6 b73f
00000530: fc11 17c9 b52d b73f dcb9 8fef 2d1f 78bf
00000540: 94e5 055b d144 c53f 36ce 481a bf45 d1bf
00000550: ca51 56dc 494f 9a3f c665 c92d 1e3c c73f
00000560: 388e 0f60 d999 903f ab9c a7b1 7f69 b9bf
00000570: e444 c810 2a6f cdbf 5274 53ec defa c0bf
00000580: 2926 8345 18cb a7bf 15b7 b9d4 fb08 d2bf
00000590: 2456 9cc7 85b2 dabf 070a 937c c8f9 b1bf
000005a0: 320e 41b2 4076 d03f 50fd 8e48 f607 d6bf
000005b0: b6fa e87f 11aa d43f b6db adb1 f17f cabf
000005c0: 5ac3 b1fc 5a4e cebf e5c2 e172 babd c3bf
000005d0: aa70 0681 8545 cd3f 1807 6bb8 e0a5 cdbf
000005e0: 4e1a ee74 a2b0 d03f 1a1e ba2a ab16 b7bf
000005f0: 2803 b394 2811 a93f 959d 81c4 8474 ccbf
00000600: d420 7dbb de58 c03f 951a 7fe4 c66d c13f
00000610: 220b ea2a c685 d0bf 2230 b171 c718 d13f
00000620: b66d 5457 8adc b6bf c936 646a 3ab3 b33f
00000630: 9007 a295 9721 d6bf 7177 c249 a7b9 b13f
00000640: 4a20 746b 9bc4 b8bf 136f 3f5a 0c68 823f
00000650: 0d46 99e9 4992 c9bf fde7 3e07 cb62 bdbf
00000660: 1e88 b4ba 6862 d0bf 0e7a 64b8 28e4 d23f
00000670: 2bd5 cc36 6488 c1bf 029e 48e2 9c3c c2bf
00000680: 2b1b d2b1 fa05 b03f 1f83 9a6d 4ab5 bf3f
00000690: db09 c2f5 76b5 cebf 2976 14a6 1b2c c43f
000006a0: 6ea3 41ca f178 d13f 6cb1 f391 52eb c1bf
000006b0: feb1 e6d1 30fc b8bf e2e2 c21d 6613 a23f
000006c0: 5eda 653f 9fcf c2bf b991 7ce0 32e9 c9bf
000006d0: 557b 276a 4a6b c6bf b0f2 bfd7 86ee ab3f
000006e0: aaba 11f6 0c96 c03f 8ba8 0fbe 2057 d03f
000006f0: bbf6 e96d 2f8f c63f 6df8 7c0a 28c0 d2bf
00000700: 5aae cb70 ca89 c63f ad4d 400d 9e57 d63f
00000710: 6aa5 904c 3494 d03f e989 9942 6d10 cb3f
00000720: 01dd bd82 d5e3 b4bf 43ef 6ddd a33b aabf
00000730: 0a3d 74cd faac d0bf 871c 64b1 0742 d13f
00000740: 5c76 7fef f9cc d03f 897c 9ddc 5899 b13f
00000750: 4b6c d058 5eb0 cc3f 4901 31fb 891a d23f
00000760: a520 2be3 9c87 d3bf d304 b0d2 4d86 bcbf
00000770: 6c53 c4f6 0cb4 cdbf d83f aba3 4404 cb3f
00000780: 99ac 4633 ec57 de3f 1413 5260 e9bb d2bf
00000790: 1731 ce31 802e cf3f d7d5 d325 1364 86bf
000007a0: 5275 5cb4 c75f c7bf fcb4 8457 9332 e9bf
000007b0: 6a8d 9592 239c c53f 7248 dea4 e297 d83f
000007c0: 1fc7 aa7b 3cd1 b63f d3e4 5f97 920e c0bf
000007d0: 20ee ea6a caec d1bf 3e5e 83f4 eaef d73f
000007e0: 07c0 fcc8 586a 9bbf a2b5 ed6c dee3 9dbf
000007f0: fd45 1d89 a8ef 96bf 5865 e62d 9373 b5bf
0.007831989825692626 -0.09683942685956579 -0.20750857692770558 0.052516136423631864 -0.2641348104664372 0.2734189198932581 0.43733491484298903 -0.3795510239137731
0.024824768390385818 0.33327347791234113 0.09576129443054755 -0.3571751363180787 0.056257535817901654 -0.3506866034476828 0.14570778877757937 -0.032261825371416364
-0.1398376834956769 -0.2509463841115808 0.19307854385575307 0.2369779570573404 -0.3206828543539265 -0.10240396565136783 -0.17538440018798768 0.05437407890773302
0.1812136064710313 -0.09235621103582542 0.24035994178241027 -0.05047498550748933 0.17738778171126698 -0.18327966393393647 -0.14649802733060663 0.31035465566028986
0.07092550277287293 0.2078100849146808 -0.2526346038815573 0.33154983019590256 0.08721066556550207 0.0243083076984801 -0.29104473750649845 0.20592206180466013
0.11563887522028568 0.014616497192783927 0.06577527126010356 -0.22145187280673795 0.2879677649595333 0.07188700046208545 -0.061341365047097446 -0.2367091674916275
0.11570809284676355 -0.20275521741281424 0.3304637019046974 0.23303510670314284 -0.35940602075310024 0.20680529897538963 0.26538113494824583 -0.06679457119609986
-0.045592057197420904 0.1901444140652233 0.2595373820645765 0.33935658517153783 -0.14839272506642717 0.22823360860663064 -0.21073186197007387 -0.3803773186630852
0.20193379123610006 0.4544394530172815 -0.12712789731728896 0.16016196127122778 -0.1704973909088438 0.1812663630049305 0.3823923198253649 -0.3185434935570294
0.037531884815098636 -0.17765705450174002 0.13789043942622786 -0.2263841273467678 -0.2538318607179861 -0.06887896553391308 -0.1544580861311617 -0.23721318691716334
0.340500573213972 0.06105983839071004 0.1931997062057735 0.10627048357921655 0.09640953159004649 0.14552830215124282 0.12385410751428001 0.1817160806381506
0.0048327033867658995 -0.2379098862361132 0.07717599963905938 0.12285487948847933 -0.3531524324177243 -0.22509050109722914 0.14484120643970314 0.16983391316545152
-0.1607352148284968 0.28911667931547735 -0.2811205731099192 -0.2675580984725681 -0.05852524927022446 0.093842605210696 0.12267639078040707 0.05843075178910258
0.10891904651810083 -0.138889915518632 -0.2166795580730642 0.06578420237964425 0.30919029493392813 -0.30473235316929687 0.11425298984104149 -0.040719243217274645
-0.3520551654079619 0.07491559992391233 0.11531605656641108 -0.13100702713627943 -0.053730597897820434 0.26791045312576156 -0.2771925539262814 0.26564695546902767
0.1598170686416212 0.13553606387230754 0.013288845196044499 0.1407636114201156 0.0901865984451284 -0.41176505408212566 -0.6159702332771733 0.032982397973842704
-0.0019873569612490366 -0.2715791711350524 0.20756765082939993 0.44220682701234415 -0.09306535962515369 0.38951876950260494 -0.23827083323533516 0.0723750570327536
-0.18385676006919857 -0.04808314404106015 -0.114577124616488 -0.4432815702034718 0.1980349863974529 0.13015598524082056 0.04988500099157663 0.042292345265871126
-0.2938585523848085 -0.007540086962031184 0.09922098959590125 -0.4097298198012983 -0.3694135144705815 0.2687893216725417 0.13801928325754922 -0.13534063155180948
-0.18582719115207738 0.3842205372626289 -0.24730430245589408 -0.2817755733894741 -0.31946483583924207 -0.003778057427035006 0.3089936973211482 0.19413128252766532
0.08752628801672387 0.2765643436016322 -0.19362850250912375 0.10186344721430715 -0.24103637853113308 0.0928680954514398 0.09054123076845849 -0.005889110027949642
0.16616265243991946 -0.26988198820911025 0.025693086694063706 0.18152215228728447 0.01621188782509206 -0.09926603400491511 -0.2299549657769041 -0.1326559690413967
-0.04647136543787795 -0.28179832242936814 -0.4171461533854617 -0.07021763841024874 0.25721757323865113 -0.34423596463962713 0.3228801488038856 -0.2070295445989509
-0.23676621759980315 -0.15422754868952562 0.22868412780815578 -0.2316246891478435 0.2607809202094459 -0.09018964570179158 0.04895903411079977 -0.22230586619410234
0.12771209864354793 0.1361626258569301 -0.2581649226269055 0.2671373949312984 -0.08930267936778233 0.0769535550827768 -0.345800300718218 0.06923909712574329
-0.09674998639468516 0.008987518791336002 -0.19977687746227027 -0.11478871275804177 -0.25600641472749597 0.2951757240970502 -0.13697483707225308 -0.1424747567082108
0.06259123650862068 0.12386002708309406 -0.23991286277676135 0.15759606942531093 0.27300686599351465 -0.1399939739852799 -0.09759812473811988 0.03530425179764564
-0.1469611224708442 -0.202429160702321 -0.17514925177871513 0.05455418952621949 0.12957918181515043 0.25531786499653525 0.17624466769114186 -0.2929782965110295
0.17608004100417213 0.349097741070376 0.2590456721978486 0.2114388060754913 -0.081601471347188 -0.051236267833671544 -0.26055784286377615 0.2696551544508527
0.2625107611509969 0.06874614130127744 0.22413234078053032 0.28286981134808237 -0.3051521509592113 -0.11142431634654608 -0.23205720948376596 0.2110677527584801
0.47411637313298055 -0.2927192154532332 0.2436065905752762 -0.010933065025237205 -0.18261047655770796 -0.7874237737029541 0.16882748277121645 0.38427034473819
0.08913019198623971 -0.12544472113930868 -0.2800775570028424 0.37401842001188246 -0.026772868411342212 -0.02918956317755817 -0.022398599022670485 -0.08379478331189227

linears.2.bias f8 [30]
00000000: c4ed 1cd2 2100 a5bf ba19 1909 031b 9d3f
00000010: 40f7 7d06 b915 9f3f 80ad 667d 56ba ae3f
00000020: e296 c29f 914d b23f 58f4 3583 4510 6cbf
00000030: ba61 d5ee 0921 adbf 138a 9a2c 03f4 a8bf
00000040: cf41 0e9c c49f 8abf 6b06 48c7 95f9 9abf
00000050: 980f ed2f 1f60 9a3f 1b40 39d1 e448 a7bf
00000060: 610f af10 227f a7bf 4dca df27 6628 9bbf
00000070: 627a 2190 3945 ad3f 496b 583f 6eee 9d3f
00000080: e1dc 880f c61d a3bf d7fd bafa 7291 abbf
00000090: 02e2 93b9 9f70 a8bf b1f4 7e5c 366c a4bf
000000a0: f0b6 95cb c5be a93f e1ce 8787 9c64 b1bf
000000b0: 897f fd41 15a1 a4bf a404 16b7 41fb a33f
000000c0: 1ed2 c40f a61c 8d3f a2a6 b338 3b42 b5bf
000000d0: 2152 9529 5e05 ac3f 2a16 8d4f ef98 8ebf
000000e0: 317b 642d 9165 aabf 4b82 e3da 9688 acbf
-0.04101663293701166 0.028423354559231596 0.030356303235286264 0.0600153949811455 0.07149610662835529 -0.0034257276217304726 -0.05689269104431412 -0.048736666865142685
-0.013000045788232576 -0.026342716491859635 0.025757300663158483 -0.04547801069259113 -0.045891823326683186 -0.026521297630049557 0.05716876873406275 0.029229853264136883
-0.03733653010970684 -0.05384406386064782 -0.04773425236084351 -0.03988809470272637 0.050283604718840524 -0.06794145878648862 -0.04029146605057494 0.03902631149231553
0.014214799267031227 -0.08304185995407434 0.054728453231892134 -0.014940137496192458 -0.051556145468785515 -0.05572959348660741

linears.3.weight f8 [30, 30]
00000000: 7787 7950 f273 d3bf f5b6 69af 202d c43f
00000010: 50ab 3bd0 b272 8e3f 08b2 042b 07a6 a13f
00000020: d7e8 9a8b 6353 a23f 4a59 8720 e316 92bf
00000030: 5c5d d758 0117 cb3f 5979 da5c 3d96 be3f
00000040: 4351 8c0b 06b5 b13f 63f7 e0dc 8cf7 c4bf
00000050: 1648 89aa 2437 60bf 770d 8c0d 8256 5c3f
00000060: 06b2 28cb 2840 cdbf 0b24 a5b0 a722 c13f
00000070: 0526 e3ad 62f5 943f 0a19 2560 84bf 95bf
00000080: e59f afb1 05a3 c73f 8d6f 93ad 7665 a13f
00000090: 5f5d df2e 67c0 d33f 277b d349 4674 393f
000000a0: 224d 044e 3f0e cebf d99a d637 c218 b13f
000000b0: 2c38 da0b a491 cd3f 2970 8500 a513 babf
000000c0: 4e36 cf81 4af2 cfbf 0836 ce35 2acc d73f
000000d0: 3a0b 9e29 5820 d5bf e28a 9d78 7636 8f3f
000000e0: b45b 5c3c 271f d03f 6e93 d6e3 b410 a1bf
000000f0: 0ceb 29b3 8c37 9f3f 6d57 3ccf 83d0 c83f
00000100: 632a e243 2636 cc3f 686f 4ed3 7c3e c6bf
00000110: 6b2a 69cb 3c1f d63f 47dd b549 fece da3f
00000120: 5e91 8a51 c376 b8bf f798 7b40 dc5e c23f
00000130: d3fe be4f dc38 c93f bfe6 fcb8 99da c63f
00000140: 1ab1 21e2 4cbf bbbf 4854 8d6d 2292 c4bf
00000150: f2da 3597 aaeb d3bf 27c2 f209 a451 cf3f
00000160: 9742 dc96 da46 cb3f 0e34 53c5 473e c9bf
00000170: 6ef8 92fe 3b98 cb3f 4282 28e2 a74a bc3f
00000180: a1e5 ff15 98e8 d0bf e0e6 57cd 5423 c63f
00000190: 6279 476e b825 d6bf 4af3 c74d 87dc ad3f
000001a0: a675 e8cc 4cd8 da3f fc27 063d 3161 c03f
000001b0: 32cb f748 5e74 d8bf 5c3f d601 73b7 d03f
000001c0: 2298 22ee 3966 cf3f a02a 5228 1ad6 b63f
000001d0: eb53 408c 749f c13f 244b c5f6 5a56 d0bf
000001e0: 4f66 19d2 6634 c73f 500e 3f3c 9914 b93f
000001f0: 1e87 1456 174e c8bf 57be 7d22 2c2b cebf
00000200: 7553 199d f768 c1bf fd71 1812 4542 c1bf
00000210: 8014 6582 769e a7bf 435f e858 4ff3 b0bf
00000220: b338 80b2 3b3e bb3f 39e4 b75f 99fc b6bf
00000230: dc34 bf03 78d0 cabf 8a0a 27f0 05c7 96bf
00000240: 6b7c cb46 c978 d73f 2ea3 523c d856 d1bf
00000250: 896a d9ef 5749 d23f 6a76 3534 e0f4 c73f
00000260: c675 104d 49ba a3bf c8f2 8a45 1875 c5bf
00000270: f4e6 9f3a fbfe d5bf 31fc 5ddb 9195 d2bf
00000280: e0c8 36ee de83 c9bf a83b d7ab 6ae7 da3f
00000290: d590 bf3f ffd7 8b3f 526a d4f0 7ddc 45bf
000002a0: c397 cd45 723b babf aee1 2634 0a77 c73f
000002b0: aeb4 ac50 1d8d d2bf 9844 09ab 5472 b7bf
000002c0: 7387 c85a 1dbc d1bf 32b3 d86c 7dba ce3f
000002d0: ac95 f1e7 b28f 91bf f000 77c4 75dc d6bf
000002e0: ec20 14bc 74cc c1bf 0286 a55b e6c9 b63f
000002f0: 550b c1ed 6ddc d0bf 01fa cb3b 035a d23f
00000300: 5b38 bdcc d15c c1bf c2fc 3792 c7f2 9d3f
00000310: 9946 ca9b 8c45 b5bf 2192 da9f 7524 b0bf
00000320: 0eeb 6ad2 dad0 cbbf 1dbe bd4b 26d8 c83f
00000330: 325e 72f3 0a3f 3dbf 9bf4 d9e3 3022 d13f
00000340: 4167 e499 0bb2 813f 5868 cceb 6f5c dabf
00000350: 83b1 2e30 d1aa d53f 49d9 4a6c e631 d73f
00000360: 9d21 e71b 90a1 ca3f 8d99 ff0a 5ea3 a3bf
00000370: d0a5 e42e 4730 d5bf 6e0e eaf3 8e8a ba3f
00000380: bd1b 5cc8 7005 c03f 6dca 0418 9716 c03f
00000390: 1e95 6c75 9569 a93f a04f 5fc2 62d1 b03f
000003a0: 5802 ae18 5a33 ccbf 2a27 7f61 7a03 c3bf
000003b0: 227d 39b4 b9fb d03f b06a 8523 90ed d73f
000003c0: 2924 8d2f e18b a73f 727b 9d6a cdb9 c9bf
000003d0: a18f b64b 2d53 c03f 0ffa d0ee 4d59 a03f
000003e0: 6fa6 177b 3e55 cf3f 3b3a f75e ad59 8dbf
000003f0: 4d35 026c dfee a43f 0ece 7eba 03d2 c53f
00000400: 4b5b d7d4 0705 d53f 8c02 367b 4117 be3f
00000410: 233e 234b 679b c6bf c0b1 ce29 9be2 d33f
00000420: b42f fb3c 3994 d2bf e9dc e2a1 13a5 c93f
00000430: 4410 c0d2 b124 d2bf a3a9 3a1d f077 c9bf
00000440: 234a 083f 1ad4 cf3f 4e53 2304 9a06 d73f
00000450: 6292 5e83 f11e cabf 7a25 b787 cce1 cdbf
00000460: 27ac 1f62 3781 d3bf 1928 3cb0 8913 b7bf
00000470: 647d 6254 af8d d53f 557a 3eb9 07af c33f
00000480: b8d7 e271 850b c0bf 4388 6377 20c8 c23f
00000490: 2977 fb4c 7107 cabf 3ee5 b26c 76b0 babf
000004a0: 6961 c7da c7e8 c23f ff0e 23c9 83d8 b1bf
000004b0: 8c17 437f b70b c63f 993e 6d97 cdd6 c1bf
000004c0: 1bc1 1594 659e d63f 9e20 83ae c9e8 cfbf
000004d0: 481e f43b cdc3 b3bf fef6 f0f9 0902 d4bf
000004e0: 6ac1 5d49 d5fb c73f 5f35 68cb 28df d0bf
000004f0: 584c 4c99 9ddd a73f e47e 5c4c 2fe1 d2bf
00000500: d69b 3eaa 8c59 dc3f f20c 7b83 265b bcbf
00000510: 2f37 414b 4c5d c5bf c019 cff8 5286 dabf
00000520: ae63 ddb2 0fc7 b93f 2ae8 a48c 4153 d63f
00000530: 0aee 6417 f61d c2bf 90a7 e64b d6cf d3bf
00000540: f034 0534 e015 d2bf 9f6f 5220 95f7 a5bf
00000550: 8eb6 0d44 0f9c d83f afb3 9060 0913 b6bf
00000560: ac41 04e6 ef5e cb3f d84e 606f 6363 c83f
00000570: 6d53 815b 4e64 bd3f e662 51d8 8af2 91bf
00000580: 30e5 0b3f 7b5c b93f 27c0 d035 779c babf
00000590: fd3e 8398 f667 c93f e781 c013 1fe9 d0bf
000005a0: e801 effa 1838 b9bf 44d8 dcb6 b585 d23f
000005b0: a1dd d8c7 d886 d23f a5a3 2e9a 87fa d03f
000005c0: 48a8 fc6e 1ea5 a3bf 0488 4e25 8293 d5bf
000005d0: 8f8b 0cae 7e30 d1bf 9ec5 9c52 ceac c83f
000005e0: 46d4 1c44 84c5 c2bf 7ebd b329 3b14 c13f
000005f0: b773 327e 7fad d43f e1fc 9abb afe3 a63f
00000600: 0d15 8081 2ef6 b3bf 4d4a 7c06 4b0e aabf
00000610: 046a d339 a1cd bebf 96b0 5038 60c2 c03f
00000620: 08ca 69d4 abb5 d6bf 409a c1c9 8a24 d03f
00000630: 01e3 e471 9eeb d5bf a5c6 d71c 6ac6 c5bf
00000640: 9b14 c545 d27c d63f 694a 2da3 2a85 b3bf
00000650: bf26 460a 5355 c5bf 5338 2682 a075 d13f
00000660: 551b 5036 ad3b c83f a05c 18c0 d80d d1bf
00000670: bb7e b516 86e1 c23f 767b ffcc a389 c93f
00000680: ad57 d4ce b395 cebf 0b45 b1ac ee0f d0bf
00000690: 8a05 2e41 fbc9 d43f 090a e545 2a43 c13f
000006a0: ccdb 6f87 927c cfbf ff33 b5de 545f d2bf
000006b0: 8a37 c353 b876 d5bf 1ba0 64c6 14ec c2bf
000006c0: 9b4b 12c5 53a6 bebf c39c b97a 31d3 d1bf
000006d0: bda8 1977 23a7 c13f 4d9d a051 df5d b3bf
000006e0: 059c fd9c e39c d33f 5d83 6667 5627 ce3f
000006f0: c127 f89e 1ceb b63f 5e6e d2d0 0732 c33f
00000700: 2219 f4dc 6032 be3f f796 d410 5fa0 ca3f
00000710: dd06 d3c9 64b7 81bf d7b0 5cf1 b500 a6bf
00000720: 1402 886f 55d3 973f b47c 293e 05e4 d6bf
00000730: 1ab8 9463 e8a8 6fbf 015e d4d8 33cf dc3f
00000740: 9f93 00d2 34a4 c5bf eaca 5dbe 6fe9 c03f
00000750: 1684 8922 698e d13f 13b0 1d71 2463 cd3f
00000760: abbf 4d6a a86b cd3f 3eb2 4893 5645 cbbf
00000770: 1933 7ca9 9017 c9bf d9cc 5a1a d52a cf3f
00000780: 1d30 a16f a261 b13f 6de7 10b6 8406 b73f
00000790: e0a9 1830 cc04 d2bf 3fb1 210d b8d4 ca3f
000007a0: 87bf 4e74 1897 e6bf 9a83 ef05 8d59 d4bf
000007b0: 86ab 8c02 2061 c6bf 4577 d43e 5d27 afbf
000007c0: e947 b5cf ef57 c4bf a1dc 9afc 1e80 c3bf
000007d0: 2e76 268b 3e9d de3f d81e 65c7 3df1 c43f
000007e0: 650d 8fdc 0936 803f 79a6 6a5f 2c75 d8bf
000007f0: 7c3f f130 da35 a3bf 9357 aeb4 f792 d43f
-0.30395181521281905 0.15762718739590978 0.014867207507867214 0.03446981811643829 0.035792456428184564 -0.017665432796854653 0.21163956487610391 0.11947997586182647
0.06916845113693619 -0.16380463395210673 -0.001979419339741116 0.001729609494021426 -0.22852048797484786 0.1338700878643809 0.020467321265448053 -0.021238392227382476
0.18466254402232987 0.03397723072859469 0.30861835076708205 0.000388400230645946 -0.23480979260839613 0.06678403723945382 0.2310071046708243 -0.10186225187993671
-0.24958163584089949 0.3718362355656102 -0.3300991445941467 0.015240598255052477 0.25190144438368667 -0.03333058625438566 0.0304853424408789 0.1938633691685782
0.22040251078245196 -0.17378197019285868 0.3456565843995693 0.41888386915475845 -0.09556217900041505 0.14351990841459614 0.1970477475533615 0.178546157194253
-0.10838776131430841 -0.1607096705362514 -0.3112589337028303 0.24467897878413788 0.21309978834371598 -0.1972131455899277 0.21558332376838812 0.11051415702287051
-0.2641964163627453 0.1729532244351537 -0.34605227250530934 0.05832312416530401 0.4194519043974999 0.12796607474984956 -0.38210255742812926 0.2611968534410971
0.24530719878856738 0.0892044399680949 0.1376786885090547 -0.25527071093272213 0.1812866712451062 0.09797055931908827 -0.18988315299162023 -0.23569251712932512
-0.13601584597440888 -0.13483489402359786 -0.04613085118993698 -0.0662126152095626 0.10641835315638808 -0.08979185664056012 -0.20948696310953252 -0.022243588240380897
0.3667472068172574 -0.2709255780305736 0.2857265321996825 0.18716051625499414 -0.03853062692381175 -0.16763595004694865 -0.3436878273492845 -0.29037901327677945
-0.19933687812369438 0.42037455350230823 0.013595575459426726 -0.0006671538300538438 -0.10246957973649189 0.1833203081748826 -0.2898629463041499 -0.09158829856575534
-0.27710660806234627 0.24006622137803785 -0.017149730116576542 -0.3572058123209123 -0.13905200179602362 0.08901824700799213 -0.2634539434258632 0.2867439350083317
-0.13564512726810815 0.029246443080407365 -0.08309248736829956 -0.06305632736855006 -0.21731124185847545 0.1940963620977393 -0.00044626252515331526 0.26771185160743877
0.008640375741879704 -0.4118919184417158 0.3385508509188854 0.36242065978457966 0.20805550920910046 -0.03835576900728475 -0.33107165889177015 0.10367673354090254
0.12516603263085627 0.12568939850605734 0.04963366564178727 0.06569497342508024 -0.22031713681282628 -0.148543641668135 0.26536409950309026 0.37387469738829804
0.04598907189808472 -0.20098273950403783 0.12753835865907795 0.03193133869398334 0.24478894243593483 -0.014331201992630152 0.04088495439018889 0.17047163587777486
0.3284320429351523 0.11754235513763883 -0.17661753815490142 0.3107059391284359 -0.29029684977717385 0.200350240751255 -0.2834896619899647 -0.19897271563725125
0.2486603553557681 0.35977793125248503 -0.2040693179561855 -0.2334533369706085 -0.3047617395629367 -0.09014187386142715 0.33677275887199287 0.15377899689788657
-0.1253516012272351 0.14673238591700696 -0.2033521295442651 -0.1042551055314975 0.14772890265045227 -0.06971000347681054 0.17223256792038588 -0.13936777013667692
0.35341777287887205 -0.24929162045578307 -0.07720644677839872 -0.3126244488556579 0.1873728378518636 -0.26362056602450495 0.04661266800226177 -0.2949941869464807
0.44296566605993115 -0.11076584539391712 -0.16690972971485382 -0.4144484929824124 0.10069368473831616 0.3488315461614798 -0.1415393461446544 -0.30956036960798716
-0.2825851924906848 -0.04290452975803238 0.3845251240335096 -0.08622797591733787 0.2138347504737913 0.19053309381762662 0.11481179937375226 -0.017526788189885865
0.0990674046442066 -0.10394997657635995 0.19848520705135533 -0.264228600777669 -0.09851223112401153 0.2894109998482046 0.28948039547273124 0.26529111916402776
-0.03836913208790854 -0.3371281971286637 -0.2685848903367338 0.19277361902053952 -0.14665273023425324 0.1334299043296418 0.32308947872098365 0.044705859805157074
-0.07797518407467781 -0.050890297452629164 -0.12032516156924805 0.13093188047185284 -0.354838330683521 0.25223035528907545 -0.34250603792638407 -0.1701176300844526
0.3513684922548436 -0.0762507103329796 -0.16666639329587515 0.27280438146488456 0.18932118560789016 -0.26647013434689804 0.14750743969761068 0.19951293477694393
-0.2389435539159285 -0.2509724317979624 0.3248279701729976 0.13486221707178483 -0.24598914731151778 -0.28706857441721917 -0.3353710954660235 -0.14782962500726246
-0.11972545205416767 -0.2785152147757339 0.13791316333237616 -0.07565112822395754 0.3064507516014035 0.23557548569535927 0.08952502137267883 0.1499643106115966
0.11795621294377104 0.20801914521978634 -0.008650576981725272 -0.04297417231859562 0.02326711171372338 -0.3576672656108244 -0.0038647211882994028 0.4501466386295477
-0.1690736794854759 0.13212391658051753 0.27431705830355335 0.22958808444252607 0.22984795752154005 -0.21305353347396933 -0.19603164935724562 0.24349464213228236
0.06789603448231714 0.0899432129380366 -0.28154282280834586 0.20961666718666014 -0.7059442779191024 -0.3179657514538633 -0.17483902096259046 -0.06084720031706906
-0.15893361703871214 -0.15234744390702296 0.4783474310769148 0.16361210094532086 0.007915570300503114 -0.38215169256236653 -0.0375202355140791 0.32147019047385433

linears.3.bias f8 [30]
00000000: c087 b632 e366 b1bf 93a0 6dc2 b597 a0bf
00000010: c781 c341 5b10 a23f 442a 83a9 2569 b2bf
00000020: 48c2 29af d12f a9bf 0197 3eb1 77e9 b03f
00000030: cdf9 82b4 314b a83f f69d 21df f87a 7c3f
00000040: 868b 9126 ae5b a3bf bcf5 5cef 9ebb b03f
00000050: 9a45 08c1 6e17 b1bf 0001 1910 0c4a ab3f
00000060: 9eef 15cc b607 a4bf daee d16c f387 b23f
00000070: 9fc9 874a 4cd6 82bf 6766 0c71 cd79 a23f
00000080: 4f68 a229 6307 b3bf 03dc b5a6 736e afbf
00000090: 3544 c407 6b5e a73f 3e09 b4d3 6168 a0bf
000000a0: 7850 a5ab 1be6 a0bf f29f 0cf5 e0c0 97bf
000000b0: 329c c021 9881 a03f e226 81fe ae02 b3bf
000000c0: 74ac 8fe9 4eae 65bf 193b a373 5951 a1bf
000000d0: c237 bed9 3063 b03f 2d67 8264 a286 ad3f
000000e0: e23f a452 a1c8 a73f e1eb 31c3 5ff3 b0bf
-0.06797618854628151 -0.032407455428996056 0.03528103997973946 -0.07191691769109193 -0.04919295562001885 0.06606243207223984 0.04744868591795957 0.006953212885583584
-0.03780883999640765 0.06536286681963238 -0.06676380360320025 0.05329930969719676 -0.0391213535430943 0.0723869457887604 -0.009197803520667956 0.036085529374940965
-0.07433147207703537 -0.0613895550731556 0.04564222783859188 -0.03204637250202545 -0.033005585387088254 -0.02319671149885489 0.03223872577682875 -0.07425969804276236
-0.0026465932137305585 -0.03382377182571456 0.06401353183738848 0.05766780354424692 0.04645256170090285 -0.06621359363081993

linears.4.weight f8 [3, 30]
00000000: 17b5 9493 106b d8bf 28d8 3e21 f7a4 cc3f
00000010: 1bcb 4756 47b9 d1bf 773c 8f00 7049 d9bf
00000020: 966b 6b91 5baa 9b3f 19c9 e6c3 8783 cabf
00000030: 47e4 8007 c839 d2bf d3ef 10e5 be86 b33f
00000040: b93c b04a 1c77 dc3f a27d f95e 857b d53f
00000050: 04c6 09f0 b24d ccbf 2b5b 6a8d 6267 d93f
00000060: e7d7 55b8 cf9a dabf c6f7 9fbd 14f5 c9bf
00000070: 63b0 269d 4070 cb3f 0d7d aece 3f63 c3bf
00000080: f070 bb05 1a65 bfbf fcd4 a0eb a178 d43f
00000090: 0bab 7f04 5c29 d0bf 3372 3ff7 f4b9 c33f
000000a0: ed88 9cbe 9204 95bf d3af a9c9 ea17 b23f
000000b0: e464 16e5 53da d7bf f825 385a 9c51 aabf
000000c0: d5c5 d89e e0f7 c5bf 0518 2a9a d5ff 90bf
000000d0: 2434 64e5 b380 97bf 6d38 371a b41b d43f
000000e0: 255a d14a 54d2 adbf dcb2 17a5 a66c c1bf
000000f0: 012f 3a78 d66d e0bf 3f11 a6a0 351f a43f
00000100: 4bbe 1049 450f d33f 6fad cc59 5375 ddbf
00000110: 0cc3 3804 7fbd b0bf b975 3360 b8a5 a03f
00000120: e513 1d53 14eb d73f 654c 5ef2 5458 c2bf
00000130: 10ad 3df9 6012 cabf a7b8 03d4 6080 b0bf
00000140: 834c 77ab b3d0 dabf cd91 88b8 e7bf c9bf
00000150: 4f58 9390 4a1b 563f 0dc6 2f6a 9a5a d23f
00000160: 43f3 3f3f 35c1 de3f d951 8132 e6d6 c33f
00000170: 6840 87cf 5d47 ccbf f490 485b a04a bf3f
00000180: 5aa3 3d45 e9bd c93f 9af7 2d1b 56c8 903f
00000190: 2b6e f9a7 c3f8 d7bf a512 f209 de2a e2bf
000001a0: 3059 314c 456a 99bf 4707 c477 710f dabf
000001b0: 0b26 e432 d2cd c03f 5a79 34a2 1bb9 c7bf
000001c0: c093 b60e de97 b63f 6cca 3161 ca6b dd3f
000001d0: 7446 f5d9 3e01 df3f 3ea6 de28 955d d53f
000001e0: 4249 ae8c a11c d9bf 4fe7 7542 66b0 e5bf
000001f0: ddf9 5fc6 ed66 e13f 4c74 a455 c48d debf
00000200: acda ca7e de56 e1bf da36 12e5 b69c e13f
00000210: f541 f6f4 b773 db3f 484a 1332 fd27 e43f
00000220: a51f 42c1 2876 c93f 296e 67f1 ba13 e03f
00000230: be35 8ff9 e5a4 e5bf dc38 a682 3d12 e53f
00000240: eb4d 37bd d843 e7bf c6a8 d285 8e6c db3f
00000250: acb9 8b96 a793 d3bf 7be9 63ec edcc e43f
00000260: 5eb5 db6a 74f0 d6bf e4ad a3a9 b63a e4bf
00000270: faf6 f3bd e818 df3f df8d f8f4 b065 e2bf
00000280: f9af 4cfa d385 e0bf ffe0 4c43 d812 d7bf
00000290: 8991 0761 2d81 e53f f8d6 d40e 2819 dbbf
000002a0: 8371 5840 2c1c e8bf 0ba2 b17e 99aa e13f
000002b0: eb7b 0510 7783 e0bf f513 95cf bcb2 df3f
000002c0: 697e f5ab cc82 d83f 6032 1664 d255 e5bf
-0.3815347138614284 0.22378434298815475 -0.2769335119802904 -0.3951072698081996 0.02701705050536026 -0.20713898721221183 -0.28477669461023364 0.07627480595050366
0.44476992887298256 0.3356641223417346 -0.22112118454565188 0.3969351178179063 -0.4156989383840241 -0.20279177912737917 0.21436317132372826 -0.15146634666323458
-0.12263643875070662 0.3198628235871437 -0.2525243801052716 0.15411245415352112 -0.020525257953644283 0.07067744658860357 -0.3727006661589043 -0.05140389062223599
-0.17162711864652516 -0.016600930723619473 -0.022951899410191726 0.3141908889782659 -0.05824530995657921 -0.13612826405678546 -0.5134079311551148 0.039300609455525486
0.29780704627316784 -0.4602859856556369 -0.0653914819056462 0.032514344924247714 0.37372310749588983 -0.1433206733168816 -0.20368587655989545 -0.0644588964093794
-0.4189881491158262 -0.20116898069785663 0.0013492801829691097 0.286779979417674 0.4805424802469142 0.15499570337364224 -0.2209279311487109 0.12223245838737623
0.2011081302728382 0.016389222535046245 -0.37455836681121707 -0.5677328294992391 -0.02481945302528138 -0.4071925801837221 0.13128116116449493 -0.18533654613652112
0.0882548128052596 0.4597040127911558 0.484451020097459 0.33383683196243286 -0.39237250078544517 -0.6777831361825778 0.5438145517835512 -0.47740276683345395
-0.5418541408933684 0.5503801797910584 0.4289379017073139 0.6298814752611372 0.19891843258323863 0.5024084772989613 -0.6763791917998601 0.6584765960449448
-0.7270320602059973 0.4285007769455088 -0.30588712407816376 0.6500157944677051 -0.35842619357466343 -0.6321671784657465 0.48589533376785676 -0.5749134811962299
-0.5163364304221424 -0.3605251939038822 0.6720187087162667 -0.4234104294622365 -0.753439069437761 0.5520751451959439 -0.5160479844015503 0.4952842738314865
0.3829833678518982 -0.6667262987917404

linears.4.bias f8 [3]
00000000: 0b05 6e4b ea47 9a3f abe7 f96d 939c c13f
00000010: 7290 70b4 57fe cc3f
0.025664959768168887 0.13759081716471874 0.2265119200757258

step f8 []
00000000: 0000 0000 0070 b740
6000.0

exp_avg f8 [30, 1]
00000000: 7025 0cb3 f2ad 2340 3924 dc21 ba0a dcbf
00000010: 9b99 de39 088b 1ac1 d672 356d 8c5b 0440
00000020: 85b4 a093 3afa 3fc0 12cc dee2 1fe9 06c0
00000030: 8d2a 919a 2ea6 04c0 9bbf 37b0 d9f0 dcbf
00000040: ee6a 9976 dd92 c5c0 062a ba11 aa34 fabf
00000050: d5b8 597d 4291 e3bf d21a f18b 6da0 ec3f
00000060: be81 5022 a49d f73f b846 062e f0ea 00c0
00000070: 3c68 e681 dbbd 1640 f467 8922 0582 3041
00000080: 7f3f a9bc f474 75c0 3067 27c3 376e cd40
00000090: 7d36 137e 4ce7 d5bf 42e5 7397 16d7 1440
000000a0: 8ab7 530c 7987 2341 3ba3 17ae fb69 0440
000000b0: 850f 3253 e18f 0940 7148 b3d8 bf81 20c0
000000c0: ae28 7144 25b7 e83f 0c49 f07b e7aa 41c0
000000d0: c38f e305 e179 1140 8431 e394 afa9 6240
000000e0: ac91 7a3c ae0d 06c0 908a 3aeb 36b0 13c0
9.839742274506278 -0.43815472895272795 -434882.0565132142 2.544701436227437 -31.97745630906549 -2.8638303493730826 -2.581143577151414 -0.4522003384472499
-11045.730181863033 -1.6378575031727691 -0.6114819000483985 0.894583485912188 1.475986608544289 -2.1147159190812452 5.685407666862428 1081861.1349091502
-343.30975023376953 15068.435643124947 -0.34224235832230204 5.210047117661192 639932.5240762096 2.551749572845805 3.1952539920475282 -8.25341679752839
0.7723566376455631 -35.33518933518107 4.369022457136398 149.30268329976764 -2.7566799855141735 -4.922084498832774

exp_avg_sq f8 [30, 1]
00000000: 7a88 b96d 0ef8 1241 46e0 a1ce 4e84 2941
00000010: 4f41 b8cd 63da f742 156b 62d6 1477 0d41
00000020: e84a 49fb 32a3 2a41 6143 28d9 1519 3441
00000030: 3f2a f781 4a0b 1641 83cb 4ae8 3d44 fa40
00000040: cbaf 72d4 5e82 d141 f2aa 8476 198f 0541
00000050: b4a4 fa78 2fd4 2141 7dc5 1b1e 478f 1541
00000060: 1383 46fa 4a73 3041 1645 f2dd 57c1 2c41
00000070: ee23 c435 7813 4241 613b ca2c 9019 8d43
00000080: 6f27 cd67 04ff 5941 f968 cecc 5380 3442
00000090: 3bd3 3520 e99b 2341 49f7 5be6 f6dd 2941
000000a0: 75f2 34e6 afcd 9343 a2eb 8e52 6392 2941
000000b0: bfc6 298a 4c5a 3a41 c30d 747e 7c95 1c41
000000c0: f7a7 e93e 9ab0 1d41 74e1 2ea8 dc59 5741
000000d0: 6c46 f8c5 8e04 2741 332b 3578 4acd 2941
000000e0: 08bd 0f11 9677 fb40 9d83 3367 fcac 0f41
310787.60715306515 836135.4035787664 419627915772948.94 241378.6046799055 872857.4907935532 1317141.8482706177 361170.62691942224 107587.86921195504
1175026513.7919796 176611.18287023116 584215.7362872572 353233.77940281463 1078090.9776384279 942251.9334889974 2369264.4200482285 2.621082029454408e+17
6814737.621896609 88052321486.41005 642548.5629106531 847611.4499203946 3.5674751505298976e+17 837937.6612466464 1727052.5396999565 468319.12348958495
486438.56143820233 6121330.627861369 754247.3866598136 845477.2347806453 112505.37916539994 259487.55039122413

step f8 []
00000000: 0000 0000 0070 b740
6000.0

exp_avg f8 [30]
00000000: f832 10a6 aaf4 e73f 9596 1dd4 8dd6 0040
00000010: 50ee 77eb a89b 60c0 71c4 e747 329e f13f
00000020: 7b3c 989d caac 11c0 a297 8606 8fe2 ef3f
00000030: e980 78fb 8b9c fdbf d313 237f 5509 1040
00000040: e1d7 8d47 c5ba 68c0 43ed 0c17 c384 f13f
00000050: bffc 2e6e 014c dabf cd2a d864 e335 fcbf
00000060: 2f75 0872 1b05 a43f 237b 62dd 76ec df3f
00000070: 6a4f ca2c 63d1 f1bf ae84 38a4 a7d5 ca40
00000080: cdd7 e25d 3501 13c0 47a4 f95a f28e 6340
00000090: dc5a acdd 85de c33f a154 b1b2 dc34 ffbf
000000a0: e31e 2224 a18b ce40 81ca 703c 97ef f0bf
000000b0: 9edc cc29 2db3 e93f da93 6823 51b4 b63f
000000c0: 7c62 9980 ce10 d43f 605c bc45 0b7d 1dc0
000000d0: 394a 37df 88f1 e23f 1777 5e5b 9edf 0bc0
000000e0: 56a0 a590 638c f3bf f8a8 31a8 603d d93f
0.7486165278838532 2.1047627040414434 -132.8643700926209 1.1011221703340903 -4.41874166719128 0.9964060904937819 -1.850719435031403 4.009115206256825
-197.83658197120442 1.0949126148614858 -0.4108890129100011 -1.7631563128695007 0.039101464910553545 0.4988076364478948 -1.1136199712390984 13739.309699120317
-4.751180140467068 156.46708439596316 0.15522836040391652 -1.950405786531782 15639.258915200311 -1.0584938393555208 0.8031221214686359 0.08868891825166206
0.3135257964945948 -7.372113313314088 0.5919842109381711 -3.4841887605861177 -1.2217746401093073 0.39437118935769844
