1D_supercritical_InverseProblem_C_initial_60/Models/Model.ckpt-4500.pt (torch, 82380 bytes, 43 tensors)

linears.0.weight f8 [30, 1]
00000000: da4f 33cc bbca e63f 5117 4309 04cd c43f
00000010: 8a51 fed1 8b85 a23f 9a7f 0c5d 2d36 da3f
00000020: 3531 b9b1 686c e7bf 2e64 1c34 098b d7bf
00000030: 48a5 1bfa dfda a43f c782 8bd1 e0d8 a23f
00000040: fbe2 0760 dc18 d1bf 3cfd fb74 8a7d e4bf
00000050: 3a3c 07a6 f734 e1bf 57eb 9588 dc3c e23f
00000060: 0e7e 2d3b 64ae 83bf 4f43 2142 77a9 e33f
00000070: 892e aa6f be82 ce3f 5d98 1014 3ba1 e33f
00000080: f562 4894 93c3 e5bf f001 1eb5 97c7 e5bf
00000090: d06e 7283 cf66 dd3f 3c8b f38f 90c5 e73f
000000a0: b05e c7db a9de e0bf 72f6 bef4 e2be 603f
000000b0: 4baa ec50 26ba babf a8df 56fd 06b6 ccbf
000000c0: 4052 adac 2ab6 87bf 7483 aa98 6065 e4bf
000000d0: 6b07 da95 273b a43f e650 e165 1996 db3f
000000e0: 40da d44a fa34 e4bf 9376 f94c ff41 d73f
0.7122477520265378 0.16250658466577275 0.03617512644192107 0.4095567139320281 -0.7319835158500952 -0.36786108101802284 0.04073238304210719 0.036810899333209295
-0.26714238527306094 -0.6403248104906321 -0.5377157442798144 0.5699293773353514 -0.009609969192466952 0.6144367496109256 0.2383649869192264 0.6134314910784827
-0.6801240821979194 -0.6806143319554945 0.4594000610029356 0.7428667842435526 -0.5271806042246308 0.0020441467986234635 -0.10440291858382371 -0.22430503244481526
-0.011577924151120134 -0.6373751622923991 0.03951381401294792 0.43103632878525244 -0.6314670049239979 0.36340315358197833

linears.0.bias f8 [30]
00000000: 0a41 2e8b 70ea cd3f ede7 e172 c57d d63f
00000010: 7fbd 26a3 81fc c13f 3944 ca42 94ff c93f
00000020: 2bca d0ce b3b9 d1bf c4ed f1f3 111e c6bf
00000030: 056c ca54 1e6a dabf 68bd da84 6b7f c73f
00000040: dec4 7e01 2521 cbbf b420 f3d4 a751 d1bf
00000050: a9c2 dfe9 0052 c9bf 8987 0130 345f c03f
00000060: dda5 b1ad 1899 cd3f 4d20 1e2e 9b37 de3f
00000070: cd81 f411 5257 d03f 7ad6 7509 68a5 ce3f
00000080: 0eec 7bd9 0b95 c9bf 2ae8 1f4e 571b ccbf
00000090: 183b 959e c55a c03f f12e 0768 0f9e c8bf
000000a0: e572 5dd4 4b4d a8bf 16df 0a1a 3766 eabf
000000b0: c1b2 3753 b251 cbbf a526 dc7d f922 cebf
000000c0: 6932 3104 6508 c73f bcfd f329 c788 cdbf
000000d0: 1785 991e 5c07 e0bf 23fc b415 3205 d23f
000000e0: 5b51 cae2 4aa2 cfbf bb26 7874 ed7e ca3f
0.23371702953273427 0.3514264699839476 0.14051838365910993 0.2031121564982941 -0.2769593734439321 -0.17279266749743105 -0.4127269580873761 0.18357604968103236
-0.21194899151809116 -0.27060886188383937 -0.19781505031234772 0.12790539115945546 0.23123463135861658 0.47214393142394756 0.2553296256392315 0.23942280256203557
-0.19986103171672237 -0.21958438219718462 0.1277701401072242 -0.1923236139249336 -0.04746472327562915 -0.8249774464265751 -0.21343068183286643 -0.2354423393774613
0.17994368271537844 -0.2307366328095507 -0.5008984182024133 0.2815671169263984 -0.24714027475114161 0.2069985216806368

linears.1.weight f8 [30, 30]
00000000: e05d 10b5 3c9f c8bf 82cb 8cc3 4de8 bdbf
00000010: f483 7c1c 75d4 c23f 27d0 1f76 ed1d d13f
00000020: b752 f050 4858 b4bf 8a2e 64fc 76c7 c5bf
00000030: 8c96 864d 2f8d a23f c341 b7ec a269 bfbf
00000040: 81c4 e6df e523 c3bf 8ef9 20ff 83ba d5bf
00000050: d022 d419 1010 c4bf 284b 1993 e456 cabf
00000060: e8d9 11fc 2786 bebf 6d69 4456 2262 acbf
00000070: db04 d73a 06f1 c1bf 0094 2a44 7c0e 93bf
00000080: d6de 0df8 caa9 d0bf a582 4773 e8d2 813f
00000090: 136a 2b14 1f7b cebf 8ae6 0f5b f92d ab3f
000000a0: fa61 0cd1 46f3 b3bf cf37 b729 d70f 92bf
000000b0: adf4 64f7 00a3 d5bf 9c7d a43e d401 d03f
000000c0: 3d70 c13c 3e2f 97bf 1a90 5fe5 6039 d3bf
000000d0: 35fa acd4 526e c4bf a8ef 3aa3 a941 be3f
000000e0: f65c 85fc 2f21 ae3f 6dea 552c 2c9e ccbf
000000f0: 0b10 bb89 2fd0 aebf 23f0 9f7f 2b5e cb3f
00000100: 80bf 31d6 6f7e a0bf 32cf d186 caa7 bd3f
00000110: ed34 0c0b a884 c2bf 8342 bf22 b4d6 c53f
00000120: 6c4d a58c 4abd 9abf e32c c853 7ef7 d13f
00000130: f457 e2a2 f1ca 843f 89a3 adb4 fe2c b3bf
00000140: eab6 0d98 8a36 b4bf 8c5f a1ed f75b ccbf
00000150: 2918 3d7d 7110 b6bf bca5 73bd 745d babf
00000160: 3a78 dcf2 45a3 d2bf a94d c6ca 8cdd 9dbf
00000170: ef65 1355 a293 8a3f c4c0 b594 6056 ca3f
00000180: 6b2e 36ed d436 b33f 4a80 c899 dd4b cabf
00000190: c314 0b77 903b bf3f be31 8f78 725f da3f
000001a0: f862 af04 4f5e c4bf d2e6 7a63 dcf5 bcbf
000001b0: 2fb5 32e3 6106 d5bf 15f6 67a7 b936 a5bf
000001c0: 7639 af09 1a12 c23f c3b7 f7cc b31c b7bf
000001d0: a255 6872 f8a3 c43f 5771 6e70 e39c b6bf
000001e0: 8e6d 35ec adb6 99bf 928d 7f77 341d c1bf
000001f0: fecf 2906 b08e c93f e1ed 74c9 9132 9b3f
00000200: e4e5 488b 8874 d33f ad92 e6aa 8053 7abf
00000210: a296 df08 9ee3 b33f 0b1f 3de5 f63a d0bf
00000220: bf40 7d7e df92 c9bf 1eff 3d13 25d0 c5bf
00000230: 8051 25d7 939e cb3f eab8 0b30 d3a2 cf3f
00000240: a533 8671 f295 d7bf 5053 2574 a1f2 cfbf
00000250: 4cfb 78a7 62a9 c9bf f017 4c8f 97b2 be3f
00000260: 11c1 45a9 352c 9e3f f8f1 8d07 694a 823f
00000270: 105d 8f29 6971 c23f a70d e1df 5ccd ce3f
00000280: e88f 93aa 143a cfbf 4f25 eaaf 0001 bb3f
00000290: d37f 5b3b f6f0 ce3f 6dd2 13ba 2a73 cf3f
000002a0: 2dc4 8c8d b8f9 d3bf 22f2 d2c7 1012 9dbf
000002b0: faf5 0132 3642 a93f cb80 323e 5423 c83f
000002c0: ccad 5116 ab91 a23f 8059 d4a2 8d11 bbbf
000002d0: 2bff 5bf2 147a b9bf 4709 cdc6 f398 cd3f
000002e0: a235 7cf9 b3c9 b23f dd93 55be c723 c63f
000002f0: 6d04 f1ad bdea adbf 1d55 5688 b9ed 643f
00000300: 026c 8ef1 e029 993f c2b2 c0bc a078 b4bf
00000310: 6aaa c541 1ce2 c33f 9a8b 2c59 12bc 9d3f
00000320: 0239 2254 f560 cb3f 82e2 00cb 39a8 d53f
00000330: e4a3 65a2 dbd6 96bf 64d2 1c80 be3a c0bf
00000340: e806 0e25 4e5e d63f 22f5 1d71 ed74 d13f
00000350: a406 b7ae a9b0 a53f a76b 5edd 70a2 b4bf
00000360: 48f6 650c e726 c5bf 67ac cb51 209f 9dbf
00000370: 6cdc 3d8c 263f b63f b4e3 df36 a85a b03f
00000380: 8f97 5bd1 a77c c3bf 10c7 97f0 673e d6bf
00000390: 2f30 4c80 73d5 96bf 5856 c506 fc8f cfbf
000003a0: c56a 8bab 3547 633f 33da dea5 7fbe 983f
000003b0: 6358 b17e 1191 d1bf b7e0 4376 5d6f c5bf
000003c0: ae0d a0ca 9fa4 d8bf f103 d7e5 7f89 8bbf
000003d0: 6aed caf5 327d cb3f 9337 3533 c1af af3f
000003e0: 1257 a34c 73df ccbf 2ff0 7085 fa69 c33f
000003f0: add2 60b2 f441 c0bf 2bb2 a7e5 b388 cf3f
00000400: ab77 b41a 6e6b d13f bb08 42eb 96aa c0bf
00000410: 34f0 cea4 344f d03f 2051 589e bc83 c83f
00000420: b21c 026e ea64 d13f 1457 a1e1 f4d4 ccbf
00000430: 78bc a84d c2d6 b13f 0fb5 874d a8b6 d3bf
00000440: d499 4dc4 ea46 d83f 5997 2102 8f10 d83f
00000450: 7d96 be45 9582 d6bf ef0b b71e 4e68 bcbf
00000460: b313 cf5d bbe8 ca3f e54e 4795 8bdd b83f
00000470: 948d dd9b c898 d13f 94e0 421a 9b49 b4bf
00000480: f031 648f 054d c03f 16cb 6f5b 59f7 c83f
00000490: 2731 8c55 58f0 cc3f cc93 d5e3 d987 a13f
000004a0: aa50 c899 214e b5bf e724 233e 4da2 c0bf
000004b0: fad1 36f3 94e5 c93f cab8 56c8 edf7 c83f
000004c0: 274f fa3d 296d d3bf c137 7f73 3b8e 6cbf
000004d0: 6679 1b9e 7503 cdbf 0746 ac6e a9da cabf
000004e0: a3b3 14c1 b61d babf e814 3b4d 77a3 d4bf
000004f0: 4a43 2ade f9aa c2bf 4ee7 8e09 bc52 b3bf
00000500: a27b 39c2 9dbf b23f 5fe4 29bb 8150 b7bf
00000510: 27df c03d e74a 9b3f 0183 435a 0ff0 d4bf
00000520: 0c5d 4c59 6b4c ccbf 235c a6c7 ebc9 d4bf
00000530: a5e8 e196 2cd4 c73f ea20 b4d1 7db4 ca3f
00000540: 583e e240 e13d c4bf 2a3c 3067 0ec0 a0bf
00000550: 614b c853 eb65 a5bf 4e7a 0307 b2c9 c4bf
00000560: 8ef4 a8cd 406f b7bf cf94 a903 9177 c9bf
00000570: e162 f6c5 9f0e c9bf c611 1887 012a bfbf
00000580: 22d2 8e49 fa2d c83f d582 ec3a e145 c43f
00000590: 67be ad53 76c1 c03f 8006 e6e5 a72e d2bf
000005a0: a107 d108 02f6 cebf 898f ca13 cf09 b93f
000005b0: f861 c02e d7fe af3f e884 cbf8 a858 b8bf
000005c0: bc17 e2c5 57b6 c33f 0d06 d2f7 e141 d03f
000005d0: 81e3 c5c3 cb34 c43f 3654 69ed 8cf5 d0bf
000005e0: 00f4 2197 e9d4 d33f 820b 2632 e944 a6bf
000005f0: 23b9 d310 900e d1bf 9515 5f1b bb48 c63f
00000600: e5f3 058a 52ce a0bf bfae 675e e55e d03f
00000610: 5cf1 a211 f0ed bc3f 7ebd 0122 670f 85bf
00000620: 3a8b d0a5 281c b3bf ef44 437b 2d8c c2bf
00000630: de08 7d2f 816f c13f 3d7c 5e29 35ff cb3f
00000640: 5a24 b49b 16d8 a6bf 49c1 7a15 0c7f c5bf
00000650: 3a65 98ae 02b4 c83f 61cc 944c d711 cd3f
00000660: 0be1 74fa 1028 bf3f 50d2 f781 ba66 d23f
00000670: c9ac bf45 57bf bf3f 3010 7734 8fb9 ce3f
00000680: bf32 2409 9dd5 c43f 5b14 28ae 7299 d3bf
00000690: f295 6ff7 5c50 d33f 1db3 5668 7cb8 cabf
000006a0: da17 0eec 97cc b2bf a670 ca49 f5c2 c53f
000006b0: 3050 041b 189c b33f 18f2 e992 60f0 d13f
000006c0: fb8e 8267 dded d33f f243 3288 b421 c9bf
000006d0: 62b2 5780 763e ce3f 32f9 2a1a bdd8 c6bf
000006e0: e5d1 541d 6f6a b13f 8952 c324 0461 b53f
000006f0: a8d2 3c18 361d b83f 9fac 2775 c3b0 d03f
00000700: 567a ba16 0430 ba3f 19ea 1036 50d1 d2bf
00000710: d6ae 0e86 1cfe bcbf 1c95 348e 23f7 d13f
00000720: a2f3 593d 8020 a53f 31a0 18c8 d284 b63f
00000730: 7d2a 52e8 8ea3 babf f8df b209 1e48 d13f
00000740: 3b90 a93a dd60 ccbf 2673 11da 6612 b6bf
00000750: 8ad1 b938 7ac3 d3bf 8008 f6ca 92c4 b43f
00000760: b3f2 5e9a e51c c03f df3a 5860 ca57 b1bf
00000770: bf91 abb4 c899 cb3f e507 c035 41d7 babf
00000780: 7559 50d2 e0e0 bb3f 47cb 0b51 4bf4 9e3f
00000790: 6287 c14e 1012 c73f c729 ee4f 7b1b ba3f
000007a0: 99ab d2aa 999c 863f 3986 e7ef 706b bcbf
000007b0: f94f 72ee 93b7 c13f f18b dfa0 98f5 ca3f
000007c0: bcaa 0ac9 68f9 c33f 948a e91c fa57 b1bf
000007d0: 5d05 a237 d5e7 b23f 6087 feb0 2213 a5bf
000007e0: 4083 c3b9 8313 c4bf ae94 98ce cf52 bcbf
000007f0: 6290 0daf 072a acbf f711 52af 0cc0 a2bf
-0.1923595317937119 -0.11682592415017548 0.14710868731438576 0.26745163474629624 -0.07947208381694791 -0.17014968227191601 0.03623340436324182 -0.12270563391871918
-0.149533018423913 -0.33950900950358054 -0.1567402006260381 -0.20577675993498556 -0.11923456100507901 -0.05543620398585145 -0.1401679789833342 -0.018609944973508874
-0.26036333297768743 0.008703056352659397 -0.23813236698954707 0.0530851291332058 -0.07793085674018832 -0.0176385516368141 -0.33807396087270086 0.2501116382354327
-0.022641155679920855 -0.30037710571036913 -0.15961680779033008 0.11818943247902658 0.0588469501259911 -0.22357704319786667 -0.060182080805617565 0.21381133777310976
-0.0322146367042242 0.11584153930180888 -0.14467335261762262 0.17061473557125248 -0.02611271365578942 0.28073080236272413 0.010152709754304802 -0.07490531836596238
-0.07895723545308511 -0.22155665495915533 -0.08618840510925509 -0.1029885256317788 -0.2912154075328349 -0.029165458561306732 0.012976902219111046 0.20576102505902416
0.07505541602420755 -0.2054402352232521 0.12200262934045995 0.4120756318414144 -0.15912807205929602 -0.1131265395041752 -0.328514549134371 -0.041433145222964075
0.14117742035746134 -0.09028171304791414 0.1612539824133537 -0.08833142752559318 -0.02511092905238637 -0.1337037642943924 0.1996669797987351 0.026560094757980827
0.3039876327707971 -0.006427290542352066 0.07769191471705963 -0.2535989035281864 -0.19979470897897575 -0.1704145759540489 0.21577690129437244 0.24715652318940978
-0.3685270413050666 -0.24959200068647158 -0.20048173119900026 0.11991259811847477 0.02946552129418573 0.008930988829654915 0.14408602265641735 0.24064217502210036
-0.24395998314787382 0.10548404974737945 0.24172857187568172 0.24570211492359154 -0.31211675475339257 -0.028389227100648402 0.049333280186129216 0.18857815777756168
0.03626761100243989 -0.10573659158067095 -0.09951907078720683 0.23123023230625447 0.07339024392077545 0.17296692651430493 -0.058431556208696424 0.0025547622378307004
0.02457381700842732 -0.07996563537808313 0.15533784114389287 0.029037748997449243 0.21389643295373878 0.3383926851707103 -0.022303993021896576 -0.12679272895333604
0.34950593584663503 0.27276168867668293 0.04236345536948008 -0.08060365108978705 -0.16524971108803954 -0.028927330963523092 0.08690110133999135 0.0638833173724283
-0.15224168512866895 -0.347558960870729 -0.02229862661901921 -0.24658155756576394 0.0023532913440765546 0.024164194582875175 -0.27447926876391743 -0.1674610927073041
-0.38504786288850823 -0.013445853425652717 0.21475827218624072 0.06188777685257132 -0.22556916467754512 0.15167171016389733 -0.12701281270860446 0.24635933602930157
0.2721820126333749 -0.13020597922520047 0.25483432859960264 0.19152028781594144 0.2717844080256767 -0.22524891869641606 0.06968321224188567 -0.30802352496432744
0.3793284337065448 0.37601065834166075 -0.3517201596353983 -0.11096657037619172 0.2102274139453165 0.0971305121850566 0.27495017262682464 -0.07924813643592393
0.1273505163338906 0.195048494002173 0.22608474900369765 0.03423958688907866 -0.08322343830542658 -0.12995305570647206 0.20231878162088873 0.1950661876885021
-0.30353766491428974 -0.003485790362879521 -0.22666807384571114 -0.20979802993728944 -0.10201589788330394 -0.3224771742064392 -0.1458427748480296 -0.07548117860178857
0.07323633186159254 -0.09107218570160701 0.02665292086041329 -0.3271520978433245 -0.22108213291424084 -0.32482428071074504 0.18616254203135899 0.20863316287455486
-0.1581384245696309 -0.03271527299522632 -0.04179320714697244 -0.16240525572262005 -0.09154133816714902 -0.19896137884931028 -0.19575879255423614 -0.12173471019929769
0.18890312759107625 0.1583825624193397 0.1309039982402169 -0.28409764719990704 -0.2418825667428424 0.0978059218710411 0.06249115415284118 -0.0951028449449215
0.15400216257347477 0.2540211601372853 0.15786120471218726 -0.2649872129889589 0.3098701454071602 -0.043494498607308266 -0.2665138401342963 0.1740945705079581
-0.032824115131894684 0.2557919904636314 0.11300564222887516 -0.010283284879021744 -0.07464841888626675 -0.14490288275423022 0.13621535128374423 0.21872581977820174
-0.04461737299613651 -0.16793967293552672 0.19299348378334874 0.22710696448629888 0.12170511355077822 0.2875200528353945 0.12401338055467472 0.24003782331249246
0.16276896425588025 -0.306240720820204 0.3017799774518998 -0.20875506491338394 -0.07343434823096065 0.1700121507937002 0.07660055789557485 0.28029646250777907
0.31139311893842575 -0.19634110117161147 0.23628121630408133 -0.17848933961608676 0.06803030458542698 0.08351159951718946 0.0941957291768839 0.2607887882320003
0.1022951655854539 -0.29402547149553154 -0.11325243256458903 0.280709160683118 0.04126358746450555 0.08796422372017855 -0.10405820056818445 0.27002669284001923
-0.22170606006977941 -0.0862182886498429 -0.3088059953654684 0.08112447218994312 0.12588186299935486 -0.0677458272186686 0.21563061544214965 -0.10484702646502304
0.10890011915794225 0.03022878343740423 0.18023876042849013 0.10198183728622388 0.011040878797151698 -0.11101442200699631 0.13841485159775838 0.21062000136507167
0.15604886833656006 -0.06774867254129396 0.07384998901581726 -0.041161617379897875 -0.15684553690427983 -0.11063860696647751 -0.055008163565418725 -0.03662147178787117

linears.1.bias f8 [30]
00000000: a0ef 4506 333c a13f 3b4a 7432 1c5e 55bf
00000010: 939b 0f67 a613 96bf 9f32 66ef 4f09 b53f
00000020: b41e 10b1 0554 bbbf 0789 bc34 fb1d 9bbf
00000030: e315 c4ea b967 9bbf 177c f42a dc25 983f
00000040: 5c3d abbd a073 a33f 326e 2bad 0da9 a5bf
00000050: 2171 e9ee b333 a93f b4e1 e9ce 3dea ac3f
00000060: aaf0 64b9 2983 b93f b487 c49b 8645 83bf
00000070: b73f 9afa 145c a0bf 718e 5cfb 02ac 983f
00000080: 6d0d 5ad1 f989 bbbf 2762 96ab 01ca bdbf
00000090: 351f 0400 e132 bebf 5fbe 562d 02b9 b83f
000000a0: b400 b68f d5c6 72bf d33d 5bde f159 a7bf
000000b0: b650 1bf2 76b6 86bf 108f 9692 b8af 82bf
000000c0: cb7d 7c1e 1a75 a83f 7161 c177 01d4 a73f
000000d0: 38fd e451 1e15 a7bf d91d 0058 5e1a b73f
000000e0: 75e0 92ec 1aa4 913f 6e8b 8932 cfa7 9b3f
0.03366240932061193 -0.0013041758882691562 -0.02155933383974291 0.08217334360797189 -0.1067508275301588 -0.026481556981829104 -0.02676287169835757 0.02358192455460192
0.0379915458230424 -0.04230540026557285 0.04922258654980483 0.05647462034989151 0.09965763832309685 -0.009409953716900656 -0.03195252951729748 0.02409367236317767
-0.10757409440161832 -0.11636362494608275 -0.11796385050194831 0.0965730057421239 -0.004584154342751546 -0.04560809935866996 -0.01109021116591467 -0.009124223683847826
0.04776841756961011 0.046539350384310015 -0.04508299588860115 0.09024610184143657 0.01722757405215743 0.02700732942538358

linears.2.weight f8 [30, 30]
00000000: a743 d3e9 0dc5 a9bf 1c6b c0ce db46 b33f
00000010: dac6 c020 3328 cdbf 808c 27e8 087e d5bf
00000020: 2a87 eac3 f4bd c0bf e0d1 4fcb 5666 cf3f
00000030: 94d0 f45a 99c4 d73f 6d46 b92e 6520 d1bf
00000040: 354e 3194 55b5 aebf ed88 2345 6030 d1bf
00000050: 5a2e b1d7 9745 cf3f 0d60 5dc7 c6ee d1bf
00000060: 9045 569f c3ad bbbf 050e e128 4b3b d0bf
00000070: 36a2 0604 9113 cd3f 54f9 7ec5 5878 cfbf
00000080: c7cd 126b d737 cb3f a99e a7b0 fe41 d63f
00000090: 88b3 9587 99a5 bdbf 7e04 a12f 150c d4bf
000000a0: 9a3f 749e 4a92 d23f 534f 98a8 b0bf d13f
000000b0: f70f 8a32 d022 ccbf b3b4 5bb2 5dce c13f
000000c0: 0f8f ac8e fc19 d3bf ab80 6170 a741 6fbf
000000d0: b60e 55d7 5ef9 b7bf 4ce4 d720 2926 d6bf
000000e0: 2d65 50d3 0509 c6bf 33d7 7d0b ba9d b2bf
000000f0: 3e0d 3fa9 da92 c9bf 10b2 24d7 c593 bd3f
00000100: 5529 b1f3 1bdf d43f 7111 d8ee bfc1 d0bf
00000110: 1f6e ac93 58c3 d73f 7d53 ee0b bc6b cb3f
00000120: f145 bcd3 fc33 cbbf d470 2724 2a79 ccbf
00000130: d241 f097 a72b d63f cdcf 585f d0b5 86bf
00000140: 6657 1eb5 9b6d b23f 619c 5f90 0a5d ae3f
00000150: 5757 7850 76d0 a0bf 47b5 07ac bb0d c33f
00000160: 76b0 6a92 dc25 c0bf d2ec 7234 fe2d d03f
00000170: cecb bbcd 1a71 cfbf 695c 7cc5 18f7 a7bf
00000180: ee00 61d7 e3ec b1bf e036 08a5 96a9 c23f
00000190: d9ab a5ea 64bf a53f 6707 2330 d7ab 8e3f
000001a0: 8ff8 174f a24a cabf 6ce2 2faa 0784 a8bf
000001b0: f93d 57be ad13 c13f 6ca1 2dc0 6719 cfbf
000001c0: 516f 3fb0 0b95 d43f 68c3 fdf6 08ba d2bf
000001d0: 35ef 3e2b fbf5 d5bf 2ff4 df0b d39b b43f
000001e0: 6797 302c f63e bb3f 5df5 5820 f2d8 d0bf
000001f0: 04a9 ef88 7fd5 d9bf 6887 29a0 ccc8 b03f
00000200: 4682 ae57 7185 d63f c8f5 8b41 307d c3bf
00000210: d0dd 5b88 1a42 cc3f 635f 340c 40b0 c5bf
00000220: e726 f49f a71a cbbf 0264 080b 9dc4 c5bf
00000230: 92b9 42dc 3793 b4bf e55f ce32 2179 b6bf
00000240: 2ad8 2b8d 7710 c53f 7f6b b6bb 60b4 cb3f
00000250: e193 1d41 3567 c73f 230f fcff 9546 cf3f
00000260: 7b9e b3d8 a16c d03f 8397 5959 f304 d2bf
00000270: a525 1c77 5d50 a73f 10f3 7aac 1afd d03f
00000280: f282 9506 591e d3bf 443f 73db fc4c d43f
00000290: 1932 2d4e df3c a1bf 72e6 6430 cc05 bc3f
000002a0: d20b a170 b0b0 9e3f 4455 f318 5778 cb3f
000002b0: 058d 3380 c16f d23f 8a09 7cd4 522b b1bf
000002c0: 3d4c e759 1ed4 d0bf acd1 e76f d7ad cc3f
000002d0: 1e61 e73f 55b4 c8bf 2dda 8d20 f3c9 bf3f
000002e0: 24da 1fcb c90d cdbf f675 1817 d307 c1bf
000002f0: 75f6 9d7f 9157 d33f 1d2d 0574 0d87 d0bf
00000300: ca49 b84a 6827 d23f 065f d411 4e82 b63f
00000310: 6c37 8d5b 6a5c d53f 04ea f098 7e72 cbbf
00000320: 1244 99b9 0bbd d8bf 3b5e 38dd 0263 b13f
00000330: e544 5da1 e70b c6bf 909f b2a1 1815 913f
00000340: 9442 d88c 22cf c93f 4751 ae68 bb9d bbbf
00000350: 11ad a55c c5fb b53f bf6b a671 2a42 cb3f
00000360: b7e7 2a9d afed d03f 709e fc97 edc7 cebf
00000370: 6824 bcbb df5d c23f e6b0 293f e9b5 a63f
00000380: c5bd 6214 bf36 c63f 42f8 b147 e78d c43f
00000390: aa2c 3083 7b06 cfbf ac4d 85fd d6af bb3f
000003a0: f539 0157 f924 c43f f169 1565 1836 ce3f
000003b0: 0156 e34a ee71 c0bf 7d2c 8410 d92f b03f
000003c0: e38e 8600 751e b03f 54cc 0dcd f8ab c8bf
000003d0: 94b3 7690 eefb cfbf 9c23 78f4 54f1 cc3f
000003e0: 73f9 6ffb 8a74 c1bf 17d1 3bc3 55b6 c33f
000003f0: 4560 e6d0 b8ce c9bf 59cd a5f5 0dec c0bf
00000400: 695a 29b2 a1eb c63f 3f08 3a43 506e c63f
00000410: 8a40 29be 3279 d43f 67e6 8031 4996 cfbf
00000420: 0b98 4651 4057 c3bf 460c 97c1 71aa d93f
00000430: 16eb fe32 6b04 b7bf f356 7c27 7393 c9bf
00000440: fc63 20de fc50 c13f 7f51 6ed1 3b01 b73f
00000450: 8c07 cf71 0c13 c4bf 4781 c9a1 44a0 da3f
00000460: 7b24 b0ef d793 d6bf d3b9 c752 c727 bd3f
00000470: d41f 3e53 6999 70bf 00c3 f091 2ad8 983f
00000480: 2a83 6bed b674 df3f 73cf cc44 cc2b ce3f
00000490: 9916 6c17 7148 cc3f e203 5b6d 78a2 c4bf
000004a0: 18ef f7ce f642 b73f 5bfa 74dd 3685 bb3f
000004b0: 13f8 cb76 3a17 a4bf e71e 7b4b 2f26 d23f
000004c0: e5ab 280a e37b ba3f 5ea8 e1c2 95e8 8fbf
000004d0: 9502 4d89 93e6 b5bf 27e2 7bc4 b6a2 cebf
000004e0: fcd8 12fd 2af8 c03f 6fdd 848e 4937 bf3f
000004f0: d273 4cc3 976c d33f 7495 c237 52fc d33f
00000500: 6fe3 eeca f95b bf3f d1f6 458f 1edc 7b3f
00000510: 0407 cb45 f9ac cc3f 6598 0eb7 8259 d5bf
00000520: 6bdb cda0 663f d13f 1a90 47ab b16a c43f
00000530: 91e1 39f5 3591 cc3f 9818 d6a3 1908 c03f
00000540: 11ca 5665 c9d8 c4bf 4e5c 96ce 04da d13f
00000550: 51c2 527d cb96 b63f 9961 3230 0f35 a0bf
00000560: c48a 3b19 d78b cb3f 6b8e 69a6 1eac bf3f
00000570: 9d17 f156 27a2 d0bf 5415 8351 87c1 b2bf
00000580: 3df9 8af7 a8e7 b3bf 710b 3028 d932 c2bf
00000590: 30b9 2076 2705 c5bf 4682 ee4f 504f c7bf
000005a0: 22d9 ae74 f377 c2bf f645 9925 d31d be3f
000005b0: 5283 7b32 8649 74bf 3f36 c463 d044 c23f
000005c0: b039 5b5e ccfb c3bf a8a4 3113 b173 d0bf
000005d0: 6771 4d03 c476 c23f 7fbb d6bb 3d98 d2bf
000005e0: 2567 9ffb 577a ce3f 660a 3545 2c06 b63f
000005f0: 22c7 4b19 8be0 d43f 43f6 a11c 8bbc 90bf
00000600: 3c85 29c3 8145 a23f 6331 b7ba 4d8f d43f
00000610: fccb a880 98a3 c1bf 7bd5 61b4 6c1e d13f
00000620: b74d f006 b83c 9cbf f783 8a84 a5b0 b33f
00000630: 4524 1d53 392e c8bf ce1a 74d2 0ac2 d93f
00000640: 5b93 b3d0 4c59 92bf e6d4 71c2 e660 a13f
00000650: de66 b00e daed c2bf ccb1 7705 5331 bd3f
00000660: 3fca cfd8 6d1f 55bf 8bdf c232 e9c7 d13f
00000670: 4f46 d0a0 66a3 cebf 27e4 f7d7 fef8 d3bf
00000680: d4d9 a094 3d78 cfbf c0cb 14a3 46e3 d53f
00000690: 0e37 4f82 1fd7 bdbf 1156 b32d 6cc3 cc3f
000006a0: 55f3 7634 2bbd d53f 68dc f0e0 8430 bebf
000006b0: 5aba 8176 c772 d13f d6a5 e125 d29e b0bf
000006c0: fe27 8b5e dbad c03f 99f9 442d 3e53 b3bf
000006d0: fda4 af80 a4b0 c13f cc3d 82c6 39e2 c5bf
000006e0: b848 06a7 b6b7 cebf 3dea 1fb1 0cd2 c0bf
000006f0: 7675 6056 dae0 b8bf 5d15 6f39 6378 d6bf
00000700: 2780 cb41 ccd7 c1bf 01aa 4c03 79b7 c3bf
00000710: 5cba bbe2 1be9 c13f 1fb2 cd54 2606 d13f
00000720: 7073 789d 78ce d03f b0f6 64d7 de1d c3bf
00000730: a945 f458 5888 a93f 6660 4e8b bab3 c73f
00000740: 92a0 3fd3 5d86 b63f d65e d66b a607 bb3f
00000750: f8d0 9937 30f6 d4bf 8ab9 386a 6031 b1bf
00000760: c86d cf07 5b93 d3bf f7d4 4f1c 0a6e babf
00000770: 4a23 35e2 2170 cbbf b550 7a12 e0f3 c73f
00000780: a5a3 3200 7178 c03f 33c1 cbb1 1293 d4bf
00000790: 9a8f 4f06 09ce d1bf de38 c6cc da42 ca3f
000007a0: fcfe 18fd 2f60 c63f 47bc 95c2 5118 cb3f
000007b0: aadb eb94 9bab 923f 1652 7118 7184 cabf
000007c0: 7256 b58e 989b c5bf 68f3 3fdd 90b8 bebf
000007d0: bf69 d700 4c11 e03f ffcb d009 8d94 a5bf
000007e0: 84c7 043c 7296 b43f 6315 4cfb 5911 853f
000007f0: 2957 0da2 a25b b53f 1f55 d1fe 34eb b8bf
-0.05033153037368914 0.07529996678969691 -0.22778929805058717 -0.3358175532468479 -0.13079700056283033 0.2453106396420841 0.37137445337726516 -0.2676022487913546
-0.05997722085944838 -0.2685776400741265 0.2443113139328144 -0.28019875973905145 -0.10812018051207972 -0.25361899368383006 0.22715962120607153 -0.24586019175871832
0.2126416466540901 0.3477780079979121 -0.11580810127425256 -0.31323747302310057 0.2901789233592297 0.27732483352996445 -0.2198124167226749 0.13911029061219934
-0.29846109326375453 -0.0038154859822015683 -0.09364884144911909 -0.3460791416869753 -0.17215035265034243 -0.07271921902232918 -0.19979413284282005 0.11553608419917105
0.326117504101281 -0.26182554554568244 0.3712979738354267 0.2142252977615974 -0.2125240358223404 -0.22244765057883475 0.346414469125219 -0.01108897009826384
0.07198498889769453 0.05930359852191525 -0.03284044010449232 0.1488566007605334 -0.12615544461494083 0.2528071891972107 -0.24563918157181636 -0.04680707369532728
-0.07002090461992669 0.14580042894561185 0.0424758469042314 0.014976197392005465 -0.2054026495170018 -0.047882308506761756 0.1334130458258043 -0.2429628074999174
0.3215970250291678 -0.2926046764396717 -0.3431384966204292 0.08050269164955702 0.1064294679532317 -0.2632413211720939 -0.40365589497254484 0.0655639544507075
0.3518946987406121 -0.15225794983409302 0.2207673230948175 -0.1694412288277319 -0.2117509394668595 -0.17006266630849615 -0.08037137153107768 -0.08778579225906886
0.16456503289345054 0.21644219556477748 0.1828371589610063 0.2443416118550142 0.2566303840853618 -0.28155215955336405 0.04553501204470515 0.265448254049077
-0.2987272800728952 0.31719895773584406 -0.03366754369071518 0.10946346456048575 0.0299708908789958 0.2146099922016821 0.2880710365263471 -0.06706731498346677
-0.2629466894115387 0.22405522312295767 -0.19300332660964953 0.12417525810983739 -0.22698328417000468 -0.13305128696167373 0.30221974814035174 -0.25824295358752797
0.2836552362142838 0.08792579589168889 0.33376559200848166 -0.2144315954954693 -0.3865384399878745 0.06791704083331578 -0.17223830584638403 0.01668203818249442
0.20163375737367473 -0.10787555032431327 0.08587296974080895 0.21295671986885442 0.26450720165632496 -0.24047632142286401 0.14348980585808424 0.044356621704396734
0.1735457276858893 0.16058054924718773 -0.24238532930062223 0.10815185250731102 0.15737835644036094 0.23602585731244077 -0.12847689301149504 0.06323010113935541
0.06296473753769365 -0.1927481652488462 -0.2498758511914302 0.22611486374833312 -0.1363691070291214 0.1540019229211189 -0.2016211528796267 -0.13220381254687188
0.17906590651792278 0.1752415016417803 0.31989735193656854 -0.24677386204875804 -0.1511001965383801 0.4010280981567046 -0.08991117472662 -0.19981231143963604
0.13528405042669067 0.08986257422504272 -0.1568313174921595 0.4160319881393843 -0.35277365119015486 0.11388822337151021 -0.004052554537231818 0.02426210895299885
0.49149869142097435 0.23571160659195875 0.22096074718154027 -0.16120820369363204 0.09086554100934696 0.10750143915809345 -0.03923971843867959 0.2835806119078214
0.10345286367434843 -0.015580339441118859 -0.08554956533499543 -0.23934063524190316 0.1325734840117504 0.1219373677202975 0.3035029799664787 0.3122754616291197
0.12249718861029434 0.006801719068219207 0.22402873905053167 -0.3335882938066617 0.26949468329933407 0.15950604308375277 0.22318148111277172 0.12524719714946708
-0.16286580513185858 0.2789318101362753 0.08823844728136378 -0.03165481055583825 0.21520508510646696 0.12372008860398302 -0.25989707460791484 -0.07326551189460889
-0.07775360148932449 -0.1421767660359268 -0.16421979206047288 -0.1821079626361259 -0.14428561398899215 0.11764259021699516 -0.004952930648614311 0.14272503730210137
-0.1561217747425423 -0.25706126093298076 0.14424944077735377 -0.2905420622218386 0.23810863291037623 0.08603169145229969 0.32620503874123774 -0.016344236013983836
0.03568654544211333 0.32124655946679165 -0.1378050449580711 0.2674819718880241 -0.02757537405348184 0.076914162501012 -0.18891064222614964 0.40246840049841814
-0.017918777692915593 0.03394242404548624 -0.14788366048087814 0.1140338791225936 -0.0012892315601190777 0.277826594897754 -0.23936159946656452 -0.31207247820526834
-0.24585695035211919 0.3419968216505218 -0.11656376773245489 0.22471382361861506 0.3396709453916647 -0.1179278420612363 0.2726305634777525 -0.06492341446723712
0.13030569187532132 -0.07548893552027493 0.13820320399762656 -0.170966360023597 -0.23998149066443886 -0.1314102043978255 -0.09718098267372519 -0.35109787567883705
-0.13939812863009246 -0.15403664265734565 0.13992641993486898 0.26600034982291904 0.2626019990728343 -0.1493490745287338 0.04986835561625053 0.1851723842817165
0.08798777015147355 0.10558548100231788 -0.32752614431161886 -0.06715967744160004 -0.30586887133332796 -0.10324156943518746 -0.2143595079926633 0.1871299829696277
0.12867558011683147 -0.32147662508852476 -0.2782003938320884 0.20516524313683865 0.1748104081943821 0.21167966843811056 0.01823275658076865 -0.2071668023442192
-0.16881091087514083 -0.12000375177008282 0.5021114365038598 -0.04214897866076938 0.08042062726306481 0.01028700159214208 0.08342949348783847 -0.09733897420058611

linears.2.bias f8 [30]
00000000: 57a6 95fd 8b5e b4bf 867b cfca 1495 a6bf
00000010: a1a3 8bf3 84ac 8bbf a82e 4fe6 9cd6 a9bf
00000020: bd26 6f47 f9ab 993f 1543 4baf 5b94 a3bf
00000030: 8a6c 8aeb 0301 a8bf 4c91 e0e2 94ec 55bf
00000040: 6d12 7bf3 9048 8c3f 1b57 1b61 9e4c 923f
00000050: 03dd ec65 6658 9bbf b3dd de54 bf6a acbf
00000060: aa6b bdda 962e b2bf 3524 6dff bfbf a63f
00000070: 3838 e490 b06b 96bf 0a82 37f9 e2ed 703f
00000080: d2a6 6793 04ec a3bf 22b6 1954 8fa8 8c3f
00000090: d660 9ff8 f49d 8abf e576 6927 89d0 49bf
000000a0: b656 e98b 0a9b 993f 0876 3909 e520 98bf
000000b0: 9c17 36d1 9702 b5bf c3ed 2d5a eada 9fbf
000000c0: f771 cf22 2388 a2bf 0d96 96ef 170c 9c3f
000000d0: eb27 98a6 6b99 a1bf 3e0f ab8f e559 a03f
000000e0: 631e 9e5c d472 acbf 60dd 8e1a a890 b13f
-0.07956767025975729 -0.044106149441851136 -0.013512648279588481 -0.05046549140351192 0.025070090279575952 -0.03824125780886881 -0.04688274622204698 -0.0013381437270335193
0.013810284071390922 0.01787040202801569 -0.02670440671064701 -0.05550191794412331 -0.07102339592294862 0.044431686334583644 -0.021895178645586294 0.004133116355177888
-0.03891004847885217 0.013993377450982673 -0.012996591412886376 -0.0007877988526378803 0.02500549773170376 -0.02356298321534747 -0.0820708165902872 -0.031108533624758083
-0.036194894789989655 0.02738988303976524 -0.03437363060591266 0.031935857570287926 -0.05556357985102236 0.06861353538885373

linears.3.weight f8 [30, 30]
00000000: bc5e 9d5c b1c7 a2bf a340 c7bc ad5e c83f
00000010: c18b 1a45 0575 c73f 1c26 bc37 39ed bdbf
00000020: 2d1d c667 da6e cebf f751 ffe9 6279 d63f
00000030: 365a 07bb 43a2 cb3f 8899 c71e f898 c2bf
00000040: b9f5 b67c d5ba d0bf 159a 6e90 0e46 dabf
00000050: 0e77 1ecc dd9d cbbf fe4c e9ff fc0a c13f
00000060: 55a3 f2ac 981e ca3f 84bc fe19 cf83 a5bf
00000070: 82f3 b737 89cf d03f bd4b 3dd7 1825 dbbf
00000080: fdd5 ae1a 259a c4bf bdb1 23b4 9d8c d43f
00000090: 4ba0 811a 350e c7bf f7fa 31ff cdae d53f
000000a0: b989 dff8 55a1 b8bf 2fd1 d86b fb28 d93f
000000b0: be03 103a 9e28 b4bf 6305 203c e86f b33f
000000c0: d47f 8421 1f69 ba3f 867d 459f 434f c8bf
000000d0: c560 9a98 27d4 c2bf 71ec 279a d877 b33f
000000e0: 08a8 cb73 1c18 d63f 2ab7 f81e 9c30 7a3f
000000f0: 8d04 5c86 0599 c6bf 9215 0e69 eabf c03f
00000100: 18dc 0273 041e d3bf 26ec 53f2 7708 cebf
00000110: 28b0 fc11 07bf d0bf 6945 c074 7a76 c0bf
00000120: b5a1 1016 fad1 c4bf c58e 5d43 2f6d c63f
00000130: 5397 bac2 3cdb 8abf 0c44 70e5 8265 c33f
00000140: c6ee 615f d12a bdbf 246f 61e6 4127 d2bf
00000150: 1e27 3c84 c552 913f 8b68 6071 b5e6 b5bf
00000160: 70cb 8b99 a970 d4bf 5d3b ce4b 3981 a3bf
00000170: ba6e 59fd f645 d2bf a10c efdd 3879 d0bf
00000180: b32a f487 f599 d8bf 3add 7aeb 2a18 b4bf
00000190: 8ad3 c7f1 c63f d73f d923 d66b c53b b2bf
000001a0: e9d7 4fe8 feee 793f c735 6880 97ef d7bf
000001b0: cdcd 0c26 9c89 cfbf 33df 5c2a a31e bebf
000001c0: 0a7f 7017 c535 cbbf c81b cb7c d14d 883f
000001d0: 4923 6860 8b8c d7bf 653d 277d 1c72 d23f
000001e0: b51c 95f5 2328 633f b354 f519 0c33 ca3f
000001f0: b5d2 a9ed 7cf8 d5bf 83a3 7889 3ff3 b23f
00000200: 1b51 3760 d1e0 c5bf 16b4 cb16 2f27 b9bf
00000210: 19a6 4d88 c188 cabf eb92 c81a bdc4 ae3f
00000220: 83d5 1f72 f0d0 e1bf e55a e66e aea5 dabf
00000230: 02a6 6fde a465 c23f 5857 58db 44f5 d3bf
00000240: cff2 d32e d4cb c5bf 8d20 2451 217d b53f
00000250: edb7 0e58 66e9 aa3f d5db 83d9 9fab d9bf
00000260: 6f1b eab0 fbc2 d4bf 1370 e549 4c0f b43f
00000270: 6b8d 817a 5cb9 d03f 89bb 40cb 7abe ab3f
00000280: a54a f639 0127 debf 8db7 ed5b d45d d13f
00000290: f796 8749 a9ce ddbf 93b9 cd6a 7107 b53f
000002a0: 32e1 f7ac ee2f c3bf 58b1 8122 df04 96bf
000002b0: ad75 435d f77f ad3f b69a 5e90 6e0f b03f
000002c0: f851 c96b 1e5c b23f c0e7 22f9 8440 c93f
000002d0: a74c 80c5 2f81 cfbf faa3 cc47 5667 d1bf
000002e0: 5e13 9cc7 c856 bfbf 9f1b cfaa c2a7 c03f
000002f0: 045d 2e00 44eb a83f e5fb b012 0561 d8bf
00000300: 4b0a 2422 82ef cebf 8dad f7e1 51b4 c73f
00000310: e5f1 bbf7 4b72 db3f a13d 7ae7 0e7d d13f
00000320: 03bb 85a0 42e7 ca3f bc34 a6f0 4dd1 a5bf
00000330: 2d09 d68b 41c5 d3bf 4339 9ede 19bd b43f
00000340: c23e 65c4 9f80 ca3f 39c0 1cc6 3f18 91bf
00000350: e872 60b1 5530 9a3f e1cf 0f88 a00a cbbf
00000360: e478 9a63 fae6 d6bf b742 6300 4072 c9bf
00000370: f8c6 eb0d 7c80 dc3f 94bc 65fb 0e85 793f
00000380: aa8d 5804 9caa bfbf 0729 1ba4 b70d 963f
00000390: 3ae0 ccf9 9f37 bebf ba6d 6b14 0d9c c5bf
000003a0: 7d60 c20c eb9e d1bf 5d35 d7f9 ea95 d13f
000003b0: 9d3e 5096 8190 b13f a4df 5bee 83ff c9bf
000003c0: 679b a88d fdf6 c8bf 7fe1 767b 8bf1 cebf
000003d0: fe57 e895 c864 c13f 1909 8582 6010 c3bf
000003e0: b3d6 b941 e317 cbbf b8fb abb5 d6c9 c6bf
000003f0: 8355 2377 6c75 d0bf cc2c 319c 99b0 9e3f
00000400: 25f9 1a07 0be6 a33f 604a be83 8bd5 ddbf
00000410: eb39 af11 5b0d d13f 094f 71d3 51c6 c6bf
00000420: 343a 378c 949f c9bf 0878 4a00 72a0 76bf
00000430: 7a4c 36c5 f0b1 d73f 99fe f1f4 aef2 e0bf
00000440: fa39 4c05 a67b d13f 4636 9a64 94e8 c63f
00000450: 07ed ca2f 27bd cd3f d8f3 d307 ba63 d93f
00000460: 598b e3bc 4701 e6bf 1c98 aceb 4ef7 e23f
00000470: 09bb 97c3 6721 b83f df7b 724f 6ea5 d23f
00000480: 1e97 b5ee 7964 93bf 00f3 a5e9 66aa d5bf
00000490: 35f1 64a6 746b d53f db5a a2f2 6a87 bbbf
000004a0: 977f e48a 1d79 d73f 9c94 a7ee 1a10 d4bf
000004b0: 63d9 9ea5 6309 c03f 31e4 c93e ba7c cc3f
000004c0: c7ea 2728 7383 cfbf ba0e 199a 167b c33f
000004d0: 7b99 e61f cbf5 dfbf 58e3 d174 6422 c5bf
000004e0: d7eb 2c7c 4671 863f 474d 2db2 f3cd c0bf
000004f0: 01dc ff84 af4d cebf 23c4 f46a 6e0b d7bf
00000500: e182 fea6 81eb cb3f 47a8 ca91 9ab4 c93f
00000510: 6646 22bd 9984 a3bf 1099 0796 2967 c83f
00000520: 2a9e 0a9f 6da7 a2bf ecac 6748 0acb e3bf
00000530: fbe3 0a7d e13a 6fbf 6192 971b 445d bf3f
00000540: 2cd7 e317 b3be bbbf 50f4 807f 2bc3 e43f
00000550: 8a84 4923 a637 d7bf c9a6 1878 1906 bf3f
00000560: 256a 9d40 dd0a dbbf db37 921b e051 c9bf
00000570: 07ff 04fd 496e c53f 91d2 7178 b4b5 c0bf
00000580: 4010 f280 7159 c03f 0a70 db1e ecfd ce3f
00000590: d926 bb87 11dd c4bf 2620 4dbe cad4 cc3f
000005a0: 9b4f 2d09 6651 99bf e708 1f47 4459 6ebf
000005b0: 335f d755 1eae d03f 5e27 7e07 15a0 c13f
000005c0: 4a7d 1a7a 509e c03f c2f8 22d7 a8bf a63f
000005d0: b9c8 f873 e547 da3f e9ad d464 13c2 c8bf
000005e0: 767e 5f4e 2f3c b53f 3c7f 0b79 e3d8 dd3f
000005f0: 9aa3 b73f e905 c53f 5ab0 89fb 1bbf babf
00000600: 2e78 5509 254b d2bf 4444 129c 2554 c0bf
00000610: 4310 4cff d111 b33f e765 58bd 01da e43f
00000620: 5bf3 05c5 032d d03f e315 379e 140d acbf
00000630: eb7f be35 8a29 d4bf 1456 7196 c056 dcbf
00000640: ac7f 74df 9b32 d63f 6f04 6b18 e236 cdbf
00000650: 4501 609b 9d89 d73f 4b27 0004 1cff b03f
00000660: b292 bea3 e22e b4bf 2319 2caa be82 c7bf
00000670: 8a0d 2b9d f9eb bf3f ab6e b11b 415d c3bf
00000680: 1c86 26c3 1e2f 99bf c188 e1f6 c57d 91bf
00000690: ed55 8dfa f46c bd3f f3da 502d 13e7 d9bf
000006a0: 1e8e e1b7 94cb c63f f470 4f75 1619 cabf
000006b0: bf09 b9bf 200d 8d3f a272 c78d 59c3 b5bf
000006c0: a073 9ad4 2338 a23f a34d acc6 9842 ccbf
000006d0: 6715 118d 9c6b c53f a1a8 b037 4420 84bf
000006e0: 5167 69e0 9282 c4bf 223a c323 4217 d0bf
000006f0: 438b 502c 0689 c9bf 5d4c cad9 8453 b4bf
00000700: d252 1ef2 e02c d03f db31 60ce 2726 c63f
00000710: 5e54 7251 b5d2 a9bf 3369 165d a471 b33f
00000720: 5a4f bb23 dd5a d1bf bbbf 00b3 d2a3 c23f
00000730: dc50 ff1d e56d 91bf 974e 0158 21d9 b6bf
00000740: c6c8 34e7 203e c5bf b89c e167 f10f c4bf
00000750: 474b 97e2 1e82 c7bf 136e 3891 d277 863f
00000760: 1a1d 0c96 9774 d1bf c99c 1830 030f ca3f
00000770: f343 bfa6 ee3b d5bf 362c 07b3 91b4 b13f
00000780: 620c ee0c ca9b bcbf 826a b716 a807 bebf
00000790: 7474 444a 8df7 bdbf 0651 ed92 a560 cb3f
000007a0: cb16 735f a52c b6bf f1b1 bef5 49c7 d3bf
000007b0: 2938 d29f 7673 d33f 88ee 6489 354d d2bf
000007c0: 717d 528e 2a9b da3f 0763 3fcd bc08 a63f
000007d0: cbc9 91fe c749 95bf df52 7543 0a05 7a3f
000007e0: dbd3 360f 676f d2bf 8b29 273a db06 cf3f
000007f0: 47ee 91ef b493 ccbf 1660 3314 579c d83f
-0.036679785304554596 0.19038936345760246 0.1832586848659883 -0.1169009934493705 -0.23775796954235187 0.3511588368540112 0.21588942177068454 -0.145293250111717
-0.26140343836945196 -0.4105259333104255 -0.21575520006893395 0.13314783569021665 0.20405872769085912 -0.04202124779055175 0.2626669925810391 -0.424139223284495
-0.16095413020018148 0.32108252135983745 -0.18012107652907824 0.33879423066529973 -0.09621178937917464 0.3931263497536461 -0.07874478261511705 0.07592631786248698
0.10316652839946922 -0.18991894986082175 -0.1470994467861201 0.07604745639393841 0.3452216273132085 0.006394014213169355 -0.1765448480655646 0.13085680131568417
-0.29870711547431616 -0.23463343937314213 -0.26165940052556147 -0.12861567211852368 -0.16265798642531384 0.1752070502217206 -0.013113474552777815 0.1515353794389117
-0.11393459871936348 -0.2836460828600471 0.016917310901624842 -0.08555158632262498 -0.31937637324079216 -0.03809527445183989 -0.285520312701674 -0.2573988120386251
-0.3843969180749511 -0.07849376915952613 0.3632676468981165 -0.07122453577734635 0.006331439716623402 -0.3739985231375979 -0.24638702257071401 -0.1176549890923269
-0.2125784267855056 0.011867176648037062 -0.3679531518433135 0.2882148000907903 0.0023384764032559854 0.20468283908363602 -0.3432915039950715 0.0740241728423268
-0.1709233970456204 -0.09825414949928332 -0.20729846148906075 0.06009474708506509 -0.5567552784911388 -0.4163623888975237 0.1437269292940045 -0.3118450300256561
-0.170282862534711 0.08394058447822968 0.052561949013906296 -0.40110012284952506 -0.3244008281403045 0.07835842899424987 0.2613135525081904 0.05418761950601609
-0.4711306634937194 0.2713518998851832 -0.4657386034071886 0.08214482171545105 -0.14990027852742 -0.021502958756557916 0.05761693013640055 0.06273547196051762
0.07171812182907178 0.19728147663937357 -0.24612996238338278 -0.27193219195993346 -0.12241797326357814 0.13011964168819376 0.04866993429384972 -0.38092161965681576
-0.24168421427755712 0.1851904252392668 0.4288511199263481 0.27325794797158137 0.2101825031090457 -0.042612491251114076 -0.30891455322138733 0.08101045308123837
0.20705029573081474 -0.016694065539184264 0.02557500739213739 -0.2112618126262751 -0.357847783345177 -0.19879913348133524 0.4453420768687546 0.00623041012145999
-0.12369704347707136 0.021536702529183518 -0.11803626869812059 -0.16882480141690143 -0.27532459493659883 0.2747752609110046 0.0686112396217546 -0.20311020983330963
-0.19503755013394228 -0.2417463639119539 0.13588816947657273 -0.14893728611975446 -0.21166649541162527 -0.17803462858861763 -0.2571669734437238 0.02997055068798886
0.03886446439490702 -0.4661587511592753 0.26644016959190137 -0.17792723488184262 -0.20018250318976671 -0.00552410632795209 0.3702356267833192 -0.5296244415366856
0.273171906636804 0.17897276794649225 0.23233499368311802 0.39671183361479967 -0.6876562775836234 0.5926889994632378 0.09425972485744806 0.29134710081592446
-0.018937974161779107 -0.338525512859448 0.3346835732406988 -0.10753506110846038 0.36676729739883157 -0.3134829836474837 0.12528653704584788 0.22255638185359453
-0.2461990305017336 0.15219385647116274 -0.49937704196272364 -0.16511207298369857 0.010958243050131529 -0.1312851543430986 -0.23674577707399183 -0.3600727123730982
0.218124586620454 0.20082409018260902 -0.038121036851532605 0.19064826799076018 -0.03643362585472361 -0.6185351766738711 -0.003812256247638588 0.12251687692293835
-0.10837859471561434 0.648824452429503 -0.3627715439416269 0.12118682081259204 -0.4225381022457973 -0.19781113954780846 0.16742825369328093 -0.13054519539914058
0.1277295951477999 0.24212409502695237 -0.1629964745282482 0.22524389545492446 -0.024724573431128865 -0.003704675059425278 0.2606273496908102 0.13769781938418196
0.12983137094577507 0.04443099619082737 0.4106382019555315 -0.19342272208574166 0.08294959700969592 0.46636282749931346 0.16424289332578895 -0.1044785966020653
-0.285836466899016 -0.12756795998260106 0.07449066622581406 0.6516121576452719 0.2527474807791827 -0.054787296594024835 -0.31503539322329627 -0.44279493991538854
0.34683892080101475 -0.22823740188872274 0.367774392827432 0.06639266107245338 -0.07884041307131431 -0.18367751416389763 0.124694443579804 -0.15128339626504803
-0.02459381166557338 -0.017081349557323437 0.11494380108828013 -0.40472869325041855 0.1780877969605265 -0.20389061668436848 0.014185195780673674 -0.08501205169108997
0.03558456392531828 -0.22078237248261443 0.16734654319786132 -0.009827168416525036 -0.16023479421238077 -0.2514195775264928 -0.1994941440944676 -0.07939939801353675
0.2527391781270981 0.1730394132322449 -0.050435701553546805 0.07595278999943815 -0.27117088784620125 0.14562448253991342 -0.017020778613940787 -0.08925064467012543
-0.16595851220478702 -0.1567365414841555 -0.18365846694958973 0.010970730835700803 -0.27274121907289983 0.20358314369625521 -0.3317829731359431 0.06916151638795118
-0.11175215545340358 -0.11730433039284985 -0.11705859244507782 0.21388692545100002 -0.08661874370872195 -0.30903862951779987 0.303922325206147 -0.2859624711743227
0.41572059534697475 0.04303541188682485 -0.020789265549362484 0.006352462856132417 -0.2880494736266976 0.24239673938275205 -0.22325765321498833 0.3845422456047357

linears.3.bias f8 [30]
00000000: b542 0afc b9f0 a1bf 7328 a2c5 66be a63f
00000010: f687 2c1a 80c7 a13f 0fa4 d859 7830 ac3f
00000020: ab23 40c1 f30a 8fbf f083 9c16 2bd5 99bf
00000030: aa4c 3b72 dd6a 963f c66b 131b ce70 af3f
00000040: 448b 6f21 f565 a33f e8e1 0cf1 994c b03f
00000050: d5eb f3c0 79aa a23f 6923 f88a d535 b5bf
00000060: 2118 21a2 2592 b2bf 9f70 be29 4b48 9b3f
00000070: 830d d6f6 b3fa a4bf cce0 2dbd 7dcf 82bf
00000080: 4a83 88f7 524e a43f 3e37 9cc8 5690 b5bf
00000090: 460b 038e 77f8 c4bf 5e3d 9746 bf72 c1bf
000000a0: 5f57 883e c998 ab3f 65a4 56e1 6f09 b1bf
000000b0: 6e8f 37ba fe95 94bf a56a 8f56 97ef b63f
000000c0: ada7 4677 946d a5bf 83fd fe64 a5fe 94bf
000000d0: a3d7 986b 1799 ac3f 3086 dd16 ad83 a63f
000000e0: 9569 04cf 2d88 adbf 8319 1b5e 44e6 9bbf
-0.03503972245846879 0.04442139780538037 0.03472519225603314 0.05505729767566702 -0.015157608351744253 -0.025227235083665478 0.021892032715936573 0.0614075096179572
0.0378872493090712 0.06366884360330227 0.03645687561398573 -0.08285269396595897 -0.07254252632364501 0.026642965720029662 -0.040975211984029 -0.009184820495406497
0.03966006538053664 -0.08423368833265685 -0.1638326114098964 -0.13631430575194775 0.05390004051530072 -0.06655024768282798 -0.020103435626779236 0.08959337104117056
-0.04185165363317309 -0.020502647675809903 0.05585549534264025 0.04397335914724143 -0.057679587860735605 -0.027245586627736806

linears.4.weight f8 [3, 30]
00000000: b541 00e9 32ac d4bf caed 703c f29d d0bf
00000010: 28b0 65df e148 d3bf 5888 f83c 8f3d cebf
00000020: d7ed b2e1 ff5a b0bf 17cf a4bf d991 ce3f
00000030: f897 bc17 b10f d5bf f4cc c962 ccf7 c53f
00000040: 39f3 5c82 c055 b73f 7215 243d 7194 d0bf
00000050: 0fd1 3cd1 3a27 d23f ce1b 3f64 ea95 dabf
00000060: c595 3927 d905 c03f 288e 5c6f 50fb c73f
00000070: d6df 327c 05dc c2bf 9071 b2e6 9b7f d4bf
00000080: 696b 7ac4 ab55 b8bf ab45 0e34 9438 cf3f
00000090: e7d8 4acc 5adb dabf ad81 138c f79f ddbf
000000a0: 0962 f66a 3282 d2bf 469e e9ff c0e6 d33f
000000b0: cf48 e743 04d4 d13f f446 b734 1762 d13f
000000c0: 8397 36f7 f341 b33f 942d ef8c 3525 d5bf
000000d0: 16bc 9bcf ed00 a23f 6695 5473 3512 c33f
000000e0: cb7b b6a1 7c20 cf3f 69fd 922d e0fa d03f
000000f0: 0bd9 b872 4349 c4bf e091 16d9 e8e3 603f
00000100: 85b0 c00b dac0 cc3f 97ac ba3d 5504 d23f
00000110: 8d91 f8a3 0b49 ca3f 917c f7a6 cb3f d13f
00000120: add7 d81a c6d5 d1bf 9d40 07c3 d17e e13f
00000130: 78ca 81f4 a508 a7bf 6299 11d8 192d c2bf
00000140: 6480 6e55 445b c03f 23c2 9bf9 2b68 d23f
00000150: f923 e869 ef40 d7bf fbc2 3c46 1d71 c13f
00000160: ead2 a766 0600 dabf 7155 4b77 d533 bebf
00000170: 060b cdb3 8c06 d63f 113f f3c9 98e5 debf
00000180: 5bc3 1ef1 db7b d7bf e4a7 edba cdf3 d0bf
00000190: b6a2 1764 e99d c13f 69bb 37f3 3ac7 a13f
000001a0: 451c 63cf afc2 9f3f 8a6c 2f85 9179 d33f
000001b0: b200 5dce 14f9 c1bf a980 219c 665f b63f
000001c0: 4f42 f112 ee6d d83f 088b c77d 84f2 ce3f
000001d0: f6d4 7c2a 5900 e0bf e327 8a67 786b e2bf
000001e0: d247 432c a9f9 dbbf 6347 c766 cc77 de3f
000001f0: 0420 63ff 1dfe e1bf 7b14 c73c 57e6 da3f
00000200: a034 a420 d0d1 debf f095 9b1d be32 e2bf
00000210: 5ba3 57e9 6f8e e33f 21c1 3283 13d4 e63f
00000220: 2c43 af1f 2258 e53f e1f8 633a bcc6 e13f
00000230: aedb 513c c79f dd3f 3236 cf34 3dbb e6bf
00000240: b0ea 8338 9e77 e1bf 10f9 c346 cda7 dd3f
00000250: 8f2a 0647 d847 dabf 1f52 f093 818b e8bf
00000260: 62fc e0dd 2465 d83f 9405 47a1 17b9 d3bf
00000270: f249 0a14 2ed4 cdbf 1a2a 7b56 0e4f cebf
00000280: 2ccb fd1d 2743 e63f 6444 18a8 c4d9 e1bf
00000290: 3249 ddf9 d227 e5bf 72e0 392f d63e ea3f
000002a0: ab2a 4b91 7bfc e1bf fe84 7319 2425 df3f
000002b0: 97e5 0d68 81ba e13f e24d bb26 882b de3f
000002c0: da99 424d 63fc e5bf e4a4 5f35 cec8 c43f
-0.3230101848030487 -0.25964027311757987 -0.3013233834851712 -0.23625364758578615 -0.06388854274967258 0.23882600648504912 -0.3290827495387698 0.17162470649382267
0.09115222151463066 -0.2590602013663875 0.2836443942390056 -0.415400121590605 0.1251784745719943 0.18735700070929906 -0.1473395210684873 -0.32028863457687695
-0.0950572352107152 0.24391415159020133 -0.41963834715296716 -0.46288860968891293 -0.28919659085798394 0.3109591006418423 0.2785654700393367 0.27161197803535164
0.0752251127765629 -0.33039606822122747 0.03516333731919745 0.14899318820350088 0.24317891975530723 0.2653122372684807 -0.1584858236471479 0.0020618007481110062
0.22463536809789644 0.2815144636940174 0.20535417086024346 0.26951876931520596 -0.2786727201631674 0.5467308816096367 -0.04498785600380456 -0.1420013718627145
0.12778524562327498 0.287608140714868 -0.3633383306737979 0.13626447610433687 -0.40625152611691695 -0.1179784218068869 0.3441497569912574 -0.482763478486036
-0.36693476244822926 -0.26488059286805155 0.13763158213921195 0.03472313136068445 0.031016108544261085 0.3042949486386496 -0.14041385723431216 0.08739320098675542
0.3817095932945777 0.24177604810309838 -0.5000425176464478 -0.5756189367541505 -0.43711308786907666 0.4760619167037616 -0.5622701633483307 0.42030888495748514
-0.4815559691204019 -0.5686941698338028 0.6111373479335315 0.7133882105318073 0.6670084589805803 0.5555096760215542 0.4628770913181438 -0.7103563338693617
-0.5458518127264451 0.4633668128079913 -0.4106350606531714 -0.767029560988309 0.3811733404908805 -0.3081721377348796 -0.2330377195217604 -0.23678759787283427
0.695697363449971 -0.5578330309964596 -0.6611113433994318 0.8201704904922862 -0.5620706403509151 0.4866419075534195 0.5540167839346165 0.47140697271717447
-0.6870590695369245 0.1623780975926713

linears.4.bias f8 [3]
00000000: 2e96 7392 37d4 b93f d83a 45e4 6754 b73f
00000010: 39c7 37cb f3c6 cd3f
0.10089442563511206 0.09113168070801281 0.23263404295681214

step f8 []
00000000: 0000 0000 0094 b140
4500.0

exp_avg f8 [30, 1]
00000000: 8042 c4fd ae9e fcbf 0133 c36a 4a36 51c0
00000010: 522b aa1a f9a9 f73f 427c 5f70 3144 2d40
00000020: 3f27 0bdb dd9e 1d40 42cb 981c 0151 0640
00000030: 3060 a499 d680 95c0 b244 dd50 8a41 63c0
00000040: aa58 9bba 79e7 30c0 968c 3c30 07b6 0640
00000050: 58ae 5ce9 0013 2140 2de2 6ca2 5574 1840
00000060: 5292 0194 2066 f8c0 87ac 565c 5037 01c0
00000070: a2c3 e2c4 8fef 49c0 a9ea b490 b83f 33c0
00000080: 7ab2 66d5 1fd8 fcbf 8682 914b 74dd 2140
00000090: 0ffa bcb7 7ca6 2440 e398 405b 9475 f53f
000000a0: 8aab 0fcf cf12 35c0 7345 717c e762 64c1
000000b0: 128d 121d d810 15c0 7456 f6ba f13c 4e40
000000c0: 3f46 39aa 2903 e8c0 f270 3a52 4f0e 1340
000000d0: effb 4755 9076 8dc0 861c 2164 d991 0f40
000000e0: 6f7e d911 7916 1a40 6ac6 aeb2 cabd 32c0
-1.7887411034354557 -68.84829205572534 1.478997329863621 14.6331896893081 7.405143187099212 2.7895529016617795 -1376.209570473071 -154.04813426224206
-16.90420118610988 2.838880898330511 8.537116329730608 6.113607919593545 -99938.03613431126 -2.1520087446165834 -51.87157498428793 -19.248909992379286
-1.8027647338850827 8.932527886879381 10.325170270746666 1.3412059368652585 -21.07348341114588 -10688315.888827061 -5.266449407822863 60.476127023965915
-49177.30202926369 4.763974461380927 -942.8204751609572 3.946215421925049 6.521946219348691 -18.741374175710384

exp_avg_sq f8 [30, 1]
00000000: 8be0 3345 16b3 4141 b17d be6a cdd8 5d41
00000010: 0468 75ae 7a93 f341 2f50 793a 40eb 2d41
00000020: b699 4cff 3a24 3641 21db 1106 79d7 2241
00000030: c919 a66e 0342 5341 a9c7 3437 d49b 1542
00000040: 30cc a78b b877 6141 910b 956a a3c6 2141
00000050: c58b 56d6 ad83 3b41 9af9 95db 6855 4041
00000060: 06cc 5805 7307 1943 7779 28e7 bcf8 2a41
00000070: 21f0 605d 4d2f 5d41 2bdc 5112 38a7 3e41
00000080: d029 ec8a e5c6 3641 2c3a 4336 6e82 5141
00000090: cfcf a8f3 4491 3e41 55cc 1a49 c638 1041
000000a0: 8dfe 5007 e60f 3141 5465 ffe7 c1e8 b243
000000b0: cc6a 1fb4 219c c041 fb9c da0b 8044 4041
000000c0: 29b0 0eed b6c5 0143 cf07 6edb 3a2e 1541
000000d0: 9eef c480 0492 3f41 fa0a 8a02 39c9 2941
000000e0: 6a56 2534 c843 2641 aaeb 54c9 a8df 3341
2319916.540645664 7824181.667876647 5254916839.337894 980384.1142067964 1451066.9972625799 617404.5118549803 5048333.728887984 23202172365.19498
9158084.364233106 582481.7081683745 1803181.8372580868 2140881.715514374 1761266252526337.5 883806.4514806707 7650613.459041626 2008888.071561585
1492709.5426660664 4590008.847853225 2003268.951794613 265777.5713912894 1118182.0285796255 1.362552089446012e+18 557335400.2454467 2132224.0926090456
625308006995461.1 347022.71428692056 2068996.503005005 844956.5049594336 729572.1018473629 1302440.786452035

step f8 []
00000000: 0000 0000 0094 b140
4500.0

exp_avg f8 [30]
00000000: 16c3 2fb6 2a71 02c0 75b1 aa35 105d 39c0
00000010: 4585 b612 b406 5040 9d52 6789 dd81 3040
00000020: 582f 8eb9 3a1a 3140 e8ca 1967 99a6 ed3f
00000030: 1afe 43c1 d343 5340 cfaf 9f77 19cf 1940
00000040: 7a12 17eb 0d56 edbf 2e1c 0490 c582 1340
00000050: 5474 ce7d 7afc 2940 779c 8fd5 c955 2b40
00000060: 9882 6cf3 36a0 85c0 47dd 9fef 34ab 13c0
00000070: 9226 6bd3 e238 47c0 4b5a 0d8f 9035 41c0
00000080: 0992 f561 d1ca 1dc0 0a4d 18a5 3c09 2f40
00000090: 6b90 0d75 e602 3140 4b6d d140 1c95 2f40
000000a0: eda3 6365 3b76 43c0 6e43 9e02 b5d0 c640
000000b0: 458b 2b1e fad2 1340 cb7e 98ae 1c6d 4240
000000c0: fc7d b2ae b749 5fc0 fa5c 4856 12de 2240
000000d0: 0093 a786 a125 4c40 9a6a bba9 9c1b 1640
000000e0: 4eba f3d6 8019 2d40 23e6 0aba efaf 36c0
-2.3052572472883055 -25.36352858941378 64.10474078964496 16.50728663227584 17.10245856972992 0.9265868200003213 77.05979949607755 6.452245587464815
-0.9167546836475389 4.877706766367778 12.993122035457567 13.667555497913993 -692.0268314816813 -4.917194122440669 -46.44442217571226 -34.418474084396244
-7.448064356435233 15.51804080888407 17.01132899838596 15.79123117977601 -38.923687623646266 11681.414142401623 4.956032248885838 36.85243780561503
-125.15183608466026 9.433733650525472 56.29399188215575 5.52696480947875 14.549811093570636 -22.68725168958748
