1D_supercritical_InverseProblem_C_initial_60/Models/Model.ckpt-18500.pt (torch, 82425 bytes, 43 tensors)

linears.0.weight f8 [30, 1]
0	0x3fb208db01374560	0.07044762401280513
1	0x3fe7d774f8aabb6c	0.7450508934760882
2	0xbf67b9c3c4cf42c4	-0.002896196709550077
3	0x3fc18addcf81dc69	0.13705036766234294
4	0xbfa759dbd9c167f1	-0.04560744317195987
5	0x3fdccb9ed05078c1	0.4499280008620979
6	0xbfebbb486c4f5dad	-0.8666116824560298
7	0x3ff4ee7ca4c6f353	1.308224338207954
8	0x3f94280206b2bce6	0.019683868082833643
9	0x3fe052e836ea10ba	0.5101204941315907
10	0x3fac90057f6c179f	0.055786296658012484
11	0xbfe92d1b7558f96a	-0.786756257242627
12	0x3fe3ac231df7c862	0.6147628388701032
13	0x3fe045f8157c296d	0.5085411471966786
14	0xbfe0efc99a84fe80	-0.5292709367713115
15	0x3f6550f221c1f17c	0.0026020745409011652
16	0x3fac9bb6e6ef85a5	0.05587550705946435
17	0xbf8c0222ad919020	-0.013675948068517185
18	0xbfb2ac8002c40ff9	-0.07294464175726025
19	0x3fba384655604f25	0.10242118439083166
20	0x3f6552b6fb938165	0.0026029180413475344
21	0xbfdd7252e92721f4	-0.4601027752765099
22	0x3fb0066396e42094	0.06259748872628484
23	0x3fdf9cc60e8d8989	0.49394370480708766
24	0x3fc0c2d95f66ef92	0.13094632299714398
25	0xbfa690677f50fdb5	-0.04407046727328227
26	0xbfe02fd3f40de0be	-0.5058383719142723
27	0xbfa690a94edf6e02	-0.044072428586982695
28	0x3fe16d29a5c6d75b	0.5445755231691963
29	0xbf93e6f9d6f07925	-0.019435790771347734

linears.0.bias f8 [30]
0	0xbfd2ce7cac69b7e5	-0.2938529666633925
1	0x3fc5c061a62b75d8	0.169933515679914
2	0x3fcb0a56105f8a88	0.21125293540452028
3	0xbfc22332d430eb65	-0.14169917450802952
4	0x3fd134e9aad32948	0.2688545387469685
5	0x3fe10a6983b3ef12	0.5325210163423171
6	0xbf9bd8447af22a78	-0.027192182544732962
7	0x3fd455054df07267	0.3176892529607244
8	0xbfd284b551a03a3d	-0.28934987040785015
9	0x3fe4e16b9711d36a	0.6525171232775453
10	0x3f8982dc82da872d	0.012456629508338668
11	0xbfd2620e98a52b64	-0.2872349253345219
12	0x3fb8dc26c64f515d	0.09710924474285805
13	0x3fc18bbf22cba5c7	0.13707722853659574
14	0xbfd0518c5a3176f3	-0.25497731025630727
15	0xbfe1ccdc9079e4c0	-0.5562575170325985
16	0xbfd1da982de123a6	-0.2789669464150911
17	0x3fc9d2e02d682ab6	0.20174791543134568
18	0x3fbb5f4a4e439797	0.10692276392691578
19	0xbfd6589aad9ed114	-0.3491579719077589
20	0xbfe4712ac07aab3f	-0.6388143309935471
21	0xbfcdbf5d12a193aa	-0.2324024525616129
22	0xbfb012bf865ca404	-0.06278607397383956
23	0x3fd843533a37e16c	0.37910919843081703
24	0x3fc78125ef785b44	0.18362878983381326
25	0x3fb3d2edb922caea	0.07743726510924956
26	0xbfb29aa334a87a81	-0.07267208133314719
27	0x3fd28e498167c1e4	0.2899345172618537
28	0xbfc4cc6c5c711b19	-0.16248850358734826
29	0x3fc468adaa156132	0.15944453053340052

linears.1.weight f8 [30, 30]
0	0xbfc9915d0a12eda6	-0.1997486399830965
1	0xbfb48a25f95de163	-0.0802329763226957
2	0xbfd1dd870c013146	-0.2791459672196378
3	0xbfc3d95241d13c16	-0.15506962026344756
4	0x3fc26881421d323d	0.14381423691010467
5	0xbfb69f26f2a2acc7	-0.0883659689304067
6	0xbfc520ab738b5b5a	-0.16505950109304984
7	0x3f9b6ae94db9df95	0.026775021904967018
8	0x3fc1255a768cd97c	0.1339524344309203
9	0xbfaa289c62edcdba	-0.051091086460384585
10	0xbfd244e69ae5077b	-0.2854553711550733
11	0x3fc2a2e0ab8bd048	0.14559563041950896
12	0xbfc24523e5212667	-0.1427349919124936
13	0xbfaf860e6b964c2e	-0.06156964362448779
14	0xbfb9e0316154944c	-0.10107716203909084
15	0x3fdbca248594abba	0.4342128090381113
16	0xbfb2e39553b08fdf	-0.07378514569478466
17	0x3fbebaec9f54e455	0.12003973855907309
18	0xbfbb73489ec0e893	-0.10722783923930228
19	0xbfd2fcbad8fd467e	-0.2966754073177994
20	0x3fdb7c7f1203912e	0.4294736553113293
21	0xbfcfa21c8d9a98d0	-0.2471347514558091
22	0xbfd3a9257d51fd95	-0.3071988796072785
23	0x3fbdc6d86c6ad288	0.1163153900805104
24	0x3fc0c71351830ae6	0.1310753009803058
25	0x3fa77fcfeb26468d	0.045897004561209355
26	0xbfc0a067d8139472	-0.12989519167527735
27	0xbfd1c960d448ecf8	-0.27791615229553157
28	0xbfb7601e711e6bed	-0.09131040822687427
29	0x3fab834a45738009	0.05373603914063103
30	0x3fca02d4dc339018	0.20321141006491028
31	0xbfb36c317bd156d7	-0.07586964867490607
32	0x3fb8ed7d383ff091	0.0973737966850783
33	0x3fd51926487ab4c5	0.32966000631388354
34	0xbfbf0f94b8144afc	-0.12133149618265898
35	0x3fab31e67c6cd4e0	0.05311508435117118
36	0xbfc3f7c8dff48d0e	-0.1559992879420879
37	0xbfb7dcbe784ff395	-0.09321203648865002
38	0xbfc8a50b0cf51fbd	-0.19253671772662342
39	0xbf9d06581c07818e	-0.028344513617299998
40	0x3fbca3e86987aa81	0.11187603546538051
41	0x3fcbbf94cd45a3aa	0.21678409598396559
42	0x3fc3ee69283b16dd	0.15571321930308715
43	0x3fc23f45aeb3959e	0.1425559142145802
44	0xbfcbcf16b5cd187d	-0.21725734593400495
45	0xbfc94a74df50ca0a	-0.1975847330482597
46	0x3fc9af460a9a3f19	0.20066142575932913
47	0x3fafffca9b910dd0	0.06249840878492885
48	0xbfd2d6d44eab06ee	-0.2943621414416232
49	0xbfc8e083c43fe11a	-0.19435164530273924
50	0xbfadec31198568a4	-0.05844262539422232
51	0x3f986e09e40453f4	0.023857264082000243
52	0x3fd45177cf1488fe	0.3174724123256424
53	0x3fb4bf2fed07fbec	0.08104228531736596
54	0x3fcc9cc6d1e07111	0.2235344433582971
55	0xbfb507177232128d	-0.08213945901850135
56	0x3fce704dde0a5ea7	0.23780225126096363
57	0xbfc6d40cc08e7d47	-0.17834624674012842
58	0x3fc6f7a01f29884a	0.17943192979425
59	0x3fb653b061cafeb2	0.08721449267886319
60	0xbfb7ab0e9a61059e	-0.09245387333887442
61	0xbfd51746c78175fa	-0.32954568369845527
62	0x3fc945e75e602308	0.19744579418354413
63	0xbfa42410a21d3d4b	-0.03933765391286189
64	0x3fd10c458b7ca281	0.26637400266421457
65	0xbfaad7dcb10583dd	-0.05242814694316398
66	0x3fd7c2991e02b846	0.3712523263046744
67	0x3fabae87fdcaae47	0.054065942507204805
68	0x3fcbfb3972408e9e	0.21860426024169483
69	0x3fa48f98a927f521	0.04015805306333165
70	0x3fa8c27968a0c131	0.048358720800367634
71	0x3fd65c04d5a42009	0.34936638701810857
72	0xbfa90af40028772f	-0.048911690730376704
73	0xbfd6254b9345ac1b	-0.3460263193325674
74	0x3fbf3fac8e0c9a9e	0.12206533878325351
75	0x3fbbcf746ba04863	0.10863425853338664
76	0xbfc249a2e9311b62	-0.14287220369643722
77	0x3fa81ee0dc945d5e	0.04711058323499161
78	0xbfb38620b37f788d	-0.07626537687562714
79	0xbfce3192e67e4ff3	-0.23588787321625623
80	0x3fb1c549830acb9c	0.06941661309501374
81	0x3fd8a57c48cad10d	0.3851004324781265
82	0xbfbebec393db68f8	-0.12009832725326308
83	0xbfcf6d113da7ac27	-0.24551597128388034
84	0xbfb4442e3e202bf6	-0.07916535393466959
85	0x3fb2b48dde7ab230	0.07306753808615762
86	0x3fcda4c73a3a20b4	0.23159113257520902
87	0x3faabd73373fb4a6	0.052226639265293515
88	0xbfbc9c01f3c4874d	-0.11175548745498283
89	0x3fd2f0d55323bf65	0.29594929808717146
90	0xbfc9cdf4762a000c	-0.20159774560670518
91	0xbfd0284bb0b292d6	-0.25245945220585264
92	0xbf8b8191b6a3ec72	-0.013430727373352467
93	0x3fca4620acbe05c5	0.20526512560540602
94	0xbfb945b2071d26aa	-0.09871971772840973
95	0xbfd17a5e24ed7210	-0.27309373480037014
96	0x3fd10c8f5abccaa9	0.26639160023766323
97	0xbfc84930492dca34	-0.18973353932558867
98	0x3fd3a954d343edb0	0.3072101653230801
99	0x3fa8c3a28eaf8e94	0.04836757652063031
100	0xbfb38ddeb750dd90	-0.07638351417050715
101	0x3fc780e3e313fb2c	0.18362091625018573
102	0xbfd0017b874548db	-0.25009048662208294
103	0x3fd28d3603d6510a	0.2898688352081683
104	0x3fc0ed1bf4205c69	0.13223599834666125
105	0x3fde5685309cab9b	0.47403077838196744
106	0x3fc148aa298484df	0.13503005053738712
107	0xbfd0e626484a3e92	-0.26404721316883084
108	0xbfbd74be0e4a5f03	-0.11506259774102649
109	0x3fd0165d30610307	0.251364991421767
110	0x3fdc6b28b02935e2	0.44404046252461005
111	0x3fd1827a4db1d0ba	0.27358872973787707
112	0x3f6d0a08e394af9b	0.0035448239911115126
113	0x3f8310fb44d01d3d	0.009309733426575146
114	0xbf83ee3cbbe838fa	-0.009731745228262135
115	0x3fc3065860746ffe	0.14863114080151257
116	0x3fc9bb97e700d8b0	0.2010373952813942
117	0xbfd3eba97c7ba23f	-0.31125867039239447
118	0xbfcbd700c99afa10	-0.21749887317669492
119	0x3fb8793a4860d70c	0.09559978739784131
120	0x3f7aa82b80749393	0.006508035591910838
121	0x3fa24b846bf291e3	0.03573240106314637
122	0xbfb65321a338a272	-0.08720598444836883
123	0x3fc61ba3c67e99a2	0.17271849815479096
124	0xbfbd9e16454af5ff	-0.11569346610755103
125	0xbfcc1b159193a366	-0.21957654579389468
126	0xbfd1c1fbdbca000a	-0.2774648329141206
127	0x3fbd6b0e9ec7c468	0.11491481186364327
128	0x3fcad7c715b77572	0.2097100120580922
129	0xbfb2f6d592c34990	-0.07407889206959895
130	0x3fb82f23e4de1018	0.09446930253585639
131	0xbfb376a59377e8f6	-0.07602915621092507
132	0xbf9daadcac9e3320	-0.028972099338307022
133	0x3f7a102e864221c9	0.006363088356132037
134	0xbfb4719a399e6c7d	-0.07985843569479019
135	0xbfd37e437cd17687	-0.304581519978321
136	0x3fd04c33277f2453	0.2546508680066541
137	0xbfd1b35a7b59cb36	-0.27657186552021373
138	0xbfc356146d4127d2	-0.15106444678013858
139	0xbfb57892ebf6b6ee	-0.08387106190522406
140	0xbfd1e3400cff8354	-0.2794952513632343
141	0xbfbbe8f6acf7daa5	-0.10902349207740743
142	0x3fd20929527bf25c	0.2818091683873598
143	0xbfbce1609fa0f2c5	-0.11281398675141492
144	0xbfc2e3b15472f4a1	-0.1475736296032766
145	0x3fc04f0e8f10346e	0.12741262422096916
146	0xbfd0f2a0e8126d19	-0.26480887091902755
147	0xbfcbb0c9c94dc47b	-0.21633264855657672
148	0xbfcd7ed4a69e5968	-0.23043306480094405
149	0x3fcfcef01ee08ff8	0.2485027457015574
150	0x3fa7b2348d291dd7	0.046281473380584685
151	0xbfb9ed525d48bddd	-0.10127749230809209
152	0xbfc0809fc21e1da6	-0.12892529467010866
153	0xbfc497beedcd5d60	-0.16088091479717104
154	0x3fa44b2676406970	0.03963585084439358
155	0x3fc4e6418a342ed6	0.1632768559287487
156	0xbfa8eefd4dd79d23	-0.04869834494803118
157	0x3fd30625d005085a	0.29725022615833085
158	0xbfc3aba4b02ffb60	-0.15367563822652652
159	0x3fd1f2097024b4e4	0.2803977580213781
160	0xbfcf376e94317141	-0.2438791488265313
161	0xbfc5ba0f4375caa4	-0.16974058908416112
162	0xbfb303bbf1cd1971	-0.07427572873448242
163	0xbfad8db6364a305f	-0.05772179997174542
164	0xbfb53c4c7be0c364	-0.08295133613934308
165	0xbfe15a61cd6851ea	-0.542282963930629
166	0xbfb7a24b62bd3fe5	-0.09232016716600773
167	0xbfced74424afb4c9	-0.2409444026119785
168	0xbfa82dec0d27c130	-0.047225357633467246
169	0xbfd2421a2de2a3c7	-0.2852845619295831
170	0xbfe02fb2589b3b11	-0.5058223467438855
171	0x3fc50c5ef6287025	0.16444003123695086
172	0x3fcfe3e990840f16	0.2491428332942795
173	0x3fa3eba77abfdae2	0.038907273992597316
174	0x3fcbaedd0ce0d10d	0.2162739098436152
175	0x3f9b99654adbb984	0.026952345556247717
176	0xbf7d0fa07e620b4e	-0.007094981125308332
177	0x3fa2aa344d1cea45	0.03645480576820551
178	0x3fcd47835c8fd323	0.22874490756626029
179	0xbfa82698ec83ff48	-0.047169474479231754
180	0xbfa60d163a459e69	-0.043068594563746405
181	0x3fd4ec3672ebd6c8	0.32691727850702224
182	0x3fd472030a2ff886	0.3194587325559798
183	0x3f7b2d08f61041cb	0.006634745602255919
184	0x3fb68a09240cb7c8	0.08804375772589801
185	0x3fc092b13034e13b	0.1294766888984301
186	0xbfd1ea36cdcaaa89	-0.27992029282419445
187	0x3fd003581adb6811	0.2502041113162941
188	0xbfc359775557a1fe	-0.15116779009919407
189	0xbf9f31c6e56e3c62	-0.03046332145055109
190	0x3fc725a5d59e7d5c	0.18083641939754613
191	0x3fa7802dce7b1b70	0.045899802642046406
192	0xbfc6767697756e81	-0.1754902114433783
193	0x3fc985e0279d528b	0.19939805921844242
194	0xbfd210e36f188406	-0.2822807869834495
195	0xbfe29bf83ea2e9a7	-0.5815392707220796
196	0xbfc73445f0a04508	-0.18128275155371676
197	0xbfbc890f4c3c8a11	-0.11146636592142324
198	0x3fc32a3a82b99abb	0.14972621329362376
199	0xbfbc686bd7daa076	-0.11096834201691927
200	0xbfde9a805227bb85	-0.4781800081536221
201	0x3fc359fba0e3050b	0.15118356090355464
202	0x3fc4dfbdb7757c88	0.16307803590732228
203	0xbf92625585849028	-0.01795323970249299
204	0xbfc0c1856fc8e2d1	-0.13090579946744765
205	0xbfa8a71224d746a4	-0.04814964961736948
206	0x3fd1e2e65a6d9ac8	0.27947386580346434
207	0xbfb580918698b964	-0.08399304901170052
208	0x3fd0fe32e1b0b107	0.26551506080683435
209	0x3fbd1ee2a5a64221	0.1137525228898615
210	0xbf8e3941a9462f39	-0.01475764558633551
211	0x3f8805fedebeb5e6	0.01173018567336732
212	0xbfcbf1da5eba1490	-0.2183182680638862
213	0x3fc28748e478eb38	0.14475356250644622
214	0x3fd22cff9b3cda05	0.28399648818904694
215	0xbf98732e4a89e81d	-0.02387687997768505
216	0xbfd088aaa6b5bc42	-0.2583414676691441
217	0x3fbd449b5fb1c6e3	0.11432810865678848
218	0x3f8808f5c40830a1	0.011735839886590606
219	0x3fd545b6a1aa6ffe	0.3323799685256289
220	0x3fba7d218684fb23	0.10347184690634185
221	0xbfd0307acee187f0	-0.2529589672395778
222	0xbfb4aa72350d6bed	-0.08072580142236037
223	0xbfb672869f7877bc	-0.08768502610516199
224	0x3fcc8eaa9c84a72c	0.22310383455742888
225	0xbfc53ec5282356ec	-0.16597809276452524
226	0x3fabcb608d8295ba	0.05428601958673647
227	0x3fb16d2082993f41	0.0680713957638064
228	0x3fd25ce0a26d6bdc	0.2869187914090483
229	0xbfd26a1429942f28	-0.2877245336573986
230	0x3fd9b2d7040bd5e4	0.40154052157535447
231	0xbfd1db5a1366e672	-0.2790131749603467
232	0x3f835995bb14b0cc	0.0094482133595978
233	0x3fab75e43fa5647c	0.05363381649903773
234	0xbfc14aec2eb6e830	-0.13509895592670906
235	0xbfb013d2613f8630	-0.06280245660993766
236	0x3fb076e1f909602b	0.06431400613780684
237	0xbfd3dcb87c9a289d	-0.3103467194383798
238	0xbf950a6d876fe701	-0.020547591582704253
239	0x3fc7855a986b1122	0.18375713770195384
240	0xbfaa9635d5e80a7d	-0.05192726360475761
241	0x3fa979521d7b5c3d	0.049753728960859146
242	0x3fccc33fd5ca9ef0	0.22470853747403607
243	0xbfb86d648f4b3877	-0.09541920183548479
244	0xbfbb7ce43af3d893	-0.10737444342871276
245	0xbfc40246aceea0a4	-0.15631946033432087
246	0x3fd8d513e1d620e8	0.3880052285608273
247	0xbfd4488c2097eace	-0.3169279402060682
248	0xbfd1e1e61351287f	-0.27941276441982404
249	0xbfd3201f3674d80f	-0.2988355666924471
250	0x3fc9cfb9d0b2c9cf	0.2016517895732037
251	0xbfc59b5860771d24	-0.16880325994700585
252	0x3fbce37962f6d623	0.11284598032110486
253	0xbfd4b6b1b9d69e0c	-0.3236507716014507
254	0x3fbcc27dc76974fc	0.11234270208793257
255	0xbfc3c9f0bc65987d	-0.15460023116174063

linears.1.bias f8 [30]
0	0xbf86d3f4a05d3c32	-0.011146460670401568
1	0x3fae04b634eca69b	0.05862969776201262
2	0xbfba497c2672d265	-0.10268379152950897
3	0xbf77d7c4fd7891e0	-0.005821008198413996
4	0x3f971fd7a66b7287	0.022582406551793468
5	0x3fa154b7d7c9f36c	0.03384947308675276
6	0x3fa0ef6725c87d22	0.03307649933071334
7	0x3f9c3aa7306cba21	0.02756749375401502
8	0xbfbaf16735270bc7	-0.10524601981801061
9	0x3fb01d05d962edda	0.06294285352026155
10	0x3fa4a91d44baa6d1	0.04035273994425171
11	0xbf854886a3daf223	-0.010392238498178113
12	0x3f791374482f99b7	0.006122068621130009
13	0x3fb5013a58e36e6e	0.08204998655440374
14	0x3f92eb45198fadc1	0.018475608525404533
15	0xbfc1c77187fd303e	-0.13889903202141513
16	0xbfbf00e863e669d0	-0.12110760153738132
17	0xbfb9358cce29e106	-0.09847335847178237
18	0xbfa090aad8ed1085	-0.03235372446081989
19	0x3fa9196d8b07da34	0.04902212450172208
20	0x3fac79b7a764ebfb	0.055616130050530864
21	0x3fa5f8e52dc3e215	0.0429145449033436
22	0xbf957ba8df22d78e	-0.02097953664698298
23	0xbface8df011ea541	-0.05646416557949375
24	0x3f8ca53b6a16c347	0.01398703019626314
25	0xbfa4e3530fbf7422	-0.04079684798464479
26	0x3fb9c2befcab7df5	0.10062783878992561
27	0x3f996981e5c5f746	0.024816541337251218
28	0x3f9158dd68297f86	0.01694055507903116
29	0x3f9734fa095e8642	0.02266302759347228

linears.2.weight f8 [30, 30]
0	0x3f73875732df17f7	0.004767742748247975
1	0xbfba262b0ac090ad	-0.10214489948754375
2	0xbfc9fde52c1aaf3f	-0.2030607667305677
3	0x3fa732c1cd29d14e	0.04530912045894074
4	0xbfd13bed5e67675a	-0.2692826673424996
5	0x3fd1f2399b045a0b	0.28040924204233936
6	0x3fdcd754dd397fd4	0.45064279178586486
7	0xbfd80eb691e5d953	-0.3758980202468553
8	0x3f9df4e380b16884	0.02925448868732207
9	0x3fd5b25677a62e2b	0.3390098732422497
10	0x3fb5df4280c892d5	0.08543792385223566
11	0xbfd6c11b9cdc4651	-0.355536368545562
12	0x3fb59405cbeab8c7	0.08428989628257276
13	0xbfd6be9d96598221	-0.3553842514284345
14	0x3fbad32dc1d7f21d	0.10478483183391814
15	0xbf9c747b0e5cff1c	-0.027788088561691557
16	0xbfc150e341d46d16	-0.13528099741311256
17	0xbfcf8db3b3b08c05	-0.24651190065296205
18	0x3fc8b372b6767de4	0.19297632130927334
19	0x3fceb19b8e2c8cc0	0.2397951549729438
20	0xbfd4d83249d16e0e	-0.32569558342740457
21	0xbfbca233fd361d29	-0.1118500226203777
22	0xbfc4ad20d1bbf823	-0.1615334533780138
23	0x3fae1bcb33ad815d	0.05880579953987095
24	0x3fc8fffb81310a17	0.19531196411306048
25	0xbfb72abef8082abf	-0.09049600177255977
26	0x3fce333f785c1bdf	0.23593896271651624
27	0xbfb4417c59a8e8e7	-0.07912423314056448
28	0x3fc658bbcc6af1df	0.17458293420158008
29	0xbfc86def20d4f509	-0.19085492232435566
30	0xbfcd9fb3873ce86b	-0.23143619635976917
31	0x3fd390a47bcc2815	0.3057032784423666
32	0x3fb3332ffbbfaa76	0.07499980827530259
33	0x3fbe2b444696d417	0.11784769748085498
34	0xbfd065e99ace1251	-0.2562202464835411
35	0x3fe39f0146250566	0.6131597871791825
36	0x3fbca14d25bc3c4b	0.11183626338264323
37	0x3f974d59c0b79304	0.02275600661041023
38	0xbfd25e21ff25eabe	-0.286995410125808
39	0x3fcb2041ecf2fc12	0.2119219214418711
40	0x3fbc4a42ce5fa4ff	0.11050813234728095
41	0x3f7f6658123234ae	0.0076659622456080444
42	0x3fb87a049ad49ca7	0.09561184673349264
43	0xbfcceb04863f0283	-0.22592217020975988
44	0x3fd4f5262cd241f9	0.3274627149303622
45	0x3fb3737cae6eaa3c	0.07598094233132086
46	0xbfad45ad4b172ca9	-0.05717221776611698
47	0xbfcdc7748678ede3	-0.2326493889430444
48	0x3fbd40ca4d1ee42d	0.11426987059429967
49	0xbfc86abbc455a295	-0.19075724684377762
50	0x3fd4ddcf61deb398	0.32603821332559724
51	0x3fcc92a42c472363	0.22322513734823266
52	0xbfd736c74f282c6a	-0.3627184174553749
53	0x3fcafcbaebebd2ab	0.21083771247471836
54	0x3fd4c90eb77c7107	0.32477157515110416
55	0xbfb0dad7bd3c5ade	-0.06583927507413587
56	0xbfa96c3919a0b9cc	-0.04965380132522376
57	0x3fcf2217a25c299c	0.2432279150746809
58	0x3fd1d01997618dc4	0.27832641394908486
59	0x3fd62914ca04b8a1	0.34625739792216775
60	0xbfd003a2b7586a1d	-0.2502219000322457
61	0x3fc9fda2658c89e5	0.20305280645796056
62	0xbfc7cbe368e43c1e	-0.18590967771203365
63	0xbfdf1a863b3e985f	-0.4859939173278515
64	0x3fc6e21e35cdba47	0.17877557398920116
65	0x3fe4648a8501b4a3	0.6372730825220468
66	0xbfb3c4eae81283cc	-0.07722347417667591
67	0x3fc14fce2143694d	0.13524796127496544
68	0xbfc2a6a44dcf07c3	-0.1457105045247414
69	0x3fcabbc5a3291cd7	0.20885534731698982
70	0x3fd718559e373e98	0.36086025667916877
71	0xbfd66a35b9072d53	-0.35023253506797863
72	0x3fb4fc41ed756dbd	0.0819741444333237
73	0xbfc9fcd9f0a8b530	-0.2030289101689191
74	0x3fcae0a00c4c22cf	0.2099800167127541
75	0xbfc9cb5e4f62f6ba	-0.20151881099984853
76	0xbfcd4bcaa27268a7	-0.2288754742811012
77	0xbfa6911db7fdec5c	-0.044075897893855326
78	0xbfc6ad50916c813f	-0.17716414547704493
79	0xbfc99d0a78bb5f36	-0.20010500807870252
80	0x3fd42ed0964afdd4	0.31535734822315686
81	0x3f9ef9dd0000d3c6	0.030250027775952558
82	0x3fc80091dc9d52ee	0.18751738807863866
83	0x3fc0c6858d8841a5	0.13105840121035076
84	0x3fc6f80cb8920e19	0.1794448758338241
85	0x3fc5644affb5108c	0.16712319837290968
86	0x3fb95b221e25ab23	0.09904683338178848
87	0x3fd0ac3b0b4eb2db	0.26051212410201935
88	0x3faa641ca60a124b	0.05154504324767525
89	0xbfce52efb3d8b05d	-0.2369060161739779
90	0x3fb22e6096ef03d3	0.0710201614847528
91	0x3fb8a4ec818d19b2	0.09626653826590006
92	0xbfd4e83d445e88c2	-0.3266747634571737
93	0xbfc9dadbd9323b7a	-0.20199154000553304
94	0x3fbe6abd0f3c2863	0.11881620046566037
95	0x3fc076ebb83142cf	0.12862917417307648
96	0xbfc2517a10f9cde8	-0.1431114752664222
97	0x3fd1712e16e7790e	0.2725329612420787
98	0xbfd04d98d67bc42d	-0.2547361464085636
99	0xbfd0654a2052afcd	-0.25618222385923844
100	0xbfb8940aff773566	-0.09600895630793146
101	0x3fb96b439840a02a	0.09929296938992196
102	0x3fcbbc3175ab9cd0	0.21668070073722
103	0x3fa01e2db434628b	0.031480243919024785
104	0x3fbb41be3fd4653c	0.10647191103307291
105	0xbfbccd9898aef00b	-0.11251214721318108
106	0xbfc86c6c74e7e301	-0.19080882747928032
107	0x3fb79c0af864561e	0.0922247749734528
108	0x3fd2c41c3def56c0	0.2932196240266016
109	0xbfd2e8d6b2343516	-0.2954613437912753
110	0x3fb665e75ef0b147	0.08749242847324466
111	0xbfb1ce14d436105c	-0.0695508020490378
112	0xbfd292a0b4f37d15	-0.29019944830902605
113	0x3fb9b4ede9081c21	0.10041701258897763
114	0x3fbf01f31d5ee7a5	0.12112349955614705
115	0xbfbbf029686f61d6	-0.10913332748112423
116	0xbfb492a2c6601cc0	-0.08036248534345969
117	0x3fcd838cc2584b86	0.23057708253380954
118	0xbfd1ab0ce1d0fc07	-0.2760650830495596
119	0x3fce0d6abefb5039	0.23478445363309833
120	0x3fc368a0ab176cf7	0.15163048128201925
121	0x3fc32a12c12d1c0c	0.14972147400314417
122	0xbf29a16785427872	-0.0001955450885632901
123	0x3fc14e4301c612fc	0.13520085894210598
124	0x3fbaacf0e63beb7e	0.10420137043904096
125	0xbfd9cf62cd98b166	-0.4032828338411235
126	0xbfe4626966d42863	-0.6370131500600674
127	0x3fa416f4c5b0943b	0.03923764146046734
128	0xbf8faaa91af2a41f	-0.015462227949983696
129	0xbfd287deec1845bc	-0.28954289489874063
130	0x3fccadce78937e68	0.22405415427691655
131	0x3fdd60c1fe95239c	0.45903062688426544
132	0xbfbcb4b7e9f867ad	-0.11213254415670688
133	0x3fd9ce1084866169	0.4032021803082189
134	0xbfcbd487d5380255	-0.21742341910432353
135	0x3fae1ccdfe8f5160	0.058813512157629644
136	0xbfc94a3078056fd7	-0.19757657871639253
137	0xbfaf83e83bedec13	-0.06155324679908616
138	0xbfbb537c2c901879	-0.10674263084374215
139	0xbfdd3fb5b089c058	-0.457013533020477
140	0x3fcb204397288ada	0.21192211991100046
141	0x3fc2d596c6f1c655	0.14714321817477818
142	0x3fa11ee09e43c561	0.03343870098059188
143	0x3f9d6eb8c185efaa	0.028742682277410538
144	0xbfd27624210f477c	-0.28846076229557815
145	0xbf937686b6ad31a6	-0.019006829166117754
146	0x3fbcd7cfde5e6386	0.11266802958415498
147	0xbfd98645d291ff18	-0.3988203579283307
148	0xbfd76f21ad920303	-0.36615793180685346
149	0x3fd20842959db872	0.2817541562170681
150	0x3fd0ac8c5fdba8e7	0.2605315147508364
151	0xbfc13b9066bf5ac0	-0.1346302510925934
152	0xbfc7c436cc103c41	-0.1856754776385703
153	0x3fdd42c5dce3f397	0.45720049449283223
154	0xbfcf8e206b17d1bd	-0.2465248606601004
155	0xbfd40666a2f25eb7	-0.3128906813885623
156	0xbfd5208b2aff902f	-0.3301113052277768
157	0xbf8645792040e9a1	-0.010874697014618575
158	0x3fd3c961c96791c9	0.3091663805810439
159	0x3fc8cab39d779ccb	0.19368596257047552
160	0x3fb80c57830a6a3b	0.09393832158313213
161	0x3fd159c8c9c4b860	0.2711050005335718
162	0xbfccb81309fb502d	-0.22436750399958907
163	0x3fba1abaee42635c	0.10197037045362606
164	0xbfc8513a3d5dfdc6	-0.18997886654322665
165	0x3fb7cf6f4921c780	0.09300895247886665
166	0x3fb7336b43b7290d	0.09062834170541496
167	0xbf7773cafbfe449f	-0.005725663097011196
168	0x3fc4ba0734d1dc33	0.1619271285923972
169	0xbfd1344e02039ea8	-0.26881742664998365
170	0x3f9aacb4395ddd67	0.02604943847788146
171	0x3fc7e355eb192841	0.1866252325001501
172	0x3f707d03a7efa372	0.004025472909213389
173	0xbfb95be480794e0d	-0.09905841957634483
174	0xbfd2447ae48d7277	-0.28542969054777906
175	0xbfc08b5c29eb2afd	-0.1292529301338944
176	0xbfa7e0bd2e8d2227	-0.04663649743321612
177	0xbfcfa741c7a1cb6f	-0.24729177711159475
178	0xbfda8142572005ef	-0.41413935192403434
179	0xbfb1575cc0f6d6ad	-0.0677392932037388
180	0x3fd4e28059ddb0dc	0.3263245465848408
181	0xbfd5b5489e6d1bd7	-0.3391896769648474
182	0x3fd461dbeb5f6a64	0.31847284303299817
183	0xbfc08fff5342ac56	-0.12939445081187512
184	0xbfcdbcc97c5307e9	-0.23232382364773166
185	0xbfd5c7fb3de2ef13	-0.3403308967933622
186	0x3fcace8a88acdd25	0.20942813562008059
187	0xbfcdb2d8e48fb2c1	-0.23202048454495208
188	0x3fd068c8021b6d5e	0.2563953419282451
189	0xbfb8616070af947b	-0.09523585082168211
190	0x3fad60c854d1e01e	0.05737901721380488
191	0xbfcc1dde0f381865	-0.21966148131486132
192	0x3fb88091e3760a22	0.09571182063340491
193	0x3fc208e2d162b104	0.14089617942716626
194	0xbfca412fae6f679b	-0.20511432664244186
195	0x3fd0d0f4cca85538	0.2627536772354975
196	0xbfb7fe6db30fd364	-0.09372602101923416
197	0x3fb2936f10d04248	0.07256216202245824
198	0xbfd6162eb32c5e90	-0.3451039075602944
199	0x3faf947c89b17d1a	0.06167973690821267
200	0xbfb788831974509c	-0.09192675944751943
201	0x3f9334551be03f4f	0.018754319979108754
202	0xbfcab612aba89e8e	-0.20868142492075886
203	0xbfbe789887012577	-0.11902764602668535
204	0xbfd3bc97d4fdb03a	-0.3083858089437431
205	0x3fd2cea7c54729de	0.2938632418196486
206	0xbfc0f93fc68dd4a5	-0.13260647959729002
207	0xbfc5e41aa4331136	-0.1710236837153702
208	0x3faabb0458706c27	0.05220807628230544
209	0x3fc00ce76059bcfa	0.12539379315010263
210	0xbfc6eddec800b411	-0.17913422361144218
211	0x3fc4297df77309db	0.15751623709191062
212	0x3fd184c285f57238	0.2737280185881761
213	0xbfb2fed5fc3f8aec	-0.07420098694232607
214	0xbfb91b25a1ac2e58	-0.09807048031887555
215	0xbfd0860494abca44	-0.2581798030725262
216	0xbfc4e5e1fddafda5	-0.16326546569142156
217	0xbfca8b6f0421e5fb	-0.20738017751482105
218	0xbfc6530105acedbb	-0.17440808083652634
219	0x3fab682c9cfb876d	0.05352916160860741
220	0x3fc115750eea5d42	0.13346732357306662
221	0x3fd049097be733ba	0.2544578275672468
222	0x3fc3249c56889398	0.1495547697569719
223	0xbfd2c7ac235c7c85	-0.29343703702210916
224	0x3fc96f7a96b83e74	0.1987145648895311
225	0x3fd663a802061f80	0.3498325366749597
226	0x3fd09f96ae4bbd62	0.2597405149562829
227	0x3fcb289422dc1aff	0.21217586233270677
228	0xbfb5e3f6ef9e30bb	-0.08550971365019937
229	0xbfac15dfd391c474	-0.05485438783296895
230	0xbfd0b2644f7a82a3	-0.2608881736905834
231	0x3fd1905726f348e9	0.27443484119170464
232	0x3fd07c6f49e845ee	0.25759489266883306
233	0x3fb1cdfa2653b838	0.06954921184271334
234	0x3fc6c9b44cf600ad	0.17803052671297817
235	0x3fd2563d537c07fa	0.2865136447218216
236	0xbfd393bd18ba1975	-0.3058922521089678
237	0xbfc20546ce9bb45b	-0.1407860287503436
238	0xbfce90c8b7e2ebbd	-0.23879345873669236
239	0x3fcaa04387b63265	0.20801586271808784
240	0x3fe18883fe9115d0	0.5479145023352263
241	0xbfd2a7c716a27195	-0.2914903374710545
242	0x3fcf1af030a3f9d6	0.24300958991075444
243	0x3fb1373eb37de008	0.06724922067758154
244	0xbfc7565a78fee6af	-0.18232279689782646
245	0xbff05bb99457283b	-1.0223937792348028
246	0x3fc316618f467f65	0.14912051673763496
247	0x3fd87190d9df11d9	0.3819315078401622
248	0x3fb6abbd1173f8c0	0.08855802227114662
249	0xbfc05e1eebab9595	-0.12787233836494907
250	0xbfd1c43aa8bebbfc	-0.2776018760586678
251	0x3fd81af68ab79d34	0.3766456942234584
252	0xbfaccdae0471e3ee	-0.05625671200045433
253	0xbf9ce29ecb1b9652	-0.028208237787927644
254	0xbfa7b2e01b90b202	-0.04628658615579086
255	0xbfb59be2e96eaec7	-0.08440988730461206

linears.2.bias f8 [30]
0	0xbfa74825816fecc6	-0.04547230916065241
1	0x3f98f629462ff7c3	0.02437653056039558
2	0x3f76e4da14b6e21a	0.005589343908859701
3	0x3fa188955828d46d	0.034245173465401325
4	0x3fb5c5381c578f58	0.08504057590431324
5	0xbf6d7aa968ab353a	-0.003598528744396615
6	0xbfaae42e49467b4c	-0.05252213139032466
7	0xbfa95443e0ab0d37	-0.049471017051042336
8	0xbf8974a83740fd92	-0.012429536997045774
9	0xbf9e4a4abb116d72	-0.029580276172379745
10	0x3f9c3b1b061fb6e6	0.027569219826481105
11	0xbfa9e11ca8aa4439	-0.05054559286976041
12	0xbfaebcd1374d9785	-0.06003431129538143
13	0xbfa1e39fedd83d61	-0.034939763816619125
14	0x3fb2236b35f1a68f	0.07085294787398254
15	0x3fa2ad8b3980af00	0.03648028447091001
16	0xbfa5130fb4407620	-0.04116105151500116
17	0xbfada444af3953e7	-0.05789389265979832
18	0xbfabe2063702cd2c	-0.05445880338211348
19	0xbf9f5428c6e5e081	-0.030594479694145086
20	0x3fa7f0833dec3856	0.04675684100048787
21	0xbfb371cea69bd8f3	-0.07595531051251551
22	0xbfa79f24c74f7b13	-0.046136044816867415
23	0x3fa07dbb5072bcab	0.032209256716094835
24	0x3f811259129f24c2	0.00833577716902523
25	0xbfba827fff110aa1	-0.10355377175532478
26	0x3fbb5b7fc326143b	0.10686491503118216
27	0xbf7458933741af10	-0.004967284261606655
28	0xbfa5c1ea69356b8c	-0.042495084135871414
29	0xbfb04d085b773de4	-0.06367542489100902

linears.3.weight f8 [30, 30]
0	0xbfd2c355b84ac030	-0.29317229268326894
1	0x3fc4027d029cfc25	0.15632593753432036
2	0x3f825d7270a77be3	0.008967298567709342
3	0x3f9a5bfeecbf9fbc	0.025741561126693333
4	0x3f9b335d947aa0f0	0.026563131511154248
5	0xbf9d7c2e1f89ec17	-0.02879402225014979
6	0x3fcc35b5f6978c39	0.2203891233503741
7	0x3fc05c860f8afd06	0.1278235984700375
8	0x3fb2015ed236d649	0.07033341056998056
9	0xbfc4e26edee870de	-0.16316018947771388
10	0x3f906532891838ee	0.016011037461844894
11	0x3f5b9664409f192d	0.001683805372964263
12	0xbfcc190825d6f27a	-0.21951391074789567
13	0x3fbe2d3d2414b914	0.1178777897918944
14	0x3f89edc8e91602ae	0.012660569775790744
15	0x3f9b5ea7024a8725	0.02672825767024913
16	0x3fc08dd5802c7c28	0.1293284297798618
17	0x3fa5d6c92146d3e1	0.042654309570401734
18	0x3fd44c4d262be0bb	0.31715706565547536
19	0xbf83693a02847c26	-0.00947804756338939
20	0xbfce0f873966c08f	-0.23484888365556286
21	0x3fb3c80db99c170a	0.07727132588851418
22	0x3fc925d77f02f169	0.1964673395322152
23	0xbfbb6c4ef3cb25dd	-0.10712140514365083
24	0xbfcf77c409002f33	-0.2458424610089139
25	0x3fd85dd803744b2b	0.3807277711613774
26	0xbfd5ab9191e7ca6b	-0.3385967182977427
27	0x3f70f6427f93e0cd	0.004141101607494768
28	0x3fd080d2a40ee1ae	0.25786272069265237
29	0xbfa350afdfb0ee55	-0.03772496800999351
30	0x3f82c01a18ced1c7	0.0091554678746001
31	0x3fc9fe92c639312c	0.20308146170499108
32	0x3fcdbdc6a8eed13c	0.2323540043704585
33	0xbfc463d3f2187e87	-0.15929650612905652
34	0x3fd7253861704659	0.36164674296842275
35	0x3fe627204124f5a1	0.6922761223174129
36	0xbfbc1e0ba7aefa47	-0.10983345836482626
37	0x3fc07622e18b1551	0.12860523236137536
38	0x3fc7eda131c52963	0.18693938188728074
39	0x3fc5fa6d583efe39	0.17170492943658802
40	0xbfc2da81332f10cd	-0.14729323386393958
41	0xbfc55fa565586fcc	-0.16698138664730633
42	0xbfd4e7753fba40e1	-0.3266270754184131
43	0x3fcf2deb38895b1c	0.24358883152555044
44	0x3fcd4f0ded066558	0.22897504876599828
45	0xbfcd288087e8ec71	-0.22779852520202185
46	0x3fcdcbe57f2fe919	0.23278492651281438
47	0x3fb88a7bfa87da05	0.09586310259314963
48	0xbfd1d72cc8bd2d4c	-0.2787582359639671
49	0x3fcb7cb0595ffd8b	0.21474270214092103
50	0xbfd57f1dbd7b46d8	-0.3358835554509887
51	0x3fa4241833897a2c	0.039337879458561126
52	0x3fded5acf81a9098	0.4817917273414962
53	0x3fc1d72b7922de27	0.13937896170476557
54	0xbfd8b7e0877fbdda	-0.3862229655487376
55	0x3fcf9f6e794fcf94	0.24705296443391644
56	0x3fd0a25ffafab895	0.2599105788202761
57	0x3fc4d1e8176a6b55	0.1626558412870859
58	0x3fbfb883bb0d2c1e	0.1239092189472761
59	0xbfd0f6cfe23e79f3	-0.2650642117895636
60	0x3fcaeb377aa61eb3	0.21030324448314772
61	0x3fb3ab9cd4e9add4	0.07683735082689874
62	0xbfcad724503f597b	-0.20969060819943394
63	0xbfd05a1f4cfe2382	-0.25550062674351903
64	0xbfc60d7365e016c3	-0.17228548502332872
65	0xbfc178fe2d462827	-0.13650490961691839
66	0xbf9aef8a24ee7ac5	-0.026304396156428895
67	0xbfa7a92bd21a2c11	-0.04621254863476321
68	0x3fc0372b0b716d42	0.12668359812492197
69	0xbfb21185a1b106df	-0.07057986447855623
70	0xbfcd12b284260cb4	-0.22713309719629182
71	0xbf540f03ff770227	-0.0012242831270300543
72	0x3fd99b5e98a4bed6	0.40010800272555735
73	0xbfcf99a89c084853	-0.24687678927199616
74	0x3fd0ef5b1d27c614	0.26460912558749894
75	0x3fc539c340ced76c	0.16582527794315227
76	0xbf90e7a408e7fa0c	-0.01650863937720186
77	0xbfc2e59fda35fd81	-0.1476325812800319
78	0xbfd4b4b332984187	-0.3235290521706919
79	0xbfd3da996b418b03	-0.3102172419950621
80	0xbfcc4bfda16697a4	-0.221069053467713
81	0x3fdc7a1ef0fdb957	0.44495366606033343
82	0x3fa5ce44197a7a9a	0.04258930979743987
83	0xbf95644bf757b98d	-0.020890414210890596
84	0xbfbeb534add85b7a	-0.11995248073831802
85	0x3fca03e0eaae14d2	0.2032433648966277
86	0xbfd3dc1f7fc8a5da	-0.3103102443588718
87	0xbfbac81ce098b47d	-0.10461597903550231
88	0xbfd062e60a0544b6	-0.25603629091808544
89	0x3fd0bc2f0b197fc7	0.2614858253855314
90	0xbf9589c093da2f43	-0.021033295654475436
91	0xbfd81262f1639461	-0.37612222264426093
92	0xbfc2ad462c00aea8	-0.1459129061562312
93	0x3fb737bf055bbfe8	0.09069436913318862
94	0xbfd0bbf76df1cd2f	-0.26147256600161745
95	0x3fd3acb9ca37788a	0.30741734264109566
96	0xbfc192c2dc5e7eb8	-0.13729129562579145
97	0x3f9b538b94418f8c	0.02668588726409342
98	0xbfa2707fe767d35b	-0.036014554021597
99	0x3fb044e4ebda20d5	0.06355124242884654
100	0xbfd2395bd9728409	-0.28475090251055285
101	0x3fcc6221e89ce1f3	0.22174476488159164
102	0xbf61341bc2db2c63	-0.002100042553910651
103	0x3fd8b7a4a1a3c882	0.3862086847794971
104	0x3f88925c4279bbd4	0.011997910288497872
105	0xbfdf1ce164c3c9e5	-0.4861377223998303
106	0x3fdafa610b13649b	0.42153192597977246
107	0x3fd70e246c8e979a	0.3602381763579331
108	0x3fca51dfc7acd311	0.2056236004806569
109	0xbf9f9a812f251b60	-0.03086282587289746
110	0xbfd684910d7d1752	-0.35184122388124195
111	0x3fb98d872d80f261	0.09981579647951257
112	0x3fc3f7156a2e0e1d	0.15597789463582581
113	0x3fbf1024bdf081b4	0.12134008061594309
114	0xbfc4c66b6d53458f	-0.16230528677128261
115	0x3fb051f20a5c8ee9	0.06375038865058581
116	0xbfcbd2a64cd5a7cc	-0.21736601592721028
117	0xbfc1d1ce6c69977d	-0.13921528142526177
118	0x3fd0dab417e1637d	0.26334860164711654
119	0x3fdcaac575972e6e	0.44792305453731884
120	0x3fa7825e1aa729fa	0.045916500810182684
121	0xbfca8f010e161560	-0.20748913944059222
122	0x3fbfcb1d5032b613	0.12419303138695907
123	0x3fa00b4d3e871104	0.031336225397838674
124	0x3fcf4301f4830808	0.24423241080336333
125	0xbf6ce6eb9c30f731	-0.0035280801544378616
126	0x3fa54402001cd33d	0.041534483445877936
127	0x3fc5d3771d72c9f9	0.17051590860280877
128	0x3fd6864b3e2e3fb7	0.3519466502411847
129	0x3fc6b94ed0ea4192	0.17753014756136715
130	0xbfcc7d4312967b88	-0.22257269294365423
131	0x3fd48bd6e4f06388	0.3210351215107541
132	0xbfd28a1ce13e1900	-0.2896797370562041
133	0x3fd03c12a4ecd26c	0.25366655450787934
134	0xbfd2188eb3895e1b	-0.2827488663947137
135	0xbfcececd86c4fe27	-0.2406861217550482
136	0x3fd3972502548d44	0.30610013225141963
137	0x3fd70cccf7f3f9d4	0.36015629018939177
138	0xbfca18ec02e2e553	-0.2038855566113776
139	0xbfcd8761888f98d4	-0.2306939999390979
140	0xbfd3f5f2abba3b63	-0.31188647051106083
141	0xbfb73bd34e9822dd	-0.09075661343389237
142	0x3fd6433dfe43e37c	0.3478541358049865
143	0x3fc36d465852bede	0.15177230179460016
144	0xbfc7d1d809ed18c5	-0.18609142765689604
145	0x3fc2d94c471e70cc	0.1472564074764534
146	0xbfc9f90b6bcadcb9	-0.202912738450072
147	0xbfb9e2dc88e844b3	-0.10111788122618996
148	0x3fc2c06f937ec37a	0.14649767591393098
149	0xbfa18ff150e7d3cc	-0.034301320196312796
150	0x3fc5f48b183eb44b	0.17152537044367686
151	0xbfc0253750216ab6	-0.12613574421523815
152	0x3fd70dbb35c6a3c1	0.36021309138828533
153	0xbfcfa6c5a481964c	-0.24727697880296018
154	0xbfb3458006e29337	-0.07527923744289643
155	0xbfd4cc580f9aaa3e	-0.3249721672424676
156	0x3fc7b7c568550ab0	0.18529574961038042
157	0xbfd0f6baae18b5e1	-0.265059156433237
158	0x3f7f60c38ee9c5b1	0.007660640620643575
159	0xbfd9c093a988fa8d	-0.4023789554229687
160	0x3fdf7583bca4ccce	0.4915475218032953
161	0xbfc0bcdb45fb0b12	-0.13076344410918544
162	0xbfc59e7b011dfe79	-0.16889894060658486
163	0xbfe14345e0d43413	-0.5394620314779125
164	0x3fb9f1de02c7266d	0.10134685104198989
165	0x3fd94a0bfe10c42e	0.3951444607837996
166	0xbfca6a2b8f6c7f08	-0.20636505606761824
167	0xbfd3ecd7a7bac2ed	-0.3113307130798109
168	0xbfd22fb33985c704	-0.2841613828414753
169	0xbfa732cd90b29286	-0.04530947104766363
170	0x3fd98f11b5ba3c51	0.39935724970650194
171	0xbfb6229b55a82ca7	-0.08646555749162364
172	0x3fc943f9613a065c	0.19738690612216458
173	0x3fc90cc079ffc70a	0.19570165593136607
174	0x3fcf3336e84cf8ce	0.24375044195944046
175	0xbf93ebda58d93bda	-0.01945439498222954
176	0x3fb99a45be35ae2e	0.10001026052275883
177	0xbfbb6e55eeb96df7	-0.10715233877402129
178	0x3fc951d044dd7d2b	0.19780925142820513
179	0xbfd4edbf4204a85e	-0.3270109314640929
180	0xbfb7923a539a6708	-0.09207500973789362
181	0x3fd3d8dc90028fa1	0.31011117995717014
182	0x3fd2ee482f446d21	0.2957935773462897
183	0x3fd0bc81d03ee2a8	0.2615055593155753
184	0xbfa5cfd6d0472959	-0.04260131161170717
185	0xbfd74184fd1d30ec	-0.3633739921394994
186	0xbfd0f38021c8ef6d	-0.26486209201151817
187	0x3fc94608406d445b	0.19744971414414433
188	0xbfc9f93e57de6826	-0.2029188088461648
189	0xbf8ac63602775927	-0.013073369932425095
190	0x3fd9d3c801ae698d	0.40355110325040117
191	0x3f8bc5092dfe579a	0.013559409824477165
192	0xbfb2efe3fcbbc1e4	-0.07397293968438806
193	0xbfce4022ed8958db	-0.23633228872740272
194	0xbfc01c79df8e3309	-0.12586902061266184
195	0x3fcbec5ba2f25ac8	0.21815057236081814
196	0xbfde16c22793f0c4	-0.4701390635016305
197	0x3fd06a26ba235c1b	0.2564789598231429
198	0xbfd5a1b78bdffc97	-0.33799542102492225
199	0xbfc71ffa0e56b10e	-0.18066335392121186
200	0x3fd7f6ded0ffecd7	0.37444277200820636
201	0xbfb1d3e325718a76	-0.06963939346455014
202	0xbfca3916dd9c3151	-0.20486722775275237
203	0x3fd1acf88316c619	0.27618229676872513
204	0x3fdc25e2adc95b15	0.43981234523146046
205	0xbfd0ccb1a57c88e1	-0.2624935260847803
206	0x3fc23d0c09e2bef8	0.14248800738049971
207	0x3fc7e75fe08129aa	0.18674848997245636
208	0xbfce168312f04131	-0.235062011954605
209	0xbfd5edc6ea141d75	-0.34263775691257276
210	0x3fd5b2568d4581e0	0.3390098933796519
211	0x3fbf3053b7064ada	0.12183116167424704
212	0xbfd0935ba9f35027	-0.25899402233813124
213	0xbfd33cee3b4f3fd0	-0.30059390823316523
214	0xbfd6636894529412	-0.3498174141371361
215	0xbfc2606225522efa	-0.14356638738933453
216	0xbfbb3128d3748305	-0.10621886408308619
217	0xbfd0ef4d555da1ac	-0.2646058400773892
218	0x3fc32f3b3f03fc33	0.14987888886386855
219	0xbfb0df7f648ca979	-0.06591030316181969
220	0x3fd33a62bf9c9f9a	0.3004385825356565
221	0x3fcfbf19033376e7	0.24801933914471094
222	0x3fba38d64e4c4139	0.10242976581162545
223	0x3fc4c807221e8e35	0.16235436597809075
224	0x3fba5f2de751a128	0.10301482102807269
225	0x3fc9ad09de898eb3	0.20059321752625223
226	0x3f6db6234aaf2c13	0.0036268891612727477
227	0xbf9df36a3f21d92e	-0.029248867133412286
228	0x3fa2f7bd6d5b230d	0.037046355818864375
229	0xbfd815014d92279e	-0.37628204894337525
230	0xbf9200aab505a614	-0.017580668734273955
231	0x3fdda1dc7ef23af4	0.4630042304715254
232	0xbfc41a1f00a78d66	-0.157047152824002
233	0x3fbe5ccba6741116	0.11860344709208834
234	0x3fd0f7b1b5b84a8b	0.2651180529220844
235	0x3fcf1a18c10545f6	0.24298390793641972
236	0x3fcbb8d2c9eee681	0.21657786235828172
237	0xbfce158b7707d227	-0.2350324946597919
238	0xbfc73e73f04c90e4	-0.18159341081003
239	0x3fd0535d37bc818e	0.25508814280512915
240	0x3fb5c01fc345f62a	0.08496283070959323
241	0x3fb2b7eb25324664	0.07311887415041834
242	0xbfd317001bab5bc4	-0.29827883436285796
243	0x3fc8aabb8cef6e73	0.19271034604649948
244	0xbfe7294e68e7c691	-0.7237922715123252
245	0xbfd44c99f0ff6352	-0.31717537436411647
246	0xbfc4398edf27c97a	-0.15800653358708044
247	0xbfa644e0eb0e39c2	-0.043494251912409534
248	0xbfc22ef74435ff6b	-0.14205828505145787
249	0xbfc181c21b5a2168	-0.13677240691709902
250	0x3fdde1757aac8689	0.4668859193790032
251	0x3fc70c07cc1a4f96	0.18005464044528868
252	0x3f99bdfee9945c51	0.025138838774264653
253	0xbfd758910903462a	-0.3647806728377839
254	0xbfac84495d5c3161	-0.0556967665162087
255	0x3fd3b5da0e568618	0.30797435188478195

linears.3.bias f8 [30]
0	0xbfb3a911f9333fce	-0.07679855665196486
1	0xbf928c31f23dad89	-0.018112926874363864
2	0x3f9003d3d976bc56	0.015639600894868565
3	0xbfb20334e899a622	-0.07036142996516806
4	0xbfa98f769ef73278	-0.04992266359804359
5	0x3fb1741586c0ca3d	0.06817755260343801
6	0x3fa668c3f61146a8	0.043768047130140986
7	0xbf7a756808f9db0b	-0.006459623705828542
8	0xbfabf2301e839e18	-0.0545821225403495
9	0x3fb0bf1a6afb36c7	0.06541600334022767
10	0xbfb1efb1bf7eada6	-0.07006369519392894
11	0x3fad1f01a12ed408	0.05687718479695297
12	0xbf9bca30d882f999	-0.027138484206028577
13	0x3fb243bbad699f5e	0.07134602531152498
14	0x3f76f3143c83e266	0.00560291199530436
15	0x3fa4f73fb96be20e	0.04094885958142323
16	0xbfa9911a477f68ce	-0.049935170390840264
17	0xbfb0c53a31d5c15b	-0.06550945011782032
18	0x3fa00089e9f72006	0.03125411015531658
19	0xbfa14a57da333bf5	-0.03377031839919901
20	0xbf9b8160609cdebe	-0.02686071958234381
21	0xbf8dfeb1bf40f653	-0.014645947121716995
22	0x3fa53508381fd5c8	0.041420227862470294
23	0xbfb571334a49b8bf	-0.08375855029746314
24	0x3f89ea90ab52857c	0.01265442869982069
25	0xbf93e6a61cdd72ba	-0.019434543144017914
26	0x3fba2629aa8dd4a5	0.10214481748501443
27	0x3fabcfbd69c788b3	0.054319304621246366
28	0x3fabd482034b331d	0.05435568132597821
29	0xbfb24a92a72b0642	-0.0714503915906102

linears.4.weight f8 [3, 30]
0	0xbfd82f9328766d74	-0.37790373755861784
1	0x3fcfb1e7e48000c3	0.2476167550776208
2	0xbfd2848c1dbc1987	-0.28934004691873166
3	0xbfd8c2b8c9d44fca	-0.38688487729927756
4	0x3f8da1560cf3ecfd	0.014467880506791259
5	0xbfc8ae7effa6ded6	-0.19282519801139725
6	0xbfd2c1defc4b2bae	-0.2930829490475685
7	0x3fa465e7fbcc9478	0.03983998249740578
8	0x3fd9b1f2cef08272	0.4014861126798116
9	0x3fd5df2c2d0db239	0.34174637222057275
10	0xbfcb5df056bd36c7	-0.2138042853861661
11	0x3fd86a24b181c3c9	0.3814784749475249
12	0xbfdc32ab1db45041	-0.4405925550538577
13	0xbfc12ed76e97e63e	-0.1342419900900484
14	0x3fcc4478f76ccd74	0.22083961564349475
15	0xbfbd641893ee2310	-0.11480859386041353
16	0xbfbcc45d4e2457d2	-0.11237128408205813
17	0x3fd6df44625dbd72	0.3573771439177654
18	0xbfcc22cb1f8f99ef	-0.21981181183873796
19	0x3fc0d8988ed2f14b	0.13160998319461678
20	0xbfb49412dce5d474	-0.08038442509662663
21	0x3fbccc91dcd387a6	0.11249648705736934
22	0xbfd6a9277a1544cb	-0.3540743534295642
23	0xbfa5402817afaf21	-0.04150510110033979
24	0xbfc579800b276f1a	-0.16777039093619167
25	0x3f8004bec29c7ceb	0.007821550668778396
26	0xbfb4571ee0eb8838	-0.07945435515606014
27	0x3fd387363f29ed61	0.3051276795228742
28	0xbfb17152e64a96ff	-0.06813543436382118
29	0xbfb2fa08b63d28a3	-0.0741277165335839
30	0xbfe1e501559027e0	-0.5592047377733671
31	0xbf8b67cfff3d2237	-0.013381600357790109
32	0x3fd1de3862a27700	0.27918824798858566
33	0xbfdfe8df759cc3f2	-0.4985884331281901
34	0xbfa697b965f62c12	-0.04412631387375411
35	0x3f7e2b837ae6bbe0	0.007365716547083928
36	0x3fda44bd10db243c	0.41044546743484367
37	0xbfcb899bd08c70ef	-0.2151369827560141
38	0xbfbf06af256f2582	-0.12119574226303167
39	0xbfb4f6c8904aecc7	-0.08189061663408657
40	0xbfde1faab3f9c63a	-0.4706827886176118
41	0xbfc79157ad1674e9	-0.18412300063656709
42	0x3fa2a119fa8ca027	0.036385356745370516
43	0x3f96b58693b308e7	0.02217684055791205
44	0x3fda461f8cc3759b	0.41052998300968974
45	0x3fb13f1efe8851f5	0.0673694011132467
46	0xbfd10d731bbe529d	-0.2664459010059462
47	0x3fb2d27b614848a1	0.07352419972474646
48	0x3fc6918a16776f7f	0.1763165101718833
49	0x3fb0396a56d0d7af	0.0633760892822852
50	0xbfcd92803dcc40a9	-0.2310333539721843
51	0xbfe16d555861d63d	-0.5445963598455773
52	0xbfb073c09750ba99	-0.06426624006483407
53	0xbfdd838ba3ede9e5	-0.4611538983223496
54	0x3fc27c7baf163cf1	0.1444239239612908
55	0xbfc39e499871db9f	-0.15326805060950918
56	0x3fb586bf382fd3a0	0.08408732530354124
57	0x3fe00fe2eeecaae7	0.5019392649167828
58	0x3fe13e1dc8871f22	0.5388325611647569
59	0x3fcf6ea4477cd423	0.24556401720624974
60	0xbfd8587e0f5db763	-0.3804011488017435
61	0xbfe64c75431bdaa7	-0.6968332586974001
62	0x3fe1bf4a4ee193ef	0.5546008625648237
63	0xbfde06ced7a5e1a8	-0.46916552600262174
64	0xbfe10b8686f2b7af	-0.5326569209771516
65	0x3fe1738d57b0ed82	0.5453554833142535
66	0x3fdaed054661b50d	0.42071658967218256
67	0x3fe476c06946a6db	0.639496045701175
68	0x3fccac501beb1a8e	0.22400857318117
69	0x3fe0005783143489	0.5000417289862905
70	0xbfe552b9c349010f	-0.6663483442462467
71	0x3fe531a4d957a172	0.6623100514380396
72	0xbfe75e963b8c0f7a	-0.7302962458638682
73	0x3fdaa0970bc8c2d4	0.4160516371803571
74	0xbfd4f9ef8b2b4d6f	-0.32775486555802663
75	0x3fe47b5c227eaf40	0.6400585817077413
76	0xbfd66b3a2f5cb995	-0.3502946341058302
77	0xbfe476a591f0a091	-0.6394832468404436
78	0x3fdf64a1fef0108a	0.49051713844551925
79	0xbfe2309ab9fe0c51	-0.5684331543601592
80	0xbfe015c20f2caef9	-0.5026560112359838
81	0xbfd761ed1455d491	-0.3653519342981975
82	0x3fe55863d01b778a	0.6670397820087015
83	0xbfda756ccf6ced6c	-0.4134170556678416
84	0xbfe878f18c8fda2f	-0.7647636170721109
85	0x3fe12fb90972f52d	0.5370755371620014
86	0xbfe0f9055ecbcc8e	-0.5303980685697682
87	0x3fdf232ac64647b7	0.4865214287066197
88	0x3fd7e08c0d3d2dc4	0.37308026593083476
89	0xbfe5cc3505c14eb0	-0.6811776268391068

linears.4.bias f8 [3]
0	0x3f8d511f4b58717f	0.014314884650098446
1	0x3fc89908da4a6062	0.1921702447768921
2	0x3fcbbbe59993000e	0.21667165755025092

step f8 []
0	0x40d2110000000000	18500.0

exp_avg f8 [30, 1]
0	0x40430dd92c83b9aa	38.108190121001215
1	0xbfb9e4e2c08dbeb1	-0.10114876938836904
2	0xc11a4773e0922a6a	-430556.9693075778
3	0x40054a2eb2b07359	2.6612218818758433
4	0xc00ed8963adcaaa7	-3.85575529085084
5	0xbfa645c86aae9024	-0.04350115110653999
6	0x3fb319919faacfcb	0.0746088995754796
7	0xbfbe386c7709943f	-0.11804845720469447
8	0x40487788a4bff226	48.93385753033026
9	0xbf8c91fbb43516bc	-0.013950315892212621
10	0xc001607170516dfe	-2.1720913672304496
11	0x3fa5bf83ded00116	0.04247676939849236
12	0xbfc4482a141e3a13	-0.1584522817833692
13	0xbfa254f41d948df6	-0.03580439435088671
14	0x3fc449e4994419da	0.1585050342911945
15	0x414abde2953e2cfc	3505093.1659599524
16	0x403147404fdea7f5	17.278325073108096
17	0xc08a5e4850b5e885	-843.7853101932129
18	0x3fed3f653d536103	0.9139887044684943
19	0x40282ee4d5558508	12.091589609803592
20	0x414eba0944d72e4c	4027410.5378167983
21	0x3fb974afe861bed5	0.09943675444969398
22	0x4032aaabe1f8d23c	18.66668522190797
23	0xbf86bc681d238628	-0.01110154475140053
24	0x3fe9c90419af90c6	0.8057880880046688
25	0x40218825de6cad3f	8.765913916364864
26	0x3fb6e1e557fcbff4	0.08938439748885668
27	0x403b8eea26972747	27.558260356810276
28	0x3f9b8d9e942cb571	0.026907422822821162
29	0xc05753faa4daf6bb	-93.3121730936354

exp_avg_sq f8 [30, 1]
0	0x4105d862f2826740	178956.3684127871
1	0x401aad2efce90043	6.669124557229284
2	0x4323b79a879aa2ae	2774949442703703.0
3	0x40566dcc601bb0d3	89.71559908584759
4	0x412280f2cdbe4e98	606329.4018425522
5	0x40140098fd9a3aaf	5.00058361295548
6	0x401f2e041eb0ac2f	7.794937591107597
7	0x3ffc438eb59f472b	1.7664935202232737
8	0x41e08f8742b4ae1a	2222733845.6462526
9	0x3fe53c3f516b361c	0.6636044111452892
10	0x40893d05132e8a85	807.6274779926322
11	0x3ffd1e4db5e54884	1.819898329286418
12	0x402bce4f4a1250ec	13.9029486796721
13	0x40110706d184d8ed	4.256861947759018
14	0x402dae05181eb35c	14.839882615802416
15	0x4379567db1ef407e	1.1411155638262371e+17
16	0x40fd5856412da7e9	120197.39091268148
17	0x41e93d405cb18449	3387556581.547398
18	0x409b8869a4b2f1b8	1762.1031673393281
19	0x4094956108d38f8d	1317.344760232579
20	0x43807e75aa5d34ff	1.4856459078012925e+17
21	0x40171b355c4c6fc7	5.776570741811105
22	0x40d5b799bc571776	22238.40212037364
23	0x40080272ec52ae59	3.0011957609874966
24	0x401239e9340b86ef	4.556553662494237
25	0x412ec3ecb7fff6b0	1008118.3593747225
26	0x40212faafe2ea170	8.593101447288717
27	0x413e652efd0b9baf	1991982.9884583761
28	0x3fde85a3943f8789	0.47690667607650333
29	0x414e8c616a7d5e4b	4004034.831950938

step f8 []
0	0x40d2110000000000	18500.0

exp_avg f8 [30]
0	0x400df739527cdf1d	3.7457148022039193
1	0x3fafc6b714006746	0.062062951270674335
2	0xc089a77efafa2ca0	-820.9370021386021
3	0x3fdb8f5dc4734fa5	0.43062538323033045
4	0xc0026f0f8486f5d5	-2.304228816383992
5	0xbfafd95a889581a9	-0.06220515172276759
6	0xbfa1144ae523ecb2	-0.033357944937927
7	0xbfbf07c6274e4b33	-0.12121237239470588
8	0xc01f845198663dcb	-7.879217511406249
9	0xbfa60b1ba5bcd063	-0.04305349729693899
10	0x3fcea84195a00e6d	0.23950977140349342
11	0xbf91393c50daa387	-0.01681989902013783
12	0x3fc161abbe75d7ed	0.13579317855663878
13	0xbf92c510f5da8726	-0.018329873090471648
14	0x3fa31f6af91ec87b	0.037349074278055526
15	0x40b3e5068c78b079	5093.025580924114
16	0x400262216fec1cb6	2.297915338891097
17	0xc010f595ed63d79a	-4.239829739779362
18	0xbfe6471f4614d4e1	-0.6961819046761343
19	0x3ffdba46296a2fe4	1.857977067734276
20	0x40b66e3a64c9eca1	5742.228100414534
21	0x3fc04ddee80e6b43	0.12737642603755192
22	0x4003cac1368119c1	2.474001336874807
23	0xbfbc290737841493	-0.11000104050988772
24	0x3fc94b7167dabd9b	0.19761483737009375
25	0xbffbd1dec520b5f8	-1.738737840681436
26	0xbfc5040a76269388	-0.16418581742359728
27	0xbffdac66383fde06	-1.8545896718259214
28	0x3fb0c5e7cbc0a792	0.06551979755809459
29	0xbff564f2a147f149	-1.3371454525032098

exp_avg_sq f8 [30]
0	0x40772ccc7c99fd4a	370.7999235167705
1	0x40367e52bd395100	22.493449999326003
2	0x4202560467b13d48	9844067574.154922
3	0x402d19950daa94c8	14.54996531207361
4	0x4081b438339fd27f	566.5274422155488
5	0x4003993df5c9a03e	2.449825210776935
6	0x40141da3bc4ea4c3	5.028944914150261
7	0x401e5ced786f0edc	7.590749627855725
8	0x411a919e8f6a84e4	435303.64005477563
9	0x3fe2adca87294dfa	0.5837147369260827
10	0x4032a9cd77449ab6	18.663291410683733
11	0x401a922e0ff92884	6.642753839094556
12	0x4038ad5d5429d446	24.67720533391209
13	0x40332ac1bf343f41	19.167018842940937
14	0x40368aed9d813d63	22.542688221028026
15	0x4251c5a9369d6e5d	305322580597.7244
16	0x4065d174bbe561ca	174.54549975205583
17	0x41178f0017359b10	385984.02266542707
18	0x40444a6f78b08f98	40.5815268385042
19	0x40436ee0f834ba37	38.86624052595692
20	0x4256a53993592b11	389045177700.6729
21	0x4038272941d08dd2	24.15297328321123
22	0x406468d91df0a470	163.27650353432136
23	0x401a1e3d10baf1c6	6.52952982083338
24	0x3ffc45694034ee5b	1.7669460781170503
25	0x408b50d86c69fb2d	874.1056755332735
26	0x402e880a3f109792	15.265703173423194
27	0x40997435220a5e49	1629.0518876667068
28	0x401f9ddaa2b2ffef	7.904154340911176
29	0x4075df2b37a70c44	349.94805112126437

step f8 []
0	0x40d2110000000000	18500.0
