1D_supercritical_InverseProblem_C_initial_60/Models/Model.ckpt-2500.pt (torch, 106804 bytes, 51 tensors)

linears.0.weight f8 [30, 1]
000000 23 4d 3d ce fb 6f b2 3f 84 18 7b f9 91 ba d6 bf
       0.07202123437064194 -0.3551373421036106
000010 c4 a2 e1 37 d2 8c e4 bf 17 f6 a0 eb 99 0e db bf
       -0.6421900836404224 -0.42276618967648133
000020 85 aa 14 8c ff 41 c8 bf 0a 20 51 60 29 1a dc 3f
       -0.18951410617713207 0.4390967789263419
000030 ac 9e 72 70 34 bc b0 bf 19 73 24 f3 f0 06 bc bf
       -0.06537177796655652 -0.10948091446011822
000040 c8 73 ff e6 d5 8f de bf 8d e5 c3 45 03 7a cf 3f
       -0.47752902563462074 0.24591103464608147
000050 00 c6 bd 72 62 7f a9 3f d2 6b 60 cb 92 34 d1 3f
       0.0497999920907084 0.26883382664680966
000060 0b 9d fe ea 82 5a cc bf a8 85 10 b0 7b b2 55 bf
       -0.221512188666772 -0.001324291981525819
000070 a6 3c eb 92 66 9c c4 3f 15 76 18 d0 e5 55 bf bf
       0.16102296994947557 -0.12240444498498733
000080 6c 6c e8 86 49 ab b9 bf a9 39 5e 72 8b 08 d6 bf
       -0.10026988547945032 -0.34427152794605803
000090 6f a2 e1 6e ee b1 d6 3f e7 db 49 8b 56 d6 c3 bf
       0.35461006954441293 -0.15497857857891903
0000a0 7c 3d 88 8b b1 9c 96 3f 73 44 a9 51 96 0d c8 3f
       0.022082113400811107 0.18791464793551746
0000b0 34 13 58 f7 94 b5 b9 3f dd 5a 9c 41 98 c1 d9 bf
       0.100426969897012 -0.4024410858850567
0000c0 b6 b0 c8 ab 17 cb cd 3f 1d 70 64 2a 99 a0 d2 3f
       0.23276039016616829 0.2910521425235418
0000d0 22 5f 03 0b fb ce d0 3f df 49 cc 63 37 2b bb 3f
       0.26263309550766867 0.10612817942118323
0000e0 cb c6 27 35 a5 62 b7 3f 14 f2 58 3a 58 2f d2 3f
       0.0913489584707136 0.28413968751900254

linears.0.bias f8 [30]
000000 d3 4f 4a 7d b2 c4 87 3f 56 97 82 89 c2 57 db 3f
       0.011605638931804585 0.4272314398643763
000010 19 4d b5 99 6d 0c ea 3f ed 74 2b f9 e0 90 d8 bf
       0.8140171053040915 -0.38384270031913453
000020 f9 41 72 6c 1e a4 ae bf 4b 95 a4 e5 d4 f4 d0 3f
       -0.05984587739760978 0.2649433367353892
000030 e6 65 7b 9c 2e fd e0 bf bb 28 93 25 25 bf 5f bf
       -0.5309060150422595 -0.0019376623879901317
000040 c8 60 1c 8a 54 ba d0 bf a0 12 76 d8 e1 7f a3 3f
       -0.2613726948488986 0.03808503882740877
000050 0f 1f ed e9 cb 25 95 3f f7 96 e8 a6 14 81 c8 bf
       0.020651994850850616 -0.19143922948676792
000060 47 b5 af d3 20 63 be bf 4c 0f 23 8f 90 f6 9c 3f
       -0.11870007675289172 0.02828431962622284
000070 81 34 eb 7e b9 1f 8d 3f 97 8f f6 4a a2 ba 85 bf
       0.01422066610884998 -0.01060988227147401
000080 46 6a 76 13 19 9b 97 bf c8 62 aa 31 5b dc 9a 3f
       -0.023052589238071762 0.026231217295022785
000090 62 06 f9 87 43 bb cc 3f f7 d6 63 cf 27 bf a1 bf
       0.2244648374490224 -0.03466152578941533
0000a0 f6 ff 72 81 6f 69 86 3f af b9 82 10 e9 23 94 3f
       0.010943289888359669 0.019668237335901114
0000b0 77 09 f4 98 01 ed 81 bf 8b 2c f6 db aa 88 bd bf
       -0.00875283477808318 -0.11536662931591672
0000c0 88 42 72 3d db 08 8c bf 5a 07 d4 6f cf 9d cb 3f
       -0.01368876725453673 0.2157534881626429
0000d0 85 7e 87 91 dd e6 b1 3f 43 60 1a 84 79 fa 6a bf
       0.06992897799454496 -0.003293263755789895
0000e0 b4 8e ab 58 24 1a 97 bf c1 56 45 b7 6b a7 c6 3f
       -0.022560661231991033 0.1769842762829992

linears.1.weight f8 [30, 30]
000000 af e1 07 70 17 63 d3 bf 9e 1b 6d d7 87 46 97 3f
       -0.3029230684328707 0.022729990504810275
000010 84 e3 9e ad 0c 81 bd 3f c6 83 e6 c2 ca 25 d0 3f
       0.11525038946900962 0.25230664284941573
000020 bf e3 9c b2 13 75 d2 bf dc 08 a8 96 6a 16 91 bf
       -0.28839580958043237 -0.01668707413228608
000030 83 a7 0c 7d 88 af c7 bf d6 0b 5e d0 41 4c c4 3f
       -0.18504434686593293 0.15857718156993766
000040 68 1c 8a 6d 09 cc a9 3f 5f 75 e1 8f ff a5 c0 3f
       0.05038480245735216 0.13006586575913112
000050 21 24 e9 f5 af b0 ce 3f 76 b6 42 17 81 4d c6 3f
       0.23976706988676802 0.17424024234553642
000060 c3 bc 46 eb d6 85 c0 bf 77 80 3b 05 c4 8b c2 bf
       -0.12908445823766188 -0.14489031081666656
000070 53 c7 8d f6 65 96 cc 3f d0 6b 5d 69 92 1d b7 bf
       0.2233397916675651 -0.09029498169313332
000080 41 20 53 4e 7e cc a9 3f 1a 81 f0 7d de b8 9f bf
       0.05038828569519228 -0.030978657185301996
000090 24 ed 35 d6 1a 58 ab bf 0f a7 43 2d e4 08 c4 bf
       -0.05340656151653381 -0.15652134142083482
0000a0 f0 63 d3 e8 d4 48 b5 bf 01 03 9f 7d 56 51 ce 3f
       -0.08314257320616014 0.23685723432392794
0000b0 6a 13 bd a4 5b 62 ba 3f 39 eb bb 34 10 36 a3 bf
       0.10306332370698859 -0.03752184528089803
0000c0 0e 69 bd 59 28 fa ad 3f 7c b3 cd 76 dd 12 b3 3f
       0.058549176172805514 0.07450660849072038
0000d0 34 af 14 c1 03 45 bd 3f 45 ef 21 da b9 c7 d2 bf
       0.11433433021437339 -0.2934403066826586
0000e0 a6 41 54 27 fd 17 b3 bf 76 5a 5b 64 12 ab b2 3f
       -0.07458479128059156 0.07292284917944322
0000f0 72 9c 44 a3 49 ac bb bf 7b 83 ca 34 d9 48 d0 bf
       -0.10809765087161496 -0.2544463172471791
000100 82 d6 45 28 b5 15 70 bf 6b da 93 c7 b2 8b c0 3f
       -0.003926952024234988 0.1292632555484546
000110 0e 2b 97 62 52 3f b3 3f e5 74 c9 bf 2e 63 d0 3f
       0.07518496424669882 0.25605362633889533
000120 e5 9c 92 f9 76 19 9b bf 67 77 ab 52 8a 20 a8 3f
       -0.026464327795704973 0.04712326296951979
000130 d6 87 fd 71 df 5e 87 bf d5 79 47 ff 05 5c d2 3f
       -0.011411424318513424 0.28686666421517987
000140 96 8a 8e 6c c3 d4 bb 3f 9a 72 3f ae fc 3e c8 bf
       0.10871526146233132 -0.18942221172519141
000150 aa cd 62 b3 94 65 d0 3f c7 41 c7 4a e5 10 d3 bf
       0.2562000037971425 -0.2979062299973773
000160 5c 98 49 b9 0b 61 a7 3f 2e 24 fb d5 a1 7d c3 bf
       0.045662275665379254 -0.15227148960392028
000170 81 b4 b2 4f 45 40 cc bf 1c ba c6 d4 9d e0 cb 3f
       -0.22071138755328337 0.21779225244013467
000180 ec 1e fd 08 c2 a9 a6 bf db d6 13 07 3a 8f 8b 3f
       -0.044263900372753046 0.013456776944149087
000190 02 e5 1a 75 63 a8 c3 3f ed 7a 37 bb 5e 0d d0 bf
       0.15357630937595707 -0.2508160427368427
0001a0 69 2a 34 20 02 58 a4 3f 6d a9 db 8e 10 9d b5 bf
       0.03973395007240727 -0.08442786681886157
0001b0 03 52 64 ca 02 81 94 3f a7 a0 4e cc 2c 2b ca 3f
       0.020023387530345726 0.20444259620604052
0001c0 32 82 82 e2 b9 a4 9e 3f 86 4f 23 4f 58 81 c1 bf
       0.029925255250988943 -0.13675979484707684
0001d0 d8 34 30 45 34 19 9b bf eb 83 ea 83 c7 b2 9a bf
       -0.02646333381931218 -0.026072614122885012
0001e0 02 ff 35 04 af 8b b4 3f eb 82 fa 7f e4 b0 d0 3f
       0.08025640347295496 0.2607966661253573
0001f0 78 c3 50 21 dd fe cd bf f4 73 18 4f 54 d9 c4 3f
       -0.23434032561047125 0.1628823648651686
000200 25 29 bd 60 16 62 ae 3f 7b d6 6f 17 61 ea c8 bf
       0.05934209757704626 -0.19465268749597783
000210 a4 6b 1c 10 0d 89 d2 3f d4 7c be b0 09 a6 cd bf
       0.2896149308523326 -0.23162957315523747
000220 d1 24 08 cf f5 6c b4 3f 97 be 3f 9b 08 56 b0 3f
       0.07978760056006996 0.06381276884325825
000230 bb 3c a9 ae 2a ce ba bf 5c e2 18 88 aa 42 d3 3f
       -0.10470835460840792 0.30094397822134566
000240 06 ba e9 4e 7e 23 ca 3f c1 19 2e a5 ce 88 f3 bf
       0.20420817235158512 -1.220900197252931
000250 ad dd b1 e5 96 8f bf bf d7 a8 e4 c3 2d 9a b2 bf
       -0.12328475101263932 -0.07266508133458004
000260 b5 a0 8c 6f 63 73 bf bf dc 7b a1 51 90 c0 b1 3f
       -0.12285443757412191 0.06934453957499848
000270 8a 9a 6c da c2 3a cb bf 57 b3 e8 c9 f7 48 d0 bf
       -0.2127307478451324 -0.25445360868143524
000280 62 11 e4 ef 93 58 8f bf fb 94 e5 83 7d da cb bf
       -0.015305667646779045 -0.21760529461167963
000290 44 18 f9 86 2c e9 c7 bf b8 69 32 de 04 7a b4 bf
       -0.1868034037635785 -0.07998686241845732
0002a0 21 7f 0c 5b d0 1b a9 3f 1f 31 cd bf 1d ea c9 bf
       0.04904032813487747 -0.2024571596651947
0002b0 d4 78 60 d5 f3 eb d4 3f c6 d8 b1 cf d4 0d 91 bf
       0.3269013961561431 -0.016654324700049704
0002c0 68 92 5a 99 a1 43 cd bf fd 93 4f f6 41 b5 d4 3f
       -0.22862644184091896 0.3235630898837483
0002d0 55 2c 15 1a ab 82 d0 3f 00 41 e9 6b 1f 75 c5 3f
       0.25797536418094086 0.1676368023786452
0002e0 93 a8 bd 6a 0b d4 b8 3f f1 33 d0 a5 91 cf cf 3f
       0.09698554378488415 0.24852200123169113
0002f0 8b 77 84 69 88 f6 d1 3f 2e 47 a4 e2 94 c9 b7 bf
       0.28067217163504016 -0.09291964085812474
000300 1d 30 ed 77 26 cc c3 bf 7d c5 89 a1 a1 d6 cb 3f
       -0.15466767173563847 0.21748752963643972
000310 07 9b 23 c9 17 29 a2 3f 2f 67 fd b5 cd 60 b3 3f
       0.035469764044867395 0.0756958550749942
000320 ef 32 45 06 eb 25 8e bf b2 15 8e 0f 04 ac 85 bf
       -0.014720760468344333 -0.01058200046987676
000330 de 54 5a 45 f2 e6 ba 3f 5f e9 cc b4 61 fc ba bf
       0.10508646195588109 -0.10541353859017509
000340 52 85 14 27 43 2d c5 bf 95 66 9c 12 52 65 be 3f
       -0.1654437962361422 0.11873352960938129
000350 01 1d 66 32 16 9b ca bf eb f8 4b a9 cf 46 c6 bf
       -0.2078578706825525 -0.17403598562663744
000360 af c5 3e c5 24 4f d5 bf fe d1 5e 3b 3c eb b5 3f
       -0.3329555441115088 0.08562065553162054
000370 b3 7f 02 65 1e 9f c6 bf 4b 1a 40 88 b4 4d d0 3f
       -0.17673091823689688 0.2547427492685627
000380 00 d3 00 5b d6 f4 c0 bf 35 ec d6 00 d4 19 d4 3f
       -0.13247184222714026 0.3140764244269037
000390 89 8c b5 11 e6 31 d4 bf 6b 28 da 07 a9 28 d2 bf
       -0.3155455754223984 -0.28373170630277994
0003a0 b0 a2 34 78 7c 63 af bf 96 53 72 9f cd 15 ce 3f
       -0.0613058945403443 0.2350403812930863
0003b0 7d e9 6f 6e bc 0d d3 3f a9 eb a0 64 e7 0d b8 bf
       0.297713382576738 -0.09396215636017637
0003c0 ec a4 f6 0b 62 b4 d0 bf 9a b0 e3 49 06 2f d0 3f
       -0.26100970428758674 0.2528701516701034
0003d0 b8 8a c8 75 a5 33 a8 bf 72 e3 74 32 e0 8b 90 bf
       -0.04726903021607626 -0.0161585837169897
0003e0 d8 04 20 7f f9 b0 96 3f 9a e3 07 8a f8 d6 d4 3f
       0.022159479507540464 0.32562077979633275
0003f0 da de 2e f7 44 df c3 bf 4e 19 09 b6 9a d0 c3 3f
       -0.1552511412571594 0.15480359924749582
000400 e9 9a cf 0c 6b 0e 92 bf bf 2f 6a 63 ee fa cc bf
       -0.01763312593166236 -0.22640781263578266
000410 cb df 80 85 34 b2 7e 3f fc 85 9f 15 ae 9a d1 3f
       0.0074941684361462075 0.2750659190333804
000420 a9 02 0b 11 6b 5d bf 3f 32 26 8a 42 5d 08 d9 bf
       0.1225191990479383 -0.39113551614773023
000430 0d b7 cf 4d af fc cb bf 1d 5f 5f 28 a6 c5 cc 3f
       -0.21864882754692197 0.22478177043262174
000440 85 d5 3a ef 69 cd b2 3f b0 b5 d4 23 84 10 bd 3f
       0.07344686594554702 0.11353326678064124
000450 b1 66 37 57 e8 67 bb bf c4 eb b6 df ca f9 c7 3f
       -0.10705425385767843 0.18731056140481261
000460 d9 c4 35 17 47 e1 c2 3f 27 5d c0 b9 58 03 c3 3f
       0.14749992974569784 0.14853962964910147
000470 1e 1c 74 c1 1a a5 ce 3f 08 b9 9c 2f f4 53 c1 bf
       0.23941358991598433 -0.13537456822218297
000480 f5 f1 b0 30 86 ab c6 bf 19 a8 99 2a 30 89 71 3f
       -0.17710950257777794 0.00428122344019679
000490 4f a1 8a 6d f0 c3 c9 3f ed c9 3d 74 0f 36 c9 3f
       0.2012920889731142 0.1969622914871957
0004a0 e4 fb 2a 66 e7 15 9b bf 47 1c 7f d6 02 19 be 3f
       -0.026450744257768735 0.11756913887721608
0004b0 1f 45 06 ed 3b 16 d3 bf 29 3d b5 32 d4 59 c7 bf
       -0.2982320608799273 -0.18242886043524578
0004c0 96 a2 e6 6d af 11 ce 3f a6 8a 42 41 97 d9 d0 bf
       0.2349147116303995 -0.2632806908897386
0004d0 cb de 58 a9 f5 ae cb 3f 65 0c 1b ff 72 aa d2 bf
       0.2162768437281016 -0.29165339386617567
0004e0 97 07 c2 c2 d6 c2 c2 bf f2 e4 fe 6b d3 2d d2 bf
       -0.14657101163544148 -0.28404698893025604
0004f0 a2 21 45 ee 95 69 ce 3f 39 2d eb be 4f c7 a1 bf
       0.2375972188404037 -0.034723751121044484
000500 b4 d7 d1 38 21 fc d2 bf 17 64 11 17 c1 5e c6 3f
       -0.2966387801055774 0.1747666704784769
000510 f1 20 8f f8 37 a6 a7 bf d7 1e 27 c3 5a 8d cc bf
       -0.04619002255600602 -0.2230637982267953
000520 b8 8f 4e 25 fa bc ca bf 14 a9 b0 30 50 1f d3 3f
       -0.20889212438225768 0.2987862086762487
000530 c4 2f 2d a6 d7 af 8d 3f b4 04 4d 77 4d f1 c1 3f
       0.014495548971943502 0.1401764709972092
000540 92 13 68 16 f0 ef ce bf 2b 53 7c 0f 81 e0 c4 3f
       -0.24169732183522946 0.163101322709417
000550 63 ce a6 fb 87 4d bf bf 8a e2 0f e5 aa a4 c6 bf
       -0.12227678197705809 -0.17690025505705292
000560 9a ec 6f b6 53 b3 d2 3f 67 b5 2c 2d 08 8c c1 bf
       0.29219525161870197 -0.1370859356478988
000570 c9 78 41 20 dc 6c a3 bf 4a 45 de 77 15 d4 c0 bf
       -0.03793990987536373 -0.13147228577558173
000580 7b 26 1a 4e 60 fa d1 3f 6f 48 56 3e bc fa b3 bf
       0.28090674998438886 -0.07804466745281656
000590 4b ed 61 40 79 b1 d0 3f 60 89 fc 39 7d 59 8e 3f
       0.26083213126522214 0.014819124538523354
0005a0 53 08 38 29 05 bf b9 bf 15 06 be da 71 e1 bb bf
       -0.10057098633117904 -0.10890876379382804
0005b0 f3 c9 84 ef b8 0f a7 3f fe 07 30 6a 96 9e c9 bf
       0.04504182742893539 -0.20015220818464735
0005c0 2d 6c 47 13 0f 61 c7 3f 7c 04 e0 a1 02 9a c6 3f
       0.1826495021949496 0.17657502082878185
0005d0 97 f1 46 e7 d9 04 b3 bf 07 a1 f5 6d 20 0c d1 3f
       -0.07429277321256787 0.266365153677285
0005e0 70 6d df 06 24 20 87 3f 38 01 30 19 9b b5 cb bf
       0.011291772327175237 -0.2164796708093577
0005f0 7e 92 55 b3 63 ac c8 3f f4 d2 1c 73 a3 92 ca bf
       0.19276090866619094 -0.20760005112392543
000600 da 6e 0a 67 9c 68 b3 3f 5f e7 16 59 c5 7b b2 bf
       0.07581498637813003 -0.07220109391246642
000610 5c 84 eb 85 bc 88 d2 3f 35 e9 1d 3a ae 66 c8 bf
       0.2895957286655795 -0.19063356244789423
000620 84 70 3d 97 ab de ce 3f 0c 2c 8f 45 1a 8d 88 3f
       0.2411703575588754 0.011987881896763163
000630 c1 e3 f8 b6 8a 5e cd bf 59 51 21 18 26 12 64 bf
       -0.22944768842878996 -0.0024500602749332576
000640 b1 1b 45 67 b3 69 cd 3f b2 af 27 1f 78 49 c7 bf
       0.2297882322547742 -0.18192960282555998
000650 66 0f 11 2d b0 92 d1 bf cc 0f 9c af 73 64 c5 bf
       -0.2745781364540022 -0.1671280486553982
000660 97 dc f0 d5 57 d2 c2 3f af 86 29 47 7b 24 cc 3f
       0.14704416223841996 0.2198633286926017
000670 bd 2d ad d2 93 f4 86 bf 8c c8 55 a9 f0 97 cf bf
       -0.011208681933246529 -0.2468243433791638
000680 1d b2 8d d1 46 6c 7b 3f b1 d4 32 c5 19 f8 c8 bf
       0.006695057520897521 -0.1950714314349731
000690 0a ce 2c 9c c8 2e d3 bf 77 18 1c 1b a2 4f cf bf
       -0.299730446352641 -0.24461771320074252
0006a0 d5 c8 90 9b 33 1f d1 bf 23 cb 39 16 45 14 d3 3f
       -0.2675293940730062 0.2981121747063062
0006b0 ac 55 de 4a 96 70 d0 bf e6 63 8c 4d 94 e3 a6 bf
       -0.2568717700135845 -0.044705042330128994
0006c0 6b 95 43 70 53 1c c8 bf ac ea da 73 59 73 b2 3f
       -0.18836443883553086 0.0720725925302001
0006d0 6b a8 81 72 5e bc d4 3f 9f 96 21 2b ba 05 c7 3f
       0.3239971273639017 0.17986228090301368
0006e0 b3 54 d5 40 93 93 b3 3f 58 93 3f d5 e9 ff b3 bf
       0.07647056897015396 -0.0781236787439189
0006f0 aa 3c a3 fe c6 37 b9 bf 77 4a d4 e2 44 88 a2 3f
       -0.09850734440554967 0.03619590062057381
000700 c7 1a 99 27 13 5f d1 bf 60 be 13 56 1d 2d d5 3f
       -0.2714279066753246 0.33087857633561235
000710 e8 08 c9 30 70 e6 ce 3f d7 37 27 aa d2 cf b9 3f
       0.24140741712660163 0.10082737592821843
000720 0e 37 5c 8b 3c e8 d4 bf d4 e3 86 fb 8f 4d b8 bf
       -0.3266745911540604 -0.09493350878518864
000730 8c ba e1 3e 8b 16 d5 bf 8b fb ff 03 b2 9f 8e bf
       -0.32950097218319097 -0.014953032252376782
000740 17 50 dc 3f b2 b5 69 bf 39 2e 35 d9 93 00 a5 bf
       -0.0031383973536183263 -0.041020031227699545
000750 f7 db a8 53 31 89 bf bf 15 1b 87 4c ec 8d b6 bf
       -0.1231871442076765 -0.08810307377198641
000760 ae f5 a0 71 ad 6c 9e bf 6b 2d d6 33 51 2f c4 3f
       -0.029711446819637714 0.1576940062626407
000770 8f 7c ab 22 52 80 ab bf 1f c1 01 6b cd 2c cd bf
       -0.05371338532653979 -0.22792976117080685
000780 48 70 aa ee ec 9e c4 bf c3 d8 ef 78 7e 7e ad 3f
       -0.16110002187349637 0.05760569788246663
000790 a3 5d c0 48 93 a9 d1 3f 40 63 cb 95 07 45 c3 bf
       0.2759750566924259 -0.15054411710914373
0007a0 14 63 d2 37 6b 38 c2 bf ab cb 4c 6d a8 0d a7 3f
       -0.1423467657630445 0.04502607664326005
0007b0 8c 5c 5e 89 49 98 c2 3f 82 92 f5 58 24 3e d1 3f
       0.14527243812037616 0.26941784560612103
0007c0 14 fc 45 83 56 9f c3 bf cc 13 22 97 89 79 d3 3f
       -0.1533001080497064 0.3042930580052683
0007d0 b8 90 45 bb 5b 1a 8e bf 36 b4 d9 d6 6f bd c0 bf
       -0.0146987120176124 -0.1307811545442818
0007e0 97 72 85 3e 8c 70 c8 bf eb 54 37 91 7d fa e9 3f
       -0.19093468716427672 0.8118274532559132
0007f0 21 b9 07 1d ac b0 be bf 2a 8c bc 53 ae 2b b1 bf
       -0.1198833056330142 -0.06707276863430481

linears.1.bias f8 [30]
000000 55 d8 39 13 c5 ac 7c 3f 32 33 7d 5e 1f 28 84 3f
       0.007000703644385172 0.009842152663304658
000010 e9 11 96 07 6e 9b 85 bf 67 f3 df c1 74 08 93 bf
       -0.010550365072739392 -0.018586944897822557
000020 3e d8 b5 b5 39 0f 8d 3f a1 19 8c 7c e2 2c 88 bf
       0.014189196451052873 -0.01180436079586117
000030 12 12 54 26 e8 75 81 3f 07 20 82 19 93 d6 93 bf
       0.008525670690240825 -0.019373224670317792
000040 e7 06 8c c0 9f 6c 71 bf c3 bf ee 72 78 40 8b 3f
       -0.0042539825742566656 0.01330656147715093
000050 55 63 c7 a8 e7 9a 83 bf 69 d2 9a 7e 98 97 80 bf
       -0.009572801435682324 -0.008101645816489271
000060 b8 30 74 31 eb ea 4c bf 9f 58 64 d4 b8 9f 48 bf
       -0.0008824966816134627 -0.0007514622200541949
000070 76 e5 31 5b 59 77 87 bf 09 32 09 c2 2c c1 86 3f
       -0.011458108993098941 0.011110639258867587
000080 10 a4 ba 4b 5f 24 9d bf ce 86 42 6c 43 e1 81 bf
       -0.028459061619887704 -0.008730437032059692
000090 32 08 a3 f4 40 4e 91 3f fe 7c c7 cc 67 35 92 bf
       0.016900076800773607 -0.017781850694402294
0000a0 4c ab d8 e5 fe f9 81 bf 67 ce 0c 82 2d 95 91 3f
       -0.008777610196451534 0.017170630514739573
0000b0 a1 24 4e 82 5f 67 92 bf 4f ac 86 1e c5 72 90 bf
       -0.01797246201343639 -0.01606281279388738
0000c0 58 a3 34 ee 81 fb 92 bf 24 fa 1f 57 65 23 92 bf
       -0.01853755012885769 -0.017713149492914707
0000d0 72 d5 4a dd a7 6c 7f bf a9 6c 81 68 26 b2 83 3f
       -0.007671981544878791 0.009617137970215532
0000e0 2b e0 f2 c8 f3 d1 8f bf 2c 5b 12 23 0d 91 a7 bf
       -0.015537170953720722 -0.04602852872010596

linears.2.weight f8 [30, 30]
000000 7a c8 22 fd a3 69 cb 3f 27 79 61 87 44 d6 c0 bf
       0.21416139469289758 -0.13153893099201605
000010 2b ee 7a 7c 63 1f a9 bf b2 88 3d 69 7e a0 d1 3f
       -0.049067601151787286 0.2754207637536964
000020 0a 2e b7 50 25 d2 ac 3f da 7a 86 3a 2f 8a ce bf
       0.05629078493401714 -0.23859205587083104
000030 b8 c4 89 fe f1 10 b9 3f 3e 73 26 58 0e 1b b1 bf
       0.09791481460867402 -0.06681909229378122
000040 45 20 34 6d bd 8b d8 bf 46 db 4d dd 88 16 d3 3f
       -0.3835290495339943 0.29825040446978723
000050 5e 3e 03 a8 38 bd a3 3f b4 cc 5d 5f 4f 85 a3 bf
       0.038553019055709056 -0.03812644995823558
000060 a7 af ae 4b 0b 37 d0 3f bf 40 54 33 26 c1 ca bf
       0.2533596266828177 -0.20901944643310874
000070 06 cb 3f 9a f8 e6 c9 bf 91 d4 79 ec c1 99 c1 bf
       -0.20236117870043574 -0.1375048069636802
000080 bf 10 33 6c 6e ea b3 bf ca a3 47 c0 c0 dc cd 3f
       -0.07779588834370353 0.23329934490837295
000090 c6 1e e2 73 59 73 d4 3f d0 7e be ed 61 6f c3 3f
       0.31954037014700665 0.15183662518119556
0000a0 2e 3d 2b 11 da c5 90 3f 05 80 d8 c9 78 d8 cd 3f
       0.016379744813830026 0.2331686959814762
0000b0 9f 17 b7 d1 18 95 d1 bf 01 51 29 fd 59 14 c7 bf
       -0.27472515563965233 -0.18030857907672984
0000c0 0b 38 a7 d2 c6 e4 d1 3f 12 d1 60 3d 6f 4b 99 3f
       0.27958841868974166 0.024701822396495272
0000d0 85 b6 56 e3 71 3f cc bf 02 94 22 04 6b 55 ba bf
       -0.22068618393443643 -0.10286587573007469
0000e0 14 4a 62 4a 54 e4 ad 3f b7 19 d1 c9 9f e1 d1 3f
       0.05838263900763621 0.27939600666686765
0000f0 4a 18 d4 8f bc 81 d3 3f d6 4f 48 fc e6 1c c2 3f
       0.30479349179984594 0.1415070278022756
000100 a7 97 d9 5e 4d 2a ca bf aa 91 77 69 4c 96 cd bf
       -0.20441596156450467 -0.23114924573668577
000110 61 7a f6 75 13 a2 c7 3f a4 c5 d2 1d 5f b9 b9 3f
       0.18463366756346303 0.10048479536160088
000120 88 b7 23 fe d6 2f d2 bf 12 a7 23 34 af 7d b7 bf
       -0.2841699106055491 -0.09176154158526753
000130 9c 6c 05 70 2c 56 b3 3f a3 b9 50 88 93 f6 91 3f
       0.07553365454571054 0.017542176432635902
000140 81 83 50 8d b9 b2 95 bf 70 f5 3d 02 1b ca c8 bf
       -0.021189593553688994 -0.19366777047609274
000150 3b 82 cf c8 f3 f6 ab bf e2 0d 80 c8 b3 94 cf bf
       -0.05461847139645611 -0.24672553339051634
000160 6b 18 6a 3d 2c 08 bf bf 20 e5 b7 38 1b ca a1 3f
       -0.12121845721603257 0.03474507396090076
000170 8f 19 9c 9a c0 fb c3 3f c0 7e 45 11 f0 9e c7 3f
       0.15612037228875095 0.18453789561589495
000180 df 99 3c 26 85 e7 7d 3f 87 6d a9 3b 57 51 d2 bf
       0.007300872912117089 -0.28621464563703863
000190 36 74 d5 f5 c7 e4 d1 bf 5b 84 81 9d 29 2e b8 3f
       -0.27958868987281293 0.09445438475951688
0001a0 81 f4 34 12 0f fc d3 bf 06 aa 23 3a 3a 91 d2 bf
       -0.3122594526101424 -0.29011398008029265
0001b0 0c 46 8b 91 41 4a d2 bf e1 56 58 11 1d 15 ce bf
       -0.2857822343185894 -0.23501933428695224
0001c0 5c d2 a9 0f d8 2d b2 3f 77 16 43 81 56 bd d2 3f
       0.07101202375799559 0.2928062689137287
0001d0 59 41 ea f3 31 c3 c0 bf 78 0c b2 05 1e 95 c9 bf
       -0.13095688257136365 -0.19986319807148667
0001e0 8f 3d 47 3e 4f 3d c4 bf 74 03 8a 20 b4 fe d3 3f
       -0.15812101880008497 0.3124208753361508
0001f0 35 e1 35 74 39 8b c3 bf 63 bd 55 d5 0b 7a cb bf
       -0.15268629240359535 -0.21466205517524903
000200 25 15 34 6c 0d 55 72 bf e1 80 7a c3 34 cd b2 bf
       -0.004475643570235809 -0.07344369671273256
000210 b5 d4 4c 71 c8 8d 84 3f b0 2c 8a 9b 47 28 c7 bf
       0.01003605457081345 -0.1809167394133957
000220 eb 1d 54 09 b9 2e e5 3f b8 cf 5e 3a e0 59 c4 3f
       0.6619534666251047 0.15899279451479997
000230 67 04 90 69 81 c9 d2 3f 76 74 cb f5 6c a8 a1 3f
       0.29354892071575595 0.03448811054634231
000240 2e bc 91 fd d0 51 c9 3f 35 eb ed d7 ee 18 d4 bf
       0.1978093374377478 -0.3140217884717232
000250 55 cb 8e d4 e1 2b cd 3f a0 18 fc 9f 2b 45 d4 3f
       0.2279016769294581 0.31672182677756133
000260 da b7 19 b0 5b 30 53 3f 89 83 1c 97 8a c7 88 bf
       0.0011711974515509122 -0.012099344955972107
000270 6a 72 19 cb 2a 1a d8 3f 1c d2 72 fd e0 43 db bf
       0.3765971167938803 -0.42601799727279555
000280 0e 05 27 dc 5e bf c7 3f bb 0f aa f8 9b 56 b9 3f
       0.18552766561155248 0.0989778024759848
000290 dd a1 a7 3b 6c 97 ce bf 93 f9 b3 82 d1 ea c6 3f
       -0.23899605667908377 0.1790410888861059
0002a0 67 20 9c 69 aa 54 c7 bf 67 dc a9 cd ed 02 cf bf
       -0.18227129132015138 -0.2422768835274127
0002b0 76 a5 bc c6 48 2f c1 bf 7f 1b 9b 87 9d ba cd 3f
       -0.13425550178480322 0.232257548536122
0002c0 63 f9 08 68 9d d8 c6 bf 6f 27 82 e1 c7 3b a2 3f
       -0.17848556117855727 0.035612341192133516
0002d0 94 7d b2 da 0b a4 ce 3f d7 0e 73 e0 04 af c9 bf
       0.2393812959535181 -0.20065365752645078
0002e0 3f ad 04 ac d9 8c c8 bf f3 f8 0b c0 31 94 c5 3f
       -0.19179840945558088 0.16858503224643293
0002f0 03 2a d7 48 37 74 d2 bf 01 4f 70 ef 92 c9 a7 3f
       -0.2883432589848384 0.04645976231418381
000300 97 a3 29 37 8c 8b ce bf 0e ba 5e 20 0f 91 d3 3f
       -0.23863365834702385 0.3057287040818729
000310 b8 38 ac bd d2 ff e0 3f 55 c7 cb 41 c6 8c bf 3f
       0.5312284187837326 0.12324179750774296
000320 1b 12 4f 8f 64 f1 c5 3f fa 4a 8c fc aa 34 c6 bf
       0.17142922399047297 -0.1734822972435593
000330 3c 80 61 34 2b fe 94 bf 1e b3 ee 12 9a d8 a3 bf
       -0.020500826904367594 -0.038761915980421544
000340 e8 ac 75 db 53 70 d0 bf d6 cf 8d cf aa 39 d2 3f
       -0.25685593062980994 0.28476972836437875
000350 8d 5e 25 22 dc fa d2 bf 31 20 b0 46 b6 17 cc bf
       -0.29656127295081874 -0.21947363330423422
000360 89 1c 0e ea 8b e2 d2 3f 41 9b d6 c6 ba f7 cd bf
       0.2950773034758148 -0.2341226073160332
000370 14 55 2a e9 34 9b c0 bf e7 06 ed 12 44 74 b1 3f
       -0.12973653206851365 0.06818032705362108
000380 e7 58 c9 22 e5 17 c7 bf b9 36 91 6e 55 d3 cc bf
       -0.18041671942291446 -0.2251993932608707
000390 fb 7e 1f 67 d8 17 a8 3f 54 7d d6 80 aa b2 82 3f
       0.04705692538095537 0.00912984090501704
0003a0 dc 16 d1 93 23 24 d0 bf 46 d5 33 28 3c 49 cb 3f
       -0.25220574794034945 0.2131724544812334
0003b0 57 dd de 67 17 db c8 3f 21 5f 57 b8 0a 4e cb 3f
       0.19418613979153562 0.21331914902725038
0003c0 29 5e d5 65 e3 fe d2 3f fb 87 db 37 94 bd d3 bf
       0.2968071455447637 -0.3084459825023484
0003d0 9b c1 27 bb 95 96 d3 bf 45 8d 0b e6 6f 26 d1 3f
       -0.30606597210774006 0.26797101464599776
0003e0 7d 23 e4 b3 ae 1b d3 3f 62 de 07 6d ec 8f d0 3f
       0.298564601588218 0.2587843956712047
0003f0 b0 02 86 12 25 5d af bf be 4b b2 e8 a2 c7 d0 bf
       -0.06125751353375131 -0.26218483661903835
000400 48 15 8a 12 51 db c3 3f 5b 17 2a 0c 38 7a b5 3f
       0.15513051419490353 0.0838961629579819
000410 98 70 55 77 bf a0 bd 3f fd 7b 85 c6 b2 a7 73 3f
       0.11573406852170576 0.004798601476379891
000420 ac 6c 6d 2a 28 2f d2 3f 3a 70 72 82 b9 42 b0 3f
       0.2841282286005462 0.06351813730947323
000430 36 80 24 73 40 8a d1 3f 30 93 04 68 e7 c1 c8 bf
       0.2740632175864478 -0.1934174783611069
000440 aa 5e ad 35 68 8b ca bf cc 6b d3 e2 f6 89 cb 3f
       -0.2073793661208943 0.21514783931237813
000450 75 e5 31 c1 48 64 b5 3f df 65 4a 4e 74 f0 aa bf
       0.08356146542236849 -0.05261577087112434
000460 f7 b2 f1 5b 7c e5 91 bf 3e 8a 09 07 50 9a c3 3f
       -0.017476981269669314 0.15314674705139625
000470 eb 9d d4 4b 51 0b d2 bf e4 51 87 78 29 55 cb 3f
       -0.281940769246346 0.2135364378469965
000480 e8 94 59 e8 ec 6a a9 3f f7 2e f3 b7 f7 1f a3 3f
       0.049643901217487685 0.03735326881868944
000490 35 26 9c 92 5c ee d2 3f 1f 1a 93 c2 7a a9 d0 bf
       0.2957984382379409 -0.26034420968463395
0004a0 de ca 96 d4 6c e7 bd bf 3e 29 26 ad b1 d1 cc bf
       -0.11681251707231463 -0.22514935450119283
0004b0 eb 24 a3 d8 e1 9f c5 3f 7f df d0 7e e2 87 c9 bf
       0.16894171789161957 -0.1994593733995735
0004c0 0d 44 13 dd 79 8b cf 3f 0c 30 99 e5 44 6e c0 3f
       0.24644397062959947 0.12836514674052102
0004d0 7a d8 e7 c3 60 f3 90 3f 8c 90 af d7 cb 16 95 3f
       0.01655341335023095 0.020594773330131974
0004e0 47 2e 15 4f 2e 2a d1 3f 58 f6 1c 53 1d 62 b7 3f
       0.26819951746867726 0.09134085921410795
0004f0 cb 53 94 88 24 b2 d5 bf 41 1c fb 39 c4 b7 d2 bf
       -0.33899796808082944 -0.29246621763417485
000500 c7 fc da 96 7b 02 b2 3f c3 83 4f a2 3b 94 c6 3f
       0.07035038407319681 0.17639871049234843
000510 31 86 cb 00 83 bf d3 3f 04 35 c1 bd e0 ac d3 bf
       0.308563948418029 -0.30742662935956866
000520 b2 28 41 a4 5d d1 c9 bf 1f 04 4f 5a ba ec d3 3f
       -0.2017018367790278 0.3113237268372035
000530 98 bc 0b 35 1c 5c cb 3f bb aa ed 86 c6 ae ce 3f
       0.21374847974900457 0.23970872486400716
000540 93 c2 67 89 13 c2 c1 bf 64 50 86 c6 59 23 c7 3f
       -0.13873523911708627 0.1807663173063957
000550 d4 95 0e 57 8c f8 b5 3f 30 24 82 ec 4a 37 c2 3f
       0.08582379460729977 0.1423123984170913
000560 9b a3 9f d2 fa 52 c4 bf 00 75 74 13 8c 96 d4 3f
       -0.15878234180788983 0.32168867015737135
000570 25 86 1e 30 4a ce c3 bf 7f a4 fb 33 62 93 90 bf
       -0.15473296498844138 -0.016187223837651473
000580 c9 ad 4a ae 7e 44 b0 3f 7e ee 9b 7a c7 fb d1 3f
       0.06354514842194371 0.2809923837046212
000590 10 4f 42 4d 06 10 c9 bf 6d 1f 9e 04 f4 90 98 bf
       -0.1958015324822715 -0.023990452558364895
0005a0 dd f8 82 68 14 90 91 bf 59 98 b4 63 87 26 cc 3f
       -0.017151183012850225 0.2199258076518074
0005b0 e1 a7 1c 7d 03 81 d0 bf a2 8a ec a7 f0 d3 82 bf
       -0.25787436693155824 -0.009193306088098045
0005c0 87 8c c7 c4 34 f9 c0 3f 8d 95 06 f7 30 b4 b4 bf
       0.13260516746877135 -0.08087450056935648
0005d0 20 93 35 4a 4b 1c bc bf 0c 3c 2b db 02 20 cd bf
       -0.1098067337203017 -0.22753940297704423
0005e0 43 6f a5 3c bc c9 d6 3f be 94 26 8e 07 69 c6 3f
       0.3560629455803232 0.17508024636223313
0005f0 65 aa 94 33 67 e2 c8 bf b9 40 c5 81 3d 32 c1 bf
       -0.19440927523222054 -0.13434571110201945
000600 53 00 9a ee 39 b6 bd 3f 96 e1 d6 b0 e1 17 c0 bf
       0.11606180262788372 -0.1257288087342771
000610 d7 62 bc ab f5 8f d3 3f 7a 89 2b 8d 97 84 8f 3f
       0.30566159983713476 0.015389617915791066
000620 75 ae ff d3 c4 dc cb bf 28 6b 73 02 0d 5a cf 3f
       -0.21767483092786546 0.2449356328932819
000630 60 cd 1e bc c2 6f d1 3f a7 d2 dc fc 0c bc b0 3f
       0.27244633074879765 0.06536942647364673
000640 78 08 66 03 d8 df b0 bf 33 9d ff 6f 6c fb b0 3f
       -0.06591558535549946 0.06633641943300432
000650 97 33 1c 1f e7 43 ac bf b7 30 fb f3 9b 0d b7 3f
       -0.05520555739176485 0.09005140978405533
000660 91 7a 71 ec af ea a6 bf 83 94 81 8a 6c e9 b2 3f
       -0.04475927125235047 0.0738742674016795
000670 aa 38 3c 75 dc f3 c9 bf 57 1d 43 ef 62 79 c0 3f
       -0.20275455211998877 0.1287044208786294
000680 76 e4 47 fe f1 f3 d3 3f 74 99 48 93 3a 5a d1 bf
       0.31176423866379055 -0.27113212950862153
000690 c7 a7 8b 07 6a 99 78 bf 58 1b 92 77 8c 52 d1 bf
       -0.006005682160983689 -0.2706633727724941
0006a0 b6 ec e3 7a 3f 03 d5 bf 67 84 1c 8a 32 a8 b5 bf
       -0.32832324028977256 -0.08459773895130383
0006b0 04 39 40 88 04 80 ba bf b1 b2 cd 53 f4 87 c2 bf
       -0.10351589514195686 -0.14477399913757474
0006c0 f8 d5 01 00 dd b6 80 3f a7 be 2d 91 8a 61 c0 bf
       0.008161284029692503 -0.12797672356417886
0006d0 ee b2 75 66 eb fa dc 3f 87 68 c2 c1 23 bd ce bf
       0.45281491285167774 -0.24014708481701438
0006e0 7e ca 2e 73 ab 1d af bf 95 69 ca 7a c4 e0 bf bf
       -0.06077323704757463 -0.12452342984980753
0006f0 d6 93 0c bd e8 bc c9 bf 45 e6 4a e7 70 41 c2 bf
       -0.2010775492755374 -0.14262210172255343
000700 08 8f 39 f4 8a 42 ad bf 45 99 90 41 22 0e cf 3f
       -0.0571483061910652 0.24261882974060192
000710 27 1f 28 48 ab 3b cf bf ab 82 36 6a 10 6a c1 3f
       -0.2440084554984818 0.13604932008913315
000720 d8 c5 ed 16 57 17 b5 3f aa cf c3 9d 25 00 d4 bf
       0.08238739309106025 -0.3125089684174279
000730 50 ab ef 0a cf eb d1 3f b8 e4 d4 c9 05 63 a3 3f
       0.2800176245497612 0.0378648575664981
000740 73 f2 c2 ff 95 d7 ca bf 4b 25 64 91 57 35 73 bf
       -0.20970416057925298 -0.004689542829745828
000750 5b 9e 97 13 b0 7a c5 bf a9 ac 06 f8 03 ef b8 bf
       -0.16780663448956798 -0.09739708714794183
000760 db 82 06 aa 8d 29 c0 3f 23 ee 0d 4e 1e c8 d0 bf
       0.12626810838721422 -0.2622142565012117
000770 68 b1 28 65 f0 fa d1 3f 75 8f 87 0d db fb 93 bf
       0.28094110373310466 -0.01951544065549578
000780 17 ee 24 69 24 24 bb bf 83 e8 0a f5 db d8 d3 3f
       -0.10602023665426717 0.310111035632538
000790 33 3e 85 53 dc 27 d3 bf f3 c6 b2 72 fd c3 d4 bf
       -0.2993079009656611 -0.32446228219042367
0007a0 6c a9 48 cc 43 20 d1 bf 52 65 76 8c d3 9c 91 3f
       -0.26759428929894713 0.017199807594442014
0007b0 ba 74 fe c1 e6 e8 d2 bf 9f 02 ec 24 da 71 9b bf
       -0.29546517319415566 -0.026801498893294192
0007c0 14 fb 54 bd 46 84 8c bf d8 87 d1 74 16 39 ac bf
       -0.013924172070458186 -0.055123044738834615
0007d0 82 a7 3a 6b f8 8c c4 3f ed ab b5 6a e7 64 c3 bf
       0.16055207477375794 -0.15151684484894137
0007e0 5c a1 df 9e bd 6a c9 3f c9 8b b5 68 78 4f 9f 3f
       0.19856996781823966 0.03057659281820316
0007f0 dc fe dc 8b 72 ed a1 bf 10 b7 70 ce 1d 41 ac 3f
       -0.03501470525088532 0.05518429894469368

linears.2.bias f8 [30]
000000 7f 6c 6f d9 32 c3 7e 3f 95 50 da 1c 4e c4 85 3f
       0.007510374670313457 0.010628328567044579
000010 c3 c2 cd a9 f6 c3 b2 3f d9 50 fb 9a 40 f5 7d 3f
       0.07330266614531937 0.007313969006379228
000020 8c 5f 5d 82 a2 79 85 bf 0d 55 4b 40 61 a6 83 3f
       -0.01048590622274028 0.009594688200574209
000030 dc 0b 41 e5 3c b5 8a 3f 31 ec 75 de 7b 4b 91 3f
       0.013040996309546964 0.01688951058666194
000040 be 94 10 19 36 98 92 3f 0d 27 7e 0c 9f c7 a7 bf
       0.01815876510604108 -0.04644486453532979
000050 6e 62 cb 83 98 76 85 bf dc 14 a1 be 85 c2 7a bf
       -0.010480109712646537 -0.0065331673050128235
000060 f0 54 f4 f6 ed 93 75 3f 01 d6 26 a7 26 29 93 bf
       0.0052680297369722545 -0.018711666061525637
000070 ad 0a cd b2 35 33 8b 3f c0 c0 09 b7 68 f8 91 bf
       0.013281268614837438 -0.017549167796858667
000080 12 29 6e 51 fe d8 94 bf d6 66 02 69 25 7d 83 bf
       -0.020359014244186353 -0.009516041056758889
000090 30 76 ba 92 83 5a 2a bf bf d8 fd d8 8f 0b 84 bf
       -0.0002010617839588876 -0.0097876775832727
0000a0 3a 8e a9 9b 0e 4b 83 bf b1 8f c4 ba db de 6d 3f
       -0.009420503735959252 0.0036463061898234996
0000b0 69 4a 47 f1 08 f2 8d bf a3 59 ce 9d b9 cc 83 3f
       -0.01462180124591335 0.009667825821264858
0000c0 6e 39 f4 55 03 81 9a 3f 4c de b1 96 d5 3e 95 bf
       0.02588277065393057 -0.020747506449394756
0000d0 c6 1b f9 63 b8 d3 81 3f 11 c2 c4 13 ed a2 87 3f
       0.008704605627952843 0.011541225591458678
0000e0 87 d0 f1 44 cd f0 89 bf 05 a7 64 50 61 86 77 bf
       -0.012666324297448973 -0.005743389256432034

linears.3.weight f8 [30, 30]
000000 12 db 6a f6 2c 5a ca bf 60 b6 7f bc 75 dc 9c 3f
       -0.20587694198703638 0.02818473780637587
000010 33 5e 3b a7 49 d1 c1 3f 20 21 85 44 12 00 b5 bf
       0.1391994539796869 -0.0820323388371702
000020 0f 69 79 8f b2 b1 9f 3f a6 96 79 01 57 02 c0 3f
       0.030951299674009166 0.12507140705127034
000030 b9 6e 91 63 49 be b5 bf 51 bc ff 47 80 77 aa 3f
       -0.08493479424344742 0.051692971028267316
000040 84 7d c6 f4 91 b6 7e bf 97 73 ec 46 b3 bd a9 3f
       -0.007498331204629397 0.05027542343871188
000050 52 8b c6 d5 fa 5f be bf 38 16 6f 29 95 3e d2 bf
       -0.11865203589563336 -0.2850697426441431
000060 9d c3 90 0c 05 9f c9 bf c4 6a 4e 66 41 16 73 bf
       -0.2001653968195826 -0.004659896342583184
000070 cb ed ff 6d 7a 8f a5 3f fc 3d bf 39 07 9a b1 bf
       0.04211027710695311 -0.06875653419341882
000080 9d 9f 16 67 23 08 c7 bf b2 20 4f 09 7a dd c7 bf
       -0.17993586095439876 -0.18644643263383426
000090 b6 d0 7e 9c 0d fa c4 bf 36 87 80 c1 0e 21 b5 bf
       -0.16388101712585063 -0.08253566955729927
0000a0 5a 60 05 28 56 e7 a8 bf 4f 9b 5b b8 ae 3f d1 bf
       -0.048639957795501856 -0.26951187137313054
0000b0 cf 12 05 19 56 2a cc 3f bd 46 2f 27 7d 99 d0 3f
       0.22004200193091214 0.25936821772220836
0000c0 56 c3 01 4b 5d 10 4d bf 48 3f 23 73 66 bb c5 bf
       -0.0008869605571942645 -0.1697815000720715
0000d0 e8 fe cb ec bf fe d0 3f 5c 19 33 99 c4 2a a5 3f
       0.26554868817036814 0.04134191866028189
0000e0 a6 7e ec 8a 40 04 d0 3f 5c 00 fa 20 40 29 b7 3f
       0.2502595287969406 0.09047318272678367
0000f0 59 78 cf a9 ce 6c d3 3f d7 bc 8b fb aa 7a cf 3f
       0.3035160692505819 0.24593102724563806
000100 c9 23 3b 8f 5d ec aa 3f 0c 8b d8 0e b2 8e bc 3f
       0.05258457539964174 0.11155236113021888
000110 a1 78 35 9a 90 24 9b bf 3c 8c 49 c4 d9 55 be 3f
       -0.02650667134491214 0.11849747697992624
000120 c8 74 27 e3 75 6c b9 3f 50 65 8a 84 75 28 b8 3f
       0.09931122585063001 0.09436735616545389
000130 88 ba c8 43 91 80 d3 3f 9b 60 25 c1 c6 b1 d0 bf
       0.30472213382282876 -0.2608506094161471
000140 a8 f5 37 4c 19 0a ba bf 23 17 e5 ba 39 2f cf bf
       -0.10171659575276826 -0.2436287081310918
000150 4b 98 3b a3 24 e9 b2 3f d9 bc 35 ef 86 5f 9b 3f
       0.07386998162437057 0.026731594419683844
000160 a6 73 91 2e 24 32 d5 3f b4 95 a0 2c 53 8d d3 bf
       0.3311853842513365 -0.30550078733571273
000170 d3 12 a3 f4 ea e9 9f bf 0b 66 af 91 81 f8 bd 3f
       -0.031165763074357877 0.11707315260664346
000180 46 30 78 f6 2c 27 54 3f 42 3a 72 6e fb 77 d4 bf
       0.0012300433244290128 -0.3198231295181452
000190 bf 99 0f bb e4 98 cf bf 6c 01 ae ba 65 e2 c6 3f
       -0.24685343870005558 0.17878409972400833
0001a0 6d 88 34 6d 7b 4a ce bf a1 28 4a 58 63 4f c3 3f
       -0.23664801437650188 0.1508602315046277
0001b0 10 0e 1d d7 cf dd b9 3f 2f 37 29 75 a3 6e b2 3f
       0.1010408306292947 0.07200070963264403
0001c0 7e 68 a2 c4 e4 0d a3 3f 24 fd a7 11 41 f7 d2 3f
       0.03721537494966841 0.2963411972450152
0001d0 cf f0 b3 21 13 6a 98 3f 92 a1 b0 7a 7c 96 d0 bf
       0.023842142993985512 -0.259184951605243
0001e0 ea 43 ef c0 1a d4 cd bf a5 40 43 b3 27 c5 c6 bf
       -0.2330354158462165 -0.17789169552861953
0001f0 c8 4c 0e bf b9 45 b9 bf 88 d3 40 7a 51 89 d1 bf
       -0.09872017778825459 -0.274006242168348
000200 b9 b0 d9 4b f0 4e bf 3f e6 f1 ee eb 10 e0 ae bf
       0.12229825832190756 -0.0603032386784184
000210 60 4a 98 31 32 c0 92 bf 31 33 08 8e 04 db a0 bf
       -0.018311294819861934 -0.03292097314633791
000220 a8 d3 d7 b1 af 8c 9d 3f dd 3d 4d b3 49 eb bc 3f
       0.028856988172225734 0.11296520831569219
000230 0f f1 6e 8e 99 eb 94 3f 5b 89 01 1e af 25 bf bf
       0.02042999202579759 -0.12166876299446498
000240 15 de 29 93 db 8d c5 3f 8a 9f f0 e3 ea d1 ce bf
       0.1683916538784024 -0.24078117494468315
000250 87 b3 a9 e1 41 0a 90 3f 19 dd 09 4d d4 2c cc 3f
       0.01566412868344316 0.2201180816807458
000260 19 57 2d 44 78 77 6e bf 95 56 ca a7 e3 b3 9f 3f
       -0.003719077010297844 0.030959660640823634
000270 d5 25 f0 eb fd f8 cc bf ab cd b8 6b be 15 cf bf
       -0.22634862919248513 -0.2428510690675528
000280 46 68 7c 9c 0d 02 af bf 74 e6 b3 09 4c 5f 95 3f
       -0.06056253943661764 0.020871341793258627
000290 79 00 31 ae ea dd d1 3f 7e bf d2 a6 ed 87 d2 bf
       0.2791697217071554 -0.2895464066632413
0002a0 1e bf 2e c8 ba a2 c5 bf 23 bc 7a 32 9f a3 a0 bf
       -0.1690286138013954 -0.03249833575443286
0002b0 ab 23 0a 04 7d 7a 9c 3f 5b 64 1d 1b cb 8d cc bf
       0.02781100594669154 -0.22307719062772233
0002c0 d2 ed 3c 23 57 70 bf bf 2f d3 f0 85 12 19 ba bf
       -0.12280792818358258 -0.10194507379567307
0002d0 cf c0 10 33 75 40 d2 3f 42 c8 2e 36 5c 60 d5 bf
       0.2851841925321538 -0.33400635997088923
0002e0 b3 fe 22 a8 dc 81 ba bf bb 72 66 21 c3 83 c2 bf
       -0.10354403595828891 -0.144646064099012
0002f0 23 ed 8b 76 64 b9 d0 3f 48 0e 07 99 a6 b0 89 3f
       0.26131545616927293 0.0125439658594423
000300 ab d9 3b 01 5b 3a a2 3f bf e1 30 8a 61 2a bd 3f
       0.03560146703778185 0.1139279329662548
000310 ab 5d b2 b8 f7 44 ad 3f 73 69 09 e1 38 46 bf 3f
       0.05716680650328539 0.12216525548993733
000320 76 ef ba d1 c7 d7 d3 3f e5 38 ba 0b 9f 90 c2 bf
       0.3100451992174763 -0.14503849098804902
000330 c6 76 a1 82 f4 ef c5 bf 54 3b 60 3b 1c 17 d1 3f
       -0.17138534906819397 0.2670355396120858
000340 f3 88 c8 d7 e3 7a d0 3f 8f ff e7 83 1b e6 b6 bf
       0.2575006110438515 -0.08944866152159946
000350 b4 41 39 92 c2 8c c5 bf 25 55 fe e4 de ff b8 3f
       -0.16835815563037004 0.09765427675877854
000360 39 b5 74 0d b4 ec a5 3f 67 ff 26 a6 0e 4c c8 3f
       0.04282152809387658 0.18982108223826374
000370 ee ce a0 94 86 08 d5 bf 86 4a 0a 24 c7 3b a1 bf
       -0.3286453677603579 -0.03365919413513034
000380 5a 98 4f f2 3f 4d c9 3f c4 7b 7f fc 0b da d0 bf
       0.1976699765356809 -0.26330852182394104
000390 0e de ed 43 15 08 d0 3f c9 43 2d 56 65 ef b4 bf
       0.2504933513041302 -0.08177789071966325
0003a0 5b fe 24 7e 78 41 c0 3f c7 0f 14 0f f6 11 d2 bf
       0.12699800643348422 -0.2823462626695314
0003b0 a0 3b 04 82 9f 53 bd bf d0 e4 0c da 7d 67 d5 bf
       -0.11455723690254027 -0.33444162649136633
0003c0 9a de c4 d0 d3 7e d0 3f 55 06 fd 71 55 21 b6 3f
       0.25774093043899315 0.0864461329738558
0003d0 cf ee 59 19 51 34 b3 3f 01 9c 21 b6 29 4a 82 3f
       0.07501704091003635 0.008930517073350687
0003e0 da 1a 9c e9 cd 94 cc 3f 36 ba 5c 75 1d 27 ca 3f
       0.223291148249891 0.20431869726731272
0003f0 d0 56 36 b7 c6 91 cc bf 5c df b9 38 27 3e bf 3f
       -0.2231987375823139 0.12204213271058734
000400 5b f5 33 d5 d3 72 c4 3f 37 49 c1 b0 13 74 c0 bf
       0.15975425634671123 -0.1285423863469732
000410 65 4c fb 08 56 d7 a7 3f 43 1c 23 4a b5 73 ce 3f
       0.046564758869543955 0.2379061328885844
000420 f3 f2 fb 2a fa 70 d4 3f 42 e6 dd be e6 c4 ce bf
       0.3193955821769087 -0.240383952328374
000430 60 75 74 d1 a2 6f c4 3f c3 66 50 08 01 32 d5 bf
       0.15965686061182804 -0.33117700397415833
000440 f6 43 f3 65 3c 56 d4 bf 32 94 3c 9a 7e 00 cc 3f
       -0.31776342350082076 0.218765092192514
000450 36 41 2b 2d 31 49 be 3f b0 df d9 0a 53 41 cd 3f
       0.1183043227458754 0.22855604200208068
000460 69 8d 6a d4 36 8c d1 bf 9a 5c b7 97 ce f0 d2 bf
       -0.2741829943062926 -0.29594769302406976
000470 4f 20 11 78 fb d3 d2 bf 2b 09 6d 93 59 63 b1 bf
       -0.2941883728531182 -0.06792220925584462
000480 42 b2 6f c2 b9 ae c0 3f b6 5f 87 50 6f fb ca bf
       0.13033220285378105 -0.21079818183966176
000490 17 8f 38 9e 40 e5 c3 3f f3 4e 12 e7 67 4d d1 bf
       0.15543372846251977 -0.27034947934701775
0004a0 62 03 78 44 5c f6 bf bf 9d 0d 0f c7 cb e2 aa bf
       -0.12485291167832949 -0.05251156620900164
0004b0 64 ff 75 26 1d 09 96 bf 17 9e 87 d2 0a 22 c7 3f
       -0.021519141647785914 0.1807263877847027
0004c0 ec 22 52 a3 19 b1 c5 bf bf 2a e8 0e 2a 28 c3 bf
       -0.16946716761255887 -0.14966321685672843
0004d0 22 2d 20 61 2d 23 92 bf f6 14 59 d6 9a ec b6 bf
       -0.01771231561000975 -0.08954780324082265
0004e0 7a 1d bb 0c dd 27 bb bf 13 7a 36 10 82 1f c2 bf
       -0.10607701836408082 -0.14158654967919002
0004f0 39 88 d6 50 86 d0 b3 bf 32 de ec 3e 8f 8c c7 3f
       -0.07740058396896722 0.18397703716776587
000500 45 e9 0f fa 28 31 cc 3f 05 d5 c5 e4 76 6a d4 bf
       0.22025024614397118 -0.31899807301609
000510 b0 c5 28 f0 dd 85 ce bf 66 f1 f0 27 6c 62 cf bf
       -0.2384602949764889 -0.24519111585858439
000520 01 4c e8 d3 bf 40 c5 bf 17 00 68 36 3b b8 c0 3f
       -0.1660384926513814 0.13062229305796855
000530 45 27 b5 78 bc 08 c5 bf e4 26 f1 9b e5 88 ce bf
       -0.16432910818030613 -0.23855276216845944
000540 49 e9 34 94 35 3d b1 bf 33 30 f7 22 21 f8 a7 3f
       -0.06734022968604338 0.04681495239091795
000550 be 29 bb 7f f3 d3 d0 3f 1e e2 3f ab 8e ee ca 3f
       0.2629364726423339 0.21040519105714933
000560 1b 87 21 41 41 45 b3 3f 82 b4 95 58 aa 79 b3 3f
       0.07527549591170805 0.07607521689142696
000570 22 f5 70 23 e5 2e c5 bf b0 76 5b 2c 7b 35 cf 3f
       -0.16549362402467077 0.24381961503870775
000580 21 ff 1f fc c2 73 d4 bf 55 8a 1c 18 5f f5 d0 3f
       -0.31956553098278745 0.26497628550183566
000590 8c 5e 06 ea 83 29 d3 3f 33 80 7d e0 3e 9e bf bf
       0.29940889219276623 -0.12350838642805755
0005a0 94 80 4e 5e 50 8e b1 bf 75 fe 83 c7 f6 bb c0 bf
       -0.06857778837593492 -0.1307362055012963
0005b0 c9 f0 7a c8 e0 cc ba 3f 80 4c 06 e4 84 85 c8 bf
       0.10468869108712221 -0.1915746796990767
0005c0 bd 18 5a d5 93 48 c8 bf bb f5 ab 16 8e 13 89 bf
       -0.18971488874030298 -0.012244329516302046
0005d0 99 1e 43 eb 9b 25 9c bf 5e 61 e4 e6 d9 5f c4 3f
       -0.0274872171728747 0.15917514585522502
0005e0 5c 96 f9 14 76 7a cb 3f 33 e1 52 59 90 0b d1 3f
       0.21467472099463947 0.2663308021833643
0005f0 03 d6 a7 90 ce 5f c0 3f 20 d5 3c cc 53 3b c6 3f
       0.1279237943960397 0.17368552658596403
000600 14 5c 6c 90 9e 05 14 3f a2 32 09 6a d8 bf 95 3f
       7.637768076694556e-05 0.021239644500655637
000610 6f b4 94 de d0 16 cd bf 2f 4d a4 0a 41 1e d2 3f
       -0.22725878589827483 0.2830965618060927
000620 d4 7b 96 cd 30 f7 b6 bf a1 6b 11 8a 1b c4 c8 bf
       -0.0897093297885328 -0.1934847282562631
000630 a3 15 1f bf 25 23 a4 3f 4d 3f 9a 45 e4 7c cb 3f
       0.039330653743984166 0.21474889181672055
000640 9b 82 2f 4f 05 c0 a8 3f 32 1b 8e e7 5a e7 94 bf
       0.04834000198002749 -0.02041379965114771
000650 5e b6 b3 0d 96 61 b9 3f 61 de 10 fc d1 51 cb 3f
       0.09914529642602463 0.21343445594696944
000660 2f ae 5c 6d 80 b1 b5 3f 46 8f 50 90 4f d8 c0 bf
       0.08473971052142625 -0.13160128161063706
000670 36 0e 62 c2 50 a9 93 3f dd 23 1c 9c 2c 9b b0 bf
       0.019200574745367592 -0.06486777125623129
000680 f9 9f a1 ae e0 cd bd bf 9d df 20 50 cf 78 c8 bf
       -0.11642269385777117 -0.19118682301063653
000690 bb f9 73 2b 4c d6 bc bf 21 3b ce 13 52 24 d0 3f
       -0.11264492092957472 0.25221683439387915
0006a0 5d e8 4b 44 43 1a c6 bf 88 35 01 4c 72 f4 d1 bf
       -0.17267647585669268 -0.28054482862793195
0006b0 fa 37 ff d8 f9 5c d3 3f de 5e 79 5d 79 a5 c7 3f
       0.3025498026953525 0.18473736824193215
0006c0 29 06 1d 1d b6 9e 8a 3f ad 3d 49 9b 2d 16 bf bf
       0.012998030436963752 -0.12143216172375189
0006d0 c6 53 11 af ab b7 c3 3f ec 46 7b 1b 3f 98 d2 3f
       0.15404268310763153 0.29054238971467217
0006e0 43 d4 4a 79 fd 20 d0 3f c2 4c 33 ee 65 23 b2 bf
       0.2520135578627711 -0.07085263314665993
0006f0 8e b0 e6 94 c8 38 c8 3f 82 9c 62 ee 74 ec b1 bf
       0.18923289557040274 -0.07001429386092364
000700 f1 73 a1 27 2e 0b cc 3f 3e 90 1c 78 9d 7c bb 3f
       0.21909119544116565 0.10737022573863528
000710 61 b1 54 fb 59 9b d1 bf e9 fe f9 e7 5f 16 be bf
       -0.2751069025423672 -0.11752890981187715
000720 11 d6 22 d7 7f 56 c0 3f 26 40 4a 01 ac 77 b8 bf
       0.1276397514790664 -0.09557604819770002
000730 b4 47 0c 2f ad 3b a7 bf 30 41 46 3e ca b8 c0 bf
       -0.045377170556221286 -0.13063934365028151
000740 f0 8d 2e 61 fb 36 c9 3f 72 c8 35 61 8e 1b c4 bf
       0.19699041600425415 -0.15709094759546677
000750 95 ae d9 41 ea 0d a5 bf fb b7 6f ec 5d 98 a3 3f
       -0.041121788538331185 0.03827184210955178
000760 f7 12 56 d4 cd 76 ca bf a5 11 22 bb 12 03 b1 bf
       -0.20675061099986866 -0.06645314282110933
000770 a6 98 3b 8f 0c 67 c3 3f a4 21 e2 30 ad 6e b2 bf
       0.1515823077563187 -0.07200128978195736
000780 05 8b 58 07 ca 1e d2 3f e3 32 72 c8 3a 11 c4 bf
       0.28312922208185426 -0.15677580630690277
000790 ab f7 da 12 e1 85 7a 3f 5a 86 bb ab 01 fd c2 bf
       0.006475333398780518 -0.14834614644410032
0007a0 c2 e0 03 87 e0 20 ca 3f 50 f4 55 54 1c 2a d3 3f
       0.20412832825218713 0.2994452308265112
0007b0 ee 76 90 2f 26 82 c2 3f 16 3d db 4b 60 47 c8 3f
       0.14459683725811295 0.18967822746206114
0007c0 4c 81 a9 64 db 47 9f bf 47 3c 2f 7a e1 b8 c4 3f
       -0.03054755021946791 0.16189211336174678
0007d0 45 21 54 9e 8b 99 cb 3f 32 94 86 b2 f4 f9 d1 3f
       0.21562333327188746 0.2808810943045642
0007e0 b5 26 05 7d 80 5b c4 bf cc d5 64 39 d6 86 b0 bf
       -0.1590424166154684 -0.06455744649141265
0007f0 6e f2 d1 68 2d f9 c5 3f b4 e1 57 ac f2 2d c1 bf
       0.17166679018182002 -0.1342147199172935

linears.3.bias f8 [30]
000000 c6 c1 d9 2a a5 60 86 3f a7 35 12 fd 03 ef 8e 3f
       0.010926523561665468 0.015104323540323273
000010 0d 94 90 f7 23 b8 83 bf 2b c4 f2 47 91 04 93 bf
       -0.009628563873841168 -0.018572111145378194
000020 da 42 96 b0 da 1a 93 3f fc c7 09 70 c9 b2 93 bf
       0.018657128360760257 -0.01923670526816322
000030 0d 47 85 cc 85 83 83 bf f4 4e 10 d8 20 bf 90 3f
       -0.009528203300451144 0.01635409659145544
000040 1b fe fd cf 70 ae 90 3f 45 8b 1b 8f b5 26 92 3f
       0.0162904383610095 0.017725788936228132
000050 02 bb d3 6b ab 76 90 bf 72 1a c3 12 e4 f3 91 bf
       -0.016077688652269558 -0.017531932492398324
000060 38 7d 65 b7 4b e3 85 bf e9 fd 3b 86 89 79 85 bf
       -0.01068743852073216 -0.010485720070845654
000070 c0 19 f2 a5 52 73 71 3f 3b 1a 2a 81 bc 77 76 bf
       0.00426037106001903 -0.005485283227818767
000080 7d 91 19 2a 26 a4 85 3f 74 ba c3 8c 87 27 82 3f
       0.010566995773111593 0.008864459021848271
000090 aa 93 da 36 88 0c 97 bf e1 ad 4f 30 73 cd 81 3f
       -0.022508743618022166 0.008692645942537549
0000a0 eb af 3c 65 93 20 8d 3f cf dc 5b c8 69 8a 69 3f
       0.014222289587983957 0.0031177583758751136
0000b0 1e 81 c7 ff 5b 9a a3 bf 58 07 5a db 42 64 88 3f
       -0.03828704354578093 0.011909982985574594
0000c0 fb 5a a6 a7 49 69 8e bf 0f c8 ab ad 08 b4 8d 3f
       -0.014849257878080993 0.014503543663042988
0000d0 e3 52 90 ce 87 18 86 bf f2 dd 80 fa 83 71 92 3f
       -0.010788975707364873 0.018011152424348205
0000e0 7f 0c c0 7e 2e cc 92 3f 7b 53 ed 3d 08 3e 8a 3f
       0.018357016073434537 0.012813629522193662
