1D_supercritical_InverseProblem_C_initial_60/Models/Model.ckpt-1500.pt (torch, 82380 bytes, 43 tensors)

linears.0.weight f8 [30, 1]
0.6669776575319453 0.15761463395349257 0.03349315099842963 0.36727974643503614 -0.6746585415446347 -0.34568217290381825 0.1966888219750256 0.034333599550225656
-0.2412388760822724 -0.5829465010224134 -0.5092492246435336 0.527698797334157 -0.01037432642310689 0.5931848941536512 0.22547135963755974 0.5347004388506119
-0.6286896981657226 -0.6378115857192685 0.43309284301089124 0.5767951155501518 -0.45481962108543617 0.0017845137906322215 -0.10406533188804475 -0.23074034805903895
-0.011044760986358489 -0.5846571657495813 0.023089146414348623 0.37186913355476553 -0.5763972574192339 0.3328877183462051
00000000: 8665 4887 e157 e53f f2c2 1961 b72c c43f
00000010: ee42 5ba8 0326 a13f 5cfc dae8 8281 d73f
00000020: 26d7 7c82 cd96 e5bf cda7 db1e a81f d6bf
00000030: 598d ef6c 192d c93f 83c1 716e 2c94 a13f
00000040: 3a09 a65d eae0 cebf 47af a66b 7fa7 e2bf
00000050: 486f ab07 c54b e0bf 210a 9696 e8e2 e03f
00000060: 0a66 a485 223f 85bf 7de0 1be3 5efb e23f
00000070: 09fb e9d9 3edc cc3f b1a5 4018 441c e13f
00000080: 4486 9edb 391e e4bf b692 b5d7 f368 e4bf
00000090: 9a42 370b cbb7 db3f 64f9 b807 1b75 e23f
000000a0: 2207 89c1 c31b ddbf 2383 ae17 cb3c 5d3f
000000b0: 1546 1b8d 06a4 babf 53ff 6354 e688 cdbf
000000c0: 2410 d4b9 a29e 86bf 3187 c8f1 82b5 e2bf
000000d0: d2fe f762 aea4 973f dd9c c031 b4cc d73f
000000e0: 9bd4 43a9 d871 e2bf 605e e249 084e d53f

linears.0.bias f8 [30]
0.19911732806785518 0.2887135599093501 0.14910376104389014 0.2195436239477082 -0.19880768907522361 -0.1459496976292352 -0.11131218430395484 0.1772622763483937
-0.18386803832335288 -0.23380972349427365 -0.1622070348011634 0.1311012834134877 0.23225324000720923 0.3174356696252213 0.1958964581763247 0.17996279169021084
-0.1822525752447152 -0.17531860269790525 0.12777280071397726 -0.07397530606551601 -0.14597608380751304 -0.789612515715755 -0.1879343224705903 -0.18473129806486493
0.1891786033802975 -0.17548241795345654 -0.23883262723639906 0.22722364242924345 -0.18388519559633026 0.1532192456542036
00000000: cb25 0f36 ad7c c93f ba3b 6e70 487a d23f
00000010: 1972 b200 d515 c33f 184b 7366 011a cc3f
00000020: f4bd 62c5 8772 c9bf 22de 16cd 7aae c2bf
00000030: f057 3b8f f47e bcbf fe8c ddbf 87b0 c63f
00000040: e171 b0e5 fc88 c7bf cc85 f21d 7aed cdbf
00000050: 0579 d33a 33c3 c4bf 48be 5c46 edc7 c03f
00000060: cf49 1c63 79ba cd3f aaf2 e7b2 dd50 d43f
00000070: 7f80 a298 2213 c93f 5e35 6750 0509 c73f
00000080: a5d7 2469 0d54 c7bf d1e4 7b08 d770 c6bf
00000090: 0543 31f0 db5a c03f c552 43b0 0bf0 b2bf
000000a0: 40c8 f924 58af c2bf d45d 7077 8144 e9bf
000000b0: 294f 675c 3b0e c8bf 8e3c de71 46a5 c7bf
000000c0: d587 4f25 0137 c83f 6409 1137 3576 c6bf
000000d0: 1b5b 9949 1192 cebf dd48 8e10 aa15 cd3f
000000e0: be03 a7d2 8c89 c7bf 9fee 9930 b09c c33f

linears.1.weight f8 [30, 30]
-0.18902953072545434 -0.11310888281531568 0.15200118340738078 0.2712056033492818 -0.08271611500908131 -0.1741059505582677 0.04199923697556215 -0.11773790838431662
-0.15349561419469337 -0.3428492053198888 -0.16043439212001423 -0.20195789088386515 -0.1266110527946341 -0.05251543061557026 -0.1362660234859943 -0.015065924499382887
-0.26381982715767155 0.005258355912399619 -0.2341779730857869 0.05777659525796285 -0.08184991400387694 -0.020990941380249647 -0.34225983766489426 0.2461643909144858
-0.028420778975487934 -0.30387574132174977 -0.1529783348030281 0.12177820255971583 0.05537698494010399 -0.21966524001617632 -0.05952944338018111 0.21432977740436213
-0.03226477058673881 0.11631087251413572 -0.1453643365067179 0.1702455030050852 -0.02660335837292601 0.2807410856724291 0.009767401204058708 -0.07555728555012141
-0.0794394967453885 -0.22113584880331055 -0.08745171505829018 -0.10213471450210371 -0.2908056024131072 -0.02861635777779963 0.01238460603515879 0.20516504263947682
0.07541875588281266 -0.20545159197263324 0.12161838587508718 0.3816513002886742 -0.15940838767634086 -0.11351481057822845 -0.3296979909494169 -0.0420033909383351
0.14005631062016116 -0.0897403073224657 0.16066965322885154 -0.08794150108001265 -0.02862051038638179 -0.1370357249831001 0.1955142567339176 0.02304108218088406
0.30745689132067344 -0.0028345920451390253 0.07326751284122567 -0.25768789234465805 -0.19630234542992323 -0.16694035179185251 0.21938272978337217 0.2434727645764733
-0.36648746688508677 -0.2528341550308132 -0.20393525932618722 0.11635091182066114 0.033028122681531144 0.012489464159842627 0.14041906113700342 0.2364429461838987
-0.24027572690812987 0.07231768891438697 0.24529119085621148 0.249173550491966 -0.30986270386099585 -0.02482738264966264 0.043910464977289176 0.18511940790480413
0.03981117718205647 -0.10929881308787416 -0.10088660408475038 0.23100816200591504 0.07644999072650287 0.1731182722091291 -0.05676151434727481 0.0016315609087180559
0.03138231606207556 -0.07712491712149193 0.1544924463247087 0.03037737653761926 0.21391516566773025 0.3388356779967505 -0.030235831170568737 -0.12967744363076453
0.3501463770099694 0.2722109545947868 0.04326248070257317 -0.0796699113462344 -0.1643186416416522 -0.025180099864832012 0.08613140235309678 0.0895988214720429
-0.15363824909440832 -0.34836392428068363 -0.027889475312216454 -0.2458565170945108 0.01192232648424887 0.023741642173037092 -0.27364616060257013 -0.16669749998130093
-0.38041993011806396 -0.010351020010258456 0.21609413110516656 0.06529751368163195 -0.23032215020761995 0.1487419675151008 -0.12781814794020285 0.247946825332177
0.26948690479999127 -0.13472770448457327 0.25107483105982115 0.19509700725949772 0.27349446011765455 -0.22005825742465032 0.07241043221666868 -0.30396346512883826
0.3749446082532808 0.3716274043289279 -0.34858566705820787 -0.10879585544747106 0.20686375736134008 0.07842855732712038 0.27289922041893433 -0.08189538257974135
0.1284774070640943 0.19083121295980426 0.2237115115532493 0.0379316986482443 -0.08747310460129372 -0.12699111602812044 0.20121330628968265 0.19359928378193175
-0.304704074016429 -0.004819533166915093 -0.22556462101692862 -0.20841188564917698 -0.10341123139448981 -0.32362690889331147 -0.14436707935435347 -0.07433471207670549
0.07445889630740887 -0.09228666595445141 0.03171839269912994 -0.32829722224039226 -0.22256844178465066 -0.3260120505035379 0.18728763321990988 0.2097595107531434
-0.15944724545405373 -0.033919516530458736 -0.04053670574262272 -0.16780976742588852 -0.09006059370100256 -0.19746977886891331 -0.1909494966592734 -0.12057665003632125
0.1879071832826072 0.15706962627127602 0.13206457379964565 -0.28549303966833384 -0.2496328765927313 0.08963191900388115 0.053408957318204796 -0.10330021589208861
0.16167578400025082 0.2624359582525229 0.14825376368505283 -0.2742697440461544 0.3183029027562854 -0.03572321593860717 -0.2583760820028321 0.16584162446614586
-0.019819997581786958 0.24842705886792565 0.10464831906429288 -0.018275330576349846 -0.06676581203422847 -0.13703123697828432 0.12781445259452925 0.209603304583842
-0.036271901852249724 -0.17487099034156245 0.20152729910477515 0.23549626265272003 0.13290781045547173 0.29545813629338075 0.11384521904355152 0.23198575007480013
0.17067840358817632 -0.31461775807522085 0.3027178727838301 -0.20769710444510503 -0.07273699750820395 0.17099523601266922 0.07565161193521688 0.27932083224693277
0.3121044707880171 -0.19561714477515854 0.235260717523399 -0.17944554350045702 0.06709262801965786 0.08442637623665963 0.09112540348486935 0.26180710672207036
0.10332752857896875 -0.29308298245565956 -0.11418043407432373 0.27977948453431445 0.04220287391665984 0.08873917015138505 -0.10498075072228599 0.24207815172411803
-0.22269075516276604 -0.0872468332067955 -0.31161708072966693 0.08018860110035038 0.12611145301857535 -0.06674978488180401 0.21468918391486624 -0.10386103145609099
0.09246743657387343 0.014373912926229021 0.15671532508780278 0.08440686243332124 0.02687209205570145 -0.09248053912853778 0.10806760337765876 0.1879139950335409
0.1737560182817465 -0.05155299176057689 0.09187484780145809 -0.06011699676659401 -0.12682022606463064 -0.1239274559728411 -0.07224851064654099 -0.053881199483979354
00000000: bfd6 38a2 1e32 c8bf 4d31 9428 b4f4 bcbf
00000010: 5410 d857 c674 c33f a022 38bf 6e5b d13f
00000020: 1bf1 d020 e22c b5bf 83e7 d791 1a49 c6bf
00000030: 5bb3 888a ec80 a53f df94 0252 1224 bebf
00000040: 94d7 8589 bea5 c3bf a7be 13cb 3df1 d5bf
00000050: a190 a739 1d89 c4bf 93f6 4194 c1d9 c9bf
00000060: a354 887d ca34 c0bf 6cf7 0e72 4de3 aabf
00000070: f9d2 3641 2a71 c1bf 6622 1228 e2da 8ebf
00000080: b96d 6b8e 6ce2 d0bf 5eb0 ca2a c989 753f
00000090: 3f6b ec37 8bf9 cdbf 2fe0 36d6 e494 ad3f
000000a0: 75ba d3af 1df4 b4bf 0f32 f63a a67e 95bf
000000b0: c151 60ce 95e7 d5bf db6f 3594 5082 cf3f
000000c0: ac00 e830 561a 9dbf 3694 c13c b372 d3bf
000000d0: a3de 7c48 cb94 c3bf 9011 5c35 db2c bf3f
000000e0: 3da4 8946 5f5a ac3f f2fe f796 fd1d ccbf
000000f0: 9615 efa8 a47a aebf 755e 417c 286f cb3f
00000100: ee49 f70c 0285 a0bf 6e10 9ea1 8cc6 bd3f
00000110: 318a a66f 4c9b c2bf 2355 d9c9 9aca c53f
00000120: 56b2 b328 e93d 9bbf d1d2 6675 a9f7 d13f
00000130: 7720 e865 ee00 843f cf8c 69e6 b857 b3bf
00000140: 763a 8898 2556 b4bf 7ead 4af3 2d4e ccbf
00000150: 278b 2750 3c63 b6bf 24a5 922a 8025 babf
00000160: 69e7 f619 8f9c d2bf cd27 2543 9b4d 9dbf
00000170: c3a7 28af 195d 893f bea1 351e d942 ca3f
00000180: 588d 05c2 a44e b33f 1280 37de 3c4c cabf
00000190: bd01 eded 6122 bf3f 8ace 4d93 f96c d83f
000001a0: a294 e379 7e67 c4bf 618d 0b7f 4e0f bdbf
000001b0: 4cd1 2b9a c519 d5bf e770 cdec 7781 a5bf
000001c0: 2223 db7c 5ded c13f 253e 1585 38f9 b6bf
000001d0: 15ee 09bd d290 c43f b18c 198f 5583 b6bf
000001e0: 9cd7 6af0 b14e 9dbf fbd0 97fa 628a c1bf
000001f0: 5676 4975 9c06 c93f 9bb2 b9d9 1498 973f
00000200: 50bc 49ab 5fad d33f f936 3404 9238 67bf
00000210: af27 83e3 a8c1 b23f aa82 8c5b f57d d0bf
00000220: 65f3 df6c 6f20 c9bf 3414 aa2b 4d5e c5bf
00000230: 6907 ddb8 bb14 cc3f ed4c a994 1d2a cf3f
00000240: c794 2ad9 8774 d7bf 22d3 ca4e 6f2e d0bf
00000250: 1254 a7f2 8c1a cabf 2f28 2161 2cc9 bd3f
00000260: 56e9 87e5 0fe9 a03f 3682 e380 1394 893f
00000270: 1cc3 a875 40f9 c13f e367 9d30 c343 ce3f
00000280: e6e8 8be2 5ac1 cebf 8a41 cf7c 6983 b23f
00000290: 9ab6 5ca5 b365 cf3f cc12 323d ebe4 cf3f
000002a0: ad51 d560 cad4 d3bf 5931 1a72 596c 99bf
000002b0: 1829 0fb6 6e7b a63f 962b 6725 feb1 c73f
000002c0: 4a3e 0670 2162 a43f b93b b4cb 01fb bbbf
000002d0: 4904 2659 b4d3 b9bf 3155 76ea ac91 cd3f
000002e0: 4328 f301 3a92 b33f cf36 bd52 bd28 c63f
000002f0: 7d01 965f d80f adbf 9edb a32f 43bb 5a3f
00000300: 5496 51ca 5711 a03f 3757 be64 75be b3bf
00000310: d4c9 3892 68c6 c33f d6c4 113b 3f1b 9f3f
00000320: 3fa6 5478 9261 cb3f acb2 edd6 7baf d53f
00000330: a60c 2e48 24f6 9ebf 6d25 b63d 4599 c0bf
00000340: 6e86 8459 cc68 d63f 433e e67e e76b d13f
00000350: fad3 85f7 7f26 a63f 5b11 b54f 3f65 b4bf
00000360: 57ad fcab 6408 c5bf 55c6 b7e5 cfc8 99bf
00000370: 0fe2 4324 b50c b63f 8089 fbc7 f2ef b63f
00000380: 4639 a30b 6baa c3bf 8a12 7933 984b d6bf
00000390: 2b6a 7901 0f8f 9cbf 37f6 36f2 3978 cfbf
000003a0: 4e96 bc92 bb6a 883f 6001 bfa2 ba4f 983f
000003b0: 37b2 9d2f 6b83 d1bf a150 5ffb 5756 c5bf
000003c0: dca2 a6d5 cc58 d8bf 44f8 6463 ea32 85bf
000003d0: 1a24 faf4 f8a8 cb3f 18d1 c57d 56b7 b03f
000003e0: 05d3 573b 327b cdbf 1391 020f fa09 c33f
000003f0: e485 9e56 585c c0bf ce6f f9b8 b8bc cf3f
00000400: 143d b400 463f d13f b42d 50e6 c13e c1bf
00000410: c30a 102b 9c11 d03f e70e dd50 f0f8 c83f
00000420: 90eb 75e8 ee80 d13f 7f43 6d75 de2a ccbf
00000430: 5a83 4276 7d89 b23f 830f 7a2d 2374 d3bf
00000440: 9099 90ab 17ff d73f a1f7 f84e bec8 d73f
00000450: 63a3 f741 3a4f d6bf d054 1691 0bda bbbf
00000460: ff1c 4cf8 827a ca3f 8fdd cad8 e413 b43f
00000470: ee67 b34a 2e77 d13f f696 df85 18f7 b4bf
00000480: b5bd ce9a f271 c03f 92f3 5b3d 286d c83f
00000490: 4012 ee2c 94a2 cc3f 5f14 5a9a c86b a33f
000004a0: edc9 8a2b a364 b6bf b595 1cb1 3e41 c0bf
000004b0: 4261 048d 5bc1 c93f 76ab 2f80 dcc7 c83f
000004c0: 17f2 3684 4580 d3bf 8f9a 5795 a5bd 73bf
000004d0: f77f 332f 4ddf ccbf fffe 7a9c 3dad cabf
000004e0: 47e0 e090 2879 babf 9c59 73a3 4db6 d4bf
000004f0: 0916 39d6 9e7a c2bf ffb7 5385 9907 b3bf
00000500: 105d 89fc bc0f b33f 4d99 2154 19a0 b7bf
00000510: 151e a6a6 643d a03f def7 385a d202 d5bf
00000520: c51a 4b69 1f7d ccbf 22ef c0a5 61dd d4bf
00000530: 02f8 cf89 0af9 c73f d1d7 5a4f 66d9 ca3f
00000540: 03cb 5470 c468 c4bf 2b8f 631c e65d a1bf
00000550: e47e e722 3ac1 a4bf 4993 855b ca7a c5bf
00000560: 8ca9 9a08 360e b7bf e25c 1891 b046 c9bf
00000570: 3c6c ab79 0871 c8bf 7136 9180 1cde bebf
00000580: 6aee 70b3 570d c83f 6ed9 0386 db1a c43f
00000590: fcfe b6f0 7de7 c03f aa1c 2799 8445 d2bf
000005a0: 8e70 7c58 f8f3 cfbf daa4 cc10 1ef2 b63f
000005b0: 3b84 fd39 6b58 ab3f 611f ed08 e271 babf
000005c0: d309 6bc6 cab1 c43f e54b 7f30 c0cb d03f
000005d0: aca2 44b5 faf9 c23f 3979 3daf a28d d1bf
000005e0: e9d8 6323 135f d43f 601a 5438 504a a2bf
000005f0: 6d54 91d5 3b89 d0bf e2e4 b260 4c3a c53f
00000600: f8aa ae85 b14b 94bf 12bd a336 75cc cf3f
00000610: 2367 f673 3bca ba3f 7396 98ac c4b6 92bf
00000620: 7f8a 2d73 9017 b1bf 7b13 ad54 3d8a c1bf
00000630: 2fc1 ec56 395c c03f bb1a 29f5 47d4 ca3f
00000640: 6232 7010 3b92 a2bf 52a0 4430 2c62 c6bf
00000650: fffe 7383 a5cb c93f 733a 36d5 bd24 ce3f
00000660: 1805 a585 1f03 c13f 4be6 2d3e c9e8 d23f
00000670: 3217 99d4 f524 bd3f 37ca da84 b5b1 cd3f
00000680: f0b8 c538 cad8 c53f 6621 6b85 b222 d4bf
00000690: fa5b e1c8 ba5f d33f 5066 8897 d195 cabf
000006a0: c0c8 8151 e49e b2bf 991d 3901 2ce3 c53f
000006b0: c2c4 266f e75d b33f 9de4 e57b 64e0 d13f
000006c0: 2f13 be07 85f9 d33f 6350 ac8b fb09 c9bf
000006d0: 7af3 e5ef 051d ce3f 13ab 5f52 12f8 c6bf
000006e0: e7a9 2583 fb2c b13f da32 db8c f79c b53f
000006f0: bb64 cd93 fe53 b73f bfd3 4e98 72c1 d03f
00000700: dfee 0544 ac73 ba3f 1851 2a20 dfc1 d2bf
00000710: dd3a 31ce ed3a bdbf e0a9 0a36 e8e7 d13f
00000720: 29dd 8976 9d9b a53f 0ca4 ac39 9cb7 b63f
00000730: a2ce 0fbb 04e0 babf 6398 5db8 6afc ce3f
00000740: fcd6 4573 2181 ccbf 4081 4df7 ce55 b6bf
00000750: 67f8 a6c4 88f1 d3bf 35ed 3c7b 3d87 b43f
00000760: 3ed3 2e8b 6b24 c03f 1517 158f 8316 b1bf
00000770: 5c11 dc67 ef7a cb3f ecc7 6ef5 a296 babf
00000780: 169d 0728 f2ab b73f 7d3a 78ef 1170 8d3f
00000790: 165e 046e 3f0f c43f a486 b529 b09b b53f
000007a0: aea4 3792 5b84 9b3f 15d2 12fb cdac b7bf
000007b0: e99e 4386 51aa bb3f 209c 90d7 900d c83f
000007c0: 756b 0020 a33d c63f 0bca 3e5b 2765 aabf
000007d0: 7bda a12a 1c85 b73f 43af 17ae a7c7 aebf
000007e0: 059f b529 a53b c0bf 4cd6 7ab2 b5b9 bfbf
000007f0: b55e 69de e07e b2bf 994e 4e0b 5196 abbf

linears.1.bias f8 [30]
0.03500296571334332 0.0003498647335473547 -0.023876136127898618 0.07397900993977179 -0.09891497502248014 -0.02759372814129314 -0.03235363973214282 0.024832084479788255
0.03522592280874581 -0.03554300774448883 0.043342487143134434 0.060577446059906025 0.09006885009412499 -0.016232840545062736 -0.026712941858135556 0.026411313642953484
-0.10240937664087728 -0.09953254060623737 -0.10918051689559066 0.09410887746751938 -0.0049109364233127055 -0.04907809025807103 -0.006352770391147243 -0.009997077401818153
0.0421769327582395 0.0467785304796194 -0.04304573172000223 0.08690456711146224 0.017068151523888086 0.02395410278353516
00000000: 67ee 00a2 e8eb a13f 1d1f af96 c1ed 363f
00000010: ddf2 4b5f fc72 98bf a722 48d4 49f0 b23f
00000020: b863 cee6 7d52 b9bf a32a c4bf 8741 9cbf
00000030: b6bb 1c01 a890 a0bf c4c5 edfa 946d 993f
00000040: 30b6 ded4 2109 a23f 5265 ba6f b132 a2bf
00000050: 5837 9d89 fc30 a63f 23ae 67cb 0104 af3f
00000060: 66e7 8a8d c00e b73f 4e85 0c7d 579f 90bf
00000070: 417f a42e a35a 9bbf a710 5d41 910b 9b3f
00000080: bbef 793b 8037 babf 16a5 caee f67a b9bf
00000090: c44b 6d1d 41f3 bbbf ff7b fcf6 8417 b83f
000000a0: 4c37 4b75 7d1d 74bf 0894 3771 c320 a9bf
000000b0: 0b85 1ad1 5c05 7abf 1f9b f803 5979 84bf
000000c0: bc38 af05 3798 a53f 2a3b 2105 5bf3 a73f
000000d0: 8c89 f013 170a a6bf 7ae4 9db1 603f b63f
000000e0: 63a1 6442 507a 913f e0c0 3da0 6c87 983f

linears.2.weight f8 [30, 30]
-0.045328997985208834 0.0624207808728337 -0.2512783620517249 -0.33261227803934595 -0.1408594579976688 0.24283121326694684 0.3705710354832121 -0.2809926592758588
-0.060936414394499455 -0.27573791487232824 0.2513206659031341 -0.2772250846784809 -0.1048615510275396 -0.24767300432610864 0.22225216176589874 -0.25037308140487163
0.2082498475726396 0.34303906280636415 -0.12079018316329673 -0.30617817469671665 0.27461654384111245 0.2691843281153862 -0.22610418585504805 0.15216421722150517
-0.28670221550130076 -7.412214342776575e-05 -0.09630640536688961 -0.3411953145133918 -0.1591664638894572 -0.06636571667837317 -0.20368028370874414 0.12124157364995505
0.31369361226193454 -0.2641216740881048 0.3709136779374676 0.2145813753223867 -0.21367814994937162 -0.22244170597598148 0.34349475216899483 -0.006741227723358752
0.06701908152980139 0.05807647255139586 -0.034157787003450735 0.14866676515808233 -0.12322149693292998 0.25319006367593977 -0.24517061280573843 -0.04672838984154585
-0.06985049050625793 0.14111605420921053 0.042633468772483744 0.0228445691466893 -0.2041836449636556 -0.043168803705923534 0.11725670914128124 -0.24805138100663995
0.3230401134508315 -0.29282148648417805 -0.3565613509321204 0.06819939972392554 0.12708876103203845 -0.2800498344175215 -0.38377998480573994 0.08643010711149647
0.3316275514335636 -0.17251978448469987 0.20938802087642952 -0.16130389814854026 -0.1854485417373964 -0.19127009798228767 -0.057731045633446956 -0.06915819751900949
0.1855231323548588 0.21265669535731116 0.1610316275025092 0.2280420944095684 0.23638763670625787 -0.3012447642579175 0.02565149244403668 0.2905325791142934
-0.2938657922698862 0.2930934745223069 -0.0443171565702346 0.09608330320990247 0.07262120195946868 0.23867181929354914 0.2670585064121547 -0.04709286094439793
-0.2389573887259066 0.25216116752143514 -0.19112732521322762 0.10154010144385371 -0.2376446066001362 -0.13244245497598817 0.29926490376094117 -0.25643178769436964
0.2869823554343156 0.07141161543997832 0.3336946986365763 -0.23469782159259178 -0.36694874980839526 0.06864363392417942 -0.17119745409777448 0.026361196104119203
0.19977460799965693 -0.11348632495035356 0.08423077542442982 0.21124901893215142 0.26268401273208314 -0.22151541625123825 0.12630928629367524 0.03307088692798561
0.1620476420470772 0.17211277669819455 -0.20856464519760096 0.11137124652537173 0.156317245310993 0.2378418593428946 -0.10382882101232385 0.08237201561261528
0.06241129643273244 -0.15229905268064756 -0.24995440532320384 0.22639759441757235 -0.13575896823430614 0.15245111223422295 -0.20414982401017506 -0.1214464219749742
0.17910085933815287 0.22205695793654434 0.26331933757752646 -0.2469515271200414 -0.15117488813142457 0.3905753840289095 -0.08924725253084717 -0.19254351908107403
0.13577100359608746 0.0903705117838563 -0.15627045204712522 0.3761389121173625 -0.3335847548123513 0.11706408753319197 0.014150015509467756 0.020015496950167452
0.4106795449061098 0.23441445822268075 0.22130198572101867 -0.16177203665450993 0.07934573082087068 0.09889312382854759 -0.04359992855700991 0.2747623143341674
0.09345616387854351 -0.01997844086787619 -0.08277195326407856 -0.23554716319960362 0.13538103675426172 0.11498155841273265 0.29846801846608956 0.3059614908262481
0.12982034202417486 0.0032812184509885788 0.22039369150815202 -0.32839475405031665 0.27380060062934386 0.16009298280012668 0.22591972646569924 0.12761027849517542
-0.1604092257213002 0.2864830981955724 0.08109082875625323 -0.028610398574937735 0.21037986327633712 0.13221857530648798 -0.2509350464049018 -0.07803724614031943
-0.07427935920209083 -0.144720166323518 -0.16322252624529246 -0.1849866962545215 -0.11957520266910267 0.2194163525224296 0.032039957112842805 0.16845861214211388
-0.1812048803024938 -0.2890739408745743 0.1123943515271424 -0.2248486076502632 0.26060339132702454 0.16943738438541472 0.2422401815154385 0.004563185783462698
0.05921248353277437 0.27323501810018425 -0.16320824965949368 0.2843786185232727 -0.049447440494177944 0.05560734193402156 -0.21059180410689346 0.33086387100504866
0.05137477850546091 0.02417579371193168 -0.09411416373521005 0.07078857870163881 -0.19230338552759618 0.30093860674776707 -0.26146049519291753 -0.290202054105733
-0.2784602649322194 0.3243039664362395 -0.17663187165580607 0.12061212969508842 0.24537137404377296 -0.1657085775354088 0.32170058799261175 -0.004385871071863849
0.17660237042182256 -0.18914502530913138 0.10908050477018025 -0.24115827185225228 -0.17156712134947621 -0.16104533332655813 -0.13283153237273496 -0.2969424425563822
-0.08461423137845396 -0.17128251764484553 0.16967180503673243 0.2932997203076294 0.2921916546801866 -0.08973523013466263 -0.04031113052588404 0.2046338487333937
0.03938396503100474 0.16893164911020747 -0.19873313539137802 -0.12721674658081783 -0.27480946139455775 -0.13307437173860923 -0.15513958706474382 0.21961911672961099
0.13889765382408167 -0.30173468826535915 -0.2695056704761424 0.2160602633309444 0.16454397653962524 0.20043252981122597 0.009149277291159235 -0.19533266180155165
-0.15637916198618831 -0.10210798220033154 0.4796619404799308 -0.032221318518848394 0.09104039952456648 -0.0019338514008704702 0.073052480250086 -0.10383534333093258
00000000: 0f58 d0c7 5c35 a7bf a813 e1d8 9df5 af3f
00000010: 4318 cdd6 f114 d0bf c954 1b02 8549 d5bf
00000020: ba54 b7c6 ae07 c2bf 1afb b6db 1715 cf3f
00000030: 33b2 8f93 6fb7 d73f 6a60 80a2 c8fb d1bf
00000040: 3c75 ebc5 0e33 afbf 5c35 a9a3 b0a5 d1bf
00000050: cf39 3746 a315 d03f 43cb 1448 0ebe d1bf
00000060: fa67 45e4 34d8 babf d162 d7be bfb3 cfbf
00000070: a6fa 1f43 c272 cc3f dbb0 1bd1 1c06 d0bf
00000080: 3259 5c56 eea7 ca3f a73e 001d 5af4 d53f
00000090: d23c 5dfe 1aec bebf 5f91 c457 6c98 d3bf
000000a0: 7e3d af44 5193 d13f fa7b 76e7 503a d13f
000000b0: be39 de61 fbf0 ccbf 2f3d 4bf8 1d7a c33f
000000c0: 8734 d13f 5459 d2bf 0d4c 4cba 406e 13bf
000000d0: 4034 725d 89a7 b8bf 7a8a 58df 24d6 d5bf
000000e0: 3839 8312 915f c4bf 158f b5f6 57fd b0bf
000000f0: 483d af0e 3212 cabf 62fc bd11 b009 bf3f
00000100: 6543 685f 8e13 d43f 31e2 1798 5ee7 d0bf
00000110: 1d5a 18b9 0cbd d73f aa90 ab0a 6777 cb3f
00000120: b87f f33c ce59 cbbf fd75 3746 f878 ccbf
00000130: 1876 ba69 d1fb d53f 221a b589 b09c 7bbf
00000140: 67e2 609b 2928 b13f 67f2 8c0c 33bc ad3f
00000150: b0c7 2a24 217d a1bf e593 2d37 8307 c33f
00000160: a3b8 7dab 718b bfbf aa42 ca18 4434 d03f
00000170: 3e70 f829 c061 cfbf 250f 5494 c8ec a7bf
00000180: d97c 55c4 b8e1 b1bf 9a72 e242 1710 c23f
00000190: af8a 2fd4 0dd4 a53f 5e45 8115 9164 973f
000001a0: e89c bf8e b022 cabf 6aaf 3fb0 381a a6bf
000001b0: 4d96 ff22 8904 be3f 0559 93cc 25c0 cfbf
000001c0: 1e51 a470 b0ac d43f 6c00 0155 96bd d2bf
000001d0: a858 51b3 e6d1 d6bf a9cc 6b0f 8475 b13f
000001e0: 932f 29cc 7144 c03f bcb3 0424 56ec d1bf
000001f0: e466 e6ec d98f d8bf f903 6f93 4820 b63f
00000200: 8c05 f7c3 6239 d53f 252b 23d8 2015 c6bf
00000210: ad51 eb06 3acd ca3f 33f5 a12b 9ba5 c4bf
00000220: 622f ed1e c7bc c7bf a8b0 c4df 897b c8bf
00000230: 9a48 eb71 ec8e adbf 252e 9804 5ab4 b1bf
00000240: eacb 0ed5 38bf c73f 1de4 eaa7 5538 cb3f
00000250: e859 df32 af9c c43f 3edb ccbc 7b30 cd3f
00000260: 7982 6a38 f341 ce3f 190e a51e 9847 d3bf
00000270: 2c1b 9084 6244 9a3f a4fa 6df5 1598 d23f
00000280: 2c96 cd77 b2ce d2bf e5a2 ef21 0bc2 d23f
00000290: 8fe2 3d04 bdb0 a6bf 326a fa54 ea98 b83f
000002a0: 4b81 6997 4d97 b23f d2da 2b55 cc8c ce3f
000002b0: f429 ca8f 7c17 d13f 2335 4333 8e1c a8bf
000002c0: de8f dbdc 2796 cebf f2d8 f497 6823 d03f
000002d0: 9cd5 9435 dc76 c8bf 5f12 ef36 88fe b93f
000002e0: 2c8d b572 236b cebf 30a6 5cd6 dff3 c0bf
000002f0: e89a 9ffb 2727 d33f 2556 73df 6069 d0bf
00000300: cca4 c73d eb5d d23f 3886 de18 0848 b23f
00000310: ec87 5f02 415b d53f 3c60 1706 940a cebf
00000320: 990c ef9b 167c d7bf 336f c812 a192 b13f
00000330: 5613 4155 cce9 c5bf f43f 9aec 6dfe 9a3f
00000340: ef01 f7df 3692 c93f b57a 3496 700d bdbf
00000350: e1bf c3e9 2590 b53f 2016 d035 350a cb3f
00000360: 3172 f79a d0cf d03f 47f0 2dfe 9d5a ccbf
00000370: e9fd e716 e72a c03f fa5e 9cd3 aaee a03f
00000380: e338 7e25 fabd c43f 533d 929d ca07 c63f
00000390: 7bde 1c0d 3fb2 cabf bc8d 8a75 d382 bc3f
000003a0: d4ac 3418 3402 c43f 30b0 bf1f 9a71 ce3f
000003b0: ba52 a18e 8694 babf ae6a 2919 5516 b53f
000003c0: 6cba 289a 5ff4 af3f 1fd2 3c0d 897e c3bf
000003d0: 5659 2d86 81fe cfbf 5c51 f5ab 98fa cc3f
000003e0: 013f 5ac4 8c60 c1bf c174 a49e 8483 c33f
000003f0: 46ce cdd8 9421 cabf 5d46 99da 1c17 bfbf
00000400: 877c c5e6 c6ec c63f f8e5 17c6 5c6c cc3f
00000410: e830 d359 39da d03f 4bc3 568e 1b9c cfbf
00000420: 611e 40e0 b259 c3bf 35b7 41e5 2fff d83f
00000430: 3eba e06e e8d8 b6bf 8846 c11a 44a5 c8bf
00000440: 8e5b 18ba f160 c13f 046b a298 8522 b73f
00000450: 21d0 6f90 ab00 c4bf 8603 93f1 a812 d83f
00000460: 1e3f 17df 7359 d5bf 68bb 7d7b e9f7 bd3f
00000470: ddf6 ceee aefa 8c3f 5cb2 4143 f17e 943f
00000480: 8481 a0db 9248 da3f 0e53 e3ff 4a01 ce3f
00000490: d416 9b9b 9f53 cc3f c951 6b33 f2b4 c4bf
000004a0: 8eee f376 0050 b43f 7494 a44c 0f51 b93f
000004b0: 4245 85d6 ba52 a6bf ee43 8fac b495 d13f
000004c0: 49cc 773f beec b73f ad42 9c78 3a75 94bf
000004d0: 0596 4bf0 8a30 b5bf c2ce 4dd1 6826 cebf
000004e0: 24d7 ad72 2a54 c13f db9a 0671 6e6f bd3f
000004f0: 8dae 8d9a 191a d33f f1c8 3b81 df94 d33f
00000500: 02b8 acf5 f39d c03f b852 04be 36e1 6a3f
00000510: 4cd8 a248 dc35 cc3f 9fbd 346e 6b04 d5bf
00000520: 0c01 55f4 f285 d13f 8e0a b946 ed7d c43f
00000530: 3c81 5806 f0ea cc3f ea96 629a 8855 c03f
00000540: ab8e 391d 4a88 c4bf d4d4 6634 bd55 d23f
00000550: 2c7e 8359 5ec2 b43f bdcc d158 0b4c 9dbf
00000560: fe20 4134 baed ca3f e9ba 6ecc 89ec c03f
00000570: c7ac 6ede 510f d0bf 24e6 0abc 3ffa b3bf
00000580: f872 8ada f803 b3bf 3f31 b7be 3086 c2bf
00000590: 11d6 18ca 79e4 c4bf 51db 4de1 a4ad c7bf
000005a0: a559 e000 7b9c bebf fb4d 25c5 d515 cc3f
000005b0: b107 ee8f 8a67 a03f 78a1 f042 0d90 c53f
000005c0: d32c 63b5 b831 c7bf 16a8 8bfc 2f80 d2bf
000005d0: b16f 1050 e0c5 bc3f a25a 34d4 d6c7 ccbf
000005e0: 0d7b bed8 b9ad d03f 8adb 53cc 1fb0 c53f
000005f0: 9165 b1ec b901 cf3f f4e8 49db d8b0 723f
00000600: 898f 9340 1951 ae3f 422f b7ba ae7c d13f
00000610: 75ca 5c07 02e4 c4bf ad4d 8f60 4233 d23f
00000620: 9238 96c7 2c51 a9bf 6858 0cc6 9078 ac3f
00000630: 6fed b817 acf4 cabf e441 59a8 df2c d53f
00000640: 7157 0a83 cb4d aa3f 60ee 630d 8ac1 983f
00000650: 1d47 55a7 dd17 b8bf 3930 7446 331f b23f
00000660: 3824 e0b7 659d c8bf 4078 8500 9442 d33f
00000670: c32b 03cd c4bb d0bf ef6e e7a2 ab92 d2bf
00000680: e4a3 c700 4bd2 d1bf 78a1 736c 65c1 d43f
00000690: ccb2 1888 df9b c6bf a293 8ac0 6fe0 be3f
000006a0: 5440 7245 5468 cf3f 9033 974c f035 c5bf
000006b0: 2f10 2210 be96 d43f 110d 174d ebf6 71bf
000006c0: 93cc ad0e e89a c63f 19b0 f378 e735 c8bf
000006d0: 167d 9e30 b3ec bb3f 61f5 6135 46de cebf
000006e0: 0ee7 a153 e9f5 c5bf 64ce e72b 229d c4bf
000006f0: 2990 b5a7 9f00 c1bf bfbc e4df 1a01 d3bf
00000700: 63f0 8b3c 47a9 b5bf b6a0 d4e5 95ec c5bf
00000710: 9dd0 d742 ceb7 c53f fa6b a930 6cc5 d23f
00000720: 64fe 40a0 44b3 d23f 8537 ba56 e3f8 b6bf
00000730: d902 8c16 a9a3 a4bf f275 fb23 7131 ca3f
00000740: b306 9793 222a a43f 2e06 1862 8d9f c53f
00000750: e399 915e 1670 c9bf 90b8 086b a348 c0bf
00000760: 448b 546c 7a96 d1bf 1bcb 46bd 9408 c1bf
00000770: c706 612e 9ddb c3bf 0c0d f7ad 7a1c cc3f
00000780: 1331 55f8 65c7 c13f 41c8 8a02 9f4f d3bf
00000790: 7a05 32b6 943f d1bf e45b 7cda dca7 cb3f
000007a0: dfe8 feea c60f c53f 5900 4cec c5a7 c93f
000007b0: 0903 fb35 dbbc 823f 199f 2321 a900 c9bf
000007c0: 21d7 407d 3b04 c4bf 6602 36ac bf23 babf
000007d0: 26d2 dffe c7b2 de3f f67e 8b0a 507f a0bf
000007e0: 2ba2 9272 6c4e b73f a578 6921 29af 5fbf
000007f0: 9dd8 903d 91b3 b23f 3879 c6fb f394 babf

linears.2.bias f8 [30]
-0.0733540921586057 -0.043252646653700225 0.004997809885674116 -0.04819463083139083 0.024284600758229625 -0.039572456253674504 -0.026207601995636626 -0.024204079520837824
0.02365594185712812 0.008693291275285144 -0.026933716880562248 -0.05301127333130962 -0.06778015757360348 0.04687856264673109 -0.03625994551078213 0.013842880600836903
-0.05379723597216303 0.0013809911771890796 -0.009720303672382096 0.01121173065547788 0.016112552709550334 -0.028539953382227316 -0.05627513761972308 -0.02991603975295948
-0.03572859162887384 0.03366471759821806 -0.03733691844780534 0.03780043011075002 -0.05565937193220666 0.04444702812402051
00000000: da56 d972 55c7 b2bf 02a9 affd 3525 a6bf
00000010: 8866 2b60 9578 743f ccf8 8676 f7ac a8bf
00000020: 0d49 36f8 0fde 983f f824 dd4a d742 a4bf
00000030: d84f e965 2ad6 9abf c51a e347 f4c8 98bf
00000040: 159f 8762 4339 983f ae8e c6cd c9cd 813f
00000050: a59e a524 8394 9bbf 31f9 8d2a 4b24 abbf
00000060: a2aa 1858 0a5a b1bf 5303 e78a 7700 a83f
00000070: 1c42 3fe0 a990 a2bf ac47 b4fb a759 8c3f
00000080: 8234 3bb2 4f8b abbf ba3a 4bfc 4ba0 563f
00000090: 0962 0a13 3de8 83bf 4686 f903 2df6 863f
000000a0: 9737 c51b cf7f 903f 91c6 9fd9 9339 9dbf
000000b0: 0829 4f47 18d0 acbf 518d 7571 4fa2 9ebf
000000c0: 9b03 2899 044b a2bf 7b12 3a7a 803c a13f
000000d0: 575f 5517 d31d a3bf 4968 33f6 935a a33f
000000e0: 3857 549c 627f acbf 17e5 64c8 c2c1 a63f

linears.3.weight f8 [30, 30]
-0.030439465157209824 0.19677611046892513 0.19145171211569795 -0.1133048481639219 -0.21456171782189398 0.3455715445019081 0.21027754804804188 -0.14324326962010017
-0.252257409474219 -0.3994359956771922 -0.21151705567205953 0.13893608340181793 0.2108099962929655 -0.03182738653295021 0.2660478186952167 -0.4146335875919356
-0.1561588979952367 0.31261623682230194 -0.18350766548645597 0.31470536291804146 -0.10466736114524654 0.3921718433327407 -0.07064525497312163 0.07831181162523836
0.10932385433621242 -0.19499325349714453 -0.1428758029116686 0.07164281780323273 0.35155776592856997 0.006346200647191685 -0.20598909482222702 0.11214078525229171
-0.314694797972682 -0.2419887712432619 -0.2849917752736221 -0.11456177688319677 -0.14169723849897314 0.16925871058553632 -0.033452934180983725 0.1237012716802316
-0.12336636283827025 -0.2978087582249758 -0.012625673448231962 -0.09422083485117834 -0.32504771684635525 -0.084786359964399 -0.29846713955954196 -0.23843968157228498
-0.37619809972633766 -0.05464696815900192 0.3278053538574152 -0.0618627790677053 -0.00791661958407076 -0.3778744228724695 -0.26685252766723466 -0.10280246874926244
-0.22158546093806195 0.020356844222062194 -0.40715386596244335 0.28693900480785656 0.025297565474844127 0.22760292324759088 -0.31563101969307683 0.09548137804709426
-0.14899748407473612 -0.10663772694783868 -0.23177072494368722 0.07996958434624599 -0.5248579070177906 -0.39045446816779544 0.1655159356064453 -0.28880094953749486
-0.14747763849327425 0.09015085724446757 0.07320680125734043 -0.3645274045765781 -0.30214425292369373 0.054241562908002854 0.28024896397888666 0.022747854846796547
-0.5024315696845277 0.29610525344538485 -0.4404782261354659 0.10322480719591805 -0.12661895784161173 -0.04394841681786786 0.07927519281391651 0.040942551279662114
0.09517030680920614 0.17383055454848323 -0.25709913333660217 -0.2814366695622327 -0.13601629458092068 0.12038010103112877 0.04843434323312759 -0.3816773357031716
-0.22762653369135039 0.1771205950286632 0.42107886362153046 0.2664444009774264 0.19881716202623595 -0.05239972918222623 -0.32131945090313657 0.08235581428686442
0.19514539538148584 -0.02645931898758378 0.015065302054162398 -0.2013513966631567 -0.3763223639978973 -0.1925827594993334 0.4785273812957276 -0.016327438036191157
-0.1377742150137239 0.010193224497031667 -0.12854156135975608 -0.15831184069347543 -0.2841970769301093 0.2860144582914197 0.05651121685412869 -0.188531534757635
-0.2129156407620359 -0.25377884234189785 0.12457567535906122 -0.18457556162659117 -0.14377948320116085 -0.22261448833126113 -0.21812556881077685 0.00214235067571731
0.052229315140848394 -0.45356347993697943 0.2235810483423295 -0.19564769670274262 -0.22191040612083443 0.04877903083146593 0.3289435406251694 -0.5085446049076563
0.24864235213459204 0.15437290044791102 0.06870118928850079 0.38007932069323647 -0.3981729660422765 0.34996788928249506 0.08212050203526874 0.2365407822188304
-0.03763774500501439 -0.3136128001666208 0.31296054404907825 -0.07258063128821288 0.34055286045446514 -0.22264557792053682 0.13938759557344824 0.23710896800518247
-0.2276070133151025 0.16403236638396043 -0.4667299019042664 -0.175582860630304 -0.0020044745091288762 -0.1201488442906197 -0.20917938301604963 -0.33424186514700976
0.22968607616663103 0.21469320533630976 -0.02431411170525059 0.2049448631670115 -0.025443971887908565 -0.5869603871996157 0.009656253605552402 0.10018802403092711
-0.10340450767365611 0.6105977091226412 -0.3759516417696702 0.12892977015046755 -0.40537384364612683 -0.1872536558173443 0.18150321665232236 -0.14383550649903884
0.14085944536831552 0.22997435847556544 -0.1492082753324197 0.21608843929241073 -0.04488856795214173 -0.02292764678284257 0.23719241937551713 0.11928391986673921
0.11546285003283131 0.04932013556712374 0.4315254977483921 -0.21030444174426813 0.06277194788626017 0.4496442343136861 0.1454813543000706 -0.12413467330825434
-0.30586381663210416 -0.13084304808004665 0.056537861781681145 0.6272450220919955 0.23319819330649202 -0.035674258525054736 -0.3315493412737099 -0.4191377053655021
0.3724396000348301 -0.2495468561819874 0.3465508100715737 0.04843863282325235 -0.09899743353855234 -0.16409548533049578 0.10586050497126677 -0.13233133437395528
-0.04520752911188025 0.0015904199940093107 0.11947883938646141 -0.4019519491380838 0.17600267164737426 -0.2020280050463857 0.011330847902996424 -0.08264546275622092
0.03120891286961494 -0.21915658484509626 0.16440582731910927 -0.013975124115979419 -0.15749757093659564 -0.24930134566654 -0.19477532236647727 -0.08075676871446737
0.2545313488887431 0.16652159051693396 -0.04761710962598429 0.07954765151207445 -0.26916467504401953 0.14834285654928844 -0.023573853624103507 -0.08720771068029086
-0.16887975164336744 -0.15486435521349035 -0.1801629205648706 0.007889859209552198 -0.27076513166944033 0.20151825446198782 -0.32335912103392017 0.06763014166118453
-0.1414847850216746 -0.14025071358395336 -0.13617863154456164 0.20832308262209584 -0.12510565652088934 -0.28586360320593357 0.32096546560817935 -0.29176717087919724
0.3894894230402637 0.008442593036749138 -0.026400127454904124 -0.010490288844799626 -0.3161494142877584 0.22715772092283545 -0.22614591163317435 0.33022384660952936
00000000: d789 6eed 852b 9fbf 168f 8ca7 f52f c93f
00000010: a66a 265d 7d81 c83f 55a0 57e9 8b01 bdbf
00000020: fa61 8224 c276 cbbf 0017 841c d81d d63f
00000030: 3886 f9eb 5fea ca3f f5f9 31a3 cb55 c2bf
00000040: 8d63 f742 fc24 d0bf d7d6 91fe 5b90 d9bf
00000050: be2f 54aa fd12 cbbf 3bfa 3857 a8c8 c13f
00000060: f9c3 df6b d2fb ca3f 6a66 8de0 ad4b a0bf
00000070: 3df5 1d6e ed06 d13f f4f3 a150 5b89 dabf
00000080: 7a39 efc7 03fd c3bf 976c 5688 e701 d43f
00000090: 8631 eade 2d7d c7bf 91f6 66f6 2124 d43f
000000a0: 17d4 13ed 7acb babf 8eac 61ee 5719 d93f
000000b0: c425 bab3 ce15 b2bf 3f27 d22d 3e0c b43f
000000c0: 8af4 0beb a5fc bb3f e6fd 5af7 89f5 c8bf
000000d0: 199b 721a c149 c2bf b44a 7507 2f57 b23f
000000e0: 9f5a d424 ec7f d63f e096 bc43 79fe 793f
000000f0: bb0b ccc4 d95d cabf 7cd3 342d 42b5 bc3f
00000100: 51e5 60a6 f523 d4bf b498 3ef1 7cf9 cebf
00000110: d377 9b24 4e3d d2bf 2ec1 15ad eb53 bdbf
00000120: 5eaf a496 2223 c2bf c095 43f9 44aa c53f
00000130: 016f 8634 be20 a1bf b817 57f4 e2aa bf3f
00000140: 751c d11d f094 bfbf 1d79 4277 4c0f d3bf
00000150: 84ab 6634 7ddb 89bf fda1 494c db1e b8bf
00000160: f0a6 5ff0 94cd d4bf 81a8 3113 8fb4 b5bf
00000170: 8cb0 d5ea 151a d3bf 93f7 3505 3185 cebf
00000180: fc15 c931 a113 d8bf 0d0e 23fa affa abbf
00000190: 135d 914e c3fa d43f 9df5 de69 7aac afbf
000001a0: 86eb aab1 9636 80bf 3bdb 0e34 182f d8bf
000001b0: a4e2 cb9f 1c14 d1bf 96e4 3939 4351 babf
000001c0: 7bc0 ff91 e95c ccbf a2ed bbb0 6cd8 943f
000001d0: 13ea af16 cf0e dabf 8f2d 666a 355d d23f
000001e0: 2f10 88e1 9ae7 993f 6f44 e9b3 1722 cd3f
000001f0: 5ad5 cb72 4c33 d4bf 33db 16b4 7771 b83f
00000200: 58c5 a47c 5912 c3bf 30c0 c22d 9c4c bbbf
00000210: 1cd4 e6c1 a9aa cdbf 6e1c 71fd e278 b43f
00000220: 8807 36cf a2cb e0bf 73e5 d6bc 34fd d8bf
00000230: 51c1 324d a02f c53f 6d4e 54fa b67b d2bf
00000240: 7526 1c19 8ce0 c2bf 2f44 9267 2014 b73f
00000250: 85bb 3e51 aebd b23f 0dbd 49c0 6a54 d7bf
00000260: d0d2 3ed9 5456 d3bf 5f2f 8cd5 8cc5 ab3f
00000270: a6bd c159 99ef d13f c40d 7cb2 364b 973f
00000280: 59bc 085f eb13 e0bf a630 ee72 63f3 d23f
00000290: d585 f695 cb30 dcbf fdd8 0ae3 f06c ba3f
000002a0: 99dd 7dcd 0c35 c0bf 1e2f e329 6880 a6bf
000002b0: ea15 8508 614b b43f 779b 850d 6cf6 a43f
000002c0: 49bb 4bcb 145d b83f 5e67 6a61 1440 c63f
000002d0: 7cae 60ec 4f74 d0bf 828e eaf2 0e03 d2bf
000002e0: 305d 7960 fb68 c1bf 6393 04f5 3ad1 be3f
000002f0: 0409 61e0 62cc a83f dd0c 9ec6 666d d8bf
00000300: 1afe f3c2 dd22 cdbf 414f 8c3d e3ab c63f
00000310: f2a4 12c3 f4f2 da3f 729f 19d1 6c0d d13f
00000320: bea2 643c d772 c93f 9f57 5026 23d4 aabf
00000330: 49a6 4c75 7f90 d4bf 465e ff48 4515 b53f
00000340: be71 9039 86fa c83f da87 e7d6 2618 9bbf
00000350: df12 049d 8eda 8e3f 0c0a d6ef e1c5 c9bf
00000360: caf5 8765 aa15 d8bf 5e5a e946 8da6 c8bf
00000370: 88f6 394f 31a0 de3f 5756 92d1 23b8 90bf
00000380: 6ca6 dbe1 95a2 c1bf d023 d86e 2fe0 843f
00000390: 5ac4 1bc5 0c74 c0bf 8a8c 2cf9 8f43 c4bf
000003a0: c226 c2ef 4830 d2bf 10de 2296 0f4e d23f
000003b0: 68c5 7dc8 09ef ac3f c63c 0624 cd21 c8bf
000003c0: 3a9e f0d8 d140 cbbf bc9c 119d e93d d0bf
000003d0: 0056 8b03 31e4 bf3f 80dc 6908 2ca0 c7bf
000003e0: 74a6 17b9 5d67 c2bf 2ad0 7fad a17e ccbf
000003f0: 015a 3be4 89eb cbbf d132 d7c2 d58c 613f
00000400: a147 d800 cdbd aa3f 5850 3f1e 2f07 ddbf
00000410: a05e 51c5 4d9e cc3f fc20 70d5 fb0a c9bf
00000420: 0b2d 7768 8f67 ccbf 7dae 4dac 90f9 a83f
00000430: 92cb 4d35 690d d53f 0a57 d455 ff45 e0bf
00000440: 83c7 6839 83d3 cf3f 16fe 67bf 7dc2 c33f
00000450: 21bf 30b1 6696 b13f acda 1037 3853 d83f
00000460: a662 d376 aa7b d9bf ef94 c7b7 df65 d63f
00000470: a694 9266 d905 b53f d26a e6e5 f746 ce3f
00000480: 1290 c827 4145 a3bf cda5 146c 3b12 d4bf
00000490: 2244 68a9 8b07 d43f 6eb6 b4ed a494 b2bf
000004a0: f783 8d39 9ecb d53f d344 e279 a67f ccbf
000004b0: 575f 3ae6 73d7 c13f 35d5 952f 9659 ce3f
000004c0: 39a9 4303 3a22 cdbf 8763 8d38 03ff c43f
000004d0: 899f 2f18 e7de ddbf 9798 12ca 7f79 c6bf
000004e0: eec4 cb0e b06b 60bf 6a62 e11c 13c2 bebf
000004f0: fb93 86d8 63c6 cabf 33ab f0fd 3764 d5bf
00000500: 37ba bd74 5a66 cd3f f0e2 cb23 117b cb3f
00000510: cbde 6b6a cce5 98bf 928b 641e a23b ca3f
00000520: 993e 8e0c fc0d 9abf 2f3c 6226 61c8 e2bf
00000530: 6778 806b a8c6 833f dae7 a91e eca5 b93f
00000540: 34a3 b7c2 b778 babf 6b37 f634 048a e33f
00000550: b4ce 9179 970f d8bf 8b76 234d c580 c03f
00000560: aa4a 4722 a5f1 d9bf 175e e583 edf7 c7bf
00000570: cbfc d155 7f3b c73f 2f5f 35ae 3369 c2bf
00000580: 4445 98ab ae07 c23f eb1a 49be cc6f cd3f
00000590: fe32 6cbb 4119 c3bf a8fc e635 c9a8 cb3f
000005a0: 962f a366 a2fb a6bf 0a1b 6d54 587a 97bf
000005b0: ebd9 093a 525c ce3f 2d2e c416 6489 be3f
000005c0: 2941 cb2c f98e bd3f 1a15 9722 7d40 a93f
000005d0: ba0b 0e1f 1d9e db3f b161 bf85 41eb cabf
000005e0: 9817 4787 d211 b03f 6395 4d9c f8c6 dc3f
000005f0: 88c3 720d 229f c23f c899 283a 4ac7 bfbf
00000600: 78bc 5dd4 4593 d3bf 30d5 340a 77bf c0bf
00000610: fa19 add6 87f2 ac3f 6bd8 0e27 6412 e43f
00000620: f36b de3a 70d9 cd3f 682b 597b e543 a2bf
00000630: b5fa 71ba 1a38 d5bf 202e 44f4 26d3 dabf
00000640: 76a2 78e7 0cd6 d73f 2a85 0fc1 26f1 cfbf
00000650: cb38 ea72 e32d d63f f279 adcf f2cc a83f
00000660: bc9e 6f53 e557 b9bf 8c36 75b3 1401 c5bf
00000670: 9925 ca8e ac19 bb3f 8ca3 afb0 3bf0 c0bf
00000680: 9811 23f6 7025 a7bf ac7b 1d77 b40e 5a3f
00000690: 6f98 ba4b 2a96 be3f 3b23 07ab 94b9 d9bf
000006a0: f4f6 5d6b 4187 c63f db71 46bd 0ddc c9bf
000006b0: 3b3f 6fa9 a034 873f ac64 b3c7 4028 b5bf
000006c0: 088f 79b0 3af5 9f3f 306e 4eae 520d ccbf
000006d0: 35bf cd09 400b c53f ac0e 4968 fd9e 8cbf
000006e0: 93a1 2f62 e128 c4bf 4648 3e43 1be9 cfbf
000006f0: 5ae1 d0d3 65ee c8bf 892c 8fc0 79ac b4bf
00000700: b52b d2da 3d4a d03f b18f ac58 9450 c53f
00000710: 5db5 2511 4561 a8bf 89cc b721 3c5d b43f
00000720: ac5c 2379 fe39 d1bf 93b9 bc12 e6fc c23f
00000730: cbc3 6c89 be23 98bf 7fb4 5499 3e53 b6bf
00000740: 1ce7 2109 da9d c5bf faa1 7a5e 98d2 c3bf
00000750: 5c94 e31d 940f c7bf 7a58 33fa 8e28 803f
00000760: 5bb6 5a46 3754 d1bf 090a 3ba4 59cb c93f
00000770: 380e 6d74 eab1 d4bf 489c a87e 3550 b13f
00000780: 045c 4666 2c1c c2bf 14b8 0a42 bcf3 c1bf
00000790: 3fef 7228 4d6e c1bf 3f91 6ead 54aa ca3f
000007a0: 54a2 a64f 7603 c0bf 97b7 b8da 964b d2bf
000007b0: c9ae 7bbc b28a d43f 023f 3e36 50ac d2bf
000007c0: 4422 860b 65ed d83f 15e4 e3a7 594a 813f
000007d0: f4bd 1d90 a208 9bbf 3cb0 1cbc ee7b 85bf
000007e0: 95fd c0c0 ca3b d4bf 67e0 3213 8113 cd3f
000007f0: e956 4b67 59f2 ccbf 2106 6333 6322 d53f

linears.3.bias f8 [30]
-0.039070774721398326 0.053109383445259624 0.01318522099704691 0.06306290367963105 0.001672737503051637 -0.03876828226812006 0.040707680116755 0.05967660797185553
0.04856728635402831 0.0550734868836563 0.030344565714743196 -0.06237683998196432 -0.08183414384741626 0.03439963957663685 -0.05933551942371154 -0.02677922686571269
0.03440544654454778 -0.0816482323470797 -0.1398978210401781 -0.10512680785622174 0.04601306519205443 -0.05071410135207288 -0.051119653726449304 0.08823468682904417
-0.04546614243114516 -0.01649703560084681 0.054261359514069823 0.04262222116314745 -0.05560403262671588 0.007588162736907173
00000000: c3c9 50a7 1501 a4bf 8127 0432 2731 ab3f
00000010: 0d65 c867 da00 8b3f 7e12 e5f4 e324 b03f
00000020: 06a0 b437 f867 5b3f 7766 edb0 6fd9 a3bf
00000030: e550 9815 a3d7 a43f f891 26af ee8d ae3f
00000040: c28f 17b5 cfdd a83f 8d7f 1592 9732 ac3f
00000050: 3fb1 6c55 a512 9f3f 722f 806f dbef afbf
00000060: f753 851b 15f3 b4bf a3a1 f35d d49c a13f
00000070: c4ff d4a6 3961 aebf 69cf 667e 036c 9bbf
00000080: 9d1c 6d37 979d a13f 7df8 b407 e6e6 b4bf
00000090: d319 13fb 2be8 c1bf 9fe3 ac29 97e9 babf
000000a0: d58e 6044 068f a73f 20a1 81dd 32f7 a9bf
000000b0: 3c3a e0f1 5a2c aabf 3cb5 4d66 8c96 b63f
000000c0: e853 a295 5647 a7bf e0dc 8b51 99e4 90bf
000000d0: ac4e 1919 25c8 ab3f b70a f56b 94d2 a53f
000000e0: d19e 50bb 2178 acbf d4f9 aaec c314 7f3f

linears.4.weight f8 [3, 30]
-0.3286596538947808 -0.26673334279781163 -0.32224237527354976 -0.20045505567289512 0.01871171677037155 0.2717078913490543 -0.34353357415051355 0.17129156925135583
0.08832276220354407 -0.2707066599426848 0.31961126804737594 -0.4237827911729448 0.08890635294913078 0.17131602599954696 -0.16896076433015722 -0.35750421371284813
-0.10224616835243347 0.2379000073670069 -0.40773815905177957 -0.44378381138856343 -0.2930871974643122 0.3457622487027157 0.18616629411857213 0.2725982828948391
0.030285954139480823 -0.33879823753844757 0.03752957293192534 0.1404581586636686 0.2442268261921394 0.2526989493409333 -0.13700745837263803 -0.026702895307776916
0.23813488304971983 0.2907362617696907 0.04594818459099979 0.24569373927142768 -0.26594458071632293 0.5032667398995477 -0.05745755779274607 -0.09734495055654882
0.13020258001314983 0.2675690850028123 -0.3197801049605707 0.14004637451760818 -0.37589336846839005 -0.10001396651634913 0.3158745588795234 -0.42395079196340785
-0.31995971232730336 -0.23998897314200793 0.17853717854914966 -0.06746652245333941 0.07498710007927625 0.24965567425071367 -0.14091224035903838 0.03278968399971353
0.3433512069554651 0.22540433686587907 -0.46213842390228077 -0.41325824465930056 -0.4178488998185604 0.4667046005530506 -0.5368290966161112 0.39673111689492724
-0.4365440215784605 -0.5488152195863967 0.58742379103222 0.7026925788104126 0.6549069430152784 0.5294517940097733 0.4482830948317608 -0.6926675708088774
-0.5264214266994344 0.44721519667903536 -0.390586577820293 -0.7436800043172628 0.3696762629023412 -0.2945801468606061 -0.22004342547579464 -0.22346670628165533
0.6726167172794253 -0.5262228135067327 -0.6319814584358905 0.8071031622715217 -0.5435068840480196 0.4611869327239541 0.54419271188537 0.4575812682856217
-0.6756016927826035 0.15269386029061904
00000000: 6c89 3f80 c208 d5bf 5d70 04ba 2812 d1bf
00000010: 39db cb7b 9e9f d4bf b46a 37e2 82a8 c9bf
00000020: e5b2 520e 2a29 933f 2132 da7e a963 d13f
00000030: 0e7c 833e 74fc d5bf 8dee 01d4 e1ec c53f
00000040: 6017 280f 529c b63f abd8 d006 4253 d1bf
00000050: 9894 ecd1 8274 d43f 5c81 2cdb 411f dbbf
00000060: f3b9 5216 91c2 b63f 4f70 79fc aeed c53f
00000070: d276 8d9e 81a0 c5bf 540c 855a 59e1 d6bf
00000080: 060b 370d ce2c babf 9402 aee7 8173 ce3f
00000090: 5a5a 9dca 6118 dabf 831e 1a37 f466 dcbf
000000a0: ae12 ffcd f0c1 d2bf 3da7 97fb f720 d63f
000000b0: 1dab 6d10 4cd4 c73f 6aa9 7e11 4072 d13f
000000c0: 7199 3afa 4703 9f3f 75e2 8acd deae d5bf
000000d0: 1a3d c080 1337 a33f df5a f56e 88fa c13f
000000e0: ef8a a61b d342 cf3f 9cc8 c936 382c d03f
000000f0: 3b60 82dc 7589 c1bf 5fbe 38f8 0058 9bbf
00000100: 571f 5e2f 347b ce3f b8f9 0344 6c9b d23f
00000110: 2d01 423c 8586 a73f 8c59 8077 e472 cf3f
00000120: 0b67 2e6b 3c05 d1bf 1f0f a1d9 c21a e03f
00000130: be78 41b7 136b adbf 8a34 1243 99eb b8bf
00000140: 5672 8167 7aaa c03f 887e 6015 da1f d13f
00000150: f1e4 2df9 4677 d4bf c9fd 3c23 0aed c13f
00000160: 88b8 160f a30e d8bf b3b9 54eb 839a b9bf
00000170: a6a9 01ed 4937 d43f 1927 a680 0222 dbbf
00000180: faee 1e4d 387a d4bf 77d4 856b f5b7 cebf
00000190: 118e 7e67 4eda c63f a90e 836b 7c45 b1bf
000001a0: ea5d 76c6 5a32 b33f 6075 1596 b7f4 cf3f
000001b0: 585d f98b 6909 c2bf 4592 d938 cfc9 a03f
000001c0: 4b9d 3a57 77f9 d53f 1696 9b9f 0cda cc3f
000001d0: 70a8 380a ad93 ddbf cd4c 67b5 d272 dabf
000001e0: a1fa d84f 09be dabf 7b28 11f9 7cde dd3f
000001f0: cd3c b036 b42d e1bf 0ca2 17e9 0a64 d93f
00000200: 5267 fc55 56f0 dbbf d275 75ef e48f e1bf
00000210: ec05 6cfa 2ccc e23f 763e a425 757c e63f
00000220: 0d91 c567 fff4 e43f 7f93 82e3 44f1 e03f
00000230: abbb e993 abb0 dc3f eef6 732e 552a e6bf
00000240: b3ce 72bf 71d8 e0bf bbae 007d 2c9f dc3f
00000250: 73a9 7fd8 5eff d8bf c36a 2702 3acc e7bf
00000260: b579 d1a0 c6a8 d73f ae4c 34b0 66da d2bf
00000270: 2226 0f0a 622a ccbf f8bd 9c99 8e9a ccbf
00000280: 04a8 6e7e 1386 e53f ef74 cd39 d1d6 e0bf
00000290: 1623 f52d 3139 e4bf 2c8a ce02 cad3 e93f
000002a0: 3163 848c 6864 e1bf 7715 5932 1684 dd3f
000002b0: 689d 88d5 066a e13f f321 a3f1 0249 dd3f
000002c0: e3f3 f370 879e e5bf 14c5 1ff0 788b c33f

linears.4.bias f8 [3]
0.09456303433657873 0.06780136409632116 0.22526536745017112
00000000: 76d9 e273 4835 b83f b5fa 6a21 6e5b b13f
00000010: 2459 0fdd 7ed5 cc3f

step f8 []
1500.0
00000000: 0000 0000 0070 9740

exp_avg f8 [30, 1]
-190.10259748988418 -78.9790740681253 1730.3697357924914 -34.883577974425755 220.15222233300238 90.19150982354127 169.99838012814718 1313.252890483667
157.26933278670455 123.05813476625585 149.11133971202867 -96.14376495875541 1252616.6461357006 -107.52841487319714 -111.09312623461632 -239.3353988041005
171.13726884913038 235.30817732914136 -91.98987138779586 -40.080518567437764 127.82945017625163 5991198.908396323 103.74136717960272 66.4225014510005
782895.4989482535 81.98346545653621 86.3125023830445 -83.99673927027466 143.59769084444562 -127.72995182141223
00000000: 89f6 877a 48c3 67c0 6ebd 4726 a9be 53c0
00000010: a503 059c 7a09 9b40 f1cf 4315 1971 41c0
00000020: eabe 5e01 df84 6b40 3d3e 6bb2 418c 5640
00000030: caeb e1ba f23f 6540 4713 b9f5 0285 9440
00000040: 5fd4 ca5f 9ea8 6340 16f5 e17a b8c3 5e40
00000050: 18bd 4c18 90a3 6240 940a f171 3309 58c0
00000060: 3726 69a5 081d 3341 82c6 9d8c d1e1 5ac0
00000070: e904 bdc7 f5c5 5bc0 55d7 4596 bbea 6dc0
00000080: c938 a481 6464 6540 fcc0 b396 dc69 6d40
00000090: 1475 850d 5aff 56c0 d8ee b26e 4e0a 44c0
000000a0: 612a 31b6 15f5 5f40 552a 23ba c7da 5641
000000b0: 2cae 538f 72ef 5940 d2a3 8643 0a9b 5040
000000c0: 3e25 76ff 5ee4 2741 6624 1919 f17e 5440
000000d0: 49c6 fe09 0094 5540 fd1d 8293 caff 54c0
000000e0: 67c0 8c48 20f3 6140 c127 d887 b7ee 5fc0

exp_avg_sq f8 [30, 1]
46623899.35780979 157355870.59466752 105702742409.58049 19703698.366121404 29142434.155064985 12413675.15596692 13612151.614937944 466725335876.4284
184166495.65411824 11700347.698093133 36255173.25348806 43033618.87428785 3.5414716343719828e+16 17771216.880731635 153876834.77347597 40314378.614140205
29990441.54702963 92259696.77686614 40283772.63465718 5284688.379293065 22439362.27183502 1.5814171799505987e+18 11211193272.605839 42861314.786592744
1.2576531839528782e+16 6972287.702937319 8679951.750906272 16972829.963803034 14654528.290001469 26187028.367398012
00000000: 61cb dcda 643b 8641 4378 30bd 1ec2 a241
00000010: 9b94 89d9 5f9c 3842 1ea2 db25 79ca 7241
00000020: 6c25 7b22 daca 7b41 57ae fd64 5dad 6741
00000030: 5792 adf3 8ef6 6941 6b1b d1dc bf2a 5b42
00000040: 96e8 4ebf 50f4 a541 69c7 5676 0f51 6641
00000050: bf24 072a ae49 8141 a18a fe96 2085 8441
00000060: e545 dfcc 5f74 5f43 0e7a 170e adf2 7041
00000070: 0b05 8cc5 f257 a241 57c2 e954 3039 8341
00000080: 24a2 c098 e299 7c41 cc82 1bc3 15ff 9541
00000090: 25c7 13e5 7335 8341 6b56 4618 d428 5441
000000a0: ae6f 5924 5c66 7541 caa7 e48b 52f2 b543
000000b0: c2d8 c4dd e9e1 0442 23f1 4a16 1870 8441
000000c0: a797 6600 2557 4643 cfec fcec df98 5a41
000000d0: 976c 07f8 418e 6041 bbbc 6bdf c12f 7041
000000e0: 29b1 4709 88f3 6b41 bddc e045 51f9 7841

step f8 []
1500.0
00000000: 0000 0000 0070 9740

exp_avg f8 [30]
-357.76210088939223 -83.27204542199595 -77.3434884459834 -4.669394358255696 502.38178540326925 192.51663059842662 283.46552454049765 -128.130808803081
376.8008233261475 258.64931580151637 328.4566242173984 -63.96018693049799 8767.147437829432 -265.74858001420836 -366.552764963759 -513.3132698393307
237.45102033894756 436.8204304230333 -146.94497033616122 245.96159663664665 72.401460470706 26067.64433506578 479.72265850076053 273.4255819770798
4977.9872814522205 206.4112720679817 518.1955475533887 -117.67575760383092 288.39402659425735 -381.4490036326839
00000000: 13c3 b390 315c 76c0 f29f 3331 69d1 54c0
00000010: 5d83 f6b6 fb55 53c0 2a57 f3b6 75ad 12c0
00000020: 1bd2 02cb 1b66 7f40 5e8b e43c 8810 6840
00000030: c44e dcc9 72b7 7140 6168 f195 2f04 60c0
00000040: d7ba 1e2c d08c 7740 9f44 f798 632a 7040
00000050: 9b04 3255 4e87 7440 8b44 c467 e7fa 4fc0
00000060: cd27 3edf 921f c140 6d77 092f fa9b 70c0
00000070: 831b 1320 d8e8 76c0 fd15 9e93 810a 80c0
00000080: 8ab3 34c2 6eae 6d40 25b9 a67b 204d 7b40
00000090: 1530 6e32 3d5e 62c0 e94a 4f66 c5be 6e40
000000a0: 6b14 4287 b119 5240 cc24 c93c e974 d940
000000b0: 162f 5c02 90fb 7d40 3215 0c2f cf16 7140
000000c0: 3c2d 7abe fc71 b340 ac37 0a24 29cd 6940
000000d0: f054 3c7b 9031 8040 891e d29c 3f6b 5dc0
000000e0: 6f81 d4ee 4d06 7240 9ae2 6e1e 2fd7 77c0
