1D_Transcritical_Inverse_Problem_n_initial_0_01/Models/Model.ckpt-9000.pt (torch, 82380 bytes, 43 tensors)

linears.0.weight f8 [30, 1]
0	0x3fddbc0a590bd8fe	0.46460207649160157
1	0x3f88b2116beac4c9	0.012058387857310742
2	0x3fd3d3e137a853be	0.30980711398415994
3	0xbfcf2d844e9593dd	-0.24357656323550617
4	0xbfd492d2f7344ddf	-0.32146143094106877
5	0x3fc296121cc1226b	0.14520479587578747
6	0x3fc3626671e0420c	0.15144043503143256
7	0xbfd7794f1506e7db	-0.3667791085568958
8	0xbf8a541c3582d10a	-0.012855739958788099
9	0xbf8bb07b503e48fc	-0.013520205866175854
10	0x3fd5a47dc0141807	0.33816474683442305
11	0xbf8bfc030192030a	-0.013664268002914
12	0x3f899c85b8cb02d0	0.012505573942122622
13	0x3fd0a572ec6dd8d4	0.2600982006910162
14	0xbfd2ff09e5d24dae	-0.29681632464891095
15	0xbfc54ddfbe6aa6be	-0.16643902585683706
16	0x3fd6d81f05a17ac9	0.3569409899700245
17	0xbfb510e839e86bb9	-0.08228923238532006
18	0xbf8d02b97c39376f	-0.0141653529200558
19	0x3fd739bd0b69f163	0.3628990756476666
20	0xbfb756b0dfd7e82f	-0.09116654839445525
21	0x3fd17d589418555d	0.27327551329047656
22	0xbfc7e541880e17a9	-0.18668383735001484
23	0x3f8d246e9867430a	0.014229644800168657
24	0x3fc08950f396a4a5	0.12919055837600016
25	0xbf8775cd931ce65f	-0.011455160190610046
26	0xbfbfbfffcc33c299	-0.12402342543988211
27	0xbfac235932edfdaf	-0.0549571871442781
28	0x3fd2c637b1063415	0.2933482388260143
29	0xbfdb934b8dc85444	-0.4308651814074589

linears.0.bias f8 [30]
0	0xbfb6f3d4cd3e6289	-0.08965806971390057
1	0xbfc31d18533531ad	-0.14932540953522047
2	0x3fbd6740d6ca762c	0.11485676998059863
3	0x3fc1bd2e973d1476	0.13858587631890246
4	0xbfb9c4c2cdd78693	-0.10065858388363784
5	0x3fc07f9535885eb7	0.12889351953412184
6	0xbfc5f39357bb4126	-0.1714958361030849
7	0xbfa41f282e28cf37	-0.03930020869702704
8	0x3fce79a4a5f583d2	0.23808725455731278
9	0x3fd3e9169fc8d6e6	0.31110158542592925
10	0xbfbd6d86e4ca434e	-0.1149524982995562
11	0x3fd5678ea37f5d34	0.3344456288009099
12	0xbfcd0fb1c7d5ea91	-0.2270414567718331
13	0xbf8baec3b1e50d5c	-0.013516930452743985
14	0xbfbd689bfe0e335c	-0.11487746193433906
15	0xbfbd9e8b384ce683	-0.11570043682595536
16	0xbfb5b504dc6ea799	-0.08479338056227305
17	0xbfc2dcaa21228dc1	-0.14735914819639898
18	0x3fd80ad0ffda8901	0.375660180909236
19	0x3fbc5b4ae68fe8e8	0.11076801423033411
20	0xbfbbb0cf1be8b838	-0.10816664153455313
21	0xbfbdb6540fa8514e	-0.11606336004507975
22	0x3fa6b503d03673c9	0.044349784056272386
23	0xbfd83e0569bc8866	-0.3787854702551442
24	0xbfc281b2e9afd207	-0.14458309565056046
25	0x3fb860daedb09b9d	0.0952278929040475
26	0xbfaec98d64eb3a5f	-0.06013147217673941
27	0x3fca476bec6590de	0.205304613521668
28	0x3fbcf9d6259e41f2	0.1131872026292127
29	0x3fb6d73f869d9326	0.08922192608367804

linears.1.weight f8 [30, 30]
0	0x3fb712ffb2949d4a	0.09013364896656131
1	0xbfe10615f9c25865	-0.5319929006680125
2	0x3fca35277407e85c	0.20474713483401075
3	0xbfc8152aa3ae5a0d	-0.18814595215071997
4	0x3fc8607ddcebbf3c	0.19044469153549837
5	0x3fc0d44ac8c0a7ba	0.13147864153262195
6	0xbfd024493ecb7de3	-0.2522147286635727
7	0xbfc3026d8035b80b	-0.14851158867116995
8	0x3fa7c3d54d46be1c	0.046415963824412126
9	0x3fa3a83b0bca4d6f	0.03839287299083593
10	0x3f8f041c4256b481	0.015144558691498002
11	0x3fe29f2999d82059	0.5819290165682204
12	0x3fbb1b5364490cf9	0.10588570783970742
13	0xbf7d58e7228c20e5	-0.007164862509633195
14	0xbfcff07d509bd3e8	-0.24952665744754587
15	0x3fc621a5aae97775	0.17290182919799305
16	0x3fae7265372bd611	0.05946651743390075
17	0x3fc4daaaac5f4919	0.16292317787753843
18	0x3fb677d18ac3832e	0.08776578557764189
19	0xbfcee2ce7e594dfe	-0.2412965886056639
20	0xbfcd02226617dce7	-0.2266276358129524
21	0xbfb8b5431eca5e30	-0.09651584150048431
22	0xbfc9c47648cab0c4	-0.20130804590497153
23	0xbfde16b4f39add10	-0.47013591565651414
24	0x3f8ffc9c60503826	0.015618535699129476
25	0x3fda4d2a642ffa36	0.41095981391837044
26	0xbfc718044f7f4238	-0.18042043573088207
27	0xbfc4aca5e4b8724f	-0.16151879947655565
28	0x3fc7fb244161bcd1	0.1873517340895661
29	0x3fb0d4dd974fd42f	0.06574807113777646
30	0xbfa6c8cf8d1b9427	-0.04450081441408598
31	0xbfc61221a59e512d	-0.1724283274348947
32	0x3fa10938d0ca2f1f	0.03327348278716457
33	0xbfd338fb65a0f2cf	-0.30035290646246166
34	0xbfc228273101da29	-0.14185037510806467
35	0xbf882535b2d2646e	-0.011789721984586356
36	0x3fce14eb1a883a9b	0.23501337810053688
37	0x3fc1e0e075c33147	0.13967519521828306
38	0xbfcbcbe4d3943cab	-0.2171598466015657
39	0x3fb212c1e24e4b99	0.07059871459050128
40	0x3fc4a1746642c0b3	0.1611772059745867
41	0xbfd64b693e675e08	-0.34835272878760337
42	0xbfa393713ec3af70	-0.038234270965260886
43	0xbfca2c7ebdb81534	-0.2044828821528114
44	0xbfaa3707ecdca22d	-0.051201102889823914
45	0x3fba3c192c39defb	0.10247952775705109
46	0xbfaaf62f0683133d	-0.05265948252193773
47	0xbfd13ee66d8a986c	-0.2694641179790611
48	0xbfa8cffb611b6888	-0.04846177635563814
49	0xbf806dde1778e6c0	-0.008022055713002074
50	0x3fafff6bb5194715	0.062495580536632435
51	0x3fa3f22df1c04781	0.038957057724601014
52	0x3fb7db80d215b24e	0.09319310311338677
53	0x3fc56271ad6d230c	0.1670667740638908
54	0x3fc64b4da6fb6b8c	0.1741730752317746
55	0xbfbb19359053c101	-0.10585341237652203
56	0x3f98f28b13890a83	0.024362729136792282
57	0x3fcfc7a61829628c	0.2482802980400901
58	0xbf9616185a226318	-0.021568661214220602
59	0x3fc6daef3dd4785a	0.17855635184327207
60	0xbfcfadcb1ea15374	-0.2474912547646927
61	0x3fd5756d6bb1a82b	0.3352922012041996
62	0x3fc4578c8500f920	0.15892178053213346
63	0x3fbfaeb9629f03c1	0.12375982911818452
64	0x3f823433623c3120	0.008888627467535104
65	0xbfc306e4154e4a7f	-0.1486477951080651
66	0xbfbbed4736f4f221	-0.10908932773322323
67	0x3fbf5f7ced305450	0.12255078116170748
68	0xbfb990a3cd469794	-0.09986327897658348
69	0xbfcd1584b7001f61	-0.22721918998308424
70	0x3f9109897f3575a4	0.01663794363900241
71	0xbfe34901540eee00	-0.6026617662204785
72	0x3fd1101e4322336c	0.2666087775804076
73	0x3fa1606bd24c8d87	0.03393876020552527
74	0xbfc6abc2a521d5f1	-0.17711670935720705
75	0xbfa5fc35cf931df1	-0.04293983610983421
76	0xbfb367356665676b	-0.07579358816056263
77	0x3fd4c8f143a1106c	0.32476455311212393
78	0xbfb61bd84149d862	-0.08636237710911268
79	0x3fcdfd1b70468ff0	0.23428671819885905
80	0x3fd63942b3832b1a	0.3472449067163993
81	0x3fc453414b4e98e1	0.1587907426557598
82	0xbfcf5e8ffede59f0	-0.24507331795457743
83	0x3fe6c762ad8b9688	0.7118390454822512
84	0xbfce1a0b25ede63f	-0.23516978599563917
85	0xbfd77fce284a8c6c	-0.36717561659515385
86	0x3fd1dffba0e9fe80	0.27929583276998216
87	0x3fcda9feeafe7da0	0.23175035929032806
88	0xbfcdc31d1ae5478a	-0.23251689732802233
89	0x3fadd0c98421c1a0	0.05823354471147302
90	0x3fb2b32d1a4ec556	0.07304651157644079
91	0x3fd9555dd296bb4a	0.3958353573352055
92	0x3fb1f9bb03801cbc	0.07021683536014484
93	0x3fd0e18499f40574	0.26376452478878964
94	0x3fc8f219f0ec349d	0.19488834632685306
95	0xbfc0cb4a7cbc1d96	-0.1312039479309816
96	0xbfcb984c156ab118	-0.2155852417539641
97	0x3fd1be7e6f9c456e	0.27725182437378393
98	0xbfe2de40a5341db5	-0.5896304346687687
99	0xbfe103bd0eacd3b1	-0.5317063604949138
100	0xbfd2644caf382f90	-0.287371798622865
101	0xbfc2f8114b8effe1	-0.14819542111763354
102	0x3fe04b0630360ded	0.5091582242607139
103	0x3fc57a3173c8ac91	0.16779153970251007
104	0xbf9e6e62fe63f9a4	-0.02971796682049334
105	0x3fc4370df3994893	0.15793012995215303
106	0x3fc3920ddaf6b314	0.1528947180899186
107	0xbf907c37734d777f	-0.016098848736298074
108	0xbfd7fb9781df9462	-0.3747309463781844
109	0xbfd1ebfd45c80488	-0.2800286466081805
110	0x3fb9a62083f614fe	0.10019114705763241
111	0x3fc5e600528368b7	0.17108158139200721
112	0x3fb2a1fe04bc7ebd	0.07278430572159329
113	0x3fd06a4a7b384cd4	0.2564874842948488
114	0xbfa6b2a76865983b	-0.04433177136779461
115	0xbfe2b6fdc4ef5523	-0.5848378034958482
116	0x3fbb6920773ee9df	0.10707285796426146
117	0x3fc7a827fd8eed62	0.18481922035958137
118	0xbfa821525056bbbb	-0.047129223162634536
119	0x3fb1210568686043	0.06691011237160276
120	0x3fd254f33fb7eb2c	0.286434948182136
121	0x3fb430f2540775a2	0.07887186576359409
122	0xbfd2889b5871e2d2	-0.2895878185004622
123	0x3f4ed19cc430f880	0.0009405150852968142
124	0x3fcc33a880cada14	0.2203264836186497
125	0x3fb58d9098e8ca34	0.08419135792863913
126	0xbfc734dc1b67d210	-0.18130065286790442
127	0xbfa6693ad3e0c585	-0.043771589626326914
128	0x3fd9d2c80fad51bc	0.4034900811286908
129	0x3fd708271d728daa	0.3598726069996824
130	0x3fcdcef0dd7daf71	0.23287783446300694
131	0x3fdfce0358d4ed5a	0.49694904017424835
132	0xbfd7b542e6f6a046	-0.3704383140088833
133	0x3fcde286c2650e5b	0.23347553722315947
134	0x3fcd98f913ff138a	0.23123086429964373
135	0x3f8afcc2efdc0d73	0.01317741674893711
136	0x3fd13f660f01baa1	0.2694945475149471
137	0xbfd0c88227c5f897	-0.2622380627070781
138	0x3fcbd83347a54c6f	0.21753540991139483
139	0xbf8cee0caec99486	-0.01412591846856005
140	0x3f8073f865a0b3c2	0.008033695794518073
141	0xbf9c162e1b1ef97b	-0.027428360371908305
142	0xbfd1efe0d05ede69	-0.2802660021656949
143	0x3fbe84883c10c0ad	0.11920978037301451
144	0x3fae3b099f6b0a0f	0.059044171056957244
145	0x3f9f9c0a68f1a1d2	0.030868685393586955
146	0x3fab6d36baa5b8e6	0.053567610057926804
147	0xbfc58ee545d608f8	-0.1684233275410134
148	0xbfc02d383a89b940	-0.12637999399471234
149	0xbfd027d947431f9a	-0.2524321742935115
150	0x3f675823caf10f82	0.00284964552659689
151	0x3fc74c14fca93321	0.18200933777770792
152	0x3fb6925b9da8accb	0.08817074393361961
153	0x3fb76b378b199721	0.0914797510718839
154	0xbfc3440a5fb85730	-0.15051393197853136
155	0xbfd02da54a58850a	-0.252785990336705
156	0x3fb63c78c9edc3df	0.08686022691632854
157	0xbfba1142ead8959b	-0.10182588799997065
158	0xbfa0da21a768797b	-0.032914210973319556
159	0xbf98320f8eed15cf	-0.02362846670009394
160	0xbfc25508332f4c07	-0.14321997164969977
161	0xbfc704ecc994383b	-0.1798377975723627
162	0xbfc61061d981b298	-0.1723749458355044
163	0x3fb0632ea77a7d06	0.06401340092496718
164	0x3fa254b68d098855	0.03580255958219484
165	0xbfa53c60f92b5f32	-0.04147627870196259
166	0xbfd608b9c7871ad2	-0.3442825745118344
167	0xbfbbea8bcd24b217	-0.10904763944990524
168	0x3fc27bf08e746815	0.1444073386745123
169	0xbfb3fba1ee7d6f74	-0.07805835793027233
170	0xbfb378a09a61d4d6	-0.07605937737556032
171	0x3fae75e0b46e0bc2	0.05949308588517212
172	0x3fce3ae7acc86ead	0.23617263733546193
173	0xbfc4a4d08af86fc5	-0.16127974305788775
174	0xbfb20615708a6c25	-0.07040533063484185
175	0x3fb3c85b3332ee7b	0.07727594375585937
176	0xbfaec21e47dd256b	-0.06007475497478761
177	0x3fc7ca30155fab4d	0.18585778278005663
178	0xbfca85b9d70df155	-0.2072059917517303
179	0x3fbffa236046754e	0.12491055584401531
180	0x3fc0681b3a14f444	0.12817707382228793
181	0xbfb5d7fafa63e953	-0.08532684910816117
182	0x3f89c4394f0f6b96	0.012581298566080961
183	0xbfb5349f7ff49b26	-0.08283421396172894
184	0xbfc979541d2ee1c3	-0.19901515412290224
185	0xbfbeb1f9076d5ad8	-0.11990314894988374
186	0x3fa3ea80bd092a91	0.03889849002424229
187	0xbfc95bc3a856ac44	-0.19811292380959078
188	0x3fd18852455dff6f	0.27394539617670594
189	0x3fe2d7ba07a7712f	0.5888338231557436
190	0x3fcf4e5fe30903eb	0.2445793016977683
191	0x3fded9044a0787d8	0.48199565152583324
192	0xbfd9406abc402227	-0.39455669769134477
193	0x3fd0defb8a128a5a	0.2636097763408195
194	0x3fc705a032cebd07	0.17985918503607243
195	0xbfcc94a5bd6e4a40	-0.2232863593058756
196	0xbfc14fe4d4eb339d	-0.13525066753791473
197	0x3fa51c2cd9127711	0.04123058461958185
198	0x3fcd30a176631f40	0.22804659157395157
199	0xbfb56e3605276afd	-0.08371293664769648
200	0xbfbf548ca6d3b30c	-0.12238387177394489
201	0xbfcc215b6d2999fa	-0.21976797895622707
202	0x3fbc4ba08b8b0e60	0.11052897841278186
203	0xbfdc8d0db90f8686	-0.446109228823936
204	0x3fd317be815d55aa	0.2983242286039408
205	0x3fbebc411d925c0e	0.12006003353086234
206	0xbfd501feb0e07c08	-0.32824675820478477
207	0xbf950eaa73bf42b6	-0.020563758196490332
208	0x3f9493323227a9cd	0.020092758475508
209	0xbfc33b30ec053fbc	-0.15024386906088505
210	0xbfc070506bd9c75c	-0.12842755571505904
211	0xbfa8878db9c47792	-0.04790919201535283
212	0x3fcc8536d118ef03	0.22281537256082382
213	0x3fc22d33cab42383	0.14200446508064254
214	0xbfcca22ada69a419	-0.22369895615273164
215	0x3fd09760a61b67e4	0.25923935147659294
216	0x3fbd494dd9740356	0.11439978178897312
217	0xbfb9d97c1c51237e	-0.10097480479556784
218	0x3fd58136a62c94e4	0.3360115645212558
219	0xbfabcf5477e318eb	-0.054316177019744526
220	0x3fd0648611c59535	0.25613548026588556
221	0x3fbb3230c99a2f86	0.10623459741526461
222	0xbfa0cb8b0bd22285	-0.03280291098878244
223	0xbfd1f75046d60583	-0.28071982305126414
224	0x3faca071a584b986	0.05591159005631412
225	0xbfc1aab0c75be665	-0.1380215619499722
226	0xbfcccca52a33e791	-0.22499527512246378
227	0xbfb2d7afb9a08aca	-0.0736036136809545
228	0x3fa8218e6f5f82f7	0.047131014914844664
229	0x3fc613f76d982d3d	0.1724843297127822
230	0x3fa9042757449c16	0.0488598150280312
231	0xbf8aaabf77c9b0ec	-0.013020988314757585
232	0x3fcbf434a2d85ba0	0.21839006377623793
233	0xbfcf8907f3774f72	-0.2463693560408689
234	0x3fcad0a899f04581	0.2094927550938728
235	0xbfccaa1663bae654	-0.22394065732605617
236	0xbfd0a519916708ac	-0.2600768966623359
237	0xbfb5577275b4befc	-0.08336558698351476
238	0x3fd1abdb97d492bc	0.27611436679061874
239	0x3fc45ce2913f9c56	0.1590846261235323
240	0xbfcf839257fb83af	-0.24620274826068342
241	0xbfcb96a670c5df63	-0.21553497797480778
242	0x3fc7c5411833ab82	0.1857072227643038
243	0xbfada93f8c1ab19a	-0.057931886532375645
244	0xbfd0842a947ac97b	-0.25806679248775993
245	0x3fbfd334faa5e071	0.12431651229224074
246	0xbfc356ea3a90b603	-0.1510899339640873
247	0xbfbf10f49a9db9f7	-0.12135247015769567
248	0xbfc96730cb593547	-0.19846162728428338
249	0x3fa03ff0149e3158	0.03173780681308597
250	0xbf86e4f606c20a11	-0.011178896027790793
251	0x3fc7a444a4fe11e3	0.18470056587479097
252	0xbfd4b7ef9cc5ed94	-0.3237265616405349
253	0x3fba3f548a7ebd01	0.10252884274699527
254	0x3fb57b27953ee77a	0.08391044038481069
255	0xbfc2dcd1ad569373	-0.1473638626458996

linears.1.bias f8 [30]
0	0x3fb8ea64cc5abcc7	0.09732656468507904
1	0x3fafde4014a5f718	0.06224251033834899
2	0x3f6bafd2343ab52b	0.003379736475685254
3	0xbfb0894431131882	-0.06459451864347623
4	0xbfb00313a023856a	-0.06254694614064751
5	0x3fae1d2a0f5a708e	0.05881625592630356
6	0xbfa26b8072fadf8e	-0.035976423297540014
7	0x3fb7b53732c0b7b6	0.09260888089258298
8	0x3fb0ab77b8d9f8ca	0.06511638892149843
9	0x3f71a83c841386b9	0.004310833349536907
10	0x3fc1b85113d42162	0.13843739956088102
11	0x3fa7c54b9c1bce6d	0.046427119070270396
12	0xbfbcc0f83f6a6146	-0.11231948421698687
13	0x3fafeeeb9dad0b3d	0.06236969280009539
14	0x3fb08baea682493e	0.06463138165625978
15	0xbf7e5324d198269f	-0.007403510878711521
16	0x3fadabbf3b591885	0.05795095061743986
17	0x3fbe17bfab4688e3	0.11754987651378061
18	0x3fb6f77e4d773544	0.08971394912005787
19	0xbfaf6ea882938577	-0.06139113038967541
20	0xbfb5f88113d14d6b	-0.08582312330081769
21	0xbfa51b395f5733b0	-0.04122332848383026
22	0xbf73d34a99596e8a	-0.004840175058770444
23	0x3fb2c58f299b06f8	0.07332701459656821
24	0xbfa46f5528a7cdde	-0.03991190072329308
25	0xbfa21791f6de951b	-0.03533607615035291
26	0xbfa6a4730f7851fc	-0.04422339977114473
27	0x3fb45f3b50504f4c	0.07957812033447204
28	0xbfb31f619b4efa2c	-0.07469759027205986
29	0xbfb6827a7ff70e25	-0.08792844413897478

linears.2.weight f8 [30, 30]
0	0xbfc67299d7c9682e	-0.17537234341108515
1	0x3fc31532a46d8d13	0.1490844061728259
2	0xbfd1a2779df344eb	-0.27554121422606553
3	0x3fd5e66a032f1f63	0.3421883612722835
4	0xbfd791f9d9e1e064	-0.368284666801179
5	0xbfbb42e9000c055f	-0.10648971797129068
6	0xbfc5062ec6c014f8	-0.16425118164639918
7	0x3fc8eee690962417	0.1947906690586769
8	0x3fc6c6bb465372dd	0.17793980535397838
9	0xbfd04e050f1cceb4	-0.25476194835503496
10	0xbfc2f2fa4f5bc33d	-0.14804009318279468
11	0x3fc198a5db17ef10	0.1374709434311332
12	0xbfcc63d6a897ce6d	-0.22179682952956928
13	0xbfd06422323cc35e	-0.25611166864387325
14	0x3fbc6743c7db2b37	0.11095069531726841
15	0xbfdaaed18e325cc1	-0.4169200791015549
16	0x3fa4015198006e9f	0.039072561077970074
17	0x3fc9aa417980fcfe	0.20050829346471483
18	0x3fcf9bc27f1b9646	0.2469409104007118
19	0xbfb57f3fcea54027	-0.08397291941696548
20	0xbfbe95703c3f647d	-0.11946774931802114
21	0xbfc2d758b053aa0f	-0.1471968518229265
22	0xbfca2ceaf024c98d	-0.20449578023687956
23	0xbfc41bd4a5389f02	-0.1570993239158654
24	0xbfd571391bf87f5b	-0.3350355885649969
25	0xbfc88d7179c5c8d8	-0.191816505870128
26	0xbfbfc09adc87c7ad	-0.12403266796152819
27	0x3fd0387e885e1c52	0.2534481364932094
28	0x3faf53eed98a08d9	0.06118723302371771
29	0xbfce07b12a179cbe	-0.23460974269185003
30	0x3fc467f46d05ea01	0.15942244838136335
31	0xbfcac4826b0bb6be	-0.2091219923672067
32	0x3fcf04c75eb04d94	0.24233333705397497
33	0x3fc863b17a436cd5	0.19054239721194813
34	0xbfc7588513f197bb	-0.18238891099752927
35	0x3fc37a8945b9744b	0.15217700867188663
36	0x3fca226af6668625	0.20417534858010913
37	0xbfcaf433a5832514	-0.21057744580893056
38	0xbfb7cccfea9afd5c	-0.09296893575355142
39	0x3fb8ef51e345bc1c	0.09740173147814385
40	0x3fcf17a0f2225673	0.24290859053569455
41	0x3fc5e26b62fa2a58	0.1709722741400863
42	0x3fd0c5f133415ebd	0.2620814323940797
43	0xbfd4fd1219c3c613	-0.32794621006095886
44	0x3fc8bd181929704c	0.19327069500548288
45	0xbfb715c377b77865	-0.09017583534975555
46	0x3fc537e606eee8d2	0.16576838816201317
47	0xbfb19c2b4b971971	-0.0687892016931977
48	0x3f954f58ad4d9c3e	0.020810494973741316
49	0xbf96fb35441bed05	-0.022442657739685696
50	0x3fbb9c62beafe993	0.10785500674675168
51	0xbfcb253536ca6a32	-0.21207299399687113
52	0x3fb5242d0503acc5	0.0825832497827604
53	0x3fca2b8eb70d0cc6	0.2044542688182444
54	0x3fd0c22081167ded	0.2618485699294684
55	0xbfc0b852dc869d1f	-0.13062511222708736
56	0xbfc4cbbe5e484ffc	-0.16246776202808622
57	0xbfcfe2b74e661b0b	-0.24910632446354727
58	0x3fa690d196a92077	0.044073629037087274
59	0x3fd048b0332c6393	0.2544365405788593
60	0xbfa31562257a392d	-0.03727251727569789
61	0xbfc11aaaf74ee94e	-0.1336263377723505
62	0x3fc6a7765ab4978c	0.17698554448105275
63	0x3fc5772558f2316b	0.16769854395932823
64	0xbfdb763b03d3cd58	-0.42909121869816635
65	0x3fb01ecad1e5658b	0.06296985268035919
66	0xbfe0fccd9dc5846e	-0.5308597642398476
67	0x3fb4dd348c5029ce	0.08150032449353903
68	0xbfcc1ef2bb4a4636	-0.2196944632055861
69	0x3fc115042523d479	0.13345386327242517
70	0xbfc3c017b371e858	-0.1542997003742268
71	0x3fd4760e5f32c237	0.3197055749579109
72	0x3fd60028f22e52b7	0.3437597622917496
73	0x3f95372ee61cbcfb	0.020718319697320613
74	0xbfbc8d8b218fd80a	-0.11153478211767279
75	0xbfd973d03dc3f0fd	-0.3976936915567107
76	0xbf859daf9beae025	-0.010554668374752005
77	0xbfc3e1906dea5498	-0.15532117239914522
78	0x3fd789aab19ce8eb	0.36777751297962763
79	0xbfda6543b98ea999	-0.4124306976397292
80	0xbfccb81a333b0a11	-0.22436835767264587
81	0x3fd2ba3cac9665da	0.29261700491187315
82	0x3fd4f04108aaaed7	0.3271639427791632
83	0xbfd24872bbcb02ca	-0.28567188586388836
84	0xbfbe294f9046c37b	-0.11781785271047156
85	0x3fa98dc2472210b1	0.04990965956042837
86	0xbfd8d9218473d8a7	-0.3882526200753866
87	0xbfd582e1e93ba9ec	-0.3361134317080132
88	0xbf957f549cd5f623	-0.020993539879318967
89	0xbfc1e36acfa8322d	-0.1397527231169006
90	0x3fc25c121facdef6	0.14343477770466223
91	0xbfa26f5364631a7b	-0.03600559807232614
92	0xbfd5612bb3bec638	-0.33405582955592505
93	0xbfc2763af8e8a3e4	-0.14423310426471325
94	0x3fd20ce40237e31c	0.28203678337699656
95	0xbfddae4b0914c1a6	-0.4637630070383473
96	0x3fccf17b014a8f47	0.2261193996720243
97	0x3fcbff1159521ed8	0.21872155057302822
98	0x3fd19192da52604e	0.27451011009680293
99	0x3fcaccaf7fbb6c8b	0.20937150704307714
100	0xbfb401a845390503	-0.07815028848655818
101	0xbf900fe50bc94f70	-0.0156856335109547
102	0xbfc75362c5051877	-0.18223223323929336
103	0x3fd1732485b2dbe6	0.27265275055418525
104	0x3f95acf1b6101a90	0.021167542206991075
105	0x3fb36654f7e17024	0.07578021098873983
106	0xbfb2767980d8abad	-0.07212027927077598
107	0x3fd2fa142801911f	0.2965135946926853
108	0xbfd1496655fd40de	-0.27010496518506766
109	0xbfc2fa695d890620	-0.14826695506239762
110	0xbfd6987595fe1feb	-0.3530553784153187
111	0x3fc278649cbb2198	0.14429910328750561
112	0x3fb0fa68da95c18b	0.06632094704196427
113	0xbfb856a81fdd5757	-0.09507227685875584
114	0x3fcbc14c9a2e70be	0.2168365242804437
115	0x3fc0bf958fc4a797	0.13084668655329487
116	0xbfca0d531fdbe35e	-0.20353163772213184
117	0x3fcb69689309c196	0.21415431193919393
118	0xbfc6ebe5631a1fba	-0.17907397593466873
119	0x3fc2fa655befa5ab	0.14826647748058738
120	0x3fc925034c4dfef8	0.19644204355062533
121	0x3fd112ea61cabda5	0.26677951383586623
122	0xbfcaa17125638b12	-0.20805181813837997
123	0x3fc2b08ede31d4db	0.1460131249365649
124	0x3fbf3a7c66aea87d	0.12198617464915347
125	0xbfd235a1ca51d59f	-0.28452343709735745
126	0x3fdcb9f39a39f525	0.4488495832554967
127	0xbfca5543f808bebd	-0.20572709666293135
128	0x3fce7e91859e07f0	0.2382375624111428
129	0xbf962a20b70c6500	-0.02164507977713459
130	0xbfd0545300b4f870	-0.2551467425254321
131	0xbfd6df43c44b5b58	-0.3573769967019209
132	0xbf9789639456a5e4	-0.022985034874784108
133	0x3fd33161e69acc5c	0.29988906402576787
134	0xbfa35407aa5acaa8	-0.037750472588773676
135	0x3fa7c0b59a1f885a	0.04639213091265111
136	0xbfc74dd0b4038998	-0.1820622328733179
137	0x3fb0fe4a0667eeed	0.06638014465709903
138	0xbfbd53689c10bc06	-0.11455396471204446
139	0x3fd6580f93bb78d7	0.34912480761512427
140	0x3fc40204441536d5	0.15631154369696412
141	0x3fce35febf569025	0.23602279989893407
142	0xbfbd5466e70d67ba	-0.11456912175108772
143	0x3fa2f699aef6743a	0.03703766117835312
144	0x3fb4cd89fd673cee	0.08126127659419399
145	0x3fa545a2202f5f17	0.041546884945715394
146	0x3fd88f04a47a9457	0.3837291342009101
147	0x3fd4ad80bca73fc5	0.3230897753064677
148	0x3fbf566faea73b83	0.12241266263957411
149	0x3f7b6f02f11efac4	0.006697665683474244
150	0x3fc355bd32c24c68	0.1510540483328413
151	0xbfd2198a8f53034c	-0.2828089141512933
152	0x3fd2f4562aed2af7	0.2961631221011624
153	0xbfd84b7e7147ae95	-0.3796077829599452
154	0x3fc1c92f9dc86d4d	0.1389522095131305
155	0x3fd50f7a494c2714	0.32906968267399006
156	0x3fdab126929851af	0.4170624190894853
157	0xbfc3db1663164cb3	-0.1551235183547753
158	0x3fdddf401c2f35c1	0.4667511248815935
159	0xbfa2fa07d1c5259f	-0.03706383166952353
160	0xbfc0c105131560e0	-0.13089049751102433
161	0x3fba13cb791c07e2	0.10186454493307864
162	0xbfc168f1a7d901ab	-0.13601513572394927
163	0xbfcbe832c5c41334	-0.2180236306814095
164	0x3fcada51acdcf022	0.20978756847932895
165	0xbfb039e82c8642b2	-0.06338358962080795
166	0xbfc9ffd518b00459	-0.20311988549659324
167	0x3fc399b28e227eb2	0.1531279748933137
168	0xbf97aaf9c12a0021	-0.023113157667921883
169	0xbfa03dc8dde085ab	-0.03172137936077076
170	0x3fb5972083eeb001	0.08433726521496966
171	0xbfd8799111f14791	-0.3824198413104734
172	0xbfa12140cb277b0c	-0.033456826018428115
173	0x3fb681882ad9b668	0.08791399999764737
174	0x3fd67779324e6554	0.3510420790931523
175	0x3fc415e41b6d5378	0.15691806163036026
176	0x3fcbb223d7480b35	0.21637390147960792
177	0x3fbae42b2a5b43a6	0.10504407676786673
178	0x3f67646c3e99d29b	0.002855502524477705
179	0x3fc470d413f6c545	0.1596932504158223
180	0x3fb973f75e3d5c53	0.0994257550313347
181	0x3fcda23a9a26377a	0.23151333357639797
182	0xbfca49a8b955912e	-0.20537289666675335
183	0xbfc5ed6e6ef48fe7	-0.1713083307050731
184	0xbfcb1d57b485e49b	-0.21183296503639756
185	0xbfc0d69112d89586	-0.13154805584160217
186	0xbfd661bcb23a69b8	-0.3497153988370445
187	0xbfa221efdc1a529f	-0.03541516839792291
188	0x3fd154039f279164	0.27075281660497397
189	0xbfd93ff016957878	-0.3945274563356018
190	0x3f70c85dca9ae0f3	0.004097334263569718
191	0xbfc91662248f342b	-0.19599558625341848
192	0xbfb76cf2be8d4e78	-0.09150616790912547
193	0xbfcb7d05db1ab606	-0.21475289534048175
194	0x3fc735d1d599a792	0.18132994584749135
195	0xbfc7db256c7718de	-0.18637531086114384
196	0x3fd52d5e20fb1fc7	0.3308940240935922
197	0xbfd03d32c91e3bc4	-0.25373525276603126
198	0x3fd77fa8e41e6ef0	0.36716673161730196
199	0x3fa7f232efc68a0c	0.046769706506229
200	0xbfc558e6e1fc064d	-0.16677557024381642
201	0x3fc20769580de3dd	0.14085118102573704
202	0x3fcfc14f5bd57335	0.24808685287544
203	0xbfcd9cbcabccf3c9	-0.2313457335348217
204	0xbfc8ca0842416c34	-0.1936655353082145
205	0xbfa59a4cf87edea3	-0.042192845663007426
206	0xbfc59e0d083743e3	-0.16888583089033124
207	0x3f761e784a77351b	0.0054001520979458885
208	0x3f95f7a10e2c7c0d	0.021452442636583458
209	0x3fd784143aff8903	0.367436463942923
210	0xbfb5136306610950	-0.0823270693372582
211	0x3fa71024890677c3	0.04504503414794627
212	0xbfb0633d66eba467	-0.06401427996355978
213	0x3fe3483ee5b89fa9	0.6025690542928618
214	0xbfde7d18f6861449	-0.4763853461702792
215	0xbfb9a5284f859751	-0.10017635289622474
216	0xbfdcbebaef56fa59	-0.44914124844573206
217	0xbfc2a76a2c105fa7	-0.1457340922504475
218	0xbfda4674533b000c	-0.4105501950070909
219	0xbfd312cad6b54644	-0.2980219933279822
220	0xbfc1d5d0736e9090	-0.13933759342501562
221	0xbf9379bf191f36d8	-0.019019113453217468
222	0x3fe3f57570ae1154	0.6237132263927756
223	0x3fa37d65e595d1f2	0.0380660860782064
224	0x3fae00267a92e111	0.05859489675771291
225	0xbfd64aedd64353b9	-0.3483233063137124
226	0x3fc26ed34971d997	0.14400712095421106
227	0xbfe2513cc58a8ebf	-0.5724166734912258
228	0x3fe04303c17e5917	0.5081805018587912
229	0xbfc6f3e392a2716c	-0.17931790027513317
230	0x3fc3d504fe9eeba5	0.15493833954482486
231	0xbfc069d5bc77d973	-0.12822982504412614
232	0x3fe2b11e47a1b45b	0.5841208838516069
233	0xbfb6a0d236c4ebf4	-0.08839143597735682
234	0xbfe003f40fddc522	-0.5004825887573683
235	0xbfd668325528a5ef	-0.35010965648925113
236	0xbfdd18a29e9c7e37	-0.45462861527809956
237	0xbfaf66eef55bbd4d	-0.061332194758387894
238	0xbfc007085d0516d9	-0.12521462003694842
239	0x3f9527368c9dfdec	0.020657398541059566
240	0x3fb853c21f675095	0.09502805010498812
241	0xbf9ef2fda42a15ac	-0.030223811287688626
242	0x3fb9e01f3b6437a2	0.10107608032214313
243	0x3fc114a522ebade8	0.13344253735645784
244	0xbfc024f2cdb616ba	-0.12612757725235274
245	0xbf9d0f215d9b0b81	-0.028378030145869374
246	0x3fbe55dd0bdf3ca2	0.11849767246097767
247	0x3fd375301be33b21	0.30402758334541785
248	0x3fd2968d8e485491	0.29043902296809515
249	0x3fc735b97a05f7ad	0.18132704218072374
250	0x3fbb72ec539e5aa5	0.10722233811825761
251	0x3fd0a715fc230202	0.2601981127045577
252	0xbfb55981d02bd5f0	-0.08339701969438074
253	0x3fcc3c01d0ec8342	0.22058127118455145
254	0x3fb6a162099264bc	0.08840000852287039
255	0xbfc0bed685a1952b	-0.13082391285858228

linears.2.bias f8 [30]
0	0x3faaac5966af6161	0.0520961702201841
1	0xbfba5b6d38804896	-0.10295755986615726
2	0xbfa7ccc0ed0e60f2	-0.04648402112724338
3	0xbfb7bf9737fc2dab	-0.0927671920473389
4	0xbfa05ed6b2b3cc1d	-0.031973561586618106
5	0x3fb3fcd29a6bfd39	0.07807651777328752
6	0x3fb14aef895d29df	0.06754967788325626
7	0x3f9a9483f20d6c0c	0.025957166336734658
8	0x3fa97af3d8bcbfb0	0.04976617832869523
9	0xbfab27b162e0e1ec	-0.053037207908747636
10	0x3fc1c40cf5ad4fc0	0.13879549022624182
11	0x3faa7d186bc64766	0.051735652118749795
12	0x3fad0d045b3749a1	0.05673993695713198
13	0x3fac847edfaa883c	0.05569836120891167
14	0x3fb1d544893913c6	0.06966045713586685
15	0xbfa29a0b08db9004	-0.03633150561452683
16	0xbf8a313b2d7276c6	-0.012789213489948447
17	0x3faca8b6a47922a2	0.05597468145112329
18	0xbfa8135e3098ab86	-0.047022765571759925
19	0xbf8358785e4639ff	-0.009446087243103028
20	0xbfaad1cbf2e880cc	-0.05238187160671401
21	0x3fac58fa472be341	0.055366345584792594
22	0x3fa9439d38feea28	0.04934398003338841
23	0xbf9e712e7bd7e490	-0.02972862845306118
24	0x3fc4371a416b4112	0.1579315967014812
25	0xbfa5526631264694	-0.041644280910202586
26	0x3fa9dd78c7bbd9b3	0.05051782072216628
27	0xbfaec9d3d87d7f77	-0.06013357179358441
28	0xbfa3dc8c51c0ba11	-0.03879202363929236
29	0xbf9a8f4bdb1399ae	-0.02593725704800825

linears.3.weight f8 [30, 30]
0	0x3fdddda6e194d7b3	0.4666535571044463
1	0xbfb6d13d9b607342	-0.08913025897386453
2	0x3fc5e445ea146a2e	0.17102884225535447
3	0x3fbbf34e42314bad	0.10918130031613656
4	0x3fc3928d477e2b63	0.152909908207529
5	0xbfdbe07a69e1dc96	-0.43557606067720067
6	0xbfceff6d6e890ecf	-0.2421700277064844
7	0xbfcb422ec6959572	-0.21295723625659552
8	0x3fbf2c99c2419715	0.12177430145819941
9	0xbfb795916e9d4a0e	-0.0921259779982295
10	0xbfa90db9f6f13f9c	-0.04893284930642425
11	0xbfcf17c67d85da36	-0.24291306618734304
12	0x3fd26d9f24895465	0.28794077461254225
13	0xbfd0daefbe3a7aab	-0.26336282326694044
14	0xbfcdb6a00a9d3545	-0.23213577764765084
15	0x3fc87908b8f97c4a	0.19119366676292976
16	0x3fc6d176b428e65c	0.17826732441772009
17	0xbfbb1db8d0db7c50	-0.10592227076584604
18	0xbfcc740e3d55965a	-0.22229173655357465
19	0x3fd139d0b39397db	0.26915376221438486
20	0xbfca42933c56f724	-0.20515671201968033
21	0x3fb6758689941a2f	0.08773079737520882
22	0x3f77d4004b614d19	0.005817414427002698
23	0xbf83234d4b1301cf	-0.009344676831802538
24	0xbfc4735928e9b0a4	-0.15977015016267615
25	0x3fbf3b31c4ff4807	0.12199698504926469
26	0x3fc9a69d1eaa6d7c	0.20039714810705422
27	0xbfbb6b751d399d74	-0.10710842097761547
28	0x3f8773b4516ca22c	0.011451157317041348
29	0xbfd5090c8bac1f4f	-0.32867730750921437
30	0x3fd4ce5c3d0ab3c1	0.32509523354638864
31	0xbfccf22063fa3857	-0.22613911515913074
32	0xbfd1469168d599ad	-0.26993212926609084
33	0xbfb5f14ea03d3807	-0.08571330463493619
34	0x3fd4f66315a0ca79	0.32753827201955904
35	0xbfd767067a29362a	-0.36566316537650556
36	0xbfb5cd8c0e49f5c7	-0.08516764973497636
37	0xbfb99fe3c27a154c	-0.1000959729954804
38	0x3fc1d7141bb72a4d	0.1393761763886964
39	0xbfd281b8d94d4da2	-0.289167606553031
40	0x3fa9441002460cf4	0.04934740092996917
41	0x3fc4d67be3bd6d00	0.16279553051104045
42	0x3fc5a9650cd9bcc2	0.16923201682536698
43	0xbfb2c6c7eab6d31b	-0.07334565620733395
44	0xbfa0d3e9fc2749cf	-0.03286677554173744
45	0xbfbdbd3b09fddbad	-0.11616868013321265
46	0xbfd1e4c643081743	-0.279588284931709
47	0xbfc39847e4c9951e	-0.15308474227200802
48	0xbfd03b35330b9c5c	-0.25361375794313346
49	0xbfc811c49b91e530	-0.18804223629175842
50	0x3fc4491408a97360	0.1584801714224353
51	0x3fbdb3e389910157	0.11602613552623119
52	0xbfaa7e70f8684709	-0.05174592048946464
53	0xbfcf95f331cd0e42	-0.24676361018838305
54	0x3fc4934199e69d51	0.16074390425385812
55	0x3fb5d468f7e92048	0.08527236988550257
56	0xbfc885c9aa6cc41c	-0.19158287831808785
57	0x3f88ee34a5067776	0.012173091207667613
58	0xbf958895c29a4d6b	-0.021028842928513408
59	0x3fcfef701064cae7	0.24949456024622593
60	0xbfd7f47fe994c86b	-0.37429807482397476
61	0x3fc1032c2fe7e15d	0.1329093202509836
62	0xbfc96eb7506e5b5b	-0.19869128634737873
63	0x3fcb41032ff89ec5	0.21292152254431165
64	0x3fc940ef0c6f1a1d	0.19729412181023145
65	0x3fa17ed9e214e4cb	0.03417092213425973
66	0xbfcf0a8ab9245ff9	-0.2425092128767117
67	0xbfc5228361da6a4b	-0.16511575963962097
68	0xbfd7cd6676afa5c9	-0.3719116362613844
69	0x3fd344b7bd53a8c9	0.301069197549293
70	0xbfd22cd93dc49f6c	-0.28398734123265146
71	0xbfc20037364cb654	-0.14063158179617352
72	0xbfd2e02656e78a46	-0.29493101584208536
73	0x3fcd4c4267705c05	0.2288897519181036
74	0xbfd102d53e48b549	-0.26579791147635895
75	0x3fb2448781887c0d	0.0713581744425797
76	0xbfc61ba508bc0f28	-0.17271864820951888
77	0xbfd46fd2c733fca3	-0.3193251557676808
78	0x3fd15378df97f244	0.27071973643595393
79	0xbfcc1e4850d24f8f	-0.2196741480480537
80	0xbfd253799e1357c8	-0.2863449138361571
81	0xbfc0c3321641a7eb	-0.1309568985628283
82	0xbfc86a5ef3000b25	-0.19074618211023978
83	0x3fa00bdb9f5dd64d	0.031340468601155004
84	0x3fc8a0a9f0849fef	0.19240307086988603
85	0x3f973db86f18a613	0.022696382313517626
86	0xbfd25e3c31e1a000	-0.2870016562578712
87	0xbfc1079f933687af	-0.13304514587531233
88	0x3f93c2bf4c77d715	0.019297589342350003
89	0x3fbe64b697e22a4f	0.11872426231472243
90	0xbfcb60db1f35d913	-0.21389330886786037
91	0x3fc4e5d085822245	0.1632633830925149
92	0xbf90deaad892f2e5	-0.01647440859663875
93	0xbf814dfdcd70e33d	-0.008449538070736668
94	0xbfcc926a36ba9980	-0.2232182280760746
95	0x3fde3759997ea18c	0.472128295800325
96	0x3fcedea0472db2e2	0.24116900897515509
97	0x3fc7b431cc7bd6d4	0.18518660053785274
98	0x3fdcb345e37f81c1	0.44844195572479967
99	0x3f90fff3c10c0f13	0.01660138002172491
100	0x3fce66588fa7619d	0.23749835028025937
101	0x3fa11bb0e4462ccb	0.033414390435689244
102	0x3fad99bcf7e6b92d	0.05781355405939546
103	0x3fd19cc7c40d1446	0.27519411225904766
104	0x3fc80aa906653467	0.18782532512924208
105	0xbfc52544a22de699	-0.16519983214293602
106	0x3fc627c46511064c	0.17308859763038453
107	0xbfbb68d798efdec1	-0.10706851466954516
108	0xbfc3c7caf60aec9c	-0.15453469289591204
109	0xbfc77d9f2cd880dc	-0.18352117242557753
110	0x3fb9b40a24d2580d	0.10040343665090763
111	0xbfd65799f043d409	-0.3490967604005282
112	0xbfd439a116647fae	-0.3160174101521943
113	0x3fda7beb02397563	0.413813354656517
114	0xbfaa813e950a43a0	-0.05176730698906984
115	0xbf86b50b073ee144	-0.011087499769801064
116	0xbf7cc62d9d94a037	-0.00702493494581096
117	0xbfcc41fd3b736aea	-0.22076383021234075
118	0x3fcda776652f6d1f	0.23167304936109986
119	0x3fc6920af3f717a8	0.1763318721042968
120	0x3fd2192d616113e6	0.282786698433766
121	0x3fca5ee063e095f0	0.20602040173359581
122	0x3fced76f2261cb8e	0.24094952753838722
123	0xbfb205ef2d9eb9a7	-0.07040305007715252
124	0x3fd54fff7b441881	0.33300768888182836
125	0xbfd0449d08835914	-0.25418783027034064
126	0xbfcc04d8f9880be8	-0.21889793571617067
127	0x3fd7042fd2427692	0.35963054211775003
128	0x3f915de208cf9fd8	0.016959697521002542
129	0x3f98869e4ed11685	0.02395102840480103
130	0x3fbcfa19565539f9	0.11319120748269275
131	0x3fc4d8b1cf6d499e	0.1628629935099299
132	0xbfd151e457450538	-0.27062328836844385
133	0x3fc4d40faf4025a1	0.16272159630925123
134	0x3fc74d48a86f7101	0.1820460150182797
135	0x3fb99fe3ec3fe06b	0.10009598272142887
136	0xbfc130eea075cd14	-0.13430579028099798
137	0xbfd1cb9708c4d49b	-0.2780511460908401
138	0xbfb707d46b998523	-0.08996322276063444
139	0x3fb20e4ce57f7d43	0.07053070643404617
140	0xbfd6d63cbc72a241	-0.35682600405792547
141	0x3fba766275b41bbf	0.10336890576955592
142	0x3fd925666e1207c1	0.3929077219873954
143	0xbfd175f551bc6eaf	-0.27282460195577135
144	0xbfd72cd103917470	-0.36211037968116155
145	0x3fba45df20060430	0.10262865573714985
146	0xbfc797b6b4346f4b	-0.1843174343019832
147	0x3fc3f6c52d8a39da	0.15596832965498103
148	0x3fabe276d09d8dcf	0.054462159124138425
149	0x3fce8f327642d121	0.2387450292059237
150	0xbfc5e2079639ecc1	-0.17096037707583459
151	0x3f8ab36b067e9182	0.013037525306409451
152	0x3fbde86fb5a3acda	0.1168279474692783
153	0xbf6663d87ea07de9	-0.002733157006346455
154	0xbfd0be37072f9d56	-0.2616097994018295
155	0x3fc4e7eddb56ad04	0.1633279152859829
156	0xbfce40934b99e658	-0.23634568397010258
157	0xbf9c1a8205028ef2	-0.027444869571481463
158	0x3fcfd545ee91973f	0.24869608067381851
159	0xbfc9655d83a7771d	-0.19840592316079944
160	0xbfad676fdca49622	-0.05742978638071984
161	0x3fc35dfc1dcb6355	0.15130568938072977
162	0x3fd7712930ab65ec	0.3662817931450195
163	0x3fd619ab2a0bbd07	0.3453166876415285
164	0x3faa01267f414f93	0.050790026697227784
165	0xbfb9e7d44d5c0dfc	-0.10119368446981264
166	0x3fca37bb950452a3	0.20482582832541593
167	0x3fcdba3060a44789	0.23224453657945457
168	0x3fd4ea07c63cf4d0	0.3267840801161812
169	0x3f9ddf1bb449f1f3	0.029171402815778746
170	0xbfb8d404992c0ff8	-0.09698513736299208
171	0x3fb8c986c8e4bc1b	0.09682505039812421
172	0x3fb086d24632bdfa	0.06455721105407256
173	0xbfc9b96fe27b10d7	-0.20097158964757142
174	0xbfbc27519d443250	-0.10997495736609975
175	0xbfd21de6068e872b	-0.28307486191089265
176	0x3fab14c787da72f0	0.05289290936818769
177	0x3fa1adcb9349da55	0.03452907727198765
178	0x3fc994945adc232a	0.1998467868472969
179	0x3fc8e4f1bf913a4e	0.19448682645675536
180	0xbfd229cd59dd915e	-0.28380140090873407
181	0xbfd0ccee6aba5628	-0.2625080148949075
182	0xbfd1e59672eb578f	-0.27963792059505804
183	0xbfd18cff24366174	-0.27423075233811933
184	0xbfc3d9fdcea2a8d4	-0.1550900706254824
185	0x3fd65212da533827	0.3487593776779953
186	0xbfc2a3f20fcf004a	-0.14562822124389846
187	0xbfc61fd72b722472	-0.17284669515018752
188	0x3fcc3aa429fb3cd4	0.22053958940384766
189	0xbfc6cc109e19129e	-0.17810256690622323
190	0xbfd004acb9f0e7b1	-0.2502853217916892
191	0x3fc9e9ea252f266e	0.20245100799211307
192	0xbfc6117afeb1ffe8	-0.17240846096319662
193	0x3fd19d0a09054564	0.2752099121181202
194	0xbfc04303bb3fbded	-0.12704512255685022
195	0x3fc9a0b133b76a3b	0.20021643662660601
196	0x3fbcbc0ed7507bd7	0.11224453694056478
197	0x3fd531274f693185	0.33112509493800985
198	0x3fb842b12f3f2242	0.09476764110071037
199	0x3fc301cde9f8695b	0.14849256443342082
200	0xbfb0ddb3e18755b7	-0.06588291412420842
201	0xbfcc1d2e7c4ec860	-0.21964055127824889
202	0xbfc8a95448ff55ce	-0.19266751827551193
203	0xbf7b7caccede07f2	-0.006710696250481251
204	0xbfaa36a7cf47fbcc	-0.051198238423232206
205	0x3fc2996064fba397	0.14530568056877932
206	0x3fc15f74236c01ab	0.13572551469407065
207	0xbfcf40f8a195ac28	-0.24417026414752852
208	0xbfd61090770279d8	-0.34476100561178447
209	0x3fd019759b1c2664	0.2515539183374129
210	0x3f87c0b217f01027	0.011598006587526367
211	0xbfb8d86914544735	-0.09705216165846482
212	0xbfd14603cc32cd5c	-0.2698983663678598
213	0xbfc506e19411daea	-0.16427249650924775
214	0x3fbd55f9002d65a1	0.11459308866814989
215	0xbf9c661883029b5c	-0.027733214374758716
216	0xbfd618a96ad9e758	-0.34525523600279007
217	0xbfe09aff7052980b	-0.5189206308175484
218	0xbfc587d3187bc4bd	-0.16820753760797472
219	0x3fbc40e5d7789b1b	0.11036526213193236
220	0xbfcea4d6cd910b87	-0.23940548932486314
221	0x3fab1463bd158f25	0.05288993533284118
222	0xbfd6369bc772342f	-0.34708303906592425
223	0x3fb88430ffabc501	0.09576708070723684
224	0x3fc2cacf56cd27b5	0.14681426752423268
225	0xbfda4878a9f21467	-0.4106732997536881
226	0xbfb3aaaa3c04aab3	-0.07682289090431986
227	0x3fce5931f5ffbab1	0.2370970202604972
228	0x3fd65c28de04f0e6	0.3493749778897509
229	0x3fe23c05e942c36b	0.5698270374178781
230	0x3fe40fd6a6b21d72	0.6269334083344076
231	0x3fcb70ca09ca0d14	0.21437955358496963
232	0xbfdcdc66ef29adb3	-0.45095227580778924
233	0x3fdd560029e9fdf4	0.4583740624729835
234	0x3fd620ebe987efa1	0.3457593708587812
235	0x3fdcaf5e0a1f9047	0.44820357311823894
236	0x3fc2458386c33efc	0.14274639206131912
237	0xbfd049729fc530a7	-0.25448289492193016
238	0x3fd0640e2f1f7572	0.25610689737171477
239	0xbfdbaeca1bf3b96b	-0.43254330377285183
240	0x3fc4b8cfbb0e05e8	0.16188999780210556
241	0x3fd15bd4b652d9cb	0.2712299137596374
242	0xbfc8bd23703cc6b9	-0.19327204685537483
243	0xbfc91a99c7bad0d3	-0.19612428905896326
244	0xbfb572dfb4317727	-0.08378408574341432
245	0xbfc05c7b3a593358	-0.1278223071007243
246	0xbfc8869862583e69	-0.1916075210760824
247	0x3fcb3808cb3c781e	0.21264753268855058
248	0xbfd57b02b301398b	-0.3356329677671048
249	0xbfd0a88270c1688e	-0.2602850056770273
250	0xbfa27d03973b54e4	-0.0361100313290679
251	0x3f7a00674c8b265e	0.006348041068756053
252	0x3fb90509387c17d4	0.09773309353849352
253	0x3fb122d021e7a7fd	0.06693745448833961
254	0xbfb06a8b120a94e4	-0.06412572088682428
255	0x3fb027de293d548c	0.06310833460641357

linears.3.bias f8 [30]
0	0xbfb72349a691694b	-0.09038219753839376
1	0x3fa5060ea28426c0	0.04106183751907855
2	0xbfb0f631f1377c1c	-0.06625663889961725
3	0x3fab882eec4b1fe8	0.05377337107125851
4	0xbfa3a1d1c70a20c2	-0.038343959376164985
5	0x3fb59066938dce52	0.08423462965384346
6	0x3fa13869f938a457	0.03363352935077362
7	0xbfa95938e4ca59b2	-0.04950883667804663
8	0xbfb1924ba88d788f	-0.06863854279569835
9	0x3fa9eb3820b3bd42	0.050622705451923725
10	0x3faffdaf6607f9e0	0.06248233910081402
11	0xbfaf80183f871835	-0.06152416015133647
12	0x3fac98619f53009e	0.0558500773418029
13	0xbfa589ee008de2e0	-0.04206794506803191
14	0xbfbc2c0d063387c2	-0.11004716302298248
15	0x3fb1eb39f400d34f	0.06999551970586747
16	0x3faaa2a8af69a2bc	0.0520222391249425
17	0xbf9cda65a6a89537	-0.028176868721989847
18	0x3fa8bf19a759df93	0.04833297889575685
19	0xbfb04a0cdb6fad87	-0.06362991673784367
20	0x3faac440692dedaf	0.052278530921252446
21	0xbf9a6b3f4e301dce	-0.025799740931715047
22	0xbfa1ca24ec8a363a	-0.03474536311578587
23	0xbf8a383fa769cbb3	-0.012802598282382371
24	0x3fab7cec05fd5ffb	0.05368745396725668
25	0x3fac4f7d8ac3173b	0.05529396361229862
26	0xbfb2001e34fd609f	-0.07031430047698216
27	0x3fbcadbc3b510ac5	0.11202598999174558
28	0xbf9155feda86f521	-0.016929609382477232
29	0xbfa7320450eeb94f	-0.04530347335763684

linears.4.weight f8 [3, 30]
0	0xbfd5c6e4ec2f28a5	-0.34026454033722536
1	0x3faf3e43b8b52dc6	0.06102191571934727
2	0xbfdcad7547e1105d	-0.44808704394768545
3	0x3fd3ed4b30de2ee6	0.31135825893646396
4	0xbfd83d5c8cf0d7b0	-0.3787452103018678
5	0x3fcb42f81c9c67bd	0.2129812373830741
6	0x3fc0afee863b1c33	0.13036901048892133
7	0xbfc5a43610dfae76	-0.1690738279715906
8	0xbfc37a6e17f4b88a	-0.15217376870845484
9	0x3fc48af5ef9aa5a0	0.1604907436315388
10	0x3fd9b1dfaebab072	0.40148155272868913
11	0xbfdf90435b7f8e29	-0.4931801217591976
12	0x3fd9ed0f91ea893d	0.40509404420494716
13	0xbfe0db1a86c226ab	-0.5267460472106981
14	0x3fd727fdd364ffaf	0.3618158878707573
15	0x3fd0fad543326b0a	0.2653096348018812
16	0x3fcb12b2b2c8ae20	0.2115081189125343
17	0x3fb9e00c2eace62f	0.10107494487319778
18	0x3fc3b22ba89cea4e	0.15387483342222413
19	0xbfdd7bb6c801b4f1	-0.4606759026708707
20	0x3fd84514797dd5ed	0.379216307300651
21	0x3facb09448767cdd	0.05603469261699854
22	0x3fd0991e1569ab24	0.25934555140581694
23	0x3fd19fc9c0b6e341	0.27537769145742536
24	0x3fc399c7f68fe8d5	0.15313052691619214
25	0x3fd95858f7ff30ec	0.3960173055500167
26	0xbfad85c9cdecd737	-0.057661348712299824
27	0xbfd969f963da70e9	-0.3970931506280651
28	0x3fdec0fcfddb3844	0.4805290679040619
29	0xbfc30933f608c161	-0.14871835244549472
30	0x3fc2fa35943791ad	0.14826078164254622
31	0x3fca70e1a52625ff	0.2065698677436529
32	0xbfc08164eeb7e123	-0.1289487996689412
33	0xbfd378cf4caf6c3c	-0.3042486428145741
34	0x3fd1abe1dee4e417	0.27611586348535994
35	0x3fa530f7dd3a9ab5	0.041389222865566046
36	0xbfb40102c162973b	-0.07814042302433404
37	0x3fdd1af75d175463	0.45477089014941025
38	0x3fa21c0cd48c2d59	0.03537025541853706
39	0x3fda996486403f59	0.415612345795116
40	0x3fc4a15285587448	0.16117316733371667
41	0xbfbc0fb2da8bcc8f	-0.10961454234693434
42	0x3fd6f2fb11c9f972	0.35858036744311683
43	0xbfdc4886f73b78ae	-0.44192670959263125
44	0xbfb38a616b2f28d8	-0.07633026949693844
45	0x3f8344d0e6ef0fd6	0.009408599898854602
46	0xbfa026a9e0e8068c	-0.031544979767216125
47	0xbfe8117b03e639fd	-0.7521338535460128
48	0x3fc7fce6b6db43fb	0.18740543297329268
49	0xbfc40e144430a636	-0.15667966203300104
50	0x3fd0abff22601e1d	0.26049784047106234
51	0xbfd63815c175af40	-0.347173155713552
52	0xbfbf7154c491d513	-0.12282304572166351
53	0xbfd36f918d5ae448	-0.3036846046848649
54	0xbf841fec3035f430	-0.009826512547755767
55	0x3fdcd4598fa103d9	0.4504608061434375
56	0x3fc327e3a2e82676	0.1496548219150104
57	0x3fbec8a39830590e	0.12024900880382836
58	0xbfdd67405f4b1352	-0.45942696863158006
59	0xbfdc17b0d205981a	-0.43894596586176393
60	0xbf73ebb5b1f8e53b	-0.004863462206736553
61	0xbfb102d6d98368f0	-0.06644957361587323
62	0xbface967753ddf78	-0.056468232213716385
63	0x3fd8e71c95eb5872	0.38910593643721036
64	0xbfdc9d424ead4c1b	-0.4470983284310834
65	0xbfa16e07d514c443	-0.03404259182060134
66	0x3fd05e2137877003	0.2557452242160709
67	0xbfd5ce422388d4d7	-0.34071401090780057
68	0xbfb38933959020ba	-0.07631227876129545
69	0x3fc2556d4d3d5638	0.14323202392067613
70	0x3fbf71e7f60d3e3b	0.12283181912538847
71	0xbfbe0f88be5db9e8	-0.11742453239069273
72	0x3fa6acd7fbe60a4f	0.044287442683544335
73	0xbfd728b861c0d865	-0.3618603663084115
74	0xbfda399a16daec11	-0.40976574165296237
75	0x3fccfc620f4e95fe	0.22645211932574222
76	0x3fcfb4cefdc03e48	0.24770533933814165
77	0xbfb21a5e318636d4	-0.0707148428830025
78	0x3fd514f7d467d52c	0.3294047903321651
79	0xbfc5f4203d533da0	-0.17151263231651814
80	0x3fdd2cb1d55f3ebe	0.455852945681709
81	0xbfd1f5626b08c93b	-0.2806020779854809
82	0xbfd531e911ee4904	-0.331171290884541
83	0xbfd960f7d77ffd93	-0.39654346508901844
84	0x3fcb499db6ed3885	0.21318408424344085
85	0xbfca44ae4100428b	-0.20522096799733833
86	0xbfd2633156228031	-0.2873042431983804
87	0x3fcde3769445c633	0.23350412597533107
88	0xbfdddae0f6d42ace	-0.4664842997014319
89	0x3fd2af82c9efc89c	0.29196233482719847

linears.4.bias f8 [3]
0	0x3fb477d50546f6a5	0.07995349291646876
1	0x3fa4cbbfb3fa8f54	0.040616980285703846
2	0x3fa4f984ca3bed53	0.0409661766879831

step f8 []
0	0x40c1940000000000	9000.0

exp_avg f8 [30, 1]
0	0x3f85810af1009fd1	0.010500035743532895
1	0x3fa78551208928ff	0.04593900224843316
2	0xbf806ac0f83cc9d6	-0.008016116691213531
3	0x3f9b4464a96dfea3	0.026628086892286473
4	0xbfadb9517bfa65e0	-0.05805449140934704
5	0x3fa6251012204f59	0.04325151654498311
6	0x3fb4f6c15abdeab6	0.08189018693330294
7	0x3fa69ff06636c571	0.04418898818711171
8	0x3fe1c30f6dfa0489	0.5550610683423126
9	0x3fdc768c1eed7d45	0.4447355558422326
10	0x3faa9831e5a31de1	0.05194240501583259
11	0x3ffdc9cb908a6ec9	1.8617663999674952
12	0xbfda0a4b40bc3138	-0.40687829324521685
13	0xbfbba7e54220f37c	-0.1080306326338824
14	0x3f9943a4ffe5b27e	0.024672105902413304
15	0xbfb5d6440b7babbc	-0.08530068664883478
16	0x3fb3d05d4319e5ab	0.07739813698017055
17	0xbfa065ec3ac4aa7b	-0.03202760903726173
18	0x3fe0a8809563c0ea	0.52056912591618
19	0xbfa18ec18ae7ab12	-0.03429226704232326
20	0xbfaa245daf6fdd6b	-0.05105870024265865
21	0x3f9db60094f1b80e	0.029014596072038094
22	0x3fb32edb6e025b8b	0.07493373332759583
23	0x3fd700b8b6cf4a88	0.35941903927338403
24	0xbf899552824fbe97	-0.012491840936461869
25	0x3fe46d5c6f477f18	0.6383497403548715
26	0xbf88b325eb7d5c11	-0.012060447930407421
27	0x3fd20f573e6c906f	0.2821863278970857
28	0x3fa41e25e55c532c	0.03929251122295904
29	0x3fa9412fee475567	0.04932546409296883

exp_avg_sq f8 [30, 1]
0	0x3ff2a8fdb006c6c1	1.1662575603517527
1	0x40fe669febd0d101	124521.99507218973
2	0x3ff500c07976fe39	1.312683557960453
3	0x3ff1220e75c0b582	1.0708145713536799
4	0x3ff64a9794f19144	1.3932109659300105
5	0x401f65e3aefebd11	7.849501356409079
6	0x3fe94ae71da673ee	0.7903934077363581
7	0x3fefebffcf44b876	0.9975585029803955
8	0x4114078069eaf0d1	328160.1034352901
9	0x411163dee1e33150	284919.7205932336
10	0x400b16f83ee565bc	3.3862156785732775
11	0x412073a0b4da3036	539088.3532271448
12	0x4102c75390a148ec	153834.44562012644
13	0x3ff102aec6acac0c	1.063154960701243
14	0x400b12af2263110f	3.384123104713701
15	0x4027552dbedbaabb	11.666364635767755
16	0x4005a1f59a9b78a2	2.704081733579259
17	0x4012cf391d3ed4a0	4.7023663110350356
18	0x410a11bd8104dbc2	213559.68799754797
19	0x4002b3bce2d251e6	2.337762615245299
20	0x401f1af016de7593	7.77630649311813
21	0x3fea36e21c13185d	0.8191996143657537
22	0x3ff9105463f06b1a	1.5664867309448653
23	0x411b1eb014b94dfb	444332.020238131
24	0x401756fc5dee99d0	5.834947078407325
25	0x40fd3e2accbeda94	119778.67498669989
26	0x3fe075018b840671	0.5142829632679434
27	0x401f3c2e7f2f69b3	7.808771121281484
28	0x40231a8eb6d9d9f8	9.551870073407358
29	0x3fd38c92247e71c0	0.30545476497516333

step f8 []
0	0x40c1940000000000	9000.0

exp_avg f8 [30]
0	0xbfa6a3a4e6e452b0	-0.04421725576881863
1	0x3ff3b7eaa46e6bbc	1.2324015067194827
2	0x3f4593498a83c1b3	0.0006584271514196632
3	0xbfa2c8cd62f47a1d	-0.03668824990221629
4	0xbf7a105af0c36b75	-0.006363253818757343
5	0xbfac942dd435b684	-0.055818016199606496
6	0x3f9bc88c4b6bcd04	0.02713221750577778
7	0xbf88350af342f442	-0.011819921063187636
8	0xbffd4a0b10f7c617	-1.8305769598777084
9	0xbffbc13054cbe668	-1.7346652328837084
10	0x3f87c8e982799072	0.011613678259159797
11	0xc001b6df55f48454	-2.2142931666608465
12	0x3ff49512d3cf8f83	1.2863949083193524
13	0xbf69015939e01049	-0.0030524008461743396
14	0x3fa213112deb860b	0.03530172048136756
15	0x3f99f2ebb49fada7	0.025340731524847417
16	0x3fa0beff5922b451	0.03270719492989172
17	0x3f9c9059fcf8ccb0	0.027894407334497273
18	0xbff7f4d25dbcf1b5	-1.4972709333079426
19	0xbf9e535bcb5a17af	-0.029614862715355347
20	0x3f976ac38b01b652	0.022868209227843224
21	0x3f7337a9392ff636	0.004691754368648262
22	0xbf91de735ae1e062	-0.017450144216553894
23	0x4001b3cea73dfa96	2.212796503619141
24	0x3fa42f450b6d643c	0.039423139233527554
25	0xbff2d9ed31ecbf76	-1.1782047224223482
26	0x3f37b7e9ec4371ca	0.0003619142628517284
27	0x3fa5be944c161c03	0.04246962956226954
28	0xbfaf9a90f863ea10	-0.06172612220867191
29	0xbf8eaf02f4663f54	-0.014982245524862194

exp_avg_sq f8 [30]
0	0x3fff481b01bb2874	1.955103880655341
1	0x4041c0d19d3bed4c	35.50639691759224
2	0x4005f8fd4749bf24	2.7465768403416337
3	0x400243f6834256d5	2.2831850294704545
4	0x40006897b464c102	2.0510706036803876
5	0x402c712aedbe13b1	14.221030644848584
6	0x3fdaf4409d771d40	0.42115798356504186
7	0x3fe3b208183aac75	0.6154823754526563
8	0x4056c72b0a828f5c	91.11200201749801
9	0x40526918714fbe59	73.6421168593164
10	0x4003c7f79d713a7e	2.472640256898841
11	0x4061fc9eb5088367	143.89437343275787
12	0x404358c5dcbdc45f	38.693538277301506
13	0x3fc8482aff5c52f4	0.18970239132672584
14	0x40187ed38924ebaa	6.12385381973119
15	0x40225bb79bd062e1	9.17913519781854
16	0x3fefe59d390bb7b0	0.9967790712523676
17	0x3fe819b9093f6a09	0.753139989911973
18	0x404d95e29bde6573	59.17097805365747
19	0x40132bf8566c44d4	4.792939520223815
20	0x4004ef8fe525311d	2.616973676869874
21	0x3fb4c5c17b778374	0.0811425138886202
22	0x3fba94cac86f2938	0.10383288758672371
23	0x40603a56fc6b2878	129.82311840943635
24	0x3ffba46866bdf8d6	1.7276386273729734
25	0x4043661bba52f914	38.79772118617453
26	0x3fe1d3eeeb24f181	0.5571207611715608
27	0x3ff66a61fba4505a	1.4009723500976379
28	0x40340fbed60e3782	20.06150567862597
29	0x3fc51d297704d56e	0.16495245276898224

step f8 []
0	0x40c1940000000000	9000.0
