1D_Transcritical_Inverse_Problem_n_initial_0_01/Models/Model.ckpt-1500.pt (torch, 82380 bytes, 43 tensors)

linears.0.weight f8 [30, 1]
0	0x3fd99963b4ad50fd	0.39998715061416573
1	0x3f83be60ec3d33d7	0.009640462121433586
2	0x3fd46b64635e149f	0.3190546961198581
3	0xbfd3144e28e7526f	-0.29811433786861746
4	0xbfd3fd2133aed864	-0.31232481047789507
5	0x3fc4d331c50a89f7	0.16269514199400678
6	0x3fca46fb382bfeb5	0.20529117815748568
7	0xbfd82a5dc5d43e9e	-0.377585833733045
8	0xbf825a92a5ede1a8	-0.008961816490896293
9	0xbf82801c55b17920	-0.009033414235258663
10	0x3fd6bdaacb7614eb	0.3553263651777587
11	0xbf832e3a2bc18e40	-0.009365515194253438
12	0x3fc34b0333db512d	0.15072670013490477
13	0x3fca0a8df095e1a3	0.20344709632241828
14	0xbfd35b946e2a6b8f	-0.30246458776826385
15	0xbfc4f2b0ddbe7df5	-0.1636563379988584
16	0x3fd80073e3d4acfd	0.37502763032053094
17	0xbfc32cf054e49c0c	-0.14980892319837869
18	0xbf85a88ca4f44320	-0.010575388702393662
19	0x3fd8caa71164870f	0.3873689336634109
20	0xbfa856f468d8d06b	-0.04753841190213922
21	0x3fd76c0920349b3a	0.3659689726359151
22	0xbfc7cdb96ced86dd	-0.18596570795766967
23	0x3f8468da3f10c73d	0.009965615319831417
24	0x3fc08b3b9c96b1cb	0.12924904962473102
25	0xbf9073d847537f57	-0.016066912988093787
26	0xbfc7699cd6fb0fb4	-0.18291054246048832
27	0xbfb8e7f72f33d0cb	-0.09728951361086328
28	0x3fd21c5922e169dc	0.28298023611355716
29	0xbfda2492ab8997d7	-0.40848223449426996

linears.0.bias f8 [30]
0	0xbfb355822fd29adf	-0.07552350680871765
1	0x3fac09f10f478adc	0.05476334868924024
2	0x3fb9a03cdc2002a4	0.10010128378054134
3	0x3fb889cdb9ad6fc0	0.09585271628515013
4	0xbfb65735b0e6b4a0	-0.08726821488262937
5	0x3fba17eda8776315	0.10192761767337928
6	0xbfbd58a75f34dd4d	-0.11463399958016858
7	0xbfa1b058eba93f81	-0.034548548476435854
8	0xbf7284f4abda6bf4	-0.0045213277313917895
9	0x3f8e14223683392e	0.014686839378921759
10	0xbfb6d7966b5edd04	-0.08922710534431039
11	0x3fb9431347ff617e	0.09867973811868144
12	0x3fac5505f03e619c	0.05533617551481315
13	0x3fa1933b9ef40f77	0.0343264228377213
14	0xbfb854442f61b78c	-0.09503580242900805
15	0xbfb738688f48f3f9	-0.09070447443168907
16	0xbfb428f0430fa81f	-0.07874967229113893
17	0xbfc07671b5f53900	-0.12861462959921965
18	0x3fbc680314722a97	0.1109620976368809
19	0x3fb70b7bbfc1e58b	0.09001897269799579
20	0xbfb9620fc5ca3080	-0.09915255144932367
21	0xbfbf49c39789d96d	-0.12221929979009412
22	0xbf9a3f69b17e4484	-0.025632525881125648
23	0xbfc25cd36b0e270b	-0.14345782019909623
24	0xbfb98484b80572e9	-0.0996783208151545
25	0xbfac84cfeb0bcfb3	-0.05570077652183105
26	0xbfb101acad191d57	-0.06643180109050682
27	0x3fbc5343f42c21d0	0.1106455298542024
28	0x3fb6dc9dd424f0f5	0.08930384091667405
29	0x3f940a007449f7c2	0.019569403741563247

linears.1.weight f8 [30, 30]
0	0x3fba3dd8fc125691	0.10250621942608464
1	0xbfd2b92883eb047f	-0.29255116350766025
2	0x3fca4aa0dcbc0c3f	0.20540247705511835
3	0xbfc9b103d79536db	-0.20071456934458962
4	0x3fc8284474c4893d	0.18872886373089584
5	0x3fc1548e8f8ed4cb	0.13539297113098878
6	0xbfcce537c1402a70	-0.2257451718908956
7	0xbfc3c527edb9b65e	-0.1544542227524514
8	0xbfc6e4a794dab49e	-0.17885298507954855
9	0xbfcdd68eca81b206	-0.2331102837373608
10	0x3f985a5e8e060305	0.023782231729913245
11	0x3fd5d3fa0b9e2a16	0.34106303343347244
12	0x3fcd872a8525f879	0.23068744183905546
13	0x3f85975ef8ac4116	0.010542623485463792
14	0xbfcfff8b60165999	-0.24998609725726054
15	0x3fc5033447dcaa3a	0.16416028508077024
16	0x3fb13dd93c8c6bc4	0.0673499844382795
17	0x3fc530602f1f82ea	0.16553880978519625
18	0xbfc0812fca396a94	-0.1289424645827536
19	0xbfce752ffdaab7c2	-0.23795127760007345
20	0xbfcf3cb1994ddc96	-0.244039726119557
21	0xbfb6592e0cc631b8	-0.08729827701444648
22	0xbfcc19eabd052efb	-0.21954092244629195
23	0xbfd12991a7e22e0f	-0.26816216845392743
24	0x3fa39d0aafbecd6c	0.038307508424078346
25	0x3fc87d8a2f29373b	0.1913311701086345
26	0xbfc76e9583cb9eb4	-0.1830622571499042
27	0xbfcd1ab87847deb3	-0.22737794755061244
28	0x3fc80e8ed05e2ee0	0.18794427084173204
29	0x3faaa30868dc4f19	0.052025091934551244
30	0xbf9277a7017f0a1a	-0.018034562555621837
31	0xbfc88d88f563980d	-0.19181930524717963
32	0x3fa9ea72e123b8e2	0.05061682699475668
33	0xbfd4b79079239b54	-0.32370387868870876
34	0xbfc471f550c64bce	-0.15972773021766645
35	0x3f519b851025e7af	0.0010746764606594896
36	0x3fd06e13bf3099a0	0.2567185751999208
37	0x3fbe59de8e89deb1	0.11855879764504597
38	0xbfca05747a8162ff	-0.20329147321424298
39	0x3fb7f292bdd66a54	0.09354512343126348
40	0x3fc7ca4c6d4db37d	0.1858611615856737
41	0xbfd1bff1f412d61a	-0.27734040103254787
42	0xbfa6fc0b411731c6	-0.04489169282496479
43	0xbfc7df6f41b3145f	-0.18650618274674266
44	0xbfb1753cbf824f43	-0.06819514918816787
45	0x3fb6abd921c3e64c	0.08855969499918465
46	0xbf9c8a16cb7690a6	-0.027870517891316247
47	0xbfd1d813a1a4d825	-0.27881327424563757
48	0xbfa20fc1a557bb30	-0.03527646201461321
49	0x3f87a3dce3fe20f2	0.011543012340340362
50	0x3faaea615daf8a0f	0.052569430052035064
51	0x3fb0716e555dca93	0.0642308195508952
52	0x3fb350d5a944c634	0.07545218832526573
53	0x3fc1c6c48b8ed3ea	0.13887841047622312
54	0x3fc8aa1b5e24be32	0.19269125077106392
55	0xbfb65cb853d2660c	-0.08735229536468853
56	0x3f85a08a79c21cb8	0.010560113755003861
57	0x3fcdd06639d7c33c	0.2329223425326975
58	0xbf7384980ae6d79b	-0.004765123287532004
59	0x3fc398974fda1918	0.15309420966168186
60	0xbfceee07e3a9647a	-0.2416391240720122
61	0x3f8c29b8ad8bc81a	0.013751452251629149
62	0x3fc445d5ee64853d	0.15838121547953135
63	0x3fc0dbe925bf14fb	0.131711142950884
64	0x3f8206f58d319fea	0.008802336093324887
65	0xbfc4c65f50e69ccb	-0.16230384302364195
66	0xbfc0c621c1733444	-0.13104650445748878
67	0x3fbeb97612b57195	0.12001741368061965
68	0x3fcb86348a2b4431	0.21503311869176536
69	0x3fbc5000dde698e2	0.11059575479029918
70	0x3f938046063f00d3	0.01904401219485481
71	0xbfd0c96578644a45	-0.2622922588063015
72	0x3f9c7678072a5c3a	0.027795672833772246
73	0x3f9524e38f13d6ce	0.0206485324933599
74	0xbfc66ebb5b7ceb58	-0.17525426833330005
75	0xbf9b914e6b2a5364	-0.026921487131932223
76	0xbfb267894bce2738	-0.07189233875956524
77	0x3fd487796aef09f8	0.3207686943316328
78	0x3fcf3187a2b31bdb	0.24369903034513993
79	0x3fce4d92a057f285	0.23674233273768067
80	0x3fd204c562cd1c5b	0.28154120110088393
81	0x3fc4442d1e7fe465	0.1583305739330029
82	0xbfcd26f76edad5ad	-0.2277516642840686
83	0x3fd7fc871a2670ed	0.3747880702374136
84	0xbfce4f657e3aea66	-0.23679798759060872
85	0xbf8c4eeeb4a96b36	-0.013822426689491612
86	0x3fd2775032744777	0.288532304069228
87	0x3fc7d8b2c8924a29	0.1863006095268969
88	0xbfce17549df60328	-0.2350869914335132
89	0x3fab2c449a1aad16	0.05307211285738782
90	0x3fbc8f3698ab22d6	0.11156026103266056
91	0x3fc5e4020c0377fa	0.171020751825324
92	0x3fbb7e8ea2850d11	0.1073998591210066
93	0x3fcc85f943a96b10	0.22283855251119933
94	0x3fc42baa8ffdb43c	0.15758258848964768
95	0xbfb658a053879b9d	-0.08728982962894212
96	0xbfc592cf00bfbfca	-0.16854274307797673
97	0x3fcec9b743d7fb54	0.24053088009528756
98	0xbfd78ff4557c0cea	-0.3681612810907625
99	0xbfd1d4c63fb9b334	-0.278611719352557
100	0xbfcfcea624ffbdaa	-0.24849392706481171
101	0x3fb99e69c46bcb59	0.10007344289242094
102	0x3fd5cf3f86654144	0.34077442287982174
103	0x3fcb20896f660f1a	0.21193044604671557
104	0xbfb14af6943cb00d	-0.06755009764737015
105	0x3fbd18ff8b749d01	0.11366269259143637
106	0x3fc87090755860b3	0.19093518953082408
107	0xbfaf048944bf3b02	-0.06058148349949556
108	0xbfc2bb4dc2f1d8e0	-0.14634105700287758
109	0xbfcf55c2a0676c16	-0.24480469543672773
110	0x3fb421a988bfc625	0.07863864506341452
111	0x3fcacf2e78cdcf4f	0.20944767855291466
112	0x3f9d11330646561b	0.02838592267797511
113	0x3f8acee0bd43aa05	0.013089900756729564
114	0x3f76ca8c6bb30a8c	0.0055642590697880905
115	0xbfd5f841a5007615	-0.34327736962754446
116	0x3fb04ce807093e57	0.06367349788455932
117	0x3fcab54da0198ca4	0.20865793530820043
118	0xbf8289c75ff3c43e	-0.009051854720811044
119	0x3f9d3e25e6a41edc	0.028557388498511624
120	0x3fd17c7ff9a4ad58	0.27322387103295886
121	0x3fc8e66c611045a0	0.1945319627707649
122	0xbfd2f97f717dadff	-0.2964781387624668
123	0x3f8af7ebb85622c5	0.013168183863642277
124	0x3fcd23ae769f74dd	0.22765141288883842
125	0x3fb3bb281a6c0204	0.07707453389230784
126	0xbfc91bed40c50f2a	-0.19616475737176958
127	0xbfa1a49c4d9fcba1	-0.03445900390206381
128	0x3fd42f585cdf706a	0.3153897196732546
129	0x3fcbb7d3cc4af3dc	0.21654746508821077
130	0x3fcc58bdd892d04b	0.22145817828061562
131	0x3fcbe8d2ae5fac38	0.21804269327489734
132	0xbfd3b676c045ee86	-0.30801171089817847
133	0x3fcca4cf39b03f76	0.22377958599872344
134	0x3fce7858908584d4	0.23804766709057523
135	0x3f9535842a213444	0.020711960860627224
136	0x3fd086323e2a423f	0.25819068976219123
137	0xbfd07099425e1be1	-0.25687247735225865
138	0x3fbf7a09e79e3091	0.12295591263517937
139	0xbf96d9c7f0618db0	-0.02231514362973791
140	0x3f8639eb826f45f8	0.01085266105465886
141	0xbfa408f923a972e7	-0.03913096008611721
142	0xbfd142778362d9e8	-0.2696818144862889
143	0x3fd2814369238f9b	0.28913960711929015
144	0x3fa6de24c97047c3	0.04466357192008232
145	0xbfb5977c4bc131d4	-0.08434273576239742
146	0x3fafe6284b89ba52	0.0623028366288635
147	0xbfc5212cd66cc749	-0.16507492513624758
148	0xbfc10eb1bf2ee931	-0.1332609351646368
149	0xbfceaed429a989e6	-0.23971035036363658
150	0x3fab0fdfabbf5917	0.05285548182989624
151	0x3fcb30f8dbc8c616	0.21243200999883588
152	0x3fc0cfc2e8187d10	0.13134037335201088
153	0x3fa6a5c6d099db81	0.044233525241842216
154	0xbfc8e65ad80f082e	-0.1945298724149906
155	0xbfcaeae673ade836	-0.21029358528522984
156	0x3fc10f97c3fb4d41	0.13328835553566346
157	0xbfc2d54867012de7	-0.1471338751747304
158	0xbfaa78eec664277b	-0.05170389339225686
159	0xbfa9d354e63c2c6f	-0.05044045744406211
160	0xbfb863426e2480d6	-0.095264579668313
161	0xbfcaeed5239644ae	-0.21041359174390578
162	0xbfc1d5352fae3820	-0.13931908443595464
163	0x3fbcc45135257033	0.11237056300655084
164	0xbf7e4ba31be055b6	-0.007396351951702787
165	0xbfb5eac680565ae5	-0.08561363824115238
166	0xbfd2ffe726506719	-0.2968690752182837
167	0xbfc30b823514ce15	-0.14878871528490892
168	0x3fbedd1587107c3b	0.12056097552748295
169	0xbfa1b7524e93a04e	-0.03460175713718226
170	0xbfc1fdbe89d09c0f	-0.14055616120569467
171	0x3fbb29367ce2cb2a	0.10609760807964777
172	0x3fc853aa6daabcb8	0.19005327563124808
173	0xbfc1690c3ea6d9d9	-0.13601830538909956
174	0xbf9836e4d2012398	-0.023646903340963726
175	0x3f9fd2e0e61d8025	0.031077875180358334
176	0xbfb9849939d1229d	-0.09967954312845469
177	0x3fbb7d7ddee615a6	0.10738360111107301
178	0xbfc4f33533aac4d7	-0.16367211363607367
179	0x3fb35501f1020867	0.07551586278899124
180	0x3fb7e9d391e7ddd0	0.09341165840293475
181	0x3fc0e019c44a4fe5	0.13183900913702398
182	0xbf90ba6966af8058	-0.016336104290417403
183	0xbfa6e71c9199ea48	-0.04473199155195978
184	0xbfc5b5fc40382c46	-0.16961625228609217
185	0xbfc446882c3a5a4c	-0.15840246352736853
186	0xbf82a89f567c5d09	-0.009110684229695314
187	0xbfc554d5dab318eb	-0.1666514699811111
188	0x3faa80913831b042	0.051762140378599955
189	0x3fd70552011410c1	0.35969972710905657
190	0x3fcb276374476c9b	0.2121395414131698
191	0x3fcff3163a3bd45e	0.24960592120592912
192	0xbfc913820e53749e	-0.19590783786307936
193	0x3fcc9a54ba783eea	0.22345980744329746
194	0x3fcac13c154c91ea	0.20902205505366506
195	0xbfc7a58c010897bd	-0.18473959017245348
196	0xbfc560373ab67797	-0.16699877135118577
197	0x3fb47f2630bc7877	0.08006514253472284
198	0xbf87b3cbb9df8d6b	-0.011573402032758215
199	0xbfbd2fda3b17c1ef	-0.11401142065711388
200	0xbfb09fa102da476c	-0.06493574447293121
201	0xbfd0279d7fcb3416	-0.2524179218278858
202	0x3fc3892af004e8e1	0.15262352676092575
203	0xbfcb60f42508d63c	-0.21389629181219216
204	0x3fcf597d6771204d	0.24491851378320675
205	0xbfc012d6cd7c6e7f	-0.12557492288111757
206	0xbfd276f7a9789572	-0.2885111956587344
207	0x3fa3068618d92844	0.037159147771106876
208	0xbf83c85b5ff624d4	-0.00965949427224403
209	0xbfbd2d5ff7f6f558	-0.11397361568284248
210	0xbfc135f7ce5c0207	-0.13445947242873066
211	0xbfa0844b0aebdb3a	-0.03225931652371235
212	0x3fca348d51105827	0.20472876032062112
213	0x3fc2ba400a19cc53	0.14630890362932067
214	0xbfca62afb9e02647	-0.20613667083698514
215	0x3fcebe0b92df45b6	0.24017471953861297
216	0x3fbd28ba46f3c721	0.11390270454628794
217	0xbfb68dc1fae54f0f	-0.08810055137047022
218	0x3fd3f7b328575510	0.31199339809002513
219	0xbfb88c98b6f1f738	-0.09589533296999952
220	0x3fcffd0546d28a7d	0.24990907629133466
221	0x3fa50d06592683a2	0.041114996321318445
222	0xbf9f9e133e396bfd	-0.030876446411962622
223	0xbfd2eb852f007dfd	-0.2956250151637219
224	0x3fb2f1cec59651d8	0.074002192725238
225	0xbfbe8f149def2685	-0.11937073570075014
226	0xbfcda8ca01cc7e62	-0.2317135342391224
227	0xbfaab0cf4d1559b9	-0.05213020149192311
228	0x3f8f196de316f4c4	0.015185221188284699
229	0x3fc406102f64b4ad	0.15643503488664603
230	0x3fb70e7b6272944a	0.09006472733979468
231	0xbf90e8e26946f309	-0.01651338355599122
232	0x3fcd72b2fc5eea3e	0.23006284067908384
233	0xbfc90ffb97af6cc0	-0.1958002558375025
234	0x3fca23a3caf04e79	0.20421264084926685
235	0xbfcccc073f0397aa	-0.22497644974572256
236	0xbfcf7ac290e76e2c	-0.2459338386096176
237	0xbfab62f07ce5ab2b	-0.05348922276137665
238	0x3fd080b9f971554c	0.2578568397487586
239	0x3fc5576ef16229e0	0.16673075472165433
240	0xbfd08246cbba3d18	-0.257951449349052
241	0xbfc5ca3417a9a868	-0.17023326068312206
242	0x3fc61c3cd0ec167d	0.1727367420318621
243	0xbfa8ad5cc793902b	-0.048197650301318916
244	0xbfcf63ee2e746dfd	-0.2452371336774916
245	0x3fbcb601b5d0cda7	0.1121522015462718
246	0xbfc474ad44b1a2ac	-0.1598106942576768
247	0xbfbbd5710b58ae9c	-0.10872561003696507
248	0xbfce38319bdf69ed	-0.2360898982140748
249	0xbfa04c8b55a50aab	-0.03183398647754151
250	0xbf970750a27fbe2d	-0.022488841932441318
251	0x3fb27daec81b0ef6	0.07223026643174166
252	0xbfd326a613e31fd6	-0.2992339319430334
253	0x3fb789714d5898e6	0.09194095743496042
254	0x3fb8c0dc82e4a16e	0.09669283099777257
255	0xbfc15b93ea110a0d	-0.13560723237067443

linears.1.bias f8 [30]
0	0x3fb50d86a7bf6bee	0.08223764033702682
1	0x3fab2be74d4fed4e	0.05306933230164167
2	0x3f879dd47ec6403f	0.011531505698059273
3	0xbf9d74f6c8fa61ab	-0.028766494766928535
4	0xbfa8c55ec15b5f8a	-0.048380814650669526
5	0x3fb1255942f8e41e	0.06697614560188511
6	0xbf98efc3d39f9f9f	-0.024352130691027814
7	0x3fb1a0c6608223fe	0.0688594804397695
8	0x3fa87ebfdc0f2730	0.04784202157277517
9	0xbf9ec2ed44dfc184	-0.03004046185373134
10	0x3fb3e5fb2dd9732f	0.07772798413629965
11	0x3fa46327c96b538d	0.03981899579745294
12	0xbfb041c2275a3aa8	-0.06350339375260694
13	0x3fa701181292450c	0.04493022181226011
14	0x3fa59b9e88a86fe8	0.042202905828361115
15	0xbf917621e2f7c440	-0.017052201726930116
16	0x3fb0a894b7d04d05	0.06507234084738307
17	0x3fb4c0188afe3b11	0.08105615037332493
18	0x3fadb0ff62d1c7d7	0.057991009533807585
19	0xbfacc6a0c3d694d4	-0.05620291128733759
20	0xbfadf360a37da9af	-0.058497447926885264
21	0xbfa0c7d4862c3b07	-0.0327745832238318
22	0x3f967f9235c002a7	0.021971020250932807
23	0x3fa72c5cfe9ebdc8	0.04526033981471361
24	0xbfa52d4e28c2ab13	-0.04136127708019024
25	0xbfa26118232a9c1d	-0.03589702061918152
26	0xbfa7adca24562f04	-0.04624778455317194
27	0x3faead0a1ecf6897	0.05991393686390827
28	0xbfabf2c7765fb841	-0.054586632919253926
29	0xbfb1e9d01416bc89	-0.06997395029496735

linears.2.weight f8 [30, 30]
0	0xbfc424e2806af2ea	-0.15737563391112214
1	0x3fc39a62a28070ba	0.15314896521238613
2	0xbfd362c74d2d08e6	-0.30290396248541496
3	0x3fcc969c03a3e244	0.22334623506300677
4	0xbfd39a034016d3f4	-0.30627518900592965
5	0xbfc39d6ac2f701ef	-0.15324148673791124
6	0xbf984aafc4a30a40	-0.023722406746637725
7	0x3fc9a9a2323de460	0.20048930600367765
8	0x3fcd9ca83bf3c4de	0.23134329726557373
9	0xbfc8b62dccee114f	-0.19305965906472486
10	0xbfc018e8fd6b7e2b	-0.1257601964380098
11	0x3fb97637c44d793b	0.09946011107010559
12	0xbfd25caa1d263be4	-0.2869057926808962
13	0xbfcce5b40008947b	-0.22575998307835107
14	0x3fb8fd76e51f5383	0.09761756032760442
15	0xbfce99cdf8dade4a	-0.2390687432396013
16	0x3fa886da24fa6a47	0.04790384007829523
17	0x3fceef9d55a80abe	0.24168745691721044
18	0x3fc538c5c5ac0229	0.16579506065319663
19	0xbfa48b2f98d76df1	-0.040124404342090865
20	0xbfbe1bfb293536d3	-0.1176144576649805
21	0xbfc4b468ebab9cd5	-0.16175567157117735
22	0xbfd209df1561f3d5	-0.2818525036635127
23	0xbfb917d764a8b286	-0.09802004058355793
24	0xbfc9e9e03a8fb001	-0.2024498258537051
25	0xbfc490c827cbaa92	-0.16066839163916719
26	0xbfa0fb3c531e230d	-0.03316677584286341
27	0x3fd0a029f8629c74	0.2597756314884869
28	0x3fb187d58e84281d	0.06847891549492187
29	0xbfcc7a893b8c9b9c	-0.2224895039336986
30	0x3fc29fde593ef225	0.14550380094250773
31	0xbfc852778a8dfaa4	-0.1900166918312226
32	0x3fd0025002de88c4	0.2501411464710481
33	0x3fc8113d435d32fd	0.18802610196362216
34	0xbfcacc2b3b2411f1	-0.20935573947657773
35	0x3fb513185f7af5c2	0.08232261973440472
36	0x3fc49c27d643cc6c	0.16101549112463276
37	0xbfc88face04af66c	-0.19188462211416224
38	0xbfb6dcaabf297b54	-0.08930461089174219
39	0x3fb68c17a878f071	0.08807514060112155
40	0x3fcf236c42cf1e4b	0.2432685209480375
41	0x3fc6bd694bdd0a57	0.1776553745676945
42	0x3fd07c6b3a2c9987	0.257593924341926
43	0xbfd23d91a1198c37	-0.2850078652610963
44	0x3fcd3269a2749b73	0.22810097153088868
45	0xbfb1aba3bb5da19e	-0.06902526211127344
46	0x3fc0abe9998a138c	0.13024635312117672
47	0xbfb2160553a9ce03	-0.0706485108619788
48	0x3f98472d9a626518	0.02370902304446529
49	0xbf9df7c9c0e75bc0	-0.029265549086485043
50	0x3fb37b83f70ee392	0.07610344678586348
51	0xbfca54316562c66c	-0.20569436502914884
52	0x3fb9252a6598ef45	0.09822335224538133
53	0x3fcb0212c5837520	0.21100077289785535
54	0x3fd0e360bf6d660c	0.26387804693294536
55	0xbfc0a035140c7013	-0.12988913992819615
56	0xbfc8f0db10ccdfb8	-0.19485033340765567
57	0xbfce7ba75633a4a3	-0.23814861020153896
58	0x3fa7c863a8a753f0	0.04645072397003236
59	0x3fcafc0d98fb8fca	0.21081705064636785
60	0x3f49099d0358a721	0.0007640854516399489
61	0xbfc1e0a4a46688e6	-0.1396680643784471
62	0x3fc04ac67b033083	0.12728196150272106
63	0x3fa6dc332394fc30	0.04464874085760362
64	0xbfd6387941989782	-0.3471968784891645
65	0x3f9f0abcec03e183	0.030314399628851085
66	0xbfd8352b66905312	-0.3782452108001034
67	0x3fba5b79eead776b	0.10295831753816535
68	0xbfc48ea27c74ac5b	-0.16060286595288428
69	0x3fccb524cce54b06	0.22427806858703309
70	0xbfc178b59115c6d6	-0.13649625381690694
71	0x3fd2175c0f5bac36	0.2826757574063693
72	0x3fcf2989e370116d	0.2434551582847563
73	0x3fb48059532500af	0.08008344917198217
74	0xbfb5ac7425b69b93	-0.0846626846383585
75	0xbfd2788ca19987fc	-0.28860774785255194
76	0xbfaaa3848d417ef9	-0.05202879165949343
77	0xbfb5cb2a7e4ac039	-0.08513131697941469
78	0x3fd175c55ef2d7f6	0.2728131701691149
79	0xbfd69e330a63c348	-0.35340572371119494
80	0xbfcfc74482366241	-0.24826866491345537
81	0x3fd2ceab7ed40499	0.2938641298824876
82	0x3fcc723319facda2	0.22223509567775773
83	0xbfc9db7ab8dcd0d1	-0.20201047922603846
84	0xbf95fe007ef3384c	-0.02147675299493583
85	0x3fb6cc8a696a7eca	0.08905854295380347
86	0xbfd0203a1700a73d	-0.2519669747003837
87	0xbfd47ae0126e3211	-0.31999971198891425
88	0xbf897c76f412af02	-0.0124444287524379
89	0xbfc3e521ab2bd6d7	-0.15543003900500338
90	0x3fbd972c7ab90f7e	0.1155879783264577
91	0xbfa1c47e6788641d	-0.034702253473547474
92	0xbfd2b3e0cd51bd7e	-0.2922288899489657
93	0xbfb4b2055ed4fdb7	-0.08084138455614363
94	0x3fc7992985e29357	0.1843616393790863
95	0xbfd3b97b179e0e85	-0.3081958513869057
96	0x3fb40262e10eea57	0.07816141123377328
97	0x3fc7f483ebbf38e1	0.1871495152576648
98	0x3fcfecf517507825	0.24941886557002238
99	0x3fbc750dabcdefaa	0.11116109318203252
100	0xbfb7deb281fd66de	-0.09324184106426567
101	0x3f91065b18977e52	0.016625808120691872
102	0xbfbb824a6c2cd246	-0.1074568285083127
103	0x3fcc9050cab24f7a	0.22315416238108893
104	0x3f626340eaf0f7df	0.0022445934223744714
105	0xbfaa4ad36ebab9ed	-0.05135212637593498
106	0x3f991f576887a0e9	0.024533620600693338
107	0x3fcf8df37101a17c	0.2465194989956777
108	0xbfc7db9a4edf4cde	-0.18638924456772704
109	0xbfcaa421c9b5d7d9	-0.2081339106477447
110	0xbfd32ddfc8007d3b	-0.2996749356406842
111	0x3fbf60c4baea986a	0.12257031978023894
112	0x3fc8cf5d84c938c9	0.1938282869691135
113	0xbfc23a6a55fb924e	-0.1424076957547577
114	0x3fc51ee5a0a3338d	0.16500540107372466
115	0x3fbd30ac4f13c4c7	0.11402394228550171
116	0xbfd0da1a56d81b93	-0.26331194382549333
117	0x3fc8c193ceca3128	0.19340751263769929
118	0xbfc8e136655f4a38	-0.1943729395848821
119	0x3fcb192e03b395b0	0.2117059248040909
120	0x3fc6dd39a0b81807	0.17862625453580014
121	0x3fd09a0fe10e7100	0.25940319994130334
122	0xbfc8fc90611a3a1d	-0.19520764104204683
123	0x3fc418426ea4300b	0.15699034120950758
124	0x3fb3adfcebc84e48	0.07687359577567421
125	0xbfc674335474c4f6	-0.1754211580642175
126	0x3fd6bf86e37a3ed5	0.35543987478830036
127	0xbfccb40cbf8f4d7f	-0.2242446837759466
128	0x3fceef8db740529d	0.24168559501471956
129	0xbfb07aae7ff54414	-0.06437197326637573
130	0xbfd03cbfbea1138a	-0.25370782486088983
131	0xbfd58af371af1d0b	-0.33660589315373163
132	0xbf7511fd33c335d4	-0.005144108840068513
133	0x3fd0f5b220d9b31c	0.26499608238263916
134	0xbfa953c4292b5c9a	-0.04946721079402856
135	0xbf9c1975517116a6	-0.02744086560803418
136	0xbfc1c52247ba83b1	-0.13882854940768888
137	0x3fa8ca6c2589451c	0.04841936071592043
138	0xbfb3cf6da7f243a0	-0.07738385534527348
139	0x3fd4f1fb773b84da	0.32726942676351956
140	0x3fc71d81fd470745	0.18058800570548264
141	0x3fcb5d1ade8dcca1	0.21377883784189058
142	0xbfa833ea38527ad8	-0.04727107942129799
143	0x3f957ccadbed3cfc	0.020983857796918123
144	0x3fb4d883f1512468	0.08142876283194911
145	0x3fa9379553ef50a1	0.04925219201655407
146	0x3fd64546514917d4	0.3479781907848267
147	0x3fd3696dfca83bbd	0.30330991433669025
148	0x3fba4957197f82fd	0.10268158314239524
149	0x3fa91cfb1374d84e	0.04904923069482035
150	0x3fc1fda96b294c21	0.14055364353643632
151	0xbfcbdc5011a2f9b6	-0.21766091214335653
152	0x3fd36bf231970191	0.3034635051990558
153	0xbfd1d17d22685fe4	-0.2784111820233177
154	0x3fb6af45f814e4a0	0.08861195856742876
155	0x3fbfd67f142843d8	0.12436670534249517
156	0x3fcad1f6b74f81f7	0.2095325846739937
157	0xbfc0103640a3bdd9	-0.12549474865180235
158	0x3fd41b192cb12206	0.3141539513058266
159	0xbfbc6f7dc20e9dc2	-0.11107622134897269
160	0xbfc649f748fe241b	-0.17413226188753658
161	0x3fc08461f5eef409	0.12903999813525527
162	0x3f7c61da8592adf6	0.0069292579657189626
163	0xbfcb4835275d2f1f	-0.21314110204763723
164	0x3fc8daa65f8cb1f5	0.1941726652670607
165	0xbfc1997dd83838f1	-0.1374966912994249
166	0xbfd1ea279f199ceb	-0.27991667306055373
167	0x3fba3468a043d44a	0.10236219322889997
168	0x3f92ee995d85483b	0.018488308270498726
169	0xbfa9f46021adf282	-0.05069256220938191
170	0x3f9bb247f27a3d69	0.027047275709774086
171	0xbfd2ce8872c173a8	-0.2938557739888048
172	0x3fac61a5833c5e63	0.055432483930584885
173	0x3f791692b87040b9	0.006125043036277749
174	0x3fca98171da68bfb	0.20776642749578386
175	0x3fbb3e643e0982cc	0.10642076983050258
176	0x3fc7113cfe76a964	0.18021356987930937
177	0x3fc1a8ff8f99ab0e	0.13796991836292033
178	0x3fa75bc7d4df1513	0.04562210534599322
179	0x3f69baa072844cec	0.003140748380369032
180	0x3fc164ca63ee6911	0.13588838462312272
181	0x3fd005dc6baf0cf2	0.2503577281569981
182	0xbfd1ffaa7f358c3c	-0.28122961447496997
183	0xbfcc6912be8eb5f1	-0.22195658020557077
184	0xbfc0f20ce78ea846	-0.13238679224497413
185	0xbfcc50436f8f2ceb	-0.22119944522123744
186	0xbfc6c8388131bcab	-0.17798525150599195
187	0xbf8419f5b3576fce	-0.009815139327592617
188	0x3fd1256c5765a7ad	0.26790913138267564
189	0xbfd23001e3ce8817	-0.2841801380801611
190	0x3f8ec680f4880bfc	0.015027053320414645
191	0xbfcd2b88e16dccd2	-0.22789107329626873
192	0xbfc1330c458c218c	-0.13437035938137531
193	0xbfc4d4ca99262535	-0.16274387815455219
194	0x3fc6c1f976f19319	0.17779463107867668
195	0xbfa15cff784d312c	-0.033912642894025374
196	0x3fccd331eb3f7e78	0.22519515978546045
197	0xbfcab18fb60290db	-0.2085437430115523
198	0x3fd2132d9ebec73e	0.28242054464782373
199	0x3fb8e9a78cd02b36	0.09731528461285852
200	0xbfca856112845470	-0.20719540981432116
201	0x3fc6723c3afce829	0.17536118393201264
202	0x3fb8f00446bc2e9a	0.09741236426287472
203	0xbfc92792fe63fd67	-0.19652020856299687
204	0xbfc63bd55df4d1af	-0.17370097243987234
205	0xbfa80a4c0b8364e6	-0.04695356026213364
206	0xbfc089330b701dc2	-0.1291869932031045
207	0x3fa0600cbf59d431	0.03198280177904456
208	0x3fa92211192f5ecd	0.04908803398546766
209	0x3fd4340801ec98dc	0.31567573726569065
210	0x3fb0b62ef245aed4	0.06527989783142668
211	0xbfb04f85e8f18ac2	-0.06371342599008314
212	0xbfd16a61f2d159ab	-0.27211807930634774
213	0x3fd51b6182e82c22	0.3297961977374958
214	0xbfccf035943103df	-0.2260806058493747
215	0xbfa84d647c9cd870	-0.04746545811796998
216	0xbfc56e56a3336195	-0.16742976158890302
217	0xbfc0bc04697372b1	-0.13073783062909208
218	0xbfcd088c81add7f4	-0.22682339031206278
219	0xbfac06e1d694ff1e	-0.05474000687035939
220	0x3f4ff41000ea5f88	0.0009751394407713091
221	0xbfc07e791b0938d9	-0.12885965175741523
222	0x3fd7813910f68c86	0.3672621408133597
223	0x3fc102b567abe040	0.13289516031341186
224	0x3fbc203207ba63a4	0.10986626328157328
225	0xbfc28b3b2e629ed7	-0.1448739983072673
226	0x3fa71bc0e791739d	0.045133617656325266
227	0xbfd74cbb7c25ef43	-0.3640583717712966
228	0x3fd3d4f024ed243d	0.309871707974313
229	0x3f89434debade656	0.01233540416227467
230	0x3fc15c17d7d78b86	0.13562295951041053
231	0xbfc96500c7f88261	-0.19839486850925694
232	0x3fd69c03890ad485	0.3532723272613299
233	0x3fbd21f65145e642	0.11379947170453256
234	0xbfd2693e700ec435	-0.2876735777200026
235	0xbfc30d011678f068	-0.1488343581894498
236	0xbfc4c38783cf9a42	-0.16221708236771987
237	0xbfb4b69ccd2e77b8	-0.08091144570650399
238	0xbfc597ada092ee1f	-0.16869135227703766
239	0x3fb3b8a42ce64b65	0.07703615280324312
240	0x3fb84ccaeac1573e	0.09492176276520767
241	0xbfa3ab292aa3bb4b	-0.03841522832396168
242	0x3fb8b2e369786eaf	0.09647961926423919
243	0x3fbf3809afc6df90	0.12194881955553982
244	0xbfbd8794b22521b3	-0.11535004948848986
245	0xbfa0ec6166bd4d47	-0.033053439895093954
246	0x3fc15fd500106257	0.1357370615303519
247	0x3fd31f18d75638d9	0.298773012437676
248	0x3fd2ae1b2f11ee27	0.29187659832652674
249	0x3fc7f136698502b9	0.18704872276614085
250	0x3fbd269429f6191b	0.11386991524168304
251	0x3fd08515ca759b62	0.25812287112642285
252	0xbfb7bb0ec9dd686f	-0.09269802502004308
253	0x3fc9ff3f5ebfb969	0.2031020367280221
254	0x3fb32e834e407f71	0.0749284807247912
255	0xbfba01418b2223da	-0.10158166548548256

linears.2.bias f8 [30]
0	0x3f9c75a0d79885ba	0.02779246631519581
1	0xbfac50746ab00d7e	-0.05530132105198059
2	0xbf9fa0f6ecd5ce51	-0.0308874685337755
3	0xbfbd5c2b10674619	-0.11468762541269263
4	0xbfaee03a3c0a9654	-0.060304469899432306
5	0x3fbfb1e25657053f	0.12380804641636177
6	0x3fb211494e776e71	0.07057626882254354
7	0xbf84d1ca1dd1b12a	-0.0101657667493887
8	0x3fa40b79f4d45b41	0.039150057922759725
9	0xbfa7bd89ca6474c8	-0.046367937046150554
10	0x3fb48a6d3fb7b507	0.08023722463231674
11	0x3fa30a9be386c5d0	0.03719031479284818
12	0x3fa8670114b91051	0.04766085985150482
13	0x3fa33e64abdfb1e1	0.03758539770192094
14	0x3faac96385fd45ed	0.05231772432911073
15	0xbfb2b5cb680c7654	-0.07308646478892317
16	0xbfa9706a154ee6fb	-0.04968577871427545
17	0x3fa78226480ced4c	0.045914837165094896
18	0xbf987610c6f0cfbd	-0.023887884275793903
19	0xbfa1b74bf61d77e8	-0.034601568024967666
20	0xbfa80f62b4aa59e6	-0.046992382577787414
21	0xbf8060450e050391	-0.007996119966834832
22	0x3fa2f3ed5e194874	0.03701726697603727
23	0xbf9fd12eb0c6d028	-0.03107140497168373
24	0x3fb6c73118192e82	0.08897692526186954
25	0xbfa50b1566158e1b	-0.04110018607277884
26	0x3fa3e8333f620ede	0.0388809218284487
27	0xbfa48e4a8c3c861d	-0.04014809572096232
28	0xbfab9d748a817f10	-0.05393566313500575
29	0xbf9c0fd1ee740eca	-0.027404098681485668

linears.3.weight f8 [30, 30]
0	0x3fd1f35a17a2f0e9	0.28047802265406446
1	0xbfb92c2c27cea7d3	-0.09833026859146736
2	0x3fc390881fe681ad	0.15284825856816778
3	0x3fba15d2b90b32fc	0.10189549462956998
4	0x3fbfe93bf79f20af	0.124652622179499
5	0xbfd1c236b467dfe5	-0.27747886293172846
6	0xbfd1df60afb68b9e	-0.27925889167289053
7	0xbfc79c53459c7a85	-0.18445816897379444
8	0x3fccc387c83baee2	0.2247171142292848
9	0xbfbc38c2a9305178	-0.11024109488091038
10	0xbfa414098cede086	-0.0392153725178455
11	0xbfcb63e4b0b57c70	-0.2139860022389004
12	0x3fc9b91ca4dc6ab6	0.20096166658261944
13	0xbfd05546bf4c207a	-0.25520485574134677
14	0xbfc71eb5340f6cf5	-0.18062462846760466
15	0x3fc4896e59ffe5d1	0.1604440631343054
16	0x3fcf2e01a6eadf9f	0.2435915055300457
17	0xbfa31a226b5761a9	-0.037308765032949616
18	0xbfc80991f4b28602	-0.18779205749619626
19	0x3fcfdf8b28fb736f	0.2490095090969606
20	0xbfc7a27bbc1bb921	-0.1846460979936149
21	0x3fb1bd7379c450cd	0.06929704401801758
22	0xbfb3ab13a256c1e6	-0.07682917321540791
23	0x3fbbd020e0132647	0.10864453764511338
24	0xbfb83deabff1e3fb	-0.09469477831034105
25	0x3fca4ed456fbf3fc	0.20553068396830543
26	0x3fd14a72926761fd	0.2701689176297178
27	0xbfc2c6b22ea88dee	-0.14668872144930795
28	0x3fba55de74b6a8f1	0.10287275647593554
29	0xbfd5ce229288e6cd	-0.34070648489033034
30	0x3fd2337d5410dca1	0.28439267358357695
31	0xbfcc6a90b7293cc4	-0.22200211470997122
32	0xbfd274f522e4e666	-0.28838852317458075
33	0xbfb47b84e86d0616	-0.08000975298366372
34	0x3fd56c2e194a01db	0.33472778768193984
35	0xbfd4a8428ee93ff4	-0.3227697749725842
36	0xbfb797a1cc6af4a7	-0.09215747109097326
37	0xbfb7cab7c46eeb5d	-0.09293697877630565
38	0x3fc0fa3e17cb6eaf	0.13263679658745306
39	0xbfd2bac76eda1186	-0.2926500875985528
40	0x3fa50d2a4ed9a7e0	0.04111606800582002
41	0x3fc2eba08a623e3e	0.147815768785664
42	0x3fc433d098a15abd	0.15783126309061926
43	0xbfb66c321dd1f5e3	-0.0875884363940354
44	0xbfb1099fa87eb16e	-0.06655309547085661
45	0xbfbe850490d71d08	-0.11921719108714879
46	0xbfd16cc66b6e2152	-0.27226410380582877
47	0xbfc0fa8e31f9574e	-0.132646345521318
48	0xbfcd0e94c52fdf25	-0.22700748089095515
49	0xbfc862296bcc3e67	-0.19049566043439656
50	0x3fc72577b9cf3ce8	0.18083092282038327
51	0x3fbabb6b29d2473a	0.10442228098898179
52	0xbfb10dba0467012c	-0.06661570174674541
53	0xbfccca730b2f73ce	-0.22492826505813784
54	0x3fc74e4b01ca6af6	0.18207681262432346
55	0x3fc10b77a19b87bd	0.13316245451920664
56	0xbfc94327b442370b	-0.1973619108361436
57	0x3f9223e884ad58bf	0.017715104196519556
58	0x3f7a1e976fdb4e8e	0.006376830626055997
59	0x3fcf80f1de964b37	0.24612258308897036
60	0xbfd81afbd8e98907	-0.37664695914112695
61	0x3fbdf074b9fe2f5a	0.1169503168186429
62	0xbfcf1c8b4b981b29	-0.24305859748002348
63	0x3fcd1ecb4afc3de6	0.22750226174728921
64	0x3fc9c84063d24ed2	0.20142369150254652
65	0x3fb53c2368f48b33	0.08294888794311532
66	0xbfd03932770a4e80	-0.2534910357000868
67	0xbfca69ce4cbf76d4	-0.2063539385553016
68	0xbfd361edb0df6748	-0.3028520800850072
69	0x3fd23f3f351ab610	0.28511028467150457
70	0xbfd10c2263a65025	-0.26636562091266774
71	0xbfba6dea91198c7b	-0.10323968927836973
72	0xbfd43ae91e202f6b	-0.3160956186481971
73	0x3fcfee604afa6e71	0.24946216260001422
74	0xbfc66ced37ec2c22	-0.17519917708008942
75	0x3fa59c1d1f84a844	0.04220667848342477
76	0xbfc464d68e03e342	-0.1593273347314384
77	0xbfcc57fb5bcc540f	-0.2214349935754005
78	0x3fd1dff336ac3de1	0.2792938264765024
79	0xbfbb902bb9487539	-0.1076686217642945
80	0xbfd016a33e5e7d11	-0.2513816937516405
81	0xbfb8e08582aca0c9	-0.09717592659274311
82	0xbfcc24ecba7fd7b2	-0.21987685305037769
83	0x3fb3bbd2ba611da0	0.07708470392491629
84	0x3fc8e69eef727747	0.194537989537759
85	0x3fa5186a495c4330	0.041201898055197694
86	0xbfd11e453b667694	-0.26747256089024884
87	0xbfcd289b8c98e9d9	-0.22780174603560857
88	0x3fba5f0d02856503	0.10301286040830253
89	0x3fb7aa6376a5e7c0	0.09244367262536368
90	0xbfb21b4a5f9a596f	-0.07072892030769194
91	0x3fc47e3f6811f0e0	0.16010277349039992
92	0x3f833297f63ff904	0.009373843386125909
93	0xbf97c3a8b4f80032	-0.02320731739564525
94	0xbfca9f927c655f60	-0.20799475740454465
95	0x3fd7e0b13da7e85d	0.37308913251002257
96	0x3fd06851714e61e1	0.25636707367951145
97	0x3fb524a580efe767	0.08259043119315167
98	0x3fd8e363e831bbf3	0.38887880015585025
99	0x3f9d0e39991c196b	0.028374576540067958
100	0x3fcf8c378f689b35	0.2464665842282671
101	0x3fa5e17b8cd91d85	0.042735920852062605
102	0x3fb3d3ba92a2a3f4	0.07744947509731032
103	0x3fd04d43bb3c56bd	0.2547158554528826
104	0x3fc9d389025e8a5e	0.2017680417603342
105	0xbfc1a25f0b4db0c3	-0.13776767780234964
106	0x3fba112ea75c0525	0.10182468019413145
107	0xbfc682a32b878907	-0.17586173654041934
108	0xbfc83bb04fb43571	-0.18932155505937545
109	0xbfbece40e6702600	-0.12033467889718708
110	0x3fbaa321ac526a57	0.10405168969229216
111	0xbfd39c5132a0a5c3	-0.3064158434304682
112	0xbfcdf0e4ee0f5085	-0.23391400932326092
113	0x3fd30fa4cc84463b	0.2978298184617391
114	0xbfb9d545761b9288	-0.1009105122898949
115	0xbfbdb43d72a348eb	-0.11603149460578137
116	0xbf8bbed3c3e36af6	-0.013547567763841677
117	0xbfc355c9cccbdfcb	-0.1510555505735723
118	0x3fb6c43c04728dda	0.08893179997044545
119	0x3fc6f0794ced49b9	0.1792136788959178
120	0x3fc7abf95d587e7e	0.1849357324399427
121	0x3fccb882cea6dfa1	0.224380827812408
122	0x3fc955fe22caa704	0.19793678950127724
123	0xbfaf2d427050c892	-0.060892177782435955
124	0x3fd3e7c705382d55	0.3110215712519751
125	0xbfc7cdd5e96d491f	-0.18596910379216866
126	0xbfce8d7e7de9f57d	-0.23869305751933814
127	0x3fd3edd023dac605	0.31138995648788664
128	0x3f91f0439746bec4	0.017518097026992377
129	0x3f719c302fff32df	0.004299343330740084
130	0x3fb6176c76c02981	0.08629491709885963
131	0x3fbff282225344c8	0.1247941335489201
132	0xbfd353587b9e51ce	-0.3019620139323508
133	0x3fc1d35ba8177f92	0.1392626353035636
134	0x3fb3748af1646b6d	0.07599705117574525
135	0x3fbd80988e9e13b1	0.11524346811172738
136	0xbfb0f7c95af18bad	-0.06628092260647973
137	0xbfc98186799192b8	-0.19926529823273653
138	0xbfb581dcd6c5a698	-0.08401279681643314
139	0x3fbffd09eb381226	0.12495481484081292
140	0xbfd266e79cae18c6	-0.28753080654895447
141	0x3fb0e76d5208fa71	0.0660312962799965
142	0x3fd520ba6c1a0993	0.33012257153327446
143	0xbfc501890819771d	-0.16410935302240484
144	0xbfd24704d8dd4415	-0.28558465173870334
145	0x3fc7817ff3aaef0a	0.18363952062451744
146	0xbfc69832e27b932d	-0.17651973780370991
147	0x3fc563a57e58a98f	0.16710346860174893
148	0x3fc305ae58e18c2b	0.1486108716954687
149	0x3fcc1760f14b0357	0.21946346074949005
150	0xbfca62dd3bb2d32e	-0.2061420957085373
151	0x3fa104e6ff00e2b0	0.033240526798583914
152	0x3fbcbf80d4ec7da2	0.11229710768065229
153	0x3f9e05d161aff854	0.0293190685151717
154	0xbfce06add5a2a99d	-0.23457882815757794
155	0x3fc01b2d965d2715	0.1258294090460416
156	0xbfcf9254d21332c9	-0.24665317781036425
157	0xbf967c8650823ccd	-0.02195939890276293
158	0x3fca82c41b904419	0.20711566301227505
159	0xbfcbc40a6c909a51	-0.2169201879598455
160	0xbfb65802a8b55887	-0.08728043192727074
161	0x3fb8b67108392b1a	0.0965338368488741
162	0x3fd6dfc1a0abf83b	0.3574070042667505
163	0x3fd4106d436ea4a7	0.3135026129262521
164	0xbfa7763639685bd8	-0.04582375956322665
165	0xbfb54496fe244080	-0.08307784752492076
166	0x3fcbcc3f4e67a51b	0.21717063263285116
167	0x3fca43c034986959	0.20519259040959062
168	0x3fd62ba44758d6dd	0.346413678812821
169	0x3f9c9abfe1a214b7	0.027934072634270914
170	0xbfb6131185e043fd	-0.08622846144159264
171	0x3fb8ea59b6a30ea0	0.09732590397748675
172	0x3faff175cdad21ea	0.06238906989762312
173	0xbfc81aa706305ae9	-0.18831336786453015
174	0xbfb6c44f3c407720	-0.08893294545165675
175	0xbfd16222ec66a47c	-0.27161477170972836
176	0x3fa51c47fc991e81	0.04123139341805616
177	0x3fb35d71c914c92d	0.07564459952553611
178	0x3fce6108d5efb02b	0.23733625837428582
179	0x3fc8d26023a91e3f	0.19392015210381605
180	0xbfcf2dab9fcf59fb	-0.24358125022145302
181	0xbfd20c30b5aea5f1	-0.28199403517154936
182	0xbfd3b8f15f28c53f	-0.30816301625153025
183	0xbfd042974b757150	-0.2540643917943912
184	0xbfbf581d0387f3ff	-0.12243825279433905
185	0x3fd3eddb61eb259f	0.3113926368938226
186	0xbfc2a7a322bb2599	-0.1457408828339737
187	0xbfcec421fa048f09	-0.2403604956426693
188	0x3fd0017ccbba1df9	0.25009078879563124
189	0xbfc821884a9e601e	-0.18852332728852245
190	0xbfcdf76ab9060668	-0.234113064139865
191	0x3fcd12a32313617e	0.22713126385384536
192	0xbfc7990b548d8290	-0.1843580401282634
193	0x3fd30dc2728dd5cc	0.29771481692236246
194	0xbfa512d86eb4e857	-0.041159404291150885
195	0x3fc915a37cb2e8de	0.19597285832225614
196	0x3fb7680637979c06	0.09143103463394206
197	0x3fd5debddc48537f	0.34172007095303764
198	0x3fb7857f89328902	0.09188077067895864
199	0x3fce8c34b6ea70ef	0.2386537449973569
200	0xbf982eb819fa478d	-0.02361571939997691
201	0xbfc1fa788ba8062a	-0.14045626467854905
202	0xbfc6ed72c6ff2ab9	-0.17912134853971454
203	0xbf9b723ed64a8a55	-0.02680299933366322
204	0xbfa98bbd2776aae6	-0.04989424807293634
205	0x3fbbb0d7e559a9e7	0.10816716527339275
206	0x3fc18d874bbf360d	0.13713160704212193
207	0xbfd4457684c46ab6	-0.31673968282272413
208	0xbfd4e82a42ef9e40	-0.326670232169338
209	0x3fce196a52ff1048	0.23515061428600093
210	0x3fc970ebb59b7869	0.19875856750053636
211	0xbfb939a0464f954d	-0.09853555409025212
212	0x3f8247d7fdf80073	0.008926093519221667
213	0xbfce97b0f6e63ea1	-0.23900425010332518
214	0x3fb48ae7bc172bac	0.08024452535680265
215	0xbfc3a5a6c362d038	-0.1534927801163819
216	0xbfd01019178c631c	-0.2509825448956222
217	0xbfc876c54d38c53d	-0.1911245944079755
218	0xbfd320eae29fbc3d	-0.2988841260075253
219	0x3fca45dceb2c5154	0.2052570484453421
220	0xbfcbf51ced62b4c0	-0.21841775504200278
221	0x3fb3e4f287a7c1da	0.07771220981499685
222	0xbfcf6165cf2f6aa6	-0.2451598416945064
223	0x3fbf1aa99989955c	0.12150058744881193
224	0x3fcb2a404fd4ef5d	0.21222690485034948
225	0xbfd48850ecb0b1c1	-0.32082007517126604
226	0xbfcebce3718aff18	-0.24013941806878658
227	0xbfc28ccc1a06f77b	-0.14492179175243422
228	0x3fd1e63dd7b27cef	0.2796778303545144
229	0x3fc506958c228542	0.16426343290826578
230	0x3fd35e2b2235fcb1	0.30262258854777274
231	0x3fc62c2443b4bfe0	0.17322209650001152
232	0xbfd0819b5ef414e4	-0.25791057846829646
233	0x3fc217d153cd8b82	0.14135185806216205
234	0x3fc3d29c36deb72c	0.1548648136062466
235	0x3fd017c71561b7da	0.2514512738042619
236	0x3fbac3f6f77690ed	0.10455268422680648
237	0xbfb6c2aac357c250	-0.0889078833495287
238	0xbfc18576b230d9ba	-0.13688548756335966
239	0xbfcd7cc915f3491a	-0.23037065097612058
240	0x3fc4fac0bbf87a50	0.16390237024548293
241	0x3fd086dd3446b383	0.25823145012946486
242	0xbfc919fe10fa4f58	-0.19610572651856262
243	0xbfc966ed4e0fb27d	-0.19845358192050702
244	0xbfb996a74e34d288	-0.09995504054388438
245	0xbfb3c29b2cbdefe4	-0.07718820421536027
246	0xbfc848862b186672	-0.18971325973761882
247	0x3fd05484cb4e0a46	0.2551586137198324
248	0xbfd2a40b912bb0e8	-0.2912625234300905
249	0xbfd0b7f01837002d	-0.2612266766045675
250	0xbf95550f482800ce	-0.02083228948504328
251	0x3fa404ddd75ab1be	0.03909962896190987
252	0x3fb77a9fd081de98	0.0917148479510338
253	0x3fb7d4b3da5ab064	0.0930893333522263
254	0x3fa348611f18b647	0.03766158585163431
255	0x3fa97e4a0fa320a0	0.04979163590320579

linears.3.bias f8 [30]
0	0xbfae419e9c2c3068	-0.05909438759235358
1	0x3f9a3697eda56500	0.02559888256050602
2	0xbfa69e3ca7843670	-0.04417600197676286
3	0x3fa9effa8786d6ea	0.05065901665095203
4	0xbfa8c2b63df15055	-0.0483605337728085
5	0x3fa94e5f15bee9b8	0.049426051525603254
6	0x3fa6094895783425	0.043039577718538426
7	0xbfa1434117e2a930	-0.03371623436517479
8	0xbfa89c761c9361be	-0.048068705547567245
9	0x3f9acf181012efd0	0.026180625897481324
10	0x3fa55a4204f9378e	0.04170423804008215
11	0xbfa43e5b3ef64669	-0.039538241802017655
12	0x3fa096cf6a706dfe	0.032400590651572955
13	0xbf9f052857747017	-0.03029311212331728
14	0xbfa506b0238de8e7	-0.04106665071499709
15	0x3fa9ab52f71b540f	0.05013522402229153
16	0x3fa3a0e63c9d2b9a	0.038336939715541266
17	0xbf9c1ff286db8676	-0.02746561954598411
18	0x3fa6ed9e693736e5	0.044781637519560914
19	0xbfa6d0bb2f2e04c9	-0.0445612425892335
20	0x3fa2ed36d6ed01f6	0.03696605084997266
21	0xbf9cc4ca3398d9da	-0.028094443701968654
22	0xbf9ca0f59efe9936	-0.02795776160169191
23	0xbf9814d42d9361b2	-0.023516955644341038
24	0x3fa3bbb8848fcb8e	0.038541570836876024
25	0x3fa0e1284cb68d65	0.0329678147930064
26	0xbfa9845c279fe88d	-0.04983795150470014
27	0xbf9fc7c24932686b	-0.031035457341751654
28	0xbf8ebaa6569f84cf	-0.01500444366314682
29	0xbf9a6dadfef54169	-0.02580901974335018

linears.4.weight f8 [3, 30]
0	0xbfd2f991bf9aca9c	-0.29648250304595947
1	0x3faea4bd9cf91a5c	0.05985062161612539
2	0xbfda2054df1a4919	-0.4082233599412049
3	0x3fca993de1e633b9	0.20780156641231232
4	0xbfd7a192ab00e849	-0.36923662852826006
5	0x3fc79112d6317671	0.18411479433682446
6	0x3fb62ee5175d6c2d	0.0866530592006007
7	0xbfd430f81cc6f705	-0.31548884210847944
8	0xbfbf41e817ce3f4d	-0.12209940510933599
9	0x3fc3ecc461d54788	0.15566305901534983
10	0x3fd86958b841cff5	0.38142984384398854
11	0xbfd8196646482527	-0.376550263056361
12	0x3fd4b1225fd7ae4b	0.32331141814822634
13	0xbfdc7e76b3d660b9	-0.4452187305664768
14	0x3fd63e13b9f1b000	0.34753888281443324
15	0x3fcfbfffbb779de6	0.24804684308695285
16	0x3fc7025a40234e56	0.1797592938588532
17	0x3fc6bdf04cc8e11c	0.1776714682507724
18	0x3fc2f2aa47716e9f	0.14803055275375684
19	0xbfdb504147805fa3	-0.42677337629856477
20	0x3fd70ff4686710f5	0.36034879870955133
21	0x3fb1e795cee9a804	0.0699399595411308
22	0x3fcde996caaa6d91	0.23369107147014437
23	0x3fd04fb8a867c29e	0.2548658032019747
24	0x3fbd2eb08c5fd0c9	0.11399367739778933
25	0x3fd9e4d4e393b809	0.40459177231139215
26	0xbfb2b963d8455546	-0.07314132719087238
27	0xbfd846fcfe860c7a	-0.379332779463034
28	0x3fd9c60223e9439c	0.40271047121955816
29	0xbfc2f77a19cfc916	-0.14817739734969199
30	0x3fbf5bd94d41e9a4	0.12249525200051053
31	0x3fc43b35be44cfd6	0.15805694380253382
32	0xbfb2371b5e1ae525	-0.07115336463438789
33	0xbfcdb709ccbcfabc	-0.23214838501913515
34	0x3fc3f51deaf60791	0.15591787312228836
35	0x3fa6c0c3166cd52e	0.04443940781349408
36	0xbfa4ee363e19c194	-0.040879912453308936
37	0x3fc97a03067b0ab3	0.1990360051768981
38	0x3f99791874484dd9	0.02487600526553799
39	0x3fd9c6b14af5de11	0.40275223083833206
40	0x3fc12a6a088a227d	0.13410687844249827
41	0xbfc055e59cd4dbd7	-0.12762136609828076
42	0x3fd568de484c0409	0.33452565250632965
43	0xbfd9d7a98eee411d	-0.40378798444818803
44	0xbf66460ab0f853cd	-0.002718945390152139
45	0x3f7c44ec1e265af2	0.006901666960763763
46	0xbfb07109b729162f	-0.06422482225124136
47	0xbfd7c6c01baef062	-0.3715057630868214
48	0x3f5582f0aadf52fd	0.0013129568355811354
49	0xbfbe7cc5103fc337	-0.11909133574205276
50	0x3fc9b7f575b76689	0.20092647788878917
51	0xbfd2353a880a1884	-0.2844988182554362
52	0xbfaba0f13c80caad	-0.05396226752818243
53	0xbfb66aedf8cb01bf	-0.08756911586807002
54	0xbf47471f67d931bc	-0.0007103827808321787
55	0x3fda8ea918a53ce1	0.4149573078802416
56	0x3fc9525bdc474312	0.19782589202670714
57	0x3f7926b29f30c815	0.006140420667223996
58	0xbfd847e05a803d9b	-0.3793869861410372
59	0xbfd9bcd9bfff5971	-0.4021515250182324
60	0xbf779f8596143552	-0.005767366238854281
61	0xbfad15d94cd5244f	-0.05680731833360452
62	0xbfa1c45ed16d49ca	-0.03470131212693024
63	0x3fd674a063b2a4ab	0.35086831794849144
64	0xbfdd09a0ebb6a508	-0.45371268290416866
65	0xbfa5e74e52cdd6e6	-0.04278034935752632
66	0x3fd0f3bbe2d46f6c	0.26487633849477876
67	0xbfd0e56e3ae95e5f	-0.26400333169065066
68	0xbfb2eec17a80f0f0	-0.07395562401592648
69	0x3fc15772182e1a51	0.1354811304156152
70	0x3fbab659a6358064	0.10434494312130621
71	0xbfb92e12d7c79327	-0.09835927742058158
72	0x3f9866bc836cfc65	0.0238294081893823
73	0xbfd76860ad2f4450	-0.36574570572435494
74	0xbfd6216ebadcab9c	-0.3457905602287441
75	0x3fcb92a67f70dfe9	0.2154129144926167
76	0x3fccee8f45863371	0.22603026289689468
77	0xbfc58c4c83e2f174	-0.16834408225794173
78	0x3fd2d6dae7a98232	0.2943637144399275
79	0xbfc46c964db64331	-0.15956381601838523
80	0x3fdbfba581a6f824	0.43723428403234466
81	0xbfd46f30846fb27d	-0.31928646977647884
82	0xbfd29b91048ad226	-0.2907450241430375
83	0xbfdba79fc3dff887	-0.43210596207053026
84	0x3fcb406fecf41458	0.2129039675711819
85	0xbfc900c772bd8cc2	-0.1953362760787965
86	0xbfd16805ea9177e8	-0.27197406680158887
87	0x3fc853af6f4e1cd4	0.1900538724405353
88	0xbfde2305aa5910cf	-0.47088758121050217
89	0x3fd224b2174fa9dd	0.2834897258423135

linears.4.bias f8 [3]
0	0x3fa9b47832f4cff6	0.05020499822640538
1	0x3f97c1a40805eee7	0.02319961832971176
2	0x3fa04db2e905bb02	0.031842795319667175

step f8 []
0	0x4097700000000000	1500.0

exp_avg f8 [30, 1]
0	0x400fe7c4007851fa	3.9881668125838106
1	0xc03f2301885aea70	-31.13674213618873
2	0xc024530e2ba3f910	-10.162217487112258
3	0xc028e8bfd51e8345	-12.454588565802291
4	0x402085e4a44256a1	8.261510022256802
5	0x4034c48228563196	20.76761104683245
6	0xc038e56b646bed2d	-24.896169926022754
7	0xc01812710ddc52d9	-6.018009392330634
8	0xbff425a3eb1fd436	-1.2591895279449665
9	0x3fbf56a62727caf4	0.12241590934699415
10	0x403b90849af19efd	27.56452339552833
11	0xc03a92a3fab6b913	-26.572814626321883
12	0x401b703cbe653735	6.859606718948091
13	0xbff7cf52e02a5412	-1.4881161457499315
14	0x402de29caa2da9c3	14.942601507257569
15	0x4046c70ba4da8f68	45.555042845457876
16	0x40374c22837b5cba	23.297401635759094
17	0xc042fa711e676266	-37.95657711074891
18	0x3fec7090e4076394	0.8887409642876372
19	0xc020984f3d86f25c	-8.2974795558195
20	0xc060ef3cd37b47eb	-135.476175061019
21	0x4030d06dfe9c2973	16.814178383946864
22	0x4037712547bfad49	23.441975101753346
23	0x402d0b2f686ae962	14.521846068430651
24	0x4041729daf5e6f10	34.89543716536548
25	0xc081b4eaea1a01a6	-566.6147043258431
26	0xc031021512f5e062	-17.0081340647015
27	0xc05906db58400ddf	-100.10713773970882
28	0xc02c39ff770dad99	-14.113277168674175
29	0x400144bab222bf45	2.1585592190603244

exp_avg_sq f8 [30, 1]
0	0x409e19f5d385458f	1926.4900646995263
1	0x4133d45626855c93	1299542.1504724368
2	0x40a2338d15bfdf81	2329.775556560548
3	0x409be0ab20512e8c	1784.167115467516
4	0x40a37acff4065c06	2493.4061586367925
5	0x40caafaae106f2a9	13663.334992283331
6	0x408e6cf3eea72d03	973.6191075382816
7	0x409ba5ca6d582c2e	1769.4476827408757
8	0x410f5ae46a65e759	256860.5519521784
9	0x40fdaa8f38bf7417	121512.95135445926
10	0x40b560652797c7cc	5472.395135389594
11	0x414e62c96de053e0	3982738.858408436
12	0x4079ad27698de2b8	410.82212214874335
13	0x409b9aeeca932b64	1766.733194636844
14	0x40b74e81a9fc6916	5966.506500030189
15	0x40d3bc8e97f71dd0	20210.228025225748
16	0x40b23bdfbebafff6	4667.874004065981
17	0x40a7d16f4502b72e	3048.717323384152
18	0x40d8791d859004fa	25060.46127701269
19	0x40af25c5816b9c2a	3986.885753023923
20	0x40c843ec23fbe2bb	12423.844848142346
21	0x409314b7b4de2f4d	1221.1794008938189
22	0x40a2d2f9fcdbf593	2409.488257287719
23	0x413ad899b4619534	1759385.7046139957
24	0x40c242f0132b6275	9349.875585005831
25	0x41512ca4280390c4	4502160.62521762
26	0x4082d75d0e47320a	602.9204373895784
27	0x409e42dea24806a9	1936.7174159292283
28	0x40d08dd782eef85a	16951.36736654523
29	0x4080aea6ff9831f1	533.8315421953431

step f8 []
0	0x4097700000000000	1500.0

exp_avg f8 [30]
0	0x4014748b1da7e758	5.113811934826877
1	0x403b651b7298c4fa	27.3949500678036
2	0xc02c686258dde323	-14.203875329099509
3	0xc028f3110419763a	-12.474739196880467
4	0x4025d46514921212	10.914833681898958
5	0xc040679373393256	-32.80918731968693
6	0x402a6f825dafc4ba	13.217791488367187
7	0x4031b509daa46931	17.70718161119402
8	0xc05ae8ccd2c73fd0	-107.63750142534195
9	0xc051f7deb4d8ea6d	-71.87296792205025
10	0x402570388acfde62	10.71918138301334
11	0xc061405450340fc2	-138.01029215019486
12	0x401941fc829df4d5	6.314439812556164
13	0xc019a8432ccc659a	-6.414318752265354
14	0x40371cacb090d602	23.112010035858482
15	0x402d8a784f450eed	14.770449139766663
16	0x40226b1d3ce01ad8	9.209207441669989
17	0x40214616d67380af	8.636892987822959
18	0xc0577f6cf75544b8	-93.99102576567645
19	0xc0352193444702f5	-21.131153361641697
20	0x3ff0b7f381a9375b	1.0449099602587555
21	0x402459f963d61617	10.175730819591122
22	0x3fd5dd44b4c9a5f2	0.3416301503662843
23	0x4061d987973adbe8	142.79780160423184
24	0x402f475d2009783c	15.639382363468137
25	0xc03b1964f597b51a	-27.099196767366358
26	0x4016c08edeb00947	5.6880450053161615
27	0xc03193ea23a1c293	-17.57779143046589
28	0xc0401edf8eecaaa8	-32.24119745784748
29	0x40193b7782551401	6.308073078577764

exp_avg_sq f8 [30]
0	0x40ab6dc6a1f6ba43	3510.8879544355746
1	0x40bc4d334f10e2d3	7245.200425200822
2	0x40b3416c70c73a3d	4929.423595859259
3	0x40af5880a4bfd6e1	4012.251256937962
4	0x40acd0af2ed71288	3688.342154236805
5	0x40d8cc189e15ba0a	25392.38464873474
6	0x408626c64d7cbe2c	708.8468274827515
7	0x4090cb183d715b9c	1074.7736718856968
8	0x40c7289fd2fcb1e1	11857.248626314979
9	0x40af04fff264df9c	3970.4998961947404
10	0x40b0de1ad6f1312c	4318.1048422570275
11	0x40d1b8b935b3251a	18146.89390257476
12	0x409b0830e9f85a88	1730.0477675252205
13	0x4074211cf7a80825	322.06957212102344
14	0x40c56bd41533a9eb	10967.656897027939
15	0x40d00d1de34209fe	16436.4669957254
16	0x409b79ac5e27afaa	1758.4183279229132
17	0x4094c48e898a9fe6	1329.139196554193
18	0x40b5eb22ffb840fb	5611.136714473595
19	0x40c0bc823d8cd735	8569.01750336178
20	0x40b230f138a1af0f	4656.942270379294
21	0x405a38fe569573b3	104.89052357287328
22	0x4064e790b4cdc876	167.23641433898928
23	0x40d56bf2ee3a9cd5	21935.795790341526
24	0x40a71668f0f5bb42	2955.204963378056
25	0x40cf564a87e6146a	16044.58227230069
26	0x408f68380d300f40	1005.0273689036039
27	0x40957c455299c6d2	1375.0676979091263
28	0x40e18c6e1b3e576a	35939.44082562516
29	0x407074c02ced5c57	263.29691784590744

step f8 []
0	0x4097700000000000	1500.0
