1D_Transcritical_Inverse_Problem_n_initial_0_01/Models/Model.ckpt-29000.pt (torch, 82425 bytes, 43 tensors)

linears.0.weight f8 [30, 1]
0.4679029650405249 0.012297004829666676 0.2869392132168974 -0.17290223879269465 -0.29761009579936915 0.15155361112724394 0.08208899430090895 -0.2652360700758251
-0.012923846319448444 -0.013491261469176851 0.3438872965442046 -0.013709982236848575 0.012835596250762615 0.3291941593076409 -0.276592200151492 -0.16303161543968867
0.35097250565320315 -0.07490625230726501 -0.014074326815177443 0.3494077703324714 -0.0913567120592691 0.14917474515701354 -0.27338415274819317 0.013968194264090662
0.13366315067495355 -0.011922972587530578 -0.07959953992528447 -0.053433744369095 0.26899874964951553 -0.43062026809050846
00000000: 293b 2347 1ff2 dd3f 044a a80c 2c2f 893f
00000010: 0a38 2d4a 365d d23f 0189 821a a921 c6bf
00000020: e2bb 1a37 0b0c d3bf 67ec b0d5 1b66 c33f
00000030: 8549 e2c9 c803 b53f b37e acb5 a0f9 d0bf
00000040: c996 3e4a d177 8abf 66cf 5576 4ea1 8bbf
00000050: 9cb3 0add 3f02 d63f ae23 b0aa fa13 8cbf
00000060: 5336 f990 8c49 8a3f 8dac 1061 8411 d53f
00000070: 94ad 7ec5 afb3 d1bf 7f85 4350 38de c4bf
00000080: fcd7 6462 5576 d63f f1f5 ec5f 0e2d b3bf
00000090: db41 132b 00d3 8cbf a8f5 a268 b25c d63f
000000a0: e08c 904a 2763 b7bf 3754 eb75 2818 c33f
000000b0: 0615 d33e 207f d1bf b436 634c 5b9b 8c3f
000000c0: ba24 6ac6 df1b c13f ad27 ad4a 126b 88bf
000000d0: 6178 c1ac a260 b4bf 53dc 22f1 aa5b abbf
000000e0: 3e36 1a88 4637 d13f 1462 1c50 488f dbbf

linears.0.bias f8 [30]
-0.09040696863662674 -0.20277838676098336 0.06214677351552232 0.20172601476832613 -0.13233842408503227 0.16173243986186034 -0.3182634376337369 0.029075073411514357
0.289593873483621 0.3634032508981072 -0.15273676291638927 0.384187591991359 -0.28048355340641684 -0.05476820445087289 -0.14910733051197042 -0.14398445355139433
-0.08751085453992963 -0.14194147599277074 0.42775009675919384 0.1477773460670066 -0.14385008233966823 -0.1263751512588411 0.1467084076843019 -0.4307718493506979
-0.2085120128407863 0.1476749895893861 -0.04757819948039367 0.1945265724251094 0.16606295389488204 0.22898513252091413
00000000: 85f3 9f3d e924 b7bf 18ae bc65 a4f4 c9bf
00000010: 1e28 9aaf b3d1 af3f 0658 1776 28d2 c93f
00000020: b085 b929 77f0 c0bf 5b59 f409 a6b3 c43f
00000030: 5a90 099c 6d5e d4bf 789a b925 dbc5 9d3f
00000040: b8fb eebd b488 d23f 5a84 77b5 ff41 d73f
00000050: d4b7 cfd4 e08c c3bf b270 c88d 8796 d83f
00000060: 4e92 3c4a 71f3 d1bf c94b f4fd 930a acbf
00000070: 7b46 12f2 f215 c3bf a05d 9123 156e c2bf
00000080: 4c44 4b82 1c67 b6bf a4de aa66 232b c2bf
00000090: bc42 1cf1 4160 db3f 9e46 393a 5eea c23f
000000a0: 0880 96f3 ad69 c2bf f785 d79a 0f2d c0bf
000000b0: 27b2 8652 57c7 c23f 7aea 3f17 c491 dbbf
000000c0: 2ab6 fc89 85b0 cabf 699d 5c99 03e7 c23f
000000d0: 82ad 8a75 2b5c a8bf b468 6229 3fe6 c83f
000000e0: 5520 0706 8d41 c53f 6449 b983 624f cd3f

linears.1.weight f8 [30, 30]
0.1014757157152338 -0.5682091281883098 0.21559045835829757 -0.19813297596292342 0.17958433553048797 0.14174476180367432 -0.2429830921118564 -0.15943290093137788
0.09023595384674289 0.08943468427381336 0.025705271212204304 0.6353572766807604 0.06320490094889838 0.003343062996701074 -0.2603426802430948 0.1625574004603191
0.07015124313709752 0.15274563551099374 0.14479570957957602 -0.23039366798553174 -0.23670730396957507 -0.08639603152906439 -0.21130680794053208 -0.5273885434884726
0.024858653254330152 0.44291562859393135 -0.19038398947093507 -0.17049974128144063 0.19815718218814082 0.05448765265082218 -0.0688533753382635 -0.16744399490046138
0.010781613713915313 -0.27749050837170053 -0.11919190828805273 -0.031247743797217925 0.2161386134781344 0.16324552799757927 -0.22473231280541364 0.05818964555488579
0.1365667629419298 -0.36722267855951674 -0.03108275981399528 -0.22743362147405727 -0.02886958485468189 0.12222047384264538 -0.07718145320632207 -0.2515798309092529
-0.06184919624738053 -0.031067210253630267 0.0808705735179327 0.01548616760348665 0.11463836161028006 0.18417128776588151 0.15467975153510713 -0.10895680927195728
0.04355973977558648 0.26916284812176877 -0.043829175800350284 0.20301661776826788 -0.2503361085797468 0.3775672340047779 0.1560104020620592 0.12635001920064828
0.011786404707324515 -0.15159197708922684 -0.11160087377488283 0.12540371636557499 -0.1491840488238795 -0.283020324073355 0.014008390074645738 -0.6608291685914209
0.3155891887703891 0.031192380541330885 -0.17420347693424099 -0.04002235532359783 -0.07847992074867882 0.3277307516277576 -0.14801741909772553 0.23135119945660457
0.3501897324467354 0.15617783112415115 -0.24235963283306092 0.773820927912831 -0.23774666435437541 -0.40566266213259666 0.28214937521226147 0.23374854899009648
-0.23542905730729996 0.061030279367347076 0.06579231980514891 0.4464069776695409 0.0632311920052109 0.27096140832563986 0.20189443737285562 -0.13807782677331562
-0.22272272245248578 0.28434109056032475 -0.6485350732143088 -0.5988972897975742 -0.2945992760597319 -0.21796323161557407 0.5676336560836291 0.16068821123938973
-0.022738869658370353 0.16483938517734273 0.1456901494741541 -0.009308336110750532 -0.44786318015171106 -0.28703009296436444 0.107051752614766 0.16389752208290534
0.079865073572125 0.3305584840178598 -0.05143274384140168 -0.6308367018283514 0.11398233341514981 0.1913883393347935 -0.05410792221848281 0.07416049601543308
0.2928709714059525 0.03634567307987883 -0.28413572060254894 -0.004837111192892238 0.21480251555569818 0.08888147173219654 -0.17576136755142374 -0.04966986763509556
0.4506027918968207 0.41594433121578045 0.2389302799794427 0.5575413003512808 -0.415901813200684 0.23909318771583035 0.2258409623422495 0.008368905894229069
0.27554115077993274 -0.26633241071866265 0.2754977574173892 -0.008408127433364066 0.003677914672759988 -0.0216100906296501 -0.28566265702307037 0.05632253959810799
0.06444551415824375 0.06980692960452933 0.04872612079618291 -0.17286042413271382 -0.1210172475563036 -0.2587829106130241 -0.00709432235745678 0.18142162602150588
0.07611704307573884 0.09904043428136207 -0.13854994236153756 -0.26302775814522816 0.08520532272319685 -0.09060039005921994 -0.03491937366050018 -0.028439851879047292
-0.1519886811796651 -0.1859499796817566 -0.1707631904932041 0.05391809152108452 0.04790120258936767 -0.03144592114660915 -0.3535995717441202 -0.0976816416836219
0.1379726853671604 -0.09048449113597025 -0.06624789121998248 0.05116134811736739 0.24451513737221686 -0.15410536159150254 -0.07456692254255355 0.07953652363485232
-0.05205581289360926 0.19763263185239233 -0.21930495219543178 0.13437604115700402 0.13480988547480444 -0.12446547634567179 0.018823961784391427 -0.08917989669609343
-0.2052864172720481 -0.11397344100907383 0.04512312233340162 -0.2045295996129311 0.31975327226331146 0.6407972800479759 0.2510305652504243 0.5361952563585205
-0.44043043401714044 0.2698946132484714 0.17363998329733354 -0.22926447403122854 -0.12879589652310536 0.03548925332458989 0.2856470024979943 -0.07736194033042017
-0.12820825846080944 -0.2134044587028391 0.10434006846766149 -0.5039488554153334 0.30449403875940484 0.15568934128494216 -0.33422266829273534 -0.026230346128265893
0.02630190681418604 -0.15683792042707473 -0.1346954396550261 -0.07276863691771103 0.21553830086856157 0.153004092448965 -0.21630080492717696 0.25207702699549145
0.10317717987805639 -0.09344342670431444 0.3628373451855654 -0.02112882688927424 0.24586965358328775 0.1417301979292661 -0.05830996798712434 -0.29007534101365984
0.06323138863725597 -0.13057831468588804 -0.234396444563518 -0.06785805548534471 0.07952843835432889 0.16588962150342662 0.05547501376324101 -0.023703515781010275
0.22831293176933232 -0.28168745098104364 0.198718341760499 -0.20104276790959894 -0.2520673879574606 -0.07449266286618929 0.2687604266929354 0.16637103076749574
-0.2414867935145928 -0.2436114146734776 0.19059347713392877 -0.06214320662550824 -0.2629157090150264 0.12919669901079206 -0.14712476592719262 -0.12607457307422573
-0.16820556716878862 0.0708590758475837 -0.006861690374027765 0.22984147820898687 -0.35230225580195274 0.10708148868918915 0.07901611014689441 -0.1522177011767558
00000000: 95ca 5500 50fa b93f 5570 dbe8 c42e e2bf
00000010: bb40 fdd7 7798 cb3f 6b8c 02de 6b5c c9bf
00000020: 5e19 fd97 9efc c63f 5bbd 293e b124 c23f
00000030: fbf9 0ce9 111a cfbf f50d b41b 4c68 c4bf
00000040: c9f3 b116 b419 b73f 7d88 1504 31e5 b63f
00000050: 36d1 c38c 7b52 9a3f dbd2 93c8 d854 e43f
00000060: 7ebe 8546 322e b03f 1a56 a847 e962 6b3f
00000070: b869 5958 74a9 d0bf 8d94 594f aece c43f
00000080: 172e 0c8f 6ef5 b13f a82f 9042 2b8d c33f
00000090: 0969 9f72 aa88 c23f 1407 9a2a 8a7d cdbf
000000a0: 2807 a3c8 6c4c cebf 80e8 ebe1 0c1e b6bf
000000b0: 2a6c c3fa 190c cbbf 942d 52f0 5de0 e0bf
000000c0: 69f3 fffa 8b74 993f 99af ecca ba58 dc3f
000000d0: 9dd6 3aa8 805e c8bf 30df 637e efd2 c5bf
000000e0: 1498 7bec 365d c93f f998 573c cee5 ab3f
000000f0: c60b 4cf3 5fa0 b1bf 4929 0109 ce6e c5bf
00000100: d11c 65b2 ab14 863f 200a 9a8c 67c2 d1bf
00000110: 4a86 0b64 5c83 bebf d839 bb96 68ff 9fbf
00000120: ae4b 251a 6eaa cb3f afe2 fbbd 3ae5 c43f
00000130: d545 ed46 07c4 ccbf 9c85 3f81 08cb ad3f
00000140: af30 470a 057b c13f 2ccf b08c 9380 d7bf
00000150: f16c 7bb3 28d4 9fbf 36f7 1e7f 8b1c cdbf
00000160: 9227 330b fd8f 9dbf f347 0e4a d749 bf3f
00000170: 1700 61e9 29c2 b3bf 2fa9 854a e219 d0bf
00000180: 7430 55a6 b2aa afbf 88b6 1130 15d0 9fbf
00000190: 80e1 7714 efb3 b43f c3c5 2d3b 36b7 8f3f
000001a0: 57b1 fb8d f058 bd3f 8388 e8bc ec92 c73f
000001b0: 2b2d 19cd 8bcc c33f 90e3 7fec 97e4 bbbf
000001c0: e14e 8453 764d a63f 2dcc 7ecf f639 d13f
000001d0: b0a5 5819 c770 a6bf adfb edd2 72fc c93f
000001e0: 1fe8 d6bd 8105 d0bf 6ade 85c2 0f2a d83f
000001f0: 199f 581b 26f8 c33f b56a 28c8 3c2c c03f
00000200: 4604 0b76 7823 883f 3694 f7ab 5d67 c3bf
00000210: 0172 11f7 df91 bcbf f722 4b9e 3a0d c03f
00000220: 6d47 6481 7618 c3bf 7ae5 ff46 011d d2bf
00000230: 8df5 eb49 6eb0 8c3f 0cfa 6a36 8325 e5bf
00000240: 065c 2fff 9c32 d43f 1fd4 3c39 e5f0 9f3f
00000250: 641a 24ae 4c4c c6bf 998e 7266 cf7d a4bf
00000260: 801c 0295 4217 b4bf 379f 0867 8af9 d43f
00000270: daab 211b 3cf2 c2bf 0d3b c785 ea9c cd3f
00000280: ed3c 1032 8269 d63f 9beb 849a a2fd c33f
00000290: 7bbc 71f4 a305 cfbf 4a12 4b1b 24c3 e83f
000002a0: fc4b 1192 7b6e cebf d756 c486 60f6 d9bf
000002b0: 5ce7 c740 bc0e d23f 8530 b3f2 78eb cd3f
000002c0: fadb d412 8a22 cebf b2a1 e55b 5c3f af3f
000002d0: 521e e4f5 c3d7 b03f 1700 7392 ee91 dc3f
000002e0: c2dd bf5d eb2f b03f 8226 cf84 6e57 d13f
000002f0: c45f e14a add7 c93f 81a6 25c3 88ac c1bf
00000300: ab37 819c 2d82 ccbf 7c65 37f9 a432 d23f
00000310: 2576 38a0 ccc0 e4bf e6fe 2aa6 2a2a e3bf
00000320: 4a84 06ec b6da d2bf 847a c21b 38e6 cbbf
00000330: 819e 9f0e 0e2a e23f 191e 106a 6e91 c43f
00000340: c071 1fb6 db48 97bf b3f7 36fc 7419 c53f
00000350: c2a0 ab8d f9a5 c23f b723 68b9 3f10 83bf
00000360: cd62 f553 caa9 dcbf 7afc 8f77 b35e d2bf
00000370: 2bbc 7560 be67 bb3f 01ea 9e10 98fa c43f
00000380: b6bc 1597 0972 b43f 3669 91c5 de27 d53f
00000390: 5917 7c81 6455 aabf 4804 6f73 d02f e4bf
000003a0: 85ff 563a f22d bd3f 10ac 23c1 697f c83f
000003b0: df0a c498 08b4 abbf b99a 0aa9 2efc b23f
000003c0: 6bb9 08e3 65be d23f 0558 756a e69b a23f
000003d0: fb40 e796 472f d2bf 23e3 1626 14d0 73bf
000003e0: 3c83 b419 a67e cb3f da64 4fa6 efc0 b63f
000003f0: 064d c436 597f c6bf c7c3 2d32 546e a9bf
00000400: 8bb8 ab17 add6 dc3f ccd0 e1f8 d49e da3f
00000410: 1396 4475 4495 ce3f b4b2 65da 60d7 e13f
00000420: 88d1 82a3 229e dabf edca f706 9b9a ce3f
00000430: 69b6 ad4d 5be8 cc3f 64be f388 b723 813f
00000440: 3b54 d359 77a2 d13f 1cb2 7918 970b d1bf
00000450: 65a8 8e58 c1a1 d13f 0773 c6c2 4738 81bf
00000460: b95c 9567 2521 6e3f b65f 12a2 f420 96bf
00000470: 3690 6606 4c48 d2bf e5fc 33d3 4ed6 ac3f
00000480: e9fd ae4f 807f b03f 4c85 afef ddde b13f
00000490: 64a4 8f4e a1f2 a83f df1a 3656 4a20 c6bf
000004a0: 3f9a 8180 fcfa bebf 2f2f 7632 e68f d0bf
000004b0: 8870 33a8 ef0e 7dbf 5b56 46e7 d238 c73f
000004c0: 97b3 ad12 687c b33f a557 38c2 b65a b93f
000004d0: 421a a727 01bc c1bf 0a22 cb60 72d5 d0bf
000004e0: c38f 8a1a 04d0 b53f 4827 4f50 9631 b7bf
000004f0: f7bf bcbf f3e0 a1bf 5ff5 e426 561f 9dbf
00000500: c7b0 8377 5d74 c3bf b366 b67c 35cd c7bf
00000510: f8b3 4377 91db c5bf 91d8 7def 269b ab3f
00000520: 5ced 1ea5 8186 a83f dfa5 d505 ae19 a0bf
00000530: 8b51 2119 60a1 d6bf 1e64 7300 aa01 b9bf
00000540: 1256 b2c5 16a9 c13f c964 39da fd29 b7bf
00000550: a402 382e 9ff5 b0bf 807b f7f9 d131 aa3f
00000560: ccff 31a3 454c cf3f b33d 1678 b9b9 c3bf
00000570: 8d02 af5d d116 b3bf 9966 d96f 815c b43f
00000580: deb5 e33b 0fa7 aabf e4d6 36ad 064c c93f
00000590: 58de c346 2f12 ccbf ee50 11ef 3b33 c13f
000005a0: 6459 a548 7341 c13f acbe 622e f8dc bfbf
000005b0: 6cff fab0 9646 933f 9b37 c563 7ed4 b6bf
000005c0: e08b 3f48 d346 cabf 621e bf09 5d2d bdbf
000005d0: 9b44 6ebd 601a a73f ca64 b3a2 062e cabf
000005e0: e93b ca6d d676 d43f 777f 254c 6981 e43f
000005f0: 7f01 0381 e210 d03f d990 4af4 8228 e13f
00000600: ae11 9121 0330 dcbf 4033 510e f445 d13f
00000610: d41f c5c0 d539 c63f 6da4 0ccd 8958 cdbf
00000620: 927e b649 627c c0bf 05f3 c6bc a52b a23f
00000630: e979 7b5d 0a48 d23f 2d9c acfb fdcd b3bf
00000640: 0d49 95d2 2069 c0bf e581 7959 d650 cbbf
00000650: 4523 bbdd 07b6 ba3f 17b2 9b59 5920 e0bf
00000660: 441c 9390 d47c d33f 3cca 93da a0ed c33f
00000670: bf8b 7979 e763 d5bf 5a78 22bb 20dc 9abf
00000680: 7183 5b16 e3ee 9a3f 4ae3 80d5 4313 c4bf
00000690: 058d 1e3e b33d c1bf e56e bc23 f7a0 b2bf
000006a0: 5e08 a250 c296 cb3f be79 9c5a a395 c33f
000006b0: a45e a1a9 beaf cbbf d72f c1ae 0722 d03f
000006c0: 160f 45d5 d169 ba3f cca0 b88d e8eb b7bf
000006d0: d1b9 d520 ba38 d73f cc17 f891 cba2 95bf
000006e0: 7d0a 9c24 a878 cf3f 6c1c 7b12 3724 c23f
000006f0: d72d 12db cdda adbf e0e6 c129 9890 d2bf
00000700: 1016 47aa ee2f b03f 8643 924b cab6 c0bf
00000710: 6678 d9e3 b300 cebf ce67 1441 255f b1bf
00000720: 9173 d5c9 f95b b43f 4630 8d01 df3b c53f
00000730: 2b6f b793 3867 ac3f 2392 5104 bc45 98bf
00000740: 3401 9aaf 5b39 cd3f 540f 6acd 2a07 d2bf
00000750: 5104 7d45 9a6f c93f 1770 a2f8 c4bb c9bf
00000760: 8796 ea40 df21 d0bf 615f cd7e f311 b3bf
00000770: fdba c6ee 5e33 d13f 59f8 125c a54b c53f
00000780: 80d1 470c 0ae9 cebf 8939 7aa9 a82e cfbf
00000790: c681 8ff7 5d65 c83f d510 4000 3cd1 afbf
000007a0: 8bbf f468 9cd3 d0bf 2a52 8076 8489 c03f
000007b0: a162 0bfd fbd4 c2bf cb00 1b2c 3623 c0bf
000007c0: bb5e ff90 c287 c5bf 3be1 6305 d223 b23f
000007d0: 2913 07fc 001b 7cbf aa00 1610 726b cd3f
000007e0: 8e7d bec2 1e8c d6bf e453 ed43 b169 bb3f
000007f0: bc23 f058 663a b43f 7796 36a0 de7b c3bf

linears.1.bias f8 [30]
0.10728016086520553 0.0495208253659687 -0.000657142203297944 -0.07060556046082994 -0.0609182789195538 0.037955793680625946 -0.03117863430868441 0.09537120953936044
0.07212163339496462 0.009367443059799231 0.1486180695559173 0.05071362264373507 -0.12049299105724885 0.06667943273399017 0.06428297758249103 -0.0037079558184958963
0.055085470520647 0.12230116394843762 0.0872939532018525 -0.06105260153758947 -0.1074638449268947 -0.048708156113042106 -0.010686701926663508 0.07988015102716088
-0.034611313754067084 -0.03025659878216593 -0.041901390163562945 0.09101590743915149 -0.0871356478464112 -0.09309673378325947
00000000: 28f9 6c6e b676 bb3f 01e5 d52a cb5a a93f
00000010: 6170 d022 8288 45bf ec52 18bd 3413 b2bf
00000020: 4e4d 603f ae30 afbf 4ea1 1a19 f16e a33f
00000030: 054c c2ba 4aed 9fbf 9396 f361 3f6a b83f
00000040: 23f6 c338 9076 b23f 143b b6ec 3c2f 833f
00000050: 3d2d 2bba ea05 c33f a7dc 6ecd 22f7 a93f
00000060: 67f4 fcef a0d8 bebf a387 e83e e711 b13f
00000070: 4903 6866 d974 b03f c3e8 369f 2560 6ebf
00000080: 49ed bdac 2934 ac3f 9ad8 6b0b 214f bf3f
00000090: 87f8 2382 e558 b63f ea1b e15d 4942 afbf
000000a0: 3ca3 7623 c082 bbbf 0ca3 1b83 46f0 a8bf
000000b0: ab8a 37da e8e2 85bf cbdd 428c 0673 b43f
000000c0: 7b66 4af9 92b8 a1bf 45c7 07f9 95fb 9ebf
000000d0: fba1 d158 1974 a5bf 63ee dd89 d14c b73f
000000e0: 84ec d095 854e b6bf 1aa9 f602 30d5 b7bf

linears.2.weight f8 [30, 30]
-0.22033416002016792 0.16322142567790565 -0.21138697699517206 0.4335357473555555 -0.4370837102729944 -0.024431767593782287 -0.25763986608663014 0.1791194729394237
0.14991127864640655 -0.35324057032812006 -0.20321627723975721 0.20405077593524046 -0.17273972614686328 -0.28688616118698484 0.11297400318982864 -0.48782149134798497
0.07781149205971857 0.14172285076885 0.3371797227409406 -0.15053297305293556 -0.11382388657676175 -0.14866157261524374 -0.0955222849698002 -0.18868771606069704
-0.38997022859538744 -0.2086334731672046 -0.1967237490153194 0.23943480023580052 0.04397390842817187 -0.2358963101451169 0.17541816560482487 -0.2657915420262206
0.22256345541470815 0.17101206188120174 -0.19350831373536767 0.23478061121521812 0.19235756605757576 -0.2468711054616312 -0.07388264687596918 0.12042091399027759
0.25289060926144985 0.19039715318978712 0.26039683669392616 -0.4180733022502214 0.14082056396458023 -0.08825810636643355 0.2058880786202797 -0.04947276809622986
0.01664771767323474 -0.017759862166634714 0.15359133945296055 -0.24250375050008297 0.058008890897278474 0.20707518782379464 0.2736682046164484 -0.07812463509808147
-0.16483575910124132 -0.2902697148355572 0.00870560305173473 0.330042557780998 -0.247772904172739 -0.11460202931606774 0.4820461717612889 0.6630960562271636
-0.810226887945808 0.08062775099381218 -0.9982673250727014 0.056878753879062674 -0.34277637789740195 -0.5842808004626194 -0.568128798464199 0.4225045080065962
0.6770687621812043 -0.009890334950805194 -0.13910395305192327 -0.9261790879200438 0.05737811113198257 -0.4339608532026358 1.0392006852504767 -0.6987701360763797
-0.20942102019941006 0.2884328075623521 1.0616103483529644 -0.4417017449714819 -0.3965394380095289 -0.03626436724824304 -0.6614374546174931 -0.35101381902448436
-0.03163316003673715 -0.12861658621866306 0.14727040953383208 -0.02756813768702768 -0.346936786868614 -0.16297058946981216 0.31628823580304405 -0.4770289621819369
0.2641396081328936 0.2366305886883164 0.280460883247778 0.22332159644973373 -0.06941687166295693 -0.0019433873857187091 -0.20097607634348086 0.28877450942374383
0.036042477678204635 0.09639711501468756 -0.10562005533760956 0.301565414923156 -0.27843515856818707 -0.12115733144002833 -0.3684446866239034 0.15804840509191354
0.05136581618926322 -0.08786796595392822 0.23129728300165214 0.12639223442385775 -0.18753457322936368 0.23055529587268125 -0.16489469649228908 0.13589757774462868
0.22787402389176242 0.2558317178441229 -0.24107686349938862 0.10546954771768824 0.1604087634932808 -0.2789414850265356 0.4960847844738847 -0.2050000059111152
0.26169237933293854 0.0216993035539525 -0.21960681315383973 -0.41326457660132876 -0.05491550562472245 0.30034458488719984 -0.02437146556903997 0.0746083306574071
-0.19766860254237684 0.10102490808115011 -0.15535251523424853 0.39119109060346613 0.15852772629659412 0.23162344501311202 -0.16024254085776765 0.06369237697886818
0.10662070637532271 0.05490028433733106 0.4065202945627813 0.32317350829770203 0.11870854018849085 0.009928409441595865 0.10828390176245205 -0.24147019101815287
0.34004940354128876 -0.3536792436303969 0.08905207232768725 0.3419138690649519 0.3745849399247689 -0.16553492681494522 0.44247922151029173 -0.03897024064510795
-0.1738148897005375 0.07784194847072645 -0.07551342263211885 -0.22833550296595348 0.1854758705980105 -0.1258281957450454 -0.15567451617981756 0.11128297837192518
-0.0018983665406250507 -0.05753687735119131 0.11012983818183265 -0.4236587602340892 -0.042888021998984706 0.07778011510147045 0.33429618931896365 0.12962698648990015
0.18516807390509654 0.1010162887142585 0.017975210560233778 0.20014427675764226 -0.09204048397894976 0.24417225751723182 0.09013747186539935 0.2062349030333745
-0.6264524666318748 -0.10700835988707083 -0.8943640410780874 -0.07113943791254933 0.1615980297421586 -0.8759165619435814 -0.3343716666912743 -0.08103902614614666
0.17841330790935112 -0.2554428155325503 0.14483633978735802 -0.7685172254125704 0.43204774992911305 -0.5057511165531383 0.7876740862628738 -0.2844907640560204
-0.1414333628756575 0.1279585296725987 0.764355736081934 -0.38054219907922143 -0.4468902170674924 -0.1020416347523958 -0.31312031363994447 -0.018728418375205988
0.0008617056824608967 0.38720256134992104 -0.5016007488357408 0.10539056273662942 0.4995523189712162 1.2696526835077815 -1.0351630393875517 -0.12461408493647967
-0.9940749815192329 -0.1393400028759992 -0.6185484916068872 -1.523001244133594 -0.9437667131321245 0.10087284357776674 1.0887037102529034 0.045867187020613626
0.057301657370312516 -1.051683467904078 0.20275487335618655 -1.0489571540941376 1.5993935805449535 -0.6004062510707886 0.13434996689999704 -0.09428853063635212
1.7557554403235969 -0.3495856153703197 -0.9057155537338568 -0.48983567730146776 -0.8113018228522002 -0.04000983246269146 -0.1001846695152746 -0.006602081675493115
0.09408029246094633 -0.0356507869086793 0.10179863322619302 0.13087409902397595 -0.13406932164005977 -0.03417698383334426 0.10679564876160973 0.310101438305377
0.28919464443897086 0.18790857125561777 0.1041780798863791 0.2604614510988625 -0.07555273563693915 0.22659460489529154 0.10273072070838621 -0.15510681296775505
00000000: 5c37 bde5 e833 ccbf 4884 a58e 70e4 c43f
00000010: 044e 7f7c ba0e cbbf 757f 22b8 0cbf db3f
00000020: 8e28 4ff4 2df9 dbbf 1ef0 312b a404 99bf
00000030: b039 bfeb 2b7d d0bf a200 2d0b 63ed c63f
00000040: f93e 8bf3 4a30 c33f 9c7f 4b56 7e9b d6bf
00000050: 703b 61b0 fd02 cabf 8cc1 aef8 551e ca3f
00000060: b8a8 42d9 551c c6bf 0447 fec5 575c d2bf
00000070: 989e ff40 ddeb bc3f e308 e8a1 7738 dfbf
00000080: ae42 a635 74eb b33f eaf4 9270 f923 c23f
00000090: edfc 8242 5a94 d53f 6cb2 1d1a aa44 c3bf
000000a0: 5dce 59ee 8f23 bdbf 9df6 46a8 5707 c3bf
000000b0: 2807 fc01 2674 b8bf c99d d148 eb26 c8bf
000000c0: f8c5 8eb0 45f5 d8bf 1851 0d6c 80b4 cabf
000000d0: fb03 2f6a 3e2e c9bf 43be 44ae cca5 ce3f
000000e0: 6510 2785 bf83 a63f 3b01 a9ac d931 cebf
000000f0: 0ad2 323a 1a74 c63f f295 2387 ba02 d1bf
00000100: 0d3d 2595 f57c cc3f 432a 8026 b9e3 c53f
00000110: 77ae 7f63 e1c4 c8bf 8dbe 7383 4a0d ce3f
00000120: 4e7f ad37 2c9f c83f 467d 24ee 7899 cfbf
00000130: 0cff 1220 f9e9 b2bf 4bb9 57af e7d3 be3f
00000140: 8d94 0f18 5c2f d03f 44cf 1915 ef5e c83f
00000150: d743 657e 57aa d03f 07b5 1f86 b6c1 dabf
00000160: d583 6a82 6806 c23f 7c62 7350 1598 b6bf
00000170: 78ba 2762 8a5a ca3f f823 08a2 7e54 a9bf
00000180: 4d9d d66b 190c 913f dea7 bf2c a42f 92bf
00000190: 441c f389 e1a8 c33f cb10 c7e6 5c0a cfbf
000001a0: e3e4 8f62 57b3 ad3f a814 c293 7081 ca3f
000001b0: 7717 32a5 c783 d13f fb18 c2e0 f9ff b3bf
000001c0: 9a8c 4691 5619 c5bf ce3a 0f6d c793 d2bf
000001d0: fe79 3143 3ed4 813f f048 fdd1 6a1f d53f
000001e0: a8e0 20c4 05b7 cfbf 15be f7ff 8e56 bdbf
000001f0: 6b1c b82f d8d9 de3f 9745 7338 1538 e53f
00000200: b325 42f0 60ed e9bf db1f ab31 05a4 b43f
00000210: f048 3b51 cef1 efbf 9ae0 7e47 361f ad3f
00000220: 8f48 3a55 0cf0 d5bf 685d 35a6 6db2 e2bf
00000230: 6c39 2a72 1c2e e2bf f641 1359 500a db3f
00000240: 65c4 d61b 8caa e53f d513 4849 6241 84bf
00000250: 2519 8d88 28ce c1bf de61 9b53 42a3 edbf
00000260: 74e0 a2ed a960 ad3f 14f9 0fbe 03c6 dbbf
00000270: fb1a d2e5 90a0 f03f 1dd3 3b30 535c e6bf
00000280: 62fb 6cd8 4ece cabf 8cb8 e4e0 ae75 d23f
00000290: a156 f421 5bfc f03f ff45 4f65 d744 dcbf
000002a0: 31cf 74f3 e660 d9bf c6c3 ae3e 3e91 a2bf
000002b0: cfcf 7de1 7e2a e5bf cade 49aa 0277 d6bf
000002c0: 1662 a7b7 3832 a0bf 2223 c41f 8276 c0bf
000002d0: 14e4 4ebc c1d9 c23f 1911 1c67 d23a 9cbf
000002e0: 3d52 585a 3634 d6bf a1c8 fd63 38dc c4bf
000002f0: 138d 3803 113e d43f 463d f47b a487 debf
00000300: 0294 a0d0 a9e7 d03f 5724 d33f e949 ce3f
00000310: 95d0 5634 12f3 d13f a9fd 9e54 cd95 cc3f
00000320: 6641 95d9 4dc5 b1bf 34bd f750 28d7 5fbf
00000330: 263a 9685 95b9 c9bf da2d 7914 487b d23f
00000340: fa15 cadd 2874 a23f 9cb5 6a38 7bad b83f
00000350: d90b 7a7b ea09 bbbf aac6 ac06 d94c d33f
00000360: 11d8 06b3 e1d1 d1bf 349f 34b8 2a04 bfbf
00000370: 0ad1 db05 9994 d7bf 5801 871d ee3a c43f
00000380: 6799 54c9 9e4c aa3f a95e 23d8 837e b6bf
00000390: 06a8 123d 269b cd3f 91cf a8e8 9e2d c03f
000003a0: fad8 7105 2201 c8bf aeac d8ff d582 cd3f
000003b0: e1ee 5bf8 441b c5bf f667 0282 1765 c13f
000003c0: a68c 1cdc f92a cd3f 67e1 5aff 8b5f d03f
000003d0: 34ac 464e 9bdb cebf b8df 2b62 0d00 bb3f
000003e0: 2b04 993c 4688 c43f faf1 eb62 2dda d1bf
000003f0: 60f2 5665 dabf df3f bfb5 88b0 703d cabf
00000400: c23b b664 91bf d03f f1d8 709c 5738 963f
00000410: 36bd 3c78 131c ccbf 8845 4644 ed72 dabf
00000420: 4d29 6799 e21d acbf 0ec2 677e d838 d33f
00000430: 5268 4c5e d5f4 98bf 96c6 2e14 8819 b33f
00000440: b8c9 ae6b 344d c9bf e439 4ab4 c4dc b93f
00000450: f826 245a 97e2 c3bf b038 285b 4609 d93f
00000460: 8aff f9f3 a24a c43f cfb9 a848 d6a5 cd3f
00000470: 3fbe 34dc d382 c4bf 3ef5 20c4 244e b03f
00000480: a75b f59e 7e4b bb3f 4e35 8adb e31b ac3f
00000490: f9ac 93b2 6d04 da3f 2b9f 44f0 dfae d43f
000004a0: 6f8f ddd1 ae63 be3f 6dd8 d28e 5855 843f
000004b0: 27c5 c068 7eb8 bb3f 1ee0 b0c6 7ee8 cebf
000004c0: 2efc ce92 5ec3 d53f 19a9 2a44 aea2 d6bf
000004d0: 6cd7 49da 1dcc b63f e8b2 6bb5 eae1 d53f
000004e0: b343 a31c 33f9 d73f 6d0a 829c 3f30 c5bf
000004f0: a4f5 625e 9451 dc3f d70c 2d4a e8f3 a3bf
00000500: 042c 69f9 903f c6bf d04d f02e 73ed b33f
00000510: 942d 9d00 d954 b3bf d792 e006 193a cdbf
00000520: d331 355f acbd c73f 42e0 d168 231b c0bf
00000530: 650e e87d 24ed c3bf 137a b590 0a7d bc3f
00000540: 62ae 4c8d 531a 5fbf e41c 133d 7975 adbf
00000550: a903 4e15 7831 bc3f eaa2 f7a1 391d dbbf
00000560: a564 c037 6bf5 a5bf 8ad2 a3ca 65e9 b33f
00000570: 165a 13d8 1b65 d53f 959a d3f9 9d97 c03f
00000580: 0ac5 d762 96b3 c73f d01a 6418 34dc b93f
00000590: c3cb faf5 1768 923f 39ec 93e1 539e c93f
000005a0: 64fc 9814 f78f b7bf 9041 505a 0941 cf3f
000005b0: b156 ced5 3f13 b73f be39 e9c1 e765 ca3f
000005c0: 7fd6 150b e60b e4bf c212 1d5e e664 bbbf
000005d0: dbc2 6456 a19e ecbf fb4b 4ab7 3136 b2bf
000005e0: fe98 6b86 3eaf c43f 6e51 722b 8207 ecbf
000005f0: 6b79 496b 5866 d5bf e054 ff3e f9be b4bf
00000600: da27 524d 3fd6 c63f 4078 add2 2c59 d0bf
00000610: a15b 5447 ff89 c23f a7e8 b16f b197 e8bf
00000620: 1b61 109b aba6 db3f dc5b 30f7 1c2f e0bf
00000630: b5fb 0c49 a034 e93f 459e e8bf 1835 d2bf
00000640: ba9f 0e0a 7d1a c2bf 4012 18f2 f160 c03f
00000650: d66b 1f29 9a75 e83f 6bc3 f2aa cd5a d8bf
00000660: 1b43 cd6c d999 dcbf e087 178c 661f babf
00000670: 2bff b2c8 290a d4bf 1c92 b5e1 8a2d 93bf
00000680: 770f cbdc 823c 4c3f d838 7b40 edc7 d83f
00000690: 78c1 7c03 1d0d e0bf b2c7 423c e0fa ba3f
000006a0: 52d4 274a aaf8 df3f eb1c 0f55 7f50 f43f
000006b0: f028 831e 0790 f0bf 5353 6c6b b5e6 bfbf
000006c0: 7cb3 ec55 76cf efbf 4f40 b0a9 e4d5 c1bf
000006d0: 7f22 ce34 26cb e3bf 3823 758d 365e f8bf
000006e0: a396 fe3f 5633 eebf 8a95 387c cdd2 b93f
000006f0: 0c1f e994 546b f13f 0c15 6d68 e77b a73f
00000700: 69fd d290 a456 ad3f 2545 460b b2d3 f0bf
00000710: 4fb0 1527 dff3 c93f 36d5 fb4b 87c8 f0bf
00000720: 78f7 1db9 1d97 f93f 5037 952b 8736 e3bf
00000730: 09ef 0635 6132 c13f 3095 780b 4b23 b8bf
00000740: 406c 3f04 9317 fc3f 45b9 4a58 9c5f d6bf
00000750: 887e 582f 9ffb ecbf c31f 9bbd 7759 dfbf
00000760: 7abb 8a3d 2ff6 e9bf a732 e433 2b7c a4bf
00000770: b0f0 20d7 b3a5 b9bf 5fb4 1bce c80a 7bbf
00000780: 9360 5163 a515 b83f 22ea b2e7 d140 a2bf
00000790: 4be7 7ba8 790f ba3f dcc8 9983 7bc0 c03f
000007a0: a3a4 ebfb 2e29 c1bf 1626 ae47 a57f a1bf
000007b0: 7f45 c9aa f556 bb3f bbb4 fdb3 b3d8 d33f
000007c0: 71cc 0241 2a82 d23f d429 1758 630d c83f
000007d0: 6b73 1226 6aab ba3f ffa6 9581 66ab d03f
000007e0: cc19 af90 6c57 b3bf 3ed7 bc50 0d01 cd3f
000007f0: eaad bc7d 8f4c ba3f 77a9 8a40 8ada c3bf

linears.2.bias f8 [30]
0.06158607503862267 -0.1685161375884222 -0.06110965652150693 -0.07890752813918166 -0.03145258207947523 0.05563894946846068 0.046209865337405835 0.04796579794397809
0.06000411289748912 -0.05470518638306236 0.14260486078573453 0.07093066218189342 0.05661102789507882 0.054462544810870726 0.08531280671479514 -0.056511178280595535
0.039033440980652784 0.05099857213722976 -0.06822026866826861 -0.00585519093603597 -0.05515732815862412 0.06938326672603488 0.031242692518463826 0.006229753496919
0.16569467225894685 -0.03039399436609208 0.059106318945816874 -0.0491544891399613 -0.04538271072642863 -0.014691875671106103
00000000: 0f1a 5cc4 3588 af3f 6c2f e5d1 ef91 c5bf
00000010: b496 75d0 c349 afbf 9717 c4a4 4833 b4bf
00000020: 93ec cf86 8d1a a0bf aca0 b358 b57c ac3f
00000030: b7e1 c0c8 d1a8 a73f 87ea fd1a f98e a83f
00000040: a658 0aed dbb8 ae3f 26a9 df74 5102 acbf
00000050: 7ca5 a946 e040 c23f dcd7 5a0a 8328 b23f
00000060: 37fb cde2 1efc ac3f cba5 a3c1 83e2 ab3f
00000070: a91f c562 0fd7 b53f b7ac 257d 08ef acbf
00000080: 04ac ecf0 30fc a33f eab6 f11e 7c1c aa3f
00000090: 9ac3 da2e e276 b1bf b352 50d9 9cfb 77bf
000000a0: 78ed 26d1 943d acbf e75b 7a0d 1ac3 b13f
000000b0: 2b53 6c9a 15fe 9f3f 74a6 80b8 5e84 793f
000000c0: 6c9f 3ca7 7b35 c53f 504e 306f 9a1f 9fbf
000000d0: d2ec b7f5 2e43 ae3f 9a8d 9df6 c62a a9bf
000000e0: e067 bf14 673c a7bf 8dc3 312c c616 8ebf

linears.3.weight f8 [30, 30]
0.45682984721225023 -0.11429249791548432 0.15152196680097083 0.16973349177577793 0.18974254042128244 -0.44437909542153525 -0.279280216608787 -0.2074742852521965
0.15912000935254145 -0.14166125267925775 -0.03547345177129758 -0.21171226504295457 0.2854373243166594 -0.2246353606694398 -0.19953604682855536 0.20130824762386057
0.18173392855143033 -0.08375409908723637 -0.24926914476111997 0.2799053200844447 -0.20958258318651043 0.09429639293867959 -0.00028114566115285025 -0.010663035096401006
-0.17482300845600512 0.13146835619420658 0.2680341458790352 -0.151249359107349 0.015602151401120055 -0.3517166469820212 0.31018388847289907 -0.2506934313774923
-0.2595652883731882 -0.09672403463398194 0.3214562367545294 -0.35820448112522585 -0.08139985065235229 -0.11265832427392661 0.16935508409797562 -0.298719591284794
0.05579251033367676 0.18631273006115323 0.17449661687608897 -0.04854454321942687 0.02851084604694825 -0.12122918330652871 -0.2774257160474799 -0.1681640865253933
-0.2790827633516263 -0.19256526231208776 0.16774616520614946 0.12953143043303156 -0.032810951878745186 -0.24513493526400656 0.1723607231347693 0.04539483276584105
-0.1786888549192482 -0.013926802837759085 -0.047191735598115375 0.24774818268657664 -0.33772706397921143 0.148432192651462 -0.18375385496150995 0.1672030853757885
0.1774900778567986 0.02239289919444978 -0.23326932736386372 -0.15404885941374163 -0.40132385650186203 0.3341049564369236 -0.2839157796671185 -0.15519219160283607
-0.2610279603640183 0.22165690665622448 -0.2910254208283297 0.08954954031772118 -0.17780393032170594 -0.3453898095960824 0.2568079447432984 -0.24030440806631148
-0.2962706095080336 -0.13853080205680207 -0.17961712157032866 0.009906894658662483 0.19355715080277672 -0.00506370022212416 -0.2982934327706474 -0.09998054844460012
-0.020553510007600126 0.125789887529674 -0.3477496646701987 0.17883049609322502 0.012881876869751077 -0.001482118232714513 -0.21015174566261244 0.5444069123771658
0.2601531296287904 0.18023797643341574 0.459267381510208 0.006546523315221991 0.18979606676215663 0.017374858811906743 -0.007244491562020468 0.259245515588615
0.1372481667791856 -0.1334180782752749 0.1610716557248822 -0.13120311602146448 -0.07460676109983462 -0.1797420295870874 0.11119573117146166 -0.3491645124751158
-0.2888318252779568 0.40139894513785535 -0.0704789314846721 0.037591300013706655 0.02796724862264045 -0.24914978279725597 0.20078824333816583 0.20338911843109544
0.2920601708598995 0.23948233754333684 0.6270918625632562 -0.12699038393382164 0.28162949571847057 -0.22634286860513184 -0.005132574241818517 0.77577970209234
-0.04333250750345172 0.14245725545821364 0.10512391527372196 0.12695276677210302 -0.18092857244577643 0.1354447695740542 0.10260924775177009 0.40100961022076187
-0.43593351178481593 -0.6468103162223651 -0.0641245132358844 -0.4137009772582072 -0.8003254611771775 0.026737677372369446 0.6995249146456706 -0.7207882293414465
-0.7521581262542266 -0.03856566423815087 -0.2112810851124415 0.28547416236685436 -0.4577373624213562 0.5571806964879429 -0.19976456476936705 0.004230254343764164
0.015524844841493515 0.012500959548719036 -0.2645869080325815 0.16674064880505282 -0.3084177821911449 -0.1301147305711089 0.2590707108172252 -0.2553592166152288
-0.06581899132852174 0.1575375258574701 0.3284872019881903 0.36093676294055355 0.059853112152554525 -0.22378795891517578 0.29610765185304183 0.33933748252032747
0.3374975792161698 0.14243960431586614 0.0042497328721264995 0.08634071143784168 -0.038339179118689296 -0.07735259979412364 -0.07091195701456407 -0.22635286408142627
0.05942769838150791 0.018794292705390188 0.3244439640267615 0.09942786564339813 -0.47210511958653933 -0.2255330270253683 -0.2491344042448299 -0.3066589821078104
-0.18115925963068205 0.5638724563436317 -0.15032388221782464 -0.15280934007783048 0.20264192229237468 -0.1912520402993663 -0.3223026418265276 0.17131967302195888
-0.20367696480148856 0.24319422940551758 -0.197108443597078 0.22065095979207947 0.10837222715438746 0.2832836531540536 0.2640336502764721 0.1097530000419229
-0.08322997795955167 -0.2894098808895789 -0.1806920086312264 -0.04340195487252076 -0.08597206837035999 0.24840335459171178 0.14497861333324955 -0.22280620490833933
-0.43387147784103713 0.2642284249654581 -0.24494858638164152 -0.07781282966441865 -1.1090302314790936 -0.04095045283275875 0.19573976640891863 0.09199950294226837
-0.9463819476609309 -1.365156453761336 -0.12426118265076945 -0.2163771975721869 -0.3180430542351752 0.03180752343947265 -0.613180793513927 0.07759628680238166
0.09800839215073708 -1.2378941969491124 0.6588351452662802 1.0150060415473372 0.47059494397172313 1.431837912077836 1.511699992960711 0.21281932594621297
-1.247813074137628 1.3734689670173175 1.236875770490983 0.9791162920331814 0.21227467143916712 -0.3482035873174547 1.2288253231990018 -1.2293168260242635
0.24092665027605314 0.2687604155585679 -0.17671768213319672 -0.1869482477278846 -0.06482438960515913 -0.16995736024559202 -0.1759424449020068 0.2522225562469506
-0.353301137836036 -0.23510112809783676 -0.01700567634902113 0.003930085806946528 0.12871105640771935 0.05612317857629128 -0.06845024741604566 0.08946114646685167
00000000: 2b40 6741 b33c dd3f a6a3 b9ec 4542 bdbf
00000010: 0794 0462 1265 c33f b53e 1bba d3b9 c53f
00000020: 977a e2ca 7b49 c83f c123 7704 b570 dcbf
00000030: 524a 3021 badf d1bf 01a7 f572 848e cabf
00000040: fc78 2762 0b5e c43f 3714 afb7 f421 c2bf
00000050: 21c9 7786 9329 a2bf efc2 4233 6319 cbbf
00000060: ebdb 3fe9 9a44 d23f 30da ccfb d9c0 ccbf
00000070: fe39 c0ad 658a c9bf 90d2 faf9 77c4 c93f
00000080: f0da d9af 0e43 c73f d551 7c9c e870 b5bf
00000090: b150 5324 0de8 cfbf 724d ef00 f8e9 d13f
000000a0: 1373 4c22 9ad3 cabf b469 cdf3 ce23 b83f
000000b0: ee4c 896b d76c 32bf 0c03 1f58 80d6 85bf
000000c0: 6e14 f4af 9960 c6bf 4310 2881 f4d3 c03f
000000d0: 80c0 b0b0 7827 d13f 5a19 7495 235c c3bf
000000e0: 2cd3 1e50 05f4 8f3f 9cc7 0f8a 8682 d6bf
000000f0: 7f2e 2f86 0dda d33f 85a7 4576 5c0b d0bf
00000100: 7756 2fba b79c d0bf c078 7d05 e8c2 b8bf
00000110: 122e fd2d bd92 d43f e4a9 ed7c d2ec d6bf
00000120: bd7d 73e0 9ed6 b4bf 06f1 600a 2dd7 bcbf
00000130: 705a ce69 6dad c53f 0488 cfc6 381e d3bf
00000140: 6761 7dfe d590 ac3f ec76 3875 18d9 c73f
00000150: b46a 5fb7 e755 c63f 39ab 0d93 d4da a8bf
00000160: 6e67 697d f231 9d3f 0451 9f31 e008 bfbf
00000170: 5e92 5fca 57c1 d1bf e97f fe99 6686 c5bf
00000180: 223e 5ef3 7ddc d1bf 22f0 fc7f faa5 c8bf
00000190: 637f cbd2 b478 c53f c2c9 c164 7c94 c03f
000001a0: 8328 8ada 98cc a0bf 3572 08e1 9460 cfbf
000001b0: 8247 7d8a ea0f c63f 78fa 45d4 fd3d a73f
000001c0: 97d8 04c2 46df c6bf 17e1 ced5 a785 8cbf
000001d0: ec1d 12e2 8329 a8bf c121 2463 36b6 cf3f
000001e0: b1f2 b0f9 519d d5bf f048 8e7a d3ff c23f
000001f0: 236c c90e 3f85 c7bf f359 bd23 e966 c53f
00000200: 7435 e1af feb7 c63f 47a7 cf06 2aee 963f
00000210: f706 18f2 c4db cdbf 0685 957e dfb7 c3bf
00000220: 11ed b141 4aaf d9bf 74ff 54c1 f961 d53f
00000230: 7b45 1f17 ad2b d2bf f9ad c375 56dd c3bf
00000240: 06b9 469e aeb4 d0bf 6bb0 82e6 405f cc3f
00000250: bec9 3016 29a0 d2bf 8554 09fb b7ec b63f
00000260: a47e ea78 47c2 c6bf cd8e 25dc dd1a d6bf
00000270: d6a0 0197 8a6f d03f 805e dd7a 4bc2 cebf
00000280: 6797 a600 19f6 d2bf 6e4b 2998 60bb c1bf
00000290: aa1d 799f b1fd c6bf 8fcf 82e4 104a 843f
000002a0: 416c 4d10 7bc6 c83f 44c2 9cad acbd 74bf
000002b0: e722 9756 3d17 d3bf 6f42 ce41 5398 b9bf
000002c0: ecdd 33b5 fa0b 95bf 83c1 8d0e e219 c03f
000002d0: a705 3dcf 8741 d6bf c9b9 1fee eae3 c63f
000002e0: c8f5 ee3e d061 8a3f 65f0 a655 7448 58bf
000002f0: c5bb 689d 40e6 cabf 5c0a 8c0b c86b e13f
00000300: 034b ed4f 59a6 d03f bbad 23bb 0912 c73f
00000310: 712d ed03 a364 dd3f 067e a9f8 86d0 7a3f
00000320: 1392 d3cd 3c4b c83f 8ca1 7a09 b7ca 913f
00000330: 1544 5c65 66ac 7dbf db9d c580 7a97 d03f
00000340: c053 e011 5991 c13f be98 71f5 d713 c1bf
00000350: 0252 d3fa fe9d c43f 9b05 3982 43cb c0bf
00000360: 6df9 fbbe 6d19 b3bf bc87 656d c901 c7bf
00000370: 8913 d6cc 5277 bc3f 3248 801c b658 d6bf
00000380: 4a38 e77a 387c d2bf ee05 8133 85b0 d93f
00000390: 00a0 c841 e80a b2bf ba92 58b8 2a3f a33f
000003a0: 63fb c548 72a3 9c3f 50b9 75dc 23e4 cfbf
000003b0: e183 47dd 6db3 c93f b90c 0396 a708 ca3f
000003c0: 1bad 9324 1db1 d23f 19f0 db73 5ba7 ce3f
000003d0: 4e80 29f4 2211 e43f db7c f38c 3841 c0bf
000003e0: 93c9 6cb8 3706 d23f 47c2 2b99 cdf8 ccbf
000003f0: 47d9 34e8 e405 75bf 2264 2cf4 2fd3 e83f
00000400: cc78 29ad ad2f a6bf 54ae a212 0a3c c23f
00000410: ddcb 20a2 66e9 ba3f 8521 b6fe fc3f c03f
00000420: 9485 c8de aa28 c7bf 8a0e de13 4156 c13f
00000430: 6b6b 5c83 9944 ba3f 8ce9 5136 24aa d93f
00000440: 6328 16ac 55e6 dbbf c87e 5c8c abb2 e4bf
00000450: b754 38cf 766a b0bf 606c e9a9 137a dabf
00000460: e22f 3d24 449c e9bf e592 8a27 1f61 9b3f
00000470: b87d e412 8262 e63f d49f 0b7a b210 e7bf
00000480: 63d7 35eb ad11 e8bf fd80 4df5 e0be a3bf
00000490: 4d21 6933 420b cbbf 17fe cd6b 3545 d23f
000004a0: 1673 70a6 914b ddbf 5a1a ac9c 6cd4 e13f
000004b0: f6c3 4aa0 e291 c9bf b6b2 f640 be53 713f
000004c0: 7b1f f566 7dcb 8f3f 5964 7163 1a9a 893f
000004d0: d7c7 3ced fdee d0bf f508 c4f0 c157 c53f
000004e0: 2c03 01f0 1dbd d3bf 14f0 4378 99a7 c0bf
000004f0: e4ee 9351 9d94 d03f b90d 062f ce57 d0bf
00000500: 8732 366f 83d9 b0bf e2ac b98c 302a c43f
00000510: 9b67 6c2f ef05 d53f f83d 3082 9619 d73f
00000520: 22a1 842e 11a5 ae3f 2cbf 6376 15a5 ccbf
00000530: 7f77 3382 6df3 d23f 74d5 6e8f b4b7 d53f
00000540: 8b9b 4d72 8f99 d53f bd8d 1801 763b c23f
00000550: 0d85 3dfb 2a68 713f f55b f0c3 6c1a b63f
00000560: 7ac5 f060 31a1 a3bf a557 6046 61cd b3bf
00000570: 76dd 4538 4927 b2bf dff6 4a72 21f9 ccbf
00000580: a8dd 0caa 4e6d ae3f d29b 15a2 cf3e 933f
00000590: 674a b89d b0c3 d43f b9dd 3fc7 1a74 b93f
000005a0: a87e 3964 f836 debf a5f4 9e27 44de ccbf
000005b0: 541e 45db a2e3 cfbf 5a5f cbfe 4ca0 d3bf
000005c0: f59c bd03 3a30 c7bf 048e e33f 3e0b e23f
000005d0: cb76 f71e d03d c3bf 062d 14a7 418f c3bf
000005e0: 5dac 85a6 2bf0 c93f c984 3065 f27a c8bf
000005f0: 31cc 8342 9ba0 d4bf 8a36 6594 cded c53f
00000600: 0cae 6237 1612 cabf ffb1 ef0e fd20 cf3f
00000610: 97e8 8177 d93a c9bf bba9 1168 4a3e cc3f
00000620: 223b 6c43 48be bb3f b36f 72c2 5121 d23f
00000630: dec7 3e65 ede5 d03f e064 d1c9 c518 bc3f
00000640: 3811 6251 8f4e b5bf fdd6 6305 b185 d2bf
00000650: 0d1e dc6d ea20 c7bf 7217 85f1 c738 a6bf
00000660: 012a 05f6 4302 b6bf 7313 185e aecb cf3f
00000670: cf5f 71c1 a88e c23f 3bae b6e9 e984 ccbf
00000680: f5a4 ffdf 8cc4 dbbf 699d f956 1ee9 d03f
00000690: 54f4 daab 795a cfbf 7b2e 9ea6 8aeb b3bf
000006a0: f5a5 e77b 96be f1bf 2c9f 582f 75f7 a4bf
000006b0: cf61 a02b 000e c93f eba2 6288 478d b73f
000006c0: b94f 57cb c248 eebf 9d40 2d4b aed7 f5bf
000006d0: e7b7 a5b3 94cf bfbf 291a 967d 3fb2 cbbf
000006e0: f63d 2a41 d15a d4bf 6bea e061 1349 a03f
000006f0: 45af d553 2d9f e3bf c375 1baa 59dd b33f
00000700: 8f5d 05f7 1317 b93f badf 3c25 6ace f3bf
00000710: 7cf8 4b71 2d15 e53f fe02 9bf9 763d f03f
00000720: 4f60 8141 3a1e de3f 73c1 d8de cee8 f63f
00000730: 2f13 f254 ec2f f83f e7a7 72e6 a93d cb3f
00000740: cf13 8fd7 0af7 f3bf 8390 7698 baf9 f53f
00000750: c293 773f 3eca f33f f36c a8b0 eb54 ef3f
00000760: dcd8 cc01 d12b cb3f dc36 f8b2 f748 d6bf
00000770: 762e fabd 44a9 f33f d225 c31e 48ab f3bf
00000780: 36d2 d539 afd6 ce3f 8823 d2e2 5e33 d13f
00000790: 5489 b15c af9e c6bf 2294 0491 ebed c7bf
000007a0: a85a 56c9 5498 b0bf 4b12 fcab 29c1 c5bf
000007b0: 1f8c 6a33 4885 c6bf 233a 9913 6a24 d03f
000007c0: a04d 2960 7c9c d6bf c769 3734 cb17 cebf
000007d0: b4c6 0f9f ef69 91bf 7552 2e60 fe18 703f
000007e0: 5ecf f398 9a79 c03f 27c3 1061 2dbc ac3f
000007f0: 1816 0e96 f485 b1bf a979 56fa ece6 b63f

linears.3.bias f8 [30]
-0.05537468003930464 0.07042282341437782 -0.07856484720139832 0.03992404393729557 -0.06051293170435051 0.09058290545296986 0.003862613193007891 -0.06811643140191159
-0.07033678577651337 0.09052850885044195 0.053303831811813994 -0.0684555227284032 0.07553105007474165 -0.06382383655873829 -0.15933177061638543 0.06157836005938214
0.05515412290620148 -0.020852261149550674 0.0434086378171883 -0.08349459700057374 0.07842649406399246 -0.017811848539611985 0.006554728371382008 -0.00738110644949203
0.08647513902636163 0.07030129338301937 -0.08126614127286924 0.07794386895245077 -0.025796142552135068 -0.1122815030840299
00000000: 9a2e 97ef 115a acbf a3ec 74eb 3a07 b23f
00000010: d761 5869 d31c b4bf f4ca 119e ec70 a43f
00000020: 277f 4f0d 8dfb aebf 3f46 7ff8 7030 b73f
00000030: 6605 eaaa 7ca4 6f3f 1002 3115 1470 b1bf
00000040: 80aa 9d72 9701 b2bf 9048 de58 e02c b73f
00000050: 2336 c4cc a34a ab3f 135d 5917 4d86 b1bf
00000060: 4c4f e7bd 0056 b33f 939b b94a c256 b0bf
00000070: 566d 01c4 fb64 c4bf f455 31e5 3287 af3f
00000080: 714f 3e44 293d ac3f 2c69 bd8e 4b5a 95bf
00000090: c2d4 932f a839 a63f 1a9a 82e3 e65f b5bf
000000a0: ae10 253b c213 b43f 10f4 d5eb 443d 92bf
000000b0: d4f6 d37f 21d9 7a3f 451a f1ac a63b 7ebf
000000c0: e107 0916 3c23 b63f 5f52 f2fb 43ff b13f
000000d0: c001 0a9b dbcd b4bf 8111 1320 21f4 b33f
000000e0: ec5b 7fd2 4d6a 9abf c40e b107 7bbe bcbf

linears.4.weight f8 [3, 30]
-0.3538093333356825 0.0444686920485261 -0.44587415443145445 0.38355987791059004 -0.2857992146349077 0.2648831126261705 0.1722211431124908 0.14725173225565977
-0.15849918938814356 0.1491884961742133 0.37750371562780266 -0.49525752277388874 0.39518029303653046 -0.5020467589983304 0.33398088280140786 0.2897424798131789
0.20062405365976493 0.20118899109433966 0.24102606754476985 -0.4534283808042784 0.3559951603890792 0.08580305385821242 0.29266317868684116 0.533029551990755
0.15375403201310445 0.39464516970951086 -0.02214463944970028 -0.3827697382380357 0.4664279617590005 -0.12525529393215828 0.17951647632347878 0.2384896488058712
-0.1614169591736336 -0.2995035857926497 0.36331302421860334 0.0539657113472888 -0.13217418986137058 0.6201018946007772 0.05010144895310462 0.43308160016336567
0.20151173042074685 -0.1458520515403087 0.3954373915890665 -0.48356575177830147 -0.21432677968386546 0.06038481644844738 -0.02380783555248798 -0.9258878347329877
0.29670364233123325 -0.1943321465551073 0.29916651936572286 -0.2716019007375559 -0.1278582766237084 -0.21420296336336675 0.005561475367984989 0.4450798081319119
0.23070244407887025 0.08630827815234751 -0.509107215636481 -0.4558654535478146 -0.0021377953475394773 -0.025810037485300856 -0.0775255656909219 0.33770578552617025
-0.4977906281851296 -0.09742732191508384 0.24551260836450542 -0.6142885522946798 -0.09113480107236603 0.16659633010654726 0.2352812663985998 -0.16684303335291512
0.06757977974453316 -0.40417596290880875 -0.46093199194856654 0.2273672246506295 0.2914255701325128 -0.19619343532470787 0.279148068973966 -0.19610702504386393
0.48881754755940715 -0.17625911881026857 -0.298251552159747 -0.45523391457600604 0.2308944148975135 -0.24087194840744142 -0.27804375884617516 0.20145661758757413
-0.4369018800426652 0.267421285713691
00000000: 7d90 ece6 cfa4 d6bf 6fb0 16b4 99c4 a63f
00000010: 458b dabf 3389 dcbf 59c2 ebba 3e8c d83f
00000020: 1b15 05ca 884a d2bf 5a7e 7f4c d8f3 d03f
00000030: 7387 aca8 570b c63f cba0 280f 25d9 c23f
00000040: c8aa 6e91 b349 c4bf 3dfb 00d0 9b18 c33f
00000050: 775a 2f58 0529 d83f 615b da9b 4cb2 dfbf
00000060: e865 a748 a24a d93f 6cbd 5e5d c410 e0bf
00000070: a7c2 475a f15f d53f 90cf c30a 248b d23f
00000080: de3b a18a 0cae c93f d15f 8894 8fc0 c93f
00000090: 8c4c cb32 f1d9 ce3f ae7c a878 f804 ddbf
000000a0: 94f1 d9ec 9fc8 d63f 81cb 375e 30f7 b53f
000000b0: 4b04 4d57 feba d23f 2542 b3fd 930e e13f
000000c0: 04ed 8f4d 36ae c33f 5d4f 5bd0 dd41 d93f
000000d0: 0b69 df98 15ad 96bf bf5f e8a4 4c7f d8bf
000000e0: 5a78 6caa f4d9 dd3f 5074 8b8f 5d08 c0bf
000000f0: 1c85 7359 65fa c63f 9022 072d d486 ce3f
00000100: b7d3 5598 4fa9 c4bf 02e8 8016 112b d3bf
00000110: 58b4 4e45 8540 d73f 3318 afca 64a1 ab3f
00000120: 8e39 6a77 15eb c0bf 6eef afed dfd7 e33f
00000130: 7dba 78a9 e5a6 a93f 3fdd 4ce3 9bb7 db3f
00000140: db6f f5e9 22cb c93f e5c6 b5af 47ab c2bf
00000150: c365 1fa2 d84e d93f 119f 56c4 bdf2 debf
00000160: f718 b356 0f6f cbbf ed5f a437 c2ea ae3f
00000170: ba8e 58cc 1461 98bf 6e28 3e86 dfa0 edbf
00000180: acab 1a46 31fd d23f 4f01 0233 e0df c8bf
00000190: b7f8 2e54 8b25 d33f 5dc0 4cf0 ec61 d1bf
000001a0: 7895 4ff6 a85d c0bf 940c 2db1 006b cbbf
000001b0: 6307 2b2d a1c7 763f 4956 0205 307c dc3f
000001c0: b687 365e a887 cd3f d6d4 09a0 4c18 b63f
000001d0: 2d1f 2a37 9b4a e0bf f04c 974b e62c ddbf
000001e0: 579a 4d23 4883 61bf deb0 a14b f26d 9abf
000001f0: ac14 3f29 b7d8 b3bf 2450 20ba f89c d53f
00000200: 0bde 1339 cddb dfbf cfb5 5c39 fff0 b8bf
00000210: c931 d707 f56c cf3f f335 4d77 40a8 e3bf
00000220: 7f1e 223e 9c54 b7bf 937a b84e 0753 c53f
00000230: c48f 4550 b21d ce3f 7e79 e8cd 1c5b c5bf
00000240: bca7 df8f e84c b13f fa72 a1db 04de d9bf
00000250: c359 c6e5 e87f ddbf 3743 0785 5e1a cd3f
00000260: acfc 3b6f b7a6 d23f df6a 34d2 dd1c c9bf
00000270: eb05 bfdc 8fdd d13f d124 8af5 081a c9bf
00000280: 07a1 1e65 c948 df3f 8cb8 74a7 a88f c6bf
00000290: 7378 a0ad 8d16 d3bf 8493 c86d 8d22 ddbf
000002a0: 142d 68bc f28d cd3f 7485 775a e4d4 cebf
000002b0: 9a7a c60c 78cb d1bf fbfa 0c98 54c9 c93f
000002c0: c106 964d 33f6 dbbf b740 192b 6e1d d13f

linears.4.bias f8 [3]
0.07950918062244537 0.06851905036665729 0.06220407260019753
00000000: 2752 81b2 b65a b43f 204f 7ae8 768a b13f
00000010: 1ce1 fd52 36d9 af3f

step f8 []
29000.0
00000000: 0000 0000 0052 dc40

exp_avg f8 [30, 1]
-0.010457288884645062 -100.93644405535173 -0.0005770175106869792 -0.007562128097791846 -0.00020615309578501996 -0.010759272570352345 0.045803657074357906 -0.002185225594400392
143.14650063294377 135.55882762336606 -0.007172437122886249 171.77908338587895 -110.51673873505497 -0.003375431695454888 -0.0028766338122755974 0.002192287956370237
-0.0010943749346930926 0.031271277516021545 120.20272378912892 0.007928209294388264 0.008129562020169383 0.014477886800199492 -0.0034556415399443273 -166.6704778973127
0.02703281331294057 96.34375711434181 0.02240150685795482 -0.23643347730685868 0.008676632499888043 -0.0019241313945947069
00000000: 9170 1d8e a16a 85bf 3c11 0cb3 ee3b 59c0
00000010: 0c21 37ab 5fe8 42bf 510f e44d 77f9 7ebf
00000020: 15d6 d59b 5905 2bbf 361c 8c1e f508 86bf
00000030: 88d7 57b2 9373 a73f 276c cb0e c0e6 61bf
00000040: c76a 1822 b0e4 6140 adce 77ea e1f1 6040
00000050: d3b0 016e d860 7dbf a0e6 4740 ee78 6540
00000060: cde8 573f 12a1 5bc0 6452 bd17 cba6 6bbf
00000070: 806b ae04 bd90 67bf a7cb 6ea2 8ff5 613f
00000080: b1dd 7523 24ee 51bf 408d 78f4 c902 a03f
00000090: 841b 336d f90c 5e40 25f9 143d aa3c 803f
000000a0: 1638 0f58 3ba6 803f 548d 9312 95a6 8d3f
000000b0: 8f06 d36c 014f 6cbf c434 108e 74d5 64c0
000000c0: d54d 6464 7dae 9b3f 63f7 d61d 0016 5840
000000d0: bc19 58ad 6bf0 963f bb33 5bc2 7343 cebf
000000e0: 4387 9ce6 0dc5 813f 6172 6e5a 6486 5fbf

exp_avg_sq f8 [30, 1]
0.0020295673112540845 11115239.54789377 1.0511701390887193e-05 0.00652726273620248 0.0002638671853374694 0.015428923761844798 0.1014491579954799 3.255513178050008e-05
22550450.12896052 20354948.818153962 0.0033735104724734876 32977631.791883416 13251151.34052609 0.0008645573786843507 0.0007164188854777461 0.00496474382336457
0.000550828567288047 0.05497617661072939 15691778.992501052 0.002227086399577152 0.006618463035168726 0.0026215392990261723 0.0024997427672862702 30373612.424370375
0.03021758661195905 9947045.519232053 0.04867638760688817 70.5894316565539 0.011776845321611138 4.9365224220326855e-05
00000000: 787e 42a7 4fa0 603f 8458 88f1 5c33 6541
00000010: 190f 063d 6d0b e63e d00e c0bf 54bc 7a3f
00000020: 1092 77ee f44a 313f 03be c117 3399 8f3f
00000030: 5e1d cc6f 92f8 b93f 2bd4 7dcf 7911 013f
00000040: e838 1022 7b81 7541 9c28 174d 7869 7341
00000050: 2114 dda4 c3a2 6b3f f28d abfc 2d73 7f41
00000060: f896 e5ea 4946 6941 091a 5fd5 6e54 4c3f
00000070: 1b76 78d7 c179 473f a67e ab45 e955 743f
00000080: c87b 5257 af0c 423f ef53 3461 d625 ac3f
00000090: 9191 c25f 00ee 6d41 1fb3 0ce8 893e 623f
000000a0: 47c7 9224 f61b 7b3f c36e be31 c479 653f
000000b0: 1491 e22d 577a 643f 9738 cac6 6ef7 7c41
000000c0: 9eb5 0ce9 5bf1 9e3f 8a8c 9db0 f4f8 6241
000000d0: 6dcf b789 1cec a83f 1208 8e3f b9a5 5140
000000e0: f20b 0d6c 751e 883f cddc 4d30 b0e1 093f

step f8 []
29000.0
00000000: 0000 0000 0052 dc40

exp_avg f8 [30]
-0.004425228114626648 -1.4782060956571734 0.00010290668850746826 0.0009002988361093851 -0.001106935742063358 0.00211137190656516 0.003983470730622158 -0.0014963205885977799
2.0873934431872776 1.9767821110756745 -0.004790155976667539 2.5018454442185276 -1.6173520823980876 -0.001991380870840429 -0.0013704790920365494 -0.0017101720415314036
-0.0017473549954530175 0.002445464883551202 1.7586074465350183 0.0038893747804880398 -0.0003454735277825194 0.0009439379245019677 0.0013636569223706453 -2.431664948786172
0.00026848298115981286 1.410494007845889 0.00037214209207333805 -0.00031558355111126077 0.006331102304887632 -0.0015076023196870369
00000000: 047e 7920 3020 72bf ca86 596f bba6 f7bf
00000010: 9c0a 5c72 f3f9 1a3f 8b42 6307 4180 4d3f
00000020: 7e5e e633 d322 52bf c77e 3a29 de4b 613f
00000030: 3a97 33c8 f850 703f 0dcf 82ff 0584 58bf
00000040: 58fe 6255 fbb2 0040 ae34 6647 e6a0 ff3f
00000050: 7c4e 33b4 d79e 73bf 7785 548b c703 0440
00000060: cb46 c093 ace0 f9bf 613b da76 3a50 60bf
00000070: 705b 54b8 3474 56bf 1451 4a3f fb04 5cbf
00000080: bd98 d623 f0a0 5cbf a709 59f6 8208 643f
00000090: 68eb d58f 4123 fc3f 489c 7d2f 9cdc 6f3f
000000a0: 9abb e280 15a4 36bf 87bf f141 53ee 4e3f
000000b0: 8b66 9c78 9757 563f d2ed aec0 0c74 03c0
000000c0: 732a a59f 6598 313f d76e 2e2a 6291 f63f
000000d0: cb65 6b1d 8263 383f e94e fb07 9dae 34bf
000000e0: 6ed0 8d55 a4ee 793f bdb5 23aa 57b3 58bf
