1D_Transcritical_Inverse_Problem_n_initial_0_01/Models/Model.ckpt-500.pt (torch, 82335 bytes, 43 tensors)

linears.0.weight f8 [30, 1]
0	0x3fd8318763366087	0.3780230015631862
1	0x3f992ef8e23371a3	0.024593247228823178
2	0x3fd3c497de2db848	0.30887409875038374
3	0xbfd4382eec691777	-0.3159291561790875
4	0xbfd394f29d625e9c	-0.3059660469966532
5	0x3fc3bc5691099471	0.15418512422471367
6	0x3fc72a8582f7d1a8	0.18098515410350768
7	0xbfd8e46a4adb0f95	-0.3889413577091941
8	0xbfa3239125c4b37b	-0.037380729542156176
9	0xbf964786aa7f18a9	-0.021757225185660065
10	0x3fd74ad16cc682b9	0.36394153235054777
11	0xbf894cbb6bd2e536	-0.01235338614275126
12	0x3fcab36475df138a	0.20859962230147416
13	0x3fc33aa25e35ec45	0.15022687530640347
14	0xbfd2ab41ece0faaf	-0.2917027295369889
15	0xbfc13e24ff0c66da	-0.13470900014436077
16	0x3fd94946aa269693	0.3950974141720078
17	0xbfc1444311982ae7	-0.13489569052793302
18	0xbfa654b17f42a416	-0.043614908966738294
19	0x3fd949859caedbc1	0.39511242199972335
20	0xbfb9a08a97907ec1	-0.10010591697982375
21	0x3fda35d9144544e8	0.4095366189913663
22	0xbfc364b3ca93f6cc	-0.15151069060805467
23	0x3f8634beb111ebed	0.010842790392635105
24	0x3fc5cefcce8e0c33	0.17037925801932516
25	0xbf9e870e96b4e3cc	-0.029812076519394812
26	0xbfcdae5802c0f6e0	-0.23188305029355316
27	0xbfc7eeb70dbc3883	-0.18697250528970608
28	0x3fd235c1d829a32e	0.2845310793841688
29	0xbfd837739d510314	-0.3783844982427109

linears.0.bias f8 [30]
0	0xbfa993738c3578d8	-0.04995308958562966
1	0x3fa42aa36402bb11	0.03938780399163567
2	0x3fabd3dcb9e1d02b	0.054350755396541515
3	0x3fac00251db1443c	0.05468860614258417
4	0xbfa9b260b5113028	-0.05018903932850122
5	0x3fab5dd00b0f7b4b	0.05345010886207165
6	0xbfa62d1dae9a6150	-0.043312957347725445
7	0x3f9eafa3989c92cb	0.029966884793924103
8	0xbfa8e7e1d3fb41af	-0.04864412033714715
9	0xbfa6b51951c0152a	-0.0443504249852061
10	0xbfab575393f6803e	-0.05340062314212489
11	0xbf9b86cf371125c2	-0.026881444679281115
12	0x3fa76b08cfe478a9	0.0457384828352912
13	0xbf8d745d96ea857d	-0.014382105987638333
14	0xbfa8e428d6f19615	-0.04861571906876009
15	0xbfac8916f4bccf61	-0.055733411193073186
16	0xbfa9906b62e1163c	-0.04992995817205467
17	0xbfacb4e5c48f4162	-0.056067638629999875
18	0xbf97e4630acbb95e	-0.023332164319918795
19	0x3fa5e22af1434a92	0.04274114794829588
20	0xbfa85d409aae529c	-0.04758645904727141
21	0xbfa324103ef3214e	-0.037384517368595924
22	0xbf99cca21897b9ea	-0.025194676161783315
23	0xbf99cb58f992a6b5	-0.025189771874159123
24	0xbfaa3df90a6023c0	-0.051254065052553255
25	0xbfa297ad743e6471	-0.03631345790854191
26	0xbfa1761696e78590	-0.034104066773362196
27	0x3fad085143fd8010	0.05670408205946853
28	0x3fa952df15a71ce4	0.04946038379017084
29	0x3fa3283dd32b8fe5	0.0374163933063583

linears.1.weight f8 [30, 30]
0	0x3fbc8ea2277c2e89	0.11155141319266638
1	0xbfcfb7f45d365dd0	-0.24780134726891712
2	0x3fc85ed7067857b5	0.19039428535387307
3	0xbfcb1b10131d155d	-0.21176339085847476
4	0x3fc9e74732b8525e	0.20237054802477678
5	0x3fbc981dbd274976	0.11169610851292142
6	0xbfc9a6a44416e196	-0.20039799999882452
7	0xbfc42cbcabf42f78	-0.15761526485618638
8	0xbfcb69116c654a08	-0.21414392273671035
9	0xbfd326a640ca6d6c	-0.29923397376270233
10	0x3fa11a580dbb1ca7	0.03340411346067045
11	0x3fcc385236677a77	0.22046878487067875
12	0x3fcc49f814b3073f	0.22100735674580993
13	0x3f871c6545e4231d	0.011284629054459533
14	0xbfce0dd4e7daaef0	-0.23479710885054983
15	0x3fc7ee603e3f770b	0.18696215667198887
16	0x3fb389e7147d1bc3	0.07632297754490396
17	0x3fc965165d03ad40	0.19839744130818282
18	0xbfc97fb4b7cceb1a	-0.19920977568275405
19	0xbfcf44767ce057a8	-0.24427682015874308
20	0xbfcd53a1586e7309	-0.22911469285909217
21	0xbfb414dc7b51cd79	-0.07844331751566881
22	0xbfcb5a2b68551658	-0.21368925661424742
23	0xbfc5d7bc3bb4c684	-0.17064621844615513
24	0x3fb2bba9ffde23cf	0.07317602631350371
25	0x3fc1be0f36cb2ee6	0.13861265349839086
26	0xbfc6132887d367db	-0.17245966560477552
27	0xbfd0af3a67ae7911	-0.26069507718229185
28	0x3fc6178a035fb0c1	0.17259335674987678
29	0x3fa71f916502cc38	0.04516271932643473
30	0xbf8903a0d9503bd7	-0.012213951713446676
31	0xbfc8653f1827b7bc	-0.1905897968239837
32	0x3fa9f2f8f2244386	0.05068185764151338
33	0xbfd50f2af49b57c6	-0.3290507687319145
34	0xbfc47c0ae2c79917	-0.1600354773829131
35	0x3f4afc67b5fe0e61	0.0008235460663716493
36	0x3fd0c896ba326959	0.26224296744626013
37	0x3fbd47dca07064b9	0.11437777440041232
38	0xbfca195d47d06d69	-0.20389905935813182
39	0x3fb74affdef6f9f2	0.0909881514880693
40	0x3fc885c85db40bc0	0.19158272338253646
41	0xbfd338c31cb7fb61	-0.3003394871192793
42	0xbfa6b7b47a9fc0bd	-0.044370307892565
43	0xbfc78f520d64763c	-0.18406129506995395
44	0xbfb17db9dfa7e64b	-0.06832467756603326
45	0x3fb6b0f63795e11f	0.08863772255961465
46	0xbf968fbaba0f2ef5	-0.022032659155043672
47	0xbfd1cc1af1b706bc	-0.27808259587264295
48	0xbfa3f8a5f81715a6	-0.03900641110844143
49	0x3f8b21e50f068d79	0.013248242875141912
50	0x3faa9e03c2a45c90	0.05198680640222009
51	0x3fb1e9ad2ad077e0	0.06997186942359646
52	0x3fb2f14bfb8cc406	0.07399439708093788
53	0x3fc38e1874f3fda1	0.1527739115772251
54	0x3fc96af13988e655	0.19857611951174428
55	0xbfb78fd13438c653	-0.09203822636552532
56	0x3f841e294b8eb02d	0.009823153131797902
57	0x3fcd0937391e00d4	0.22684374131131924
58	0xbf732d3705a96990	-0.00468179219259425
59	0x3fc2f0932ebbef6d	0.14796676427783542
60	0xbfcde6d5f24614ac	-0.23360704736493199
61	0xbfaf57c3ce8f5431	-0.06121646782381907
62	0x3fc5d5185fc0a87d	0.17056564975183966
63	0x3fc057d2f3b8cefc	0.12768017673953824
64	0xbf66486675174617	-0.0027200699921443683
65	0xbfc36d086e9b7266	-0.15176492119543922
66	0xbfc0f51e1335a3ee	-0.1324803918644472
67	0x3fbbd541cec5652f	0.10872279451486543
68	0x3fd226be911575f9	0.28361477058737666
69	0x3fc96ce07f59a3d3	0.19863516062039696
70	0x3f9a0b2da2ea26f4	0.025433266705056704
71	0xbfc1ed8709470393	-0.14006126358983959
72	0x3fa20366e2ee5840	0.03518220443872666
73	0x3f9b91b6fa3ebd5c	0.026923045181033486
74	0xbfc7e86a86210385	-0.18678027676835654
75	0xbfa2f194dd75f854	-0.03699937060717731
76	0xbfb065b1d07992f6	-0.0640517362567826
77	0x3fd3a68676a67033	0.30703889452866234
78	0x3fd46aad8b021344	0.3190111024380722
79	0x3fd004d502c7ce6e	0.2502949263718851
80	0x3fd0b0944fe839c6	0.2607775478690225
81	0x3fc53cc5ccff5e4e	0.1659171343769565
82	0xbfcdf1dcacbafaa3	-0.2339435428056805
83	0x3fd0a14d577c6ca6	0.25984509986455817
84	0xbfce3954689c4ee9	-0.23612456424654418
85	0x3f8404f7175d126a	0.009775095367907844
86	0x3fd1ef2928c4605c	0.28022221547280934
87	0x3fc7a825281793c7	0.18481888253805165
88	0xbfccaf52e8c6d6c0	-0.2241004597287226
89	0x3fa6180f036f14d5	0.04315230290334574
90	0x3fbbc64489cf180d	0.10849407543636876
91	0x3fb635a9d8e0358d	0.08675633950061563
92	0x3fbb3b792638db0b	0.10637623961597968
93	0x3fcd41ce117889e4	0.22857070782727285
94	0x3fc4592cf21d94d2	0.1589714224057049
95	0xbfb7f3f22f40464a	-0.09356607106772077
96	0xbfc71fe71e7170d4	-0.18066109644394734
97	0x3fcf067964c19a34	0.242385076711075
98	0xbfd32f02e9a32905	-0.29974434677264156
99	0xbfc79cfb503b094a	-0.1844782010794666
100	0xbfd028497528d001	-0.2524589199194907
101	0x3fc954dd917025e4	0.19790238954037342
102	0x3fd55f64e2d3db9b	0.33394739295129633
103	0x3fca1550961f2115	0.2037754757896059
104	0xbfb0e526636a6da8	-0.0659965508188437
105	0x3fbef09a6070b361	0.12085881094453789
106	0x3fc80545e9d6ebba	0.18766092222162262
107	0xbfabc2cd8db94b6b	-0.054220603513974584
108	0xbfb31f89a4f4d7c0	-0.07469997670418049
109	0xbfcf5f2467ef349c	-0.2450910098545237
110	0x3fb71f84e2c3a744	0.09032469307171903
111	0x3fca5e11756a2931	0.20599573357714854
112	0x3fa2b63f2c2e5aac	0.03654668249435153
113	0xbfb522c1d9aa02f7	-0.08256160320344096
114	0xbf80f04f54e4b19a	-0.008270854738463385
115	0xbfd19c12d2b38247	-0.27515097214021406
116	0x3fb1a07e8a617f26	0.06885519865454323
117	0x3fcc707bb953a721	0.22218271779211654
118	0xbf86a5d0b9d84e67	-0.011058455153978032
119	0x3f9fa4d2f19df0ca	0.03090219115937102
120	0x3fd131198bc6a8e3	0.26862181329728524
121	0x3fc8a29ab0ff5c3d	0.19246228830772508
122	0xbfd30fd8eea3006c	-0.29784224800460524
123	0x3f935ad68fa677a9	0.018901207463947554
124	0x3fcd591cda777fc8	0.22928200404476073
125	0x3fb2b5552f33d323	0.073079418205293
126	0xbfca4aab230a7f36	-0.20540370188700202
127	0xbf9f9c83b1d0e09e	-0.0308704926758031
128	0x3fd4301ff10603da	0.31543730294657524
129	0x3fcbcbb1ceafd49b	0.21715376464968447
130	0x3fcbb58cb121d8ec	0.21647795342477794
131	0x3fcd73e0e2c31ab6	0.23009882995957803
132	0xbfd404ccb1718311	-0.3127929432721866
133	0x3fcbdfe9c0f81de6	0.2177707855446293
134	0x3fceaf21ca2b2f4f	0.2397196042205629
135	0x3f99cce24b933641	0.025195632803663996
136	0x3fd038c20919a98c	0.25346423042960775
137	0xbfd0332b17ef82d6	-0.2531230672594068
138	0x3fc01316b67af4e1	0.12558254156275608
139	0xbf98a17f8b78c9df	-0.02405356682556625
140	0x3f917eaf8c6c25cf	0.01708483023234014
141	0xbfa66c74a4c968ea	-0.043796200862475335
142	0xbfd0e7074c8437b6	-0.2641008612853243
143	0x3fd1f10292533a4b	0.28033508576928473
144	0x3fa1ad06aabea7ac	0.03452320894514513
145	0xbfb29c1796a3cbc0	-0.07269427707414788
146	0x3fb0f044d3b86d47	0.0661662117858458
147	0xbfc3d77ce6779de0	-0.15501366856845689
148	0xbfc14c1e2c51a321	-0.1351354328537804
149	0xbfce2907341e6bed	-0.23562707943787534
150	0x3fa7bab1c219b87a	0.046346239990143936
151	0x3fc82af905fcf7a5	0.18881142418279953
152	0x3fbecf1dabee21cf	0.1203478379012559
153	0x3fa8f443e3303107	0.04873859546941799
154	0xbfc78c07b43b741d	-0.18396087932970398
155	0xbfcb84789d46dbf3	-0.2149801986649603
156	0x3fc194b088498ec6	0.1373501458611967
157	0xbfc1d3e0e7533086	-0.13927851958431264
158	0xbf9d58c37c87be05	-0.02865891883442197
159	0xbf8db16ff200e940	-0.014498591015684625
160	0xbfb9e6675f20bf50	-0.10117193291148152
161	0xbfc3f6de50d37732	-0.15597132631858696
162	0xbfc226e194e56640	-0.14181155939404455
163	0x3fbc20b7bbee61d6	0.10987423265613158
164	0x3f69de02f823e2a6	0.0031576211923688034
165	0xbfb50b882ef2f14f	-0.08220721384254158
166	0xbfd3648c8b1c70fe	-0.3030120237833812
167	0xbfc260ecee1618eb	-0.14358293175991518
168	0x3fc1d1fd5b61ea52	0.1392208763316654
169	0xbfa6d26bbbf74812	-0.04457413358217378
170	0xbfc2be9ae41e099a	-0.14644180429975223
171	0x3fb9a4f0f9b06491	0.10017305465625471
172	0x3fc898207d8c44b8	0.19214254503507333
173	0xbfc54d3ce7ecab64	-0.16641961407125472
174	0xbf90263e3608133f	-0.01577088551313754
175	0x3f96113063242172	0.021549945880026518
176	0xbfb80c2dcf64f043	-0.09393583596551118
177	0x3fb951c68a39f38e	0.09890404581706333
178	0xbfc63ecf3810c595	-0.17379179227422684
179	0x3fb5313b7d59cc82	0.08278247652360629
180	0x3fb57c9dd3ab254a	0.08393274705590162
181	0x3fc9b4590334c4ae	0.20081627518223882
182	0xbf9cd2471f894978	-0.02814589624387895
183	0xbf9f486c21e5e4e8	-0.030549707001658627
184	0xbfc429427a30f196	-0.15750914541594047
185	0xbfc774bfb5b2a0b9	-0.18325039264641932
186	0xbfa367566e16e3ed	-0.03789777845253881
187	0xbfc3f8c42e87db0c	-0.15602924606329116
188	0xbf971ab979416b3a	-0.022562883401728608
189	0x3fd1d73425ac5d04	0.27875999144585273
190	0x3fc9c6d390d774b0	0.20138020107598242
191	0x3fc498ce20a2097d	0.16091324418455236
192	0xbfcc731f34abe9ee	-0.22226324149944737
193	0x3fc98586f62047ab	0.19938742654681837
194	0x3fcc6091b4cf93c2	0.22169705704359727
195	0xbfc43f4ad952e9c2	-0.15818153010861918
196	0xbfc6a99259a31741	-0.1770499169999145
197	0x3fbb2107d3af9dd9	0.1059727565585641
198	0xbfb68f5fb8b75f93	-0.08812521228480667
199	0xbfbfcc9defa05608	-0.12421595669032837
200	0xbf971af3681f41f3	-0.02256374667178025
201	0xbfd0cb08dfc87b7c	-0.26239225248166753
202	0x3fc6d18f242e60e4	0.17827023760469907
203	0xbfc039c4e197504f	-0.12676297202290462
204	0x3fcacf43ab0c1e01	0.2094502053443961
205	0xbfc05446973f652f	-0.12757189164293822
206	0xbfd1250a9e337981	-0.2678858323032714
207	0x3fb2b26f2174e55b	0.07303518835842253
208	0xbf97c836ec42ea35	-0.023224695368052124
209	0xbfbab17fa1fd04fd	-0.10427091316980248
210	0xbfb84281e02b0f21	-0.09476482127052722
211	0x3f7d125ee728a7d2	0.007097597803786786
212	0x3fcd3f23d0493485	0.22848937673771644
213	0x3fbbfeaeb32258cf	0.10935489533798946
214	0xbfcd7f797aa46959	-0.2304527138556505
215	0x3fd05fa598786ac2	0.2558378209084077
216	0x3fc29346dd791a4b	0.1451195317660726
217	0xbfbfb70a747cfa73	-0.12388673156690704
218	0x3fd224fa3ecc286c	0.2835069287544971
219	0xbfc29a9297f1a325	-0.14534218234191446
220	0x3fd27d546072b71f	0.2888995115161936
221	0xbfb0145c2bcc74ec	-0.06281066960623932
222	0xbf8b5dd2a14d2932	-0.013362546489265801
223	0xbfd1589bee7200bc	-0.2710332706992735
224	0x3fa9e14950298844	0.050546923671177996
225	0xbfc1353f3ae1aafd	-0.13443746924470892
226	0xbfc89bf883bb6f36	-0.19225984985575345
227	0xbfb0f0c594b74b87	-0.06617388611566187
228	0xbf961e76cd753fc2	-0.02160058621421946
229	0x3fc7cf89c1b3c462	0.1860210605441664
230	0x3fb480873e1751bb	0.08008618608375333
231	0x3f9784340e818b39	0.02296525324380669
232	0x3fcad1d5a0d3f9ac	0.20952864029818608
233	0xbfc03161387ee3a8	-0.12650695093705377
234	0x3fcdf050c9bb7b46	0.23389634943210974
235	0xbfd02622d4a08512	-0.2523276401935429
236	0xbfd11c42043f3706	-0.2673497239564856
237	0xbfb557cb5987da90	-0.08337088523681246
238	0x3fd1f790ffc520ee	0.28073525407354694
239	0x3fc06c1e426766c5	0.12829950563791762
240	0xbfd08735cb3397e4	-0.25825257152462044
241	0xbfc2acc02d423f55	-0.14589693269635498
242	0x3fc5a4c933e1c6f9	0.16909136803911176
243	0xbfa933adf6f9b43d	-0.04922240867458825
244	0xbfcef65466c1862a	-0.24189238564854182
245	0x3fbc602b8e07458d	0.1108424398182903
246	0xbfc3f3e3643e838d	-0.15588037867294383
247	0xbfbb6828c42af06d	-0.10705809392215011
248	0xbfd03e72bf4291b6	-0.2538115375303066
249	0xbfb0081a6d2a990e	-0.06262364545054686
250	0xbf96d2a792c9600e	-0.02228795846380654
251	0xbf6f202c2659001d	-0.0037995207119650002
252	0xbfd33399a31a8f9e	-0.3000244229135606
253	0x3fb7c2165a192532	0.0928052873579375
254	0x3fb9983a1084cd7c	0.0999790468529706
255	0xbfc13f8f69e50628	-0.13475220366130825

linears.1.bias f8 [30]
0	0x3fa7171cd8bce7a8	0.045098210770859126
1	0x3fa039c29a6c9d29	0.03169067511617591
2	0x3fa63ea4c0ef99af	0.04344668250250849
3	0x3f7556945a414456	0.005209521772557476
4	0xbf9c5aa83c1be1a7	-0.02768957964778598
5	0x3f9b6def03fe1968	0.026786551111876916
6	0xbf92d046cda54639	-0.018372637082683083
7	0x3fa42b0e1f8c8630	0.03939098487013515
8	0x3f9934f143e47954	0.024616021889522458
9	0xbfa6b2101e9090d3	-0.044327262621921236
10	0x3fa07223faf7417f	0.032120823274115466
11	0x3f99fcb82502fe9f	0.025378110178961518
12	0xbf99fefa680a0c33	-0.02538672695164852
13	0x3f9a31e62d67cea3	0.02558097507603797
14	0x3f95fdc1e294b5df	0.021475820021057742
15	0xbf85f9e4f8c7aeff	-0.010730542032397759
16	0x3fa3f9d86ab40738	0.03901554396180845
17	0x3fa23aa5660ec0c5	0.035603684147078186
18	0x3fae5b258399152b	0.0592891429082932
19	0xbf9e8eebdec842a5	-0.029842076752233954
20	0xbfa0e52dfd07a6d6	-0.03299850190871971
21	0xbf9758bd5233e401	-0.022799451963667398
22	0x3fae3d725667c2c7	0.059062550590061096
23	0x3f97b6c2e5a2193d	0.023158116594026657
24	0xbf9b3648e6fb8677	-0.02657426748090194
25	0xbf99bee2a85636fd	-0.02514223244138857
26	0xbf9d201ec380e7fe	-0.028442841227139574
27	0x3fa2e4c1d1185871	0.03690152814321913
28	0xbf9d50300f04c2ab	-0.028626204411184613
29	0xbfa1c203c56444cb	-0.034683339925445

linears.2.weight f8 [30, 30]
0	0xbfc4aa71f2d0e139	-0.16145157200095087
1	0x3fc294a34610926b	0.14516106530313108
2	0xbfd31e503d1aa8e6	-0.2987251850814928
3	0x3fcb0870f13bc566	0.2111951043985229
4	0xbfd388fdcd017afc	-0.3052362920770262
5	0xbfc4b0fd1b383c59	-0.1616512663754033
6	0xbf9212e8a5740ead	-0.017650256250830654
7	0x3fc8f78bb3486953	0.1950544953732086
8	0x3fcdaf0247bdd225	0.23190334799768766
9	0xbfc7d740c8bb0a82	-0.1862565021638894
10	0xbfbf0b0a81811159	-0.12126222287867473
11	0x3fb9c878b9e1b120	0.1007152036488077
12	0xbfd2623f2abbdfa2	-0.2872465054820116
13	0xbfceac1be3e0ef79	-0.23962734820258527
14	0x3fb80f01cda97baf	0.09397898932500824
15	0xbfce0686b4a220df	-0.23457416362749137
16	0x3fa6854c262cf777	0.043985728893388414
17	0x3fcea1baf2e78ea9	0.2393106161172132
18	0x3fc4ff73242697e0	0.16404570832418042
19	0xbfa3cefef4fd575c	-0.03868862858386876
20	0xbfbcb77eb45391f7	-0.11217491056920169
21	0xbfc54750282c0418	-0.16623880349655518
22	0xbfd26ded958d7fc4	-0.28795947651633136
23	0xbfbcde36beaf9482	-0.11276571422020434
24	0xbfc888406ff57b1d	-0.19165807215446132
25	0xbfc34411f0d8f2f7	-0.1505148340237594
26	0x3f73f896cb26cc0b	0.004875744855257667
27	0x3fd054b93a51e690	0.2551711148767959
28	0x3fb08655e71412da	0.06454979793131646
29	0xbfcb5904438c829e	-0.21365407274517606
30	0x3fc36e1ec5525ca1	0.15179810175752542
31	0xbfc6407d461ec9b1	-0.17384305881348674
32	0x3fce8c3f9f7f414c	0.238655045394362
33	0x3fc93d43cb806d98	0.19718215405087558
34	0xbfcbf1d2fd48fe36	-0.21831738822400987
35	0x3fba115ba7cb09af	0.10182736250411638
36	0x3fbf38952d05e049	0.12195713376229479
37	0xbfc7ddbfe31343bd	-0.18645475948008353
38	0xbfb80638d277a6f6	-0.09384493959774062
39	0x3fb41fadb0b91ad8	0.07860837521102881
40	0x3fce355e73846dde	0.23600369110577807
41	0x3fc770e60e0a1a50	0.18313289342423156
42	0x3fd15dcdaebb5547	0.2713503080716077
43	0xbfd11ec049ba659e	-0.26750189971934357
44	0x3fcea808f6383c9c	0.23950302145428715
45	0xbfb9af613f394c7d	-0.1003323344569242
46	0x3fc2d5d2f360e30c	0.14715039142335973
47	0xbfb30c7d157c2c18	-0.07440931105172444
48	0x3fa3977d2d2517df	0.03826514412007475
49	0xbfa27cde960d0e30	-0.03610892850568026
50	0x3fb1e7d7abc25713	0.0699438852628556
51	0xbfc9c81408ff292a	-0.2014184040002161
52	0x3fbd158011a90292	0.11360931807667843
53	0x3fcb938ef43c8070	0.21544062543489728
54	0x3fd02ec679a4ba8b	0.2528549373554731
55	0xbfc1b85a60a285cb	-0.1384385082101701
56	0xbfcac5ad8316e58d	-0.20915764714099475
57	0xbfce8744bde4a98d	-0.23850306770448207
58	0x3fabee53c6404c8e	0.05455266757066922
59	0x3fc7484088d9fe67	0.18189245874599466
60	0x3f7d729931eaef44	0.007189367692884311
61	0xbfc304fddeced54b	-0.14858983401578948
62	0x3fbfb29b9ddea996	0.12381908992998655
63	0x3f629e9bcbffda0a	0.0022728960902853633
64	0xbfd4727e2f1b9a31	-0.3194880924260444
65	0x3f90c5b035807630	0.016379121079913073
66	0xbfd387459a038b7e	-0.30513134041228074
67	0x3fbca598a5bbd511	0.11190179868920704
68	0xbfbf11cc61db050b	-0.12136533154536637
69	0x3fcfd5a56b748d9a	0.24870746371116753
70	0xbfc1d4cf09a17dd8	-0.13930690737014007
71	0x3fd0d282c7daa09a	0.2628485633563372
72	0x3fca1d37faaf0f3a	0.20401668301030346
73	0x3fb9c2a67fa53881	0.10062637916891683
74	0xbfb0db19b5c8f043	-0.06584320724590591
75	0xbfc976b1db7ebd91	-0.19893477647336202
76	0xbfb4e24d1a4f9d3f	-0.08157808201177817
77	0xbfaddf948b607208	-0.05834640694977017
78	0x3fcb1169cf8fb124	0.21146891245678845
79	0xbfd532ac338f5d83	-0.3312178138271166
80	0xbfd117234b462225	-0.2670372233483554
81	0x3fd27c7caf7906b7	0.28884808670055
82	0x3fc64a90724865d9	0.17415052013602297
83	0xbfc323ce759ebb12	-0.14953022711912262
84	0x3fa3d9c8569cbd1a	0.038770924160752965
85	0x3fb9df6d0dce9b76	0.1010654600819246
86	0xbfd2246029efe9d5	-0.2834701928656192
87	0xbfd430ee97fdce1d	-0.3154865726748726
88	0xbf8e4e0976428582	-0.014797281190399362
89	0xbfc44f7fa50d1d3e	-0.158676105109615
90	0x3fc098993a67a401	0.12965693809317716
91	0xbf760b5900d856d2	-0.005381915730614488
92	0xbfd3e009985d1518	-0.31054916266687504
93	0xbfad052a3a2c8e60	-0.05668003044254699
94	0x3fc3e51569b3f7a3	0.1554285780074994
95	0xbfd0f5b04c318450	-0.2649956459118288
96	0xbf9c9fd3fdbd3b3d	-0.027953445779810727
97	0x3fc9827ed4bf9040	0.19929490459537824
98	0x3fcd580b53de7179	0.22924939723169382
99	0x3fb4e8a01f265ce1	0.08167458305830479
100	0xbfbc14e04f98f297	-0.10969354575440558
101	0x3f99c554e250deec	0.025166822732187663
102	0xbfaf01890925829e	-0.060558588377493935
103	0x3fcffe61c28cc58b	0.2499506187391883
104	0x3fa170d6926aa13b	0.034064011929617576
105	0xbfc728c2180f275c	-0.18093134093060825
106	0x3faf31a2cedf0f4c	0.060925567391250185
107	0x3fce2c6f5c065df2	0.23573104852106003
108	0xbfc38ceceb1a4557	-0.15273820380802292
109	0xbfcd4076730a583a	-0.22852974526603181
110	0xbfd3a001349e8544	-0.30664091242404745
111	0x3fc1913361aeecff	0.13724367398922507
112	0x3fcfe45896d2406b	0.24915606846161906
113	0xbfc1a4de1f1c3938	-0.13784386176161845
114	0x3fc084e814901c1e	0.1290559864430358
115	0x3fb58de4a2c117af	0.08419636701100218
116	0xbfd10d9da87d2921	-0.2664560456656933
117	0x3fca5e3906409432	0.20600045018469043
118	0xbfc682f96194c2b3	-0.17587201370908687
119	0x3fc5a82070d0c0c1	0.1691933203560492
120	0x3fc6c3c23118a780	0.17784907719879683
121	0x3fd1537051c80e3a	0.27071769701453585
122	0xbfc9a0cbeb61f72b	-0.20021962159437953
123	0x3fc6af220417e2cb	0.1772196311938131
124	0x3fae65eb994a2897	0.059371340238685004
125	0xbfc3306b283e37ce	-0.14991511788360729
126	0x3fd22f8a8aeaaa1b	0.2841516834838857
127	0xbfcd29165368929d	-0.2278163821475986
128	0x3fcbdd1140bbbddb	0.21768394146736977
129	0xbfb4d95f19caf31f	-0.08144182567316392
130	0xbfd051c7819e0e7e	-0.25499141366910993
131	0xbfd4a123fff21966	-0.3223352431745269
132	0x3f9b0909c673a99c	0.026401665437256847
133	0x3fd058ec446c147a	0.25542742425779574
134	0xbfacd5c63d169de2	-0.05631846900660854
135	0xbfb9de7758b7ad06	-0.10105081478075215
136	0xbfbd105d65494e26	-0.11353095743952987
137	0x3f9dabdd6b573adc	0.02897592513709922
138	0xbfa53a200a837808	-0.041459084781067246
139	0x3fd414872f25a54a	0.31375293354229383
140	0x3fc7cf4e8a95ab61	0.18601400152996475
141	0x3fcb47e9ccbaa08b	0.2131321191457157
142	0xbf848d9cb3be9e67	-0.010035728679056178
143	0xbf507d1450d6e455	-0.00100638374293129
144	0x3fac593a7c58094c	0.055368259123513924
145	0x3fa8550133a90dfb	0.04752353435153719
146	0x3fd50bc5a1e14901	0.3288435059413502
147	0x3fd2b4c7f7113a26	0.2922840035215891
148	0x3fbb3966291aede9	0.10634459022087807
149	0x3fa153e1e4c01df7	0.03384309689868908
150	0x3fc18884370225cc	0.13697865186649805
151	0xbfcb3ce06064e0da	-0.21279530245533956
152	0x3fd32138122470ed	0.29890252849305804
153	0xbfd12fb69ea568ea	-0.2685371922758707
154	0x3fbeed7e311e9718	0.12081135462957737
155	0x3fbae5445544c9e6	0.10506083566432486
156	0x3fd01f270aa5fa39	0.2519013980853831
157	0xbfc0763c83ec9f2c	-0.12860828820816417
158	0x3fd25d8b8af61bb3	0.28695953913159683
159	0xbfbe9096c430cab7	-0.1193937520008984
160	0xbfc67be2c7d7421c	-0.1756556964669621
161	0x3fbf50589b27ae73	0.12231973445858006
162	0x3f908b1249d7322a	0.016155515438912506
163	0xbfcc6fc2676f0424	-0.2221606259390977
164	0x3fc40aebf6360d77	0.1565833046152922
165	0xbfb92e8ffdb644db	-0.09836673683300338
166	0xbfd1b745b6973252	-0.2768110545264665
167	0x3fb889245240368b	0.09584261901928863
168	0x3f9310c28f495474	0.018618621821890405
169	0xbfa498e20d659411	-0.040228904853201304
170	0x3f9f9e9a13722242	0.030878455578689186
171	0xbfd24b4418cf5752	-0.2858438722881732
172	0x3fad1d8738ab7485	0.05686590735215539
173	0xbf7b36b5ae3c275f	-0.006643972101082556
174	0x3fc999683927333f	0.19999411383323637
175	0x3fbc9f3f6e67d4cf	0.11180492825936315
176	0x3fc47fcd2c40ff4f	0.16015019093355895
177	0x3fc1aa07651e40ea	0.1380013698330978
178	0x3fa953c1a83603e0	0.04946713617665188
179	0x3f82fa055ea8c2ab	0.009265939666052011
180	0x3fc1c5362be39eb9	0.13883092062973448
181	0x3fd1fccf49508a3d	0.28105528030042476
182	0xbfd3640ca3273b69	-0.3029815285962543
183	0xbfc99e9194f3b2f9	-0.2001516320518915
184	0xbfb9e150bfedbbad	-0.10109429059751447
185	0xbfce46c9386ff4ce	-0.23653521781662906
186	0xbfc478bca5fb32c2	-0.15993459801247495
187	0xbf79ed8a0bdb5632	-0.0063300507005883844
188	0x3fcdb48b536e4fdd	0.2320722730042907
189	0xbfd3354a9da983a1	-0.3001276530904367
190	0x3f523e3f2f2142b1	0.001113473609184162
191	0xbfce7dda43315260	-0.2382157161797691
192	0xbfba744c7d8ad1a2	-0.10333707871433842
193	0xbfc3e37542b7340b	-0.15537896878814225
194	0x3fbddfe0bce46609	0.11669735538125549
195	0xbf87a5ce6375b3d6	-0.011546718988677467
196	0x3fd0684a86059008	0.2563654240423152
197	0xbfcbe54b9eae3bd6	-0.21793503997875402
198	0x3fd27fb7f5d555ce	0.2890453243938652
199	0x3fbcf17130a18cd4	0.11305911481172198
200	0xbfca97b0ab5f2f3a	-0.20775421493305563
201	0x3fc956a57a730c93	0.19795673827147606
202	0x3fba695bce09b75b	0.10317014484618652
203	0xbfcb1f02dfae95b3	-0.211883887500489
204	0xbfc9c35cb061ee6f	-0.20127447712353638
205	0xbfab057953382170	-0.05277613774166212
206	0xbfc37ebe2efde0cf	-0.15230538649098554
207	0x3fa5cf0e1956857d	0.04259532985021062
208	0x3fb195cc52eb0585	0.06869198822371032
209	0x3fd378de89d5a791	0.304252276043024
210	0x3fb0509ad8c14cf6	0.06372993270752034
211	0xbfbe6de7f72e177a	-0.11886453423184476
212	0xbfd059c6459ec05c	-0.255479400623704
213	0x3fceb080e68d8c6b	0.23976145989863382
214	0xbfc713f694935314	-0.18029672865545676
215	0xbfb54fb00f977c10	-0.08324718838365208
216	0xbfac15214f8a0802	-0.05484871002137483
217	0xbfc060b4403dffc2	-0.12795117508721715
218	0xbfc2a23398d8333f	-0.1455749985037986
219	0x3f93e96c046983a4	0.01944512154512136
220	0x3f90b09a617b012c	0.016298687171684964
221	0xbfc55ed6143c5f90	-0.166956672554758
222	0x3fd235dd48afb2a0	0.2845376214816415
223	0x3fc21f3a9eec9f44	0.1415780330655655
224	0x3fc350fb8bfeda60	0.15090889297217114
225	0xbf94dfe91b6ac61c	-0.020385401056676952
226	0xbfa2e1306a74c67c	-0.036874306674133245
227	0xbfd3a592f4a6fa28	-0.30698083774396645
228	0x3fca716d844f7389	0.20658654175249705
229	0x3fada9e8feb4ea56	0.05793693646633773
230	0x3fbc0d78af26965a	0.10958055759564314
231	0xbfcd3c5cbdbe0a6c	-0.228404610297804
232	0x3fd040d0d41b159f	0.2539560386033716
233	0x3fc97009cfa91dc6	0.1987316383331132
234	0xbfc77e0fdf6041de	-0.18353460700065133
235	0xbfb7f306c68997b9	-0.0935520395956634
236	0xbfbe1a0518ea4622	-0.11758453233985525
237	0xbfb4b0a521109ba1	-0.080820389339904
238	0xbfc90ffb9df76939	-0.1958002587624124
239	0x3fba7c1f348a38ad	0.10345644982064313
240	0x3fb7ea2631086da6	0.09341658303349351
241	0xbfa104592425189c	-0.03323629919263846
242	0x3fb82eba877a7cc3	0.09446302230434171
243	0x3fc0d275be760cb7	0.13142272758350312
244	0xbfbc6cab769106d7	-0.11103316921892357
245	0xbfa402b20fef0b9d	-0.03908306545738258
246	0x3fc0a9c425b5180c	0.13018085328275253
247	0x3fd2fb85d9dc787c	0.2966017367888367
248	0x3fd1ddf0b5491a2c	0.27917115882556476
249	0x3fc7732bda82cd06	0.18320224923591172
250	0x3fbcd0827a3d26c9	0.1125566051897763
251	0x3fd08292287fbec1	0.2579694171426859
252	0xbfb4e002e4c11ed7	-0.08154314122031835
253	0x3fc91ec5716ad445	0.1962515643878381
254	0x3facb8de5c758768	0.056097935472975646
255	0xbfbd616efaf6d5a3	-0.1147679674821434

linears.2.bias f8 [30]
0	0x3f8c1d6ada7d3ba4	0.013727984230767216
1	0xbf8cf1c43a7ceb2f	-0.014133008036528586
2	0xbf921aeeaad7eeef	-0.017680863549670297
3	0xbfa8dee60afd61ff	-0.048575581399465044
4	0xbfa087ec895cbb85	-0.032287017600871194
5	0x3fabe86bae791b11	0.05450760369108399
6	0x3fa50200ead6ed1a	0.04103091112798492
7	0xbf630f356f208722	-0.0023265880236217487
8	0x3f974636a613022c	0.022728780638091958
9	0xbf9afdd4589b37fb	-0.02635890761194302
10	0x3fa75ab4415f2fdf	0.04561389253612424
11	0x3f95d746f414d007	0.021329029700794446
12	0x3f9aac19fc46811b	0.026047140143078722
13	0x3f968d0d624efa04	0.02202244675185662
14	0x3f9de18987b40395	0.02918066874281385
15	0xbf9f8378a2ef2a8b	-0.0307749604651613
16	0xbf9cc6fdef84eb7c	-0.02810284399422923
17	0x3f96e049923102ee	0.022339963481729556
18	0xbf90701e0aee9ada	-0.016052693764914895
19	0xbf9e8134fe65eb1f	-0.029789760615567148
20	0xbf9b88a065bcf9d1	-0.0268883764358579
21	0x3f7c8933fa5076c0	0.006966784513705526
22	0x3f980f65bd875c3c	0.023496236508290233
23	0xbf9889d6f51b9291	-0.0239633166410323
24	0x3f95d0c50f4a2986	0.021304205949982634
25	0xbf9a0ad43e276b7a	-0.025431934636667354
26	0x3f982cc3203f79ac	0.023608254283198057
27	0xbf97e8e55a836d85	-0.023349364900111098
28	0xbfa193438d5506ff	-0.034326659204920056
29	0xbf9468dc2f83dcf4	-0.019931259536829907

linears.3.weight f8 [30, 30]
0	0x3fcebde877e85b3c	0.24017053465714777
1	0xbfb274abaca76cc7	-0.07209275212464937
2	0x3fc8e8a0c4162b84	0.1945992429212674
3	0x3fb2689264b521f8	0.0719081397884408
4	0x3fb6920d2e4f1da2	0.08816606884567205
5	0xbfcc539d7c9cfc8d	-0.22130173287039093
6	0xbfd30b8fdedb01a2	-0.29758068812591365
7	0xbfc1c4268f972d39	-0.13879854213005574
8	0x3fc4fb72e8fc61e4	0.16392361046088333
9	0xbfbfb9fdddc67986	-0.12393175758777461
10	0xbfae1bff8494a1da	-0.05880735867896521
11	0xbfce771956545251	-0.23800961222936448
12	0x3fce0b5df21cc55f	0.23472189256566886
13	0xbfcf2d054d6229d4	-0.24356142309655004
14	0xbfcc8814c64cee3e	-0.2229028671516619
15	0x3fc67112892d2525	0.17532569597305173
16	0x3fd17c4e6e5146f6	0.27321205876533783
17	0xbfa8f02069929484	-0.04870702065208213
18	0xbfcb507241d372b9	-0.21339252676161438
19	0x3fc6c1bead890f57	0.1777876231518529
20	0xbfca4468ea005ec1	-0.20521270204402778
21	0x3fa4fe0fe2fae65e	0.0410008396697321
22	0xbfac3b274188ef02	-0.05513880419718299
23	0x3fb30fe9bb4390b8	0.07446156331895082
24	0xbfb2f3411e264b52	-0.0740242670638456
25	0x3fcd5e1c29b254ab	0.22943450962035192
26	0x3fd0c36b6826d2ca	0.2619274632555003
27	0xbfb8874235ea0cdc	-0.09581388298288424
28	0x3fc7d8ed7436390f	0.18630760359196372
29	0xbfd3743152ea64cf	-0.3039668378565467
30	0x3fd1b0103ca2d623	0.27637105866901573
31	0xbfcbf4455c2a288f	-0.21839205742100318
32	0xbfd14de77b15b0d2	-0.27037989635460946
33	0xbfb5dfe525382c12	-0.08544761809041315
34	0x3fd53277f8e9b5e5	0.33120536144164553
35	0xbfd45829cdb4ce40	-0.31788106049063813
36	0xbfb7f800aacc995f	-0.09362796945479122
37	0xbfb3368842fbc395	-0.07505084643686495
38	0x3fbdec50d360e7ed	0.1168871418057333
39	0xbfd2a9542f1df69a	-0.29158501244806134
40	0x3fa35070ba433700	0.037723086106423054
41	0x3fc206ad13af2c1a	0.14082873784204325
42	0x3fc5039aacb88a1c	0.1641724913943826
43	0xbfb639ad79a977df	-0.086817590906747
44	0xbfb44f9005f0398a	-0.07933902878742152
45	0xbfbdc6818cc70f00	-0.11631021201088387
46	0xbfd12445bf1a3782	-0.267838894484946
47	0xbfc4b72593e2c397	-0.16183919640527897
48	0xbfcd6c889b0587e4	-0.22987468308843895
49	0xbfd017fbaabcb7e3	-0.2514638106684954
50	0x3fc5e98259585bbd	0.17118863451534408
51	0x3fb8b513c7765e22	0.09651301974951612
52	0xbfaece9fe44debf0	-0.060170170420825175
53	0xbfcd79fc88ea2c21	-0.23028523144998395
54	0x3fc7a6539c4fadeb	0.18476338512787946
55	0x3fc2834f2c213eb2	0.14463224081781828
56	0xbfca3b42a06b82c4	-0.20493347962385233
57	0x3fa530901b751812	0.041386130668385715
58	0x3f925c99e7640de5	0.017931370494819538
59	0x3fd035089550e080	0.25323690969117507
60	0xbfd593428223551f	-0.3371130247954443
61	0x3fbc425597f37fa5	0.1103871818518188
62	0xbfced571e3ec76e5	-0.24088882092558275
63	0x3fce213b0f70306b	0.23538912061519865
64	0x3fca65c4d16c1d48	0.2062307379312449
65	0x3fb70661afdec7cb	0.08994112533289848
66	0xbfd00be5f7385938	-0.2507262148150349
67	0xbfcabf98c50da70f	-0.2089720689939942
68	0xbfd13260de8cb523	-0.26869985326159646
69	0x3fd226ac2e07d53e	0.2836103868024401
70	0xbfd0792552fc080b	-0.25739415267901283
71	0xbfb51159b1166de4	-0.08229599545887073
72	0xbfd43562a49bc1cb	-0.31575838160554487
73	0x3fd1b8c31f2a0160	0.27690198939673927
74	0xbfbc20465ced3ff2	-0.10986747521133092
75	0x3f9e1004e9ce2bde	0.029357983370157707
76	0xbfc59073a3e36002	-0.16847081663468094
77	0xbfc716b9018bcdf2	-0.18038094115728104
78	0x3fd2a2dd8cfa6f08	0.29119051711471444
79	0xbfb6ebc4612d3c5b	-0.0895350205657776
80	0xbfce9e9a6973ba04	-0.2392151846792815
81	0xbfb41ac40cff6237	-0.07853341405223878
82	0xbfcbe0edd00e54da	-0.21780178698524005
83	0x3fb2010b8a49d68b	0.07032844663793918
84	0x3fc841038e08c173	0.1894840663458229
85	0x3fa368d41754201c	0.03790915283940441
86	0xbfd01bda71228620	-0.2517000298340424
87	0xbfd33b1b5b2f4192	-0.30048259644265685
88	0x3fbccb7245ac1c06	0.11247934533103895
89	0x3fb65f034dc63891	0.0873872818831123
90	0xbfb538b6f991c32d	-0.08289664834024953
91	0x3fc42500a4e20699	0.1573792271702146
92	0x3fa385c52b2e1b0d	0.038129960556991895
93	0xbf97323117f8375a	-0.022652403915393783
94	0xbfc94180485908b9	-0.19731143505675222
95	0x3fd4bb012698b504	0.3239138485831321
96	0x3fd1519255f4d1c7	0.2706037368218656
97	0x3fbc9b61f0f8386d	0.11174595006034034
98	0x3fd4eba8e6711613	0.3268835306556365
99	0x3fa8332559fc201f	0.04726521228263913
100	0x3fcfef4ad0da8737	0.24949011991434997
101	0x3fa03764c2034533	0.03167261951751712
102	0x3fbbabd0481f7e03	0.10809041748824914
103	0x3fcef3916b38d5f0	0.24180810676050113
104	0x3fc6df9b53df3d18	0.17869893641771095
105	0xbfc1c48d1dd1953a	-0.1388107677077331
106	0x3fb93ecd0c3bf291	0.09861451672254364
107	0xbfcfa5f169271c8a	-0.24725167879498527
108	0xbfc75822cb037ddd	-0.18237719452643733
109	0xbfc97936a7f1905a	-0.19901164245959785
110	0x3fb343d66febc9d8	0.07525387031981923
111	0xbfd366abf77cfada	-0.3031415860058765
112	0xbfcb6ff42569a93c	-0.2143540556601894
113	0x3fd07f6986dae925	0.2577766243881732
114	0xbfbae2119add4c04	-0.1050120356642737
115	0xbfc45ce1d09c0688	-0.15908453641900544
116	0xbfa1298f0be6b3bb	-0.03352019329336239
117	0xbfb6d9420f1350ce	-0.0892525946431448
118	0x3f9c4bd290c3eee5	0.027632989965225802
119	0x3fc78524a7d9e30c	0.18375070758681777
120	0x3fc7bbdb540c7371	0.1854204330819829
121	0x3fce265d72a5d1f9	0.23554580781969017
122	0x3fc84434de4fd05e	0.18958149771754312
123	0xbfb161285b5c81c6	-0.06788875799657665
124	0x3fd25dec2f27d8f4	0.28698258023304324
125	0xbfc180a46a919d52	-0.13673834994845407
126	0xbfd00ae7af7603d6	-0.25066558966505903
127	0x3fd2d5ca082bafa3	0.29429865644373815
128	0x3fadc5f602b30ac1	0.058150947408213145
129	0xbf8cc8c2a197979f	-0.014054794842149053
130	0x3fb493706b95392b	0.08037474276099903
131	0x3fc06491ef307dd0	0.12806915454073797
132	0xbfd4b28fd11db28b	-0.32339854642376825
133	0x3fc12f10fd9c7f26	0.1342488516174793
134	0x3fb235817c6ac1b5	0.07112893378758296
135	0x3fbfbee6c1dbea3a	0.12400667412649904
136	0xbfac18b1272a073a	-0.0548758850391224
137	0xbfc12078b494e146	-0.1338034517045889
138	0xbfb9917f441e0cc7	-0.09987636006376298
139	0x3fc7def6d89915c6	0.18649182869027764
140	0xbfd19f9b1ee0f296	-0.2753665734815426
141	0x3fa633d6f86f4b9f	0.043364255739695816
142	0x3fd41cc25da8b4f8	0.3142553248060973
143	0xbfc1c2570c6fc894	-0.13874328715570938
144	0xbfd191a232404293	-0.2745137682659699
145	0x3fca760c2f96a731	0.2067275268903415
146	0xbfc440807786a1cb	-0.15821843944764988
147	0x3fc28383e4059941	0.14463852533226354
148	0x3fc68750270811f5	0.17600442796550878
149	0x3fcc27fd9a28fdfc	0.21997041728353384
150	0xbfd0a3d1ff1837a6	-0.25999879752714106
151	0x3fa65ae27db91f26	0.04366214546877094
152	0x3fb22dbe8a0559fd	0.07101050252581582
153	0x3f9386cda9807e56	0.019068921537949222
154	0xbfcf0e0a0ca018d3	-0.24261594406579565
155	0x3fc29d4ae2198ba5	0.14542518653896966
156	0xbfd0f3e47d64c6da	-0.2648860191867307
157	0xbfaf4812ac00defb	-0.061096747871884426
158	0x3fc86e1765f1c191	0.1908597228789515
159	0xbfcddf83546fe37c	-0.23338357565787848
160	0xbfbb305fe1c8a381	-0.10620688688562831
161	0x3fb12a71266e4390	0.06705386341333353
162	0x3fd4fbd740e6d702	0.3278711446576922
163	0x3fd1668c9ed609ce	0.2718841124662078
164	0xbfbe9d3fb23c2386	-0.1195869264739838
165	0xbfae283cfb9aac52	-0.058900743211176235
166	0x3fcde1f9c7d88a7c	0.23345873125170502
167	0x3fcd98223f957212	0.23120525459934577
168	0x3fd4a48a4fa65db9	0.32254274156863577
169	0x3fb710fe39ecb43f	0.09010304369140075
170	0xbfaeab193e7a2c3c	-0.05989912879621115
171	0x3fb245381885a3ef	0.07136870001490057
172	0x3fa43f58a1b6ce41	0.03954579328583608
173	0xbfc293ff9b8245bc	-0.1451415547676741
174	0xbfb415bf6ae4e997	-0.0784568439457075
175	0xbfcf464f792aa136	-0.2443332044251833
176	0x3f97321532ce7149	0.02265198824498896
177	0x3fbf48b363225ccf	0.12220307512540106
178	0x3fd02aa605d61011	0.2526030594819995
179	0x3fc89d123743879f	0.19229343126704365
180	0xbfd0ce9955e0211a	-0.26260980020789904
181	0xbfd21717146d3587	-0.2826593112448212
182	0xbfd260b6fef0a589	-0.28715300461279775
183	0xbfd08953037ed39a	-0.2583816084036755
184	0xbfbd1d09dc5d4bc4	-0.11372434263220926
185	0x3fd260c9d769829b	0.28715749775259675
186	0xbfc259ba4b737f72	-0.14336327251566733
187	0xbfcb9e8c42899cc6	-0.21577599762824756
188	0x3fca480ac8ae8135	0.2053235511675752
189	0xbfc7273282a98f6d	-0.1808837068557482
190	0xbfce49ad53bdc526	-0.23662344540529395
191	0x3fcb58804abe3a76	0.21363834046902114
192	0xbfc5862f14408511	-0.16815746773594545
193	0x3fd31a4577c9fb4a	0.29847847650664916
194	0xbfb3fc96c2e1ae60	-0.07807295091486699
195	0x3fc92ae4bb72ba33	0.19662150528661612
196	0x3fb7ad33550e2c8c	0.09248658014819194
197	0x3fd13637723c6985	0.26893411784990234
198	0x3fb8cab9a961d8ae	0.09684334168727801
199	0x3fc40fd4a61e7968	0.15673311339646578
200	0xbfa3b14bb4556cb3	-0.03846203399981487
201	0xbfc183d43298b3fd	-0.13683559866458941
202	0xbfc51e1f7f7d9012	-0.16498178219910692
203	0xbfa66eb794ca1c22	-0.04381345454481102
204	0xbfaa2b4f6c25f47c	-0.05111168093842708
205	0x3fbaa1d38aa91b1f	0.10403177390353989
206	0x3fbddcd48f2fd3ba	0.11665085311672288
207	0xbfd132a3dcc136e6	-0.26871582563477003
208	0xbfd44b49938ab13b	-0.31709517868400255
209	0x3fcf1cce4f2b5d13	0.24306658616726703
210	0x3fc8354a008bd337	0.18912625338239206
211	0xbfb59ce742aba2a5	-0.08442540528961702
212	0x3faaca5e2dc7029e	0.0523251944428058
213	0xbfd06c259c88f58a	-0.25660076414700284
214	0x3fabde8e6fed7c6d	0.05443234554581342
215	0xbfc2263ea3f3e0dc	-0.14179213529110413
216	0xbfcfd851d8b7640d	-0.24878905374387764
217	0xbfc326e407801233	-0.14962435117935655
218	0xbfd45895dd11fd2e	-0.31790682400601866
219	0x3fca51ea4e92749e	0.20562485538986136
220	0xbfcc41714efe4b9a	-0.22074715001198514
221	0x3fb0e5badb495150	0.06600540021583368
222	0xbfcdd5358ffe74e8	-0.23306912928538925
223	0x3fbcd3eb622abf7e	0.11260863443999189
224	0x3fc5a05acb4259b8	0.16895613598599168
225	0xbfd410f7b3b609ca	-0.3135356192580302
226	0xbfcccffde215218f	-0.2250974039000195
227	0xbfc856f480134c85	-0.19015365842514967
228	0x3fd16676be5c4509	0.27187889661679826
229	0x3fb29f3313cd5e63	0.07274169190838502
230	0x3fd0cf0c339cc91a	0.26263718643453304
231	0x3fc2aac74d31afb2	0.1458367468761686
232	0xbfcf4ad34f051682	-0.2444709907378418
233	0x3fbff339169f7944	0.12480503847425434
234	0x3fc579cdf6598901	0.16777967957302312
235	0x3fcf6b0667af3b15	0.24545364439696785
236	0x3fbab6f2a21ebffe	0.10435406167994185
237	0xbf8274b3020f4531	-0.00901164865527679
238	0xbfbed2675a340735	-0.12039800598361412
239	0xbfcb1d65a1ea7576	-0.21183462530181502
240	0x3fc7efe61d38d17e	0.18700863291600095
241	0x3fd074808df7904a	0.25711072792023926
242	0xbfc9e22c938eb557	-0.20221478657678446
243	0xbfc8e66058fca246	-0.1945305284982785
244	0xbfbb091dba59ffd1	-0.10560785102461458
245	0xbfaa86b7f2826217	-0.05180907092398373
246	0xbfc87a4f5561f66d	-0.19123260182452687
247	0x3fcf3a7837d94299	0.2439718506525608
248	0xbfd0786f2f4d8705	-0.2573507272664844
249	0xbfd12352c716d9ca	-0.2677809662085592
250	0xbf909b9c6f390dec	-0.01621860913134114
251	0x3fac5bfb94602593	0.05538927255845318
252	0x3fb53ef13b8d7964	0.08299167350694386
253	0x3fbc58b97d4814c8	0.11072882946617135
254	0x3fb58d04189cc106	0.08418298340689398
255	0x3fa68f44570f74de	0.04406179011105292

linears.3.bias f8 [30]
0	0xbfa2e8a119c6e27a	-0.03693107070597974
1	0x3f9435ecbe5b42bb	0.01973695670932572
2	0xbf96da0e2ff79dee	-0.022316190412224594
3	0x3f9d0a75369d6df0	0.02836020608752493
4	0xbf9df0f0022bfe7e	-0.029239416248854948
5	0x3f96b3a4de60b2ab	0.02216966254506995
6	0x3f98dda13f6a9988	0.024282950873975945
7	0xbf9939f449c2177d	-0.024635140420762525
8	0xbf9b3f8ec54c259b	-0.0266096408768469
9	0x3f935f53bf9289bb	0.018918331687595585
10	0x3f96f083f3ee7d58	0.02240186859455426
11	0xbf970503ad3ce40a	-0.022480065773582004
12	0x3f93c7667cb71bbf	0.019315339433685127
13	0xbf9420fcfe8eea3e	-0.019657090222361832
14	0xbf96b206a23e8709	-0.022163489964106584
15	0x3f9c693b5f2c8ef7	0.02774517792126027
16	0x3f97024d4bc23e0a	0.02246971869368334
17	0xbf92354c42743877	-0.017781440311459975
18	0x3f98f56b297ffa13	0.02437369766993853
19	0xbf983886f7211f49	-0.02365313418729834
20	0x3f9676a95fe645b4	0.02193703315567115
21	0xbf936b4594b3b26c	-0.018963896943136424
22	0xbf96f128205a9f15	-0.022404314970713452
23	0xbf956fbbc817e40c	-0.020934042060591948
24	0x3f986de43a7cf42c	0.02385670287116086
25	0x3f93fe543c3a6d33	0.01952487580875335
26	0xbf9c6f7c7f9a6fb7	-0.027769036567960117
27	0xbf9bd5838fb37175	-0.027181678434190688
28	0xbf94a43d6bcf0724	-0.020157775597687735
29	0xbf90f23a6f56f7b4	-0.016549027486454995

linears.4.weight f8 [3, 30]
0	0xbfd17adea1f7af7c	-0.2731243688310696
1	0x3fad7fb0e3f6601f	0.05761482985252563
2	0xbfd7ec284f92eb03	-0.3737889077271321
3	0x3fc4020b56b1524f	0.15631238682785173
4	0xbfd897d73fd1fcbe	-0.3842676280255083
5	0x3fc5a1cfa041a85e	0.1690005810262986
6	0x3fba6a06bf4f58bc	0.10318033381131192
7	0xbfd2d30bb9f11b24	-0.294131213744935
8	0xbfbc4b338c4e6fc6	-0.11052248168419884
9	0x3fc3195103131133	0.14921009683724548
10	0x3fd602f26965ba92	0.3439298657676001
11	0xbfd36907fc24aa09	-0.3032855951629761
12	0x3fd01a60fddb87a9	0.25161003866935033
13	0xbfd6d1032da5fded	-0.35650710542537817
14	0x3fd37e672ed6f8ce	0.3045900304240491
15	0x3fceecb38162e83b	0.2415985471505467
16	0x3fc2b577d613df8c	0.14616296723374622
17	0x3fba346fd00f6b71	0.10236262158961808
18	0x3fba7b4c9a101420	0.10344389687823297
19	0xbfd9c48af3388150	-0.4026210189058661
20	0x3fd519b9c77dae4f	0.32969517213380056
21	0x3fb113092be7b4d1	0.06669671365644382
22	0x3fd137e8b260d134	0.26903741283173876
23	0x3fca05097310788d	0.2032787143552394
24	0x3fb792ccfe99e3f0	0.09208375182960515
25	0x3fd8cc5a93afcc38	0.387472767091086
26	0xbfb4a8d1dab7a5ac	-0.08070098485736449
27	0xbfd5508715c1bfaa	-0.3330400192708064
28	0x3fd7dd7251cd848c	0.3728910254340654
29	0xbfc639d32f223e99	-0.17363967706159114
30	0x3fbcf7e6959877e5	0.11315766479717089
31	0x3fc396c099e4adc6	0.15303809656448503
32	0xbfb238319e4c0236	-0.07116994967146514
33	0xbfcd2c710398ba94	-0.2279187457620152
34	0x3fc6084be73507ce	0.17212818898593557
35	0x3faa221d2429a704	0.05104151789130465
36	0xbfb1c80cba8d9163	-0.0694587665034923
37	0x3fc73d359d3664b1	0.18155546356573418
38	0x3f960e570e9ce666	0.021539078013324796
39	0x3fd956ea4edf1884	0.39592988683978825
40	0x3fc17c0b69fac2b1	0.13659804034025094
41	0xbfc045bb3cae80c8	-0.12712803328486744
42	0x3fd52f0262c3787f	0.33099422116163874
43	0xbfd92cf21a2ed9ea	-0.3933682685559733
44	0x3fa08f276c95c0d4	0.032342178349496514
45	0x3f895348a76adc4a	0.012365882500814735
46	0xbfab2692a1b90af5	-0.05302866195827064
47	0xbfd40ea5f61d43b8	-0.31339406046486884
48	0xbf8bd91bdb204068	-0.01359769594640188
49	0xbfbcea008e1b659b	-0.11294558972749373
50	0x3fc8d45b5b0ea627	0.1939806170096727
51	0xbfd0c48b31ff9e41	-0.2619960773722348
52	0xbfa8c6927fccfcdc	-0.048389986134219604
53	0xbfa032e58a69fc2b	-0.031638310571900106
54	0x3f602750e07166dd	0.001971872293819439
55	0x3fda0cd5ff49488d	0.4070334427862086
56	0x3fca90ec18dcfaa3	0.20754767622016343
57	0xbf9e1d858ce2834b	-0.029409491275717497
58	0xbfd58957d3e9c1e3	-0.33650775618209944
59	0xbfd866f6146436a5	-0.3812842558989849
60	0xbf97ecaab8343a7b	-0.023363749974175434
61	0xbf9e384235479763	-0.02951148462479781
62	0xbfa41fed95492301	-0.03930609176001632
63	0x3fd611b65093926a	0.344831064880316
64	0xbfdb8e21b90f6bd0	-0.43055003235138845
65	0xbfa60632995ab7dc	-0.043016034336104986
66	0x3fcb6c6243d84424	0.2142451125405681
67	0xbfd14ee79525fb31	-0.27044095578451094
68	0xbfb7f43aefd9800a	-0.09357040744498604
69	0x3fc12a90d8949ebc	0.13411150527212168
70	0x3fbe1157d816c5f9	0.11745213533028921
71	0xbfb6d457e32e2252	-0.08917760177986025
72	0x3f9c49b93eebb6ee	0.02762498327768175
73	0xbfd65afb24c9fb90	-0.34930304138827584
74	0xbfd3bb659dd68884	-0.30831280149335094
75	0x3fcbc41039f08825	0.216920879641351
76	0x3fcf5dae35d88eb7	0.24504640225597082
77	0xbfbab0ab1a66c875	-0.10425824541633395
78	0x3fd3655db58c4d7f	0.30306189278891077
79	0xbfc3d6007d81d2d3	-0.15496832016255854
80	0x3fdc4c506b4c7ec3	0.4421578452911314
81	0xbfd218954f743d62	-0.28275044211564737
82	0xbfd2843336dee33d	-0.28931885107481375
83	0xbfd82e4282725d89	-0.3778234743017142
84	0x3fcbc4fbda663e4f	0.21694896854431753
85	0xbfc95d5be6959df7	-0.19816159018522203
86	0xbfd10975530a30a1	-0.2662022887168494
87	0x3fc3e88b07b3c024	0.15553415180284091
88	0xbfdc0e1ef478416c	-0.4383618724250684
89	0x3fd301842c81c47a	0.29696754785897606

linears.4.bias f8 [3]
0	0x3f97fbfac54fed7b	0.023422163289052982
1	0x3f9312a574831230	0.018625817524269006
2	0x3f967be18fb5c4e8	0.021956943889965524

step f8 []
0	0x407f400000000000	500.0

exp_avg f8 [30, 1]
0	0xc02d147f04d764af	-14.540031577389838
1	0x406232930e4c22ab	145.580451153471
2	0xc035cdc02faf8cfe	-21.8037137797919
3	0xc038867641acf30c	-24.525241951679206
4	0x4021e14c8dbcbe61	8.940037183084486
5	0xc05821453f4a1985	-96.51985151516244
6	0x4049b9ab3f667c04	51.45053856376765
7	0xc029732b9d950149	-12.724942135275926
8	0xc081e9c92966c303	-573.2232234981788
9	0xc083b46eb6c4feb0	-630.5540595426774
10	0x4034d9f87fbda4bc	20.851448043632203
11	0x4049409da2cff7c4	50.5048106685131
12	0x403de6debcd8c9b1	29.90183620731995
13	0xc055b52a20143c3e	-86.83069612480264
14	0x4041ac68154f222a	35.346926368369466
15	0x4051b15d359df98a	70.7713140528414
16	0x4032e34c734ddf3a	18.887885290633882
17	0x4059bb11f53e701c	102.92297106835798
18	0xc0680818d5434d85	-192.25303137917595
19	0x40268fbf8923d75b	11.280758176446104
20	0x405bf7b1a3f9ec16	111.87021731764284
21	0x403850f866120a4a	24.316290263561577
22	0xc01d92e2829aab79	-7.393442192735955
23	0xc0902803a7bd138b	-1034.0035695594004
24	0x405492c3c24882fa	82.29319817620481
25	0x4082f2694dc51937	606.301417865593
26	0xc02e55dd92cfa1a0	-15.167706096501945
27	0xc03773d3c570d59b	-23.452450122878513
28	0xc039d0ad66935cb9	-25.815145884492015
29	0x401db4997864c07e	7.426366692685518

exp_avg_sq f8 [30, 1]
0	0x40b15ecb20de634c	4446.7934702866005
1	0x4148a452ecad4c7c	3229861.8490386587
2	0x40b7f7ffd7d6cd56	6135.999387192851
3	0x40b1938957afee9e	4499.536494251019
4	0x40ba0e04ff1e4bcb	6670.019517796997
5	0x40e134834e151dea	35236.103281553675
6	0x40919dead12f7a19	1127.47931360419
7	0x40b23929d92f57e8	4665.163470229112
8	0x411384a9a21ba3f8	319786.40830856515
9	0x411169f293ae2f65	285308.64421915106
10	0x40cb341aa1676c71	13928.208050659132
11	0x41649f32fba588a4	10811799.863956757
12	0x4065bb7acc329f1b	173.85873994719518
13	0x40a028731ac4dfa4	2068.224813606548
14	0x40ced8d12f9a2c32	15793.634265204983
15	0x40e76b409ef82d45	47962.01940544931
16	0x40c6e66860153e58	11724.815432219926
17	0x40b53ead340c11b1	5438.676575426406
18	0x40d1c31b32aa723d	18188.424967395364
19	0x40c44ceaca137096	10393.834291868185
20	0x40c1c2f676c4004e	9093.925499439381
21	0x40a31144aac309eb	2440.634115309678
22	0x40b4b5bac5343a60	5301.729571594478
23	0x4151f8c71cb760c1	4711196.4486925015
24	0x40d2b5a66039be31	19158.59962314199
25	0x41662d201f407add	11626752.976621086
26	0x40914e5ed8726029	1107.592622553939
27	0x4091dc8533da4829	1143.130080614714
28	0x40e61bab5debde8b	45277.35521501031
29	0x409224ba208d78fe	1161.181764803419

step f8 []
0	0x407f400000000000	500.0

exp_avg f8 [30]
0	0x40556b5a28c26144	85.6773778818361
1	0xc060a281491747c9	-133.0782819227882
2	0xc05aab1a426fb930	-106.67347775373923
3	0xc058e2947ebab276	-99.5403134177412
4	0x4055fbc55624755c	87.93391946373362
5	0xc06e30c9d63e3dbe	-241.5246382918976
6	0x404039b432f9b876	32.45081174081217
7	0xc03f32bdf32b7bb9	-31.198210905185736
8	0x406255aa317b299e	146.6770255475539
9	0x404f8cc91760b6f9	63.099886820053094
10	0x405b3f9fd3b31343	108.99413006294076
11	0xc040b84cae139fad	-33.439840087491895
12	0xc04b29e7cbc6003e	-54.32738635223403
13	0xc036ee1e9ba0fe35	-22.930154539875918
14	0x4061e8b4764a5c81	143.27202906154346
15	0x406ae35e30c0c6c9	215.10524785663281
16	0x404e86b8286a56c8	61.05249505226453
17	0x404dc8ac741c7007	59.56776286495738
18	0x403486d81d3dc36f	20.526735141352614
19	0xc05b08ae008c8d44	-108.13562024808658
20	0x4055a4a7208dad10	86.57270063243436
21	0x4022135c61466dd5	9.037814178321165
22	0x4038b202dfaefe23	24.695356350157578
23	0x404f2ae687706f50	62.33516018857938
24	0x40581be0e3806aad	96.43560111561483
25	0x4068117d5983169b	192.54655147174057
26	0x40342013715ddeff	20.12529667417311
27	0xc04dcb8a6bc36e2c	-59.590161772179584
28	0xc070600317519410	-262.0007546602874
29	0xc03de19b323a7b08	-29.881274356153

exp_avg_sq f8 [30]
0	0x40bfc23406035a99	8130.203216752642
1	0x40cf1c1bfc06d4cf	15928.21862874404
2	0x40c13d93db3e7aa1	8827.155128297689
3	0x40be299868bb4389	7721.595348075855
4	0x40bdb6e88af295ef	7606.908370172124
5	0x40e525cea288b5f6	43310.45734057941
6	0x408974e5ea2088e9	814.6122629682333
7	0x4092b0c52959638a	1196.1925405470852
8	0x40ccd1761090aea9	14754.92238052872
9	0x40af94228fbde590	4042.0675029127815
10	0x40c152be4468240a	8869.48646260986
11	0x40a7845cc024d368	3010.1811534412445
12	0x40b0407a1ba89a50	4160.476984536814
13	0x40824f6ff131f109	585.929659261864
14	0x40d356c12d5aed1b	19803.018393260525
15	0x40e02eba39780438	33141.81951523613
16	0x40afe0897a48ee1d	4080.26851108462
17	0x409408b0eedc417a	1282.172786180016
18	0x40775e4676e189fe	373.8922032175177
19	0x40ce0880454db5ee	15377.002114976724
20	0x40bcf02210e38c59	7408.133070203557
21	0x404cccdcb4e56588	57.60048543168074
22	0x4077f2a245af48e0	383.1646172377641
23	0x40b3ecf6273cfcb8	5100.961536227893
24	0x40b3936d251c654b	5011.4263475177095
25	0x40e1b0df354ebee2	36230.97525727541
26	0x40a1de0f14dfdbbe	2287.02945613439
27	0x40a1031f1c7f091d	2177.5607642840027
28	0x40f159dcbf89db34	71069.79676232935
29	0x40816adfda952398	557.3593036319244

step f8 []
0	0x407f400000000000	500.0
