1D_Transcritical_Inverse_Problem_n_initial_0_01/Models/Model.ckpt-37000.pt (torch, 219289 bytes, 59 tensors)

linears.0.weight f8 [40, 1]
0	0x3fb6531ad59f42ef	0.08720557895072621
1	0xbfca6053a135026c	-0.20606465693892362
2	0x3fc906fff2e7bac4	0.19552611694913058
3	0x3f88225de436e826	0.011784299399426667
4	0x3fcd572fef33180c	0.22922324351947088
5	0xbfc987f9fc9b75aa	-0.19946217378939696
6	0xbfb154747f3bdee6	-0.06769493204398777
7	0x3fc64f1a2b4b5407	0.17428900827385993
8	0xbfc384f3cafa8062	-0.15249488268910044
9	0x3fd0296a895c1b25	0.2525278417019073
10	0x3fd096098f5d5b90	0.2591575527234733
11	0x3f8b2d3fd886893f	0.013269900126776533
12	0xbfcc518c1e38c80f	-0.22123862720178564
13	0x3fc1c80ae2877206	0.1389173132037202
14	0x3fd36d6540766ebf	0.30355197234323933
15	0xbfa201662d129e1f	-0.03516692447857061
16	0x3f8bbd7add36e14e	0.013544998050620063
17	0xbfd5326496cae525	-0.3312007401069244
18	0x3f878b82480165d4	0.011496560881073238
19	0xbfcdb183118c383c	-0.23197973591635612
20	0x3fcb0a87d709243c	0.2112588691691445
21	0xbfb77174a2e7b84e	-0.09157494523216878
22	0xbfcca1f1c0838b7e	-0.22369214916315266
23	0x3f89ec185f639d68	0.012657347117466869
24	0xbfab1fe01dcb8e06	-0.05297756541929392
25	0xbfc65412eb2dab21	-0.1744407318431849
26	0xbfc02cc7582ccbb2	-0.12636653714579676
27	0x3fcd199f9d217967	0.22734446689987495
28	0x3fb5746f5304360a	0.08380790497559346
29	0x3fbcd781c9e90344	0.11266337565849677
30	0xbfb7a481ccdcc22b	-0.09235392810365599
31	0x3fc5d4842baf1b8c	0.17054798253067494
32	0xbfd4fb0c3ad26cc2	-0.32782274002392964
33	0x3fc04d2b442a5423	0.1273550112570386
34	0x3f87e3186cb8c052	0.011663618867800239
35	0xbf8b4bb364fa910e	-0.01332798149025696
36	0xbfc9afdfb7096c7f	-0.20067974507660222
37	0x3fc74a2e455d6128	0.1819513167090545
38	0xbfd234bdeff23ded	-0.2844691127038164
39	0x3fd03573b8aadca1	0.25326245340279213

linears.0.bias f8 [40]
0	0x3fac27c5571ba631	0.05499092758493552
1	0xbfb5c46fa7786556	-0.08502862776403694
2	0x3fa74acc2d8ef2b4	0.04549253517277432
3	0xbfbf2b9391085907	-0.12175867358050506
4	0x3fb4ca3c1cfc79c8	0.08121085841819486
5	0xbfb4569f6a681906	-0.07944675777261886
6	0xbfb19198cbdad0b2	-0.0686278817837003
7	0x3fc53ef7e62b9286	0.16598414171962278
8	0x3fc1249956131369	0.1339294119153707
9	0x3fb83151af5be6d9	0.0945025494692361
10	0xbfaf768b6786253c	-0.061451298129279824
11	0xbfc88a52fd8bdd23	-0.19172131900970965
12	0xbfb3ae6056476841	-0.0768795214311533
13	0x3fb3d72f1bce58fa	0.07750219754084134
14	0xbfae2a8efaa276f2	-0.05891844567780237
15	0xbfb51379c616da11	-0.08232842527545638
16	0xbfd02498ad1d361f	-0.25223366647409934
17	0x3f7b6fe621c06da0	0.006698512032041221
18	0xbfb978b16257cdbb	-0.09949787760688526
19	0xbfac4cce6bafe188	-0.05527348579920771
20	0x3fbbc27c1955c732	0.10843635195285797
21	0x3fb03e13522e2e74	0.0634471965442403
22	0xbfb2b847acbb2ac5	-0.07312438933437722
23	0xbfcbd06202631190	-0.2172968398719033
24	0xbf9dcf4824b7cdff	-0.02911102985485847
25	0x3fb0afc92283106c	0.06518227665498139
26	0xbfb07cb893c8efdd	-0.0644030915072444
27	0xbfac915cc9890331	-0.05579652748247666
28	0x3f89e1b737b1e280	0.012637549769565881
29	0x3fb20c8085b4f8c0	0.07050326599434964
30	0xbfb538c751373da7	-0.08289762242133368
31	0x3fa030c2272559c2	0.03162199714522586
32	0x3fa6b92983a2e87a	0.04438142520798834
33	0xbfb26c71f21cba8f	-0.07196724091475402
34	0xbfb99813f8dae70a	-0.09997677636684102
35	0x3fd294362af6f7cb	0.29029611774228375
36	0x3fc341df57f59e7a	0.15044776720900527
37	0x3fd1aedddd08fe31	0.27629801354848654
38	0x3f82dd7c3a254d65	0.00921151211210853
39	0xbf906df7b94e5b60	-0.01604449337500158

linears.1.weight f8 [40, 40]
0	0xbf7ccdd18a30604c	-0.007032221331449828
1	0xbfab2aa61178aec1	-0.053059758789769436
2	0x3f89340be9402bb4	0.012306302123780678
3	0x3fbb12fa32df1c5b	0.10575832120876909
4	0x3fc2620a7d192ff3	0.14361697300262186
5	0x3fc18f96fa38fc06	0.13719451158428358
6	0xbfc0e2bfe06f6388	-0.1319198461412976
7	0x3fbe44953f5bd8a5	0.11823399350018578
8	0x3f8b0bab7b8ed39b	0.01320585223025166
9	0x3fcee02124a39001	0.24121488846788
10	0x3fc075b311fd6025	0.12859190348058394
11	0x3fc11b43fdec8fe8	0.1336445798743846
12	0xbfcadcb72e223dd6	-0.20986070397019202
13	0x3fa6c494640601f1	0.044468533716102494
14	0xbfcf3ec17851295b	-0.24410265326361977
15	0xbfb6d42a7647121d	-0.08917489421498499
16	0xbfa169ba8fadf097	-0.03400977138423505
17	0x3fa450ad1f451724	0.03967801100456672
18	0x3fc754819fd740f8	0.18226642899254109
19	0xbfbe1e0cc86f8745	-0.11764602559517552
20	0x3fcdd894a9d25519	0.2331720189292035
21	0x3fd0046fd4e83eb7	0.2502708033725684
22	0xbf9e13a794b81128	-0.029371851398552057
23	0x3fbccc607a13b78b	0.11249354343791944
24	0x3fc922128778e155	0.1963523065076155
25	0xbfcf284647da6b12	-0.24341658123452042
26	0x3fbb8e5145e1f11e	0.10764034229390915
27	0xbfa5006a14e87666	-0.041018786480191236
28	0xbfc74cd5ab290e6c	-0.18203230721893549
29	0x3fa0b2e7924d338a	0.03261493359477814
30	0x3fc8c243a039ce9f	0.1934284717896064
31	0xbfca95630855e554	-0.2076839247418244
32	0x3fae2627e9feb2e6	0.05888485652335422
33	0xbfd0c9f19fa9cdf3	-0.262325673981848
34	0x3fa8653a1471383f	0.04764729976214754
35	0x3fd1ff1eba635a8b	0.2811962909885685
36	0xbfb9fa4db8eaee79	-0.10147557987778012
37	0x3f3329f1c0aad9e2	0.0002924170700383794
38	0x3fba51ed8c2c2375	0.10281262085130811
39	0xbfce791c2817a3fe	-0.2380709834826859
40	0x3fc0d8de8cecefa0	0.13161832696084463
41	0xbfc3d573d4a7ec35	-0.15495155223456583
42	0x3fc775385f009661	0.18326477659973064
43	0xbfd3bf8888345302	-0.30856526662073247
44	0x3fc3a69cedc5b966	0.15352212533930326
45	0xbfbc41129a12dff4	-0.11036793004575413
46	0xbfc415ed2647d2c0	-0.15691913956802317
47	0x3fcb7ef18c776f9e	0.2148115096923648
48	0xbf95383c9ddb67db	-0.02072233880503647
49	0xbfc4cacc9881d2c0	-0.16243894049298113
50	0xbfa89a7823b30974	-0.048053507192451855
51	0xbfc0a81e05c6549d	-0.13013053209275408
52	0xbfca00b01e58b3d3	-0.20314599496614835
53	0xbfc0fc7ebf6457cc	-0.13270553918181205
54	0xbfa9d609750585d3	-0.0504610972736931
55	0xbfca2c256c2336fa	-0.20447223453668767
56	0x3fb4ad63e8bccd7e	0.08077072555606965
57	0x3fca222d49e753fe	0.2041679964883371
58	0xbfb37be90c980e93	-0.07610947186918286
59	0xbfd1765f986ed892	-0.2728499401668013
60	0x3fbdb500d37be89d	0.11604314006027257
61	0xbfcfee613807322d	-0.24946227298495796
62	0x3fa17ec5f1d3f81b	0.03417032792093285
63	0x3fb7dd6bc9b7ecb1	0.09322236704604127
64	0xbfc3c0a4802c563c	-0.15431648500877937
65	0x3fb2e929926716ef	0.0738702757290317
66	0x3f949f36f6d7530a	0.02013860589598252
67	0xbfd07b18171b3ebe	-0.2575130677841847
68	0x3fb5c6bf74c94f76	0.0850639019129725
69	0x3fcb7c7c3d5a06a2	0.214736490208499
70	0xbfd1723c14dfc245	-0.2725973323677276
71	0x3fcafc03d32ed482	0.21081588565508375
72	0xbfc6f4f316565aa6	-0.17935026732148635
73	0xbfbefdf3b1419f32	-0.12106249883219958
74	0xbfc8e86800867674	-0.19459247613569952
75	0x3fa1dd78ba117d8f	0.034892819131296375
76	0x3fcb5d4153182120	0.21378342206322376
77	0x3fd03db48907dc30	0.2537661874952759
78	0x3faa45152220bdb0	0.0513083080444362
79	0x3fcec65808116ac2	0.24042797464320215
80	0x3fceaabd3915622a	0.23958554541856475
81	0xbfbdeb346df7be57	-0.11687019047507739
82	0x3fd001dc2e4d9f10	0.25011353036687556
83	0xbfd3f0a085a5e02d	-0.3115617089420109
84	0xbfca14600eec3d5b	-0.20374680260327235
85	0x3fb315ca8ec2b5a6	0.07455125794759584
86	0x3fa34954b8979c6d	0.03766884568522575
87	0x3fcb8d9a8b260fbf	0.21525890154236824
88	0xbfafdfddb2ba4f99	-0.06225483710036812
89	0x3fd0bd57ea795a71	0.261556605318595
90	0xbfadf85edb0aa28a	-0.058535541761846124
91	0xbfd50c0571b99706	-0.3288587198825187
92	0xbfccb81fdbdea7b7	-0.22436903224780533
93	0xbfc634f8c6b19c4a	-0.1734915704903151
94	0xbfba2f5621e0ccf1	-0.10228479697325434
95	0xbfbed77675ec6bb6	-0.12047520045272972
96	0xbfd65a203403f111	-0.3492508419001448
97	0xbfa2381943065a08	-0.035584248954524667
98	0xbfd650aca2a95fa7	-0.3486739719860403
99	0xbfd06e2c8aa40a14	-0.2567244867242675
100	0x3fa81dcfd0f8adb5	0.04710244584961335
101	0xbfc66fdc863d8dd8	-0.17528873972615489
102	0x3fad2b383ba94f5b	0.056970364840394715
103	0xbfc1e65debfe348d	-0.13984273932547744
104	0xbf84792b246b92ec	-0.009996735619503615
105	0xbfcef7fda409d83d	-0.24194307813348984
106	0x3fd115707ec59d03	0.2669335592276669
107	0x3fc6b7107b822087	0.1774616816585459
108	0xbfc81a3fd6eb44fd	-0.18830106729595988
109	0xbf86c9d84c1086c9	-0.011127176114374209
110	0xbfc60b4627474977	-0.172219056300104
111	0xbf8b83cbb7e932e1	-0.013434974241272215
112	0x3fcec1b260412a10	0.2402861566536818
113	0xbfb928039d84a93a	-0.0982668170514999
114	0xbfd7eb23c44d3a75	-0.37372678918919827
115	0x3fd98b2dd98fe8c8	0.39911981817534725
116	0xbfc2c708a028f8cd	-0.1466990263015248
117	0x3fbea0aadbd65439	0.11963909022445386
118	0xbf83147422532132	-0.009316355988986478
119	0xbfb505714ddd5719	-0.08211429739943944
120	0xbfbe5643bcc7e4c2	-0.11850379332453811
121	0x3fb2100d3d7c4caa	0.07055742980110105
122	0xbfc6e159ea3eb372	-0.17875217378368863
123	0x3fb842325b6274d1	0.09476008158749784
124	0xbf89b61b510ee222	-0.012554372225950298
125	0x3fb9bee94067ccd4	0.10056932279967451
126	0x3fc6739eb4c5e246	0.17540344073110442
127	0xbfc120181ee644c4	-0.133791937911644
128	0xbfa67d866d3cad60	-0.0439264305444691
129	0xbfae2e83011574d6	-0.05894860637884285
130	0x3fb6ab1abd69377e	0.0885483467511374
131	0x3fd31e0070f07258	0.2987061598703682
132	0xbfaae273b0d5f10c	-0.0525089410175231
133	0xbfce92d89dea1de0	-0.23885638914747087
134	0xbfa6744213f1004c	-0.04385572904038834
135	0x3fcf1b3c96ed1b8b	0.24301869744723734
136	0xbfb15fa7f49e8bcf	-0.0678658458914889
137	0x3fc2dde52242ed8d	0.1473966996471571
138	0x3fd2c16c6a09c637	0.2930556331185445
139	0xbfc1d756e825cd7e	-0.13938413939795774
140	0x3fc798b0006c46a4	0.18434715290691372
141	0xbfb30190cb677f79	-0.07424263921666165
142	0xbfd0ab314909af53	-0.26044876225090724
143	0x3fcd210ae6e12218	0.22757087968263146
144	0x3f9cbc167b97ac1f	0.028061248105512356
145	0xbfcd17d94d58335b	-0.2272903087290626
146	0xbfc973145cedc606	-0.19882444894351198
147	0x3fd4c4c5fde5407b	0.32451009554370785
148	0x3fba13ab25628563	0.10186261809078227
149	0xbfbdd776ab388d20	-0.11656896286199414
150	0x3fc3b6b11d4dedc7	0.15401281290892951
151	0xbfcaddad6c08d261	-0.20989005828018306
152	0x3fccd88d1047aab4	0.22535861296576842
153	0xbfb38a9c6b8af060	-0.07633378625445308
154	0x3f8f3fe1f6c42c41	0.01525856527634606
155	0x3fc1b1264ff2548a	0.13821867850916575
156	0xbf7b4b455b0f4991	-0.006663580818854335
157	0x3fd0a4488afa207f	0.2600270611951671
158	0xbfb0b4fd469ba057	-0.06526167844606455
159	0xbfc402d671ce9ede	-0.15633659893977997
160	0xbfb5465cc956a0b9	-0.08310489573944126
161	0xbfa41858fbe63d19	-0.03924825739806632
162	0x3fb2e0fa58582c8a	0.07374539048048426
163	0x3fd4df934bd21df8	0.32614595798847246
164	0x3fc9d4b8c20c4ae5	0.2018042514324271
165	0x3fce881dc978707f	0.23852894151139378
166	0xbfab36cd842586b7	-0.05315248716466441
167	0x3fc2d5ece78556f3	0.14715348534325975
168	0xbfc91889ff42ae87	-0.1960613724125901
169	0xbfcc19f963333dba	-0.21954266875989764
170	0xbfc9f4ffa30fa9fc	-0.20278926336261793
171	0xbfcdf559f41d1b5b	-0.2340500299416942
172	0xbfc82c997621dce1	-0.18886106746842926
173	0x3fc2be031d02f4f1	0.14642371098117438
174	0xbfcdcd1c709b7a69	-0.23282199381260973
175	0x3fce943686338709	0.23889810135647618
176	0x3f9ea6f820b4c215	0.029933812137814615
177	0x3fc1913158d20863	0.13724343144355364
178	0x3fbc2b26574a55ef	0.11003341323006287
179	0xbfc775ee60f37745	-0.18328647359788355
180	0xbfc32f343a1195a2	-0.14987805209527233
181	0x3fc7090669215a23	0.17996292241396458
182	0xbfd2467ea8c3e442	-0.28555265885330894
183	0x3fc5afd2ab5a824f	0.16942818991539574
184	0xbfa58aa70f1fc500	-0.04207346019382818
185	0x3fb5409837213622	0.0830168852418969
186	0xbfc8ff6388c9344b	-0.19529384783746404
187	0xbfc102c8fb8e48a9	-0.13289749415395605
188	0x3fbb0a6d983a17f4	0.10562787023999914
189	0xbfa44f275d82114d	-0.03966639534431469
190	0x3f95d96825f69136	0.021337153737151136
191	0xbfc708558c26a58b	-0.1799418386774899
192	0x3f984fc33020ba17	0.023741769611826138
193	0xbfc03a9a1c314542	-0.12678839088997945
194	0x3fd54cc655742766	0.3328109583386464
195	0xbfac8946998bc298	-0.05573483108844818
196	0x3fc055315c478779	0.12759987836676226
197	0xbfba7ac49889a470	-0.10343579029144379
198	0xbfc77c9b127a1e7e	-0.1834901657314169
199	0xbfc893fccaf35e6d	-0.1920162192316072
200	0xbfc7583bd0afc6dd	-0.1823801774003674
201	0xbfc4456157eae33c	-0.15836731713150154
202	0x3fc5779f2f2e4549	0.1677130680441599
203	0xbfcff39e64119bed	-0.2496221531502835
204	0xbfbb0e23de0ecfb7	-0.10568451091131591
205	0xbfbcb99ed1dcc517	-0.11220734237283057
206	0x3fc1e050c75d15e5	0.13965806707908182
207	0xbfc8d38d9993c35e	-0.19395608900915823
208	0x3fa5fb29b60c19e7	0.0429318461156532
209	0xbfc8b129bb63605b	-0.1929065861684219
210	0x3f96a7bf25b445b8	0.022124277759820038
211	0x3fc404f5ca355791	0.1564013707490486
212	0x3fab50b9e63d58c3	0.053350266795563005
213	0x3f749bcb3330f534	0.005031388997904163
214	0x3fc5a0dd61f4890d	0.1689717033669428
215	0xbfc3c406a8d906e5	-0.15441973919410326
216	0xbfc183582e09cadf	-0.13682081459008708
217	0xbfc562fdb1c15447	-0.16708346538021798
218	0xbfc557d35e020b29	-0.1667427262328485
219	0x3fb1d0481e2993c9	0.06958437668215746
220	0x3fcfb871fb25b2c1	0.24781632197427508
221	0x3fa2ea74709ba99e	0.03694499849901266
222	0x3fbbf1796c2cd816	0.1091533555125753
223	0xbfca59f26678de0e	-0.20586996081850412
224	0xbfd54bdba16acdf3	-0.3327550007190602
225	0x3fc0c2f9ce9e1f8b	0.13095018948319778
226	0xbfc5a9daa9aee97d	-0.16924603734316782
227	0x3fd0171e4932c825	0.25141102932241416
228	0xbfc29e1675b52a77	-0.14544945476002955
229	0x3fb5dd4a8795a291	0.08540788469475503
230	0x3fc66742139b247d	0.17502618748975243
231	0xbfc54e570c640939	-0.16645324807184084
232	0xbfd056d460220010	-0.25529965770692886
233	0xbf9ef714e64a81c9	-0.030239416652536186
234	0x3f964ccb29c2d75a	0.021777319358725712
235	0xbfc3f8a9a97083f9	-0.15602608464635617
236	0x3fc41929e473d7ea	0.15701793341548803
237	0x3fc7a7e8389818c4	0.18481161845574523
238	0x3f9e73c8d592ca80	0.029738557849393832
239	0xbfcb8cea7f483b77	-0.21523791518162813
240	0xbfcd36e56e87a94a	-0.22823779961556517
241	0x3fd01794598c8bb3	0.25143917794246845
242	0x3fcc346faed0762c	0.22035022769789359
243	0xbfc96a5570df10e8	-0.19855754863068076
244	0x3fb9d0b7c5a87966	0.1008410317958571
245	0xbfd0ed648b22cdf5	-0.26448930346961613
246	0xbfb94f4a5151f33a	-0.0988661240134662
247	0x3fbd33ed97c0946a	0.11407360987557671
248	0xbfc90587da0c0fb5	-0.19548128268081447
249	0xbf93cded7d5a3c28	-0.01934023931113074
250	0xbfa85f214cf4d1de	-0.047600784916003155
251	0x3fcb532e3b4916d5	0.21347597021865874
252	0xbfa6f07d737cc83f	-0.04480354342230485
253	0xbf98a87efc0db698	-0.02408026135838401
254	0xbfc196efaed98523	-0.13741870915968332
255	0xbfa2f49ae75fe855	-0.03702243875882575

linears.1.bias f8 [40]
0	0x3fac6a92c3f5f36f	0.055500589772214386
1	0x3fb1631165bcc847	0.06791790708374022
2	0x3faef92d2ebe54c5	0.06049481578444608
3	0xbfa8ffd819e542c4	-0.04882693592174328
4	0x3fa6430cb0a69535	0.04348029762631215
5	0xbf922e6326d09fdd	-0.017755078548503767
6	0x3f8621cf4e93f7ca	0.010806674561987157
7	0xbf9be44adafec611	-0.027238053909689756
8	0x3f8e0280743db820	0.01465320925464303
9	0xbfb15567b2eaa263	-0.06770942800597761
10	0xbfac61037617f1f8	-0.0554276544243954
11	0xbfa3e5ca9ed9a0d0	-0.03886254490936525
12	0x3fa091c1711beb18	0.03236202722287923
13	0xbfa441b14f096d50	-0.0395636948566912
14	0x3fa4594dcb4bb01b	0.03974383455883431
15	0x3fa3cb035c7e806f	0.03865824226454683
16	0x3fb42b0dedd939cb	0.0787819581684978
17	0xbfb34512858c471b	-0.07527271042297594
18	0x3fa7594567775f21	0.04560295951858807
19	0x3fabac0abb2072fa	0.05404695066702021
20	0xbfadef43582a5ab0	-0.05846605731237753
21	0x3fb1df9c2238504a	0.06981826625298129
22	0x3fb546d1b37f3291	0.08311186439750375
23	0xbfac8b966a2cb5d7	-0.055752468548557914
24	0x3f77fb9b558b2823	0.005855185293237172
25	0xbfb042b5aac7a543	-0.06351790828161534
26	0xbfa649440fac7ec5	-0.04352772418337517
27	0xbf6ff8f6573c94a2	-0.0039028941481712024
28	0xbfa76ea6e103bfc2	-0.04576608177910614
29	0x3f9b9505d2cbb439	0.026935664168309812
30	0xbf961aad3b784ccf	-0.02158613849139784
31	0x3fb1f8ec98e75478	0.0702045319843182
32	0x3fa8849332295c07	0.0478864668590902
33	0x3fa3b426a8fd6798	0.0384838181768849
34	0x3fae0f865007938f	0.058712193745839796
35	0x3faa2325615eee18	0.0510493928299775
36	0xbf9c268b86e7fd20	-0.027490787610074396
37	0x3fb796cfd01612ce	0.09214495496969308
38	0xbfb24b6e4019596a	-0.07146348061482902
39	0x3fae7486fce2040a	0.05948278271626613

linears.2.weight f8 [40, 40]
0	0xbf9eca29efe3d7be	-0.030068068758701598
1	0x3f79c5f6f32b6041	0.006292309425326493
2	0x3fd25a134f296b6a	0.2867477677406699
3	0x3fca691b0e9e2ce6	0.20633257116092024
4	0x3fa7de8a4a028234	0.0466197219223016
5	0x3fd3004f50906622	0.29689391009887534
6	0xbfcb8e5c3512bf1a	-0.21528198806253657
7	0xbfa8bd9f63f7aa77	-0.048321705773408156
8	0x3fa3cb00a3e75015	0.0386581611707301
9	0xbfb550bda56cb2a7	-0.08326325691877888
10	0xbfd0fe1e5dd110bb	-0.2655101696184478
11	0xbfcc8676ef718df3	-0.22285353366451907
12	0xbfdec8b00f144e1b	-0.48099900696363
13	0xbfbed1a7f0b3be40	-0.12038659693256992
14	0x3fa8a6bb63e446f9	0.04814706415539933
15	0x3fc5e973dc31412b	0.17118690730650007
16	0xbf9abf502fcab9d9	-0.026120427052484494
17	0x3fb604ed78b5d8da	0.08601268956212796
18	0xbfbf6ba4e0c5d7ce	-0.12273626792543199
19	0x3fbc7d3d9069d9ee	0.11128601814002767
20	0xbfaf8291c6455c54	-0.06154304070758401
21	0x3fa6bcfb7a33a2c4	0.04441057078094482
22	0x3fc128c54a774180	0.1340567220309019
23	0xbfbeb6cb1cb79857	-0.11997670603850118
24	0xbfbd12972f4bfe08	-0.11356491951664094
25	0xbfd15290767a9bdd	-0.2706643254300028
26	0xbfbeb106eef63050	-0.11988871892953168
27	0x3fe6ee1e07c93e50	0.7165670539925006
28	0xbfd30081325c5f21	-0.29690580289887875
29	0xbfd1d2a8bbe024ba	-0.2784826121065397
30	0x3fa37f23eb6d41f7	0.03807937859403759
31	0x3fc88df5a08b90aa	0.19183225955123834
32	0xbf88f56e4857f3a9	-0.012186872084379479
33	0xbfd2d3137ecea90c	-0.29413306602022327
34	0x3fb51fafa9418d73	0.08251474268177166
35	0x3fd2c8f8d4c55e7d	0.2935163572160276
36	0x3fd2145bf71ffcf3	0.28249262936874614
37	0x3fcef457930d4b5a	0.24183172874708242
38	0xbfdc02ea7fb68268	-0.43767797920194207
39	0xbfc08e86214dd4a3	-0.12934948564694534
40	0x3faeac008945bbc1	0.059906021839985175
41	0x3fbfcde6c735706a	0.12423555720801152
42	0x3fc9a63c72a469ff	0.2003856239105772
43	0xbfaddb4b70eea212	-0.058313710723556636
44	0x3fa2dcded176947e	0.03684135729717129
45	0x3fa488f00fba7bf4	0.040107252044656067
46	0xbfba020b75a300eb	-0.10159370061865373
47	0xbfa24fb8261a272d	-0.03576446023096334
48	0x3fb04dfc9a3e8b60	0.06368998304109885
49	0xbf984d7d525f34b1	-0.02373309912927785
50	0x3faa69e825b81bb2	0.05158925495566481
51	0xbfb252ac7056811d	-0.0715739988577337
52	0xbfc056ea37cc3c7e	-0.12765243267537935
53	0xbfc423ebb66de110	-0.15734621436764273
54	0x3fd0b0b8a105e77f	0.26078620648296885
55	0x3fceb355b1176911	0.23984786173861797
56	0x3f99eac9da0036b0	0.025309709482874865
57	0x3fa1a3e0bb48c54c	0.034453413831566054
58	0xbfa4564d30288391	-0.0397209283148704
59	0xbfc02a45534b1481	-0.12629000250868574
60	0xbfd089bb258624dd	-0.25840643562749027
61	0xbfcf72e8bec61300	-0.24569424929736527
62	0xbf93087dc84a0c0f	-0.018587079381642776
63	0x3f6227c88834d8e0	0.0022162357942320104
64	0xbfcc376638bc79ec	-0.22044065256427758
65	0x3fb92f872bd19636	0.0983814699153179
66	0x3fc0aa90b0ec7d86	0.13020523680550528
67	0x3fb2ab1889ba1ef7	0.07292321550823631
68	0xbfd36d6e5d447a5f	-0.30355414493707217
69	0x3fcd64aa9c595812	0.2296345961974003
70	0x3fc56e542e458d87	0.16742946872100736
71	0x3fca29843152cb65	0.20439197929735112
72	0x3fce7faafad51ede	0.23827111480408453
73	0x3fa2803f948b5dc9	0.03613470733915453
74	0xbfc267b7c0e621aa	-0.14379021567243672
75	0x3fab59816b2ba7dd	0.05341724808916102
76	0xbfb4ee37fc86f310	-0.08175992884839567
77	0xbfa240227c0f304d	-0.0356455589713681
78	0x3fcae266ee254792	0.2100342428989817
79	0x3fcb971d110a107c	0.21554911930082088
80	0x3fbc7a654bfc2fb2	0.1112426100264077
81	0xbf7b0e2b32fa41c0	-0.006605309244733737
82	0x3fd16cd14cdc4fd4	0.27226669794003766
83	0x3fb66fe22d9758fa	0.08764470685068551
84	0xbfc19b69717fc9c1	-0.1375552944369485
85	0xbfafddcf0a267c8d	-0.06223914145379537
86	0x3fc6ea9d8d2c4453	0.179034894878472
87	0x3fa4928155f5a28e	0.040180246108154724
88	0x3f8bcb73cf126149	0.013571648365812055
89	0xbfa947a991a8643f	-0.04937486556099956
90	0xbfd0edcac5f00fa1	-0.26451367692811273
91	0xbfcfa514b7cf4c71	-0.24722537016950555
92	0xbfd5512d188d366c	-0.33307959935777975
93	0x3fcc47390be1e754	0.22092354850956986
94	0xbfbdcc0f7d792120	-0.11639496625241863
95	0xbf86c10fafc0f87d	-0.01111042265995032
96	0x3fabc0e413f4133e	0.054206016002388044
97	0xbfc55888be199d53	-0.16676434786061609
98	0x3fc4efbe0bb13dbe	0.16356635638156364
99	0xbf9b4ecc29771be4	-0.02666777613719863
100	0xbfd8363ab9526656	-0.37830989930953274
101	0x3fd794c68a28e0f0	0.3684555386748931
102	0xbfc38a49ce12667b	-0.15265772401908237
103	0xbfc2292277497dfe	-0.14188032936634437
104	0xbfb8acb42146154e	-0.09638524830196113
105	0xbfc3f68db3355013	-0.1559617161789225
106	0xbfcf8d34af204275	-0.24649675894808679
107	0x3fe513f7307e130e	0.6586872050398556
108	0xbfabf2c25dbc6a26	-0.0545864810394117
109	0xbfd6c8ee15c19230	-0.3560137951338076
110	0xbfc6a75ba5fe0784	-0.17698236088841324
111	0x3fc1f874a8683dbe	0.14039476607329776
112	0x3f81da8af10fc57c	0.008717618447891644
113	0xbfbe508f2ad52ff3	-0.11841673656198264
114	0xbfc08af222ec6c02	-0.129240290691854
115	0xbfc6269b323dcdaa	-0.17305316880411442
116	0x3fb497784cadf27a	0.0804362475591435
117	0xbfc9eb33f9e9a46d	-0.20249032690779548
118	0xbfcd3104fc4477db	-0.2280584556364705
119	0xbfccb3b25b699676	-0.22423390830515516
120	0xbfce1eca294c683b	-0.23531462685133583
121	0xbf6810bcd56c1c40	-0.0029376686246709582
122	0xbfb48294d36df589	-0.08011751329282481
123	0xbfb388f428416d2b	-0.07630849821855594
124	0xbfacc657984cc621	-0.056200730649276893
125	0xbfc4be5993299a05	-0.1620590179984022
126	0x3fb7022d121469ae	0.08987695399665682
127	0xbfc8f8b9fd4cfe41	-0.19509053104592236
128	0x3fa77418913f4802	0.045807616930360964
129	0x3fcc80f6e054febe	0.222685679947963
130	0xbfc37aed1a98c956	-0.15218890951798397
131	0x3fc703e124746947	0.17980589180008108
132	0x3fbae52ca4a32842	0.10505942363229884
133	0x3fb5394e98636cab	0.08290568561953886
134	0x3fbbb848ed5b21b2	0.1082807139856701
135	0x3fceaac2cc56e84a	0.23958621003640906
136	0x3fcd71ef1c55043f	0.23003949054148795
137	0x3fc764d37a0a3048	0.18276446780180522
138	0x3fc6feeae8c5db7c	0.17965446821082398
139	0xbfcb1e50bd545097	-0.2118626522502651
140	0x3f6df803f200073a	0.0036583020264523676
141	0xbfcb7328e8ece310	-0.21445189832027056
142	0xbfa7764b83766bd7	-0.045824394033125486
143	0x3fc98fa4c1773ba2	0.19969615408487323
144	0x3fbd0b62d3a6d502	0.11345498721387418
145	0x3fc164371b0a597b	0.13587082691510574
146	0xbfc907e9282df0a8	-0.1955539175213563
147	0x3f97a83b6deac012	0.02310269220714651
148	0x3f9b9f8edd36648a	0.02697585320638444
149	0x3fd3ebe2cd508d19	0.31127233553179817
150	0x3fbf2139a09fcd63	0.12160072490205702
151	0xbfd0ec9057e801d4	-0.2644387110194917
152	0x3fb8bd73710d8d3a	0.09664079198914957
153	0xbfb0292c62e479ed	-0.06312825598113365
154	0xbfc762b74f21bf35	-0.18270007480486475
155	0xbfd00bf5267bd8da	-0.25072983511144076
156	0xbf9ac93483a080e2	-0.026158161672470544
157	0xbfc0c4181f67292b	-0.13098432095859755
158	0x3fc6a693afe19280	0.1769585236353528
159	0xbfc94fce15b06a85	-0.1977479558853085
160	0x3fb19e7b82f77686	0.06882450053623232
161	0x3fc1352b1989e691	0.1344350695324477
162	0x3fb527b6bb4690a0	0.08263723442229542
163	0xbfa192ba916e1018	-0.03432257676379907
164	0xbfc3515e5590f62b	-0.1509206693462358
165	0xbfa21ca9cfe59339	-0.0353749338417288
166	0x3f9bd9822a22efe6	0.02719691641026136
167	0xbfc85ad759c7eeec	-0.19027225383603452
168	0xbfcff43ed9865a0c	-0.2496412813313359
169	0xbfc59b75dcbde340	-0.16880677488713935
170	0x3fcd4a75da7bbccb	0.22883485000736523
171	0x3f7e99dcf4b9e927	0.007470954045510936
172	0x3f7bf61d69dc963a	0.006826510330744601
173	0xbf7a87ad42999ef9	-0.006477047727095225
174	0xbfa4388c8fd55512	-0.0394939351632876
175	0xbfc1b2aec7a999ba	-0.1382654642977295
176	0xbf531492f07a33d4	-0.0011645731882794401
177	0xbfb2b5f96189f304	-0.07308920508689815
178	0x3fc495f7849c5673	0.16082662558681057
179	0xbfcdcdac4fd91de1	-0.23283914469560243
180	0xbfb9814861b5b25f	-0.099628948073311
181	0x3fd080bb808f5a22	0.2578572040050934
182	0x3fc4f1ad3b71b190	0.1636253872160407
183	0x3fc78f8abc53fca9	0.1840680522509264
184	0xbfd12344790d8e49	-0.26777755567147615
185	0x3f84ee4e4adee3a6	0.010220157298918963
186	0xbfc90cf5a40e0793	-0.19570799360741073
187	0xbfbcbf73e808a438	-0.11229633726965538
188	0x3fb90e61217943a6	0.09787566249111865
189	0x3f9990eca9a30083	0.024966905454448806
190	0x3fcc583731285968	0.22144212627672322
191	0x3fd03ad6bda353c0	0.25359123725257504
192	0xbfcb068947107576	-0.2111369702333083
193	0x3fd1c4722afd37bc	0.2776151103797664
194	0x3fc66d53cc6b05ca	0.17521140557623333
195	0xbfc36a72ab081aee	-0.15168603278308218
196	0x3fb5a78c4f2e6dac	0.08458783085955329
197	0xbfac8ff4ee794965	-0.05578580294663275
198	0x3fb73f11be9033dc	0.09080611135887245
199	0x3f95a9eef77ebf23	0.021156057220365853
200	0xbf8aed4ecba3b299	-0.013147941197950973
201	0xbfb0b87ee6bd8c65	-0.06531518109618302
202	0xbfbce79ed41e6feb	-0.11290924719509092
203	0xbfc0a838a62d0068	-0.13013370622684595
204	0xbfc20088edd5ebd1	-0.14064132321422432
205	0x3fd065464769c229	0.25618130659043686
206	0x3fc21e8dc0ce791e	0.14155742563611623
207	0xbfa95070a4167172	-0.04944183352492616
208	0xbfbf36a0ff51ed4b	-0.1219273207988653
209	0x3fb924632a1acf74	0.09821147706935368
210	0x3fc321680f0b97fe	0.14945698485024644
211	0xbf9d443fe9856a47	-0.028580664279937797
212	0x3fcbb6fc03d2d90d	0.21652174174023067
213	0xbfc1f2cc458e02a4	-0.14022210499026244
214	0xbfd49528856735e4	-0.32160389926579414
215	0xbf91b19efc965026	-0.01727913300199204
216	0xbf66c681e7c6050b	-0.0027802025999227368
217	0xbf7e0034a49ef92d	-0.007324414860646206
218	0xbfc8bd146e8dc839	-0.1932702579320578
219	0x3f8df1af04b5d313	0.01462113125919865
220	0xbfb8135a358ac54c	-0.09404529387645261
221	0x3fcde3ec733815f2	0.23351817727977636
222	0xbfba7aec0a60a4e6	-0.10343814137799576
223	0x3fc0db2393db011c	0.13168759078508507
224	0x3fad514f32629bcb	0.057260966206107954
225	0x3fa776a30c74143b	0.045827002783007185
226	0x3fab47b2b1d132b4	0.053281387525747986
227	0xbfb295709e16187a	-0.07259277209786488
228	0x3fb63dbb23932c86	0.08687944048431193
229	0x3fc936592786b261	0.19697107725132226
230	0xbfd3fb2a55fe53a0	-0.3122049178867261
231	0xbfc311e4a6818a5c	-0.148983556081549
232	0xbfbea90c466f88b6	-0.11976696700688447
233	0x3fc20426924c37e7	0.14075166839069128
234	0x3fa32341024b5692	0.037378341226639425
235	0x3fc49e2d16efb3de	0.1610771524423446
236	0xbf7dcee3fe8447bb	-0.007277384378783165
237	0xbfd0238b64a9948c	-0.252169464400432
238	0xbfbc4a4519647800	-0.11050826902325639
239	0xbfd11e591108418e	-0.2674772898035592
240	0x3fbd943df5527609	0.1155432437830869
241	0x3fb0bf459abe8fa5	0.06541857746066045
242	0xbfc939b64abed515	-0.19707373284988053
243	0xbfb460955ab58a6d	-0.07959874596193979
244	0x3fb302172aa48452	0.0742506484134691
245	0x3fcf26a94476c3b5	0.24336734621968295
246	0x3fb6fdeae36fa2e9	0.08981197407377874
247	0xbfd103681e25cde2	-0.2658329290781848
248	0xbfa3b05830ddf2e4	-0.03845477673073619
249	0xbfd01674be65e6d0	-0.25137060731468086
250	0xbfc28f1579f6587a	-0.1449915738600714
251	0x3fa92a8ca135a8f0	0.049152750662715294
252	0x3fb2ba3c1f7c2016	0.07315421837495281
253	0x3fd2696528666964	0.28768280930821377
254	0xbfd7ec2c14048fc6	-0.373789805935527
255	0xbfce3865f15fd937	-0.23609613691196227

linears.2.bias f8 [40]
0	0xbf8584a2f1748d6b	-0.010506890290861567
1	0x3fa4323337285869	0.039445496066193915
2	0x3fa936fa1cc5a45c	0.049247566234790624
3	0x3f7635bbf405532b	0.0054223386690253434
4	0x3fa1be04fb660b67	0.034652858436877314
5	0x3f972336831b0c95	0.022595264198355187
6	0xbfab4dc9cb84b5f9	-0.053327852338366406
7	0xbfa5156bc6b621b1	-0.04117905426670932
8	0x3fa3070a2de67c0b	0.037163084128444344
9	0xbfadb6adb7877588	-0.058034351972064135
10	0x3fa821c8f8a82545	0.04713275943147236
11	0x3f8c67ab14b0ae4c	0.013869606560624657
12	0xbf83f933c1865283	-0.009752659171490713
13	0x3fa884950301ebf9	0.04788652097428065
14	0xbfa859f7dcc1aad6	-0.04756140298635152
15	0x3fa4f9d3f822c9d9	0.04096853641512483
16	0xbfb1f5b2c880ab65	-0.07015530963023549
17	0xbfa7c02f4b1b58de	-0.0463881282027374
18	0xbfb022f6d1db8039	-0.06303351043197915
19	0xbfb11a9ee042f40b	-0.06681244826445736
20	0x3fa4c74fb5154b44	0.04058312497604402
21	0xbfa655306ccf341e	-0.0436186917137109
22	0x3faa22a75a9533f7	0.05104563694712987
23	0x3f7722aeb8f5b53b	0.005648310193789026
24	0xbf8bae0a04dff2bb	-0.013515547059790625
25	0xbfa33ec4ce232085	-0.03758826271365571
26	0xbfa5697e1f33f0fc	-0.041820470150897265
27	0xbfa251cf3e7dd9d7	-0.035780407312745836
28	0x3f947eb2283a5fe2	0.020014556603740526
29	0x3f8e439a881277da	0.014777381208030894
30	0xbfa80e50375d0d12	-0.04698420215438594
31	0xbf995bff058dfeec	-0.024765000070600715
32	0xbf9c326f6e8eea94	-0.027536145327511877
33	0x3f9e281879b454e4	0.029449827602623282
34	0x3f61ff9491d237c1	0.002197065520312486
35	0xbfa2f9782f4fd7b5	-0.03705955102479611
36	0x3fa3440afac89565	0.03762850104639418
37	0x3f956dc35833ffe7	0.02092652536248343
38	0x3f94838d96e445a5	0.0200330851885774
39	0x3fa1d75d1f9aa1f8	0.03484622011939459

linears.3.weight f8 [40, 40]
0	0xbfd8895bffd49659	-0.38338375075759284
1	0xbfbf3e1c27425f5d	-0.12204147299268926
2	0xbfd970df7a9e8524	-0.39751421904118645
3	0x3fd6492beb709508	0.3482160376755279
4	0xbfd02f3e3fa989dd	-0.25288349358575407
5	0x3fc49afd9186ad31	0.1609799347473682
6	0x3fd1b1c0c965ca88	0.276474186589589
7	0xbfb8f7c76beaf8b6	-0.09753080734933203
8	0x3fc5a6a4cf8220ab	0.16914806492082354
9	0x3fc82c32c89087bb	0.1888488272971339
10	0xbfaba7fcf0d52377	-0.05401602210856187
11	0x3f92730a7e0178d6	0.018016971531658786
12	0xbfc27914b203e65d	-0.14432009403371895
13	0x3fd8b19cee70c6bd	0.38584063801964047
14	0xbf946da697a3eac0	-0.01994953442133851
15	0xbfcb70b058cb818a	-0.2143764909333295
16	0x3fc22d0ec6475ac2	0.14200005227640672
17	0xbfce660f9167f82f	-0.23748964881809928
18	0x3fe3227aa70fcd45	0.5979588759350142
19	0xbfcdaf3fc7772615	-0.2319106792404432
20	0xbfcc7089d65ee9fb	-0.22218440024683148
21	0xbfd0460ca310af14	-0.25427547382672455
22	0x3f98d01d9c00803e	0.024231398245433626
23	0xbfc7729e1ef663a0	-0.18318535339201691
24	0x3fc6535ab45e15d2	0.17441877181060633
25	0x3fdf43282fc48db8	0.48847393669913286
26	0x3fc6af8f0e5c2a88	0.177232629787188
27	0xbfcd206a67e1b68a	-0.2275517470583746
28	0xbfc296a45faf3bb2	-0.14522223159880593
29	0x3fe1cb712dc9b193	0.5560842413229231
30	0x3fbc5457f7ec0c9b	0.11066198160919997
31	0x3f9b6591e702ae96	0.026754646038780715
32	0x3fd1db632a3e3db9	0.279015342000061
33	0xbfbe0f46fcb4ba8d	-0.11742061299876579
34	0xbfd77aebca7c1eaf	-0.36687750600729435
35	0xbfbb949e6281da1e	-0.10773649125062731
36	0x3fbc9815fd15fbe7	0.11169564656118745
37	0xbfdfee909194ad4a	-0.4989358350455474
38	0x3fe3943b5d53c06f	0.6118447134777066
39	0xbfa370a23676a5bf	-0.0379687015041088
40	0xbfce1390dfd17f99	-0.2349721043456128
41	0xbfc13e69bb6ba740	-0.1347171940936338
42	0xbfcc48eedf467079	-0.22097574140650858
43	0xbfc0baad0e087943	-0.13069689927301384
44	0xbfc0797a8da7564e	-0.12870723644907617
45	0x3fcfae1812eb61ca	0.24750042842675973
46	0xbfbacef57bab51ba	-0.10472044247882809
47	0xbfbe9bbdcfba3817	-0.11956392594785857
48	0x3fd3f60b8a88c95b	0.31189240006201197
49	0x3fcf7948181bf2a2	0.24588872124868028
50	0xbfb6a6aea7f7856f	-0.08848086930040265
51	0xbf7715189fd3d7e2	-0.005635353268408113
52	0xbf93804bb2baf03a	-0.01904409674055805
53	0x3f9a890340254fa6	0.025913286962648073
54	0x3fcedacf6a95239c	0.2410525579855659
55	0x3fc3808771537258	0.1523598960256034
56	0x3fd3689f3d104d11	0.30326062167405704
57	0x3fcabb539352b99f	0.208841750083093
58	0x3fcecc8ace92f9b5	0.24061713301302992
59	0x3fc4f1960488c9c9	0.1636226198330191
60	0x3f941c02328c9028	0.019638094268103284
61	0x3fc167dcd801b9c2	0.1359821371765531
62	0xbfc28a6c6a965e1c	-0.14484935001813504
63	0xbfad8b0d03b6e98e	-0.05770149870245965
64	0xbfc641ec7ed88c55	-0.17388683503768002
65	0x3f900c1f190492c6	0.015671239759415888
66	0x3fb0eb87c0a05dc0	0.06609390690606798
67	0xbfa17c122a83b408	-0.0341497113130132
68	0xbfc226e32adab671	-0.1418117484330881
69	0x3fdcab5beb71bee9	0.4479589270840579
70	0x3fb08b960e3669d7	0.06462991568552155
71	0xbfc754d0d6f5b27d	-0.18227587219316269
72	0x3fc3a5d451aa4a6d	0.15349821078833106
73	0xbfa8c705851678af	-0.04839341401678731
74	0xbfd30b01271a7ba8	-0.2975466615552542
75	0xbfb33f3be3ce22d4	-0.075183623425015
76	0x3f982f8fdcf954f8	0.02361893449991201
77	0xbfc841ba9f99dc31	-0.18950588982599606
78	0xbfabe9e08f134e33	-0.054518716302166224
79	0x3fc22ab904f3812a	0.14192879430539423
80	0x3fba4910dcf595ed	0.10267739672197936
81	0xbfa9d6e565b07326	-0.050467651999701865
82	0xbfcc2b7e5d0153b4	-0.22007731953877185
83	0x3f86f3fee98448f6	0.011207572461476616
84	0xbfaf1f0d56fd45df	-0.06078378378755266
85	0xbfa9f9562fb2fc07	-0.05073041279091944
86	0xbf3e84904242115d	-0.0004656650728594081
87	0x3fcb01fa43cfebf1	0.21099785147802622
88	0x3fb315225a6a00c6	0.07454123217940198
89	0xbfca77ac05094eac	-0.20677709813991407
90	0xbfd052940fc0a316	-0.25504018343285517
91	0x3fc9ebafc2649718	0.20250508300630865
92	0x3fb5cd35b052fa4f	0.08516250185764672
93	0xbf947dafd8e0e16c	-0.020010707485398724
94	0x3fd2e4f9f54e14dc	0.29522561030928585
95	0x3fce0490ccc1c236	0.23451433179754283
96	0xbfb5dc90d24dd9e2	-0.08539681562783799
97	0xbfc4c9b80ab06e72	-0.1624059726899421
98	0xbf959ef81a90f43a	-0.021114231702302734
99	0xbfc0506b4dedf352	-0.12745419793273044
100	0xbf8b37b10dde6adc	-0.013289817081206072
101	0xbfd1f22b014b3aa0	-0.28040576101640546
102	0x3f965006dc6e4304	0.02178965301897319
103	0x3fb0c25f5ef21694	0.0654658896256371
104	0x3fce5de357a0eb64	0.23724023607959588
105	0x3fbcda4fb3dcaa6b	0.11270616665994175
106	0xbfc7f8ca80e4712c	-0.18727999967166775
107	0xbfd2e03d4b1cc987	-0.2949364884872456
108	0x3f90711382fd7da2	0.01605635153771135
109	0xbfba13933b0432a4	-0.10186119261579535
110	0x3fc64b6daacce4ab	0.1741768917070535
111	0x3fbee295795f9af0	0.12064489567965686
112	0x3fd4d2bad41f5fd3	0.3253619262227378
113	0xbfc315512c2af4c1	-0.1490880456603119
114	0x3fa056497a0adc86	0.031908317706830266
115	0xbfd026db66ea767f	-0.2523716454541968
116	0x3fb060796711bef9	0.063972079909714
117	0xbfcf89ae518ef939	-0.24638918859813844
118	0x3fbfb4b53e6dcb75	0.123851135007312
119	0xbfb75f781553e07b	-0.09130049248403964
120	0xbfc3a1052dff756d	-0.15335144754400734
121	0x3fc1756d30cb77ea	0.13639607317503472
122	0xbf9e937c1375a8b4	-0.029859484374733028
123	0x3fcf29f5f584bd90	0.24346804130753386
124	0xbfbd7b43ca18d7b5	-0.11516212162027169
125	0xbfd19a9d556e6302	-0.27506192534342244
126	0x3fa9fbadaf393fa9	0.05074827922783182
127	0x3f9b921350e843a8	0.02692442113226759
128	0xbf9ee951e1de601c	-0.03018691960423335
129	0xbfa6b81b9c1cb4c7	-0.044373381430298724
130	0x3fc1fcb51c6d5a9d	0.14052451980633843
131	0x3fcd49a979c71600	0.22881048628021006
132	0x3fcf4ab478a156b6	0.24446731462619703
133	0xbfc07d719c3d814d	-0.12882824067038215
134	0x3fc7fc837c43d7cc	0.1873936039698364
135	0x3fc91a2d033a12ba	0.1961113229518981
136	0xbfb37071f30e0881	-0.07593452629046916
137	0x3fd1e30f3042ad11	0.27948360169348613
138	0xbf8468ad4fe7caf2	-0.00996528053381016
139	0x3fd05d8802bb3708	0.25570869700173704
140	0xbf8b4fce96b2411a	-0.01333581349743489
141	0xbf8bae91bae38ef1	-0.013516558185478785
142	0x3fad4040b861ed18	0.057130835063583685
143	0xbf7f7203d1e2e60e	-0.007677092477189186
144	0xbf9776e65aab4e2e	-0.022914504322058153
145	0x3fc7dc0e11c1885b	0.18640304438582941
146	0x3fcbc5dc1162a5d2	0.21697569703000724
147	0x3fd919d274c7d688	0.39220105556828644
148	0x3f9c9f27529429ba	0.027950872817237495
149	0xbfb49980cf7a5a60	-0.08046727242831642
150	0xbf12f10ba119ac3b	-7.225640754320108e-05
151	0x3fb0f2a3d8777fba	0.06620239291032606
152	0x3fa1d1bfe25fe7e3	0.034803387054082945
153	0x3fcda56d92220a98	0.2316109622516549
154	0xbfc3c1919b323ee8	-0.15434475019400584
155	0x3fb354b2442998bb	0.07551111377833568
156	0x3fc31940e9fcf3bf	0.14920817780685344
157	0x3f98e983d5b6a3a9	0.024328288954766162
158	0xbfb7286daa16c7d6	-0.09046063807070878
159	0x3fd14a8d84d921cb	0.2701753423066548
160	0xbfd1c7ea85c19943	-0.2778269106114701
161	0xbf32b334fd81e529	-0.00028533977229690477
162	0xbfc7c6b9cfb12390	-0.18575213090141718
163	0x3fa22b380a885d2f	0.035485984121061846
164	0xbfb9006874459ef1	-0.09766247595473111
165	0xbfc177ee405eda95	-0.1364724935826486
166	0xbfc9d13ae088ea90	-0.20169769252409653
167	0xbf812adcbd6a0856	-0.008382534532987911
168	0xbfc997504c3e65ba	-0.19993022654379705
169	0xbfb3a68623d1ec77	-0.07675970434677191
170	0xbfab1ccee2008d75	-0.052954163635400876
171	0xbfc229b0e7f8dd28	-0.1418973095585241
172	0x3fd4a148a7113440	0.32234398188740343
173	0x3f95efa1fd5f2c37	0.021421938981614565
174	0xbfa98d757cd97a18	-0.049907371035022574
175	0xbf883f02a1e27e91	-0.011838932576494517
176	0x3fc74a4e542cece1	0.18195513830310175
177	0xbfc908039cb95ca8	-0.19555707123320087
178	0x3fc92ad92f29325f	0.1966201286580995
179	0xbfcad2d4598159f1	-0.20955900545477804
180	0x3fcacc80b768d521	0.20936593013326735
181	0xbfd11509d6d6033d	-0.26690908413006637
182	0xbfc6033bdaefef20	-0.17197368803305668
183	0xbfd06f2731356a99	-0.25678424649746884
184	0x3fc731a1cc9a6c4d	0.18120214929953918
185	0x3fd67d8855a52331	0.35141189922119326
186	0xbfb242213bd50128	-0.07132156096213704
187	0xbfdbb8748f6f3ea9	-0.43313325888901005
188	0xbfa983ffb585aabe	-0.04983519640776056
189	0x3fd2ca016b657506	0.29357944000169345
190	0xbfb352b4bcdbdb6b	-0.07548074351130445
191	0x3fc5adc65f010c1b	0.16936568869468335
192	0x3fd66452c09129a7	0.3498732452905195
193	0x3faefdc829719f50	0.06052995210558143
194	0xbfd4239cff2f255f	-0.31467366142586245
195	0xbf80dee6e988d855	-0.008237651826771645
196	0x3fcb52f4fcaa637f	0.21346914612947995
197	0xbfcc82d198cf6134	-0.22274227105550326
198	0x3fcf8f0848dcb0c6	0.2465525012752378
199	0xbfd0866a3f96bb6f	-0.2582040425285674
200	0x3fd027452254d487	0.25239685394928596
201	0xbfc7a662daf59246	-0.18476520243997835
202	0x3fc367f85aa43301	0.15161041665887612
203	0xbfc5bd30fc657613	-0.16983616184272474
204	0xbfc90d4b5d785b00	-0.19571821273776635
205	0x3fb08fab6ad001f0	0.0646922240994241
206	0x3fc03a4aaacb3032	0.1267789205506929
207	0x3fb368b629692a2e	0.07581652174955231
208	0xbfd216cd9eca8293	-0.2826417971319099
209	0x3fa49c39a60d7efc	0.04025440361033181
210	0xbfa88490f8f40232	-0.047886400594510894
211	0x3fb3c0d1a11e95ea	0.07716093238430913
212	0x3fc4852d38f2cd1e	0.16031422882733976
213	0x3fbd1b352378ae04	0.11369640460969072
214	0xbfb999ad83c0f978	-0.10000118700643224
215	0x3fa53b194b2053ad	0.04146651308125313
216	0xbfcc249631275f88	-0.21986653709495507
217	0x3fc69d71cbeb5e21	0.1766798253727169
218	0x3fbc52687f045c0f	0.11063244915963842
219	0x3fbfc0f412efb508	0.12403798544228917
220	0xbfc9a0a128ba6fe7	-0.2002145241611963
221	0xbfc3b1eb3abff180	-0.15386715286866703
222	0x3fc639003246bf06	0.17361452536487593
223	0x3fb2c7106c793052	0.07334997795368395
224	0xbfbdaa8586a23a53	-0.11588320290523173
225	0x3fc717a7700194a7	0.1804093644051694
226	0x3fc1976855940b82	0.1374330919134899
227	0x3fcba9d421aab7af	0.2161202587498656
228	0xbfcda45487d73fe5	-0.23157745964863277
229	0xbfceff6d6d72e901	-0.24217002720053674
230	0x3f72ea60d89c61ca	0.004618051820010691
231	0xbfcc8dd7829c0b29	-0.2230786693326874
232	0x3fc4a72a28b57830	0.1613514612935787
233	0xbfb4ec63cd47ba3d	-0.08173202287410049
234	0xbfcfe1b063c75b7e	-0.24907498237618236
235	0x3fd0a3968407ea03	0.25998461621898644
236	0xbfb919654f106440	-0.09804375820421374
237	0xbfc34c53f3c2cc66	-0.1507668438185618
238	0xbfb38b1a8d1fc213	-0.07634130425845624
239	0x3f913c9ac7f8d6ca	0.016832750754665317
240	0xbfaac48ba842ed0a	-0.05228077343914535
241	0x3fc09d092aa0d867	0.12979235249958096
242	0x3fb82a1cb4cd5a89	0.09439258016696263
243	0x3f9ed454cd7d18d3	0.030106854478867028
244	0xbfc880d1ad0a45c1	-0.19143124531960434
245	0xbfd1234f6e9aacd2	-0.2677801685446869
246	0xbfb701ae5d44cb6f	-0.08986940171307166
247	0xbfcbbd2f8d62405b	-0.21671099093919363
248	0x3fd121bf9db83397	0.26768484499262385
249	0xbfba83981a2ae622	-0.10357046736580647
250	0xbfd1b53d1a2c57db	-0.2766869311902817
251	0x3fc844793bcd93a0	0.18958964748449336
252	0x3fc44e62732178f6	0.15864210721606015
253	0x3fc1f9bca9c2f693	0.14043386735095406
254	0xbfcf25028b857c17	-0.24331695377893034
255	0x3fb763c71e979e7d	0.09136623856431388

linears.3.bias f8 [40]
0	0xbfa0b68ce60234f2	-0.03264274890634934
1	0x3f906a9b229ef828	0.016031669605347215
2	0xbf92e139b092af9a	-0.018437291528854517
3	0x3f855774440b961a	0.010420711828781615
4	0x3f98752553f1c407	0.023884375809249316
5	0xbfa2ed97121b5ec6	-0.036968918762509115
6	0x3fa3cfa8cd8d86ab	0.03869369038762945
7	0x3fac3ad22690f0d1	0.05513626786020754
8	0xbf7b8f145508c670	-0.006728248045463667
9	0xbf900153b737d8ee	-0.015630062158344886
10	0xbf9699c5665950b3	-0.02207096516788516
11	0x3fb2b955f691939c	0.07314049978010789
12	0xbf9d7097fd1b9a7f	-0.02874982340190479
13	0x3f99604519c6f7bf	0.02478130311805393
14	0x3fab192ebe909276	0.052926502954766017
15	0xbfa13cc08f7b2b98	-0.03366662742117582
16	0x3f9a75051fbf5ecb	0.025837020933834148
17	0xbf9aba074ef35f5a	-0.02610026759506865
18	0x3fa3e2ff85f16c41	0.038841233349295574
19	0xbfa34969a20ee9bb	-0.037669468910695746
20	0xbf9880547efae89d	-0.02392704033875558
21	0xbf97e54ee193e4c9	-0.023335678594752083
22	0x3f8e235de2b22790	0.014715894203863461
23	0x3f8dec4d4190da43	0.014610866130266525
24	0xbf9a858582286aec	-0.025899969166952738
25	0xbf734acbe2218c42	-0.004710003298984468
26	0xbf95fbdd2ad7cc6b	-0.021468597164084374
27	0xbf9e743ce3cf4a3b	-0.02974028721275544
28	0xbf81c8bb3d8e931b	-0.008683646026676642
29	0x3facb31f296ad3fa	0.05605409031469573
30	0x3f444770f9b20aec	0.0006188680303157146
31	0x3f7c70f5bb432952	0.006943664444586455
32	0xbf9726118d53c116	-0.022606157542157744
33	0xbfa25d0fc32a4078	-0.03586625344644373
34	0x3f9b854b2f3bacdf	0.026875662572746314
35	0xbfa29ac878d605ba	-0.036337151289454764
36	0xbf89d4219185286b	-0.012611639264509663
37	0x3f9711bfcf7d05ba	0.022528645552716255
38	0x3fa9592f0105b9ab	0.04950854194145234
39	0xbfa2822b07e67a94	-0.03614935370864206
