1D_Transcritical_Inverse_Problem_n_initial_0_01/Models/Model.ckpt-33500.pt (torch, 82425 bytes, 43 tensors)

linears.0.weight f8 [30, 1]
00000000: bdad 7e7d 5901 de3f 1f2b 27c9 7a41 893f
00000010: 1524 7efd a9ba d13f 195a 683b 3279 c6bf
00000020: f336 a2f9 07e7 d2bf 2e1b 04d3 cd32 c33f
00000030: ead0 2811 c463 b43f 4bbd e128 e2ea d0bf
00000040: 199c 6315 a47d 8abf dae5 c25e 259e 8bbf
00000050: 66da bf22 2b00 d63f 0f3f 3824 3917 8cbf
00000060: ef65 d87f d159 8a3f db18 3ebb e10a d53f
00000070: 0b1e e8be 09ae d1bf 9081 6aa4 1350 c4bf
00000080: 5226 0e87 b176 d63f 851d f2a4 eea2 b2bf
00000090: 2104 35d5 dad5 8cbf 66ed 9f02 8c4a d63f
000000a0: b06b 0023 63ec b6bf 34c4 bd77 f415 c23f
000000b0: a587 8329 9e70 d1bf 6842 3f62 85a0 8c3f
000000c0: c671 b475 a8cd c03f 55b9 a695 9978 88bf
000000d0: 2bad a806 0347 b3bf 7acb 9858 0f1e abbf
000000e0: 3044 dd57 471e d13f e56f a7d3 ed24 dbbf
0.46883237128596617 0.012331923736288495 0.27701806788587763 -0.17557361508143357 -0.29535102251325823 0.1499879150726086 0.07964730662280642 -0.2643361472355152
-0.012934953596824216 -0.013485233263383845 0.3437602843618265 -0.013716169755781075 0.012866627420453162 0.3287891701260272 -0.2762474407504391 -0.15869374778868606
0.3509944743060248 -0.0727986481380097 -0.014079770690502315 0.34829998260803163 -0.08954448322803787 0.14129501196615168 -0.27249864629822645 0.013978044567836537
0.13127618548686665 -0.011948776130193886 -0.07530230438776601 -0.05296371418480468 0.2674730642366425 -0.4241289679464429

linears.0.bias f8 [30]
00000000: 6761 8979 22f9 b6bf 362c b6a5 60fe c9bf
00000010: c82e 90e1 4171 a03f 22e6 62ac ca25 ca3f
00000020: cf64 365c ae3c c1bf 1ded 3267 cfb4 c43f
00000030: f1d7 ec38 a676 d4bf 4029 0b7a 0b1a a13f
00000040: 7eb4 bc49 0b8e d23f d4b9 3e5d 9d47 d73f
00000050: 6031 3125 0c6e c3bf 9f79 1b23 e59b d83f
00000060: 1590 7fdf 68f8 d1bf a929 aac3 98ce acbf
00000070: b12d e4a9 c34c c3bf 4712 f471 f1ab c2bf
00000080: a178 9ed6 1734 b7bf ed49 1fc0 96a3 c1bf
00000090: c35e 1e41 8d65 db3f bd38 37b6 1413 c33f
000000a0: 86e3 c4c0 7b49 c2bf c641 3f1f 6e6a bebf
000000b0: 3780 978e c4f2 c43f 2277 2360 e496 dbbf
000000c0: 200d 76a4 c7dc cabf 7165 dcee 3ef1 c23f
000000d0: 945a 2eed 2b00 a5bf 929d 2248 d4c9 c83f
000000e0: 6229 1c12 8782 c53f 67b3 0165 6d62 cc3f
-0.08973899333193956 -0.2030754861010295 0.03211408499200058 0.20427831094075183 -0.13466434004366198 0.16176788844118387 -0.31974177893732675 0.03340183129110352
0.28991968346492303 0.36374601465186385 -0.15179588142417355 0.38451507976960814 -0.28078672243123154 -0.05626370800480924 -0.1507801608607742 -0.1458722883618455
-0.0906386279079663 -0.13780483609168873 0.4280732284473567 0.14901980302096787 -0.14286753571084548 -0.11881149542683209 0.16365868532648317 -0.43108472240952456
-0.20986266641930573 0.14798723853236198 -0.04101693411137322 0.1936593391630877 0.16804588684346827 0.22175376350369477

linears.1.weight f8 [30, 30]
00000000: c0e7 9e0f c201 ba3f 04b1 ec3e eb2f e2bf
00000010: 02ae 29f7 2d9c cb3f 8f0b 0e05 2e60 c9bf
00000020: 62bd 6e62 ebf8 c63f 0d05 fa38 6628 c23f
00000030: 7d68 78a1 4c16 cfbf 4b5f 8495 046c c4bf
00000040: de62 000d 2126 b73f 26ae 6bb8 caf4 b63f
00000050: 8c9a 5fcf 4070 9a3f eb64 dc63 e756 e43f
00000060: b12c 3193 1c22 b03f 089f d760 bc50 6c3f
00000070: cf55 dbe8 4dab d0bf 5018 dada f8ca c43f
00000080: 57be 2a46 ddfc b13f 544b 9c19 7989 c33f
00000090: 465e ccb6 f191 c23f 6246 0996 d779 cdbf
000000a0: d543 3934 2450 cebf af8e 991e 9016 b6bf
000000b0: 6c40 4a33 d60f cbbf 84d2 b4e7 bee2 e0bf
000000c0: 2b18 18c7 9492 993f 6e41 ccc4 955a dc3f
000000d0: 76f3 ab49 3762 c8bf d2e0 a42b 60d6 c5bf
000000e0: 0d6f 75ca e960 c93f afc9 0efc f5d6 ab3f
000000f0: 528d 132b 3caf b1bf ba1d 205b 7b77 c5bf
00000100: 1116 050f d7a2 853f 7b24 36c5 12bf d1bf
00000110: 9d21 de32 5875 bebf b7dd 18fb 0119 a0bf
00000120: 5a17 3d13 97a8 cb3f c78c a2fb 6fec c43f
00000130: 272f 5f66 16bb ccbf 2a83 362f 92ef ad3f
00000140: 6213 fbf5 a373 c13f 6317 9b67 087c d7bf
00000150: 963d 458d d20d a0bf 2f2a c516 d123 cdbf
00000160: 143e 5012 5958 9dbf 868c 5148 b456 bf3f
00000170: b360 62d6 c6d0 b3bf ea16 be23 e617 d0bf
00000180: dcbc 38b3 1c86 afbf 109a aeb6 2c04 a0bf
00000190: 0d09 3865 7fbd b43f a409 9519 2e53 8f3f
000001a0: 41fa c074 bf67 bd3f ff9e 81f9 8e89 c73f
000001b0: 6be2 2edb 9dc6 c33f 0407 7411 96d3 bbbf
000001c0: bc0b 4373 8f5c a63f 5f6b 58cd 1d3b d13f
000001d0: 734d ba02 708c a6bf b101 dac7 e503 ca3f
000001e0: 61e3 8ed6 2407 d0bf 5080 60e8 e32b d83f
000001f0: 6b29 39e8 e9f4 c33f 16ee f787 772f c03f
00000200: 1a94 f9b3 6257 883f 75d0 ed35 9e6a c3bf
00000210: 65e8 42f6 4498 bcbf 8f00 61c5 7310 c03f
00000220: e9c7 665d 7f1d c3bf 8160 30da 3220 d2bf
00000230: e592 8f62 8a7c 8c3f e4fd 62e5 3327 e5bf
00000240: 84fb 83a0 0e35 d43f 103e 03a7 f3d6 9f3f
00000250: d43c 91b2 0e49 c6bf 446d 6d00 d170 a4bf
00000260: 1982 404e c21d b4bf f369 1072 28fb d43f
00000270: c832 5fc1 e3f9 c2bf 50b9 fa21 a999 cd3f
00000280: 5447 5261 226b d63f e258 e505 63fa c33f
00000290: 58f2 98e3 6d02 cfbf d502 d0cb 19c5 e83f
000002a0: 6148 af3f bc71 cebf 7a5e f266 d3f7 d9bf
000002b0: b053 98bb 5910 d23f 9b28 ef2b 7dee cd3f
000002c0: 6a9f 100e c825 cebf 170f 7415 734c af3f
000002d0: 3372 065d 90cf b03f 3a23 b2c4 5f95 dc3f
000002e0: c230 57d6 c427 b03f f761 e4db 7959 d13f
000002f0: 9df7 cf52 bfdb c93f 3a83 59d7 97b0 c1bf
00000300: beb6 313b 3e86 ccbf c5b5 c929 af34 d23f
00000310: 6c27 86e4 09c3 e4bf bbbd d3f5 e92c e3bf
00000320: 1d3e 9574 c2dc d2bf c675 14b5 c2f1 cbbf
00000330: 4acf 022e 3d2c e23f 5c7e 9bca 588d c43f
00000340: df92 efd9 5028 97bf 97a5 109e 841d c53f
00000350: ed5a ba16 e3a1 c23f 1fcf a77f 9ecf 82bf
00000360: df92 ec76 3bb0 dcbf 46c2 14f4 bc60 d2bf
00000370: 22a4 6e0a d86f bb3f df8b 8da3 83f6 c43f
00000380: d370 bd7d 367a b43f bb4c 141f 752e d53f
00000390: 5324 484a ba65 aabf 2b9c 069a 3f31 e4bf
000003a0: 81dd de83 0a36 bd3f a9b6 315a 4083 c83f
000003b0: 0ec0 e630 4cc4 abbf e28d 2d26 6104 b33f
000003c0: 2d21 dc9f 53bf d23f 4ad7 4dc8 3e80 a23f
000003d0: bead fff3 582e d2bf 57b4 5685 8b0a 74bf
000003e0: a36e 7d2d c77c cb3f a796 93cd 9ec4 b63f
000003f0: 23cf 0032 867d c6bf 4895 ef24 c775 a9bf
00000400: a8d9 6e78 fcda dc3f cb9f 1423 fba3 da3f
00000410: fc0b 122a 2097 ce3f 28a2 4f8b 11da e13f
00000420: 02b1 ade0 5aa2 dabf eae9 4c0d 789c ce3f
00000430: 2680 f9e7 7ce6 cc3f c583 26a2 3806 813f
00000440: fd36 a79f 65a3 d13f db9d 7255 820c d1bf
00000450: 3156 7c28 b1a7 d13f a6bd 75a7 3c1a 81bf
00000460: 1e7b 92fe d7ab 6d3f d832 ddf9 4f12 96bf
00000470: b57e 7adb 3949 d2bf dab0 d788 e5a5 ac3f
00000480: e83f 53d8 2783 b03f 9bff 76fe ceea b13f
00000490: dcbd 9e74 49eb a83f a8e0 42f9 0d22 c6bf
000004a0: 2e3e 7e47 40f7 bebf be30 06d5 d290 d0bf
000004b0: 7f00 3d7c 2b12 7fbf 9edc 72f7 f836 c73f
000004c0: 6bda a722 5960 b33f cd75 8a6d 6875 b93f
000004d0: be5f 884b dfad c1bf 7809 b884 0ddc d0bf
000004e0: 3c46 ee35 1bc2 b53f 6fc1 1b1c ea15 b7bf
000004f0: 5d53 cc1f b2e0 a1bf c6e8 ab7e 432c 9dbf
00000500: 3654 5ca2 3c83 c3bf 4311 4512 48cf c7bf
00000510: 6101 b407 d1db c5bf 749f 5ff3 b760 ab3f
00000520: 1355 417c 66be a83f 9fe0 7f9e b4c8 9fbf
00000530: 4e23 1a65 d9a8 d6bf 6ec5 a93e 56ed b8bf
00000540: 702d 84d4 f3a5 c13f 9670 abc9 0747 b7bf
00000550: 4280 2e41 78df b0bf 14c2 4123 3efe a93f
00000560: 4bc9 61f3 095a cf3f f471 4571 64b6 c3bf
00000570: 08ae be8d 3c2f b3bf c66d 079a 4262 b43f
00000580: 8d48 33d3 0280 aabf 58e0 5d8a 9f52 c93f
00000590: c671 1d80 1820 ccbf 22eb ef30 8f43 c13f
000005a0: aae5 d841 0a4b c13f 4310 a8c6 37d7 bfbf
000005b0: 762e ad49 1b93 933f 21dc e7a2 9de7 b6bf
000005c0: 95c8 5f3e 6350 cabf cbef 67e9 4a1a bdbf
000005d0: f32c 70c3 a540 a73f 7c5e 0c34 9837 cabf
000005e0: 3e77 e9eb 0e76 d43f 39ff 166e 5881 e43f
000005f0: 4ac3 fabc ac15 d03f 9d55 05d2 8828 e13f
00000600: 7525 c92b 292f dcbf bec9 68b1 bd4a d13f
00000610: b70f a8c4 4630 c63f c282 b1a2 1362 cdbf
00000620: 4dc2 7f29 ce72 c0bf 5bfd 6b2d 8a05 a23f
00000630: e23d cba5 8348 d23f fa71 1250 daba b3bf
00000640: 0d50 99bb a872 c0bf d59a 02c5 4847 cbbf
00000650: 29f2 7612 e1a2 ba3f 1561 0e1f a120 e0bf
00000660: 747d b3d2 9b81 d33f 6d94 3875 07ea c33f
00000670: fc55 7329 ac68 d5bf 0afb 26c8 3f27 9bbf
00000680: 3c9e 78b7 553b 9b3f 9edc 7c20 da1c c4bf
00000690: b21d bc00 0e2b c1bf b41f 2db7 4790 b2bf
000006a0: 79f3 5689 51a9 cb3f 7a69 bba6 4b83 c33f
000006b0: 62ff 32cf 7ac2 cbbf bf66 2c26 842b d03f
000006c0: 89ef 33b6 a490 ba3f fec6 f659 9010 b8bf
000006d0: 4787 4688 9335 d73f 2f12 3db8 b9c5 95bf
000006e0: a826 6c3d 408b cf3f 06d8 a62f 5120 c23f
000006f0: 4683 5994 c0c0 adbf 2cb8 bf1d 4a87 d2bf
00000700: d9dd 3abc 7a0a b03f 8ad3 e8a0 afc9 c0bf
00000710: deb9 13f3 06ee cdbf 0b45 41de 3186 b1bf
00000720: 4281 b385 9d56 b43f 29ee dc25 b34e c53f
00000730: ebfc 5cd6 a719 ac3f c175 07d3 15b0 97bf
00000740: e789 f0e7 4527 cd3f ddff dc62 0106 d2bf
00000750: 7103 372b 5482 c93f bb35 e33c 43c5 c9bf
00000760: 8cdc a68c 972b d0bf 6332 472f fb36 b3bf
00000770: 7c03 5265 be3c d13f ffe7 9ff3 d838 c53f
00000780: 3c6d 0248 aeed cebf eaf9 6cb1 733a cfbf
00000790: 6509 5bb9 da60 c83f 0939 775b bbbf afbf
000007a0: e105 ac28 58d1 d0bf bfe8 b0dd 1585 c03f
000007b0: 48dd 75f7 cbd8 c2bf 3c36 212c b81e c0bf
000007c0: 8826 5d24 a57a c5bf 2f39 9777 9740 b23f
000007d0: 5383 a7d3 c7ac 7cbf 303e 40c3 2d7a cd3f
000007e0: 4c0f cff3 9b92 d6bf 46b2 d909 9860 bb3f
000007f0: 41a2 425f 6e43 b43f b322 473e 6f77 c3bf
0.10158932572713208 -0.5683494786258341 0.21570372169968272 -0.19824767348117375 0.17947141939428507 0.1418578890043495 -0.24286802181524428 -0.1595464448989737
0.0904255539648022 0.0896727276082677 0.02581883683878998 0.6356083822639936 0.06302050202900734 0.00345646660456456 -0.2604555868141149 0.16244421659593167
0.07026465380726542 0.1526328444529904 0.14507886338900472 -0.23028082681644252 -0.23682072210297514 -0.08628178355280157 -0.21142079834362748 -0.5276789212717437
0.024973225261440895 0.44302887171308825 -0.19049731347322635 -0.17060472613389394 0.1982700575416562 0.05437439634205831 -0.06908012439412417 -0.16770879697308577
0.010564499040479654 -0.2772871900456903 -0.11897803537261216 -0.0314407938971572 0.2160824626864109 0.16346549784529982 -0.22445945738433545 0.05846840692834683
0.13634156714229123 -0.36694536321407706 -0.03135545706265501 -0.22765554057908008 -0.02865733312870418 0.12241675153340922 -0.0774044297598973 -0.2514586781547751
-0.061570069196358296 -0.03128185014729834 0.08101650448955784 0.015295372157770278 0.11486431694445633 0.18388545210768112 0.1544987983923137 -0.10869729925255106
0.04367492944722737 0.2692331796003397 -0.04404020341203365 0.20324394472483 -0.25043602898545286 0.37767884915411276 0.15591167296436068 0.12644857539258741
0.01188542472591263 -0.15169122346162892 -0.11169844639053535 0.12550208223001788 -0.14933769283885504 -0.28321524913327073 0.013909417279088962 -0.6610354881485674
0.31573835063311884 0.03109341341843047 -0.17410453528507353 -0.039923220922640584 -0.07857908640335899 0.32782946719240086 -0.1482510275076463 0.23125185164594564
0.3502889585880571 0.1560786989964021 -0.2422616349521316 0.7740601521219 -0.23784592733005908 -0.4057510857905765 0.28224795646502354 0.2338406052134062
-0.23552799879802971 0.06113013874894884 0.0656671740638977 0.4466170712335501 0.06310682518887048 0.27108618234481646 0.20201865714619496 -0.13820169463272142
-0.22284677400914704 0.2844655902943852 -0.6488084281311166 -0.5992326546965424 -0.2947240961557059 -0.21831544725220747 0.5679002665187707 0.1605635632795267
-0.022614730169055682 0.16496331899660951 0.14556540117037944 -0.009185064573990652 -0.44825636495288096 -0.28715442501109967 0.10717535261814295 0.16377301679594233
0.07998982019256866 0.3309605411061047 -0.05155737072716051 -0.6310117729489141 0.11410585135933184 0.19150547412885047 -0.05423200699749496 0.074285575695789
0.2929276524669316 0.03613468356245038 -0.2840788252640002 -0.004892868998848852 0.21474542351903833 0.0889376880546374 -0.17570569459496096 -0.04972669912221278
0.4508658577064133 0.416258606203425 0.23898698858474166 0.5578696938437746 -0.4161593622327616 0.23915005349574808 0.22578393294225058 0.008312647293509454
0.2755979594338525 -0.2663884958696749 0.2758601088874882 -0.008350824223014208 0.0036219805375162914 -0.021554231286517872 -0.28571936067053666 0.05595319076005163
0.06450127631546787 0.06998914444466069 0.04867009686074272 -0.17291426344832428 -0.12096025224149606 -0.25883932879584026 -0.007585687508083193 0.18136512834982893
0.07568890663228849 0.09944775270783808 -0.13811865985985422 -0.26343095742063083 0.08499307696026731 -0.09017813860169153 -0.03491741789017653 -0.028489164930740406
-0.15244253089682197 -0.18601323024825875 -0.17077076793794801 0.053472279032404396 0.04832763926303065 -0.031039068388026277 -0.35405573724033423 -0.0973714735971691
0.1378769672086082 -0.09092758821083388 -0.0659098776945948 0.05076784305936513 0.24493526824842102 -0.1540036728937505 -0.07493952236716706 0.07962433109735575
-0.05175789669159867 0.1978339601153063 -0.2197294831811531 0.13487424745093174 0.13510254111478776 -0.12437771415722047 0.019115854617935267 -0.08947167613210684
-0.20557823701489455 -0.11368244360340822 0.045415096385193275 -0.20482161084577288 0.31970570600775605 0.6407892370407132 0.2513229222777694 0.53619805354781
-0.4403784682841299 0.2701868278992626 0.17334827997558275 -0.22955556339277022 -0.12850358034440248 0.03519851498094325 0.2856759184914762 -0.07706989722141336
-0.12849911842442943 -0.21311292285573438 0.10404783917233175 -0.503983078629093 0.3047856862667324 0.1555795023315655 -0.3345137028494205 -0.026516911116909937
0.02659353191680068 -0.15713049494090553 -0.13412642513160972 -0.07251404020382674 0.21610469060933804 0.15244432107176548 -0.21687255017422574 0.2526560185229804
0.10376958320915554 -0.0940027446402176 0.362645037728829 -0.02126207530024454 0.2464371013559703 0.1416112406420213 -0.05811120806607177 -0.28950741677442937
0.06265990348298746 -0.13115496975811097 -0.23382651204106158 -0.06845390010973433 0.07944664491833911 0.16646422718791712 0.054883236806284895 -0.023132649426647726
0.22776101899314868 -0.2816165414296828 0.1992898188600765 -0.2013324782659945 -0.2526606439163934 -0.07505769638300701 0.2693325032669731 0.16579734702810353
-0.24162844196403366 -0.2439713112198228 0.190455761438055 -0.062009673037765785 -0.2627773663699298 0.12906144451864596 -0.14724111159351083 -0.125937482402536
-0.16780533099727202 0.07129809064574454 -0.007000713895167393 0.230291099870088 -0.35269831475692537 0.10694265594947536 0.07915391755762703 -0.15208235302840975

linears.1.bias f8 [30]
00000000: 2542 55ec ec7d bb3f 6e59 060d 8645 a93f
00000010: e8cd 8608 dbd6 48bf 5f89 db59 2c1b b2bf
00000020: aaf3 3d22 5c29 afbf 5a3c 1c08 9839 a33f
00000030: bf54 ee22 b7a1 9fbf caad 1b86 9a93 b83f
00000040: a062 f504 bf6d b23f a972 c39d a96d 833f
00000050: e9f2 bd79 5609 c33f b364 0104 9ef4 a93f
00000060: 2dbd 6065 c1da bebf 5c4c 7471 a730 b13f
00000070: a7f9 650f e66f b03f 2139 6b74 5ab2 6dbf
00000080: e7cf ee1e b0fb ab3f 57e2 8e7a 7759 bf3f
00000090: 0e62 8f45 4e55 b63f a24d c26c c935 afbf
000000a0: 9e1a 1d77 2025 bcbf b9b5 617d e4c4 a8bf
000000b0: 10be 87bd a3d9 85bf 07e0 f3e0 d57b b43f
000000c0: 7ac5 291d 48a7 a1bf 456a 8af9 34ea 9ebf
000000d0: 1a80 0866 196a a5bf 8b06 568d 10c8 b73f
000000e0: de55 728b 238c b6bf 7d79 bf8b c20e b8bf
0.10739022035455344 0.04935854825014273 -0.0007580346582955451 -0.07072713083065228 -0.06086242597573428 0.037548781385446886 -0.030890332705514775 0.09600225233196294
0.07198709364946376 0.009486508490618677 0.1487224668925571 0.05069440649885717 -0.12052544331594524 0.06714865226631289 0.0642074382394414 -0.0036250845617821358
0.05465460183714282 0.12245890371458167 0.0872391624283255 -0.060957235838169824 -0.10994151027726182 -0.04837717085397792 -0.010669020864013695 0.08001457921989195
-0.03447938304897043 -0.03019030354571785 -0.04182509775660055 0.09289649439417695 -0.08807584909876406 -0.093975218885566

linears.2.weight f8 [30, 30]
00000000: 5e27 64bf 76b8 ccbf 32a1 8fb1 ece3 c43f
00000010: 4ef9 0aaf e662 cabf b41a f576 a32a dc3f
00000020: 8788 8caa e566 dcbf 814f eaa1 7162 96bf
00000030: 28fc dbad f715 d1bf 575e c87e 2e8e c63f
00000040: 3d4e 9b02 c606 c33f cd15 c58f 1329 d7bf
00000050: f971 06c6 d6b5 cabf 0e60 8d2b 4571 cb3f
00000060: cdae 1d05 5992 c5bf 6a5e 44c9 668b d2bf
00000070: c361 33bf eb3f bb3f 056a 8171 759a dfbf
00000080: 3134 ef4d fe63 b53f 9f67 04f8 9175 c13f
00000090: 2387 acf0 fe12 d63f 7e3b 1e24 be12 c4bf
000000a0: 7996 c386 b882 bcbf 1063 5b1e ab51 c3bf
000000b0: d771 0288 9030 b6bf 3afa c9e9 326f c8bf
000000c0: 9308 a1ac 173c d9bf 644d a08c 20c1 cabf
000000d0: 2ddf 4c35 b979 c9bf eece 9d4b 6752 ce3f
000000e0: 7b6a ec9c ff3c a53f db22 0eff 86e8 cdbf
000000f0: 838e 0ca8 741a c73f aa5d eb7a df72 d1bf
00000100: be4c ebfe c802 cc3f 32c9 f533 b36b c53f
00000110: 4a54 deb7 c2e9 c7bf a992 2602 b51a ce3f
00000120: 125f bd1b a20f c93f 69b8 6802 7cbb cfbf
00000130: 5571 8787 258e b0bf ff44 08a6 16a6 bf3f
00000140: 94dd de4a ef6f d03f 8095 8ada c692 c73f
00000150: 333a fffd 6163 d03f a7ee 00d0 9ace dabf
00000160: d91d 1668 8ec3 c13f c609 1dab dbba b5bf
00000170: f8e0 520b 8a50 ca3f 5ebd e438 d0c7 a7bf
00000180: 4a78 51fc 0356 893f 1905 0165 08c8 8abf
00000190: 2e25 3382 90d2 c33f 3fed 154e 2127 cfbf
000001a0: 1020 b9f5 abdd ab3f 14f9 6d37 1370 cb3f
000001b0: 73e1 7c13 ccdf d13f d974 bf4b 0239 b2bf
000001c0: 1a0b 5b12 696e c3bf 2956 ee1b b79e d2bf
000001d0: f669 5b38 3a2d 813f 9ab9 bebf 133b d53f
000001e0: 294e 4ccb 7716 d0bf 0c49 0205 f15f bdbf
000001f0: eb33 f80d 2049 df3f c2c4 5e80 e98e e53f
00000200: 9179 7a37 2a2c eabf 70e3 ebe8 34b9 b43f
00000210: 01b5 17cc 5f09 f0bf 11c1 aa59 e0ed ac3f
00000220: dd91 4002 1bf8 d5bf fd22 97d4 1455 e5bf
00000230: 52b7 bece fec3 e2bf 9de8 5e6b 5721 db3f
00000240: 7701 1083 d7d2 e53f 7c3a 562f 96fe 84bf
00000250: 0cb1 5b3d 05ce c1bf 00e9 1bbf 5402 eebf
00000260: c835 e50d d1a8 ad3f 67ef a575 3145 dcbf
00000270: d1d3 73f3 0aad f13f 071c 5568 25a8 e6bf
00000280: b513 534a 8dc3 cabf 5b8a b901 5471 d23f
00000290: fa05 47ba 1dd5 f13f dd98 c55f 9956 dcbf
000002a0: 1fbd 01a8 01d9 d9bf c26a d53a 6399 a2bf
000002b0: e2b3 787d 2b30 e5bf 6290 c3db d17c d6bf
000002c0: f03b 9a9d 6c5b a0bf 597f 363f 106c c0bf
000002d0: 9672 107d 92ad c23f 5f7f 9a4b 6487 9abf
000002e0: a5de b414 4713 d6bf 2841 4920 6c77 c4bf
000002f0: bfb9 6ac3 9f38 d43f 0fe6 281b 21a6 debf
00000300: 9c9d 56dd 62da d03f 24b9 58e4 218b ce3f
00000310: b354 248c 01db d13f 8a3e 3949 e909 cc3f
00000320: 1a25 be0e eb1f b2bf 17f8 27a0 56b8 79bf
00000330: 8604 2311 4094 c9bf 86db 102e 1c9b d23f
00000340: 1394 0a31 8f32 a33f cb3d c472 fd8a b83f
00000350: 7ee3 cef4 76a5 bbbf 7540 e5cc 232b d33f
00000360: 5949 25b1 da9a d1bf 671e f8c5 151b bfbf
00000370: 8f65 0e7b 5bb3 d7bf 3d61 187f 9f75 c43f
00000380: 69e5 f394 d6ad ac3f c32d 8076 75cf b6bf
00000390: 2e78 45cd ed83 cd3f af75 307f aef1 bf3f
000003a0: f9f3 70f9 872e c8bf 9958 a40e e4c0 cd3f
000003b0: 0d8e f351 04df c4bf a8be 6556 0628 c13f
000003c0: d7c9 bac8 311e cd3f 4aaa e9f4 1765 d03f
000003d0: 4a3b 3458 e9c4 cebf 74cb 8afd 2851 bb3f
000003e0: 6c22 693c c680 c43f cd63 0a77 63dd d1bf
000003f0: 0d7c 279d 09b3 df3f 511e 643b 3b37 cabf
00000400: 8a03 cb5d baba d03f dfe4 ce5e ea22 943f
00000410: de1a c0bb 762d ccbf d993 2e21 486a dabf
00000420: 2ccc 942c 66f4 abbf d952 395e c53b d33f
00000430: 3ba6 2259 07e3 99bf 8f47 7f56 8303 b33f
00000440: cca2 4786 5952 c9bf 0537 e6ae f4ad b93f
00000450: 9349 5c05 94b2 c3bf 8420 1d3b af04 d93f
00000460: 0c9f 7dd7 4e44 c43f 3109 62e8 50ab cd3f
00000470: e0eb 4e15 a83b c4bf 7014 1827 2438 b03f
00000480: 949f acd6 a436 bb3f b1bd 7e61 dbf1 ab3f
00000490: 07ea edce 20ff d93f 21c6 c961 5db2 d43f
000004a0: e6dd b2a5 e16f be3f 7a21 26b1 aceb 833f
000004b0: 8243 4cab 018a bb3f 3f2b 0523 7bc6 cebf
000004c0: 1baf 18ff b6d0 d53f 8768 038e 6096 d6bf
000004d0: 187b c1b0 3da1 b63f 0d8b 0a84 31d7 d53f
000004e0: 6b27 c0b4 3bec d73f 6e32 8578 100c c5bf
000004f0: 6474 a064 dd47 dc3f 00a3 d7a4 4d2c a4bf
00000500: 55f6 1656 7059 c6bf 8c76 eb04 65e9 b33f
00000510: 7772 5d5c 7c25 b3bf 237f 4c48 281a cdbf
00000520: f64c f701 b57e c73f 5ae8 7046 3b1d c0bf
00000530: 8ccd d268 0224 c4bf 29da ed78 3842 bc3f
00000540: add6 6af3 46aa 54bf 1d61 195e 8120 adbf
00000550: d390 7428 d0f3 bb3f 7fdd 1ef2 b116 dbbf
00000560: dd33 42c8 b4cc a5bf e68c 195b ffd6 b33f
00000570: f2a9 da02 1e70 d53f 2e0b 4fc5 8b95 c03f
00000580: acc3 10ad 29bd c73f b935 948c 6906 ba3f
00000590: 1b55 057b f925 933f 92b6 8b20 fb83 c93f
000005a0: 2093 5037 1731 b7bf 2cf4 c708 05f0 ce3f
000005b0: 9965 2c79 8ce2 b63f 9dfb 99e5 9e5e ca3f
000005c0: 7668 f699 da2f e4bf ed0c 6946 10c3 babf
000005d0: 2329 e4d1 93be ecbf b979 abbc c5d9 b2bf
000005e0: fefa a355 f4fa c43f 4fb5 edd1 881b ecbf
000005f0: 00ea 8c91 646c d5bf 1a86 10c9 1017 b4bf
00000600: a6b6 9f6d 7ab1 c63f 8aba 5332 d881 d0bf
00000610: 50bd ef92 b94e c23f b3c6 9f7c b7bc e8bf
00000620: 356b 0814 59d0 db3f f070 d95f 042b e0bf
00000630: 2d41 edac df44 e93f 3b31 657d e87d d2bf
00000640: d8f9 a1c9 ccc8 c1bf 382a a201 0613 c03f
00000650: 8c93 b424 8281 e83f a055 33e4 7b37 d8bf
00000660: 9336 3d39 978b dcbf 006f dc6d 4681 b9bf
00000670: ee7b 5c56 1ee5 d3bf e539 3ec1 91b8 95bf
00000680: 94ad f8ea 33d8 59bf 5d6f c85d 2bf0 d83f
00000690: 44a7 335b f173 e0bf f328 6b11 ef86 bb3f
000006a0: 4fe7 74b3 76a5 e03f a230 2ba1 46cd f43f
000006b0: 5e4e 5f6c 73e6 f0bf 27eb 454d 871c c0bf
000006c0: 85bd 6521 150d f0bf 56a7 c683 20b2 c1bf
000006d0: 9a54 39d4 b5ea e3bf 0650 9bc4 14d3 fdbf
000006e0: aac9 3c85 01db efbf ce25 1a97 e488 ba3f
000006f0: 2c9a 3fa9 16ad f13f de1f 2bac d90e a83f
00000700: 814a 0e6e c191 ad3f 3559 aba3 a75d f1bf
00000710: fedc 064d aee3 c93f 9b57 06ca ae26 f1bf
00000720: fa23 dba4 f760 fc3f 5128 a244 510e e4bf
00000730: d386 2745 7c09 c13f 9474 3531 2fc5 b7bf
00000740: 5265 6cf8 6c55 fe3f dc9c fbf2 21bc d6bf
00000750: e05d b2b3 a9be edbf be84 bcf8 2f85 dfbf
00000760: 21dc 2fe6 df1b eabf 55e5 a0f6 93dd a3bf
00000770: ae93 2dc0 a352 b9bf 1b9d 071b 6633 80bf
00000780: 9ca9 9505 abfe b73f cb2b 615e 2f06 a3bf
00000790: c731 f5e6 ec57 ba3f eef3 ce08 7be4 c03f
000007a0: de7b fbb9 b423 c1bf 856a 7e3d 03bd a1bf
000007b0: 387e a5dc 0626 bb3f 7b24 639c cce9 d33f
000007c0: c0c4 dd0e 8e99 d23f 2dd3 11c2 40f7 c73f
000007d0: 4454 96da f27e ba3f 164e 1065 6289 d03f
000007e0: 32d3 287f b14f b3bf c1a9 1c89 dc23 cd3f
000007f0: fb3f 78be 1bbc ba3f 3976 e9b1 9fd8 c3bf
-0.22437939019465153 0.16320570631001768 -0.20614322230353327 0.44010244957864164 -0.44378034262820915 -0.021859908587955616 -0.2669657895893942 0.17621403875885974
0.1486442101219029 -0.36188210525537273 -0.20867428464124751 0.21439423204969937 -0.16852867841531918 -0.2897583928583801 0.1064441053198442 -0.4938024147465117
0.08355702784247467 0.13640045747962135 0.34490941527666247 -0.1568219829900634 -0.11136964120995597 -0.15092982275270872 -0.08667853661103862 -0.19089352050282732
-0.3942927537756386 -0.20901877275955905 -0.19902720549156908 0.23688975517472194 0.04148100653238359 -0.23365867093914158 0.18049486356277464 -0.2726362896332498
0.21883499572013493 0.16734924351801223 -0.186821307925728 0.23519003491414495 0.1957895884941015 -0.24790907018308708 -0.064668984974053 0.12362805894396799
0.2568319541128059 0.1841667716118245 0.2560658436240459 -0.4188601523671686 0.13878040392249494 -0.08488247802328094 0.2055828624049878 -0.04644633001805219
0.012371092927590994 -0.013076844770810102 0.1548634181729453 -0.2433816558148951 0.05442559599447361 0.21435775953791192 0.27928449538332883 -0.07118238782227894
-0.15180695911666292 -0.29093721130024847 0.008387045712358248 0.3317307827482182 -0.25137133458449284 -0.11474520084656009 0.48883820881093126 0.6736953265409726
-0.8178912242472497 0.08095102964933942 -1.0022886249892624 0.05650235266273474 -0.3432681581491844 -0.6666359092860997 -0.5864252126682266 0.42391000256942296
0.6819875297369852 -0.010251210517506985 -0.1390997457123223 -0.9377845509145857 0.05792859358426089 -0.4417232178600358 1.1047467717992172 -0.708025649809202
-0.20909277085425307 0.28816700142320933 1.114530303617697 -0.44278559067460127 -0.4038700237933472 -0.036326504642337124 -0.6621301127066739 -0.35136839352913374
-0.03194751190050471 -0.1282978352219242 0.14592200380947834 -0.025907103647682003 -0.34492661497231786 -0.15989448143455687 0.31595605930024456 -0.47888972904510835
0.2633292352206469 0.23862098359809025 0.27899206815466043 0.21905246806499107 -0.07079953298502453 -0.006279314404762835 -0.1998367389369699 0.29071716784113055
0.037495112167825216 0.09587081958692704 -0.10799354054223717 0.2995080471928369 -0.2750765542924874 -0.12150703509552728 -0.37032210366449986 0.15983957010099373
0.05601378029127597 -0.08910307066997007 0.23058865092292663 0.124781518985819 -0.18892001800296024 0.2324490615362194 -0.16305593492062123 0.13403395861268064
0.22748396207096164 0.25617026250134656 -0.24038426215016734 0.10670715513223944 0.16017988157024676 -0.2791374838357655 0.49530258509725017 -0.2048105278010888
0.2613969722697723 0.01966444209731299 -0.2201374451398896 -0.41273692360328834 -0.054598992292447995 0.30052313043169715 -0.0252801082757854 0.07427235471484848
-0.1978256135619375 0.10031060476304894 -0.15388727437727975 0.39091091893033814 0.1583345939827655 0.231790650814284 -0.15807057419246373 0.0633566470570075
0.10630254975387593 0.0545795971405555 0.4061967869562583 0.3233865218126955 0.11889467521074656 0.009726857334286566 0.10757456237867127 -0.24043215951891203
0.3408639422584529 -0.3529282938812987 0.08839784207655688 0.34125936407706164 0.3737935319082825 -0.1644306744077712 0.4418862803157195 -0.03940050732837186
-0.17460445598219346 0.07778006906615981 -0.07479073767667353 -0.22736075906959127 0.1835542926406572 -0.12589207591537638 -0.15734892004330125 0.11038544609423497
-0.0012613003615746063 -0.056888621079169456 0.10918904292754243 -0.42326019901835105 -0.0425774092155746 0.07749935125461924 0.33496809271551264 0.12956378111092576
0.18546029043639345 0.1016603439531626 0.018699548848720143 0.1993402394213502 -0.09059281444986 0.2416998188854519 0.08939435919128015 0.20601259432802702
-0.6308415419655506 -0.10453893393519183 -0.8982638453901796 -0.0736354432697003 0.1639085214773885 -0.8783611393134069 -0.33474077428732585 -0.07847695263674162
0.17729120590904762 -0.2579250804400678 0.14302749323494846 -0.7730367120804743 0.43459155041061887 -0.5052511093195147 0.7896574380374993 -0.28893482442505886
-0.13894042821261965 0.12558055000074986 0.7658091275121577 -0.37838647160728023 -0.44601994123227334 -0.09962883169322012 -0.31085928376881966 -0.021211888713475253
-0.0015774256716082112 0.38965877684107914 -0.5141531735691633 0.10752767730005867 0.520198202611235 1.3001161857273833 -1.0562624200146256 -0.1258706214246896
-1.0031939797007408 -0.13824850496649316 -0.6224011559485405 -1.8640334777783223 -0.9954841234487521 0.10365132035271715 1.1047579394595557 0.04698829867044173
0.057752651867436285 -1.0853649514516068 0.20226076851916014 -1.0719440356819863 1.7736736716926758 -0.6267477360245356 0.1331019723575567 -0.09285254432093587
1.8958558754005321 -0.3552327034835352 -0.9295242795660066 -0.4925041131082927 -0.8159026618803901 -0.03879988084413336 -0.0989172310051589 -0.007910535526163323
0.0937296761164021 -0.03715656306356826 0.10290413511865558 0.1319726746568501 -0.13390215951127876 -0.03464517713219543 0.1060489929855003 0.3111449744433867
0.29062224818978777 0.1872330615621193 0.10349958263971454 0.2583852755498993 -0.07543477396468459 0.2276569051258104 0.1044328060163479 -0.15504833399875098

linears.2.bias f8 [30]
00000000: f496 1a40 da5c ae3f 0cb0 5fec b6ce c5bf
00000010: d157 20d7 5e76 afbf 5ee5 e6e8 dbb7 b3bf
00000020: 01f9 e1be 9f00 a0bf 5662 6ec8 e8d8 ac3f
00000030: 550f cce9 7d63 a63f 7160 2398 7830 a93f
00000040: 9be0 645e e504 af3f 54b0 abf9 af85 abbf
00000050: 3659 ce8b 8133 c23f 2308 f5bd aa8e b23f
00000060: eaa8 2598 0dcf ac3f 2cda 2eb7 7ca7 ab3f
00000070: 6275 f47c 0b28 b63f 6f5b 282f 39cc acbf
00000080: 6c4c 6c4f 6382 a53f ef9f 2666 00af aa3f
00000090: af10 521c da5f b1bf b634 fa89 16d9 78bf
000000a0: e8d0 2d91 a2ff abbf 4c82 ab42 7ee6 b13f
000000b0: 473e 6dce 5df1 9d3f 4db7 d5cf d71a 7b3f
000000c0: f083 0fde 8902 c53f a028 a690 f74e 9fbf
000000d0: 00ec 881d cbfc ad3f f280 e4e1 365c a9bf
000000e0: 364e 2efd 4455 a7bf ab73 7ddd bdec 8cbf
0.05930215866582769 -0.17037092725456693 -0.061449970016994045 -0.0770242160423513 -0.031254760790931264 0.0563423866908052 0.04372781256645789 0.04919792992740291
0.06058422829886575 -0.05375432894456425 0.14219683958499169 0.07248942506433358 0.05626718981041441 0.05401220070000465 0.08654853630692608 -0.05624560070662354
0.04201040596503777 0.052116405934896075 -0.0678688353673944 -0.006066406290881668 -0.054684715482751944 0.06992329719242568 0.029241052364623845 0.006617396369035533
0.16413997023394655 -0.030574672893216914 0.058569285731628895 -0.049531664919642795 -0.045572429567212344 -0.014123423883285321

linears.3.weight f8 [30, 30]
00000000: 9f1f 98be 7b37 dd3f e405 0597 b45a bdbf
00000010: 2ed6 dd05 6752 c33f 9834 466b 3c9f c53f
00000020: 27fc 5c3d 1e39 c83f 27de 6bf2 9780 dcbf
00000030: 8100 16f8 0f32 d2bf 52c7 9c8d 398b cabf
00000040: 34a9 bf20 0d4d c43f 00fc 4293 7011 c3bf
00000050: 7d25 d4a8 e3ef a1bf 3ced 7b01 1b2b cbbf
00000060: 377d bf53 608b d23f c9d0 7e1f d540 ccbf
00000070: 9a74 4a50 d988 c9bf 2040 ff68 fcc5 c93f
00000080: f7fe 0cf6 5d52 c73f 154d 37d9 6743 b5bf
00000090: fad2 8995 1400 d0bf 2dbf 2e55 52f1 d13f
000000a0: b3d2 a743 c0d7 cabf ee93 8b29 398e b73f
000000b0: faa9 73ba 246e 44bf 260a c7bd 6af2 85bf
000000c0: f8f9 903a 5a72 c6bf f380 3b42 3402 c13f
000000d0: 94e9 e0d9 61f3 d03f 2053 9786 9914 c3bf
000000e0: a0ac 6681 a221 903f 2a47 bb5b 4b89 d6bf
000000f0: 4d39 5478 f2c7 d33f 5b20 a503 f218 d0bf
00000100: ed88 934c 4f9b d0bf fe7a 7aee cd70 b9bf
00000110: a77e 1118 c779 d43f 4672 94e0 6f00 d7bf
00000120: 2956 4d66 83d7 b4bf d499 929d 2dfd bcbf
00000130: 05ef aa1f a2a0 c53f 2406 ea8e f51f d3bf
00000140: 803d f1ea 8e30 ad3f 9285 0ae6 39d8 c73f
00000150: 3dd9 9dea 4781 c63f 57f7 fab1 d852 a7bf
00000160: df5f 70ad 2fd5 9d3f a22d 4c14 c922 bfbf
00000170: 5df9 2c89 8fd1 d1bf 7405 0ba7 4e87 c5bf
00000180: aa53 057b b2ee d1bf ceca 3fcb cca9 c8bf
00000190: acf9 6e4c b384 c53f 6fca df07 9318 c03f
000001a0: c760 48d5 cfb7 a0bf 1eff 2989 4b5d cfbf
000001b0: 3b51 6e46 9d2b c63f 4463 1407 5056 a73f
000001c0: dcab 8249 b902 c7bf 6e00 45e3 ea7e 8abf
000001d0: fca0 66e3 cb1e a8bf 98be aaad 6eb9 cf3f
000001e0: b813 c3c6 c89c d5bf 380a 5f5c f016 c33f
000001f0: b868 9ae0 9abf c7bf 71e8 89eb 7628 c53f
00000200: 8f5f e558 ac79 c63f 6f94 ea04 6a70 973f
00000210: eb7b 17a1 d106 cebf ec3c 53d0 15f5 c3bf
00000220: d65b d4d2 02c0 d9bf e6b7 f198 383a d53f
00000230: 5bdf d87b e23e d2bf 1fd1 b86a e7fe c3bf
00000240: 01e8 05e4 b198 d0bf eb74 db1e d26c cc3f
00000250: 148c 002f 2dae d2bf bb8c 7962 9367 b63f
00000260: a6ba 1d3e 434d c6bf dfeb c7c1 7302 d6bf
00000270: 480d abbc d57c d03f 397d f265 cb84 cebf
00000280: df56 faa2 31d4 d2bf ca48 cc0a a3f5 c1bf
00000290: 9822 fbbd 7743 c7bf 8774 bcc1 b124 893f
000002a0: c1d5 18f8 5ff6 c83f 8086 4711 1713 6fbf
000002b0: a450 7dfe a72b d3bf b685 cded 8934 b9bf
000002c0: 0e8f 2610 14b2 92bf 28d0 4321 feb2 bf3f
000002d0: f888 f596 ca4c d6bf 216f daf6 05ef c63f
000002e0: 5ef9 1831 af6e 8a3f fe8a a230 f623 44bf
000002f0: 9935 8e7b 10bb cabf fc5d 621f 4f6b e13f
00000300: d0e8 2142 2989 d03f 0f55 c9d3 d628 c73f
00000310: 84bb f97d eb67 dd3f 9b11 5326 5e99 723f
00000320: 1b3a b8f2 443c c83f b5fe 75e7 2fbb 913f
00000330: 305f 7432 9e40 85bf 6afc cbd1 438a d03f
00000340: 1603 0f6c 148b c13f 9360 d661 e80c c1bf
00000350: 1ce3 813d dcb7 c43f d7df 7d41 f7c1 c0bf
00000360: 2a0e 476c 9913 b3bf 3a31 8a22 3901 c7bf
00000370: 6c90 5507 785b bc3f 7b42 d184 6f43 d6bf
00000380: 92f7 c573 b57d d2bf 58c4 261c 52af d93f
00000390: d7c7 107a 5e24 b3bf b591 6324 bec0 a43f
000003a0: 316b 8749 a08c 9d3f 75d3 4957 370e d0bf
000003b0: ea2e 2ac6 12b4 c93f be02 ea6b fb0b ca3f
000003c0: be63 03af aecd d23f 2280 f7a5 7998 ce3f
000003d0: fb74 2185 7b1b e53f 21cf c548 fb3c c0bf
000003e0: 80e7 cd73 ec01 d23f f7ae 926d 080f cdbf
000003f0: 587a a50a a9bf 583f 1256 025f abc6 e93f
00000400: 0fdd e7e1 3708 a6bf 3fc3 09a9 49ca c23f
00000410: 7e81 dec4 2a26 bb3f 725b 58e6 c54d c03f
00000420: cd79 4327 7507 c7bf 7355 3c4e 0c5e c13f
00000430: f19b bb2d b860 ba3f 4e5d 2168 1494 db3f
00000440: d1d5 4d6d 787c dcbf bcfc 040c 2767 e5bf
00000450: 2741 e59c 109c b0bf 7b35 e7ea 1bb9 dcbf
00000460: beb2 768b 1dd0 eabf ad26 62f6 9c92 9b3f
00000470: cd83 c9f1 06f0 e73f 4cbc c656 7aa4 e8bf
00000480: c8a8 a180 df92 e9bf 9355 163d 3b95 a9bf
00000490: 325f c107 bb0c cbbf f739 f7d9 6d4b d23f
000004a0: a82a 7349 0e64 dfbf ac54 c22a 4ad4 e23f
000004b0: 7ebe 7ab8 146d c9bf 0710 98d1 dd89 683f
000004c0: 4c01 5f0c 5f6c 813f e53f 6e3d e4b7 8c3f
000004d0: 6612 b9d5 73d3 d0bf 2c1f 35b3 7a32 c53f
000004e0: 5f1c 9470 b6fe d3bf 4c60 3f3e 9f55 c1bf
000004f0: f34b 8f61 54ab d03f 7593 44f6 678b d0bf
00000500: 87d5 fc72 2a93 b0bf d48f 97cd c856 c43f
00000510: 943d aca6 82df d43f 22e7 8058 cc28 d73f
00000520: a3a4 63ec bf4d af3f ebcf a690 cc59 cdbf
00000530: 1a58 d872 f038 d33f c6ed a81e ba13 d63f
00000540: df55 c61f 5987 d53f 030f 12d5 6933 c33f
00000550: 4e95 527e 7646 853f cfbd 9966 6c85 b63f
00000560: 31d7 6b5d 9bff a7bf def0 f08a 7503 b2bf
00000570: 3c7a 91a2 5b1c b1bf d159 7a6b 1593 ccbf
00000580: 3869 2e19 3260 af3f 5003 eb11 5668 913f
00000590: dd50 637d dd27 d53f 40ab c028 94b7 b73f
000005a0: 5c1d 0277 8e73 debf 5658 bfea bb9b ccbf
000005b0: d45c d82e e943 cfbf 42b7 43f0 ddb3 d3bf
000005c0: 5786 d6f5 8332 c7bf bd39 2db1 a61f e23f
000005d0: b2be c621 bb30 c3bf 206d c202 2668 c3bf
000005e0: 3f8f dc7c 20bf c93f 05a6 71d8 9c08 c9bf
000005f0: 15ca a5d0 8cdc d4bf 3f89 1912 3aae c53f
00000600: 42dc 11e2 7d57 cabf e10e d462 d1f9 ce3f
00000610: 9a4d 064d da7a c9bf 4ef5 01f0 8b77 cc3f
00000620: 7988 79c4 7bed ba3f a82d bc56 6aea d13f
00000630: 6333 a1bc 2817 d13f 053b 9b09 86cc ba3f
00000640: 7b0a 8f6a 12a7 b5bf 6148 cb58 f298 d2bf
00000650: c664 3818 387c c6bf d640 4ab8 8842 a7bf
00000660: 680e 8d4c e054 b6bf c6d3 45aa 4e65 d03f
00000670: 749e 4043 2b7f c23f 34b6 4fd6 7499 ccbf
00000680: d66c 6374 a100 dcbf b051 dc3b 9f3e d13f
00000690: 0daa 6cc3 7041 cfbf 3616 d8b5 822a b4bf
000006a0: 4d31 1e7a d3e9 f1bf 6e2b 3c4a 5c72 a4bf
000006b0: 71cb 6552 6831 c93f e3a9 5a60 2c50 b73f
000006c0: 7706 35e5 8a56 eebf 4ff0 b304 84f7 f5bf
000006d0: 85d7 3133 2d90 bfbf 1a41 652f 52e4 cbbf
000006e0: 2f02 73f8 674c d4bf 7bd7 5fe1 b9c8 a03f
000006f0: 2b40 526b 84a9 e3bf 82a4 39ce 2d17 b43f
00000700: 65e4 7d0e 4c56 b93f 2ed2 9d0e 92f0 f3bf
00000710: 6c07 605e 6625 e53f b785 2afa 094f f03f
00000720: a386 0ee6 100f de3f 5c26 f7cd 3c23 f73f
00000730: 1edd 8987 6b6d f83f 759f 6c73 b75e cb3f
00000740: 81b5 134e 982a f4bf 09f2 3506 ef27 f63f
00000750: 4822 ef63 2c07 f43f 0932 2067 e85b ef3f
00000760: 4c07 36e0 9250 cb3f ffd2 1031 115a d6bf
00000770: a24e 2f64 87d2 f33f 795e 556b 2ad2 f3bf
00000780: e206 5166 57ee ce3f 75fc 63e6 282f d13f
00000790: 23c1 7359 46bd c6bf 5e59 fc6b 4801 c8bf
000007a0: 7f28 e074 30e9 b0bf f0a6 9caf 41cb c5bf
000007b0: e092 d8a6 c15b c6bf 302b 93c0 4644 d03f
000007c0: c919 004b 05a2 d6bf c979 482e feba cdbf
000007d0: e1b6 41b6 61c2 90bf 937b 0de8 d709 6f3f
000007e0: 8008 9bbe 61e6 c03f e2ef a5b7 3748 ad3f
000007f0: 2f15 b24e 8280 b1bf da5c a3dc 884f b73f
0.4565114365836908 -0.11466530501368016 0.15095222269489866 0.16892199743270875 0.18924310680628872 -0.4453487269779281 -0.2843055651392277 -0.2073738042322995
0.1586014184861796 -0.1489697188426078 -0.035033335074397855 -0.2122529752012755 0.2897568528987508 -0.2207285312448504 -0.19948879642916922 0.2013545525246636
0.1822011424464944 -0.0830597787201451 -0.2500049076400469 0.28035410231221897 -0.20970919898504334 0.0920139051846289 -0.0006234816873108 -0.010716279903936043
-0.17536476001437484 0.13287976488118822 0.26485487248614814 -0.1490661532576718 0.015753306530012723 -0.35212978323135025 0.30907880545500604 -0.2515225444408366
-0.2594793556037434 -0.09937750885226745 0.3199327216188785 -0.3594016736185818 -0.08141347167596592 -0.11323819252957118 0.16896463915133367 -0.2988256354948098
0.05701109521816772 0.18628619892573944 0.17582034068954924 -0.04555394337283641 0.029133553467630576 -0.12162453408762144 -0.278415569267869 -0.16819174915694257
-0.2801939202666356 -0.19268188404347203 0.16811219436745028 0.125749949307266 -0.03265237310933027 -0.24503463933432895 0.1732060045147906 0.04558038793965705
-0.17977062310578062 -0.012937388478008151 -0.04710995818033045 0.24784644584496074 -0.3376943532023762 0.14913753996195722 -0.18553482024146262 0.16529737950242265
0.17558817234634858 0.022889763403004467 -0.23458309522445062 -0.15591690704466232 -0.40234442318745545 0.3316785329433273 -0.2850881776280311 -0.15621655188591263
-0.25931975620153486 0.22207094675733371 -0.2918808897977112 0.0875179400841714 -0.17423286946310163 -0.3438996689216633 0.2576193182432758 -0.23842756727115402
-0.2942012874203623 -0.1403087427830257 -0.181746452106627 0.012277020192011058 0.19501876463043114 -0.003793282560068445 -0.29953956463328724 -0.09845792823536823
-0.01825744007659496 0.12382496177798485 -0.34843697301961596 0.17916941216832874 0.012906426130140754 -0.0006146385287773835 -0.20883375199302348 0.5443492520307127
0.25837165315864485 0.18093381253371674 0.4594677667836822 0.004540794155392903 0.1893392739443279 0.017315624716046602 -0.010377155222655782 0.2584390209958146
0.1370568778638918 -0.13320641305177058 0.16186097148217804 -0.13091936776959187 -0.0745178117131721 -0.17972482859148348 0.11077070406969519 -0.34786594362689244
-0.2889226561163635 0.4013257288853018 -0.0747736976634593 0.04053301042748406 0.028856758582928414 -0.250867686502992 0.2008079021073777 0.203490665142473
0.2938038548577956 0.23902817348334887 0.6596047973831952 -0.12686101010660258 0.2813674097920895 -0.22702126837008738 0.001510539130854879 0.8055016379973401
-0.04303145058286805 0.14679833177390297 0.1060511332166296 0.1273734450084834 -0.17991508881728038 0.13568261928655154 0.10303832165264716 0.43091306847550903
-0.4450970714018157 -0.6688418612246987 -0.06488136129815257 -0.4487981599785013 -0.8379047130489068 0.026926472223329046 0.7480501863866437 -0.7700778670167749
-0.7991788399060846 -0.04996667023366821 -0.21132600668601637 0.28585382734027526 -0.4904819218906291 0.5884142718447456 -0.19864138610636312 0.0029954273602488288
0.008507483067547249 0.014022620320048371 -0.2629060351503426 0.16560300588957355 -0.3124214267158489 -0.13542547740394395 0.26045712973899454 -0.25850867318722887
-0.06474557215991271 0.15889844931291341 0.326141989485188 0.36186512606546917 0.06114005814181069 -0.22930295050684832 0.3003502961668133 0.34495404237869953
0.33638599493982996 0.1500065126784805 0.010388303499278575 0.08797338013550092 -0.046872000841103996 -0.0703652824603895 -0.06683895796729983 -0.2232386374277682
0.061280789922607715 0.016999573558453662 0.3305581783763623 0.09264493937432139 -0.475803009242062 -0.22350262605931687 -0.24425997531282084 -0.3078532072384982
-0.18122910980041482 0.5663636646730122 -0.14992465161548335 -0.15161585936298483 0.20114523026233574 -0.19557533806373342 -0.325961307294308 0.16937948116089704
-0.20579503573000762 0.24199883771517874 -0.19906166802375652 0.2223982736503935 0.10518621012445974 0.279932579710215 0.2670385210120029 0.10468328222780705
-0.08458056546718666 -0.2905851237420674 -0.17566586668616518 -0.04542948960909292 -0.08723260754509854 0.2561833060092876 0.14450588973817313 -0.22343311752722317
-0.43753849378636056 0.26944714399112524 -0.24418458502016485 -0.07877366008332207 -1.119586445830538 -0.03993500143231797 0.1968202974636273 0.09106709816356999
-0.9480642773343807 -1.3729286369043796 -0.12329370975370864 -0.21790530504450417 -0.31716346037504456 0.0327814185729229 -0.6144430252188661 0.07847868237299063
0.0989730391865052 -1.2462330409008575 0.6608154147399836 1.0192966243852035 0.4696695562980528 1.446102909614999 1.5267138761972272 0.2138280213923697
-1.2603991556055407 1.3847494356733725 1.2517513183285178 0.9799692167449062 0.21339641521268005 -0.349247262874357 1.2388986505001545 -1.238809985419634
0.24164860244677927 0.26850340365485376 -0.17765120857030423 -0.18753915093175072 -0.06605818608673707 -0.1702653987388696 -0.17467518469597731 0.25416725927486805
-0.35363895725495503 -0.2322690702430477 -0.016366507290903057 0.003788873379036281 0.13203069502748477 0.05719160191344465 -0.06836714192657632 0.09105735193894607

linears.3.bias f8 [30]
00000000: 2225 3256 241a acbf 8e98 5b09 0576 b23f
00000010: 2fe9 e977 364e b4bf 7ef0 741f 2138 a43f
00000020: 16f3 f583 abbe aebf ea24 6f6a e77f b73f
00000030: 0d12 2b8a 2c7f 5c3f 94e0 4e54 4631 b1bf
00000040: 8121 6147 20ea b1bf 5805 64c4 d2b0 b73f
00000050: 33d6 07d6 1358 ab3f 0deb d789 0078 b1bf
00000060: addf 6787 aca8 b33f 44ed b80a 814f b0bf
00000070: 645c fe59 5881 c4bf 07de fcbd 8a6e af3f
00000080: d6f9 11b5 4b67 ab3f fdf6 bce7 ae61 94bf
00000090: 99cc 2131 18ce a53f fdcf ef88 e283 b5bf
000000a0: 1a45 8da3 ff4b b43f 5b7c ac56 ff61 91bf
000000b0: 6eed 5510 8385 773f e566 158b 25cc 7fbf
000000c0: 51ca 82f0 b75e b63f e0c7 1548 9fdf b13f
000000d0: 4376 2fc3 2455 b4bf 3fd1 9c29 4b8e b33f
000000e0: 1a7c f952 b38e 99bf 90bc 6489 895e bdbf
-0.05488694717593946 0.07211333731138067 -0.07931843211728017 0.03949073323244166 -0.060048446520317864 0.0917954096650139 0.0017393050153923257 -0.06715812261870929
-0.06997873060857353 0.09254185957617744 0.05340635287931796 -0.06823733678167461 0.07679251008801087 -0.06371313583160992 -0.16019729990213982 0.06139024323641356
0.05352245889024558 -0.019903881925748646 0.042588001248895675 -0.08404365389998243 0.07928464644398439 -0.016975392975947617 0.005742561309826184 -0.007763048795220694
0.08738278982017646 0.06981845388307262 -0.07942418828266633 0.07638997808391411 -0.024958421649326913 -0.11472377399762679

linears.4.weight f8 [3, 30]
00000000: bd3f ec97 3ea9 d6bf b01a 3a24 9daa a63f
00000010: 483a 7d56 1387 dcbf 9890 5c95 a587 d83f
00000020: f52b f6c7 3815 d2bf bd00 c0da d90d d13f
00000030: 89ce 3044 300f c63f 7806 ea22 95e3 c23f
00000040: 0b0e 24c5 0c5c c4bf a73d 2f92 a313 c33f
00000050: f3bb cc70 7b05 d83f 1e29 c8ab d9b4 dfbf
00000060: 9109 210f c446 d93f 0249 833c 0a0a e0bf
00000070: cb0a 080a da58 d53f 9894 854f 7867 d23f
00000080: 83fa 3e79 84b0 c93f 8bc6 79b2 7ed8 c93f
00000090: 2abd 9ed7 5e33 cf3f 39ca 795e aa02 ddbf
000000a0: 54a0 fdbb a3c6 d63f 66f9 ed4d 2827 b53f
000000b0: ec20 a85a 91e7 d23f 9da6 07ab beff e03f
000000c0: d352 3615 b7b2 c33f 6fdd 4294 5448 d93f
000000d0: 914d 0274 1622 95bf c952 9e3f 024d d8bf
000000e0: dd19 9f6b e8d4 dd3f 0971 34d1 ac05 c0bf
000000f0: 385e 31bc 5207 c73f 6bee 44a6 96b7 ce3f
00000100: 20ac 94e2 43c3 c4bf 20d1 ca7c bb2a d3bf
00000110: 8eed 0627 c13e d73f ef3a c3a3 e440 ab3f
00000120: 6160 f0e3 b10b c1bf 7063 2a97 6daa e33f
00000130: 29e8 03d6 c5ac a93f 2d8b 1b63 71c2 db3f
00000140: 3758 7bc6 3a37 ca3f 0687 4d18 dfd2 c2bf
00000150: db13 79a4 965f d93f c8e9 7a2a e03a dfbf
00000160: 9e65 2878 f8e8 cbbf 1278 2857 1059 af3f
00000170: c9d8 e898 6625 98bf a5ae 734b d188 edbf
00000180: eb1b 010a 5bf2 d23f 7ab2 1fc1 ca0d c9bf
00000190: 5f57 4252 9d33 d33f e56f d6b7 b63b d1bf
000001a0: 9988 15af 285c bdbf 39cd 6d00 8388 cbbf
000001b0: 5c77 f8b3 96e4 7a3f 2320 e3e7 966b dc3f
000001c0: 3da7 433c b5ae cd3f 311c 4176 237b b43f
000001d0: 4825 1854 e35a e0bf a4f8 2c14 aa2e ddbf
000001e0: 3167 eb20 d16a 56bf 088e 2047 cb00 99bf
000001f0: b05c a52e cf58 b3bf 5cb1 36b7 c9a9 d53f
00000200: 6a92 a57f 1fbc dfbf 8a08 1251 bd49 babf
00000210: eb27 2c09 445e cf3f d6cc 3e70 9dcd e3bf
00000220: cd3a 7671 aca0 b7bf 567c 176d cc3e c53f
00000230: 33eb 9a9f d4c3 ce3f 18c4 9c29 5c40 c5bf
00000240: 5d53 404f 562b b13f fce3 8097 c216 dabf
00000250: 9687 d047 3810 debf 7ca5 79d9 1c03 cd3f
00000260: b2a7 0519 5387 d23f dac7 6645 3951 c9bf
00000270: e76b 294e 1f08 d23f c5f9 6793 1615 c9bf
00000280: 9de5 5b45 4f42 df3f 9b3b 4346 4bf0 c5bf
00000290: 2146 77ee e3fe d2bf e3a2 56a1 ba8f ddbf
000002a0: 166c f217 10a9 cd3f b660 2818 b51d cfbf
000002b0: db87 7022 e092 d1bf 26b8 0a2f 2ed9 c93f
000002c0: 7fa8 0e19 6236 dcbf 44c2 9eeb 4c35 d13f
-0.35407986484733184 0.04427043025230171 -0.4457443565960699 0.3832792242631142 -0.2825452759504395 0.26647039758973873 0.17233851747152 0.14757026867669132
-0.1590591394998316 0.1490368331710503 0.37533460631942644 -0.49541322494100537 0.3949442050690318 -0.5012255842105164 0.3335480783427271 0.2875653053836884
0.2006993858357938 0.201919400354701 0.24375520256351396 -0.45328768945833847 0.35587399824590205 0.08262874510362436 0.29538377621839973 0.5312188473155462
0.15389145408393876 0.39503969648963894 -0.02063784678518982 -0.3797002431177075 0.4661198664656732 -0.1251731893070274 0.17991098584274012 0.23997767561546665
-0.1622090202666593 -0.2994831770586348 0.36320523082005074 0.05322947024398227 -0.13316939954597998 0.6145542099430781 0.05014627683154089 0.4337428539130766
0.20481047336096633 -0.1470602863947123 0.39645925580799507 -0.48796848438692253 -0.21804719798164468 0.061226378096975634 -0.023580172617777593 -0.9229513620061495
0.2960422132204587 -0.19573339872239953 0.3000253012954683 -0.2692696376122952 -0.11468748354448834 -0.2151035072416592 0.006565655406601891 0.44406674046740785
0.23189416353789652 0.0800039447504879 -0.5110947267977872 -0.4559731671360032 -0.0013682405730634612 -0.024417091575868383 -0.07557387245957403 0.33848803417165185
-0.4958571192312663 -0.10268767575510843 0.2450642628467102 -0.6188494865695258 -0.09229543466629338 0.1659789593386189 0.2403512744257 -0.16602661163190713
0.06706752238126286 -0.4076391677404556 -0.46973998082295887 0.22665749186425532 0.2895095581394528 -0.19779125107521517 0.2817457450198035 -0.19595606038633498
0.48842221997582574 -0.17139569216530223 -0.2968072727936449 -0.46189752345757834 0.23172188920293085 -0.24309409789635134 -0.27458957064857054 0.2019403199860232
-0.4408192867946425 0.2688782025316281

linears.4.bias f8 [3]
00000000: a0fa fa3f b552 b43f c843 8ea9 cbfc b13f
00000010: 0e0d bfe6 e5e8 af3f
0.07938702404042397 0.07026360406440724 0.062323746125480736

step f8 []
00000000: 0000 0000 805b e040
33500.0

exp_avg f8 [30, 1]
00000000: 3c90 bc05 9b0f 553f e2a7 6fd7 e794 4740
00000010: 01bc aba6 7fe5 4dbf 09aa b5e1 bb7a 81bf
00000020: 33d0 19de cf7c 613f 2bd7 011e cb61 90bf
00000030: 918b c41f 651b 9a3f 7ae2 2a3f a98b 0c3f
00000040: 8bc1 8337 b65c 51c0 064e 38a2 8a20 50c0
00000050: f8f9 080e 38be 783f 7845 330c 4c22 54c0
00000060: a4de 4de9 0d4e 4940 3efd 8b3f 47d8 633f
00000070: 14f5 ccb5 6244 633f 2bad 7217 f6db 7d3f
00000080: 0222 f54c 3c0c 6a3f 1f9e b057 cb40 943f
00000090: 93a8 fc0c 6bc1 4bc0 d59b 5c35 71f8 6cbf
000000a0: 6541 151a 2297 853f aa2f 579c 1262 843f
000000b0: 9e10 759e 37af 7dbf 45cf 1768 911e 5340
000000c0: 413b 5047 1135 973f 71af e039 ccae 45c0
000000d0: 0523 d7e2 5bed 973f 7dbc 34da 741f c03f
000000e0: 45f4 fa71 2b26 86bf 55fd 7536 e7c7 ef3e
0.0012854589358051302 47.16332524253791 -0.0009123681350881042 -0.008534877610789431 0.002134710303659326 -0.015998052317136285 0.025495128692579142 5.4446318150385e-05
-69.44862163416671 -64.50846152781023 0.006040781940610966 -80.53589158064813 50.60979954054099 0.0024224654738415332 0.002351944726256003 0.007289849562919041
0.0031796624895472645 0.019778420664947057 -55.51107942902413 -0.0035364352323940897 0.01054216997241104 0.009952683826575843 -0.007247178327194485 76.47762491536294
0.022663373925804867 -43.36560748549426 0.023366389961469575 0.12595997480955026 -0.010814990440275571 1.5154300583074496e-05

exp_avg_sq f8 [30, 1]
00000000: 4d23 4927 2dbe 723f 839e 3048 da3a 6541
00000010: 993c 3e86 ad0c f33e da1a 0282 272b 853f
00000020: 9b20 39da 5928 413f 4c80 3751 ad78 9a3f
00000030: d10e cbfe bd8e c03f 428d c356 0075 0a3f
00000040: a3f1 5c05 ed72 7541 daa6 8785 9357 7341
00000050: 1843 c917 8843 813f 1cb0 d4e1 7d3a 7f41
00000060: ca72 7fa9 a724 6941 ceb1 b53a b217 603f
00000070: 48cd 8629 67dc 5d3f 1062 33ca 39e6 823f
00000080: 1911 11ac 8c46 553f 7a1b c323 3e5b b43f
00000090: 6433 bf20 8cf8 6d41 6d55 dc99 7f38 773f
000000a0: d747 3b3b 954e 853f 7f15 c4a9 68ce 703f
000000b0: 33e3 5b82 da37 743f b08e c223 7acf 7c41
000000c0: 00ee 0284 9a61 a53f 6aff 6561 58d7 6241
000000d0: 903a 27a3 4f2c bc3f 8b46 afea c47b 5340
000000e0: 917b d468 399a 9c3f bb6e 3c57 de05 1f3f
0.00457589757986272 11130578.25593496 1.8167040607472253e-05 0.010336216597591475 0.000523609040507206 0.025850971300201572 0.1293561452968022 5.046279224687557e-05
22490832.33519138 20281656.345618106 0.00842958757962857 32745438.114425763 13182269.296807665 0.0019644242326448463 0.0018225676959503102 0.00922818325345623
0.001298558592922444 0.07951725361918519 15713377.023339935 0.005669115487554205 0.01040379130373374 0.004103096809790484 0.004936078597659588 30209954.23499936
0.041760281195333704 9878211.043700892 0.11005113347276052 77.9338938438106 0.027932068847004003 0.00011834306297625167

step f8 []
00000000: 0000 0000 805b e040
33500.0

exp_avg f8 [30]
00000000: 0ca0 58c9 216f 85bf a544 4ded 6cc9 e73f
00000010: 6d86 74f9 5969 3abf 3bbe 6bcd 961d 763f
00000020: d2f4 eff1 1ece 4cbf cadd ebfb e385 803f
00000030: c356 686d 12ec 22bf 2ff7 6b4a 5e27 46bf
00000040: de65 0432 f587 f1bf ad98 9011 dd40 f0bf
00000050: b724 543c 5914 82bf 2d0d b67b 196f f4bf
00000060: 19df 4699 38b6 e93f fe5d 8dbe 1bc8 73bf
00000070: fc0e 5e5c b089 74bf 7af8 babd c138 7cbf
00000080: 36c8 02ec 031a 61bf 46fb f4b4 8f37 183f
00000090: 031d de99 7cc4 ebbf 9f25 5043 716c 823f
000000a0: d5ab ffb8 32ef 59bf 5958 c7a6 7d9e 643f
000000b0: 40a6 2266 ed12 5d3f 1d78 ed77 dd1e f33f
000000c0: 1e4b 2be9 b128 72bf 33b8 e874 45e3 e5bf
000000d0: 3f96 e519 640a 4dbf f6e4 1e87 d676 833f
000000e0: 4d17 345e 75da 8f3f 369a a4e2 10be 50bf
-0.010465873677347325 0.743338073234686 -0.00040300795213186227 0.005399312087987658 -0.0008790637110675187 0.00806787598183591 -0.00014436459487459337 -0.0006760797885758447
-1.0956928209110326 -1.0158358274580153 -0.008827874330125203 -1.2771239120928144 0.8034937852562251 -0.004829510094018994 -0.005014122876562995 -0.00689006500368638
-0.002087600383753797 9.238066308102114e-05 -0.8677351956584122 0.008995900027019497 -0.0015829081858054113 0.0025169805651144403 0.001774532160690248 1.1950354275391029
-0.004433340992096272 -0.6839930804615107 -0.0008862484717552867 0.009504009245449013 0.015553395211565091 -0.0010218777557128417
