1D_Transcritical_Inverse_Problem_n_initial_0_01/Models/Model.ckpt-9500.pt (torch, 82380 bytes, 43 tensors)

linears.0.weight f8 [30, 1]
00000000: b768 acb2 94a8 dd3f 1841 da0d 27b3 883f
00000010: 338a 064d 61d6 d33f 0234 ce5c eb6d cfbf
00000020: 7672 027d ed68 d4bf 4b31 d5e5 b577 c23f
00000030: 2be4 ea5c a8e4 c23f 0f22 7877 d1a0 d7bf
00000040: 1ec5 6d7d e661 8abf ed46 fc16 a3bf 8bbf
00000050: f61d f4b8 1594 d53f 94e2 9e6b 4d23 8cbf
00000060: e47b c6a7 61ad 893f 5049 a2e3 2efd d03f
00000070: b8e2 0399 0e08 d3bf f273 ee25 a21f c5bf
00000080: 8815 8100 e4b4 d63f be1f 8d24 86ed b4bf
00000090: aa20 11e5 300d 8dbf 80c7 cd3d 0f4c d73f
000000a0: d306 84ad 0c00 b7bf 69ce cddc 4870 d13f
000000b0: cc3a 9722 225c c8bf 39d0 962a c30e 8d3f
000000c0: cd45 98ab e28d c03f 4645 70c1 2b99 87bf
000000d0: 2e38 7a45 c7d4 bfbf e198 2f4b a6c3 aebf
000000e0: f5d4 977a dab5 d23f 5f0b ae18 f2e4 dbbf
0.46341435860234576 0.012060456381079152 0.3099597217753029 -0.24554197341458922 -0.31890427787747144 0.14427827570251348 0.14760307824124771 -0.36919056574746006
-0.012882042601378315 -0.013549112452469337 0.33716338216660746 -0.0137392090290274 0.012537730152699163 0.2654530737865075 -0.29736676161659714 -0.16502787448999318
0.3547906880306404 -0.0817493285404671 -0.014185316076819571 0.3640173057129843 -0.0898445056555162 0.27247830927738065 -0.19031168641091367 0.01418831323358215
0.12932999972012596 -0.011522619095588948 -0.12434049078203266 -0.06008643787190394 0.29234945270520935 -0.4358487359060543

linears.0.bias f8 [30]
00000000: 1ed1 de04 548e b6bf 0952 f2b2 253f c4bf
00000010: b9d3 94d1 0a68 bd3f c299 e884 8ae1 c13f
00000020: adb0 cc9e 6fb3 b9bf 7134 3ad7 be96 c03f
00000030: 73c8 82bc 2a32 c6bf 1107 279b cbcc a3bf
00000040: 9a18 a1f1 b689 cf3f 6e3d 6860 b076 d43f
00000050: 7683 1894 3284 bdbf c777 21f2 8bea d53f
00000060: cb8e 8d57 dc2f cebf 4372 a1d8 a567 8abf
00000070: 90f7 9722 c299 bdbf 03df 015f 64b5 bdbf
00000080: 2247 c81b c024 b6bf dd88 f100 8714 c3bf
00000090: 11e2 7b01 c294 d83f 111d 4837 aa8b bc3f
000000a0: 5d14 e37a 0ee2 bbbf 3bf4 c4b0 76d6 bdbf
000000b0: 9026 677a 27e2 a73f 8ffd ab36 96c8 d8bf
000000c0: 9b0b 8492 58ac c2bf 257d 5a7e d081 ba3f
000000d0: c023 b002 a8c9 aebf 8670 deba d420 ca3f
000000e0: b253 ffa9 0c28 bd3f b960 7591 103b b73f
-0.08810925597100946 -0.15817710149407585 0.11486880890590968 0.139695467850471 -0.10039422633116386 0.12960038670681542 -0.17340597347862605 -0.038671839417942284
0.24639021681122558 0.3197441998936118 -0.11529842486971895 0.3424405922468136 -0.23583559298560028 -0.012893005059759882 -0.11562741608210403 -0.11604907340540298
-0.08649826696662591 -0.14906394525593827 0.38407945771135227 0.1115061173405716 -0.10891809940501802 -0.11655370536478042 0.04664729470421236 -0.3872428449539819
-0.14588458208171748 0.10354331097413601 -0.060132265403872065 0.20412692188699938 0.11389235639883458 0.09074500609620174

linears.1.weight f8 [30, 30]
00000000: 693e 5454 d1a2 b73f 4c35 577c a635 e1bf
00000010: 64f3 8fdb eb6c ca3f 44fe 64bc e940 c8bf
00000020: 9a55 8391 d027 c83f 157b ca8f cb00 c13f
00000030: 5bd5 1dc2 ed11 d0bf 4518 b7c0 893e c3bf
00000040: 7ec2 01cb 4c4b ab3f 7221 df16 d7b9 a73f
00000050: 9de0 3f53 1835 913f 924f 8b4d 77e2 e23f
00000060: 96b9 d957 2277 b93f c214 771f 57fb 76bf
00000070: fb6d fff4 ab13 d0bf ba61 ed3c 32f4 c53f
00000080: 10e9 e52b 6255 af3f 58e8 0e01 5cac c43f
00000090: 30c5 ffd1 9fa5 b83f 0e25 8213 c3a7 cebf
000000a0: 6bf9 a8bd 592f cdbf 3e9c 14ca 6359 b8bf
000000b0: 4c80 244f 86ef c9bf 38ea 754d 35a0 debf
000000c0: 1bc5 08fc 4c2a 913f e7c6 bf2c 9ea2 da3f
000000d0: 7787 ab4b f141 c7bf 14d3 e36b 8cd4 c4bf
000000e0: 4729 162d b831 c83f 2874 52fd bf4b b03f
000000f0: 3c8e a38b e5ad a7bf 1915 0fde 46e4 c5bf
00000100: d5db e66f 1055 a03f 5751 8f6f b31e d3bf
00000110: 3fc5 1389 f3f9 c1bf 2d47 5ad4 2911 8abf
00000120: f3d3 91f3 c6ea cd3f db12 61bf 4314 c23f
00000130: 65ee f450 3aee cbbf 84e0 99b0 a79a b13f
00000140: 7b24 dc24 3467 c43f d4a4 ca92 7996 d6bf
00000150: bfdb df1e 321b a3bf 1c53 d751 125c cabf
00000160: 71fc 52c3 0486 a9bf 8728 9a47 857e ba3f
00000170: de3e 871b 70dc abbf e176 f293 ce32 d1bf
00000180: 1d30 b934 6c68 a9bf 1193 dee9 e66f 83bf
00000190: 3448 aafd f235 b03f d6bd c58e 9215 a33f
000001a0: 394b 8d2a 6f2f b83f b690 c406 26af c53f
000001b0: 1fbd d3a6 3e24 c63f d206 a0eb 9773 bbbf
000001c0: 745d 1aef 42f0 993f 1b4a 4c6b 68eb cf3f
000001d0: 1c7f 08b1 6076 97bf 7cf8 afaa 6714 c73f
000001e0: ced0 d365 bdad cfbf b122 a9ab 88e7 d53f
000001f0: 9ebf 721d 5957 c43f 1b97 25f0 d7ab bf3f
00000200: f27c cb26 5235 823f 0ddf ad2c 9108 c3bf
00000210: f98a dd27 9bec bbbf db51 70a1 df5e bf3f
00000220: ad22 8d6c 7a9d bbbf 2ec9 9568 d539 cebf
00000230: e19c 0f79 0219 913f 9052 086b 0495 e3bf
00000240: c540 ec3d 2d92 d13f 1338 d4f3 2863 a13f
00000250: d78e a8ac 87ab c6bf 90e6 8fe9 89f6 a5bf
00000260: 3318 0552 2164 b3bf c642 8fa4 d0c9 d43f
00000270: 2311 912a 6296 b8bf 7160 2443 d8fc cd3f
00000280: bf60 72dd 083a d63f 4278 de12 ec54 c43f
00000290: 4861 9f7d 7c5e cfbf f2fb ec05 5b16 e73f
000002a0: 78b7 321c df19 cebf c0c3 0825 1fea d7bf
000002b0: c933 aed7 9de0 d13f 9fc8 bc5b 32a5 cd3f
000002c0: 3c39 02ac 57c3 cdbf aea6 2216 5fce ad3f
000002d0: b093 6278 d975 b23f 50cc 41ec 0ed0 d93f
000002e0: ea92 6b6a 42c5 b13f 4fb0 940b 56ef d03f
000002f0: 167c c749 a90c c93f 75ec d4bb 15e3 c0bf
00000300: 1c8d 6341 e4b2 cbbf 1380 a4da 6dcc d13f
00000310: 1e34 dddd fe22 e3bf 569b 571f 1a51 e1bf
00000320: a414 0eca c372 d2bf 6065 2cf2 ad33 c4bf
00000330: 55f8 6af4 178f e03f e020 cf2a 0c5f c53f
00000340: 22fe 4d98 da9d 9dbf b0a7 fb44 524f c43f
00000350: 880f f3e6 2675 c33f 5596 0923 0489 8fbf
00000360: 6473 7f55 2399 d8bf 6690 b60a 73f9 d1bf
00000370: fce3 a079 50d5 b93f b083 0723 41ca c53f
00000380: 5b58 b4f5 40d6 b23f 4306 9e77 d30a d13f
00000390: 6cd1 3a66 7e1b a7bf 82d1 33d3 bdf0 e2bf
000003a0: 21b4 84de 3699 bb3f ddb5 9ff9 f4bd c73f
000003b0: 622a 34e9 7789 a8bf 345f d8bf 745d b13f
000003c0: ddfd 1394 255d d23f f377 0584 2c9f b23f
000003d0: 339c 9b63 cc81 d2bf ff9d 6292 a251 433f
000003e0: deea 566d a125 cc3f b3e2 6b32 6b9c b53f
000003f0: 7f7a 70c4 ac2b c7bf 93c4 2192 89a7 a6bf
00000400: 6dd5 0244 4e35 da3f 9fab 7fa5 258a d73f
00000410: 82e5 6d9b 37dd cd3f a26b d06f 2e33 e03f
00000420: d806 8aa3 3e0e d8bf a141 bac6 a1ee cd3f
00000430: 8590 d67b da8b cd3f 79d3 edf3 477b 8a3f
00000440: db4d 8595 c646 d13f de4b 46ca b3cb d0bf
00000450: 0b73 4865 98bb cc3f 7654 1943 def3 8bbf
00000460: 1bfd 4289 1906 803f 0dbe 7869 f8b1 9bbf
00000470: 6927 4545 9ff4 d1bf 5206 22da de3f bc3f
00000480: 2d3a 789f fd5e ae3f a946 0971 3ac2 a23f
00000490: f1d0 e8fb 3e4f ab3f 5529 1eb2 1a98 c5bf
000004a0: 50ec ea9d 4220 c0bf 05fb 6803 cc2f d0bf
000004b0: df5a 643d 61c8 693f fce6 83ea c148 c73f
000004c0: dbb4 c60d 0e7d b63f 9b47 0dc1 ae87 b73f
000004d0: ead8 c9cf 683a c3bf 4042 57a4 4936 d0bf
000004e0: 9e89 878b 891f b63f 41ea 633f dd08 babf
000004f0: 2fb7 cce9 4dda a0bf 14f1 a210 8b49 98bf
00000500: 3dd8 5d1b 4859 c2bf 668d 4ccc 8709 c7bf
00000510: b6ab aecf 5411 c6bf 7908 6d05 7348 b03f
00000520: e069 70ba 3783 a23f f8b5 e585 b7f4 a4bf
00000530: 8cf6 7549 ec09 d6bf 34eb 1bd8 16d6 bbbf
00000540: 43a9 0ca7 6a77 c23f 7159 d4c6 fd08 b4bf
00000550: 740f c45e 1064 b3bf 6db7 5edb 0948 ae3f
00000560: fa61 c81f ea4b ce3f 5e23 6d6d 0c9f c4bf
00000570: c22f ae96 2b1e b2bf 3e66 4272 e6d3 b33f
00000580: 8415 21a1 0688 aebf 802a e952 15c5 c73f
00000590: cd0e 9b9d a891 cabf 7c2c 56c1 bfec bf3f
000005a0: 1c5c c1af d98a c03f 1cc7 2d93 6e6c b7bf
000005b0: 2dd2 d832 38c4 8b3f a331 3f36 a975 b5bf
000005c0: 3532 205a 9b99 c9bf d84a e5ad 6b78 bebf
000005d0: f941 8b81 a867 a43f 41a2 51f5 267d c9bf
000005e0: 2687 70db ebfc d13f 35ad c9f3 d318 e33f
000005f0: 05d7 f041 e06f cf3f d5c9 bae2 4460 df3f
00000600: 7b67 a918 f5b6 d9bf ef72 b703 ffee d03f
00000610: a12e 9239 dde5 c63f 682f 8a6d eeb1 ccbf
00000620: 7c56 cf13 4f2e c1bf b5a8 506a 80ae a43f
00000630: 7fdf ac4a b84c ce3f b06d faea 2b2c b5bf
00000640: a462 ffef 558c bfbf 4a54 d68f 9400 ccbf
00000650: d64c 7dac a50d bc3f 3b5a 2e34 bc19 ddbf
00000660: 9b42 dee0 1f27 d33f e52b 83f3 881b c03f
00000670: d266 e8a6 7d10 d5bf 5945 96b1 13eb 95bf
00000680: 9bab 1f00 c490 953f 5c5a d4a3 8f5d c3bf
00000690: ea37 211e 7997 c0bf 72fb 8be9 be62 aabf
000006a0: 0e9f 9414 c65d cc3f 23a3 91f8 5e67 c23f
000006b0: 1d2c 86f0 ce79 ccbf 0e20 c59f d686 d03f
000006c0: 9adc f7da abda bc3f 4ce0 ea9b 9e86 b9bf
000006d0: 866d a08c 1db9 d53f 507c 44bd 244d a9bf
000006e0: 2afa ab34 d848 d03f 4da5 5f0f 539f bc3f
000006f0: f150 2325 195d a2bf b382 759f a210 d2bf
00000700: f77e 9db9 d33e ad3f dd67 2e7e 5a87 c1bf
00000710: c0c5 ea94 d5ff ccbf 492b 5c4e ee9e b2bf
00000720: a130 9a28 e317 aa3f cf42 008f 95ee c53f
00000730: 4f86 6c96 5382 a93f 89dc ad00 c537 8ebf
00000740: 13b4 7e70 ce25 cc3f da37 2752 db12 d0bf
00000750: f926 8b14 0c9c ca3f acb3 c271 4638 ccbf
00000760: 4366 d6d7 7192 d0bf c069 79e8 e5ec b4bf
00000770: 7a0e c881 f497 d13f bc07 f6e1 8888 c43f
00000780: 7daa 19db a976 cfbf a901 66f2 0ef7 cbbf
00000790: 27c7 909e c8cf c73f b0c2 1a1d 15cb adbf
000007a0: 5103 03b0 6789 d0bf fdb8 d6fe 02ea bf3f
000007b0: d227 8581 d54d c3bf 1fbd e6a2 4926 bfbf
000007c0: 5607 821a 7713 c9bf 33cf 88f2 d54d a23f
000007d0: 2a63 7da4 7a59 86bf 3c7d 5bac 8a5c c83f
000007e0: b628 25fc 5ddc d4bf fdc4 8302 0052 ba3f
000007f0: 1323 446e 3766 b53f 3363 92e8 dde7 c2bf
0.0923281508332764 -0.5377991131332833 0.20644901486221123 -0.18948098849249295 0.18871504883888407 0.1328367664436533 -0.2510942836446099 -0.15034601125643313
0.05330886819945578 0.046339723150199755 0.01680410392870667 0.5901447786841223 0.09947409291064555 -0.005610790561552283 -0.2512006657177321 0.17151477789844966
0.06119829927316023 0.1615099911849167 0.09627722622805801 -0.23949469044263377 -0.22800752411599076 -0.09511398013693026 -0.20262221207031172 -0.4785283333255026
0.016762926943731587 0.41617540712387185 -0.181699907253513 -0.16273646610320525 0.18901731683247133 0.06365585264798368 -0.04624860124183924 -0.17102895586700909
0.03189898839939757 -0.29874883551135184 -0.14044040864204452 -0.012728049080837767 0.23372733014153332 0.14124342770278173 -0.21820763543097424 0.0687660986094461
0.15939952659417486 -0.35293425879588125 -0.037316862362721796 -0.20593480106494944 -0.049850605815202516 0.10349305151081199 -0.05441618286169868 -0.26872600982629363
-0.04962480681987833 -0.009490779888275765 0.0633231992053716 0.037273960045123 0.0944737891089006 0.1694076092763958 0.1729811014733764 -0.10723256590429323
0.02533058723801447 0.24937157859001577 -0.022912512593506226 0.1803102096018313 -0.24748961898843053 0.3422567058919795 0.15891565263654867 0.12371587384185682
0.008890764054227483 -0.14869894677735154 -0.10907907222057735 0.12254140559554776 -0.10787167692354656 -0.23613994223303209 0.016696966780639925 -0.611940583274718
0.27454691931872005 0.03395965553691851 -0.17710967951381093 -0.04289656616306303 -0.07574661495627381 0.32481781072878524 -0.09604466952538764 0.2342787101595181
0.34729215264952623 0.1588416187414073 -0.24507099279322575 0.7214789500939089 -0.23516453625546396 -0.373664652029273 0.2793345075850167 0.2316039035736752
-0.232523879040352 0.058215114070958904 0.07211074055756117 0.4033238703916071 0.06941619012975378 0.2646079171270274 0.19569889166356863 -0.13193008109542217
-0.21639683907333385 0.2781023631268919 -0.5980219205172295 -0.5411501514580361 -0.2882546876138099 -0.15782713246225466 0.5174674772058646 0.16696312036788807
-0.02892247728914133 0.15867069595634353 0.1520126941378488 -0.015398056334741709 -0.3843468031826005 -0.2808501820202366 0.10091116876073153 0.17023481569688448
0.07358175276417127 0.26628576928496644 -0.04513163564607478 -0.5918873906180553 0.10780661518647651 0.18548452557244746 -0.04792380067563752 0.06783227618904847
0.286935228927147 0.0727413008039262 -0.28917226531342805 0.0005895656402303272 0.2198983940014249 0.08441801053039448 -0.18102035133138725 -0.0442469588168787
0.4095035232706639 0.36780682718261376 0.23331351365395042 0.5062477287168472 -0.3758694264471223 0.2338449688291009 0.23083048865112601 0.012930452472326813
0.2699448070681833 -0.2624330020273059 0.2244749540849614 -0.013648735449502274 0.007824134351152303 -0.027046090543249735 -0.2805555511919154 0.11034958673010323
0.05931847163821078 0.0366380942329106 0.053338974238075106 -0.16870435425910082 -0.12598450384925508 -0.25291729290977144 0.0031473063674057745 0.18190788222255339
0.0878456863053602 0.09191410268002047 -0.1502200140564079 -0.2533134560481223 0.0864187207840019 -0.10169775769819812 -0.0329155300045002 -0.0237180451301678
-0.1433496602655299 -0.17997834659136486 -0.17240390911805797 0.06360548860996741 0.03615736151569471 -0.040929541678320136 -0.3443556516066131 -0.10873549247837105
0.1442693057700329 -0.07826219658122625 -0.07574560464496277 0.05914336016517905 0.23669172813312384 -0.16110377638895107 -0.07077286175461864 0.0774520901635691
-0.05963154522809602 0.18570200489405764 -0.20757014937964016 0.12470625372059091 0.12923737603952723 -0.09149828999741455 0.013557852794385894 -0.08382661413560881
-0.20000020886108563 -0.1190249728727325 0.03985334950778347 -0.19913184145413435 0.2810620921101069 0.5967807542305424 0.2456016847588033 0.49025079862181303
-0.40179183395741064 0.26458716738652205 0.17888989745221287 -0.22418003414747578 -0.13422573535233429 0.04039384172240671 0.23671630522016682 -0.08270525442860932
-0.12323510274235133 -0.21876770995428024 0.10958323918503096 -0.45469575019652425 0.2992629714945367 0.12584030046704622 -0.32913152026740733 -0.021404559816408184
0.021060049541044994 -0.1512927579830884 -0.1296225926511732 -0.051534620293742686 0.22161174778852238 0.14377963196900465 -0.22246729606953944 0.25822988131085445
0.11271165939239083 -0.0997103815706179 0.3394235490138374 -0.049416683296151676 0.25444607871750924 0.11180609822590278 -0.03586653307289279 -0.2822653348176047
0.05711995735941671 -0.13694316064066828 -0.22655744334546846 -0.07273759282194904 0.050963495928131104 0.17134351236793186 0.04982243739347025 -0.014754809458948042
0.2199037598888088 -0.25115092299244923 0.2078871822653168 -0.2204673819991546 -0.2589382751262727 -0.08173977780953745 0.2748996035954644 0.1604167083096949
-0.24580882261519213 -0.21847712360250895 0.1860285543676181 -0.05819002132682749 -0.25838653744363166 0.12466448518418712 -0.1508128054068139 -0.12167797305186355
-0.19590653223354576 0.03575008950829641 -0.010912855286436225 0.1903241483296173 -0.325950142131329 0.10281372128862994 0.0835909504131787 -0.14770101409956168

linears.1.bias f8 [30]
00000000: d6a5 2fdb 7220 b93f e916 721c 5efa af3f
00000010: f6df 7d4e 6d78 693f b0fc c702 eda3 b0bf
00000020: 0e9f a6a7 cb09 b0bf 4b19 341d 75d2 ad3f
00000030: a090 3a68 b622 a2bf 67b0 3b31 00d9 b73f
00000040: 9d93 6320 c1c8 b03f 49fa cf88 c6a4 743f
00000050: 261f a116 5114 c23f ee4c 4f8a d7ec a73f
00000060: e12b 00c1 1f28 bdbf 1668 aec1 4114 b03f
00000070: 5ae7 8fb7 fab9 b03f af7a ca6d 98f2 7bbf
00000080: c65c 1322 449e ad3f bfb1 fdfe dd2d be3f
00000090: 17c0 52b2 95f8 b63f a6c3 51e0 52a7 aebf
000000a0: 12c3 9203 b41f b6bf dfba 8579 db20 a5bf
000000b0: 30bb 1a10 f6ae 77bf 4c3b 1c18 96e1 b23f
000000c0: f0b2 3121 2743 a4bf 2f42 7672 1fd9 a1bf
000000d0: 9dcd f437 2e26 a6bf 675e 0f3f 2988 b43f
000000e0: c6fd 6cb0 6b31 b3bf 3d6f 369f b1b3 b6bf
0.09815137721275077 0.06245702836262785 0.0031091818709079134 -0.06500130956554773 -0.06264946787871059 0.058246288123017985 -0.03542108557056278 0.09315491868955093
0.06556326905008665 0.005039954686252354 0.14124501805258055 0.04672883571006446 -0.11389349424295815 0.06280909517809649 0.0653378198766438 -0.0068231539013640504
0.057848099860785804 0.11788737750402499 0.08973060229868711 -0.05987032879136871 -0.08642125212896826 -0.041266306480670194 -0.005782090361818246 0.07375467384939077
-0.03957483558847297 -0.03485964081039971 -0.04326004441318363 0.08020265378524415 -0.07497284943837376 -0.088679410333893

linears.2.weight f8 [30, 30]
00000000: 8a24 8cc6 3c8f c6bf 9a7a d566 5906 c33f
00000010: d80f 519d f783 d1bf d777 88e8 a925 d63f
00000020: 48ea b5a6 a5c8 d7bf b6da 9c77 303b b9bf
00000030: 6f6b 401b 5bc9 c5bf c8b2 6e27 eedc c83f
00000040: aceb df2f 92c6 c63f ec2a 215e 497b d0bf
00000050: 5ac0 4846 771f c3bf 1bc9 4439 49d0 c13f
00000060: 885c cc39 2f1f ccbf b227 ab21 db83 d0bf
00000070: 1990 deb9 0d48 bc3f 7654 49c2 34f2 dabf
00000080: 2338 e41e ea85 a53f d8aa f820 0179 c93f
00000090: 8e56 081e 760a d03f bdde c599 460a b6bf
000000a0: 9b52 222b 0768 bebf 46c5 9bde 9214 c3bf
000000b0: ac37 31aa 2abd c9bf 9920 0c3d 8c21 c4bf
000000c0: 695e 1ca5 4781 d5bf e186 e162 a488 c8bf
000000d0: 349a c1cc f3ec c0bf 2e04 15de 7f24 d03f
000000e0: d263 4f9a d9cc ae3f 7814 a155 43e4 cdbf
000000f0: 7404 5418 a173 c43f 964a ef39 fe9c cbbf
00000100: 38bb 55a8 f321 cf3f 35a4 c154 a061 c83f
00000110: dab6 ddc8 5fb1 c6bf 1849 2274 8063 c43f
00000120: 490c d618 9141 ca3f b190 a9cf e8af cbbf
00000130: 5f10 fd22 111b b8bf 39b1 dfa0 af07 b93f
00000140: 9864 4096 b0fe ce3f cd5b 6199 ddb1 c53f
00000150: 611c 9aa8 3dec d03f 1384 bda7 b0ce d5bf
00000160: 44d6 4d64 8e10 c83f dd19 6590 b1ae b8bf
00000170: 1f26 820c 988e c53f f767 d005 6be5 b1bf
00000180: d85e f138 8503 953f c4a1 414a 57ac 96bf
00000190: 3f00 7617 d64f bd3f 0b78 19f8 c03c cbbf
000001a0: e128 3269 a1e5 b43f 8b4c d91b 8b03 ca3f
000001b0: d6e4 3f34 37c5 d03f 51c6 a75a 62a3 c0bf
000001c0: cd75 16aa ccb7 c3bf 79b5 a4a0 511e d0bf
000001d0: e685 3e9c 3267 a53f a526 34cc 7b02 d13f
000001e0: d65d e46c d284 a4bf 7beb 107b c71c c1bf
000001f0: 420b 9aa6 da3e c73f 80eb 56e8 c089 c63f
00000200: a3c9 3cb9 7ddb dbbf 0180 5b0a 72b1 b03f
00000210: 0097 b1e5 4654 e1bf 4a0b 3b8c 4077 b43f
00000220: f963 366f 659e ccbf f23f 5b6b be62 c03f
00000230: 870c 95d4 4b36 c4bf 7118 fcc3 77a1 d43f
00000240: 4d4a d01d ec95 d63f 28fc 460a f8d9 913f
00000250: 26c2 0b30 5bf2 bcbf a173 5e20 a1e3 d9bf
00000260: fdd1 a671 f750 7ebf 845d 92ad 6d60 c4bf
00000270: 3d9f b7b1 c7d9 d73f d64c dbcc afa3 dabf
00000280: e320 41ea ae90 ccbf 652d c765 7db2 d23f
00000290: 773d 5e1e 624d d53f b188 175e 809b d2bf
000002a0: 886a f0c9 70bc bfbf 4ccd 6883 3464 a73f
000002b0: a316 8d77 138d d9bf cb32 df8f 6c96 d5bf
000002c0: 3bd0 75e1 a956 96bf 711f b025 6bbc c1bf
000002d0: ee61 0eaa b4a9 c23f b3a1 3868 b5df a3bf
000002e0: 7041 9c26 dca1 d5bf 0da4 82d7 d145 c3bf
000002f0: 73b5 1049 d24d d23f cd98 1304 1b77 ddbf
00000300: 7706 b2de 6902 ce3f c9bd f462 8bb8 cb3f
00000310: a64c d473 d4c9 d13f 049c 7127 479e cb3f
00000320: 372b 5e53 a484 b3bf f699 2302 daea 8ebf
00000330: 1d3a 84eb b2f7 c7bf b7cb 5429 9743 d13f
00000340: bdd7 6f21 97cd 933f 6aba 4212 5a39 b43f
00000350: 19cf f8c3 482d b2bf 0a4a 0f51 082c d33f
00000360: 2019 e765 cf93 d1bf e65f 1ce3 cbda c2bf
00000370: 7e23 22cb dd6f d6bf 5cb0 d94d 7e2a c23f
00000380: e1f9 a590 f06a ae3f 4669 9613 129a b7bf
00000390: f7ed 6b97 fc43 cc3f 5b4e eb5b 2305 c13f
000003a0: f280 1092 9ba6 c9bf f20b 0ab4 e228 cb3f
000003b0: e764 1955 f936 c7bf b3b4 7152 3e62 c33f
000003c0: 570e ecad 8d06 c93f 3e3a ec01 6b0b d13f
000003d0: 1ddb 69a5 a44d cabf c060 44f7 96cd c23f
000003e0: 2148 41a3 f295 bd3f 7b28 8032 b124 d2bf
000003f0: 4a6d 4778 a05e dc3f 89a5 a229 f672 cabf
00000400: 455f a565 bf38 ce3f 91d8 a42b 8ac1 95bf
00000410: d0b7 b985 377b d0bf f5e5 f76b a6c1 d6bf
00000420: 471d 0676 8b48 93bf 5235 4478 df22 d33f
00000430: c956 2b2d e7fc a2bf c6d8 695d 260d a33f
00000440: a362 b2df 8cec c6bf 0aaa 19d6 58b2 b03f
00000450: 750f dfea ff67 bdbf 6a29 5873 f211 d63f
00000460: 9b33 994a eb18 c43f c608 9cc1 c12b ce3f
00000470: c3a0 de0f fe95 bdbf 480b 00ac 70ef a13f
00000480: e2ec ab52 0bc1 b33f 618c a914 647d a43f
00000490: f0ca e186 e351 d83f c7f7 7a31 45ae d43f
000004a0: 8354 a9a5 623b bf3f 609c 888a 270b 7e3f
000004b0: d2ba f371 4477 c33f 310c 68e4 d053 d2bf
000004c0: 8606 e862 23e7 d23f 2750 00af 0b53 d8bf
000004d0: 8b60 b5e6 d911 c23f a013 8331 d690 d53f
000004e0: f0bb cfcd 3bce da3f 04c3 005d 7c15 c4bf
000004f0: 1c35 4445 41f1 dd3f 7b0c 1094 61ff a2bf
00000500: 5c14 a1d1 6fb1 c0bf 6de7 7855 0355 ba3f
00000510: 6e9e 7b22 64ab c1bf ed6d 5f37 3986 ccbf
00000520: 9539 f308 62c6 ca3f 3c8a 1b9f 8568 afbf
00000530: 111c c628 f910 cabf 9c66 9a34 94aa c33f
00000540: fc5f eb90 a0c3 97bf 8879 b52a b100 a0bf
00000550: 4bbd 8f80 860c b63f c286 a23a 368f d8bf
00000560: 3f3e 3cb5 e800 a1bf 04d3 fa62 d49e b63f
00000570: d192 8461 a88b d63f 5ca0 e2e6 5864 c43f
00000580: 9af6 dd88 70ff cb3f 6e9e a85b 007c ba3f
00000590: b69a ba80 51ae 413f e7b5 353b 00ee c43f
000005a0: bc59 0f39 ced6 b73f 9101 c887 1204 ce3f
000005b0: a522 4330 5ebf c8bf 1467 3aa9 ec16 c4bf
000005c0: 15d6 8a07 dc87 ccbf 5d4e 2733 5ef1 c0bf
000005d0: 1986 9470 ae24 d8bf 469f 71ac ef61 a2bf
000005e0: 5b36 00d9 3bdb d03f 1102 b2f3 3650 dabf
000005f0: f33e 531d 74ba 6dbf a24a 51e4 87a0 c8bf
00000600: 96cc e075 5ec4 b3bf dcac d853 aeb0 cbbf
00000610: eac6 5ad5 c927 c73f af7e 722a 2c99 cabf
00000620: 79b9 1717 bc96 d53f 640d 8d59 3ccb d0bf
00000630: d70d f8a5 6a3d d83f eeb0 e9d7 0865 a43f
00000640: 66cd 90b2 2066 c5bf ca24 7f4a dc32 c23f
00000650: 92e8 3540 e41a d13f 9cc7 25f8 81f7 cebf
00000660: 42e9 767c 64a1 cabf 3458 2354 b213 a8bf
00000670: 0d15 fa8c 3478 c6bf cc83 829d 4de9 763f
00000680: 1c33 c66b c9ad 963f 6c3f 85db 8f6f d73f
00000690: f57d 8f52 cbf9 b7bf fc96 87a2 7105 a93f
000006a0: 22cd 0681 6f11 a9bf 7c29 0330 62af e33f
000006b0: a26d 5e9e 0a60 dfbf b55a be39 393c babf
000006c0: c1d9 c9ec 10a5 ddbf 48c1 691c ad8b c2bf
000006d0: 9da7 0bbc 66d8 dabf 7c1c 9cc9 11ca d3bf
000006e0: 9f33 7f32 1a87 c3bf 60b5 0f3c 6bbe 8ebf
000006f0: 2d75 e177 2a6d e43f a831 c1da 44cd a33f
00000700: 8be7 2a76 c42b ae3f bc90 1948 1ff9 d6bf
00000710: 1bfe 066a fde0 c23f f693 cfc1 899d e2bf
00000720: e38d bb95 cc89 e03f 66a8 919c 7d16 c8bf
00000730: 0b2a 7166 849e c33f 46ea bd99 100c c0bf
00000740: 06d3 de05 e103 e33f bc18 ad01 9885 b9bf
00000750: 5f5d 71f4 a25b e0bf 6964 9434 97f1 d6bf
00000760: 2be9 768d 89ff ddbf f869 1320 3079 aebf
00000770: ff67 db93 5f79 bfbf 44ea 51f1 5cc1 923f
00000780: 1c0f b36c 014b b83f 6b19 7a2f 1523 9fbf
00000790: 8fa4 49e2 0ef6 b93f 8781 7b79 262a c13f
000007a0: 88c1 c048 6935 c0bf 8b40 8837 5c5b 9cbf
000007b0: 7712 20f7 4f04 be3f 2993 15b8 8f74 d33f
000007c0: 6acb 955c c494 d23f 34ba 3931 022b c73f
000007d0: fee4 9795 545e bb3f 3e7c a00b 7dab d03f
000007e0: c693 7940 9f3c b5bf d432 721f e53a cc3f
000007f0: 7ca0 7de6 0ebf b63f 7be5 5be9 ccf0 c0bf
-0.17624625868510108 0.1486312629812872 -0.27367964137033374 0.3460488100844236 -0.37162152557690264 -0.0985594074271415 -0.17020739393850756 0.19424225736056244
0.1779349073184141 -0.2575248164400097 -0.14939776355595563 0.1391688851959508 -0.21970167467290858 -0.2580478504938767 0.11047445094897092 -0.42103308652196547
0.04203731181233674 0.19900526151589903 0.25063851292484507 -0.08609429601880954 -0.1187748413379474 -0.14906535977892527 -0.20108540830773103 -0.15727379780606013
-0.3360156166467961 -0.19166998699352347 -0.13223121164192408 0.2522277516146144 0.06015663155239505 -0.23352853470911206 0.15977872550869032 -0.2157285483250077
0.24322362632252648 0.19047931803223297 -0.17728802974618568 0.15928655310251183 0.20512593949033178 -0.21630582942737456 -0.09416300873005089 0.09777352979262312
0.24214751564503412 0.16949052800438694 0.26441899743116976 -0.3407403600777467 0.18800525567682957 -0.09641561293856378 0.16841412173043666 -0.06990689174600094
0.020521241760745962 -0.022141803653001238 0.11449945519234549 -0.2127915584014207 0.08162888353595889 0.2032331357937419 0.2620370874643191 -0.1299860899594472
-0.154046614695217 -0.25185051620322657 0.04180296094206053 0.2657765859772588 -0.040075851242530255 -0.13369077214323596 0.18160565504885012 0.17607890457824382
-0.43527167405695816 0.06520760300509211 -0.5415377126889496 0.07994464324569353 -0.2235838692693333 0.12801342241300478 -0.15790698890677765 0.32235521449218313
0.3529005328320281 0.017433047892833425 -0.11307306216236465 -0.40451839600592093 -0.007401434495865275 -0.15919276213820066 0.37266723971559995 -0.41624064450770726
-0.22316538274959105 0.2921441549230706 0.33284810033452267 -0.29074105442681303 -0.12396912508158142 0.045686379471954724 -0.399235598324916 -0.3373061566351622
-0.02181497038459688 -0.1385625776313151 0.14580400756382467 -0.03881613633376748 -0.3380041482023648 -0.15056822798695216 0.2859998429801955 -0.46039462469196907
0.23444865583228466 0.21656935054623563 0.27794371901945636 0.21576775957075267 -0.07624270472858262 -0.015096381368903327 -0.18724667072133708 0.2697503951669051
0.019338952461076298 0.0790001196462328 -0.07100348267050229 0.2995625297163832 -0.2746466155189342 -0.14730213727375413 -0.35057778203240975 0.14192179490362633
0.05940963521696908 -0.0921946809598114 0.2208247889865189 0.13296930301895568 -0.20039696342519836 0.21218522826174496 -0.18136517195924926 0.15143565202325746
0.19551249496736275 0.2663218992974271 -0.20549448086577451 0.1468991000517743 0.11556927190511647 -0.28348951274586626 0.4432755636787148 -0.20663334877944475
0.2361068006819044 -0.021246107972921428 -0.2575205617821412 -0.355569463193745 -0.018831423834425178 0.2990034746624889 -0.03708574701674434 0.03720970049191545
-0.17909394190498515 0.06522135951096444 -0.11486815914309807 0.3448454023752193 0.15701047079565175 0.23571035340871144 -0.11556995284502407 0.035029908176531566
0.07716437118863298 0.04001915695405312 0.3799980942923602 0.3231366141516187 0.12199989838093654 0.0073348564697318375 0.15207725109163178 -0.2863657217532732
0.29535755785773465 -0.3800687035557097 0.14116977467597666 0.336965130187588 0.41883750056052715 -0.15690569440041469 0.46785003437328654 -0.037104653667506114
-0.13041494117547614 0.10285969578481309 -0.13804294284567525 -0.22284617618321026 0.20917916714683985 -0.061344314262687466 -0.20364298334990896 0.1536431557513439
-0.023207196088009127 -0.03125527998303129 0.08612862242420254 -0.3837409565549984 -0.03321006023736261 0.08836104790209381 0.3522740318606284 0.15931235574430758
0.21873289759598863 0.10345461118469654 0.0005395791972276551 0.16351321116546488 0.09312142270150664 0.2344992793077947 -0.19334008556895302 -0.15694959891407534
-0.22289610260274687 -0.13236596582156582 -0.37723885530621853 -0.03590344409968664 0.2633809680126881 -0.4111459140622467 -0.0036289470541318535 -0.1923990120727313
-0.07721510293849784 -0.21632937521039863 0.18090174596505132 -0.20779945442790423 0.33732511763709955 -0.26240452523435054 0.378748571471275 0.03983333240179997
-0.16717919081711868 0.1421771396401595 0.26726633329929783 -0.24192833534794722 -0.20805030896537785 -0.04702527310443863 -0.1755433739055338 0.005593589005145238
0.022147319033638188 0.3661842006449578 -0.09365530744206992 0.04886965855602729 -0.04896114778548567 0.615159124158978 -0.4902369066782858 -0.10248143825297513
-0.46319983600497144 -0.14488757979735056 -0.4194580875761121 -0.3092083424421117 -0.15256049600284613 -0.015011632700373922 0.6383259145183381 0.03867545290322322
0.058927668976550406 -0.3589552120304338 0.14749114682307227 -0.5817307267540162 0.5168211864915374 -0.18818636078805467 0.15327506067326654 -0.12536818987776338
0.5942235102325817 -0.09969472924157946 -0.5111861013673823 -0.358495522830316 -0.46872175993816495 -0.059518340983874596 -0.12294576034346959 0.018315746525767077
0.09489449409289502 -0.030407267592204173 0.10141079926110506 0.13409882480392474 -0.1266299824942616 -0.027692261590403205 0.11725330146152567 0.3039893434236541
0.2903300193931303 0.18100001720036263 0.10690811779194928 0.2604668248695282 -0.08295626949400434 0.22054733310178298 0.08885281684126939 -0.1323486461113069

linears.2.bias f8 [30]
00000000: 5221 a55c 300a ab3f 0070 3b54 32de bdbf
00000010: 5e8d 7850 d86e a8bf ffcb ce83 2d73 b8bf
00000020: cf20 ac88 2e96 a0bf a492 aa2b 383f b33f
00000030: 5110 0e5c 2c65 b13f 80fb 72e1 0889 9c3f
00000040: db4f 8694 cb95 a93f 1624 290f 8125 abbf
00000050: 7d5d e0ec c0d5 c13f fe27 0b2e ee8c aa3f
00000060: c408 f2f2 8f6a ad3f 483a eb8a aa86 ac3f
00000070: 3a21 860a 64d8 b13f 90bc f008 f4bf a4bf
00000080: 7a7d 5404 a904 8bbf 6af9 c4d6 7007 ad3f
00000090: c44b ecbc 2717 aabf ca2e 457c 7ab3 81bf
000000a0: 5538 4118 61f1 a9bf 9c03 0ad1 6aac af3f
000000b0: 6f95 ad0b 9bce a93f 38fa e16b 211d 9ebf
000000c0: 15b7 fc0f a464 c43f 66a8 5ca6 48b1 a5bf
000000d0: bbcd c1fd e3f9 a93f 6c71 9e41 7110 afbf
000000e0: 4e06 79ac 3a58 a4bf 4fd3 50e8 070f 9dbf
0.05281211024208922 -0.11667170101594593 -0.04772068006811979 -0.09550747364009736 -0.03239579599727593 0.07518340173789767 0.06795003173289273 0.027866495857547857
0.04997097194714658 -0.05302050886218283 0.13933574262840046 0.05185646354728134 0.05745363083498625 0.055714921434276976 0.06970811135227431 -0.04052698716292824
-0.013192482418672869 0.05669739362427857 -0.050957910358327335 -0.00864310924284641 -0.050669702730929224 0.06186231424090424 0.05040440099291287 -0.029407999238623556
0.15932131558059184 -0.04236819296632248 0.05073463890667137 -0.06067232061397729 -0.03973563533191947 -0.028377650789667638

linears.3.weight f8 [30, 30]
00000000: 028f a3c3 3634 de3f be30 9291 79de b6bf
00000010: cc31 4b52 dcad c53f 77d0 85b8 99f8 ba3f
00000020: ed57 33b3 1d11 c33f a39f 1eaf c428 dcbf
00000030: a336 34e8 d5cf cebf aa74 4429 ca94 cbbf
00000040: dc96 335d d759 be3f 11d5 f704 457b b6bf
00000050: 25ac 0e94 98f0 a7bf b723 d74c 9617 cfbf
00000060: 4c23 7099 cbe8 d23f d3e5 8f96 ad9d d0bf
00000070: 9848 2d83 7c9a cdbf 1024 c94e 0077 c83f
00000080: 2503 21fc 700d c73f 5090 b4af 74a8 babf
00000090: 4077 aace d8fc ccbf e5d3 7908 035c d13f
000000a0: b33a 92a4 68fa c9bf a101 2fa3 fa0e b53f
000000b0: 3881 e518 01d7 753f 3e56 f1e5 be44 7fbf
000000c0: e238 9241 7133 c4bf 8389 829c e1c6 be3f
000000d0: 39c8 c7a3 859b c83f 89a8 3ad1 be96 babf
000000e0: a3d5 6688 8ae0 8a3f bd92 3907 c834 d5bf
000000f0: 83e2 bf27 4a28 d53f 0e3a ab8a 5c30 cdbf
00000100: 4511 60e6 594a d1bf de29 276e f335 b6bf
00000110: 9c5e 0a67 80dd d43f b9ea a7c3 cfb9 d7bf
00000120: c218 741b b276 b5bf d991 ebf8 8731 b9bf
00000130: f8c4 a857 cd38 c23f 985e 7a52 416d d2bf
00000140: 174f ad9e 338f aa3f 1a4e 1a3e 6d31 c53f
00000150: 8724 33b5 bccc c53f a3ef 0042 6407 b2bf
00000160: 5520 2176 3526 9abf 1122 ecad 39ac bdbf
00000170: 32d1 e694 45e4 d1bf 2023 cf4d 3b86 c3bf
00000180: 258b c396 107b d0bf 86e1 a75b 4229 c8bf
00000190: 5fe2 c82d 8b13 c43f cbe6 7457 a1fa bd3f
000001a0: a259 8856 3d58 aabf a1db bb04 9190 cfbf
000001b0: f4e0 7c91 ed54 c43f fe57 d74c fd31 b43f
000001c0: 0f49 1dd9 4092 c8bf 18a7 e29f 9e6c 813f
000001d0: bf6d 55dd 9d27 97bf dccd 353f 05e6 cf3f
000001e0: 0649 14ac bd9d d7bf a11b fc5b 6fed c03f
000001f0: c623 e26b 3bc2 c8bf 3a2d 958b 9361 cb3f
00000200: f33f 4de7 eb8a c93f f1c9 ea75 106a 9c3f
00000210: 86be 9d8c 10e0 cebf 0139 c208 cde9 c4bf
00000220: ad75 391a 60c8 d7bf c7c7 4123 7843 d33f
00000230: 15d1 a3e0 8921 d2bf f691 5edd 66ef c1bf
00000240: 29b0 8f89 e3e6 d2bf b62a fd5d 8365 cd3f
00000250: 8527 9900 3de1 d0bf 46ce 0880 4ce6 b23f
00000260: b0da 4463 e06f c6bf d951 bf8c f1ff d4bf
00000270: 7033 e64c a71f d13f e11e 5fd9 3f54 cdbf
00000280: 2098 4978 c979 d2bf f79b 6f89 0829 c0bf
00000290: b6ba 97b4 a6f2 c7bf 5b6f e562 efb6 993f
000002a0: f17f b91a 2dce c83f 08dd 5faf 406e 943f
000002b0: 4f82 4a32 0a6a d2bf a217 2e04 ec6c c1bf
000002c0: 5132 0984 6fae 803f 287d be00 972a bf3f
000002d0: 2391 ab1e 6eea ccbf e8d3 cb93 8a37 c53f
000002e0: 0862 c823 4fe5 91bf dabf 4e1f 98fa 70bf
000002f0: b645 75ad b911 ccbf f75d 75ef d1b6 de3f
00000300: 6bdf e2f8 49aa ce3f 3a6d 91cb 1458 c73f
00000310: c489 4a33 5a9d dc3f 053a aa8b bb29 8c3f
00000320: 4480 2672 c5ed cd3f 60be be02 ba9e 9e3f
00000330: 2222 679a f794 ab3f e3bc cf3f ac49 d13f
00000340: 5026 1376 de3f c63f 3e7e 21f6 5f4c c5bf
00000350: 3710 40be 6a62 c63f b652 1c13 13e5 babf
00000360: 5005 a4fd c3ca c2bf de6d bd82 25b2 c6bf
00000370: 6e8f 2f08 3ccf ba3f 805e c6a9 7516 d6bf
00000380: 77a7 2ac0 5651 d4bf b932 fbc1 d3c3 da3f
00000390: fabd f1a1 de2d a9bf 74ce ad01 9b26 81bf
000003a0: 3b07 2d27 700d 6fbf bf74 5eba d34d ccbf
000003b0: 4e0b 4793 0df3 cd3f 98c9 ab0f 9283 c63f
000003c0: 003a 108e 24ce d13f a315 27e5 06c2 ca3f
000003d0: 41a6 8b37 7b61 cf3f 12b8 427c d3ff b2bf
000003e0: 04d9 2f4c cc1d d53f 08e7 ee2a e4f6 cfbf
000003f0: c6a6 2790 0be5 cbbf cdf6 e41e d17a d73f
00000400: 1dbc c879 e53f 873f 69bd 9f7a 284c 9b3f
00000410: 3550 6ad2 3277 bc3f 5ba1 caeb fb62 c43f
00000420: c956 7725 7721 d1bf 9b3e a65d c187 c43f
00000430: cb16 d35a 40ec c53f 36c9 2cd6 94c0 b93f
00000440: 9c4e dd9a af93 c1bf eeee 674f d71b d2bf
00000450: f8d3 d016 db13 b6bf 5e88 3e28 d2a9 af3f
00000460: 21b0 2805 2949 d7bf a3e3 3ec3 da2d b83f
00000470: 1b9e 3ede 9539 d93f c9ac 8ab7 04bd d1bf
00000480: c1d5 1604 9976 d7bf e17e 36e9 497c ba3f
00000490: 4e3d 4c4a 53a8 c7bf 5737 17d3 7efe c53f
000004a0: 25d9 f31e 1c56 a73f 3c68 343a f8f4 ce3f
000004b0: 5100 1b15 a6c4 c5bf 2dfd 2f8b 5290 8a3f
000004c0: 15a4 e747 e686 bc3f 2449 484e 5d9b 7dbf
000004d0: 76c2 cccb ad0b d1bf abd2 1a6e e4f3 c43f
000004e0: 3361 39e7 fd4c cebf 6b16 e923 a0c2 9abf
000004f0: 57a5 be5f 42b9 cf3f d0c0 5f4d 4511 c9bf
00000500: 47e2 396a 2304 adbf e78a 65e7 f970 c33f
00000510: fd1d 1bf4 eda2 d73f 8152 f381 c223 d63f
00000520: 94d6 d08e 7d6f aa3f 1ec1 d434 d8f0 babf
00000530: 1df8 b29c f698 ca3f edbf d322 67d6 ce3f
00000540: 6aa6 e318 89de d43f 99ce dcc7 9b60 a13f
00000550: 83ed 09cd abf8 b8bf 869b 041e 2d6a b73f
00000560: 867a 09a1 4a50 ae3f 183d 4ecf 56ef c8bf
00000570: ba2c 48f5 0aa1 bdbf 5dd4 04ad 9011 d2bf
00000580: 5cc0 7eb7 8ebe aa3f c0d3 42b5 807c a33f
00000590: 35c0 5774 1180 ca3f 02d7 21aa a568 c83f
000005a0: 9431 b013 e230 d2bf 4461 fd32 0cbb d0bf
000005b0: 0a1f 4d52 0bea d1bf 0100 ba7d ca9a d1bf
000005c0: 5969 ed4d 09f6 c3bf dcfb d9a6 a76a d63f
000005d0: 9769 a0e0 3e92 c2bf e75d b983 cc28 c6bf
000005e0: 39c5 454b 20f2 cb3f c373 8bda 49b1 c6bf
000005f0: aeec fab6 0d11 d0bf 1810 7fe3 edbf c93f
00000600: 8586 b041 88ed c5bf 655f 1a7d 3388 d13f
00000610: 9777 3051 9bf3 c0bf d069 24b3 a090 c93f
00000620: 9d84 9591 57ea bc3f 5e9f 9c9e b246 d53f
00000630: 18c5 68ab 7781 b83f 6d4a 9213 d993 c33f
00000640: 2ffa d0cf db81 b0bf b800 11f2 0184 ccbf
00000650: 417f fec5 acbc c8bf 6c4c 3fe6 ec57 70bf
00000660: 94cc 2e5d 1c30 aabf 2ec5 8bc9 fe6c c23f
00000670: 8e38 367a 9a59 c13f 48bf a0dd ecb6 cebf
00000680: e5ad 3c6a c023 d6bf 4070 30c1 5618 d03f
00000690: b940 5e57 c10b 87bf a710 c45b 3af3 b7bf
000006a0: 1394 d1d7 53ac d2bf 79c9 a401 8c6d c4bf
000006b0: 2dc9 d3d2 4294 bd3f e5b5 919f f295 8abf
000006c0: 8689 0dcf 5adf d6bf 0141 8087 8c65 e1bf
000006d0: bf07 da32 1e3c c5bf eeaf 9e9b f15a ba3f
000006e0: 2c27 82b7 2534 cfbf a9d0 707b 33c8 a83f
000006f0: b44e df2f 9ab6 d6bf c38a 0a9a 2486 b73f
00000700: 0c85 2e03 9d36 c13f 09e5 8c9c 977e dbbf
00000710: 59d3 91ed 377c abbf 9aa1 3ec7 83e8 d03f
00000720: b089 1657 bd32 d73f d681 9eac 2e18 e33f
00000730: 3047 84cc 74f1 e43f b879 fbe5 36cd ca3f
00000740: 9a38 ee90 ae48 debf f545 81a9 124b df3f
00000750: c7ab dd14 67c6 d73f 63df 8435 52ed dd3f
00000760: 8989 bc3f 96b6 c23f 64c8 fccc 6948 d0bf
00000770: d7d4 b054 059d d23f f539 c199 b9de dcbf
00000780: c7b7 3d04 fc0b c53f 916a e915 c75f d13f
00000790: 0704 6047 81c3 c8bf 2b72 2f05 a724 c9bf
000007a0: 81c8 3966 ef77 b5bf 3eec 54ae fad0 c0bf
000007b0: 8179 f635 a286 c8bf eb38 bbb9 5ae4 ca3f
000007c0: 1614 31ba 537f d5bf 5651 cb42 a2a2 d0bf
000007d0: 1db8 297e 2335 a2bf c300 4413 c80e 793f
000007e0: bff1 7c17 b11f b93f 0dae 9179 614f b13f
000007f0: fb99 9379 5d73 b0bf f58c e12b ac3c b03f
0.47193688493119634 -0.08933219722729555 0.16936830538032976 0.10535584216069248 0.1489598393442856 -0.4399882993843624 -0.24071763837894364 -0.21547820105562226
0.11855836892535926 -0.08781844493190173 -0.04675747687664281 -0.24290732147190194 0.29545869812186676 -0.25962390616731773 -0.23127705006715327 0.19113162848432852
0.18009769736274808 -0.10413293161087833 -0.22646627513034367 0.27124095752452454 -0.20295436893180394 0.0822598122022158 0.005331997190609443 -0.007633920379779334
-0.15781989766805454 0.12022218771975272 0.19224615571107664 -0.1038626919568363 0.013123590743684249 -0.3313465185695284 0.3305840862445068 -0.228038375577356
-0.2701630353697236 -0.08676072539598276 0.32601938307332445 -0.37071603877090414 -0.08384240312816174 -0.09841203524735621 0.14235846309887967 -0.2879184060525204
0.051873791808843155 0.16557088405953452 0.17031058166165655 -0.07042528735558888 -0.02553638013367306 -0.11590919967796533 -0.279557605182407 -0.152533925049533
-0.25751127932578505 -0.18875913119678617 0.15684642539578683 0.11710556397602116 -0.051454464734138186 -0.2465993188013416 0.15884179691216327 0.07888777853017356
-0.1919632969025504 0.008507956747354536 -0.022612063058984107 0.249207168449728 -0.36900274090398033 0.13224594108052393 -0.19342749374143703 0.21391529384195868
0.19955204767256837 0.02774835319241648 -0.24121291032814812 -0.1633850376860622 -0.37160494385701776 0.30099299853383993 -0.2832970327138054 -0.1401184636025758
-0.29534233506888313 0.22966043557456367 -0.26374745424674756 0.0738265812477091 -0.17528920027844697 -0.328121554802491 0.26755697736444173 -0.22913358796926445
-0.28868328806709265 -0.1262522383760538 -0.1870926267433412 0.025111904536387324 0.19379199795639537 0.01995183058167263 -0.287722157585482 -0.13613653377632057
0.00814520951930678 0.12174361961523472 -0.22590424058501765 0.16575748650180278 -0.017476307448392375 -0.004145235278812687 -0.21929093331941168 0.4799084509336064
0.23957180645606554 0.1823755258545619 0.44710402497198865 0.013751473617301899 0.23381870340108624 0.029902368943736213 0.05387090453911393 0.2701216338309235
0.1738241268670202 -0.16639327543360766 0.1748784474331175 -0.10505789963310516 -0.1468129147033701 -0.17731160053050038 0.10472464752052499 -0.3451208265264327
-0.317464530623162 0.4182023424480508 -0.04917808272227471 -0.008374415386902735 -0.003790587471855481 -0.2211250934605342 0.23397988978657697 0.17589021458804832
0.27820695756318514 0.20904623211951642 0.24516239368613138 -0.07421609672266552 0.32994372787597137 -0.2497220239291027 -0.21792740382016101 0.3668711473181759
0.011352341441208275 0.02665770767629053 0.11119382512180283 0.15927075398691212 -0.2676675668602511 0.1603929240486551 0.17127232012551583 0.10059480885391711
-0.13731951772443984 -0.28294928316584744 -0.08624047572159543 0.06184250584853211 -0.36384034637262813 0.09444968477954645 0.3941397352559492 -0.27716176914209406
-0.366613630288466 0.10345899528192205 -0.18482438209364677 0.171829083510995 0.04557884099806334 0.24185088006999134 -0.17006374388256743 0.012970585701622095
0.11143340354432525 -0.00722824523519908 -0.26633782293632835 0.1636930024739248 -0.23672460355988675 -0.026133062545588375 0.24784116435084044 -0.19583956029919714
-0.05667219802575523 0.1518852596155604 0.36931942785710686 0.34593260469890913 0.05163185470921153 -0.10523749627896392 0.20779307032893338 0.24091805649322798
0.3260824912127648 0.033940189502030545 -0.0975444198210678 0.09146387083874971 0.059206325681533875 -0.1948040497049781 -0.11573856819466047 -0.2823220910680158
0.05223508825236031 0.038059255720703344 0.20703333073424948 0.1906935768817491 -0.2842335884349947 -0.2614164827296188 -0.2799099258158867 -0.27507269170746446
-0.1559459333901241 0.3502596978577779 -0.14508806198211907 -0.17312008315887725 0.2183266036550238 -0.1772854153740849 -0.251040867511345 0.20116971595973676
-0.17131140906808554 0.2739380571087991 -0.13243428673098087 0.19972618815593401 0.11295077614114964 0.3324400471633363 0.0957255166511185 0.15294946151387326
-0.06448148559227528 -0.222778552242749 -0.19325790088350384 -0.003990102184576388 -0.05114830625043357 0.14395127144920522 0.13554697959302014 -0.23995743581462592
-0.3459321057768803 0.2514855276692778 -0.011252890089764699 -0.09355511417749317 -0.2917680366138608 -0.1595931060815692 0.11554353377485845 -0.01298131513086793
-0.35738249034889014 -0.5436461111549137 -0.16589715464584562 0.10295019196809083 -0.2437789102589759 0.048402413195078715 -0.35489515948323036 0.09189060936709396
0.1344791665588122 -0.4296015766918378 -0.05368208670635139 0.26419157464490584 0.3624719000310064 0.5967019435375345 0.6544746393649117 0.20938764791112674
-0.47318615105985773 0.48895708611698235 0.3714845374840334 0.4676099321982205 0.14619711029179097 -0.25441975611022927 0.2908337904985507 -0.45109405531994123
0.16442823607525112 0.27147080554792874 -0.19346633896933005 -0.19643104317846513 -0.083861315209818 -0.1313775397519254 -0.19160869250204018 0.21009382313645317
-0.3358964269903607 -0.25992638132926993 -0.03556166567874206 0.006117612403841291 0.09813982795180375 0.06761750429148368 -0.06426033228090226 0.06342578955950613

linears.3.bias f8 [30]
00000000: 1bf9 6a90 6cf3 b6bf d9c8 c00b bd81 a63f
00000010: 0f91 cb36 f5e6 b0bf 80be b683 3d54 aa3f
00000020: b617 07ec 3381 a4bf 5aa7 75f5 16c2 b53f
00000030: 3e0a 4240 64cd a03f 6ab1 e691 12ca aabf
00000040: 25c5 4822 d393 b1bf 3d50 649d d560 ab3f
00000050: 699e a469 8704 b03f 47f4 355d b8c2 afbf
00000060: 40b7 4915 9353 ad3f 15ff d0c2 0fce a5bf
00000070: 3472 4578 3b78 bdbf 84dd 9a12 a711 b23f
00000080: fa7a c8c8 cbc7 aa3f acc8 83e7 a4c6 9abf
00000090: ed04 ab63 f69c a73f e357 2f27 b070 b0bf
000000a0: baf3 71dd 8550 ab3f e9ab ad4f f2f8 98bf
000000b0: ef29 9b9e b7fd a1bf 3b89 ae8f ff83 88bf
000000c0: a5f2 299e a2c6 ab3f bc0d bed6 aecb ae3f
000000d0: 51d1 c0ed e348 b2bf 67fa 8982 6792 bd3f
000000e0: 029e ccb1 23d9 91bf ad26 6024 1392 aabf
-0.08965185666872737 0.04395857590169933 -0.0660241373803425 0.05142395241580022 -0.040048239290214324 0.08499282353082319 0.032817013591757135 -0.052322941122244185
-0.06866187655466101 0.05347316309249137 0.06256910638023218 -0.0620324720175423 0.057278248165728574 -0.042587749987886316 -0.11511584936437985 0.07058185772154074
0.05230557275739574 -0.026148392324963396 0.04611940352106978 -0.06421948391593406 0.05334871605098308 -0.024387155640777456 -0.035138834105584375 -0.01197051675064086
0.05424984150611082 0.060147727693244474 -0.07142471842309318 0.11551520287501092 -0.01742988369656296 -0.0518957120803639

linears.4.weight f8 [3, 30]
00000000: 9e48 da87 5be5 d5bf df6f 83c0 a200 ad3f
00000010: 8d6c 5917 a0be dcbf 2107 64ec b453 d43f
00000020: 37fa 27be 0307 d8bf ebfa 971b 9b85 cb3f
00000030: 496e c908 d1e6 c03f fda9 0e01 2693 c2bf
00000040: b9b2 4524 9e1f c3bf 4471 acf3 9080 c43f
00000050: ed90 1457 fde3 d93f 867d 885c e9d5 dfbf
00000060: ea7a 73f7 76df d93f 38e1 f1a3 c7e6 e0bf
00000070: c892 2690 e52c d73f 215b b72c 0a2e d13f
00000080: d722 b2e7 94e7 ca3f 212a 9532 2088 b93f
00000090: fff6 aa74 b443 c43f a8ad 6eed 3681 ddbf
000000a0: 3ab6 fb7a 563d d83f 8127 d640 acc0 b23f
000000b0: 20e9 7308 0566 d03f 4789 b76d e4cd d23f
000000c0: 5459 133b b656 c33f 08ac d357 1125 d93f
000000d0: 7915 3b94 902b acbf 422b e021 8355 d9bf
000000e0: 5fc6 aaae 0300 df3f d31c 1c9d dbc1 c2bf
000000f0: f04d b894 890a c33f a3bb 26aa 88ac ca3f
00000100: efb1 0922 202e c1bf 60a0 f060 1404 d3bf
00000110: bb74 1263 8e10 d23f afe1 0a07 6e11 a63f
00000120: 78b7 3803 fcbc b3bf 2742 0a4a ec04 de3f
00000130: a8bf 6a8d d9a2 a33f e8e3 ca0d 08a8 da3f
00000140: 1895 61c4 88ea c43f 8ec7 f9f7 5646 bdbf
00000150: 5e66 5dc2 5b2e d73f 1474 35d4 4965 dcbf
00000160: 0ef5 6939 7822 b5bf 6195 5e44 7cdf 893f
00000170: 7120 1f08 70ee 9cbf cd01 36e3 cb86 e8bf
00000180: cbf8 1ebf e23f c93f 6208 dde5 1261 c4bf
00000190: 281c 2c7d c0c9 d03f 22c3 37fc c5ce d5bf
000001a0: cc57 c465 c295 c0bf 3532 9799 5e21 d3bf
000001b0: 15c8 6f58 67ae 84bf 13ed 34f8 fd14 dd3f
000001c0: c361 9a3d 749e c33f d038 0179 b002 c03f
000001d0: f960 a00e 101e ddbf 2090 8391 e205 dcbf
000001e0: 4d18 f648 f54e 76bf 4ec0 1a0d 567a b0bf
000001f0: 58de f0e6 9a6c adbf 7799 8f52 28e0 d83f
00000200: d208 320a 249a dcbf 486e 9e30 942b a1bf
00000210: 99f6 5822 1b54 d03f 8119 6869 4d6a d6bf
00000220: f694 22e2 bb10 b4bf 0f9a 6916 be74 c23f
00000230: 8b0e a623 afe6 bf3f 3acd 5254 cb83 bebf
00000240: b02b 5c4c 55c5 a73f 0e58 0f89 f72f d7bf
00000250: b050 c855 d75f dabf 487a a849 8810 cd3f
00000260: 50cb 0932 9309 d03f 2e0c a75c 38f2 b0bf
00000270: 7447 5620 cf33 d53f 2ca1 39ac 7123 c6bf
00000280: 7609 02af f441 dd3f 2eaa b9f4 6da3 d1bf
00000290: 3682 c86a 775d d5bf 7e16 be99 2388 d9bf
000002a0: 13a9 b44c cf77 cb3f 0456 cb3d 80a7 cabf
000002b0: c816 a25f ad72 d2bf 4a37 c3b5 58f5 cd3f
000002c0: 1a08 8f83 89ef ddbf 5b9f 5cb5 5a92 d23f
-0.34212387339460715 0.05664547538773922 -0.4491348484058982 0.3176090534690151 -0.3754281384462134 0.2150148281798104 0.1320439618019569 -0.1451156144297129
-0.14940239688021054 0.1601735296070591 0.4045403814691458 -0.49743112598840644 0.4042642036928742 -0.5281713678405486 0.3621152789803941 0.26843504301852944
0.21019231141351355 0.09973336443832938 0.15831618973418668 -0.46101163088561714 0.3787437630661291 0.07325245459483477 0.2562267859026566 0.29381666864914674
0.1510837353186597 0.39288743569221696 -0.055019872755603445 -0.39584425266427925 0.4843758779271407 -0.14654107257249524 0.1487590767070368 0.20839031513375258
-0.1342201391411346 -0.2971239992789432 0.28226051020630977 0.04310172878234952 -0.07710242346430884 0.46905047636485836 0.03835182048112468 0.41650582644393674
0.16340741719174257 -0.11435454897016781 0.36220449429456447 -0.4436821529723727 -0.08255721475321229 0.012633295856924577 -0.028253317352011146 -0.766454643031517
0.19726213771895681 -0.15921245788382793 0.2623139593492305 -0.34074544554373365 -0.12957029313173363 -0.29891171454508775 -0.010098273645756032 0.4544062541860551
0.15327313430749542 0.12508207233844937 -0.45495988300673634 -0.43785919390052364 -0.005446394104529584 -0.06436670131620412 -0.05746921605208105 0.388681488634027
-0.4469080066265977 -0.03353560536853856 0.2551334224152498 -0.3502381829606734 -0.0783803393447505 0.1441876992641515 0.12461371059731101 -0.11919852074315865
0.046427407809538024 -0.3623026693798018 -0.4120996797294181 0.22706702801311196 0.2505844105391377 -0.06619598638558052 0.331287175730828 -0.17295666608266325
0.45715062227841174 -0.27559994601202475 -0.33382974079180217 -0.3989342690841581 0.21459380383868928 -0.20823672311114205 -0.28824934329200547 0.23404988169789426
-0.4677451882126903 0.2901827593909638

linears.4.bias f8 [3]
00000000: 02c0 6c6b 4d85 b43f bf94 8ac6 b0d5 a53f
00000010: aee7 da2a 2952 a53f
0.08015903351474665 0.04264595435714957 0.04164246223577038

step f8 []
00000000: 0000 0000 008e c240
9500.0

exp_avg f8 [30, 1]
00000000: 30c1 ca5b cf2a 993f 0464 ce12 fce5 c2bf
00000010: c665 8b57 2a7e 553f 3a8c 9778 3ec2 a33f
00000020: 1339 eebd ea9c a7bf 08dc 0ea6 6e02 a63f
00000030: 7831 be80 4a23 a53f 8527 460b dab7 a33f
00000040: 00a1 a190 4898 d63f af71 5112 52e6 dc3f
00000050: cb89 2fcf 18ab 913f ffc1 0f05 7506 eb3f
00000060: a113 d65b 62f0 d7bf 1354 f73a 0df4 b5bf
00000070: ef4e 3bfa d9bd 863f cc52 964e a92a b4bf
00000080: c765 0ef1 3138 a93f 7edd 1e66 b395 79bf
00000090: 5ee9 277a 8577 b63f e811 f66e 263d 98bf
000000a0: 9631 0731 2cfa b1bf e6e1 44ac b1e4 763f
000000b0: 7eee 5d13 1115 b33f d154 ceb7 f8a1 e33f
000000c0: 9800 761e 011f 5fbf 1a4f ade8 da63 e03f
000000d0: 048e 80a9 b28c 933f 4e4a 10dd 2d79 c93f
000000e0: 15cd 7e47 770e af3f 4278 d886 6685 a73f
0.024577369668521587 -0.14764357488891744 0.0013118184562500453 0.0385913393218051 -0.0461190564011408 0.04298730637622589 0.041284874168101504 0.03851205241797032
0.3530446445861486 0.4515576533210845 0.017254245420085284 0.8445382212503886 -0.37404688804991265 -0.0857551831207533 0.011104300450291286 -0.0787759606231006
0.04925685947018681 -0.006246281411157793 0.08776125175783053 -0.02367076923612102 -0.07022358128523928 0.005589193377368384 0.07454020235848621 0.6135219182930546
-0.001899481861841001 0.5121893448326518 0.019091407390204665 0.19901059431193108 0.06065724132295195 0.04593964000763197

exp_avg_sq f8 [30, 1]
00000000: a604 5652 3da4 e63f 0a70 bb6d 1157 0841
00000010: 27a7 dc98 bf78 e93f dc46 0499 3fcd e43f
00000020: 0773 76d6 ca11 eb3f d355 3e8b 790b 1340
00000030: 173b 558a 5fc6 de3f d3d0 8725 1d61 e33f
00000040: a811 6e87 123d 1e41 3d1d 0fcc 9fdc 1a41
00000050: f55e 5c1d d56e 0040 1298 70e8 4790 2841
00000060: 66cf 114e 2ca3 0d41 9553 41e9 7ebf e43f
00000070: 6503 14b4 1b6b 0040 f400 0287 5b4f 1c40
00000080: 22b7 efdf af42 fa3f 1acf d8d2 32d0 0640
00000090: 15be c7c2 7aff 1341 bec5 af0b 9bb0 f63f
000000a0: 4a6d 8e9d 4ede 1240 4843 e611 e3cb df3f
000000b0: d374 f56a 177b ee3f 8c79 546f aac3 2441
000000c0: f0f1 6f8c 3950 0c40 8aa3 da25 ae8d 0641
000000d0: 9ba8 27bb 4afa d33f 7571 3a25 264f 1440
000000e0: b909 36a4 332d 1740 e5be 411c 95d3 c73f
0.7075487716794171 199394.1785801652 0.7959897981247409 0.6500547398192924 0.8459219158863512 4.761205840758936 0.48085773953509786 0.6056047184961478
495428.6322558173 440103.94927640614 2.054117421513974 804899.9539840242 242789.53811990767 0.6483759456410662 2.052298933850056 7.077497586724565
1.6412810084834253 2.851659438363538 327646.6902150822 1.4181166130550618 4.7170967691593635 0.4968192744063811 0.9525258149184544 680405.2174413665
3.539172265211384 184757.7684834267 0.31215160633895217 5.077293950740899 5.794142308996407 0.1861444843266248

step f8 []
00000000: 0000 0000 008e c240
9500.0

exp_avg f8 [30]
00000000: b682 5d54 60c8 9ebf 5dd4 052f f289 f13f
00000010: 2960 dbd7 d814 62bf 1b77 93c7 72c0 9abf
00000020: 69c4 212a b0a5 76bf a09b 0b79 6665 a6bf
00000030: b256 2d0d d2e3 933f 030a 230d 5ab9 7abf
00000040: dcba 4a55 d2fb f9bf 70ce 8e23 80d8 f8bf
00000050: fc8b 2052 aa0a 853f 080d dfa4 c798 ffbf
00000060: 95ac f63d 4abf f23f 3ed3 6f88 ddc7 70bf
00000070: 4eec 9b1c 68f8 9f3f 20bb 437f 5946 913f
00000080: 8150 b43f 3493 9a3f 7cc8 cc08 e5e1 993f
00000090: 0d6d 503d a573 f5bf 5e9d 6f61 6b1c 9dbf
000000a0: 77c8 96cf 30df 953f ce21 22f8 2954 523f
000000b0: 892c 3d67 ce70 87bf eb0c e761 7b8a ff3f
000000c0: 8082 2472 1f63 9a3f d875 4cc8 52b6 f0bf
000000d0: 07e5 69d6 7107 4a3f f85a 4be8 56c5 6a3f
000000e0: 23ca d60c 0be1 abbf 0459 705f 2106 82bf
-0.030061249875304973 1.0961782299830454 -0.0022072062700822137 -0.026124757224230338 -0.005529106276399445 -0.0437423727760724 0.01942375379015599 -0.0065244214658286585
-1.6239798862185841 -1.552856577775767 0.010274248725243844 -1.9747997703823916 1.1717016621067036 -0.0040968564635378 0.031221033807906466 0.016869924919713175
0.025952164066510356 0.0252757822629026 -1.3407337565502673 -0.0284287241192066 0.02135921732924159 0.0011186990600738802 -0.011445629621127178 1.9713090729063036
0.025768748609268588 -1.0445125412146492 0.0007943445060184803 0.0032679269228127437 -0.05445131808973638 -0.008800755238592924
