1D_Transcritical_Inverse_Problem_n_initial_0_01/Models/Model.ckpt-17500.pt (torch, 82425 bytes, 43 tensors)

linears.0.weight f8 [30, 1]
0	0x3fde885d58bf1c4b	0.47707303682949903
1	0x3f88eabc0986a6bf	0.012166470566472907
2	0x3fd3ccafc50b19d7	0.30936807863727495
3	0xbfc8f5614b38e990	-0.19498840496983094
4	0xbfd3349a25fbf061	-0.30008557996166557
5	0x3fc3f64c638e30f3	0.1559539304838676
6	0x3fbd5dc0e8fc0296	0.11471181572052055
7	0xbfd68ca3b51cc1a4	-0.35233395277739477
8	0xbf8a60cbd0cc0831	-0.012879936513403663
9	0xbf8ba1e372d91332	-0.013492371504193554
10	0x3fd5802684b1350e	0.3359466834852619
11	0xbf8bf3b71f805c92	-0.013648443840834443
12	0x3f8a1dfb4391eea4	0.0127524976726286
13	0x3fd52e998093e178	0.3309692149773791
14	0xbfd272521aa308c8	-0.2882275829434886
15	0xbfc4b498063bbb40	-0.1617612867771303
16	0x3fd6943be1f349e9	0.35279748025382546
17	0xbfb2db439099d562	-0.07365820198341091
18	0xbf8cc847cdb3f632	-0.014053879704529402
19	0x3fd7078b348fa6a6	0.3598354352276182
20	0xbfb70fa8e8a7397d	-0.09008269958505895
21	0x3fcbfe27a26560f8	0.21869368962757796
22	0xbfcdf122f1230e29	-0.2339214017321052
23	0x3f8cb385f5e0461d	0.014014288488428278
24	0x3fc08f412caf74bd	0.12937178308394506
25	0xbf881fad1b607f07	-0.011779167554834226
26	0xbfbf3665d106d416	-0.12192379334631229
27	0xbfac1a065aa343ec	-0.05488605362337026
28	0x3fd1f0f29713aa80	0.2803312754973959
29	0xbfdb29f91a8f913d	-0.42443683236912816

linears.0.bias f8 [30]
0	0xbfb49cad0e090773	-0.08051568596513707
1	0xbfc98f82194c70d7	-0.19969202266009375
2	0x3fbf5229cbda5e04	0.12234746195678531
3	0x3fc5883a30353399	0.1682198272123088
4	0xbfbc8f2507c74157	-0.11155921401883027
5	0x3fc2c30830228488	0.14657690382322053
6	0xbfd0737265711f3a	-0.257046317161883
7	0xbf960addd247f9e8	-0.021525827369254374
8	0x3fd25545b63808a1	0.286454608867766
9	0x3fd70e22119002b8	0.3602376147755808
10	0xbfc1ff60ddee5919	-0.14060602985836892
11	0x3fd86491ae516df0	0.3811382486653363
12	0xbfd1c0d5f4140420	-0.27739476047287503
13	0xbf9e68a0a7d72c78	-0.029695997471020225
14	0xbfc0291501a1e6fd	-0.12625372485836542
15	0xbfc03338adf744ca	-0.1265631532137717
16	0xbfb8afe6832dbd89	-0.09643402769665078
17	0xbfc334c041eb7925	-0.15004733294240072
18	0x3fdb2d12b59d8d3d	0.4246260427082296
19	0x3fc0777425198e07	0.12864543735041442
20	0xbfc08231f5ae5b23	-0.1289732408156051
21	0xbfc187c729b323fe	-0.13695611511346323
22	0x3fae1d1ec0e98215	0.058815918969006876
23	0xbfdb5e28f4de73ce	-0.42762206948264925
24	0xbfc796b8f46cf21d	-0.18428718504755262
25	0x3fc28159f5360ebc	0.14457249139024053
26	0xbfb0a88c66677027	-0.0650718450555706
27	0x3fcb42deefd2cbe7	0.21297823629501453
28	0x3fc17535cfaba70c	0.1363894714370918
29	0x3fc2f37749c314bd	0.1480549917379558

linears.1.weight f8 [30, 30]
0	0x3fb9d5ca59c5d2a9	0.10091843311040329
1	0xbfe2191c46869d33	-0.5655652406175363
2	0x3fcb85ccbff0f913	0.21502074596532647
3	0xbfc949b9e7b9e7d9	-0.19756244482760968
4	0x3fc70f4aea35fc7f	0.18015419422224352
5	0x3fc211d58a74cce5	0.1411692548805156
6	0xbfcf2d688e7638d0	-0.2435732551206855
7	0xbfc455ab79dd878a	-0.15886443567711367
8	0x3fb648658167a5a7	0.08704218301104182
9	0x3fb5f0e3180e8669	0.08570689523050991
10	0x3f99be4c555bddcf	0.02513999243725867
11	0x3fe434f7c6f78b94	0.6314658056329443
12	0x3fb0fc57770c49e4	0.0663504281658685
13	0x3f66bea8237343bf	0.002776459117378199
14	0xbfd0a01b558688a8	-0.25977214195348575
15	0x3fc4e18245841a2a	0.16313198465668793
16	0x3fb1d068302bdda6	0.06958628822382326
17	0x3fc3a0295cdc56c1	0.1533252433225041
18	0x3fc1fdbd71d1a7ec	0.1405560308224375
19	0xbfcd902681397005	-0.23096162137778734
20	0xbfce394f34abf382	-0.23612394401416387
21	0xbfb6436b46a1b6e2	-0.0869662330094019
22	0xbfcaf96f7337acbe	-0.210737162836585
23	0xbfe0bd118ea15b74	-0.5230796609638291
24	0x3f98dca9c174631b	0.024279262955221186
25	0x3fdc32a872a2800c	0.4405919188957348
26	0xbfc84b6c6622316c	-0.1898017405222946
27	0xbfc5c1b933c5ad24	-0.1699744704049887
28	0x3fc94a814749ddd2	0.1975862119759158
29	0x3fac2f372c708718	0.05504772584414591
30	0xbfb119a867f56359	-0.06679775751162022
31	0xbfc56d01a1b8b3cd	-0.16738911053235342
32	0x3f8a2c9df14efb2e	0.012780412603999727
33	0xbfd1e1c6c0180f20	-0.27940529593637287
34	0xbfbf05fe96fe7f78	-0.12118521868114651
35	0xbf9e1b16bccd45fc	-0.029400210641432153
36	0x3fcbd097f523ecf0	0.21730327100508573
37	0x3fc4a2e57034ecf5	0.16122119883389244
38	0xbfccbaa9443c9030	-0.2244464476763155
39	0x3fae1d4fa0801516	0.05881737550957149
40	0x3fc1be65111e7e1f	0.13862288795370234
41	0xbfd7747ab6a6e363	-0.3664843352994948
42	0xbfa00b17f48b25a9	-0.03133463726187397
43	0xbfccd9dea6fafa24	-0.22539885667170367
44	0xbf9f98a90ed716a2	-0.030855790644429455
45	0x3fbecf383c4c228d	0.12034942123512789
46	0xbfb33bee7e9ef2be	-0.0751332339413677
47	0xbfd030c7a3ab62c3	-0.25297728522631874
48	0xbfaf2b9aa0e1ab64	-0.06087954725156555
49	0xbf9dc2ce607da3d2	-0.02906343902523984
50	0x3fb44f200f66c702	0.07933235527050544
51	0x3f91d53fb6a6de75	0.017415042422469235
52	0x3fbcd5c3bc776da1	0.11263678885682406
53	0x3fc77225a9f84b5d	0.1831709937983658
54	0x3fc402e487374772	0.15633827783909343
55	0xbfbbf4b6df76d9e9	-0.1092027946059272
56	0x3fa5826669ec5146	0.04201049845701958
57	0x3fd127f64e49a84c	0.2680640949753339
58	0xbfa56d3a6c74ea28	-0.04184897016462613
59	0x3fc9b8be3b8aed0a	0.2009504118667354
60	0xbfcff85945f591ab	-0.24976650157908628
61	0x3fd804fda78d5b16	0.3753046165706321
62	0x3fc40b2d07b178da	0.15659106135985362
63	0x3fc0194931d34ce3	0.12577166493301836
64	0x3f86f2b0ed6cbe86	0.01120508408129629
65	0xbfc35420dc662314	-0.151004893891035
66	0xbfbc6ce58b792cbc	-0.11103663115607082
67	0x3fbff4b3429a6a86	0.12482757926992791
68	0xbfc2be5819ae21ae	-0.14643384221950612
69	0xbfd1e83497e9aa88	-0.2797976954958945
70	0x3f8ddae27a831da3	0.014577645648741483
71	0xbfe509ed4ec183db	-0.6574617899133232
72	0x3fd40643f4964548	0.3128824127716894
73	0x3fa043a3ee59a65f	0.03176605495975759
74	0xbfc65f624592b441	-0.17478588482973303
75	0xbfa4cab0e72c31ff	-0.04060890981608977
76	0xbfb3f1d61fd5bd3b	-0.07790888097018904
77	0x3fd4effed7770c2d	0.32714816133028785
78	0xbfc279d6858cfa1f	-0.1443431999304758
79	0x3fcdafef0e948731	0.23193157398150668
80	0x3fd65ff08c8ada00	0.34960569119303386
81	0x3fc410a0e1bd9aa2	0.1567574598550055
82	0xbfcf188814990515	-0.24293614392994614
83	0x3fe8a490c8d09ad8	0.7700885698476112
84	0xbfce5bad7ef7341d	-0.23717278193945016
85	0xbfd9d5f51ebe72c4	-0.403683929465654
86	0x3fd20538d9bf7e8f	0.28156873001533084
87	0x3fcdda17b0488bfb	0.2332181559332581
88	0xbfce0f6cd328309a	-0.23484573660278302
89	0x3faef520b4d26c90	0.060463926384920375
90	0x3fb0f1efdcf37e87	0.06619166511836215
91	0x3fdc609bdc187a22	0.44339653485977426
92	0x3fb04a0a113e6054	0.0636297504519246
93	0x3fd150d0037cf61f	0.2705574068130278
94	0x3fc9ca9d2f3af153	0.20149578863300607
95	0xbfc19f744559956f	-0.13767865549304356
96	0xbfcc74eca6a74c2e	-0.2223182500589202
97	0x3fd22c164f236399	0.28394086578696826
98	0xbfe4a359984a880e	-0.6449401831089305
99	0xbfe3080e13f48464	-0.5947332753895691
100	0xbfd2d42135051124	-0.2941973703166403
101	0xbfcb580c012e88b8	-0.21362447793678085
102	0x3fe20d0771ee3f2e	0.5640904641349829
103	0x3fc49e8d79a99f1d	0.1610886425071322
104	0xbf97b155b65d09e9	-0.023137416129665942
105	0x3fc50c5e8f2e91db	0.16443998328499174
106	0x3fc2b31bb820f80c	0.14609095087683988
107	0xbf83dfed3bd80d7d	-0.009704450024407002
108	0xbfdc5c9cdcb5a42d	-0.4431526332251135
109	0xbfd2582edde8ef81	-0.2866322676743423
110	0x3fbb4d9880473d36	0.10665276653093234
111	0x3fc507cf09d34a94	0.16430080394510027
112	0x3fb457af5057ca95	0.07946296416757044
113	0x3fd4d98381dce858	0.32577598268438157
114	0xbfaa206b5c91413a	-0.05102859024975932
115	0xbfe419ee7a3e5708	-0.6281654727524435
116	0x3fbd13b8dea8ffad	0.11358218608893252
117	0x3fc873b105ce4222	0.19103062423211364
118	0xbfab7fcf1b7dcf2e	-0.053709480386628136
119	0x3fb2e1ece0810247	0.07375984650662658
120	0x3fd2b9fa6a873f03	0.2926012077632409
121	0x3fa4043d311cbc37	0.03909484123720868
122	0xbfd23365527b44a4	-0.2843869500621372
123	0xbf72b9db0cb0934f	-0.004571777021770653
124	0x3fcb86e22db1a027	0.21505381804604548
125	0x3fb6b07a31718cc4	0.08863033015363714
126	0xbfc688475ab1ae0b	-0.17603389671727174
127	0xbfa94c985e84a7aa	-0.04941249994074266
128	0x3fdca13f792ba6f8	0.4473417933755708
129	0x3fda613c5feb5ed8	0.4121848046029135
130	0x3fce8c86863b5932	0.23866349748886645
131	0x3fe1b7527065d56f	0.5536281771916672
132	0xbfda697374f4723c	-0.41268621846555553
133	0x3fce9210cb98ebb4	0.2388325685622853
134	0x3fccf08e948068b8	0.22609121562056145
135	0x3f81a7a4d67c9063	0.00862053660927859
136	0x3fd19e23861e5569	0.27527702424534667
137	0xbfd10796fe82e8db	-0.2660882459127955
138	0x3fd15c4eff0ae973	0.27125906855112375
139	0xbf81bbd63c32fa1f	-0.008659051620608925
140	0x3f701806d840424e	0.0039291636822019315
141	0xbf9665f89bdef2a8	-0.02187336398468412
142	0xbfd244072d50dba3	-0.2854021017587291
143	0x3faf0a031e5021bf	0.06062326188117905
144	0x3fb06dd72c4cb366	0.06417603332074648
145	0x3fb13e29e9f6999a	0.06735479318613216
146	0x3fa9144a705d13e6	0.048982931343324584
147	0xbfc61989b170e2f3	-0.1726543537531807
148	0xbfbf0b5614ebe0fe	-0.12126672755028164
149	0xbfd08b73d5d2a847	-0.258511503993422
150	0xbf7d53f29b0f7147	-0.007160136869938611
151	0x3fc734817034cc17	0.18128984431095382
152	0x3fb38a3af8572983	0.07632797778129512
153	0x3fb961a310335fb3	0.09914607186817541
154	0xbfc1c392b7e6a37a	-0.13878091792619413
155	0xbfd0d1f271ed88f1	-0.26281415105599054
156	0x3fb549969f57379b	0.08315411939767474
157	0xbfb733fc2ea512dd	-0.09063697947301415
158	0xbfa1aca2597d2a1c	-0.03452021925348367
159	0xbf9c74bcc4076d98	-0.027789067711507437
160	0xbfc37ab94184f656	-0.1521827287596575
161	0xbfc7b56ee0492dec	-0.18522439910371646
162	0xbfc5e7dfebf17256	-0.1711387540880362
163	0x3fab96a6cea28a48	0.05388375542067486
164	0x3fa8638019cc5fd5	0.04763412775918111
165	0xbfa038d92b9de4fe	-0.031683718275369074
166	0xbfd6a353ca06b938	-0.3537187073624355
167	0xbfb8e49afa4f4cbd	-0.09723824130132903
168	0x3fc1c615dccd1487	0.13885758668235246
169	0xbfb71c7471b9ac89	-0.09027793671127617
170	0xbfb0d87ca1572650	-0.06580332697844793
171	0x3faa2dd355731770	0.05113087099156999
172	0x3fcf4b53c0d32f79	0.24448630252151896
173	0xbfc3d7d57af91c6a	-0.15502422813935662
174	0xbfb34e6603f2e848	-0.07541501614005697
175	0x3fb45aaca615d1eb	0.07950858168425838
176	0xbfaa580f4362222b	-0.05145309159803831
177	0x3fc95bd211d2f383	0.19811464186014058
178	0xbfcc086161bff523	-0.21900574944440007
179	0x3fc139fc5e63d3a5	0.13458208664783658
180	0x3fc121ac1b990e48	0.13384009692718934
181	0xbfbf6ba23210e36d	-0.12273610803903319
182	0x3f92483d8a59979f	0.017853700226985954
183	0xbfb6947c30f71eb7	-0.08820320315782736
184	0xbfca270436b54a28	-0.2043156878595067
185	0xbfbd6d57d110f681	-0.11494969228894016
186	0x3fa699c832411a58	0.044142013678130254
187	0xbfca0e33cd724de6	-0.20355842143599928
188	0x3fd452e6c2a007e9	0.31755990034446185
189	0x3fe46bbf8ff17f44	0.638152867450096
190	0x3fd000f1e47eecbf	0.2500576716808602
191	0x3fe111b6838d00b9	0.5334122247077381
192	0xbfdc0cbeda0437b3	-0.438277924448694
193	0x3fd136099a8f4fd0	0.2689231881497536
194	0x3fc659a6f703d4ae	0.17461096822049654
195	0xbfcd388fb22a33cd	-0.22828861426788052
196	0xbfc09c391a00c580	-0.1297675492256012
197	0x3fa2ab84d83f0d5c	0.036464835545781255
198	0x3fd215a1b913deb6	0.28257029603944817
199	0xbfb40d76aefc69b2	-0.07833043834799616
200	0xbfc049136e311daa	-0.12723009949170933
201	0xbfcb70d159af0af4	-0.21438042525377166
202	0x3fbaf5df3991b961	0.10531420855997943
203	0xbfe006acd5e33037	-0.5008148362626405
204	0x3fd36cc78800d431	0.3035143688351268
205	0x3fc3bdce854b8986	0.15422994144962504
206	0xbfd553de3569baa2	-0.333243896638047
207	0xbf99e5d1374a8106	-0.025290745734879237
208	0x3f99f049989edd40	0.02533068651220316
209	0xbfc3f36ab09826be	-0.15586598990221562
210	0xbfc1636594537054	-0.1358458494422644
211	0xbfb22a5e1137a43e	-0.07095897598596054
212	0x3fcb735f6db15bd0	0.21445839744657613
213	0x3fc3b7f1aa66ff41	0.1540510255854262
214	0xbfcb8c4abd54fe9b	-0.21521887058951425
215	0x3fd00f539cd862e5	0.25093546215934587
216	0x3fba20f21515c640	0.10206521048328288
217	0xbfb7aa91443152e6	-0.09244640269146095
218	0x3fd7130d5d86fd93	0.3605378545143704
219	0xbf9877b98be6e04e	-0.02389421383279027
220	0x3fcf5b057748e27e	0.2449652512020925
221	0x3fc1c50a613507c1	0.1388257002491269
222	0xbfacb24bac0bf619	-0.05604778742961631
223	0xbfd2a0c4c09e9dbe	-0.29106253443248054
224	0x3fb07736ac0ef493	0.06431905460972791
225	0xbfc091a4e09efcfd	-0.1294447037489376
226	0xbfce204668e18f9a	-0.2353599559893354
227	0xbfb10ce75628c4fa	-0.06660314420220806
228	0x3fb38a64cf973050	0.07633047168855112
229	0x3fc516fb24224b78	0.16476382507661547
230	0x3fad0364575dcd70	0.05666650358662195
231	0xbf9958b7d32c69dc	-0.02475249506378839
232	0x3fcd59abcb866ff8	0.22929904401541967
233	0xbfd1d186007eeeea	-0.2784132962076301
234	0x3fc94c63b87bff4c	0.19764372356439208
235	0xbfc9ed6c68f8df7c	-0.2025580895003677
236	0xbfd00f037d3e8acc	-0.25091635924233624
237	0xbfb2b91018aefd2f	-0.07313633539796592
238	0x3fd1216e0b4b96b1	0.26766539671948936
239	0x3fc56c6ac3efc30a	0.1673711258622677
240	0xbfceefbe12d83e8c	-0.24169135971213895
241	0xbfcedd30df94c375	-0.24112521092458974
242	0x3fc85e19186c2230	0.19037164394855344
243	0xbfafb5645dad7b47	-0.061930786547910226
244	0xbfd0cffbd1b8977a	-0.2626943157250633
245	0x3fc081f984e25e0a	0.12896651257027286
246	0xbfc2dfe76df79a63	-0.1474580084752289
247	0xbfc01c0fe39bf023	-0.1258563863156051
248	0xbfc5e81c4b3b7b82	-0.17114595101790192
249	0x3fb1465a6639ccd3	0.06747975345369932
250	0xbf7cf75eaa437beb	-0.007071847711102012
251	0x3fccf84ae1e7f180	0.22632728605811891
252	0xbfd65c95d3f141b6	-0.3494009561300361
253	0x3fbb5ba0a145232b	0.10686687409646527
254	0x3fb448f9ee2efa66	0.07923852982546861
255	0xbfc3747087b034d3	-0.15199095368772095

linears.1.bias f8 [30]
0	0x3fbb5089c561058e	0.10669766491721175
1	0x3faa483c64b88a67	0.05133236627104481
2	0xbf04d72395483bba	-3.974988309007146e-05
3	0xbfb1f9cf10a06846	-0.07021803050921091
4	0xbfaf4cc9d0cf6ebc	-0.06113272355989127
5	0x3fa452b81f273a5e	0.03969359760559564
6	0xbfa076eadbb22efe	-0.032157267874110204
7	0x3fb810b92c0d4215	0.09400517774088997
8	0x3fb266a62a8a7703	0.07187880076022783
9	0x3f8215c534d2cca9	0.008830586123030964
10	0x3fc2f04c96f96681	0.14795834895885565
11	0x3fa9c7d336a8f5b5	0.05035266916500395
12	0xbfbea3ad42681710	-0.11968500968222551
13	0x3fb0df57eb3e12af	0.06590795033668927
14	0x3fb1223b6f1619f3	0.06692859136646927
15	0xbf717e50f02c974d	-0.004270855107085425
16	0x3facbadf9612e03d	0.05611323077158701
17	0x3fbf23a7ebdb5c5e	0.12163781650757374
18	0x3fb673964d7108c0	0.08770121946966736
19	0xbfaf45578f0a5a84	-0.06107591267680326
20	0xbfba1e2a96b2d845	-0.10202280215421052
21	0xbfa7d66677c10041	-0.04655761920776103
22	0xbf84fce9e434d7d6	-0.010248019482428743
23	0x3fb4339444a6f081	0.07891203571392859
24	0xbfa2398a680e6edb	-0.035595250322527604
25	0xbf9f83b8c811cfae	-0.030775916301038535
26	0xbfa56c2af8c06746	-0.04184088026541004
27	0x3fb637d8ce895d37	0.08678965608975352
28	0xbfb6453b1b3e0126	-0.08699387946217438
29	0xbfb7790ea39e401d	-0.09169093603691221

linears.2.weight f8 [30, 30]
0	0xbfc7f4918c57e2a8	-0.18715113976192765
1	0x3fc1c6df4264330d	0.13888159505622646
2	0xbfd00d30ecf75c4a	-0.25080512181506676
3	0x3fd8e2541ea48f68	0.3888140010114882
4	0xbfd9a081ddbd0ea5	-0.4004215875067792
5	0xbf96e24815145cd6	-0.022347570692628015
6	0xbfcb2970d5ee9169	-0.21220217176336156
7	0x3fc76914a14e7124	0.18289430500306836
8	0x3fc6625c5a933c40	0.17487673208822407
9	0xbfd35a84e2998cf1	-0.3023998463524569
10	0xbfc53b864a7da7b1	-0.16587904584167526
11	0x3fc519aec2de8345	0.16484627261254495
12	0xbfca565191d06b1e	-0.20575923557120118
13	0xbfd235435bc60e7f	-0.2845009227969299
14	0x3fbfd6543a1c3739	0.1243641511793755
15	0xbfdcca1f4b8dac40	-0.4498365629030481
16	0x3fab4fd13d4ad720	0.05334333298871585
17	0x3fc72df42e9c0ffe	0.18108989978657059
18	0x3fd29908d9cab2a9	0.29059048908929214
19	0xbfbcc44ca3818cee	-0.11237029067847334
20	0xbfbc183de1bbcc25	-0.1097448993785269
21	0xbfc45c64b6a56100	-0.15906962316763185
22	0xbfc2e2e7daccfba5	-0.14754961188915874
23	0xbfc4dad35edc9d5b	-0.16292802936480197
24	0xbfd6e6764957f706	-0.3578162876363965
25	0xbfc78fdb28e16c0b	-0.18407763954277842
26	0xbfc5a6b0061ed1c2	-0.16914940165373876
27	0x3fce38c326533743	0.2361072480329601
28	0x3fa522b7d5ea26b7	0.04128050314200265
29	0xbfcce07c4d354fc3	-0.2256007554047966
30	0x3fc3be0c614d159f	0.1542373156645853
31	0xbfce570ab98d3707	-0.23703130779397716
32	0x3fcf4d369345e24d	0.2445438593965882
33	0x3fc8781af8d25fb1	0.19116532468319528
34	0xbfca71b3cef370c7	-0.20659492115999553
35	0x3fcdf7c4357b51d8	0.2341237317219924
36	0x3fc69368845e8811	0.17637354338973002
37	0xbfd00c5a364f7acd	-0.2507539301276836
38	0xbfbb5b008f501c06	-0.10685733317232868
39	0x3fb9e2a2f1e5ac3f	0.10111444860164996
40	0x3fcdd8b4634d75e8	0.23317580078848654
41	0x3fc96206195f3545	0.19830394972670198
42	0x3fd20b0c3a283d62	0.2819243019048
43	0xbfdad7d8a5cb2593	-0.4194242114141044
44	0x3fc1f8277641ca80	0.14038556360499754
45	0xbfbc8ee6ad321a4b	-0.11155549744044284
46	0x3fcb47bd4ef59e68	0.21312681537095846
47	0xbfb2444d2552ac43	-0.07135469590382208
48	0x3fa0c6cc613fb69d	0.032766711112214277
49	0xbfa21a4da1f01730	-0.03535692788868372
50	0x3fc3cdea231fad64	0.15472151484514562
51	0xbfced455e21a0c5f	-0.24085496463894437
52	0x3fb3a4ad6e107ab4	0.07673152863615479
53	0x3fc779cf0791afa7	0.18340480680069257
54	0x3fd01b357ed1a5e7	0.25166070351278197
55	0xbfc07c2fa1324d32	-0.12878985758707412
56	0xbfc7083cfabb4935	-0.17993890993836606
57	0xbfd284f0a9bf609d	-0.2893640191737264
58	0x3f84db5ae140946e	0.010184011458543387
59	0x3fd51c650427ef91	0.3298580685220652
60	0xbfc615d371cea158	-0.17254107529630391
61	0xbfbeace8607c3f84	-0.11982586246108268
62	0x3fd8073f4ecd48b5	0.3754423398542131
63	0x3fdf261c18675903	0.4867010343854334
64	0xbfe5fa67236fb691	-0.6868167583576953
65	0x3fb478f4aad58691	0.07997063799623506
66	0xbfec819e59444581	-0.8908225768556549
67	0x3fae2b6d95556c57	0.058925079802712936
68	0xbfd4a758bb86fc26	-0.3227140265771048
69	0xbfbe313ceb01c0c1	-0.11793881165954458
70	0xbfd6362e3e2af354	-0.3470569235903913
71	0x3fd9850d2ba8df64	0.39874581588400404
72	0x3fe31937e0a1c429	0.596828402265719
73	0xbf8097785063931d	-0.008101406052853083
74	0xbfc15efde44fe517	-0.1357114186101078
75	0xbfe63aa2bde369f2	-0.6946576794392156
76	0x3fa9a7e8de1bcc94	0.05010917388235572
77	0xbfd4bf91e7c48a92	-0.3241925013882475
78	0x3fe31fc46eb45f53	0.5976278459738559
79	0xbfe26ff6edf84494	-0.5761675498817049
80	0xbfcae6cab5a4dbaa	-0.21016820782980733
81	0x3fd26f0825237fb3	0.28802684428046205
82	0x3fe2d636797eee1f	0.5886490223851445
83	0xbfda8a39f47cb870	-0.4146866691179474
84	0xbfd4215efd2e6188	-0.31453680729602995
85	0xbf9ab5b4ca12763d	-0.026083779176238265
86	0xbfe4366edba8092d	-0.6316446581043117
87	0xbfd668b03e4603f6	-0.3501396759166363
88	0xbf9fdf29e8576d3d	-0.031124739461899188
89	0xbfc07ef50b129c1e	-0.1288744262758152
90	0x3fc521d67f68bd2c	0.1650951501955914
91	0xbfa489a5aeb7c3fc	-0.04011266477380812
92	0xbfd7825d48b1df11	-0.36733181094267403
93	0xbfc7e48fa4ad5508	-0.18666263142464623
94	0x3fd57b771a1f158f	0.33566072035713374
95	0xbfddd395af1cebf8	-0.4660391054237034
96	0x3fd254cae1abf5de	0.28642532385114616
97	0x3fcceb285b72802b	0.22592644181440966
98	0x3fd2e4ca7d4b9082	0.29521429286820233
99	0x3fd005883a2bca34	0.2503376548840237
100	0xbfa97fcaaf254b7e	-0.04980309856423214
101	0xbfa271d798657335	-0.03602479682260765
102	0xbfcbee9ebbad6beb	-0.21821960605561172
103	0x3fd1cc2f81896314	0.278087498188641
104	0x3f9d5bf80c4a201b	0.028671146154494048
105	0x3fbd719f1cbc4801	0.11501497699308062
106	0xbfb93eb2eb22cf79	-0.09861295929550619
107	0x3fd49c2482e4b506	0.322030189347814
108	0xbfd36bc252320073	-0.30345209147345215
109	0xbfb9fb9d308db9b5	-0.10149557528868665
110	0xbfd6dec6b4456b94	-0.35734717945677485
111	0x3fc2d17f77e3e744	0.14701836923614497
112	0x3f97f272c23163ca	0.023385804274173506
113	0xbfb2ae98f98d6b2b	-0.07297664730633062
114	0x3fcfacb53a1fb040	0.24745812738490436
115	0x3fc1f047014ce9d0	0.14014518321512393
116	0xbfc5f7703fb5e4f0	-0.17161372290482957
117	0x3fcc18908ca17dad	0.2194996534990258
118	0xbfc68a9f519280f4	-0.17610541804334157
119	0x3fc2d8c832b1f575	0.14724066233967972
120	0x3fcc2eacd48cfa9c	0.22017441156818485
121	0x3fd074a3955b2d22	0.2571190794521546
122	0xbfcdf03e43fc7335	-0.23389414138446232
123	0x3fbc7976eaef5378	0.11122840152468239
124	0x3fc30450407f21c0	0.1485691370892379
125	0xbfd1d747287ed590	-0.27876452402718943
126	0x3fdeda0c65510970	0.48205861944383965
127	0xbfca7108703501e7	-0.20657449225292554
128	0x3fd07121acccda5b	0.2569050014020939
129	0x3f9174b0679dba8e	0.017046696018435052
130	0xbfcd4bcf1df98fae	-0.2288760086404386
131	0xbfd8f2be59d7296a	-0.3898158910129924
132	0xbfa7c5917e96f52a	-0.04642920179638062
133	0x3fd325e33e8c127e	0.2991874800502855
134	0xbf9c07e042bbe88d	-0.02737379462539784
135	0x3fafa750b240f678	0.0618233888239787
136	0xbfc8ad1b680271a1	-0.1927828080996621
137	0x3fb7f65fab868644	0.09360311448701802
138	0xbfc329f19221714c	-0.14971751818928636
139	0x3fd838e6dc62e057	0.37847301027386976
140	0x3fc45f2fc8faae04	0.15915486634672515
141	0x3fcdb30f3661841f	0.23202695994680853
142	0xbfc404865d1459e6	-0.15638808770081808
143	0x3fadaac9bf57a3fd	0.05794363461229322
144	0x3fb9187b188dfa96	0.09802979802587183
145	0x3faab693933d5521	0.05217419788702161
146	0x3fd9c746e579f465	0.4027878991108252
147	0x3fd4a6fc6cd21d33	0.32269201876666215
148	0x3fbe5cc25c6857fd	0.11860289341015569
149	0x3f855afdc6b4bf52	0.010427458406951171
150	0x3fbeae355756a744	0.11984570867812488
151	0xbfd01cdf5e43cbaf	-0.25176223950910076
152	0x3fd4b966ce87fbc1	0.3238160149484735
153	0xbfd7bb7a79cb0a06	-0.37081777471408406
154	0x3fb8bc24fe500702	0.09662085732272988
155	0x3fd5fa1ab44e959c	0.3433901558695085
156	0x3fd8f8b129b48010	0.3901789576793826
157	0xbfc56e009bd80554	-0.1674195061641891
158	0x3fdc609bc4585332	0.4433965127403098
159	0xbf986c1e42c9c554	-0.023849938227106307
160	0xbfc46ea37e862954	-0.1596264236253072
161	0x3fb759d740a090b8	0.0912146122723837
162	0xbfb6378ca51d3110	-0.08678511649231191
163	0xbfcdbfd23bd2c929	-0.23241641923011372
164	0x3fc7e0c94dc8416c	0.18654743478738156
165	0xbfbdfda01fbdfd1a	-0.11715126776652021
166	0xbfc3645ed6cae74f	-0.15150056350631266
167	0x3fc06f5d0e47ee03	0.12839854428590067
168	0xbf92e7921e2dbd9e	-0.018461497394523733
169	0xbfacb5397ff0ba89	-0.05607013403674894
170	0x3fbc68ce26406e4d	0.11097420152548772
171	0xbfdaa445c52f599c	-0.41627640014976364
172	0xbfad4144e710cebe	-0.05713858910203616
173	0x3fb32389a956e909	0.07476101288094496
174	0x3fd51187e90cb1e4	0.3291950012087723
175	0x3fc028ebdb8577e7	0.1262488195306439
176	0x3fc71af333eb6a26	0.18050994906555323
177	0x3fb9850e7dc4206d	0.09968653269254597
178	0x3f8948fe36318017	0.012346254376268502
179	0x3fc9567cd23ee0fd	0.1979518915739006
180	0xbfa3bbaaab8a7068	-0.0385411581421245
181	0x3fcfc3a132d54885	0.24815764410101707
182	0x3f9157c99d4f5f3c	0.016936445452159207
183	0x3fb8ccc2450f1c21	0.09687437234889319
184	0xbfdead4ee1fff59b	-0.47932788915917407
185	0xbfbdf7e35bac0a3a	-0.1170637224968595
186	0xbfe86e066fe00e9b	-0.7634308037817904
187	0xbfae919daf7c49ec	-0.05970471160084742
188	0x3fc5deb06d4a76e9	0.17085843407124138
189	0xbfe62669c3958669	-0.6921891040803533
190	0xbfc9fa741052deba	-0.20295573041015819
191	0xbfbd3d9389339ac8	-0.11422082996032679
192	0x3fbf6abcbfbc33de	0.12272243195566498
193	0xbfcf446e1d3410b2	-0.244275821933234
194	0x3fc404b7535078ab	0.1563939244087512
195	0xbfe1b62530370644	-0.5534845296571764
196	0x3fda944bca8bbc72	0.4153012731539497
197	0xbfdb88dd2057b789	-0.4302285018774162
198	0x3fe37e021b67e53c	0.6091318640966743
199	0xbfc1da1c573ff29c	-0.1394687105202096
200	0xbfc368bca176ca61	-0.15163381465898154
201	0x3fc1814f79baf237	0.13675874179706834
202	0x3fe248fd11cf8062	0.571409735475765
203	0xbfd75d74fd75cf3c	-0.36507916213962566
204	0xbfd8ff7ccdc6a41c	-0.39059372039133833
205	0xbfba0ae9164830f4	-0.10172898096078936
206	0xbfd2eb749b673dbc	-0.29562106300451396
207	0xbf815dc558b4fecd	-0.008479635018943022
208	0x3f86649c0214ddf1	0.01093408471443433
209	0x3fd829603f2e8ca2	0.3775253884325115
210	0xbfd91cbbbce1fc0a	-0.39237874456006294
211	0x3fb79c92e96b7eda	0.09223287771919378
212	0x3fd62797395c9475	0.34616642572138484
213	0x3ff0589acf2139cf	1.0216320124633176
214	0xbfec35dd1dff1080	-0.8815751634470104
215	0xbfbe80356b16b5f4	-0.11914380897970728
216	0xbfebd5b66021d3c2	-0.8698379399853524
217	0xbfc24efb051deee5	-0.14303529500818182
218	0xbfe2c24132215e6a	-0.5862127284153307
219	0xbfe6867a882d72ab	-0.7039158496587182
220	0xbfe32292935382f0	-0.5979702832665605
221	0x3fb34b7765433960	0.07537027570945076
222	0x3fef2327d7f032cb	0.9730414598030505
223	0x3fa56e6f14dbd018	0.04185816888448829
224	0x3fad2e89c37a627a	0.05699568282324648
225	0xbfe83a254bc9a2d5	-0.7570978622653352
226	0x3fc9933617f22938	0.19980503243670866
227	0xbfec737d473e816d	-0.8890978232848689
228	0x3feb9acc67bee449	0.862646296146644
229	0xbfdbfae6e3f39538	-0.4371888376320672
230	0x3fc1e2a56036c7eb	0.1397291869921554
231	0xbfb9df48ef4aebc4	-0.10106330721002538
232	0x3fef2142ddb220c8	0.9728102045055715
233	0xbfd3b1607a137207	-0.3077012245319399
234	0xbfe917546244c04b	-0.7840978545482441
235	0xbfde1968340ee2eb	-0.47030072292140684
236	0xbfe8891e440da746	-0.7667380646864579
237	0xbfa725d15818bd53	-0.04521040153883384
238	0xbfbb1aafb752bd70	-0.10587595201172006
239	0xbf4306fcd2ba244d	-0.000580666970067098
240	0x3fb71cbb1a445173	0.09028214827805474
241	0xbf9d6496265f9e45	-0.028704019634373763
242	0x3fbacd8565929ebe	0.10469850282481283
243	0x3fc11c3d93dc9582	0.13367433280761182
244	0xbfc1c76a6f07aabc	-0.13889818593391634
245	0xbfa00d2e191a6430	-0.03135055595812053
246	0x3fba774ac2d8802c	0.10338275200820196
247	0x3fd378f3923b5137	0.30425729065361246
248	0x3fd22be7ea8a34ae	0.2839298048427946
249	0x3fc7aadaa99f8a03	0.18490155489332957
250	0x3fb9c4863aa378b5	0.10065497333150371
251	0x3fd1118048e53b42	0.2666931831235396
252	0xbfb24ccd844d81fa	-0.07148441772506678
253	0x3fcc6360cc7b079e	0.2217827795448643
254	0x3fb9198ed33a6fa0	0.09804623276653368
255	0xbfc4817b5663a65f	-0.16020147054887254

linears.2.bias f8 [30]
0	0x3fac0a8098121808	0.05476762634593518
1	0xbfc5c9aa487214f7	-0.17021683251747508
2	0xbfaee47395b3a979	-0.06033669664778336
3	0xbfb7100a4684363e	-0.09008850308983882
4	0xbfa0a2afe70a1ca9	-0.03249120421701807
5	0x3fad0a594aba0c22	0.05671958005134338
6	0x3facdebac2f00110	0.0563867915116153
7	0x3fa5d3e0ab865bcb	0.04263212293442783
8	0x3fad068fafb2a180	0.05669068355320217
9	0xbfaa3b32a3bb21f7	-0.05123289345425868
10	0x3fc1c6ca84a42b7d	0.13887912251115245
11	0x3fafbbe969449892	0.061980527973262714
12	0x3face1ba5f4f3ce7	0.05640966809698416
13	0x3fad376205d3b247	0.05706316300515773
14	0x3fb589d427bc3a5d	0.08413434953784234
15	0xbfad283742a87873	-0.05694744766900408
16	0x3f92653b5d0a7075	0.017964294008024646
17	0x3fab18fe892ac0e1	0.052925066226977575
18	0xbfb289162ee9d090	-0.0724042763266104
19	0xbf702e6ae70fc5c0	-0.003950517261715303
20	0xbfab4a45cb7c7667	-0.05330103024446658
21	0x3fb325070d1bd999	0.07478374547995371
22	0x3fa3c76b7e32a29b	0.038630828051570996
23	0xbf518b9725f85777	-0.0010708786065882472
24	0x3fc537f8a226d80c	0.16577060620846884
25	0xbfa24518386ea58f	-0.03568340004796788
26	0x3faf862d41d1e54f	0.061570562634140395
27	0xbfab9c166f7f4d4f	-0.05392522917795849
28	0xbfa71a59b9632bd9	-0.04512291324643742
29	0xbf928f2e11dd91e3	-0.018124313202308683

linears.3.weight f8 [30, 30]
0	0x3fddafdc55d6e074	0.4638586843752883
1	0xbfbd35922bbd5c37	-0.1140986782823895
2	0x3fc3a33f0bf2db7b	0.1534193809836458
3	0x3fc194b1b3989895	0.13735028523769147
4	0x3fc4a3971027c825	0.16124237336004046
5	0xbfdc4d405fd631c7	-0.44221505507519193
6	0xbfd06b0a8ee91ad2	-0.2565332790003768
7	0xbfcc71fc429b914d	-0.22222855808571254
8	0x3fc3c5c5e1c04809	0.15447305224421395
9	0xbfbc38d818e9d571	-0.1102423725913775
10	0xbfa06a7c3e1776bf	-0.03206241853670865
11	0xbfcb03c812c9e433	-0.21105290334142665
12	0x3fd303602fb1da69	0.2970810380715308
13	0xbfcebb0cc93c4b9f	-0.24008331132844504
14	0xbfc9ad98670c08aa	-0.20061020881263875
15	0x3fc82c42d4dee657	0.18885074037625557
16	0x3fc8877805d862ba	0.19163418088353074
17	0xbfb612dc5a3c4cf9	-0.08622529223457666
18	0xbfcfc91fa8b76b7a	-0.24832530725583607
19	0x3fd21984961041fd	0.282807489916223
20	0xbfc8fa27162a996a	-0.19513405401557843
21	0x3fb734f038b56f58	0.09065152534952625
22	0x3f4cc2c292a8c34f	0.0008777093947341749
23	0x3f41ec38c01cc57b	0.0005469586469414722
24	0xbfc433c90218bca7	-0.15783035852789348
25	0x3fbfc9247fac2e93	0.12416294209486471
26	0x3fd0d7fd343c14e8	0.2631829271416124
27	0xbfc0fb11d887d344	-0.13266203949720012
28	0x3f97a3a3ca6c1d50	0.02308517382610137
29	0xbfd698bec39f5cd2	-0.35307282546768903
30	0x3fd4491b3c1dc4a6	0.31696205969553615
31	0xbfd0af60afabca80	-0.2607042041337664
32	0xbfd099b9f40f4ad0	-0.2593827136417248
33	0xbfb616434f76f273	-0.08627720537237753
34	0x3fd50750d52c9a64	0.3285715181140516
35	0xbfd794d71c0736ad	-0.36845948922278177
36	0xbfb3c3dcb3cf0745	-0.07720736875401453
37	0xbfbc74d84762c40d	-0.11115791075532418
38	0x3fc6799dcd0b19a1	0.17558643829233936
39	0xbfd2a84b94b695e9	-0.29152192614341615
40	0x3fb0baeee8f97d9b	0.06535237491470129
41	0x3fc94b52505bf112	0.1976111309412621
42	0x3fc5e5e773df7d02	0.17107861669408214
43	0xbfac12e71e313a03	-0.05483171695287938
44	0x3fa3938d454dbaf6	0.038235106191555276
45	0xbfbee5f28a22f391	-0.12069621918176511
46	0xbfd183a2285d3370	-0.27365926687053044
47	0xbfc5a54afc0ef322	-0.16910683925188957
48	0xbfd28200d1197a42	-0.28918476505160495
49	0xbfc88eb6d8044bac	-0.19185529277509994
50	0x3fc560f3692d661f	0.16702120433437614
51	0x3fc28597b2e2f549	0.14470192179389077
52	0xbfa0d11ebcab9636	-0.03284545949081201
53	0xbfcf50ca775569cd	-0.2446530420955483
54	0x3fc56d7f0cf882a4	0.16740406163537103
55	0x3fa4eb8e525e30a7	0.04085964923351187
56	0xbfc6392aedcbaf9b	-0.17361961947551383
57	0xbf924b15456d65c1	-0.017864544260509655
58	0xbfa7bdd55fca9cb9	-0.04637018961266776
59	0x3fcfa692c7a59588	0.24727091549281632
60	0xbfd5df1f1528303a	-0.3417432505236807
61	0x3fc2c2aab124c0f4	0.14656575822437612
62	0xbfc73afecd3ac277	-0.18148789425824294
63	0x3fc697a42902f6cd	0.1765027237178657
64	0x3fc7d59883a6a4c2	0.18620592525738827
65	0x3f98f70e316b5416	0.02437994171744514
66	0xbfccf3ac7fd1d797	-0.22618633500286187
67	0xbfc4ec0a0f79d0fc	-0.16345334773689746
68	0xbfd97f639519604a	-0.3984002071424625
69	0x3fd52b606d8a4ac1	0.3307725019196078
70	0xbfd249be76124577	-0.2857509758988139
71	0xbfc39a467cc2d1ad	-0.15314560977789196
72	0xbfd136fa4977d878	-0.268980571504819
73	0x3fcbe862d9027882	0.21802936168836956
74	0xbfd284440b8ff863	-0.289322863856688
75	0x3fb4fa3ab6a03249	0.08194319685589692
76	0xbfc6bacd3b12b4bb	-0.17757573494364984
77	0xbfd6319983a63f46	-0.34677732330691347
78	0x3fd09bce0987e8dd	0.2595095723223844
79	0xbfceb9e0efef303f	-0.24004756656211332
80	0xbfd2689cd33e3b47	-0.28763504628380016
81	0xbfc101ccdaad4605	-0.13286743810253668
82	0xbfc6b47d4e16c313	-0.1773831015866781
83	0x3f8f9c56f312b0e3	0.015434912961005803
84	0x3fca06e0bcb6221b	0.2033348962252298
85	0xbf6c1ff9552e8407	-0.003433215120324909
86	0xbfd2d74226b2449e	-0.2943883302587639
87	0xbfbb4e19614fbf3b	-0.10666044832009629
88	0xbf921c9640ef0af2	-0.017687175477258905
89	0x3fc0342d75eb832c	0.12659233339129494
90	0xbfd572f31d099e22	-0.33514097057056536
91	0x3fc7a62c13ac917d	0.18475867233895463
92	0x3f66007f76a67c9b	0.0026857842942287886
93	0xbf6ac7b7565a7be5	-0.003269060211848795
94	0xbfcba613bf0231e5	-0.21600577189054984
95	0x3fe15bce96ab693c	0.5424569075360419
96	0x3fcfc7a54647572b	0.2482802003057086
97	0x3fc5421e6d8b42b2	0.16608028744533027
98	0x3fdce27562120469	0.4513219316214135
99	0x3f629895c77b1902	0.0022700238585883223
100	0x3fc9111287167410	0.19583350750045314
101	0x3f848f17794a91c1	0.010038550747886956
102	0x3f800b6672009871	0.007834244112086193
103	0x3fd0a7554ef9ac35	0.2602132102244384
104	0x3fc0d1461c75d9f6	0.13138653173128007
105	0xbfc28bb70466375f	-0.1448887607079383
106	0x3fc5c72bb3a843dc	0.1701407077057685
107	0xbfbf44244a5f3afb	-0.12213351073954108
108	0xbfb4211611fccf5b	-0.07862985552929784
109	0xbfc5baa7cb558482	-0.16975877216740193
110	0x3fbfe3512f79c21a	0.124562334147193
111	0xbfd70e21842485b2	-0.36023748306805736
112	0xbfd3202747abeb13	-0.29883749007392274
113	0x3fda655c3aa39cbe	0.41243653990245466
114	0xbfa395863fdde69f	-0.038250155731430306
115	0x3fa1dc4c625a3610	0.0348838682231013
116	0x3f8a49bbc1c47aec	0.012835947848143424
117	0xbfce6a0eb16b19bb	-0.23761161482816626
118	0x3fcb068d69ce2d14	0.21113746324804394
119	0x3fc8b8fff21d0c60	0.1931457454867056
120	0x3fd24c485f71b839	0.28590592690204947
121	0x3fcde522a8358bd0	0.23355515683496586
122	0x3fdc974a0395a495	0.44673395490696893
123	0xbfbdd90215a459ae	-0.1165925314747713
124	0x3fd2d4a248b34b65	0.29422814464230945
125	0xbfcd5cb6294b3f82	-0.22939183250718648
126	0xbfbe1b7d7600b999	-0.11760696535995975
127	0x3fe36a1fdc66766f	0.6067046456043509
128	0xbfa24d3c4e7c8346	-0.035745510655266474
129	0x3fb850a7fe9ce97e	0.09498071638237168
130	0x3fbb04efa7e8f3e7	0.1055440697609381
131	0x3fc107feb799b7fa	0.1330564877020491
132	0xbfca68cd3f3e3fba	-0.20632329547924916
133	0x3fc22c1602fcab2f	0.14197039743279435
134	0x3fbbcf2cfa20f43b	0.10863000017794004
135	0x3fcfa864703ea746	0.24732642632198515
136	0xbfd2700ff1aaa8b6	-0.28808973884828093
137	0xbfe05dfdf7c35b7f	-0.5114736403582895
138	0xbfb10ad295bcece7	-0.06657138972962039
139	0xbfccc5cf90fe35b9	-0.22478670673119241
140	0xbfe3924e90ea37ef	-0.6116097288484051
141	0x3fa1d06304506434	0.034792989994635454
142	0x3fe0f680c25f19dc	0.5300906940763599
143	0xbfe0a7c9ab4e6abf	-0.520481905539178
144	0xbfe130e2d347a58a	-0.5372175337371783
145	0x3f9dc4e6b03335cb	0.02907143068732924
146	0xbfc9b2d6d44f5039	-0.20077023855867696
147	0x3fd15d23554f3414	0.2713096936320778
148	0xbfd16fb00396d536	-0.27244186735636633
149	0x3fd8b5a6b49f6468	0.3860871089833098
150	0xbfc7b8332e799857	-0.18530883569036646
151	0x3f823ce6d35c8179	0.008905223202930955
152	0x3fabc30608d2c37f	0.054222286774694865
153	0x3f83c5cc2829a3c6	0.009654612517992944
154	0xbfd186cedb6da94b	-0.27385302952338425
155	0x3fc54a566cab4655	0.16633110338311732
156	0xbfd1a81f45693b89	-0.2758863618700436
157	0xbfb4a1e57e04a82d	-0.08059534384361262
158	0x3fd02582efaa367b	0.25228951840185915
159	0xbfcc813153a1c52d	-0.22269264777745815
160	0xbfafc3173ba017df	-0.062035299328314635
161	0x3fc3877392558786	0.15257115025729834
162	0x3fd694b89ddf025c	0.3528272191725017
163	0x3fd6db592413350f	0.35713795206977833
164	0x3fac5a1f110abe50	0.055375071363752526
165	0xbfc652a3d5de5384	-0.17439697211071004
166	0x3fd08f2eaf14a4a8	0.2587391576549387
167	0x3fd3841eccf77dbf	0.304938984072546
168	0x3fd57f9d95333a58	0.3359140355140986
169	0x3fb9974fcab4bb57	0.09996508311153939
170	0xbfa67b1813a5bd8e	-0.0439078830703422
171	0x3fb43f909a8e94e2	0.07909492276538146
172	0x3f52efb3ab367f8d	0.0011557821825149723
173	0xbfbffcbc6ddf943e	-0.12495019609885191
174	0xbfb9f97d93a8d66d	-0.10146317343682094
175	0xbfd08b13e41f1062	-0.2584886291263101
176	0x3fa83cbff064cac2	0.047338483900963194
177	0x3fa1bec2621d5e69	0.03465850303353763
178	0x3fd1e445e971effc	0.2795576839196199
179	0x3fc1e7c4318993d3	0.13988544863528193
180	0xbfde9561ad3e7d9e	-0.4778675262295681
181	0xbfcea11f3a362a2f	-0.2392920526729809
182	0xbfd0235518b9ef12	-0.2521565190761389
183	0xbfd2d8228b4c3013	-0.2944418297126969
184	0xbfc5e11d8711d7bf	-0.17093247504425155
185	0x3fe147224a859378	0.5399333434585136
186	0xbfc2de32cb7e1622	-0.1474059575668188
187	0xbfc4f4c1ee93169f	-0.16371940755032185
188	0x3fcb9f60d4f09606	0.21580133817148822
189	0xbfc7b8677034a9cf	-0.18531506518168192
190	0xbfd387918865da17	-0.305149443818125
191	0x3fc7a1954f4bacf1	0.1846186291871628
192	0xbfcae8a1c22201b3	-0.21022436122076513
193	0x3fd09f5e06689050	0.2597270071585216
194	0xbfc770f6d2b4afca	-0.18313489235276698
195	0x3fcb47182cce66b4	0.21310712993436243
196	0x3fbb972b19534199	0.10777539604465004
197	0x3fd2340ad43ff5b3	0.2844264099838611
198	0x3fcef4244f454d50	0.24182561751022513
199	0x3fbd56ad8c08c666	0.11460385006719206
200	0xbfb2f8693509d403	-0.0741029505241642
201	0xbfd1c0fe1e402f0b	-0.2774043364922682
202	0xbfc78e2111228513	-0.18402493797933825
203	0xbfa36acdf287b1e0	-0.03792422853061672
204	0xbfacb80255c1bb7e	-0.05609137818179642
205	0x3fcce2db78ac06cd	0.2256731356829306
206	0x3fc3acea1d002178	0.15371443191567002
207	0xbfcdc39468c0207f	-0.23253111948747926
208	0xbfdb7023b61890c4	-0.42871945174034587
209	0x3fd09f1fe54ce574	0.25971219437231885
210	0xbfcca60699f22c5a	-0.22381670491117484
211	0xbfb382510dcad59c	-0.076207223765627
212	0xbfe8014a6a59a36d	-0.7501575543547979
213	0xbfaa637706b8df25	-0.051540107317519714
214	0x3fc732f858ebf024	0.1812429842174207
215	0x3fb69258ab74b73c	0.08817056833205766
216	0xbfe82055ae0ab2e5	-0.7539471053365473
217	0xbff066f7e9f9f1b9	-1.0251387729359591
218	0xbfc086908b0bc6c3	-0.12910658635478542
219	0xbfc19ab5fd4136b6	-0.13753390184358744
220	0xbfd3c964e442540f	-0.3091671208470083
221	0x3f9eb68b959e3089	0.02999322987265932
222	0xbfe2682f1e35fa52	-0.5752177801185303
223	0x3fb307b387914922	0.07433626231912574
224	0x3fb8a5dc8a971805	0.09628084548521094
225	0xbfed55d94e47e356	-0.916729596035206
226	0x3fda87f4cb423025	0.4145481095263242
227	0x3fe7c5e40396ba52	0.7429065771191949
228	0x3fddd00ff64fa4a6	0.46582411817378
229	0x3ff1287aed542b7d	1.0723828573852352
230	0x3ff2596f81cd47df	1.1468348570237976
231	0x3fca832e34761972	0.20712831079090283
232	0xbfeda73f7c8549d1	-0.9266660148662657
233	0x3ff0379400746f83	1.013568879868189
234	0x3feb6e704ec72266	0.8572312868719336
235	0x3feac10a288e6419	0.8360644142259189
236	0x3fc9e1efbf4ec543	0.20220753518291631
237	0xbfd52a5bd8520f84	-0.3307103741174091
238	0x3feb83b69443d661	0.8598282714653572
239	0xbfec2c1da3c23fef	-0.8803852270521001
240	0x3fccfe8e666ef829	0.22651844026216963
241	0x3fd1554429162bb3	0.270829239009511
242	0xbfc701ee478f35fc	-0.17974642271148855
243	0xbfc9c9cc8c64dd7e	-0.20147091727424632
244	0xbfb2388ccd22b8ee	-0.07117538459963033
245	0xbfc4ef54df96c54f	-0.1635538188689147
246	0xbfc6a467197dd389	-0.17689217323973264
247	0x3fcf3fe815dadfe7	0.24413777415406843
248	0xbfd6c03629458c43	-0.3554816630405108
249	0xbfced9aec4b38a17	-0.24101814846569944
250	0xbf99c9a631108925	-0.025183293099083976
251	0x3f65d77e66a3b2b8	0.002666231991602732
252	0x3fbf3d274abc8c55	0.12202687811490993
253	0x3fa75ea06637c9a3	0.04564381835725164
254	0xbfb23851610a8d1b	-0.0711718427578955
255	0x3fb4e39957bb41fc	0.08159788505441407

linears.3.bias f8 [30]
0	0xbfad72787440bacb	-0.057513965788862
1	0x3fb3f382c74e7671	0.07793443075066776
2	0xbfb3f4ae5ef3a7b4	-0.07795228784712444
3	0x3fa24084329aa347	0.0356484710476424
4	0xbfac1d1a94a6ab6e	-0.05490954460704854
5	0x3fb64356b58e8486	0.08696500713860375
6	0x3f92ca86231b28f0	0.018350692646699807
7	0xbfb1b2b36cdd60f6	-0.06913300903159211
8	0xbfb3174132377ce3	-0.07457358814234598
9	0x3fb54081122b67de	0.0830155057296049
10	0x3faa4260fab3b93c	0.051287680247570994
11	0xbfb0bec5a7d02955	-0.06541095110893498
12	0x3fb17e11ac585a4d	0.06832991082806324
13	0xbfae6899b7e74345	-0.059391788195745344
14	0xbfc44d5c3129ab78	-0.15861084366346367
15	0x3fb44cbaa3a49826	0.07929579253377081
16	0x3faf5eaa88e0b885	0.061269120415418356
17	0xbf933bf88bfc6907	-0.018783458274904265
18	0x3fa8a952f95a0486	0.04816684049456747
19	0xbfb399e62ead2382	-0.07656706466253918
20	0x3fb2c2c08ebaf271	0.07328418240190061
21	0xbf9406a9ac11eafb	-0.019556666495627244
22	0x3f961aa75206c7ac	0.021586050397395404
23	0xbf7d90a2dc5ba407	-0.007218013930221374
24	0x3fb2ea9549bbe44d	0.07389195490022012
25	0x3fb3792f1e4668be	0.076067871943823
26	0xbfb672238706bb55	-0.08767911955395154
27	0x3fb8cd8d3baadaff	0.09688646990512594
28	0xbf9cf1a5d269556c	-0.028265562980171507
29	0xbfba4aa26e859049	-0.10270133207592481

linears.4.weight f8 [3, 30]
0	0xbfd62fb5bf0d4ccc	-0.3466619840375642
1	0x3fa5989af51ca355	0.042179911061174614
2	0xbfdc36940813ea6f	-0.4408311919102407
3	0x3fd8047153b73b90	0.3752711598908087
4	0xbfd3fd47d51e3442	-0.3123340207319566
5	0x3fd0207f703da1e5	0.2519835086918916
6	0x3fc3feadd33c62b6	0.15620968641521465
7	0x3fc02d0b1ae73239	0.12637461484554693
8	0xbfc28fc62b6262f3	-0.14501263731360545
9	0x3fc3288ba45fdfff	0.14967484975909426
10	0x3fd8c4d92c23375c	0.3870146685629743
11	0xbfdf48d391dda903	-0.48881997341835887
12	0x3fd971f1042b5089	0.39757943541668134
13	0xbfe03fe1853c23a5	-0.5077979662174711
14	0x3fd4faa174fd10e7	0.32779728340780284
15	0x3fd28d383c0a333b	0.289869364388142
16	0x3fc967aab8673d18	0.1984761619955655
17	0x3fc7cd4a3c320ee7	0.18595245303378435
18	0x3fcbbe530fd01ca5	0.21674574157825535
19	0xbfdd17f0f45c5379	-0.45458625663132285
20	0x3fd71adba3b0e525	0.3610142801804435
21	0x3fb6983a4beb09fe	0.088260310682962
22	0x3fd20f4db6425e57	0.28218405531649665
23	0x3fe027179a5b18cc	0.5047719969523086
24	0x3fc21cf1d6c1a63a	0.1415083216300433
25	0x3fd8b59014df2db9	0.38608171499501115
26	0xbfa2d5d9c3d6547b	-0.03678780093756814
27	0xbfd97e4cb732d835	-0.3983337201165143
28	0x3fddb24e2f208cda	0.46400789835224787
29	0xbfbf7eb0312d8ed4	-0.1230268592894917
30	0x3fc55c11dd8c3eec	0.16687224691167246
31	0x3fcd8a458ec0a76f	0.23078221769656745
32	0xbfc4fdd62f8dd3fc	-0.16399648019765312
33	0xbfd2a6e3e7b7f8fb	-0.29143617275975914
34	0x3fd71cda10267fd4	0.3611359746664651
35	0x3fae180c2b5e446a	0.05877721814534527
36	0xbfbe92b804a72887	-0.11942625154111584
37	0x3fe3c87eeab65d0a	0.6182245811677671
38	0x3fa26d3ffc5bcddd	0.03598976092862547
39	0x3fdb8313c01b9db2	0.42987531433615367
40	0x3fc75b9b719d41a7	0.18248312995502866
41	0xbfc19e7de6f65a5e	-0.13764928605515342
42	0x3fd8efcce246d2a4	0.3896362504704405
43	0xbfde6397df919ea3	-0.47482868988888977
44	0xbfc6bc4b7ede353f	-0.1776213044617325
45	0x3fac916d96933452	0.05579702818941058
46	0xbf9b6f6e759bd37e	-0.026792264869942788
47	0xbfed2763257d16ef	-0.9110580188941791
48	0x3fd302f6d38b6f55	0.2970559182992834
49	0xbfc7e0bdf0852889	-0.18654608005664766
50	0x3fd2ba90efd1ea27	0.29263709468765103
51	0xbfd22cf1606307f9	-0.28399309551980384
52	0xbfc76e0a070dfc88	-0.18304562897171572
53	0xbfcb6fc49a4cb9a4	-0.21434838804402745
54	0x3f71f0080e8a8a22	0.004379302474861764
55	0x3fdd222b1ff0680e	0.4552104770569948
56	0x3fcc984cafc7eca9	0.2233978136353916
57	0x3fc037809a52f2d0	0.12669379744865816
58	0xbfde943fce72ae9a	-0.4777984157651446
59	0xbfdd1c693d37f4bb	-0.4548590753400494
60	0xbf7268ad9eea3bbc	-0.004494360166645114
61	0xbf9f7d200ad5ca28	-0.03075075212604808
62	0xbfb4bb2d051efc0f	-0.08098107695603594
63	0x3fd69468acae17be	0.3528081594780551
64	0xbfde883fff21c4c9	-0.4770660392305897
65	0xbfae2099171cf97f	-0.05884245307105384
66	0x3fd0eb6a78a13a70	0.26436864643338875
67	0xbfe2b7e12ca1d392	-0.5849462386819246
68	0xbfbbe3a4655cae93	-0.1089422938791194
69	0x3fc479f36a0f59ae	0.15997164419850435
70	0x3fc82e338d5e2665	0.1889099540970164
71	0xbfc5a926dac32596	-0.16922460252525856
72	0x3fb0f35aa0a41cc2	0.06621328756237957
73	0xbfd95dacac506772	-0.39634243800684665
74	0xbfdc1d8369ec92a2	-0.4393013510146294
75	0x3fcc8ffbfb1f4ff6	0.2231440521414922
76	0x3fd26298886b38bd	0.2872678119864636
77	0xbfc4e765ef367c00	-0.1633117120772738
78	0x3fd30722718dcad1	0.2973104580807276
79	0xbfc847351113956e	-0.18967307409108564
80	0x3fdeb3ff7e4d8cca	0.4797362073351904
81	0xbfced71d1fa10d9b	-0.24093975109472585
82	0xbfd475d58386f168	-0.31969201893277566
83	0xbfdbe4f1543715a6	-0.4358485529340562
84	0x3fcf2c12cac40683	0.24353251362486014
85	0xbfcbe7838d61a9d1	-0.21800274279969625
86	0xbfd20355cd7b81b1	-0.28145356241841585
87	0x3fcbe0be06ae1486	0.21779609037563236
88	0xbfdb2f5750d33ed0	-0.42476447003444395
89	0x3fd116eda49607c2	0.2670244319234564

linears.4.bias f8 [3]
0	0x3fb3b7c56bd3d946	0.07702287561901242
1	0x3fb034fe0d15d8a3	0.06330859965769035
2	0x3faf4de6ae45b053	0.0611412132010122

step f8 []
0	0x40d1170000000000	17500.0

exp_avg f8 [30, 1]
0	0xbf4a6610eadaf887	-0.0008056242565641782
1	0x405573b495eb0e82	85.80789707140687
2	0xbf207fc0ebcc3e95	-0.00012587766641346658
3	0x3f5d37f450e3f90a	0.0017833600900867851
4	0xbf5a4de8f22fa2fd	-0.0016054892409959603
5	0x3f7a04abe0da54e6	0.00635211124394639
6	0xbf62149ad8d435b0	-0.0022070907931552516
7	0xbf43c5f90b45888e	-0.0006034341845799916
8	0xc05e982ca1f61e67	-122.37772416148219
9	0xc05dc1bbc1a9000d	-119.02708474639822
10	0xbf6aa4de5111658c	-0.0032524435160154515
11	0xc0630cd5fb3462c6	-152.40112076026543
12	0x4057707e8519d45a	93.75772216341412
13	0xbf5f343651792a9b	-0.0019045381976804724
14	0xbf5947ad1aa15bed	-0.001542967841052119
15	0xbf6d5a8755b811f9	-0.0035832064875214145
16	0xbf5b7fa0faf821ec	-0.0016783783029287137
17	0xbf8e228f26be53c3	-0.01471435391412424
18	0xc059dd21f73758d7	-103.45519810109123
19	0x3f63d64c1a5ba4f1	0.002421520842166396
20	0xbf63a03f76091944	-0.0023957480882785005
21	0x3f3569b3d02cebb5	0.0003267349240336185
22	0x3f7d6bd2b82ebd75	0.007182906268027413
23	0x406258376a7289d9	146.7567646252708
24	0xbf80d5b4380e7447	-0.008220107994754268
25	0xc054153da16d8261	-80.33188663191096
26	0xbf873edc881b231b	-0.011350367454171775
27	0x3fcfda826cea33d2	0.24885587995632236
28	0x3f8070b993817f08	0.008027505697270523
29	0xbf39dc2fdf090ebc	-0.00039459389430283507

exp_avg_sq f8 [30, 1]
0	0x3f64ad515c93c024	0.002524050626213652
1	0x4142f5efa350532d	2485215.2758888216
2	0x3f336b8fa7042680	0.00029632813586086965
3	0x3f7f6509f8361f83	0.007664717620521236
4	0x3f49fb770f8805dd	0.0007929164267467776
5	0x3f9a32bea1e8e164	0.025584200508292368
6	0x3fa4e5c30d0d1663	0.04081544431987252
7	0x3f2af07fa871159e	0.00020553167652985217
8	0x41532d8a94957443	5027370.321621957
9	0x4152491b244ec9ff	4793452.567308902
10	0x3f79434a6b6cd1aa	0.006167689038921878
11	0x415e135c7d9b8c6c	7884145.962618928
12	0x4146713a4d68ca58	2941556.6047604494
13	0x3f53f08eff64a74f	0.0012170216046549392
14	0x3f5a8252d85c1ba3	0.0016179856333466767
15	0x3f8a2e11844f49f8	0.012783181047699252
16	0x3f5adbb663a3b82d	0.0016392975945183172
17	0x3fb673fc6d6aa26c	0.08770730658819453
18	0x414ba8926e0508c3	3625252.8595286324
19	0x3f69ff8201f3f27e	0.003173593445920552
20	0x3f8b903ea68e6ab4	0.013458718736548782
21	0x3f499eef098c8004	0.0007818858312909076
22	0x3f71bf469bbe6939	0.00433280545612496
23	0x415bd1dbd5617f0d	7292783.334075701
24	0x3fa9fefc498e013f	0.05077350995907403
25	0x41408cf4940ae567	2169321.1565825227
26	0x3f96d319c49f4c77	0.02228966009699859
27	0x402a12809387ad36	13.036137209236227
28	0x3f92b1d94c61d69e	0.018256564414022784
29	0x3f16851c3643eba5	8.59068364355413e-05

step f8 []
0	0x40d1170000000000	17500.0

exp_avg f8 [30]
0	0x3f65ab4332344731	0.0026451408790614463
1	0x3ff7fa2fa5277e73	1.4985805941904828
2	0xbf0ebefd1186aa6a	-5.86434345593759e-05
3	0xbf528794c39837e8	-0.0011309578679887747
4	0x3f3a1e77f0f571ef	0.00039854458096558095
5	0xbf52fcd1ff5a40d2	-0.0011589098698188594
6	0x3f51d591de3e2cf0	0.0010885166638868148
7	0xbf31a604c2831326	-0.00026929489332543283
8	0xc00107d31dbffb5b	-2.128820640965768
9	0xc00088070fab095a	-2.066419718176957
10	0x3f612704fd819510	0.002093801256750745
11	0xc0051916f7a60b2a	-2.6372508380458344
12	0x3ffa324e8ea2cf8a	1.6372819492071096
13	0x3f54554306bbd8a5	0.001241031127333461
14	0x3f54c76dfe57f6db	0.0012682508616985086
15	0x3f52ba788328baa9	0.0011430909040758641
16	0xbf1cf6d214f5233c	-0.00011048943746517782
17	0xbf5d029c4b40da02	-0.0017706419284998502
18	0xbffcbdaba9dc29f9	-1.7963062892109731
19	0xbf631d279422dbc4	-0.0023332379360811745
20	0x3f2cb20545a3050c	0.0002189284740037673
21	0xbf423d965da134dc	-0.0005566581924171493
22	0x3f16e82d17a92501	8.738303396528883e-05
23	0x400450aaccd265b9	2.539388275309389
24	0x3f3ce68df9279918	0.0004409882177739562
25	0xbff67f3a30d55bb4	-1.4060613544040566
26	0xbf44d5feee02a929	-0.0006358618520796766
27	0x3f7968028ef852e3	0.006202707284974382
28	0xbf728acba76b6018	-0.004526896975868076
29	0xbf4177d03ebdf78b	-0.0005330817052564425

exp_avg_sq f8 [30]
0	0x3f5bc5642ed18520	0.001695010981414953
1	0x4081691a9aa5d481	557.1379902797199
2	0x3f424701d51afb1c	0.0005577811191058465
3	0x3f44b698a7b92718	0.0006321187388007325
4	0x3f3bab9a1fd45473	0.0004222155838118975
5	0x3f69ce720f04063c	0.0031501987178905993
6	0x3f37d47f5a2730a7	0.00036361798461538103
7	0x3f208fbc616f68ff	0.0001263539749903411
8	0x409185829bc4f09c	1121.377547337709
9	0x4090af629b9c0c3d	1067.8462967283697
10	0x3f5453354bd6b1e9	0.0012405415030612937
11	0x409b625c70b64d31	1752.5902737125982
12	0x408497f899f66944	658.9963874102473
13	0x3f32b40a7adb9f1c	0.00028538947922961285
14	0x3f58b9bcea0c8f22	0.0015091271272433334
15	0x3f619da2d90c614c	0.002150362074086731
16	0x3f2b4092511b9614	0.00020791803449708767
17	0x3f503d30d42d6363	0.0009911515087052895
18	0x408954851c3dfd46	810.5649952738684
19	0x3f5c809aedf2d1f5	0.0017396462424531499
20	0x3f427cb10d02f38a	0.000564180803869983
21	0x3f2329c785d8a22e	0.00014620361882690516
22	0x3f0b54293b9da398	5.212546189065705e-05
23	0x40996f426a03645a	1627.8148575334549
24	0x3f3ba4eedaa72dd3	0.0004218180789876378
25	0x407e6ab4d66df6ab	486.66914980844984
26	0x3f39b85f0c442e59	0.00039245911126848315
27	0x3f70722c5e2f077d	0.00401513415539678
28	0x3f79a910eaf634e2	0.0062647496082608185
29	0x3f0995299d41677b	4.879506346418171e-05

step f8 []
0	0x40d1170000000000	17500.0
