1D_Transcritical_Inverse_Problem_n_initial_0_01/Models/Model.ckpt-28500.pt (torch, 219289 bytes, 59 tensors)

linears.0.weight f8 [40, 1]
000000 c7 f4 07 f7 32 28 b5 3f 14 0a 8e ed 72 26 ca bf
       0.08264463931114384 -0.20429836844785199
000010 24 6c 79 c2 62 2b ca 3f a9 19 fe 5b a8 e0 87 3f
       0.20444902892890682 0.011658969218626707
000020 a8 d4 c2 24 fd 62 cd 3f 6b 6e 85 73 30 ac c9 bf
       0.22958339972470765 -0.20056729927715664
000030 f7 22 f7 1e 97 8b b2 bf 24 cf c2 dc 4c 07 c7 3f
       -0.0724424791907373 0.17991028575271983
000040 bb f1 4d 8b f7 2e c4 bf 8e 59 72 05 74 35 d0 3f
       -0.15768331815696776 0.2532625249090409
000050 a2 36 26 b6 a7 12 d0 3f 26 89 93 b5 66 0f 8b 3f
       0.2511386183549381 0.013212969223279258
000060 1f dd c6 f3 43 66 cc bf 53 27 48 49 98 ba c1 3f
       -0.22187089350857378 0.13850692346778234
000070 77 be de 98 d2 66 d3 3f 5d 40 9c 6f b8 81 a1 bf
       0.30315079621048063 -0.03419281351500623
000080 be fd a7 c5 c2 9d 8b 3f 49 49 b2 95 4b ee d4 bf
       0.013484498650540352 -0.3270443879965979
000090 86 b6 a1 c6 cc 4a 87 3f 4b 7f 38 e3 6e c3 cd bf
       0.011373138248212965 -0.23252664656410568
0000a0 9b 32 fb 1d 11 4a cb 3f 11 0e 7b fb 21 b4 b7 bf
       0.2131978413002756 -0.09259235753693697
0000b0 f9 33 b5 70 4b 63 cc bf a1 66 f1 13 ef b8 89 3f
       -0.22178023341476186 0.012559764667617048
0000c0 c8 6f dd 58 aa ae aa bf 5b 6e 3d 07 8d 53 c6 bf
       -0.05211384138848946 -0.17442477086557315
0000d0 37 0b ba c5 fd 7b bf bf 03 82 20 b0 93 59 cd 3f
       -0.12298570706665833 0.22929617023420698
0000e0 81 bb 91 56 06 ed b4 3f 2f 09 98 4c c1 54 bd 3f
       0.08174171079165939 0.11457450981109639
0000f0 37 1b 0b 13 f2 ba b6 bf f2 b8 b1 ee b8 f4 c5 3f
       -0.088790063523544 0.17153083472243896
000100 6a ba cb e1 c7 75 d4 bf 65 f0 81 b4 2f 4b c0 3f
       -0.3196887688672293 0.12729450525137334
000110 51 7b 83 55 81 9f 87 3f d2 17 bb 3d 73 23 8b bf
       0.011534700796287519 -0.013251209565520759
000120 55 4a e3 5c 2f be c9 bf 5c e5 e4 a5 cb b4 c7 3f
       -0.20111648593463607 0.1852049407987505
000130 12 e5 5e 1b 2c 0d d2 bf 8c ef 3f a1 b3 3c d0 3f
       -0.2820539729396653 0.2537049364761905

linears.0.bias f8 [40]
000000 9f 0d 8f b9 73 3c aa 3f b8 46 7d a2 f1 aa b6 bf
       0.05124246254083719 -0.08854589669251822
000010 a4 7f 18 b9 35 a7 a9 3f ce a5 f3 47 84 10 bf bf
       0.05010383495778051 -0.12134577519068232
000020 cb f1 1b 32 bf 47 b4 3f a3 06 10 27 c8 c9 b3 bf
       0.07921977017753716 -0.07729769662548817
000030 cb 3a 20 3b 24 d3 b1 bf e3 e8 c2 b9 a7 39 c4 3f
       -0.0696280140257201 0.15800949640635684
000040 b8 5c 0f 93 01 c0 c2 3f 24 68 10 46 e6 32 b6 3f
       0.14648456268944243 0.08671416483449029
000050 b6 11 a1 63 8a 89 ae bf b9 bc 89 c2 a1 79 c8 bf
       -0.0596431013696334 -0.19121191023757492
000060 70 7c fc c3 64 07 b3 bf be 79 3e 4d 94 85 b3 3f
       -0.07433156761952531 0.07625700841752
000070 b8 a8 60 e3 4f fb ad bf 57 9d 9c 2d ae ba b4 bf
       -0.05855798388104588 -0.08097351659363504
000080 93 19 a6 cf 6b 1c d0 bf ad 81 47 55 57 44 76 3f
       -0.2517346885510047 0.005436268944749062
000090 07 5d e2 c7 d2 5d b9 bf 53 69 c3 1a 9a 81 ac bf
       -0.09908788089738972 -0.05567628456784015
0000a0 52 88 45 88 07 7c bb 3f 41 c8 3e 91 e3 4a b0 3f
       0.1073612888044704 0.06364271446253246
0000b0 69 20 c8 39 f9 04 b3 bf b1 4f 4a cb aa c1 cb bf
       -0.07429464016615984 -0.2168477528217614
0000c0 f5 d5 b7 b1 8b 91 a0 bf 88 02 c1 18 b6 9d b0 3f
       -0.03236042541895393 0.06490648369163854
0000d0 dd f3 5f cb 71 73 b0 bf 28 67 db 04 d7 e2 ac bf
       -0.06426154341893615 -0.056418151228810054
0000e0 2e a6 4e cf 73 3a 8d 3f 61 dc 4a 15 11 01 b1 3f
       0.014271645320906048 0.06642252702555275
0000f0 85 44 82 17 a5 71 b4 bf 68 a3 ed 67 4f 82 9a 3f
       -0.07985908340403298 0.025887718885687333
000100 ff 0d b3 35 fa fc 99 3f da 87 3b c7 c3 c2 b1 bf
       0.02537909462695431 -0.06937812437129712
000110 b3 2a 9c 47 8d 7d b9 bf fd 96 0b 36 67 8c d2 3f
       -0.0995720195607344 0.28981952932222993
000120 59 4d 51 b1 89 6d c2 3f 12 56 72 a8 4e c0 d1 3f
       0.14396783025822904 0.2773625035273152
000130 e7 6d 34 e4 7d 36 8a 3f 87 22 37 99 67 f5 92 bf
       0.012799247290380357 -0.01851426956798943

linears.1.weight f8 [40, 40]
000000 74 de 5d 0d b0 7d 7e bf 2a 39 1d 84 8d f3 aa bf
       -0.007444083885154041 -0.05263941037866211
000010 0f d0 ff 8f ad 59 88 3f 2d ee 32 97 da eb ba 3f
       0.011889797169693876 0.10516134444599663
000020 1f 38 9b 33 5d 54 c2 3f ed 91 6b 19 52 9d c1 3f
       0.143199587057496 0.13761354676456908
000030 23 ce c1 a0 b4 d5 c0 bf c1 67 40 19 8e 28 be 3f
       -0.13152177667107975 0.11780632130140047
000040 a4 a5 47 1d d0 e2 8b 3f 27 24 96 76 62 d2 ce 3f
       0.013616205113936193 0.24079542913776317
000050 82 47 98 63 86 68 c0 3f 91 ba 7b 26 62 06 c1 3f
       0.12818984854726173 0.13300730589931622
000060 79 af e0 e9 0c cf ca bf 1e eb 44 a5 02 8d a6 3f
       -0.20944367809113 0.0440445734734196
000070 cd f0 52 f6 33 4c cf bf 15 fa 0a 82 5c bc b6 bf
       -0.2445130303148119 -0.08881166624903643
000080 92 16 25 62 ca c1 a1 bf 21 12 b4 fa 3f 88 a4 3f
       -0.03468162963922085 0.04010200438827761
000090 e3 49 07 51 31 41 c7 3f 68 f2 26 18 dd 02 be bf
       0.18167702156513518 -0.11723119582797781
0000a0 dd 45 b1 35 c1 ca cd 3f f8 b6 0e 81 18 0b d0 3f
       0.23275008317663906 0.2506772289587924
0000b0 89 12 fd a0 64 a6 9d bf 78 bf b7 56 02 a2 bc 3f
       -0.028955051732980883 0.11184706322796767
0000c0 f6 2d 80 77 cd 2d c9 3f 4c c1 11 2f bc 1a cf bf
       0.19671028456683332 -0.24300339029606233
0000d0 fb 34 64 14 23 aa bb 3f ef f3 9b b0 70 35 a5 bf
       0.1080648350509427 -0.041423341330279466
0000e0 9d f0 6f 50 2d 5a c7 bf 43 30 5f 13 89 7b a0 3f
       -0.18243948390580025 0.03219250070068871
0000f0 01 4c c8 45 f2 cf c8 3f ae 4a a4 be 16 a3 ca bf
       0.19384601981491303 -0.2081020766132346
000100 f3 3d d0 b4 02 5d ae 3f 32 bb bc b4 c6 d0 d0 bf
       0.05930336434550645 -0.26274268770332576
000110 d5 6b 63 4c 32 18 a8 3f 8d 13 c1 8d 66 0a d2 3f
       0.04705960447764538 0.2818848022764591
000120 58 9c 85 3a 00 e0 b9 bf c6 e8 46 ba 68 dc 22 bf
       -0.10107423237569557 -0.0001438978043902304
000130 15 8a 92 6c f5 6c ba 3f ff 66 79 fd 7e 86 ce bf
       0.10322507763570628 -0.23847949387236864
000140 a4 7e 72 df 62 d6 c0 3f bb bd 27 28 fb d3 c3 bf
       0.13154254827985767 -0.15490664921479244
000150 ab 3f 70 91 d7 73 c7 3f 8f b1 b0 ff a9 bd d3 bf
       0.18322271920669428 -0.3084511754011822
000160 89 da 50 8e c7 a5 c3 3f 2b 2f 8a 50 34 3e bc bf
       0.15349668931022034 -0.11032416311553266
000170 df b9 a7 ef 70 13 c4 bf fd a5 1b a5 68 7d cb 3f
       -0.15684329702294428 0.21476467191614282
000180 3c f2 9f dd c6 24 95 bf 1f 88 c1 f7 33 cb c4 bf
       -0.020648104931739505 -0.1624512634035122
000190 cc ac bf 5e e5 9e a8 bf 85 66 c3 61 10 a3 c0 bf
       -0.04808728009796823 -0.12997631810758406
0001a0 e5 b9 73 f4 b6 ff c9 bf a1 0d aa aa 83 fe c0 bf
       -0.203116292344432 -0.13276716073242503
0001b0 41 be cd a2 5d d6 a9 bf b7 7f 09 c5 37 2b ca bf
       -0.05046360599851286 -0.20444390412285227
0001c0 c0 d5 4b 33 bf b9 b4 3f 1b 08 76 71 74 21 ca 3f
       0.08095927240704892 0.2041459611901367
0001d0 cd 35 60 78 4c 75 b3 bf 74 b7 2a 7e f1 75 d1 bf
       -0.0760085863004953 -0.27282368966086
0001e0 2e a3 dc 57 53 b2 bd 3f 9b 04 e9 cf 93 eb cf bf
       0.11600228209557592 -0.2493767514406827
0001f0 b1 1f e7 3e 9e 82 a1 3f b8 99 f2 42 4a e8 b7 3f
       0.03419966237885264 0.0933882153936797
000200 65 ae ce a3 4c be c3 bf cc b2 39 d5 bc ed b2 3f
       -0.15424497602849666 0.07394008832643378
000210 4c 44 99 27 6d b1 94 3f b6 9b 96 c7 e6 7b d0 bf
       0.020208077947533362 -0.2575623463730453
000220 73 a0 dc 2f 94 c1 b5 3f 05 13 a2 7d 36 7a cb 3f
       0.08498502892018837 0.21466714033535808
000230 1f 3b dc fb ff 70 d1 bf 7b 16 e1 59 36 fa ca 3f
       -0.2725219688008326 0.21076087368617266
000240 1b 43 53 23 95 f5 c6 bf 1a 66 09 1f 4e 03 bf bf
       -0.17936958527436606 -0.12114418275577812
000250 32 91 65 aa ff e4 c8 bf 8f 13 ac 8f 87 c1 a1 3f
       -0.1944884855285039 0.0346796381836959
000260 c0 10 b3 40 8d 5f cb 3f 95 d8 98 40 05 3d d0 3f
       0.21385350855974217 0.2537243967848409
000270 ec bf 85 16 56 46 aa 3f 7f 52 5d 8f 4c c5 ce 3f
       0.05131787323887224 0.24039608955594713
000280 60 0f de ab bc a5 ce 3f c8 a5 5e f9 47 e1 bd bf
       0.23943289176906557 -0.1167187675297533
000290 b3 ab ed 2f c1 fe cf 3f 4b c4 4f f6 75 ef d3 bf
       0.2499619945550343 -0.31149052671304805
0002a0 a8 7d af 7e 54 19 ca bf 9d 21 a1 4b b8 1f b3 3f
       -0.20389801202598545 0.07470275732442251
0002b0 a3 35 24 18 4b 5d a3 3f 49 fb 7b 62 a1 88 cb 3f
       0.037821146676019234 0.21510712918094502
0002c0 a0 4b d4 33 ef cb af bf d7 02 29 f2 de ba d0 3f
       -0.0621027708786166 0.2614056935163211
0002d0 96 5f c4 e9 23 0c ae bf 3d ca e4 c3 20 0a d5 bf
       -0.05868637302972883 -0.32874316339726645
0002e0 db 2e b5 a3 2a b3 cc bf 3b 2c bb 08 f5 39 c6 bf
       -0.22421772950689597 -0.17364371229482053
0002f0 8b 18 43 70 2b 39 ba bf 99 c8 1f 08 31 d0 be bf
       -0.10243484011434327 -0.12036425064414615
000300 94 1e cb 3c 95 57 d6 bf be 44 10 bf 7d 24 a2 bf
       -0.34909563958033485 -0.035434655736148
000310 a8 01 15 3d bb 4f d6 bf 00 76 5a 7d b2 6b d0 bf
       -0.34861641850514014 -0.2565733169702469
000320 d6 f3 61 b4 f9 09 a8 3f d3 1c 01 15 dc 6a c6 bf
       0.04695110632835735 -0.175136099105862
000330 6a ad 68 a9 0c 3f ad 3f 40 27 96 f8 11 e2 c1 bf
       0.05712165420512856 -0.13971161497129891
000340 46 61 4f 3b 87 2c 84 bf ce 98 35 7d 04 f3 ce bf
       -0.00985055589437479 -0.2417913066266863
000350 d4 56 ff 24 ef 17 d1 3f 20 b4 37 67 1c b2 c6 3f
       0.26708582509068646 0.1773105148307943
000360 ad bb 32 55 40 1f c8 bf 62 b8 9e 84 be 19 87 bf
       -0.18845371398989866 -0.011279571935883751
000370 0b e0 c6 f5 45 06 c6 bf 34 5b d8 b1 66 d3 8b bf
       -0.17206644535849622 -0.013586809446719174
000380 0f 45 c7 53 9a c6 ce 3f 20 f8 bb af fd 31 b9 bf
       0.24043587771169725 -0.09841905155551034
000390 d3 4a 44 36 2b ea d7 bf b8 b7 81 fd 2e 88 d9 3f
       -0.37366752910126627 0.3989369846011601
0003a0 fd 32 b7 30 11 c2 c2 bf ad d7 29 0d b9 96 be 3f
       -0.1465474593991515 0.11948734828351233
0003b0 2c 00 36 aa 9a c5 82 bf 40 6e 4a 74 53 0f b5 bf
       -0.009165962523866332 -0.08226510609750282
0003c0 7a bf db 67 e8 49 be bf 3d bd 32 88 7d 03 b2 3f
       -0.11831524406056629 0.070365758658899
0003d0 64 21 65 f0 14 db c6 bf a5 96 40 ce 6e 42 b8 3f
       -0.17856084573783015 0.09476368461090574
0003e0 23 42 03 f0 bf 51 89 bf 0d 34 4b 0e 5d b2 b9 3f
       -0.012362956535441566 0.10037786101311515
0003f0 f2 33 69 26 89 6d c6 3f 9c ed 04 33 cc 19 c1 bf
       0.17521776557478536 -0.13359978190588329
000400 0c 39 b6 ff 91 96 a6 bf 27 66 ea 26 63 15 ae bf
       -0.044117510285206135 -0.0587569222454472
000410 ed 6b 79 b3 95 b7 b6 3f a5 19 1b f7 2b 1d d3 3f
       0.08873878127762654 0.29865550166541716
000420 b9 f7 9d f2 88 fb aa bf 0b bf ad ed 91 8c ce bf
       -0.05270030938753174 -0.23866485696225256
000430 7b 27 43 80 19 5b a6 bf 7f 5e ff 76 d7 16 cf 3f
       -0.04366378489210284 0.24288457212854905
000440 cf d0 9d d1 4d 65 b1 bf 5e 4c 5b 20 91 d7 c2 3f
       -0.06795202605809723 0.14720357971109171
000450 3d 58 58 69 b1 c1 d2 3f 92 5f 1c 35 9b dd c1 bf
       0.2930720833550174 -0.13957538693716437
000460 66 6e 0c 9b f8 9e c7 3f 5f 44 e1 7e e9 0d b3 bf
       0.18453891344767043 -0.07443103168158548
000470 e5 07 d3 ed 53 ae d0 bf d0 ca bc 11 4a 1f cd 3f
       -0.26064012742074133 0.22751737466895472
000480 33 f6 1d 23 a0 8e 9c 3f 27 44 1c 91 1e 1e cd bf
       0.027887823241590403 -0.22748167119473914
000490 1c a6 2a ac 5a 79 c9 bf 94 06 8e 2c e5 c7 d4 3f
       -0.19901593596050382 0.324700635443244
0004a0 55 a4 35 11 00 20 ba 3f 8b bb 87 66 f5 ca bd bf
       0.10205078525690799 -0.1163781524007687
0004b0 f6 28 46 0e 7c b0 c3 3f 0b e3 01 56 67 d7 ca bf
       0.15382338234878262 -0.20969859790400167
0004c0 23 ce a6 90 3b d2 cc 3f 15 dc 5b 56 18 7e b3 bf
       0.2251657921129758 -0.07614280804033087
0004d0 3f 22 8a e5 46 47 8f 3f 0c a4 84 39 86 b4 c1 3f
       0.015272668724052639 0.1383216648912654
0004e0 a6 6a c1 ae ed 12 7c bf 63 0d 92 81 70 a7 d0 3f
       -0.006853989074523758 0.26021969464655664
0004f0 81 5a fc 4a 8d c1 b0 bf 3e a2 cc 3d 94 fc c3 bf
       -0.06545336800295766 -0.15614560143991868
000500 a2 eb 40 ca be 3a b5 bf 54 a8 51 50 3c 2f a4 bf
       -0.08292763173896714 -0.039422879032671304
000510 20 2c 0d e1 77 ec b2 3f ce 68 7c 12 fa de d4 3f
       0.07392071957035329 0.32610942654868047
000520 19 74 9e 9d 73 da c9 3f f3 bb e3 a8 61 82 ce 3f
       0.2019791144965957 0.23835392710267875
000530 c4 6c f0 bb 53 4e ab bf 9e 82 0e 77 a6 db c2 3f
       -0.05333196324519343 0.14732819379152756
000540 3f 91 59 77 5a 1e c9 bf 6d 03 09 10 41 14 cc bf
       -0.19623881175642485 -0.21936810763329664
000550 00 1a 98 2d 42 ef c9 bf d4 ff 20 46 30 f8 cd bf
       -0.2026140902164144 -0.23413661407721398
000560 b4 ab f2 48 55 32 c8 bf fd d6 2c 20 c7 c3 c2 3f
       -0.18903604566488996 0.14659966536571992
000570 bf 3e 15 25 65 c7 cd bf fd 0e aa cf 44 8f ce 3f
       -0.23264755545323187 0.23874721660478562
000580 51 6f a7 69 e0 85 9e 3f 5b 32 15 76 7d 8b c1 3f
       0.029807573746310215 0.13706939950715732
000590 c5 13 19 ee 9a 29 bc 3f cd 42 71 3d aa 7b c7 bf
       0.1100098449033587 -0.1834614562999576
0005a0 2f 5e b7 71 7d 29 c3 bf c9 f5 77 3d 36 03 c7 3f
       -0.1497036748175886 0.17978551865955542
0005b0 21 21 96 8e 5c 49 d2 bf 13 2e 21 9e a1 ac c5 3f
       -0.28572763370950055 0.1693307897679551
0005c0 2c 98 a4 80 77 a2 a5 bf 8c 46 97 00 0f 35 b5 3f
       -0.04225514836643671 0.08284086002756846
0005d0 1c 43 e2 16 26 05 c9 bf 58 66 00 39 0b fd c0 bf
       -0.1954696284997447 -0.13272228511123063
0005e0 11 1c 44 95 13 16 bb 3f 5f 3f c5 09 12 38 a4 bf
       0.10580561060133699 -0.03949028367298867
0005f0 bd 92 49 7b 23 ab 95 3f fc 17 d8 f4 91 02 c7 bf
       0.02116065444933456 -0.1797659345176611
000600 75 df 44 34 0e 22 98 3f 5d 43 ad a6 d0 34 c0 bf
       0.02356741136574621 -0.12661178720966407
000610 f3 c3 12 90 5d 4c d5 3f 88 17 d4 5e c2 75 ac bf
       0.3327859789815754 -0.05558593185018795
000620 38 61 54 4b 6b 4f c0 3f 69 aa af ec 60 6f ba bf
       0.12742367914393937 -0.10326200273963483
000630 3b dd 54 71 52 82 c7 bf 3d 48 91 91 43 8e c8 bf
       -0.18366461309208568 -0.1918415509013033
000640 93 d7 2e 3d c1 5e c7 bf 2f 71 76 a7 ef 3e c4 bf
       -0.18257918822717709 -0.15817065884483258
000650 a0 7e be 0f 23 71 c5 3f 86 cd 93 77 d2 f4 cf bf
       0.1675151659846863 -0.24965887869585063
000660 7c d4 84 96 0f 1b bb bf 6c fc bc 77 b3 ac bc bf
       -0.10588166641976388 -0.11201020882889318
000670 3b 50 ca 84 fe e6 c1 3f 06 94 26 6d f2 d9 c8 bf
       0.13986188396359175 -0.19415121392844997
000680 9a 42 8b d5 76 15 a6 3f d0 79 92 88 97 b7 c8 bf
       0.04313250881898974 -0.19310278099597022
000690 f5 07 15 b5 01 73 96 3f 33 de e7 7b a4 05 c4 3f
       0.02192309062707661 0.15642219591221504
0006a0 cb bd bd 5b 99 6a ab 3f 1a 33 3b b6 df cd 73 3f
       0.05354766125571649 0.004835008501413518
0006b0 eb 81 77 ee 5c 9a c5 3f 28 72 e7 26 b1 bd c3 bf
       0.1687732853306579 -0.1542264404260021
0006c0 d9 80 56 e1 83 81 c1 bf ca 3a e2 bb a1 5c c5 bf
       -0.1367649889261944 -0.16688939737328773
0006d0 09 fc 36 a3 68 59 c5 bf fd b7 11 78 3f dd b1 3f
       -0.16679103822204436 0.06978222543122566
0006e0 95 12 14 68 05 b2 cf 3f af 5c aa f2 ad 04 a3 3f
       0.24762027341798346 0.03714507662987764
0006f0 ff 4e c7 06 6a fe bb 3f d3 b4 7b 31 4a 59 ca bf
       0.10935080209247515 -0.20584990898297537
000700 88 e7 6d bb 53 48 d5 bf 57 9a 1b bf 82 c9 c0 3f
       -0.33253949454921683 0.13114961940228184
000710 e9 63 41 08 6e a3 c5 bf 42 e7 5f 0b d4 13 d0 3f
       -0.1690499821004601 0.2512102233009622
000720 84 d5 29 b0 a8 a4 c2 bf ff 8b 47 87 6c d0 b5 3f
       -0.14564999200562678 0.08521154692384413
000730 74 42 d4 82 b9 6d c6 3f 5b e3 33 ca d3 54 c5 bf
       0.17522353065625718 -0.16665122388055917
000740 ec 70 26 b6 9e 53 d0 bf 45 f0 bb 32 02 2b 9f bf
       -0.25510375774480454 -0.030437502237859588
000750 3a e9 0d 94 b0 40 96 3f de 87 96 c3 d2 fa c3 bf
       0.021731146847266937 -0.1560920195598205
000760 e7 0a 8e b1 cb 1f c4 3f 58 aa f6 8e 99 a1 c7 3f
       0.15722032708807562 0.18461913567201083
000770 67 90 a8 e7 a8 a7 9e 3f d5 73 c3 3a 72 93 cb bf
       0.029936446322736645 -0.21543720120726442
000780 41 3d 7f d7 2e 33 cd bf e3 aa 45 c6 c4 15 d0 3f
       -0.228124480460318 0.25132865297807266
000790 e2 29 fc 44 0d 38 cc 3f f4 76 83 2d 53 6e c9 bf
       0.22046056621941462 -0.19867934915867347
0007a0 2b d2 d1 a4 f1 d7 b9 3f 1d 7c 44 ad 34 ef d0 bf
       0.10095129274288499 -0.264599961477815
0007b0 eb 75 cc 3d 7c 56 b9 bf 70 7e 40 e9 46 3b bd 3f
       -0.09897591122395226 0.1141857451880186
0007c0 9b ad 1c 75 2a 09 c9 bf c0 a5 d4 e2 e7 b0 93 bf
       -0.195592219527822 -0.01922952959026758
0007d0 fb 05 95 e4 24 51 a8 bf bb 84 69 e5 4e 4f cb 3f
       -0.04749408045109856 0.21335779382483175
0007e0 b4 f4 9d 72 ef fe a6 bf c6 49 7b 90 c1 8a 98 bf
       -0.04491375230916486 -0.02396681255670232
0007f0 5c ec 8d 5a 66 93 c1 bf 35 f7 bb 47 f7 fd a2 bf
       -0.13731078549958198 -0.03709385634100074

linears.1.bias f8 [40]
000000 3c fc f7 7e 2d 2b ac 3f c2 c5 34 c1 5a 5e b1 3f
       0.0550169198504524 0.06784598557421531
000010 e4 77 8b 69 22 e5 ae 3f ae 71 f7 14 49 e6 a8 bf
       0.060341906913649074 -0.04863193875255277
000020 1e 44 41 c0 45 59 a6 3f 2d b9 00 11 d2 5d 92 bf
       0.04364984485494737 -0.017936022079248538
000030 f6 3b be 75 60 60 86 3f 9d 88 00 c5 20 b2 9b bf
       0.010926011651262595 -0.02704669191746999
000040 d1 18 ea 53 19 35 8e 3f 12 dc 47 8e 1c 55 b1 bf
       0.014749715684285654 -0.06770494912767358
000050 8a d5 e5 d4 7b 3d ac bf 9d c1 5d 04 65 d0 a3 bf
       -0.05515658353662463 -0.038699299605357874
000060 87 ff 1e 08 7c a9 a0 3f b9 71 3a 94 f9 4e a4 bf
       0.03254306410917623 -0.039665030807757025
000070 9f 37 83 51 09 6a a4 3f c5 de 2f a3 79 97 a3 3f
       0.03987149353052576 0.03826503865269396
000080 2b 9d 17 6d 06 26 b4 3f f9 78 95 9e 2b 24 b3 bf
       0.07870521701226056 -0.07477066632916153
000090 54 68 dd a3 18 6e a7 3f 31 f7 28 7b 13 94 ab 3f
       0.04576184273055675 0.053864105972463945
0000a0 d9 ef ed a8 18 d7 ad bf db f7 65 b9 17 d6 b1 3f
       -0.0582816797459313 0.06967304493261343
0000b0 82 68 42 80 e3 a7 b4 3f 44 2a 22 b5 7b 95 ac bf
       0.08068677789052184 -0.055827966557519676
0000c0 30 89 e4 64 11 ad 78 3f 82 6c 89 55 ee 3b b0 bf
       0.006024425454855639 -0.06341447437573502
0000d0 03 04 f3 37 e2 50 a6 bf e9 b7 2a bc 7f 91 70 bf
       -0.04358584340071305 -0.004045008625935134
0000e0 8b 71 68 c7 94 59 a7 bf 85 a6 15 ec d4 b3 9b 3f
       -0.04560532507113909 0.027053191098650693
0000f0 67 fc c1 fb 9d 20 96 bf 5f 45 2a d1 40 ee b1 3f
       -0.02160879944903762 0.07004170519419038
000100 12 7f 0c 8b a1 93 a8 3f 63 32 a2 f3 a9 a0 a3 3f
       0.04800133535741059 0.0383351430801653
000110 c3 09 67 bb 41 fb ad 3f 4f 8b 16 95 de 04 aa 3f
       0.05855756199482045 0.050818401049829924
000120 15 27 09 a7 8c 59 9c bf 3b 5e 34 4a b6 87 b7 3f
       -0.02768535394196821 0.09191455184588275
000130 06 ce b4 2d d2 40 b2 bf 8e ba 0d 37 bf 59 ae 3f
       -0.07130159011722279 0.059278464765943104

linears.2.weight f8 [40, 40]
000000 56 44 fd 66 21 0a 9f bf 1f 99 be 56 f8 2b 78 3f
       -0.030312082205743295 0.005901308129898446
000010 03 e1 43 7b 4b be d1 3f 63 8d a2 d4 02 6a ca 3f
       0.2772396758805515 0.2063602007157029
000020 f9 62 42 e7 fa fe a7 3f e1 fb d7 50 c0 1e d3 3f
       0.0468672187136629 0.2987519063462383
000030 c3 3d d9 ba 26 97 cb bf ee 72 61 b9 f2 ff a8 bf
       -0.2155502712580369 -0.04882772934863576
000040 77 55 5f 93 7b 0d a3 3f c5 f9 f9 6d 03 6c b5 bf
       0.03721223997096506 -0.08367940363857602
000050 ad 52 81 9f 8c 0a d1 bf 24 51 08 17 1f 4e cc bf
       -0.26626887871433774 -0.22113407730706414
000060 da a0 6e 8e d5 ba de bf 93 22 d0 7b 2f b3 be bf
       -0.48015345487011774 -0.11992165348795884
000070 b0 46 1b 0c d8 3e a8 3f af 08 71 cb 34 d9 c5 3f
       0.04735446117196085 0.17069110807103047
000080 dc 80 67 c3 18 83 96 bf b8 cf d5 d1 b5 1b b6 3f
       -0.021984469343693344 0.0863603246014567
000090 e9 69 97 fc 80 7e bf bf 51 1f ff f5 53 af bb 3f
       -0.12302404562743842 0.10814404254699396
0000a0 41 b0 16 7c 15 ba a7 bf 52 b6 42 36 b8 d2 a5 3f
       -0.04634158267740008 0.042623287795646406
0000b0 9f 2f 6e 78 7e 1b c1 3f c9 da 40 22 66 c7 be bf
       0.13365155105964008 -0.12023008667243142
0000c0 8b 23 0c f4 b3 e2 bc bf bc e9 f3 cd 38 41 d1 bf
       -0.11283421238125706 -0.2696058284051579
0000d0 28 f2 7c 6d 58 93 be bf f4 43 3c 43 ae 8a e6 3f
       -0.11943581269310555 0.7044287980262411
0000e0 1b 50 07 31 1d f8 d2 bf 5a 44 e2 af 29 de d1 bf
       -0.2963936785502043 -0.27918474365384827
0000f0 c9 d6 68 08 50 5a a3 3f db 41 36 fd ae 51 c8 3f
       0.03779840567260135 0.18999278415550588
000100 b9 e9 65 69 a5 0f 88 bf 3f 58 c4 3e 8f ce d2 bf
       -0.011748592642779042 -0.29385739450060905
000110 63 c7 8a 37 80 0b b5 3f 3c 5b 16 17 02 c3 d2 3f
       0.08220673900612278 0.29315235380765947
000120 7f 0f bf 42 35 66 d2 3f 8d 17 cc 54 22 e8 ce 3f
       0.2874882842845565 0.24145917072763404
000130 cf 47 40 f1 8b b4 db bf 24 20 94 98 b5 89 c0 bf
       -0.4328946929900867 -0.12920255613448817
000140 22 ad 3d 22 51 59 af 3f 9f 6e f6 a2 7c ba bf 3f
       0.06122830908756273 0.12393931368427012
000150 97 3d 9a 43 83 ae c9 3f ef 6e a8 38 22 40 ad bf
       0.2006382064905494 -0.05712992612481382
000160 c0 76 89 8a d6 46 a3 3f 5c 29 e1 da a3 a0 a3 3f
       0.03764982644200421 0.038334961384480976
000170 af 85 b8 87 4a 12 ba bf 32 9c 6e 83 e3 6a a2 bf
       -0.10184160054679724 -0.03597174624820133
000180 4f 22 f3 ac 35 c8 b0 3f 95 a0 38 1c 3f 80 98 bf
       0.0655549571266729 -0.02392672166584527
000190 43 f9 29 b1 9d f1 aa 3f e3 a5 ac d7 44 f7 b1 bf
       0.0526246336712455 -0.07017927422989305
0001a0 81 58 40 25 14 43 c0 bf 7b cd 28 d4 36 2d c4 bf
       -0.12704707926667783 -0.15762982711167325
0001b0 4b ee 8d 20 d8 b7 d0 3f 29 df 07 c6 1a b1 ce 3f
       0.2612209623254997 0.23977980298490678
0001c0 22 8a 64 92 b8 c4 96 3f b2 78 45 5e 5c cd a1 3f
       0.022234805998900715 0.034769903667198135
0001d0 24 40 95 fd f0 89 a4 bf 2d 41 92 b1 e5 1a c0 bf
       -0.04011490912910201 -0.12582083864664054
0001e0 56 be bb 17 ee 80 d0 bf 00 09 53 35 a3 8b cf bf
       -0.25786926572525226 -0.24644889930466007
0001f0 c1 d4 d4 66 b3 4f 93 bf f0 7b 46 d7 ef ba 60 3f
       -0.01885872187741167 0.002042263449950614
000200 53 a5 d2 f7 05 17 cc bf 40 c0 02 63 48 4e b9 3f
       -0.2194526157448232 0.09885075013403455
000210 3c 2c 6c 9b b5 b0 c0 3f 64 c5 f1 9b 95 54 b2 3f
       0.13039274300567338 0.0716031556819608
000220 4b fd 38 4c 93 63 d3 bf 5a 8a 9b 7b df 81 cd 3f
       -0.3029525989877199 0.23052590880895957
000230 5f d7 41 d2 dd 91 c5 3f ff b7 23 a9 f0 07 ca 3f
       0.16851399198975067 0.20336731203809674
000240 3d 84 81 bb 4d 96 ce 3f 4f bf d2 a8 6a f4 a2 3f
       0.23896190314829538 0.03702100096540894
000250 77 c0 0a 33 f6 95 c2 bf 41 f3 fc 17 8e 07 ab 3f
       -0.14520146839413758 0.05279201548407864
000260 57 eb 5b f8 9b ad b5 bf 9f 66 d8 3e 19 6c a2 bf
       -0.08468031705335242 -0.035980976983592365
000270 8a 0f fe 17 ac f2 ca 3f 66 36 a3 5d cf 9b cb 3f
       0.21053076907639606 0.21569244453569353
000280 e4 15 f0 c0 5b 66 bc 3f 42 b6 ed e0 58 e4 7b bf
       0.11093686542888964 -0.0068095657178282604
000290 ff f7 51 f0 70 b2 d0 3f b1 ff 7b 14 a8 7e b6 3f
       0.2608911845089778 0.08787012577158639
0002a0 16 45 ac 59 36 94 c1 bf d0 c2 ea f3 28 14 af bf
       -0.13733558062134738 -0.06070068337920065
0002b0 f0 57 79 f0 f2 ea c6 3f 6d 8d 2c 79 16 67 a4 3f
       0.1790450739087528 0.039848997394325326
0002c0 29 32 b5 8d 7c d0 89 3f e8 c8 e5 89 e4 63 a9 bf
       0.012604687761858706 -0.04959024604149126
0002d0 01 7e 12 56 9b ef d0 bf fb 38 6c 87 81 0f cf bf
       -0.2646244373845264 -0.24266070473135656
0002e0 ff d8 7a 6e 87 34 d5 bf c3 31 33 f5 3b 4a cc 3f
       -0.33133111752557903 0.22101544830947092
0002f0 6f e2 e8 26 24 f0 bd bf 33 d2 e0 2f cf 56 87 bf
       -0.1169455142015836 -0.011396044396044669
000300 e0 a1 9b 85 b1 57 ad 3f 66 9c b2 cc 09 53 c5 bf
       0.05730967288929256 -0.16659662718777496
000310 d3 fd 1a 78 f5 eb c4 3f c7 41 b5 ac 9f 5f a0 bf
       0.16345089306376667 -0.03197955115558986
000320 4e 4e 59 41 68 0b d7 bf 58 32 e8 99 1b 57 d7 3f
       -0.3600712431118368 0.36469163923246617
000330 7b f9 13 e3 74 91 c3 bf b8 b5 1c 89 12 2b c2 bf
       -0.15287648284715857 -0.14193946547440617
000340 36 2a a1 0b 79 15 b8 bf d4 1b a0 7b 16 ce c3 bf
       -0.09407764944004601 -0.1547268012656945
000350 c6 b2 a4 37 01 85 cf bf a2 70 c3 90 eb 78 e4 3f
       -0.24624648301086988 0.6397607638750922
000360 c9 ab 36 b2 08 51 ab bf 8c 40 de 25 1f cf d6 bf
       -0.053352615122399145 -0.35639170358718597
000370 b9 8d 40 b7 c1 b6 c6 bf 08 08 7d 07 c3 7c c1 3f
       -0.1774522919450712 0.13661992898602215
000380 77 c6 54 f8 0b 90 82 3f 2b 38 a7 a9 d2 4b be bf
       0.00906380988689935 -0.11834446565555427
000390 99 84 ec d0 7c b5 c0 bf ad be ae 70 52 2f c6 bf
       -0.13053856088030072 -0.17331915380554133
0003a0 15 b1 1e 48 64 8b b5 3f ea c3 6f d3 7c f1 c9 bf
       0.08415819893588534 -0.2026821167378608
0003b0 9a f1 94 10 74 0c cc bf f3 25 51 21 e6 b8 cc bf
       -0.2191300469365956 -0.22439266802602695
0003c0 a4 74 9e 89 8e 18 ce bf 04 dd 32 49 c2 cb 64 bf
       -0.23512441367794168 -0.002538566078864714
0003d0 4a 36 e3 bf ba 50 b3 bf f5 75 3c 2e b3 95 b3 bf
       -0.07545058426622933 -0.07650298956692565
0003e0 41 ab 39 f4 20 fa ac bf d6 c6 1b 6b c2 d7 c4 bf
       -0.05659583073869224 -0.16283445577533112
0003f0 b4 92 d3 b6 0d 15 b7 3f 5d 26 f2 97 af e7 c8 bf
       0.0901650019982963 -0.1945704929278688
000400 e4 62 a9 db 95 3f a8 3f 3a 1c 38 2e db 90 cc 3f
       0.047360117973487964 0.2231706596068948
000410 6a d6 ac fe 0c 6a c3 bf f2 d0 0a 80 c5 ac c6 3f
       -0.15167391238508127 0.17714756729186082
000420 b1 ef f3 00 85 69 ba 3f b3 46 75 54 58 24 b5 3f
       0.1031726004911764 0.08258583127942636
000430 1b 59 23 8d d3 eb bb 3f 37 b4 b7 3c 2d bb ce 3f
       0.10906717487100474 0.2400871798012376
000440 9a 3f a4 e8 b8 2d cd 3f e5 ed 00 91 f0 58 c7 3f
       0.22795783385708718 0.1824017246270692
000450 f6 bb ab 3d 16 0a c7 3f 8b cd b3 d2 a4 6d ca bf
       0.17999532710334137 -0.20647106445504124
000460 67 bc e5 67 b7 fd 4e bf 26 67 ed 79 3a 05 cb bf
       -0.0009457726990102056 -0.2110970588062681
000470 be 1f 01 36 6d 3f a7 bf 6d 00 e6 58 d1 98 c9 3f
       -0.04540578159554752 0.19997612801307998
000480 a1 de 84 07 c2 71 bc 3f 8d d8 21 c2 6c 41 c1 3f
       0.11111080821580767 0.13480910758125156
000490 b4 f2 b9 75 ba 16 c9 bf 36 89 08 ff ce b4 9b 3f
       -0.1960061144672146 0.027056917491912823
0004a0 47 38 b1 dd d8 9d 9a 3f 55 32 d0 3b a3 f2 d3 3f
       0.025992764025709183 0.3116844257463403
0004b0 7c 48 71 c7 b0 35 bf 3f 9e 4f b8 b2 01 b6 d0 bf
       0.12191300267412147 -0.2611088033020169
0004c0 35 37 6f 86 29 9b b8 3f 0e 41 4a 7a 5d 4e b0 bf
       0.09611758739557959 -0.06369575725171137
0004d0 64 88 79 3b 14 49 c7 bf f6 3b 52 a6 a8 05 d0 bf
       -0.1819176950839988 -0.2503453850012528
0004e0 75 c2 1d ce c2 e1 9e bf 32 c2 fa 1a 56 b7 c0 bf
       -0.03015808470758193 -0.13059498135909703
0004f0 0d 22 b7 43 15 f4 c5 3f d4 9d 62 63 72 55 c9 bf
       0.17151132399000382 -0.19792013027948363
000500 25 03 ff 75 54 6a b1 3f bd d8 06 4b 31 2f c1 3f
       0.06802871590390376 0.1342527023641135
000510 e0 27 e3 19 bf d2 b4 3f 2b 86 7e db 49 ec a1 bf
       0.08134073621764015 -0.03500586323140128
000520 0c a6 db 7c 9b 5b c3 bf 99 42 8c b6 3b 8a a0 bf
       -0.1512331351907935 -0.03230463603370488
000530 fa f0 f3 9f 9f e4 9b 3f d2 d5 4f bf b8 62 c8 bf
       0.02723931707167624 -0.19051274625205267
000540 62 4c 96 88 0a 0d d0 bf aa a2 3d 84 ae 9f c5 bf
       -0.25079596842369345 -0.1689355989176609
000550 48 c6 ad 29 4b 44 cd 3f e1 83 de 92 cb 3d 81 3f
       0.22864665541742313 0.008418646258919029
000560 e3 63 af 0b 74 1d 80 3f c9 e6 7a ed 28 d4 78 bf
       0.007868677717782496 -0.006061706422480114
000570 6b 44 cf c0 d8 91 a4 bf 71 1c ce 6b 29 bf c1 bf
       -0.04017522195466302 -0.13864629520341823
000580 8c 63 6a 38 75 87 4e 3f f0 97 f5 4d af b1 b2 bf
       0.0009316751828293154 -0.07302375462822375
000590 ba c2 7f 5b 22 96 c4 3f cb dd c8 6b c2 f3 cd bf
       0.16083173244216714 -0.2340014482776794
0005a0 c4 b9 05 f7 84 34 b9 bf 56 e9 3e 7c 00 79 d0 3f
       -0.09845763235873678 0.25738536961911984
0005b0 03 00 f2 22 ab eb c4 3f 90 58 c7 e8 ee 91 c7 3f
       0.16344203192056747 0.1841410290350649
0005c0 65 6c 0d f3 e9 16 d1 bf 67 bd bc dd 38 d2 85 3f
       -0.2670235513266504 0.01065487314880782
0005d0 d2 6f 2e 18 a6 06 c9 bf 2c 68 f0 3e 0f 23 bd bf
       -0.19551540547115437 -0.11381621634100786
0005e0 eb 28 93 70 b3 4b b9 3f 49 12 7b 66 a0 53 99 3f
       0.09881135462197548 0.024733072524002506
0005f0 e9 21 37 84 af 39 cc 3f df d9 0b 95 01 29 d0 3f
       0.22051042514637167 0.2525028186350066
000600 4c cb c3 c5 c8 fd ca bf 85 34 d1 9d 23 c6 d1 3f
       -0.2108698812149562 0.2777184525664967
000610 8d ad c1 26 68 89 c6 3f 1e 86 7f 00 4a 6c c3 bf
       0.1760683240166653 -0.15174222015689137
000620 d2 5b 61 76 89 5b b6 3f ea 91 14 ad 1d a8 ac bf
       0.08733424320358488 -0.05597012269780406
000630 91 73 4c 2d d4 87 b7 3f 92 97 ea b3 0b 8a 95 3f
       0.09191633325504102 0.021034415107940747
000640 7c 83 9e e0 20 83 8c bf 02 5f 19 d9 54 cc b0 bf
       -0.013921982626756473 -0.06561785030623571
000650 6a 06 e7 9f 9a 28 bd bf b5 3b 49 dc e5 c4 c0 bf
       -0.11390081790798381 -0.1310088468185008
000660 35 14 de 84 61 06 c2 bf 03 f9 83 cf c9 8f d0 3f
       -0.14081973064108558 0.25877614274203625
000670 70 1c 5f b4 7e 1c c2 3f c3 a8 a6 1f 3f 87 a9 bf
       0.14149459655002117 -0.04985997449269199
000680 2a 29 6d 72 8e b9 bf bf 90 cf d2 f7 cd 0a b9 3f
       -0.12392511647809515 0.09782111454370424
000690 b1 e2 6f e0 28 ed c2 3f 2b e8 42 ff 8a b9 9e bf
       0.14786253889885395 -0.030004665212551778
0006a0 9c 30 0d f5 77 ab cb 3f 74 b7 bd 62 a5 da c1 bf
       0.21617030587583919 -0.13948504754392455
0006b0 e7 85 d0 f8 86 a6 d4 bf 6f e4 30 46 f1 5a 92 bf
       -0.3226640157537006 -0.017925043019407057
0006c0 3f 9b 80 b1 e8 21 60 3f 9b 23 d0 eb a1 f3 7c bf
       0.001969294051395037 -0.007068283562156187
0006d0 d0 1b 54 21 77 c3 c8 bf 2e f8 39 0f 02 87 8c 3f
       -0.19346512915964675 0.013929382409738702
0006e0 5b 5e 5c 0d 1b 23 b8 bf a3 3d f7 3d b3 10 ce 3f
       -0.09428567005340353 0.23488464856789645
0006f0 40 ed 09 0d 75 8f ba bf 6c f5 15 ad 0d d0 c0 3f
       -0.10375148361520292 0.13134928657010947
000700 71 68 89 15 8d a5 ac 3f dd ab c7 f1 3a 87 a7 3f
       0.055950554732320586 0.04595359994330981
000710 4e 7f d1 dd 95 7a ab 3f ec 88 21 98 da 60 b2 bf
       0.053669627501902725 -0.07179037298331864
000720 d6 36 ac 33 2c 24 b6 3f 6d 78 c8 18 9d 16 c9 3f
       0.08648945104161085 0.19600261411773393
000730 68 56 f4 93 18 0a d4 bf 40 52 0a bd 0b dd c2 bf
       -0.31311621140171164 -0.14737078409656768
000740 8b 51 28 c2 37 a0 be bf c7 60 e3 b7 51 02 c2 3f
       -0.119632229711277 0.14069577673831743
000750 da a2 25 4e f2 04 a4 3f 1d 04 ff 5b db 9c c4 3f
       0.03910023883765286 0.1610368918609603
000760 84 5e 70 bc e1 9e 67 bf 36 12 48 c5 2e 28 d0 bf
       -0.002883377924728427 -0.25245255723737914
000770 86 8d 54 1f d0 65 bc bf 31 62 7d 21 80 18 d1 bf
       -0.11092854275607608 -0.2671203925179127
000780 a6 07 c4 fa 6e 6e bd 3f 41 91 c0 a4 be c1 b0 3f
       0.11496633169374934 0.06545630953093441
000790 b0 1b f3 a5 7b 1e c9 bf 30 8c 8c 70 dc 77 b4 bf
       -0.1962427673626883 -0.07995393512514748
0007a0 8d ea fc cf 24 f2 b2 3f d4 4a e4 a7 9c 39 cf 3f
       0.07400732114630611 0.24394567678299117
0007b0 e8 54 f1 45 90 0f b7 3f 68 2d b0 cb 90 02 d1 bf
       0.09008123118958944 -0.2657815922873028
0007c0 43 64 6e da a7 28 a4 bf db 90 55 5c 72 15 d0 bf
       -0.03937267819782921 -0.25130900399223116
0007d0 69 ff d6 05 a6 aa c2 bf a1 e0 8d 87 3c bf a8 3f
       -0.1458327797427004 0.048334018275398856
0007e0 f5 f9 07 b0 8a 92 b2 3f a2 bb fc 5b d9 6f d2 3f
       0.07254854962955178 0.2880767248452064
0007f0 84 e6 e2 0a 8b f3 d7 bf ba 65 53 bb 9d 3c ce bf
       -0.3742396932899299 -0.23622485777631913

linears.2.bias f8 [40]
000000 c8 aa dc 68 1c 54 86 bf ed 3b 76 00 99 05 a4 3f
       -0.010902616453298278 0.039105206781748204
000010 b1 fb d0 14 7e 1b a9 3f 43 aa 2d e5 46 c2 77 3f
       0.04903787616830558 0.005800511297688052
000020 83 f6 f7 d9 f5 9f a1 3f ae 7a 2d 01 21 d7 96 3f
       0.03442352567433906 0.02230502671897721
000030 03 4d 72 8a 38 3a ab bf b9 7d f5 3a 3e db a4 bf
       -0.05317856493015862 -0.04073519201005688
000040 75 10 eb 2a 19 fc a2 3f 14 1d 5c 20 92 96 ad bf
       0.03707960747627307 -0.05778938908593481
000050 2e f3 71 37 52 2b a8 3f 5f 0b a8 a4 32 4a 8c 3f
       0.047205514209940666 0.013813396119990605
000060 8d 9c 5b ff 41 41 84 bf de db 7a b4 a1 25 a8 3f
       -0.009890094380763404 0.04716210678218834
000070 f5 ed 09 bc 7a 43 a8 bf 59 f2 8e 46 16 6d a4 3f
       -0.047389827207520975 0.03989476786907593
000080 b5 09 31 61 6d ed b1 bf 26 fb fa 70 b4 a4 a7 bf
       -0.07002910254326518 -0.0461784732738038
000090 d8 98 14 1c 87 16 b0 bf 82 55 d7 64 65 bb b0 bf
       -0.0628437465244106 -0.06535943710271933
0000a0 da 1d d6 cf 95 ae a4 3f 6a a9 4c b7 b0 83 a6 bf
       0.040394479389813845 -0.04397346723119962
0000b0 46 d2 d8 80 f7 dc a9 3f df f7 45 a4 85 6c 77 3f
       0.0505139679702649 0.005718729055272902
0000c0 06 7c f3 78 2f 79 8b bf 35 03 15 66 40 2d a3 bf
       -0.013414736631999002 -0.03745461698645728
0000d0 cf 72 7f 4a c0 4f a5 bf 83 25 6c 52 68 7f a2 bf
       -0.04162407788655786 -0.03612829214223281
0000e0 89 5f 2e 1d d9 67 94 3f 95 52 59 cb f4 9a 8e 3f
       0.019927399068904648 0.01494399304935116
0000f0 84 ae 77 6f 2a eb a7 bf 46 61 00 60 2a 2d 99 bf
       -0.04671604738890969 -0.02458635531374511
000100 a2 90 54 c7 49 ff 9b bf 0b c6 c7 19 66 29 9e 3f
       -0.027341034690053896 0.02945479900694718
000110 87 6f cd 2a 9c d2 63 3f d3 b8 fc 6a 42 f5 a2 bf
       0.0024197626247949885 -0.0370274310683826
000120 95 a1 84 dd eb 05 a3 3f 7c ae df 2e f3 6b 95 3f
       0.03715455130651716 0.020919608818003685
000130 22 fa e4 99 4f a1 94 3f d7 81 9d 69 c8 d6 a1 3f
       0.02014660240933542 0.03484178818939981

linears.3.weight f8 [40, 40]
000000 e7 ff a2 8c cc 6e d8 bf f2 4c 70 13 f2 2b c0 bf
       -0.3817626355557863 -0.1263411135592843
000010 54 c3 b8 02 23 76 d8 bf 9b 90 58 16 eb 40 d6 3f
       -0.3822104956225776 0.3477122991773826
000020 21 1a 74 8f ab 2d d0 bf 1f 48 1f 2d 4d ba c4 3f
       -0.2527874852097814 0.16193546965820446
000030 53 43 a0 7c 02 b2 d1 3f 30 bd b5 2b 5d fd b8 bf
       0.2764898507166908 -0.09761602704178496
000040 fd 66 1f 3e 35 61 c5 3f 9f 6d db 01 6e be c7 3f
       0.16702905209859145 0.18549895373039946
000050 74 ac 19 f1 0a aa ab bf 46 7a 1d 75 68 24 93 3f
       -0.05403169816130396 0.018693573139325424
000060 d8 84 45 4b f5 9e c2 bf 1e 6a 62 6e d6 b4 d8 3f
       -0.14547601867074067 0.3860374525044409
000070 b6 aa 60 d6 97 92 94 bf 69 c6 da 5c 08 70 cb bf
       -0.02009045835454045 -0.21435646566310432
000080 7c 9b 87 45 22 1a c0 3f e7 fd 77 56 ec 54 ce bf
       0.1257975425243919 -0.23696665021996852
000090 9e 2e c4 d7 3b d3 e2 3f d4 1e 30 57 c7 b0 cd bf
       0.5882853712259537 -0.23195735699868314
0000a0 58 9f e3 f6 5f 73 cc bf e7 8d 26 70 fe 36 d0 bf
       -0.2222709613336018 -0.2533565612049799
0000b0 f5 19 45 01 00 d3 98 3f aa 59 e1 50 9d df c4 bf
       0.024242401196966374 -0.16307417344314717
0000c0 eb 74 d6 80 ca 76 c4 3f 66 4a db d3 a2 04 df 3f
       0.15987521448997852 0.4846579617416523
0000d0 6f 31 6c d6 4d b8 c6 3f 87 b6 fd 30 b3 f1 cb bf
       0.177499513338613 -0.21831359760419763
0000e0 82 01 d7 02 18 f0 c1 bf 69 b8 40 d3 22 51 e1 3f
       -0.14013958109536523 0.5411543012649079
0000f0 72 29 72 30 05 35 bc 3f 98 f4 53 53 62 a1 96 3f
       0.11018402512323691 0.022100006423887736
000100 30 7b 39 22 44 52 d0 3f d0 0d 81 99 bd 00 bd bf
       0.25502112714996183 -0.11329255101832492
000110 29 3a 6a 90 15 7e d7 bf f3 15 e2 28 e5 0a bb bf
       -0.36707057097456414 -0.10563499687312809
000120 e9 6d 1b 02 49 ce bc 3f 4f 05 57 39 a9 2d df bf
       0.11252266217655173 -0.4871619281730845
000130 a2 ba dc e9 22 f7 e2 3f a5 f3 87 3f 10 8d a0 bf
       0.5926680152532138 -0.03232622886205342
000140 99 89 3d cd c7 08 ce bf b7 b2 5e 85 ee ac c1 bf
       -0.23464295884612055 -0.13808995735361915
000150 fc d2 d2 a1 a8 c6 cb bf 18 5c 9b 2d 5f c1 c0 bf
       -0.2170000829843487 -0.13090123869798798
000160 81 c1 43 3b 18 7f c0 bf 2a 92 1f 64 b1 c8 cf 3f
       -0.1288786210420874 0.24831216229280645
000170 19 49 71 f5 5c c3 ba bf c4 00 1b bc 02 96 be bf
       -0.10454350464104713 -0.11947648136538463
000180 d6 f2 9d 27 25 d9 d3 3f d1 0b be 66 77 a8 cf 3f
       0.31012848728987075 0.2473286868735998
000190 28 01 73 61 09 a3 b6 bf 08 68 da 0d fa a2 75 bf
       -0.08842524174815891 -0.005282379888422291
0001a0 ff cf ce c7 6d 52 94 bf e5 ce 16 3e f4 ab 9a 3f
       -0.019845691032699616 0.02604657772981413
0001b0 db 9d 21 9f 07 e2 ce 3f b9 86 e0 84 70 7d c3 3f
       0.24127288122256982 0.1522656105817555
0001c0 cc 28 86 c6 6d 47 d3 3f 3a 5a 9c e1 44 c3 ca 3f
       0.30123466860881076 0.20908413902425754
0001d0 63 70 36 6d 2f e3 ce 3f c3 b1 bb f1 92 f4 c4 3f
       0.2413081439270882 0.16371380618455875
0001e0 b4 5f 26 2a 03 e5 93 3f de 17 eb ed 35 6d c1 3f
       0.019428300330758666 0.13614534489732838
0001f0 d6 d6 f5 9d e5 91 c2 bf 72 b0 d3 c9 3e 08 ad bf
       -0.14507742131143314 -0.056703531395982845
000200 4a 75 61 92 2c 7a c6 bf 66 d5 df e0 d2 ee 90 3f
       -0.17560345790381354 0.016536040282479368
000210 f2 94 59 1a 4a 00 b1 3f 0c 26 21 53 69 8c a0 bf
       0.0664106668787843 -0.03232125415577167
000220 ce 2d be d2 27 d5 c1 bf c5 18 cc a0 43 aa dc 3f
       -0.13931749143772126 0.4478921003614114
000230 3a 40 ba 2d e6 8f b0 3f 57 d9 de e0 40 55 c7 bf
       0.064695726551009 -0.18228922824864455
000240 bf c5 54 60 ab 60 c3 3f 99 42 c3 df e8 9c a8 bf
       0.15138761714619695 -0.04807212573507975
000250 fc 9d a6 d2 71 0e d3 bf d5 dd 0a 49 9f b4 b2 bf
       -0.2977566296708287 -0.07306857617628933
000260 aa 7d 8a ed 8b 62 98 3f bf f4 35 27 be 31 c8 bf
       0.02381342542014201 -0.18901802935207532
000270 87 7e 8f f4 24 5b ac bf 28 ed 9a 75 c8 5a c2 3f
       -0.05538287625654186 0.14339547865334024
000280 b7 4f 77 25 15 2d ba 3f 69 3e b0 a6 d5 1a a7 bf
       0.10225040592859967 -0.0451266065575709
000290 31 e6 25 90 da ce cc bf ce 75 ac 68 2a 23 87 3f
       -0.22506267584303566 0.011297541922938328
0002a0 88 cd dd e1 5b 49 af bf 64 d7 a7 82 43 b0 aa bf
       -0.0611065591064302 -0.05212603540341723
0002b0 b7 7b df 05 6b 65 41 bf f1 42 ec 4d 4e 0a cb 3f
       -0.0005308888028102619 0.21125201039151123
0002c0 b4 68 44 fc ed 89 b3 3f bb d6 3b 54 45 b2 ca bf
       0.07632338913791409 -0.20856539357162326
0002d0 d7 11 44 3e 6a 50 d0 bf 18 4e 35 c4 76 d5 c9 3f
       -0.25490814285902047 0.20182690220336563
0002e0 d3 aa 4f a0 d8 21 b6 3f 18 a8 ef 8f 03 d1 94 bf
       0.08645395196769394 -0.020328574810186323
0002f0 a9 a3 7b 19 88 ea d2 3f 46 26 2a 77 62 02 ce 3f
       0.2955646752221193 0.23444777315698867
000300 9b 57 10 91 49 02 b4 bf 2d bb 7c 83 c6 cb c4 bf
       -0.07815990249250009 -0.16246873302721934
000310 df cc e0 a3 66 9e 96 bf d5 db 5a 90 0c 4d c0 bf
       -0.022088626625372917 -0.12735135124759603
000320 0b d6 93 96 27 1b 8b bf 8e 37 ea af 23 f2 d1 bf
       -0.013235387118110805 -0.28040401629629563
000330 dc 1e 6b c8 fe 40 96 3f e3 0a da 40 04 8a af 3f
       0.021732312185831812 0.06159985820433691
000340 68 f3 b6 00 fb d3 ce 3f b1 5e c6 39 36 9c bc 3f
       0.24084413084883782 0.11175860319633092
000350 e9 1c 1a 8b 5d 0b c8 bf 86 d7 d2 45 c1 26 d3 bf
       -0.1878468445977213 -0.29924041575156257
000360 34 d7 88 35 5d 35 8e 3f 29 d6 f9 7d ed fd b9 bf
       0.01475022143959457 -0.10153087926467975
000370 05 9f 88 fe 3f 44 c6 3f 2e 23 b6 58 63 61 bf 3f
       0.17395782402422114 0.12257977405364492
000380 b2 ba d5 8f 43 26 d5 3f ab 44 f4 49 97 32 c3 bf
       0.33046044393897056 -0.14998141394656747
000390 53 cf 85 3a 75 c7 a0 3f 42 67 69 46 44 4c d0 bf
       0.032771743196376456 -0.2546549499144143
0003a0 72 c9 3a 16 6b 39 b0 3f 91 f6 a4 81 6f a5 cf bf
       0.063376133849294 -0.24723619299213742
0003b0 75 1b 3e 99 13 60 c0 3f 98 a6 ef 7a 65 c6 b7 bf
       0.12793202383565086 -0.09287103892679693
0003c0 9a a6 2f 84 ec 86 c3 bf f6 04 62 bd cf 14 c1 3f
       -0.1525550504150502 0.13344761607371652
0003d0 27 64 3b 27 7d 16 9d bf 72 c0 f9 21 1b 35 cf 3f
       -0.028406100768595757 0.24380816611256112
0003e0 0b 83 d6 81 a5 54 bd bf 3b a9 d7 04 09 94 d1 bf
       -0.1145728532778884 -0.27466035340207257
0003f0 42 66 e0 f0 56 d3 a9 3f 13 a0 f8 39 f8 f8 9a 3f
       0.05044051828754138 0.026340368784218592
000400 1b 75 7b 54 1c 0d 9f bf e7 31 0f a4 d7 d7 a7 bf
       -0.030323450714481042 -0.04656862142255474
000410 ff 20 7f 9b 2f e9 c1 3f 20 cc 50 fb 03 60 cd 3f
       0.13992877094847953 0.22949266215582131
000420 62 91 63 00 35 4b cf 3f b7 85 29 12 a9 6f c0 bf
       0.24448263663283415 -0.12840760599924092
000430 27 f7 10 90 c3 ed c7 3f 1d c2 09 c6 d4 28 c9 3f
       0.18694347891317273 0.19655856771306982
000440 0a e7 75 c4 5f 33 b4 bf 68 31 9c 05 8b eb d1 3f
       -0.07890890642547901 0.2800014071260848
000450 b4 b6 2c 4f 84 49 8b bf 71 25 b1 c1 d8 55 d0 3f
       -0.01332381598112007 0.25523966708404716
000460 6d 04 d8 2c cb a3 8a bf ed 1e 13 72 a5 75 8a bf
       -0.013007724100136476 -0.01291970495584801
000470 41 fa cf cc f9 72 ad 3f d1 0f 9e 05 1f b0 75 bf
       0.05751782059813993 -0.005294915370431101
000480 1a ba 86 92 f3 9a 98 bf 47 a7 b5 36 41 2a c7 3f
       -0.024028592890028212 0.18097701236120597
000490 de c8 30 65 b6 dd cb 3f 5c 94 a8 0f f7 43 d9 3f
       0.217703627976852 0.39477325944091546
0004a0 cf 0f e5 95 bc 36 9c 3f b7 15 ff 9c 69 1a b6 bf
       0.027552553795672282 -0.08634052355690512
0004b0 92 92 29 1f 3f 68 fb 3e e2 d3 19 f2 72 74 b0 3f
       2.613755527604512e-05 0.06427687082926029
0004c0 37 aa d9 0a ed 5a a0 3f a4 88 2c 8b 2d e9 cd 3f
       0.03194370992135414 0.23367852492908014
0004d0 e6 c3 80 2e 85 c7 c3 bf 91 d2 b7 c6 3c 8e b3 3f
       -0.15452637453702706 0.07638912059321458
0004e0 b8 77 02 71 52 29 c3 3f 8f 3f 3d d1 25 9b 9a 3f
       0.14969854848908226 0.025982466598463424
0004f0 93 19 8d 69 6c 52 b8 bf dd 0a f9 04 58 6e d1 3f
       -0.09500768258030794 0.27235985265376234
000500 a9 5c f7 a6 0b c4 d1 bf 50 93 65 f1 b1 46 52 bf
       -0.27759066872881505 -0.0011154878353291826
000510 1f 14 dd 8a 18 e6 c5 bf b3 e1 5b 5c 06 09 a1 3f
       -0.1710844686550965 0.033271979116708116
000520 4c f6 e7 f8 14 59 b9 bf 80 7b 56 9e e6 3d c1 bf
       -0.09901553227242593 -0.13470156413401568
000530 3e 41 d2 ad a5 a6 c9 bf fc 0d a0 f7 e2 a0 7c bf
       -0.20039816844337993 -0.006989370909653566
000540 cd a7 77 c0 d7 05 ca bf 97 46 78 6c f8 7a b5 bf
       -0.20330330751249762 -0.08390762947262896
000550 94 2e 72 84 6a 61 aa bf 5f 46 6d 08 b6 41 c2 bf
       -0.051524475734450764 -0.1426303425928834
000560 b3 ef 8d 02 da 7a d4 3f 87 2b 03 c1 04 78 94 3f
       0.31999826669175063 0.019989084511319113
000570 89 7f 75 11 d5 ff a8 bf b7 22 64 65 6d de 8a bf
       -0.04882684553262979 -0.013119558960640416
000580 65 74 2c e6 9d a8 c5 3f 12 17 64 86 0d 1d c9 bf
       0.16920827616641812 -0.19619912206706452
000590 a4 4b 37 63 49 7c c8 3f a3 5b 4f 6b aa a7 ca bf
       0.19129292816668653 -0.20824175109620766
0005a0 aa 41 2f d1 41 9f ca 3f 0a c3 82 86 bb 18 d1 bf
       0.20798514093486392 -0.2671345532972259
0005b0 f3 f3 2e c8 32 30 c6 bf 26 9f 25 d8 f8 b6 cf bf
       -0.17334589743214188 -0.24777136377383008
0005c0 fc eb f3 29 b0 6b c6 3f 56 9e 48 e4 4e f7 d5 3f
       0.1751613812301399 0.3432194928486515
0005d0 fd 20 70 83 0f a5 b2 bf cf f2 2d 83 70 6e db bf
       -0.07283112486777905 -0.4286156922387762
0005e0 9e d6 78 4b e4 68 a5 bf a5 b8 f3 a0 ad 41 d2 3f
       -0.04181588574685445 0.2852586814686993
0005f0 83 6e 35 8e af ed b3 bf ba bd 3d 5f d6 5b c5 3f
       -0.07784554693119543 0.1668651547474676
000600 a1 5f b1 14 47 c8 d5 3f ad 0b 2f f9 96 59 b1 3f
       0.3403489782408489 0.06777328094089681
000610 4a ae 7c 48 53 07 d4 bf f1 df 7c 4c 0e b8 78 bf
       -0.31294710234462697 -0.006034904341326795
000620 4f da 88 86 20 42 cb 3f c7 1b 80 3b c9 4a cb bf
       0.21295553750106186 -0.21321978955549367
000630 98 bd 7f 12 f4 69 ce 3f 01 77 53 36 a4 e9 cf bf
       0.23760844138403736 -0.24931767132414254
000640 ef e5 ff 78 8d 11 d0 3f f9 f6 89 7a 41 9a c7 bf
       0.2510713273655644 -0.18439501269670425
000650 3f 68 8a 3a b7 4f c3 3f bf 91 e8 0f fe bd c5 bf
       0.1508702312319787 -0.16986060883313134
000660 54 1d 61 75 ac f4 c8 bf dd dd 35 0c 1e 53 b0 3f
       -0.1949668477193237 0.06376827047448992
000670 39 7d b4 0d 8a 3b c0 3f 9a 96 4a d8 88 94 b3 3f
       0.1268169943732376 0.07648520737219613
000680 24 be 07 26 bc 36 d2 bf 9f e6 ad 30 47 4f a5 3f
       -0.28459075654879684 0.04162046879987468
000690 3b c8 0b 05 a2 5e a8 bf 29 b3 d5 24 f7 fa b3 3f
       -0.04759699164959882 0.07804817818914657
0006a0 ad 08 04 00 b0 41 c4 3f 82 67 cf 19 45 0c bd 3f
       0.15825462342042354 0.11346847419863873
0006b0 8a 3f 9a b9 16 94 b9 bf e7 1f b6 25 3f 67 a5 3f
       -0.09991590529739205 0.04180333457321677
0006c0 bf 8e de 50 df 0b cc bf 4e 63 32 84 f8 8e c6 3f
       -0.21911231468867773 0.1762381215565036
0006d0 56 a2 f6 2f 8e a7 bc 3f f0 e2 49 86 96 bf bf 3f
       0.11193169280034829 0.12401715067415942
0006e0 fe 79 6c dc a9 9d c9 bf a1 b9 1e fa 17 d0 c3 bf
       -0.20012400877835995 -0.15478801453487015
0006f0 66 f9 7c 6c ea 2e c6 3f 5f c9 21 db 2e 7f b2 3f
       0.17330675408625068 0.07225315904523687
000700 21 41 10 59 e9 81 bd bf e2 76 cc 37 e4 2c c7 3f
       -0.11526354240800575 0.18105747913880693
000710 a7 7e 4b 8a 83 89 c1 3f d4 c4 43 4c 8c 8a cb 3f
       0.13700908901863793 0.21516565059531578
000720 e2 9e 13 f7 f5 98 cd bf 91 29 9d 9d 76 e5 ce bf
       -0.23123049320496764 -0.24137766548149078
000730 72 aa 30 3f 2d 95 76 3f 4e 2d 81 ab 29 66 cc bf
       0.005513359780744952 -0.22186776041267325
000740 49 58 d4 44 3e ca c4 3f 2f d3 0e 24 8d 37 b5 bf
       0.16242197380842274 -0.0828788960487372
000750 88 94 36 8b 8b 06 d0 bf 3a 44 94 2d e1 94 d0 3f
       -0.2503994807723946 0.25908688975420413
000760 15 6f a5 ae c7 fc b8 bf c5 99 0c 91 c0 76 c3 bf
       -0.09760711683105357 -0.15206152994615088
000770 2c 0e e3 e8 4c 53 b3 bf 0b 43 39 46 0b 40 90 3f
       -0.0754898136684054 0.015869308625329242
000780 05 80 b9 bc b1 09 ab bf 39 4f 71 99 87 fb c0 3f
       -0.052808336532280044 0.13267607681575003
000790 e1 84 a3 6f ef 1d b8 3f 63 74 63 54 3d 7b 9e 3f
       0.09420677638583498 0.029766996646561582
0007a0 a2 99 3e 4a 60 58 c8 bf 3c 50 1e f6 75 35 d1 bf
       -0.1901970255396011 -0.2688879874706378
0007b0 4c b3 8d fb 0e 20 b7 bf e4 46 7c 59 fb b4 cb bf
       -0.09033292428439416 -0.2164606272640902
0007c0 61 70 d7 29 64 0d d1 3f 3e aa 7b 09 07 2c ba bf
       0.26644233785714816 -0.10223430615921189
0007d0 a0 10 46 ec 70 b2 d1 bf 12 35 00 2f 55 86 c8 3f
       -0.27651618074038176 0.1915995101448194
0007e0 4b 50 6e 5e 29 27 c4 3f d6 89 16 a4 70 ec c1 3f
       0.15744511710056694 0.14002807628737796
0007f0 a1 6a 25 4f 90 1e cf bf 26 59 1a 71 fc a2 b7 3f
       -0.24312023033674726 0.09233072053243471

linears.3.bias f8 [40]
000000 57 7c 58 07 95 ae a0 bf 85 c3 7e 7b c3 4d 90 3f
       -0.03258195604961916 0.015921644604250957
000010 c9 ac dd 4c c5 06 93 bf 3d e8 bc c1 6e 2b 86 3f
       -0.018580515686534214 0.010825028693592137
000020 a6 28 c3 15 2b 20 97 3f 84 dc 70 82 e4 c7 a2 bf
       0.022583649829166184 -0.0366813096265384
000030 d4 2f 6d 13 1c ce a3 3f 1a 91 8e 81 ae 89 ac 3f
       0.03868186700000789 0.0557379277372851
000040 f3 07 5b 9b 2a 9b 78 bf c3 12 cf 73 29 41 90 bf
       -0.006007353241956881 -0.015873573010838592
000050 ac 11 0e 9f f2 01 96 bf 19 e5 0c 94 f1 72 b2 3f
       -0.02149180503649155 0.07206640114317898
000060 b3 38 d5 38 68 4c 9d bf 7d 0b 59 72 00 d9 98 3f
       -0.028611782521061623 0.02426529596256043
000070 59 c0 61 cb ef 0d aa 3f e9 e5 33 6c 5c 65 a1 bf
       0.05088757856071941 -0.03397644825777119
000080 2c 5c c2 b1 ee f0 99 3f ce 6c a6 01 6c f9 9a bf
       0.025333146667062476 -0.02634209404059789
000090 31 fb 60 95 97 dd a3 3f 09 5d 6c fc 55 09 a3 bf
       0.038799988732071695 -0.03718060213412328
0000a0 c1 27 73 e7 d4 eb 97 bf 67 4f f0 f8 44 e0 97 bf
       -0.023360563875747923 -0.023316457456601294
0000b0 45 36 3d 6b 19 51 8d 3f 46 a0 94 41 1c 46 8f 3f
       0.014314840874841592 0.015270443679199396
0000c0 4b 83 ab 86 01 9d 9a bf 0a 09 c4 a6 51 63 6f bf
       -0.02598955521068839 -0.0038315386537998196
0000d0 70 c5 2f ff 8d 5c 96 bf 21 32 b7 d6 c6 7a 9e bf
       -0.021837443065981288 -0.029765230994415973
0000e0 ff 64 a6 24 d9 d3 81 bf a0 59 73 0d 6c 1b ac 3f
       -0.008704849654167733 0.054896713869015956
0000f0 9f 26 81 78 75 ee 39 3f 1c e8 f6 21 6b ed 7a 3f
       0.0003956829828025507 0.006574076163298439
000100 e4 f5 5f 78 a2 b1 96 bf 80 14 2a 5d 14 4d a1 bf
       -0.022161997410867232 -0.03379119527111474
000110 78 65 ec df a0 4e 9c 3f e4 6b 63 9b 0d 59 a2 bf
       0.02764369360656846 -0.03583567163305881
000120 b8 f9 87 2f 30 81 8b bf a5 51 8e 40 08 bc 96 3f
       -0.013430000734840117 0.022201661052876926
000130 21 dd 94 83 26 1e a9 3f 72 37 29 b4 ef 08 a2 bf
       0.049058154642290804 -0.03522442888480172
