1D_Transcritical_Inverse_Problem_n_initial_0_01/Models/Model.ckpt-2500.pt (torch, 82380 bytes, 43 tensors)

linears.0.weight f8 [30, 1]
0.40621867952582724 0.011717077502642524 0.3227638137142936 -0.28803225757287526 -0.32010023560964773 0.15712389492360113 0.21731899937329002 -0.37811182442538094
-0.011260995969208034 -0.011944673422113987 0.3486336772705878 -0.010923264345180336 0.01428055757748811 0.20736215488928664 -0.3021258365576184 -0.17932355467435834
0.3657705676888008 -0.06117154834706963 -0.013320500706575606 0.38364572956595866 -0.052697199384783705 0.34587072595369145 -0.21366201167534635 0.012246065827745341
0.11404855139185079 -0.013060762366851818 -0.12546092987740193 -0.03542904379227629 0.28285724845009186 -0.4198618101827537
00000000: 6a9d e5a1 7cff d93f 0caa 6d85 1fff 873f
00000010: 530c 0f8e 29a8 d43f affc 9dd9 1e6f d2bf
00000020: 46a9 d8b2 857c d4bf 18fa 0ec3 a21c c43f
00000030: f0c9 8de5 1bd1 cb3f 70d3 08f0 fb32 d8bf
00000040: fbdc 434b 0110 87bf 69cf aced 7276 88bf
00000050: 4454 8aa0 0350 d63f cb5f 06b9 ef5e 86bf
00000060: 2f95 1cfe 1f3f 8d3f b3ba d6d4 d78a ca3f
00000070: c6a9 d29a 0756 d3bf 884a 5d01 13f4 c6bf
00000080: 2804 84f4 c868 d73f 6254 318f e051 afbf
00000090: 2a6d 3557 c747 8bbf 3618 6fd1 a68d d83f
000000a0: 9499 e597 20fb aabf 3f5a 27f8 be22 d63f
000000b0: 0387 45dc 4659 cbbf 3eee e021 7714 893f
000000c0: 4159 622e 4932 bd3f 39c8 cfd9 99bf 8abf
000000d0: 7ae5 5f8f 1a0f c0bf 8f2f d570 c123 a2bf
000000e0: 76e6 e149 551a d23f 1ec1 e411 04df dabf

linears.0.bias f8 [30]
-0.07899969750762625 0.018145966701185626 0.1071737852976595 0.10462458314956768 -0.0937885406864663 0.11017263329721497 -0.13017839692263503 -0.0464114944864474
0.05710629601064894 0.08779385252859455 -0.09428903514492729 0.15609081097851352 0.022884710912023744 0.033270001688044296 -0.10187351837292459 -0.09768086959021294
-0.0830151216983428 -0.1237093452521297 0.18495392081660428 0.0968111180913034 -0.09163064978408945 -0.14013876090193111 -0.03134668167485606 -0.20108880000329957
-0.11441072662907173 -0.031001975430253192 -0.06484435118281347 0.1779069956648112 0.09568116798617278 0.02417841268325133
00000000: f86b 30fd 5239 b4bf 41c2 2436 db94 923f
00000010: 8e8b d7be bd6f bb3f a82a fc3a adc8 ba3f
00000020: 84e9 fc9a 8602 b8bf 3afd ec10 4634 bc3f
00000030: 9dd6 b68a afa9 c0bf 0b9f f455 3fc3 a7bf
00000040: 7ada 8553 093d ad3f eb70 666d a879 b63f
00000050: a2a0 5182 5323 b8bf 40ee 2da0 c8fa c33f
00000060: ea3f c8f3 166f 973f 8243 6002 c408 a13f
00000070: 897b bd05 6214 babf d0b5 550c 9d01 b9bf
00000080: 5091 c4a0 7a40 b5bf b645 1168 6aab bfbf
00000090: 1a4f 96f0 91ac c73f 3162 170a 9dc8 b83f
000000a0: db46 2234 1b75 b7bf a0e5 7c21 11f0 c1bf
000000b0: ea64 4319 ac0c a0bf 4193 cd1d 47bd c9bf
000000c0: 32f7 2e79 054a bdbf 635b 565a fbbe 9fbf
000000d0: 0518 a9af a399 b0bf c113 0e0c a8c5 c63f
000000e0: 59fc 579f 8f7e b83f 319b f9ce 39c2 983f

linears.1.weight f8 [30, 30]
0.09885804865201595 -0.3571153320369778 0.20581058227378732 -0.19598729075303015 0.18871148284551717 0.12847153979035322 -0.2386739197747541 -0.1530153487720196
-0.1251177380350356 -0.16438292965664755 0.0204551983540024 0.40041719502152673 0.2113067042210144 0.002788768252566101 -0.2503719452751026 0.17135134359355614
0.06436466592793996 0.17628831468077155 -0.07542519244431159 -0.23854893515594322 -0.21154086414614434 -0.09084803809224073 -0.21121327489864108 -0.31570909655619483
0.015248389726071027 0.2562959546945578 -0.1763027292447931 -0.1900043672061732 0.18799432869830343 0.05538509985708869 -0.02979659037308316 -0.1948446925067571
0.04086504823849085 -0.31269140120176114 -0.14991100073207603 -0.007455469055754831 0.24608195779149047 0.12927494682889415 -0.2018660518348019 0.09595781935423242
0.1744342326279953 -0.2717394352573236 -0.05139082491192666 -0.19588015023707858 -0.05856405521171065 0.0972880769917382 -0.0394461761298467 -0.271040864367537
-0.03359205701928774 0.0010183590917727796 0.05997299433321697 0.05237443596182846 0.08490319819000733 0.1363856774160298 0.18288316188897774 -0.08263351718915488
0.019373029217664036 0.24056133245911954 -0.014300769560701964 0.1645115365340668 -0.21156366587727748 0.09196196868488599 0.18792905944462848 0.10058775104312775
-0.020874413023943644 -0.13037077491419255 -0.09539286540291536 0.09115811576698384 0.1431034775445989 0.0339964669772841 0.04881864591292444 -0.34166367283303684
0.050587495868593596 0.05776882240257436 -0.20541835305830367 -0.0621558498746072 -0.04303088954385503 0.29788275931616154 0.17527484269515092 0.2638012425116885
0.3178050876337854 0.1867632709897247 -0.26337301509773237 0.4500893212319597 -0.21656410901619585 -0.10155419222446366 0.26263051593517756 0.22640174391362106
-0.20483030456529522 0.022743679741172713 0.10306937802203618 0.24106649878766417 0.09906409670833796 0.23001733812705386 0.16579566770010185 -0.09236290586636928
-0.1738500597311887 0.24896985120431342 -0.431107514227516 -0.3530057475386932 -0.2564573920861853 0.028743132183028864 0.36169381220443003 0.2054632855371483
-0.0593199948601712 0.11943800405715985 0.18282570441015208 -0.060775426179321634 -0.2130991847902277 -0.2531920176016397 0.051204543867457625 0.20166529247762902
0.034461902088752806 0.08428466641797998 0.006995836635670494 -0.4264806995858277 0.06771163536590274 0.1656331880901286 -0.016989698723782906 0.03725118047791769
0.27363466018489196 0.16836373771183144 -0.29679244272115074 0.012731061089402375 0.2279132931293233 0.076860395725157 -0.1951881538887089 -0.034466143484566725
0.33334042506555445 0.24738179216419598 0.22175757723927222 0.29500703027361846 -0.31301660196315667 0.22393883317631733 0.2383683745287503 0.02079482546952635
0.25847713027118696 -0.25551353601068905 0.1426958631378113 -0.022419315190145526 0.016130788900880585 -0.03875649735870631 -0.26994670776302687 0.25044025443586376
0.04497894489697454 -0.05764648409634241 0.062450829172597824 -0.15734945960139204 -0.13354985229797156 -0.24005857103013775 0.04860805669868118 0.19499329267306933
0.12762433536652448 0.051007090567372834 -0.19055279151146115 -0.221435056134469 0.12183276593202391 -0.14353476811727967 -0.041951016197674114 -0.035889977602226474
-0.10027244747288473 -0.19441813060999016 -0.16219665563535896 0.10307334216569264 -0.0033255181933661785 -0.07527793325920447 -0.30137250178443553 -0.1319435560426458
0.1358708544248393 -0.03770362439640836 -0.09708810632202672 0.10100986109353248 0.19977080886801118 -0.15016989561298544 -0.04611464947332702 0.06238741569839481
-0.08781247026337775 0.16267244595743927 -0.16829395269234906 0.07938405952740671 0.09639373311004004 0.0835050739186354 -0.011655615248870446 -0.04953196202924557
-0.17438757018691167 -0.14512660819923653 0.0012391123046898585 -0.17068779578411528 0.10174511005995614 0.4098132903442685 0.21504045460159155 0.30268424678350436
-0.19049905400512054 0.23376921262793549 0.20414218545428092 -0.1970018165065924 -0.16432886581332515 0.0622002921234118 0.04174276582982996 -0.10955416648100991
-0.10202351020589424 -0.25030915582989205 0.1419165460282614 -0.2671269399798084 0.2669680139512557 -0.07489073911663327 -0.30173839361179294 -0.0010305543133775335
-0.004293392342464633 -0.11790136839812357 -0.13767156280036189 -0.02555587999328525 0.2056776846471795 0.1478294611576498 -0.20697773203934283 0.24709853494705789
0.11449784699565355 -0.0871057950956639 0.31261175716072415 -0.09475939869996049 0.24734359406559056 0.051184000171065655 -0.016342490038838375 -0.2922505075892407
0.07279240824338898 -0.12519872765927173 -0.2344795835915495 -0.06470974639942847 0.015893842955182168 0.1560937129709368 0.055461657955644346 -0.01986356732124664
0.22662021665949333 -0.20243376753260903 0.21395529598488447 -0.24396904708639489 -0.252579098771356 -0.09042249110766576 0.25940948544776016 0.16924096092370924
-0.25378406964880534 -0.17916311532672904 0.17743806366622553 -0.05171712408136416 -0.24984956963632643 0.11577834118213252 -0.1572008865446311 -0.11331672518827327
-0.22860598074452954 -0.01927972801368405 -0.01852609169177117 0.09719026012172031 -0.29949823961259275 0.09547272303285588 0.09208410471581481 -0.13929001047932757
00000000: 1623 e8d5 c24e b93f a1ef ff43 fada d6bf
00000010: 6bb0 044c 0058 ca3f dda2 1b8e 1c16 c9bf
00000020: a7bf 99a7 b227 c83f e5e3 ee62 c171 c03f
00000030: f29b ebf3 dd8c cebf 9084 61c7 0196 c3bf
00000040: cd46 81a8 db03 c0bf 23af 72f5 7f0a c5bf
00000050: b3c2 da1f 35f2 943f 9ce7 5771 6fa0 d93f
00000060: c103 071c 190c cb3f b9ce 1b8e 78d8 663f
00000070: c9b7 320d 1806 d0bf ea13 6e40 d7ee c53f
00000080: 0eb0 2de7 337a b03f 7c45 1c91 9d90 c63f
00000090: 5ac3 d7be 104f b3bf 74c5 7e81 c588 cebf
000000a0: 033c a362 c513 cbbf 400e 8328 d141 b7bf
000000b0: 31da 155e 0909 cbbf 4c8c 30ed 9334 d4bf
000000c0: ca66 8539 8c3a 8f3f 80a7 e025 2767 d03f
000000d0: 9da5 267c 1691 c6bf 44b4 9f27 1052 c8bf
000000e0: 2fdd cbba 3210 c83f cbce 2491 6f5b ac3f
000000f0: 2822 bd54 ff82 9ebf 31cf 0ebf abf0 c8bf
00000100: 18b2 777b 43ec a43f 07ba 79cb 2203 d4bf
00000110: 1e3a ba9e 4830 c3bf b839 553c a089 7ebf
00000120: 35d0 6c14 9d7f cf3f 233f 69da 148c c03f
00000130: 79cc 662d bfd6 c9bf e801 ec0f b190 b83f
00000140: 1055 3866 dc53 c63f 7ead ddcc 2d64 d1bf
00000150: ea53 9ff0 e54f aabf bf16 9acb 9912 c9bf
00000160: a8fb b59b 1bfc adbf 0562 f814 dfe7 b83f
00000170: 1222 dc08 4a32 a4bf 23a4 15c8 bb58 d1bf
00000180: 173e 9b64 fa32 a1bf fdf4 a9bf 4eaf 503f
00000190: 1ad5 9bc2 c7b4 ae3f d27a 3473 d2d0 aa3f
000001a0: 8648 8d4b 37bc b53f 0484 12fc 1575 c13f
000001b0: 92af a627 b768 c73f f680 e15d 7827 b5bf
000001c0: 5f43 a8fb 85d6 933f 860b ccb7 b6ca ce3f
000001d0: 5918 91cc b849 8dbf 5840 9dca b60e c53f
000001e0: d87d fba8 8414 cbbf 5c34 facf d18a b73f
000001f0: 2530 2436 0f0e c83f a6c1 1b6d 1ec0 b93f
00000200: 9b4c 0b25 1a60 95bf 4329 4e53 fdaf c0bf
00000210: 5860 2db5 aa6b b8bf 0ff3 fb65 2356 b73f
00000220: eebb fff9 3651 c23f 41a7 b123 fc67 a13f
00000230: 5614 43ef c1fe a83f 0f25 434f d1dd d5bf
00000240: 942d afb0 9ae6 a93f 481d e505 e093 ad3f
00000250: ab19 310a 264b cabf 2fdc ee3c e4d2 afbf
00000260: d006 9e0e 2508 a6bf a187 53d9 8210 d33f
00000270: c0f6 97f2 676f c63f e9d6 4e9b 1ee2 d03f
00000280: efed 7826 eb56 d43f 5957 7fde dbe7 c73f
00000290: 5e98 9f7d 1adb d0bf 3516 be70 43ce dc3f
000002a0: d920 db6a 5fb8 cbbf 6432 609e 74ff b9bf
000002b0: 6be2 3739 f0ce d03f 32e5 ee7a bbfa cc3f
000002c0: 8638 ab21 e137 cabf d554 b782 1e4a 973f
000002d0: 6fde d237 c162 ba3f 9424 3a5c 44db ce3f
000002e0: 9af1 91bf 435c b93f c963 6248 3571 cd3f
000002f0: ea92 4bdd ca38 c53f ce40 0f6c 18a5 b7bf
00000300: 3fff 7900 b840 c6bf ce66 4e7c 3ede cf3f
00000310: b7b0 aaf8 4397 dbbf 58a3 3e6b a597 d6bf
00000320: a5f7 f443 cc69 d0bf 6dc5 d7f2 d66e 9d3f
00000330: 9559 a5cd fd25 d73f d793 f4f5 9e4c ca3f
00000340: d8bd d8bb 305f aebf 4e34 5331 7d93 be3f
00000350: 6ba6 a72a d566 c73f 8069 aee7 f41d afbf
00000360: 9038 bd86 d546 cbbf 6244 cd4a 4c34 d0bf
00000370: cc78 a262 7b37 aa3f 2100 f715 2bd0 c93f
00000380: 35b9 db8c fda4 a13f 53ca d10d ae93 b53f
00000390: 800e ef98 aaa7 7c3f 482a 46b4 754b dbbf
000003a0: e889 74bb 8c55 b13f 545a fde2 7733 c53f
000003b0: 6cd7 8c61 bf65 91bf a7b4 c733 9612 a33f
000003c0: aff4 22f3 3a83 d13f 60fe a665 f18c c53f
000003d0: a7fc cbba a5fe d2bf c7cb 2d18 be12 8a3f
000003e0: 9834 2846 432c cd3f 5f46 ff75 1fad b33f
000003f0: 2362 c2e8 ecfb c8bf 18c1 2bde 8ba5 a1bf
00000400: c7d7 0514 7355 d53f b44c 7ce1 34aa cf3f
00000410: d301 f162 8d62 cc3f a360 c72a 65e1 d23f
00000420: 0d5b 22c9 7608 d4bf b3f9 6516 07aa cc3f
00000430: 7536 80da da82 ce3f 5844 451d 3d4b 953f
00000440: e3d5 51a9 e38a d03f 847a 3672 555a d0bf
00000450: 32c7 b9a8 db43 c23f 465c 29c6 16f5 96bf
00000460: 7cdf 26eb 9684 903f eb88 5341 e4d7 a3bf
00000470: 1053 608e ce46 d1bf 61da 998f 3607 d03f
00000480: 94a3 aef2 7a07 a73f 5daa d807 d783 adbf
00000490: 420c cf19 8ef9 af3f 1100 84ef 0624 c4bf
000004a0: 8cb1 005c 2918 c1bf b176 d93f 3dba cebf
000004b0: 1097 afbb 27e3 a83f 292f 7c4b 8af5 c83f
000004c0: b756 4985 fe55 c03f 2eb3 b3f3 991d aa3f
000004d0: 8203 daab 0864 c8bf 3c8a 24e2 fb57 ccbf
000004e0: 3c5f 42a1 6e30 bf3f 5a8a 73e7 585f c2bf
000004f0: 59b9 3485 9a7a a5bf 5389 1cd0 2b60 a2bf
00000500: b5fe 9582 74ab b9bf 2114 5c7c b1e2 c8bf
00000510: 7aba bc29 dcc2 c4bf d0e9 b0b9 0363 ba3f
00000520: 7493 3ffc 1d3e 6bbf e570 7525 6a45 b3bf
00000530: 88fb c4e3 af49 d3bf 6e80 0fc5 86e3 c0bf
00000540: 49fc 1d56 3764 c13f bb4c 72b3 e34d a3bf
00000550: 2ad2 7b21 c4da b8bf a760 f841 c8db b93f
00000560: 2e4c 6401 1792 c93f 5c31 4063 c438 c3bf
00000570: 9379 b5de 569c a7bf 638f 364c 3ef1 af3f
00000580: 6d51 f6c7 e07a b6bf d57b ac61 73d2 c43f
00000590: 99cf 76ff a78a c5bf 2272 7e83 8352 b43f
000005a0: b639 3f7b 42ad b83f 82d5 87a9 9660 b53f
000005b0: 6821 7832 e6de 87bf fd6d 0bda 405c a9bf
000005c0: 6d0e 64f7 5452 c6bf 4d60 ff39 8293 c2bf
000005d0: c61d c8b4 364d 543f 870b 5c02 19d9 c5bf
000005e0: 4945 3cb0 f70b ba3f 92aa df85 613a da3f
000005f0: ee57 ea13 7286 cb3f 56c5 3cbf 2d5f d33f
00000600: a77a 6fe3 4562 c8bf 443a 8649 26ec cd3f
00000610: 124b 21c5 5421 ca3f 03ff 9203 5b37 c9bf
00000620: 1b7f 3a70 ba08 c5bf ac82 f178 b7d8 af3f
00000630: 83db 2acc 4e5f a53f 982d 2dea bd0b bcbf
00000640: 75e7 c177 361e babf b570 8bb1 1005 d0bf
00000650: cff0 f945 522a c23f 5801 c697 9b18 d1bf
00000660: f2ea 3f02 0116 d13f 2a7a 471b 0a2c b3bf
00000670: 8ba7 208d ae4f d3bf 7840 a744 75e2 50bf
00000680: 104f 32bb f295 71bf 4e70 6cb9 c82e bebf
00000690: bd8b e8c5 389f c1bf 24a9 2a13 522b 9abf
000006a0: 40cf 8978 a553 ca3f 2759 8766 13ec c23f
000006b0: 36fb 0d0f 3f7e cabf 2b5a 3ebf eca0 cf3f
000006c0: d609 4f1c bb4f bd3f 2b5b 3abd 904c b6bf
000006d0: 056d 56be d401 d43f 25ab 67e6 2642 b8bf
000006e0: 0783 b173 f4a8 cf3f d659 a00d ca34 aa3f
000006f0: a310 02f1 15bc 90bf bb73 1579 3bb4 d2bf
00000700: 7a6c cdf4 85a2 b23f a310 660c 8306 c0bf
00000710: db7d 8d4f 6d03 cebf 969b 8464 d190 b0bf
00000720: e612 cdbe 7946 903f 2123 29f8 e0fa c33f
00000730: b9ee 336e 7865 ac3f c849 1b70 1d57 94bf
00000740: 5a1d 9529 e401 cd3f bd4d 9485 59e9 c9bf
00000750: 6fd1 871b e362 cb3f f875 3cb3 603a cfbf
00000760: 7a12 3886 412a d0bf b859 21aa ed25 b7bf
00000770: e34c 113e 2a9a d03f 0dcd 2714 b0a9 c53f
00000780: 3fcb d889 ff3d d0bf d127 7d24 d1ee c6bf
00000790: 5d89 415c 4ab6 c63f 2b30 25b9 aa7a aabf
000007a0: 34fc 4019 12fb cfbf 235f f63c a6a3 bd3f
000007b0: 4242 4e9d 281f c4bf 0601 c62c 5302 bdbf
000007c0: 90df 7bf5 f542 cdbf 009e 2da5 10be 93bf
000007d0: 1263 c1f7 80f8 92bf d367 b6fc 75e1 b83f
000007e0: 411f 16aa fa2a d3bf 0510 167f e670 b83f
000007f0: 9561 3cea d292 b73f e187 d54b 41d4 c1bf

linears.1.bias f8 [30]
0.08770907866760647 0.05228118084316037 0.024694955662301826 -0.04247667329648291 -0.05194249382597061 0.07104238591226981 -0.02100134103533506 0.07522707182182915
0.05431387706233728 -0.017457186363887385 0.10156188476231148 0.04235328364077276 -0.07954463314383053 0.04921350481366175 0.04947644939629687 -0.013650290150332256
0.06726788180676845 0.09967018705457457 0.058570497772454364 -0.05915334056639424 -0.061379594528704146 -0.043355185044391974 0.01245406404974592 0.05417784554709416
-0.03984341607107954 -0.031336271559814236 -0.04590027421782057 0.06472414406236277 -0.062300495743288775 -0.07333181405730688
00000000: a08d 7028 1a74 b63f 52d4 d553 99c4 aa3f
00000010: 5b74 c86b a249 993f 5773 4da5 80bf a5bf
00000020: f1ac 82e0 3498 aabf 957d 1f74 d52f b23f
00000030: ecf5 ac23 6081 95bf 35a4 3fd5 1442 b33f
00000040: a345 674b 07cf ab3f 2263 0df2 4be0 91bf
00000050: f401 93ad f5ff b93f a40c 3b60 54af a53f
00000060: 60d1 ec7d 095d b4bf 6576 6433 8332 a93f
00000070: 3999 2828 fa54 a93f c073 36ee aef4 8bbf
00000080: 4f67 6ec8 7738 b13f 1b1d c941 fc83 b93f
00000090: 3ee2 e2c8 f3fc ad3f a516 5dbe 5849 aebf
000000a0: 04f9 486e 256d afbf d360 c19b a632 a6bf
000000b0: 021a 5e2e 8481 893f b1c3 95d5 32bd ab3f
000000c0: 2ef0 f831 5b66 a4bf 0253 0ecb 4e0b a0bf
000000d0: 8a33 49a1 3d80 a7bf b46a 02f2 c291 b03f
000000e0: 10e9 7bbf d9e5 afbf 9cea 21af dfc5 b2bf

linears.2.weight f8 [30, 30]
-0.15924847450283908 0.15678715381914188 -0.3083602468814272 0.2916966866977031 -0.3207555388823953 -0.15294016219909487 -0.08664292418129595 0.19927479911899598
0.1890419550999312 -0.22216253752599738 -0.13266635150572134 0.121781989672588 -0.25262310873505334 -0.24988274482171546 0.07766147509286572 -0.262730590571351
0.022272804530646454 0.2184632199808868 0.20188931670181615 -0.04365026778296801 -0.1244224309360602 -0.14774193819503123 -0.24830879922946467 -0.15480688861364675
-0.281618383457932 -0.1458080529676023 -0.068333987301878 0.2567572588571867 0.0674843470748736 -0.2403460051568581 0.14451158809432466 -0.1851468838234433
0.25031553912621185 0.20424609678157596 -0.21116910269318306 0.07220994279504872 0.12148794633824725 -0.19115681189836614 -0.11103677558974291 0.07412479009077119
0.24170980966140646 0.17994887022505046 0.2715304425145567 -0.29012982813109406 0.2154925646211242 -0.07889736057918888 0.12480165547168826 -0.0787957237417639
0.03339804636790127 -0.03000310135532164 0.0752125468862743 -0.1985664668566177 0.11418657554701543 0.19422942972788584 0.24516206233120927 -0.1315861185968417
-0.19741455400239377 -0.23683545910568962 0.05010587098553226 0.1999904074489041 -0.010256456115279497 -0.13696860089621124 0.13731018528005826 0.07622833386939426
-0.3667389210418243 0.038782873731103305 -0.42257986321767615 0.09425034293025827 -0.17519299199080549 0.1944709630574914 -0.13464598093331134 0.29043913302010166
0.2615475919940502 0.06208313508833 -0.10003964777003752 -0.33019845358269306 -0.030639502187059398 -0.11021917406679893 0.30641039708048284 -0.3760262940413137
-0.23364671546422866 0.29245078852639383 0.25894115895175623 -0.23328411253624146 -0.05401533081823298 0.07923967792850355 -0.28214751288459283 -0.32570553570881683
-0.014427018532603999 -0.147385970699297 0.11476979963643674 -0.06692057258878518 -0.2967909678014496 -0.09211986522307314 0.1945835181920174 -0.3407724323129102
0.12140231479295294 0.18268369607181295 0.24966834369884283 0.14711058399888874 -0.07980423401198389 0.036042302573778905 -0.14031396300842391 0.19298464521777955
-0.004886366790011147 0.024012806422150597 -0.04247879603054347 0.2650162868550564 -0.21771159176285035 -0.1770464993569756 -0.3161603382913375 0.11412858957177034
0.13809304574897927 -0.1444199696788864 0.17794881696396136 0.15367548590684513 -0.243631556469526 0.17914573848237178 -0.21758244403075036 0.2138982557666797
0.17752537583526803 0.24345058309545017 -0.195189060278233 0.15982750729210896 0.0787179079886153 -0.19950807363087977 0.3746544998792699 -0.22621933962268503
0.23595073922458246 -0.05196877195127606 -0.24705742347169446 -0.32649378907609666 -0.019110889127249446 0.24919377759774386 -0.05443440633918343 0.03068997764655588
-0.17591097237802775 0.05467182931820386 -0.09060755483988875 0.3407340509701804 0.17304441187554878 0.21251451646185263 -0.07294833279208139 0.015532300896074385
0.07753793799607653 0.06991918490938871 0.35924335993226336 0.298243303399253 0.09243653094238014 0.046833592369977924 0.13915907747646997 -0.22310012625308845
0.32557121655234394 -0.3329063806853331 0.09894805200524186 0.14334887158858362 0.2947214432555329 -0.12679733391715373 0.3923619657691503 -0.07066621469282817
-0.16181605918469005 0.0991030903005368 -0.05249490843300385 -0.17341221683383343 0.2209525901894449 -0.17683695785851172 -0.2235319422935253 0.12436933624365075
-0.00443965724480705 -0.0634969647239736 0.044623643350682154 -0.3186962961458956 0.009826600968890745 0.05359930063154228 0.2612262944192829 0.09466229636840783
0.19546234467112558 0.13984243545387645 0.0449803848646312 0.06223676797545407 0.1289327891499062 0.24504191414475368 -0.25761204136909704 -0.24683421671425168
-0.14128036032769709 -0.20892230613937043 -0.17702459598018128 -0.014197975200478588 0.30178121286137494 -0.28675693003921254 0.02589651557892719 -0.23862115218242677
-0.15979206476035787 -0.14165136493417177 0.19398472322833876 -0.09834687200325237 0.2973243300906829 -0.20488672357854187 0.2873878770660332 0.07631198581921159
-0.186660546399876 0.15872999684888392 0.11304338435698993 -0.16915987692436305 -0.14832819638204703 -0.054317592039781114 -0.1271920769222146 0.029922994738255035
0.045067208186066056 0.34467255159378907 0.042179318209607713 -0.037130379401159576 -0.2559158327080577 0.392105758900846 -0.2726016516267425 -0.01234439631183942
-0.22950942841944488 -0.14413192571197106 -0.2630469301335665 -0.12050994402937837 -0.008593014254439426 -0.10625893771975665 0.4100375445481872 0.10063020831044049
0.07376971649800214 -0.20282483476851287 0.09162326290275338 -0.42012165951072045 0.3635653220569865 -0.04320444644742551 0.16674729344875816 -0.18734108630450233
0.4178771432680325 0.05387056934079147 -0.34374967077811586 -0.18948363178973784 -0.23650833474378433 -0.08307754536788473 -0.15943103940887568 0.071365379983897
0.09731885693168228 -0.03474650567035252 0.09496190973390685 0.12120196596387411 -0.11460692886588976 -0.029532633747897483 0.1392477972071452 0.3015791916996814
0.29377479663980366 0.18772732499704958 0.1119759460732865 0.256745267046524 -0.09299064016893359 0.21335436783289474 0.08010240309314534 -0.10256381710113684
00000000: 10bb f606 4162 c4bf 8006 0bf9 9911 c43f
00000010: 7780 ef9d 2cbc d3bf e0f6 6d94 28ab d23f
00000020: 08b0 603d 4287 d4bf 17ed 7111 8b93 c3bf
00000030: 69d9 c90d 3b2e b6bf 0608 912c d681 c93f
00000040: 02f1 5cdb 8632 c83f 2d07 8970 d26f ccbf
00000050: 4f94 7f04 36fb c0bf 0fb5 e2be 1a2d bf3f
00000060: 2ac7 8e1d fa2a d0bf 9407 6c64 28fc cfbf
00000070: 92d7 ae57 9fe1 b33f fb69 8af7 93d0 d0bf
00000080: d182 329c aece 963f 842f 9950 9af6 cb3f
00000090: fab2 5256 82d7 c93f a3d1 2df1 5359 a6bf
000000a0: c05a c2ff 25da bfbf cccc 6534 35e9 c2bf
000000b0: 43f2 ff2d 95c8 cfbf ab43 e54d b6d0 c3bf
000000c0: 80de b91c 0906 d2bf faa0 7e99 d6a9 c2bf
000000d0: 5fb6 aa10 567e b1bf a057 73ff b56e d03f
000000e0: dfb1 ad77 a746 b13f ecbc ef6b a8c3 cebf
000000f0: f90a 6110 5b7f c23f 1e2f 7da1 e4b2 c7bf
00000100: 7292 8e77 2b05 d03f 3e9a 0171 bc24 ca3f
00000110: ea16 ffd2 9607 cbbf 2432 c0ce 597c b23f
00000120: 9287 6184 d519 bf3f ee6b c18f d377 c8bf
00000130: 39ad cff7 e76c bcbf 1642 439d d7f9 b23f
00000140: bd1e cfd7 58f0 ce3f 78cc 4888 9008 c73f
00000150: befa 9d38 c160 d13f 95b2 dab2 7c91 d2bf
00000160: 3c19 caa6 4295 cb3f 6ba7 6d0f 9e32 b4bf
00000170: c4d0 bc54 00f3 bf3f 4718 89e0 f42b b4bf
00000180: d704 cd79 8c19 a13f 7112 660c 22b9 9ebf
00000190: 2e1b 2025 2141 b33f db9f 9d40 a06a c9bf
000001a0: bbdd 9dd7 543b bd3f 550e 4d8c 82dc c83f
000001b0: c35a f76f 7861 cf3f d191 fd5d d0d7 c0bf
000001c0: 2aec 984e e144 c9bf c12f b2d3 9f50 cebf
000001d0: a7df 700a 7aa7 a93f 71dd c021 4999 c93f
000001e0: 4b31 b43c 5601 85bf 19cc b6e6 2f88 c1bf
000001f0: 21c0 9751 6193 c13f dc63 ff38 b383 b33f
00000200: a7e0 0286 a678 d7bf 3bd5 a34c 59db a33f
00000210: e6f4 1d69 8c0b dbbf cab1 855c ca20 b83f
00000220: 0f61 8b55 b96c c6bf 1e41 2dad 6ce4 c83f
00000230: 9fbd 525a 143c c1bf 0f32 7304 8e96 d23f
00000240: 5c91 7d1c 32bd d03f 65d0 ac55 5cc9 af3f
00000250: 8ac5 79c7 329c b9bf caf4 d4b1 f821 d5bf
00000260: 8dc2 6f2f f65f 9fbf f84f 02e4 5237 bcbf
00000270: f15c a75a 3a9c d33f 44fc d596 d010 d8bf
00000280: 844b deb4 22e8 cdbf ec41 1a83 83b7 d23f
00000290: f74f 52f0 7d92 d03f 4f80 02f9 40dc cdbf
000002a0: 04a1 b1be e5a7 abbf 6b9d 3f31 0d49 b43f
000002b0: 122c 1f71 b40e d2bf bdb6 ff07 5cd8 d4bf
000002c0: 4ee7 35a6 e98b 8dbf 0677 0522 8bdd c2bf
000002d0: b0c8 01b8 8d61 bd3f 13cc b2e6 b421 b1bf
000002e0: 8525 1d8b 9ffe d2bf 48ed 71e0 2a95 b7bf
000002f0: ced7 7cdb 1ce8 c83f 8063 0a2d 37cf d5bf
00000300: 28c6 b1db 3814 bf3f 0e07 12ea 2d62 c73f
00000310: ec39 84dd 21f5 cf3f 1bd9 9505 85d4 c23f
00000320: e8ee 29df 0c6e b4bf ab61 a7fd 2274 a23f
00000330: fc8b 25d5 cef5 c1bf 5b96 eb89 b8b3 c83f
00000340: c521 f318 ba03 74bf 52c1 1229 d096 983f
00000350: dc03 73df c7bf a5bf e2c9 3cdf 06f6 d03f
00000360: 1370 4a33 f9dd cbbf f103 4eae 75a9 c6bf
00000370: d63a 5092 f83b d4bf 13d6 bfff 8737 bd3f
00000380: bf00 a66d 08ad c13f 197f 5483 5a7c c2bf
00000390: e86d 9cde 06c7 c63f fd59 1569 a3ab c33f
000003a0: 5ab4 a79f 512f cfbf 6ff1 ff5f 3fee c63f
000003b0: 89dd a5d4 bdd9 cbbf 0e3c 989e 0461 cb3f
000003c0: 4317 b6c9 26b9 c63f bb25 4b82 6329 cf3f
000003d0: 3b4b 3783 f4fb c8bf 4910 694e 3a75 c43f
000003e0: 0eaf 6b58 db26 b43f dd2b c405 7b89 c9bf
000003f0: fef6 11de 56fa d73f a079 b35c c1f4 ccbf
00000400: b5e2 3742 a233 ce3f a555 e39f a69b aabf
00000410: f0c0 05e1 939f cfbf 0974 9b34 46e5 d4bf
00000420: de31 320f ce91 93bf ac12 93ea 94e5 cf3f
00000430: 1508 0296 d3de abbf 7a4b 3a89 316d 9f3f
00000440: 1b83 af30 4084 c6bf c84c de2d f2fd ab3f
00000450: 2ccf ce84 0e32 b7bf c03b 6331 96ce d53f
00000460: a169 e1bc 5126 c63f 2580 10f9 ac33 cb3f
00000470: 4bc4 a3ef bdac b2bf 83cb 0a23 66cf 8f3f
00000480: ee75 e4bb 86d9 b33f 3d7e 8c44 39e6 b13f
00000490: e9b5 8ddc d7fd d63f 7673 9614 6b16 d33f
000004a0: 486c 5aa5 eba9 b73f c99f 2a97 92fa a73f
000004b0: e1fa 59f3 f6cf c13f 3ec8 fe80 8b8e ccbf
000004c0: bd1e e7a7 28d6 d43f 3b16 6b90 564e d5bf
000004d0: 3b8c 5dd7 a854 b93f b21b b27d 4159 c23f
000004e0: 8398 0d54 b7dc d23f 0f74 3221 e53a c0bf
000004f0: b20e cb5c 751c d93f 07ae 0959 2e17 b2bf
00000500: 623a 157d 63b6 c4bf a2f9 c5f3 d15e b93f
00000510: 8e3f dad5 9ce0 aabf 3f9b 031c 5f32 c6bf
00000520: 9042 6aaa 2c48 cc3f ecfb 5ceb 97a2 c6bf
00000530: de8a e1d6 b19c ccbf 57ad ca37 abd6 bf3f
00000540: c115 c06a 512f 72bf d17d e24a 5641 b0bf
00000550: c29b a301 e9d8 a63f 9363 5326 8565 d4bf
00000560: 757b 560e f81f 843f a015 9a16 5e71 ab3f
00000570: a8b5 d87d eeb7 d03f cf0a 11cb c93b b83f
00000580: a521 fbfc e804 c93f a506 6f5f 5be6 c13f
00000590: d200 e943 ab07 a73f df6a 2066 7fdd af3f
000005a0: e2f4 63a0 de80 c03f 8e52 b38f 885d cf3f
000005b0: c91b 2f37 b77c d0bf 8126 297c 4398 cfbf
000005c0: d057 968f 7915 c2bf eb01 2354 f7bd cabf
000005d0: 6847 29f1 bda8 c6bf 7569 3ef9 d313 8dbf
000005e0: 425b f225 6250 d33f a4dd 1abd 395a d2bf
000005f0: afa6 f7bd 9d84 9a3f 3df1 604e 238b cebf
00000600: af2c 27fe 1074 c4bf 51bb e9c5 a121 c2bf
00000610: da3b 18cd 7dd4 c83f 54f9 eab6 422d b9bf
00000620: 97da 82a0 5c07 d33f 58c4 9368 ba39 cabf
00000630: a4fd 501f 9064 d23f 7ee6 62ab 2e89 b33f
00000640: b6d7 1e27 7ee4 c7bf 0d19 aeb8 4351 c43f
00000650: 7aa9 d746 69f0 bc3f 43bf 97e5 07a7 c5bf
00000660: 268d 4418 6bfc c2bf 9b10 d1f2 83cf abbf
00000670: 297a 5879 d447 c0bf ac5d 322f 22a4 9e3f
00000680: 75f6 8f92 0c13 a73f 0a26 3b76 1d0f d63f
00000690: 5c41 8e10 8798 a53f 6d9e 6eca c002 a3bf
000006a0: 2b9f 00cd ec60 d0bf 6e5a c3c0 4218 d93f
000006b0: eda2 a432 4e72 d1bf def0 95d3 0448 89bf
000006c0: 9cb3 97a0 9060 cdbf 8707 9f39 ea72 c2bf
000006d0: cc28 8fca c2d5 d0bf bcef 725c bdd9 bebf
000006e0: 6135 93d9 3699 81bf 8dff 6926 c933 bbbf
000006f0: e4dc fd1c 0e3e da3f b3d9 aebd e6c2 b93f
00000700: d94a cb77 92e2 b23f e8dc 1208 2af6 c9bf
00000710: d25a b845 9f74 b73f 8c25 fcf4 45e3 dabf
00000720: 1b72 0c7c a744 d73f c223 11a9 e41e a6bf
00000730: 108b 07ae f957 c53f 65fe 6fef cafa c7bf
00000740: 3a41 05c6 7fbe da3f 1e3a 125b ec94 ab3f
00000750: 752d 809e feff d5bf 7d05 d5e8 ff40 c8bf
00000760: 5d5d 7ab5 e745 cebf d213 63ec 9144 b5bf
00000770: 7b3c 1d7e 3c68 c4bf 86f2 1865 0045 b23f
00000780: ef40 ce7b e3e9 b83f 4e46 0243 4bca a1bf
00000790: d93e ac78 6c4f b83f 3097 0690 1707 bf3f
000007a0: 21be 5f33 e156 bdbf 1ca7 7280 cd3d 9ebf
000007b0: acb9 852f dfd2 c13f 9245 60cf 124d d33f
000007c0: 9c3f fdcd 34cd d23f 24c5 b6f0 7207 c83f
000007d0: fdcb 52a2 74aa bc3f e086 57b3 836e d03f
000007e0: 9313 5c0e 3cce b7bf 6488 2628 324f cb3f
000007f0: aab6 9d51 9781 b43f 79ca 3350 9f41 babf

linears.2.bias f8 [30]
0.03164980637536992 -0.05763704294057738 -0.03822972038769376 -0.13030824623277854 -0.07387898713656116 0.12908369292262706 0.0733493477582746 -0.006473460535083358
0.04381079609235796 -0.05127693086024126 0.10102820528697516 0.040292061120440106 0.05146513527994939 0.041032552584511835 0.05606817915072888 -0.07186735573567156
-0.028440816174067057 0.052720821583553505 -0.034988790612181485 -0.021549912899666655 -0.057541184433982755 -0.0008201051644962748 0.03893192248973814 -0.02771844254275377
0.09163079620919459 -0.03804516477555331 0.04036252900956234 -0.042660100039667095 -0.04809124150350592 -0.02623807360439071
00000000: 0a28 9d46 6734 a03f 3294 ef3c 9a82 adbf
00000010: fcc9 998d d892 a3bf e204 fccb f0ad c0bf
00000020: 68f6 9cb9 bbe9 b2bf f658 c67f d085 c03f
00000030: 2702 ced9 05c7 b23f 065f a454 ea83 7abf
00000040: 8357 db60 5e6e a63f a700 2b4a f840 aabf
00000050: b55e ae05 fcdc b93f 6af8 9939 29a1 a43f
00000060: 08bd d261 a359 aa3f 7900 d8fe 3702 a53f
00000070: 99e8 98e7 f7b4 ac3f 95e2 8826 e665 b2bf
00000080: 4b4e 5bdd 961f 9dbf bf0a 0a39 39fe aa3f
00000090: 9bd3 cffe 0cea a1bf 59f9 8a2c 2e11 96bf
000000a0: b755 a2c2 0976 adbf 5770 2e6e 8adf 4abf
000000b0: 3748 ba8b e2ee a33f 1865 de30 3962 9cbf
000000c0: ea61 06a9 1d75 b73f e0bf f6e4 a77a a3bf
000000d0: 79eb 28bc 65aa a43f 1a67 076d 8bd7 a5bf
000000e0: b993 f64a 6a9f a8bf 69e1 2950 27de 9abf

linears.3.weight f8 [30, 30]
0.3462826962129414 -0.09821316741672309 0.16978340102801204 0.0842885671855744 0.12243447139693912 -0.3506348701663804 -0.26315191262809995 -0.19183676691307394
0.1578564900128503 -0.09773386259215562 -0.03198477854221156 -0.21340974512645758 0.23135381911603106 -0.2932586566483381 -0.1912756270335221 0.17520560970960017
0.2210272725454464 -0.0787774167974128 -0.22892325580081926 0.26365832044999793 -0.1990053139623133 0.08200544571018464 -0.021320533087288634 0.05009817853167305
-0.13883434734504269 0.15081531261967931 0.2774165790469448 -0.11879523440998035 0.0009482472050000859 -0.336108539523388 0.28906664873545174 -0.21988501723076154
-0.2775201484003267 -0.08335418061814734 0.33005431370633215 -0.33982177234648037 -0.09072927455871978 -0.09362831067434921 0.12644152058216424 -0.29176794531733735
0.04053993427740053 0.14734577357550543 0.16037599203328193 -0.10077450889821814 -0.07067904809335766 -0.11524020354678466 -0.2746097700752392 -0.14744695408794445
-0.2351829674063251 -0.18963303369672865 0.1731349336223669 0.10205053412688617 -0.057511927915704184 -0.23365120600559153 0.17522528154951172 0.11054659208749079
-0.19364795339917337 0.029760168840898583 -0.014971356934861403 0.24744793446878655 -0.3953640157293444 0.12651860719215519 -0.22395644938968828 0.21738343284507258
0.19051624378183477 0.07457215025253423 -0.25039926156744813 -0.18921856000641468 -0.3388034881255876 0.29077024988118294 -0.27509511536789155 -0.12029800158916626
-0.3109111314052499 0.2306168099579639 -0.21888971818334732 0.055596274495962696 -0.15520251784357764 -0.26215954594321045 0.2699575359745883 -0.15304013022573157
-0.2719206143309128 -0.11561301860869933 -0.21162295944902298 0.06805048880860923 0.19215161583336265 0.038372895577298304 -0.2714124222098423 -0.1720701621386473
0.06895852435841725 0.10247677038065309 -0.1209881701014573 0.16034269253994632 0.0005160005070704888 -0.015378318651387998 -0.20751231451626237 0.42322191043293145
0.254262044115598 0.10271685275616767 0.4252513389302003 0.02742803628273473 0.2431821040162718 0.04128071066418332 0.0741148052926616 0.28318400676014194
0.21380464991799444 -0.14668858066147525 0.11405171049021463 -0.15507710797841598 -0.16477697964994834 -0.15331289948246127 0.10573483409651119 -0.3249703548779898
-0.2646943657847831 0.32253015443968525 -0.07188871982360111 -0.06424805444784971 -0.01901650924505614 -0.1915815815063484 0.1577406456955284 0.18231488500001328
0.24681511313432322 0.20470640356413145 0.19189226893042086 -0.054095369019277244 0.3328431266439332 -0.23197563254371223 -0.23483294843610195 0.2937498152587515
0.03284330468736039 0.006224523017623354 0.10829870701756061 0.1570007607151285 -0.29380595239920826 0.15787233810455262 0.17366099584813383 0.09681857324391706
-0.0863493705827287 -0.20710924700656572 -0.08821775995751811 0.17004327848873316 -0.28045133424762825 0.10898476234354192 0.3537562603889416 -0.189691374123081
-0.3099163285476763 0.13923385201683325 -0.17595945344945943 0.10330231878927788 0.1537844781617797 0.20906732109219756 -0.19070966378923396 0.022490675134805335
0.0972195046318583 0.04150737199210537 -0.22340250179492588 0.14003872783942764 -0.2489571669479245 -0.03258852045284552 0.24436657551773364 -0.22169261317916505
-0.0774714206260854 0.11563679828167642 0.3530502992413487 0.3347376989782182 -0.010390325938939975 -0.09928517560246024 0.2142468861157295 0.24833531220332206
0.35748712189035375 0.04307132722634747 -0.06659191513642163 0.11214030282803304 0.05002822022376223 -0.17976364771819994 -0.08314324704494458 -0.26671507546841244
0.047521255351588236 0.01607228084362218 0.2681427047879369 0.1839205136722603 -0.2606678734062626 -0.27406051490216615 -0.29347353059716064 -0.2598818839750912
-0.1335128560592848 0.32645475365588994 -0.14426412265039795 -0.2245407312696807 0.23988178202683336 -0.18620178951217287 -0.2413536765183121 0.21660815795309057
-0.18157088020493434 0.2856697502036612 -0.07493294663587671 0.20382465946650177 0.09670091249404844 0.3281194074644562 0.09036008149635653 0.19879813564323615
-0.03980538951603857 -0.16345490478312386 -0.18137678731898627 -0.028143186565530224 -0.04475273783889217 0.12217284510285617 0.13668383024223493 -0.29050617164582343
-0.34591112893577586 0.24271372597329788 0.1781995088706335 -0.09961396721842532 -0.03640850554554438 -0.22697691535922734 0.08669921985631174 -0.14670239731265391
-0.2673380616111764 -0.24797210446427276 -0.272547996299656 0.18547897293699403 -0.22221028147871247 0.07546755652677578 -0.2734325796770555 0.11408282120449993
0.2046597879960413 -0.31858081274068717 -0.23352294296806247 -0.07144108027067016 0.2773188144811044 0.2579912288212005 0.35483396269146333 0.1971090708590428
-0.27530813849371283 0.183810603725511 0.1617363488813248 0.2710903516716752 0.1098654258908145 -0.1388597127277277 -0.1145335906446342 -0.25336945339113803
0.16359210753025874 0.2627973772084452 -0.18208251429289948 -0.20597306780154778 -0.10454304807418485 -0.10408056154903522 -0.18763332368925917 0.2559122896073507
-0.31523512888214583 -0.2577987794681656 -0.024188941819513827 0.03080397036952452 0.09503852539610681 0.07389584637730298 0.007494775198220498 0.059225826457751554
00000000: 36f0 d9e5 7e29 d63f e465 1786 7f24 b9bf
00000010: d4d3 6865 76bb c53f 1e1e 7d7f ef93 b53f
00000020: eb8a 8d92 dd57 bf3f 74ea 0c3d cd70 d6bf
00000030: c185 a71e 7bd7 d0bf 84f0 0770 1b8e c8bf
00000040: 7884 0837 a434 c43f 7589 8b1f 1605 b9bf
00000050: fa00 9e13 4f60 a0bf 57a0 fbb1 0251 cbbf
00000060: 153b 747f 009d cd3f 4fb4 e4f4 bfc4 d2bf
00000070: 61c0 5041 b87b c8bf ffa4 e32d 236d c63f
00000080: acaa 8d25 9f4a cc3f 69e9 cebc c12a b4bf
00000090: 93ab 7a74 5b4d cdbf 76aa e925 c7df d03f
000000a0: 7663 9991 0179 c9bf 304d 6b13 4ffe b43f
000000b0: 5b6d 5fc1 0cd5 95bf ebf1 c3ec 77a6 a93f
000000c0: 8248 b4ea 52c5 c1bf 4501 b889 ea4d c33f
000000d0: 29fd 9777 31c1 d13f 2426 b64e 5d69 bebf
000000e0: 02ac f35d 7912 4f3f 8f31 4a64 cd82 d5bf
000000f0: aab7 ab66 1180 d23f 6679 f136 3125 ccbf
00000100: f011 57de e3c2 d1bf d664 bd17 b356 b5bf
00000110: 596f d120 9c1f d53f da99 acd1 a3bf d5bf
00000120: 5dfe 04a3 083a b7bf 8278 5364 06f8 b7bf
00000130: 4ee2 e059 3c2f c03f 5f2e ca75 53ac d2bf
00000140: ae8d ce77 a6c1 a43f 7ef5 5aef 39dc c23f
00000150: 315a 6c54 3387 c43f bf01 fdb3 5bcc b9bf
00000160: 2fc9 12a8 0518 b2bf 78f6 6ac9 6180 bdbf
00000170: a3a7 68db 3493 d1bf aaec d9b2 8adf c2bf
00000180: 2a0f cbb8 791a cebf dffe fb2e e545 c8bf
00000190: 5902 da16 4929 c63f 4a43 9dda fb1f ba3f
000001a0: 8643 0e13 3472 adbf 4884 3b60 48e8 cdbf
000001b0: 7a01 d832 c86d c63f dc34 b30d c84c bc3f
000001c0: 43b5 64c5 74c9 c8bf 7a94 941f 7379 9e3f
000001d0: 41b8 4b83 4da9 8ebf d0ca 00b9 5fac cf3f
000001e0: 29a8 64df a44d d9bf 42e6 1c00 c331 c03f
000001f0: dcb1 eddc 9aaa ccbf a182 6167 38d3 cb3f
00000200: cd2a 3316 d662 c83f 9deb 8612 2917 b33f
00000210: bbfb d79f 8a06 d0bf b80a 8353 5038 c8bf
00000220: b249 51d3 f4ae d5bf 66ec 78d2 fa9b d23f
00000230: 20d8 f28a 289b d1bf 0881 998e d9cb bebf
00000240: 1b44 56cd f7e5 d3bf d6b1 5604 da84 cd3f
00000250: df99 830a 9404 ccbf adac 7a69 1d77 ac3f
00000260: 1890 3215 addd c3bf 5442 0ad5 38c7 d0bf
00000270: 5574 14f9 fb46 d13f c7c5 25a9 d196 c3bf
00000280: 3d35 6ab8 2567 d1bf 488c ea95 d098 bdbf
00000290: ec48 f50c 7616 cbbf 0ae8 e8bf c16b b13f
000002a0: 565d f094 6c98 c83f f358 1db7 9ca5 a33f
000002b0: 86a4 4735 d25e d1bf 465f 8023 6506 c6bf
000002c0: b35a e60e 44a7 b13f 9275 62e9 ea3b ba3f
000002d0: 95e4 c9a9 14f9 bebf a24a 4efe 1b86 c43f
000002e0: 1f2d bba6 86e8 403f dec3 66fd aa7e 8fbf
000002f0: a3ab 2e76 c38f cabf 2ea5 105a 1116 db3f
00000300: 6fcc 054f d445 d03f 2df6 55d3 a64b ba3f
00000310: 5a44 5264 5137 db3f 25b7 4f5b 1816 9c3f
00000320: 3776 dc57 9720 cf3f a840 84cc be22 a53f
00000330: baa2 e118 30f9 b23f 4d3e f2cf af1f d23f
00000340: b9b4 9065 f35d cb3f f79f 5100 b1c6 c2bf
00000350: a5bb 9b2e 7e32 bd3f 4312 9011 91d9 c3bf
00000360: b976 5d7d 6917 c5bf 7782 aad0 c19f c3bf
00000370: 9014 7e26 7011 bb3f f3b5 9775 50cc d4bf
00000380: 6cca 1ea3 c0f0 d0bf acb4 5284 55a4 d43f
00000390: fffa 9794 4c67 b2bf 7565 af7c 8f72 b0bf
000003a0: 9b98 2a55 1079 93bf 08f9 8ac9 be85 c8bf
000003b0: 5990 4171 d830 c43f 5514 531a 1856 c73f
000003c0: c704 893b a397 cf3f 067c 4bc6 d133 ca3f
000003d0: 93a8 b405 ed8f c83f cf0e 9b61 63b2 abbf
000003e0: c194 e841 4d4d d53f 8c40 9fa5 60b1 cdbf
000003f0: 3d35 c78c 010f cebf 2583 6f06 cccc d23f
00000400: 7daf 0c6f d6d0 a03f 9dc7 b3ac e27e 793f
00000410: 08ea d6cc 76b9 bb3f 09fb 5bd6 9918 c43f
00000420: d02e 3b7b b7cd d2bf e111 8d28 2935 c43f
00000430: 6617 e104 863a c63f 7f5e ba1d 1ac9 b83f
00000440: 5dd9 ae0a fe1a b6bf 4bd3 4b49 8e82 cabf
00000450: a7a4 f169 7095 b6bf e1c1 0168 fac3 c53f
00000460: e4a3 2d27 eaf2 d1bf d720 07e6 6ce6 bb3f
00000470: 860c 484c f1a3 d63f 4891 1894 ce47 c8bf
00000480: 4df4 e64b abd5 d3bf 8846 7434 6ad2 c13f
00000490: 2d65 fee0 d685 c6bf c108 cd50 0572 ba3f
000004a0: aa2b 2bb4 35af c33f c66c 60cd b7c2 ca3f
000004b0: d5c1 809c 2c69 c8bf 0c01 ada8 cb07 973f
000004c0: d459 eda0 60e3 b83f ca7c 7f4a 7440 a53f
000004d0: 86e2 8603 7498 ccbf 6534 1ffe c9ec c13f
000004e0: f9b4 1215 d4dd cfbf dcd6 234b 71af a0bf
000004f0: 6bc6 0a69 6747 cf3f fa44 af6d 6c60 ccbf
00000500: d3b4 f6c1 2ad5 b3bf b27d d58a 5f9a bd3f
00000510: 306a 4548 6098 d63f 2362 76ab 576c d53f
00000520: 09fa d1f0 8547 85bf e3af 30d6 c06a b9bf
00000530: c485 9124 716c cb3f c877 2d96 73c9 cf3f
00000540: b1a7 50aa 11e1 d63f 653a aaeb 710d a63f
00000550: 425e b0f1 2a0c b1bf 83be 3515 3ab5 bc3f
00000560: 16ee 7983 4c9d a93f 73cb fac5 7e02 c7bf
00000570: 18f8 f036 e048 b5bf 102b 9f1b dc11 d1bf
00000580: df2a 33bb b454 a83f b4c6 6182 4075 903f
00000590: 3669 ee04 4029 d13f ae97 a417 b58a c73f
000005a0: ff74 d94d c8ae d0bf 674d 281d 358a d1bf
000005b0: 7203 0a34 45c8 d2bf 8dbc 1fa0 e7a1 d0bf
000005c0: 2e62 2f03 f316 c1bf a4d9 a47a a2e4 d43f
000005d0: fe81 622c 3f77 c2bf 852b b62c c0bd ccbf
000005e0: ca10 5b3c 72b4 ce3f aaaa 34d2 75d5 c7bf
000005f0: 8d2f b561 ade4 cebf 2248 3aed d0b9 cb3f
00000600: 9a6c 31f0 b63d c7bf 9d32 a5c6 6948 d23f
00000610: 3aaa 313b ce2e b3bf 7d73 432b ed16 ca3f
00000620: 78c1 a718 64c1 b83f 0489 0f8b e8ff d43f
00000630: ef07 e49a d621 b73f ddf6 8ba1 3772 c93f
00000640: 1813 5a3c 5f61 a4bf 2408 351f 17ec c4bf
00000650: a2f0 e4c4 5a37 c7bf 11e1 9d47 91d1 9cbf
00000660: 8958 d9b2 d4e9 a6bf 0611 2d36 b846 bf3f
00000670: 2b26 6412 db7e c13f 7f51 a032 a797 d2bf
00000680: 8f80 866e 6823 d6bf 483d ac4d 3e11 cf3f
00000690: f39d 61d3 3dcf c63f 518e 6d0b 4d80 b9bf
000006a0: ca8b 3ab9 22a4 a2bf 8719 355e 940d cdbf
000006b0: 641f df89 eb31 b63f 55f0 59e7 24c7 c2bf
000006c0: 7325 e619 111c d1bf c446 7fc7 8cbd cfbf
000006d0: 68a1 ac26 6d71 d1bf 6516 6e65 c6bd c73f
000006e0: 749c e4f1 6271 ccbf 5408 317f d751 b33f
000006f0: 72ed d75c eb7f d1bf 8dd6 1b22 8834 bd3f
00000700: c2e8 1fbc 4a32 ca3f b2ad f6c6 a063 d4bf
00000710: 9eed 746d 14e4 cdbf fd7a 5a6f f649 b2bf
00000720: e6c1 b069 97bf d13f 3c48 9ca4 ed82 d03f
00000730: 5b46 5182 99b5 d63f 0fd2 8aba de3a c93f
00000740: f8cc c906 a69e d1bf ea5c d419 1b87 c73f
00000750: b786 82d4 c6b3 c43f 1539 ac58 8b59 d13f
00000760: 5083 29fb 2320 bc3f c5e2 72b2 27c6 c1bf
00000770: 38b6 1cca 1252 bdbf 8eb3 0783 3437 d0bf
00000780: 5bf3 dc0f 96f0 c43f 266e 2517 acd1 d03f
00000790: c9dd 07d6 7a4e c7bf 843f 0853 535d cabf
000007a0: 2cb6 804c 55c3 babf b09e 0010 06a5 babf
000007b0: 9a4c 7166 5e04 c8bf ec83 a0f0 dd60 d03f
000007c0: a958 46f6 cf2c d4bf 5ded b073 c67f d0bf
000007d0: 459c 2868 fcc4 98bf 9bd6 4b75 138b 9f3f
000007e0: 41b4 6fde 7154 b83f 9231 8093 d6ea b23f
000007f0: 782b e065 d7b2 7e3f f2e1 6df7 d852 ae3f

linears.3.bias f8 [30]
-0.06881116174523304 0.025186770114629324 -0.05433803564044722 0.054755741460441314 -0.03900268110482927 0.062016844263084514 0.03941347002443578 -0.03802825216770149
-0.054519028324872876 0.024634358335406614 0.04698633904225058 -0.044795958438491455 0.036697934132678495 -0.031531794288707365 -0.047288193857613105 0.056088463367696136
0.04237323792089166 -0.03217630273571163 0.04679176081664371 -0.049835987070426295 0.03843515774037127 -0.03946043276694284 -0.022858496902619284 -0.02429549267938481
0.04061846769040287 0.03519877359355425 -0.06204853622620196 -0.010375451105317382 -0.00954547510926662 -0.019000765584631246
00000000: a7a8 4bb9 9b9d b1bf be9f bc87 8fca 993f
00000010: 5b5b 02ec 31d2 abbf d780 aecd f108 ac3f
00000020: ec65 9acf 28f8 a3bf 3078 d2fb abc0 af3f
00000030: 66bc 8d99 002e a43f 76c5 c466 7078 a3bf
00000040: 607e 5407 ebe9 abbf 2052 a2cd bf39 993f
00000050: f028 17eb 970e a83f cbfb f8f0 7eef a6bf
00000060: bc79 dc55 12ca a23f 3426 8272 ef24 a0bf
00000070: 45f1 357c 2836 a8bf 81bd b187 a0b7 ac3f
00000080: 2214 31ee f1b1 a53f e582 e98f 6979 a0bf
00000090: c006 dcf4 16f5 a73f 9741 433d 1a84 a9bf
000000a0: c9e2 05e3 c5ad a33f 49a7 7068 2834 a4bf
000000b0: 76a5 87c2 3768 97bf 031f fee9 eae0 98bf
000000c0: 5d15 b09c f1cb a43f ac22 e3da 9205 a23f
000000d0: fc60 b663 d3c4 afbf 15be 6d79 b93f 85bf
000000e0: bf47 5afb 938c 83bf dbca 23cb ef74 93bf

linears.4.weight f8 [3, 30]
-0.30611063984235415 0.09348594600209628 -0.41319245339359256 0.2562928976587876 -0.39550152296738605 0.19609942158648372 0.10498024992314899 -0.3211549657137046
-0.13254916614594034 0.16612946743610313 0.39382663319441213 -0.4299516555531291 0.36940710817741645 -0.4803028936539 0.36990217472353415 0.25135810413982485
0.19714338171329832 0.224497801751389 0.14108342436543392 -0.43795703239206385 0.37273531412719735 0.04840113488333156 0.24357868905943175 0.28639732807565255
0.13335454217273293 0.41589135091233675 -0.07192225661597759 -0.40439103343691674 0.4282186072899609 -0.14569984493817345 0.13322084232162099 0.1509357691268934
-0.08692487287145118 -0.27372802797375667 0.17781605828952765 0.03944922524290372 -0.055807765717951006 0.2132115412810053 0.03301690217683118 0.40362497616092213
0.12943238973036894 -0.09722839926792094 0.3227119775691098 -0.4042535288606172 -0.03489613988677368 0.0060046116588578806 -0.07610401246349666 -0.4352007368007512
0.041433154283519735 -0.1239819505042832 0.20931879933960762 -0.2864733577157636 -0.0734672145565367 -0.13676963057669714 -0.014906864456257584 0.41916171675844965
0.1863883168361821 0.04474594021135908 -0.4182564634144334 -0.4134240897235481 -0.006708133404491738 -0.06898997296552081 -0.0373591290353498 0.3461274495148096
-0.4487579164029284 -0.04264861964891415 0.26022674653524863 -0.26922115675595076 -0.07506856959266983 0.1336618734141767 0.10567936245730725 -0.09352899339652229
0.019502893981806754 -0.36474812962703057 -0.348510342128223 0.2152700326226402 0.22521532394302216 -0.17399225109572233 0.3052164933393969 -0.16001407164313597
0.43614692624444185 -0.3175287641666753 -0.29675310987482384 -0.43701317776613213 0.21078899370819362 -0.19800273806677807 -0.271812920441122 0.19120435213898523
-0.4649054438903511 0.28579234977268847
00000000: a927 c514 5197 d3bf b2f1 b6e8 b1ee b73f
00000010: 12e3 91c2 be71 dabf 720f 6953 1a67 d03f
00000020: 7e70 aa9e e54f d9bf 4f3e 3d2d c919 c93f
00000030: 3555 2554 fcdf ba3f 220e ac8e cd8d d4bf
00000040: b7bc dafe 5ef7 c0bf 681d c5fa ba43 c53f
00000050: 4e48 779f 7434 d93f 408d ddf2 5384 dbbf
00000060: 450b 22b6 5da4 d73f 0cbb 1a59 48bd debf
00000070: f209 ca2b 7aac d73f f65d 374d 4016 d03f
00000080: 4e6d 8a8c fe3b c93f d8e6 450e 58bc cc3f
00000090: 0e20 d48a 050f c23f 0c56 cbee 7c07 dcbf
000000a0: fb65 0f38 e5da d73f 248e d396 08c8 a83f
000000b0: d6a3 c123 962d cf3f 1aca 6f75 5554 d23f
000000c0: 19d5 b3fa c211 c13f 50e5 b6c1 f69d da3f
000000d0: 1e28 053c 7f69 b2bf 900f daed 8ae1 d9bf
000000e0: d356 7604 ef67 db3f 4857 85e2 4aa6 c2bf
000000f0: 1f5e 756c 610d c13f a32a 1900 dd51 c33f
00000100: 741c 315e b540 b6bf bd55 0990 c284 d1bf
00000110: b950 8735 adc2 c63f 7fa7 8a58 b032 a43f
00000120: 032c 3ee1 d592 acbf 0541 770a 844a cb3f
00000130: 2123 2166 97e7 a03f a96f 1dda fdd4 d93f
00000140: 13b0 7794 3d91 c03f 6920 19db f5e3 b8bf
00000150: bbf4 6b23 50a7 d43f afee 6f31 4adf d9bf
00000160: d502 2427 e8dd a1bf e318 33ab 4a98 783f
00000170: 3206 a074 8d7b b3bf f246 f030 54da dbbf
00000180: 7855 3cf5 b936 a53f d2ce b5f6 47bd bfbf
00000190: 4401 cd5a f5ca ca3f ff20 a459 9455 d2bf
000001a0: ef39 d953 bfce b2bf 6dda 34d1 aa81 c1bf
000001b0: 13b0 9a7a 7d87 8ebf cd9d 4daa 8bd3 da3f
000001c0: 5d7d 9586 92db c73f 6851 ac9b f0e8 a63f
000001d0: bf28 edc1 b6c4 dabf f76f 2f50 8a75 dabf
000001e0: 9194 6ed9 fc79 7bbf c28a a3ad 53a9 b1bf
000001f0: f4e6 d35a bc20 a3bf f37e fabe f326 d63f
00000200: 3263 b11f 73b8 dcbf 7927 3935 0ad6 a5bf
00000210: b974 7a15 8ea7 d03f 471e ea5f eb3a d1bf
00000220: 00a7 5b9b b137 b3bf 059b 840f d51b c13f
00000230: 88c3 9d7d cd0d bb3f 36a9 dd1f 84f1 b7bf
00000240: cc1d 510f 91f8 933f f19d 018a 0858 d7bf
00000250: 158b 7052 fe4d d6bf e727 f6ea f78d cb3f
00000260: 8158 7211 dbd3 cc3f 8755 1bca 6045 c6bf
00000270: b5eb 45c2 aa88 d33f 78b4 4d52 577b c4bf
00000280: 9e21 1ecc d4e9 db3f 94a6 682a 6452 d4bf
00000290: b283 79c1 00fe d2bf f44c 9b1e 06f8 dbbf
000002a0: 35ae 2a3d 22fb ca3f 3df4 415a 2758 c9bf
000002b0: 0d31 fb04 6265 d1bf 7818 a55b 6279 c83f
000002c0: 7173 4fc3 02c1 ddbf c91f eefe 6b4a d23f

linears.4.bias f8 [3]
0.06256062723109408 0.020388499340258343 0.03157315176374922
00000000: 3d8c f927 f903 b03f c511 8607 b9e0 943f
00000010: a38e 832c 5b2a a03f

step f8 []
2500.0
00000000: 0000 0000 0088 a340

exp_avg f8 [30, 1]
-6.796025374373646 4.828443183874144 3.2513537102837273 -3.0125990694135636 0.48216956939007527 -7.805948667614903 10.573749182941063 2.404301396926833
8.6568354694698 5.848566697149362 -11.644092595426711 52.18132806650801 6.22517839121195 -6.71742475742739 -7.877598207634193 0.49859169234838935
-4.504107841103723 -30.74525346952197 1.024258932951051 11.063667699041405 24.57404309659279 2.102884243078677 -2.4022676083321333 -27.933499964906975
6.0847416384061015 -43.26885611642408 -2.4894487341121345 4.086946218608732 7.853305725896504 1.4040350690541032
00000000: 45e2 9646 212f 1bc0 9255 f568 5350 1340
00000010: c92c ebbb c502 0a40 f6ba 788a cd19 08c0
00000020: 9e08 eac0 dddb de3f a4a4 869b 4a39 1fc0
00000030: 5bad f173 c225 2540 1039 ec5e 023c 0340
00000040: 8273 18bd 4c50 2140 ccec 12ab ee64 1740
00000050: 2fe8 3181 c649 27c0 d9bf 11c2 3517 4a40
00000060: ba15 082a 95e6 1840 2bf7 7998 a4de 1ac0
00000070: b044 c31a a982 1fc0 5d64 2c21 ede8 df3f
00000080: 66ca 8cd8 3404 12c0 d0d3 6eee c8be 3ec0
00000090: e791 ba55 5d63 f03f 8963 7a0d 9920 2640
000000a0: 505c 067d f492 3840 815f 5af9 b4d2 0040
000000b0: 9436 7014 d837 03c0 b517 8cda f9ee 3bc0
000000c0: 3141 1683 c656 1840 7daf 91e0 69a2 45c0
000000d0: 49a4 1019 64ea 03c0 d2bd f56d 0859 1040
000000e0: 30dc e8f9 c869 1f40 4064 007a ed76 f63f

exp_avg_sq f8 [30, 1]
723.384012864672 478251.21849453775 869.6309068285658 673.1847733099783 927.2961996150178 5091.619364733299 417.21595981858025 656.8666147511246
94551.47959430299 44752.98526747669 2153.4802480342987 1465481.0773648072 10648.93011974793 656.3109247193497 2237.141176792048 7747.717084891204
1778.8593210395957 2868.359889944277 9231.045227454115 1508.5112859541432 4853.845315837479 482.83389859605586 1001.780694752534 647506.3096996672
3583.2639230071013 1665262.4779633966 338.4517048298452 4141.01090032086 6297.976971767454 199.3655050642257
00000000: 1338 5675 129b 8640 3808 bddf ac30 1d41
00000010: 1b1c e118 0c2d 8b40 3edc 6d6a 7a09 8540
00000020: b75c e79d 5efa 8c40 d1e9 af8e 9ee3 b340
00000030: d660 4892 7413 7a40 7ef2 b6d3 ee86 8440
00000040: 6b13 6bac 7715 f740 c6a8 4f87 1fda e540
00000050: 9002 12e3 f5d2 a040 152e ce13 895c 3641
00000060: 5df5 290e 77cc c440 0069 19c6 7c82 8440
00000070: 9a11 5348 487a a140 2d1c e092 b743 be40
00000080: 50c7 daf1 6fcb 9b40 a8a9 7e43 b868 a640
00000090: 2762 03ca 8507 c240 cc8f 8b8e 0b92 9740
000000a0: c364 9e66 d8f5 b240 d8e3 0da6 572d 7e40
000000b0: 57f2 e3dc 3e4e 8f40 6cf4 909e a4c2 2341
000000c0: 5398 ea20 87fe ab40 25cf 5b7a ee68 3941
000000d0: 16fa d72e 3a27 7540 9c09 5dca 022d b040
000000e0: 555e d21a fa99 b840 e52b ad37 b2eb 6840

step f8 []
2500.0
00000000: 0000 0000 0088 a340

exp_avg f8 [30]
-0.5893931733285568 19.916340205462813 -0.010823464663207605 -1.066923067249029 0.03309128970071025 -2.8102896614998873 1.310606156696806 0.9005825155286095
-38.51965287647571 -31.105549406856223 -5.381847975968523 -41.26992790023639 19.082196192557976 1.1896424747701981 -1.1410026727099987 0.7763049352258926
-3.5472512107535765 0.4251446681722135 -29.02616821092589 1.7103434860241775 2.7422520073719 -2.5860008890306667 -1.2675978479313463 44.82001318698755
0.26067819582438756 -17.42538062507169 -0.5984027476882123 -7.009929647804525 0.7361271598905201 -2.663685575719905
00000000: 65d1 7d12 4fdc e2bf 0379 8e45 95ea 3340
00000010: c027 10d6 9c2a 86bf e2eb 12ec 1d12 f1bf
00000020: fa11 186e 57f1 a03f 716e 6325 797b 06c0
00000030: 3d2f 4f29 3ef8 f43f eb6e 716c 92d1 ec3f
00000040: 25de 46fc 8342 43c0 478f 3249 051b 3fc0
00000050: 7d50 e327 0387 15c0 89e5 57ff 8ca2 44c0
00000060: 69e4 46cf 0a15 3340 cb20 318c c608 f33f
00000070: 3202 bf04 8c41 f2bf 6e98 9072 7dd7 e83f
00000080: 6a10 273e c560 0cc0 5894 77fb 9135 db3f
00000090: 1c1f baf5 b206 3dc0 5968 9621 915d fb3f
000000a0: da6b 08d2 21f0 0540 5582 ee3b 21b0 04c0
000000b0: 9685 55ae 1448 f4bf 3c33 2e31 f668 4640
000000c0: 5425 7699 f3ae d03f f208 a1be e56c 31c0
000000d0: 8409 e584 1d26 e3bf 2f53 62ff 2a0a 1cc0
000000e0: 30ab ad8b 5a8e e73f f559 1462 3a4f 05c0
