1D_Transcritical_Inverse_Problem_n_initial_0_01/Models/Model.ckpt-44500.pt (torch, 82425 bytes, 43 tensors)

linears.0.weight f8 [30, 1]
000000 10 16 44 34 b4 1f de 3f 43 04 39 5f 61 60 89 3f
       0.47068505386445825 0.012390862196413837
000010 23 42 1a ed b5 98 d1 3f f7 51 df e3 20 1f c7 bf
       0.2749457183317949 -0.18063746573046988
000020 48 61 d1 2b ec bf d2 bf e7 39 a6 bf af 49 c2 3f
       -0.2929640224370087 0.14287373407246592
000030 2d 54 2d 65 0b 3c b5 3f 60 e6 18 af 8a ed cf bf
       0.08294745655196385 -0.24943669843360095
000040 cd ad 29 02 71 92 8a bf 07 b9 4f 0e 89 a1 8b bf
       -0.012974627378944082 -0.013491698025941646
000050 8d 48 1f 78 28 e5 d5 3f fc b6 7c 7f 19 22 8c bf
       0.34211169939693137 -0.013736914828395445
000060 a2 f8 4c 2b 78 76 8a 3f 86 b4 5a 0a d0 59 d5 3f
       0.01292127496855883 0.33360672961391236
000070 d0 06 27 33 28 85 d1 bf ec 50 15 47 cb 42 c3 bf
       -0.27375226016384335 -0.15047589274275397
000080 1b 12 ae 58 89 89 d6 3f d1 78 12 b6 c0 98 b1 bf
       0.3521445623412391 -0.06873707242127415
000090 7d bf 45 0e 18 dd 8c bf 29 2c e1 f7 0e 14 d6 3f
       -0.014093578277168945 0.34497427184095614
0000a0 bd 97 35 7a 38 5a b8 bf 88 63 db 99 62 20 c2 3f
       -0.09512665732981325 0.14161331665561883
0000b0 d5 55 2b 98 76 3e d1 bf b9 76 b4 22 86 b4 8c 3f
       -0.26943745479851816 0.014016197141752828
0000c0 42 36 a7 9e 1f 49 c0 3f c5 db e7 d6 92 8f 88 bf
       0.12723155256974122 -0.011992594893838313
0000d0 e5 cd 04 5b 57 a3 b2 bf 59 a4 ba e1 0f 80 ab bf
       -0.072804889413241 -0.053711410813158174
0000e0 01 48 a7 b4 0d e9 d0 3f 2c fb 60 a9 43 ea da bf
       0.26422445909440745 -0.42054835835363025

linears.0.bias f8 [30]
000000 c7 0a 1e a0 51 7b b6 bf 15 c3 9d 0b d5 11 ca bf
       -0.08781919631114042 -0.20366919581604095
000010 c9 24 fc 36 94 b8 72 3f 22 ab 3d 5f 67 83 ca 3f
       0.004570559467319054 0.20713512564119535
000020 c5 5e 1d 70 ae 3e c3 bf 69 5d e9 96 0c 76 c4 3f
       -0.15035038446762009 0.15985257500390596
000030 44 28 68 da 2e e1 d4 bf 4c 9a 83 bf cb 3e a4 3f
       -0.32624408081813194 0.03954159462755466
000040 dc 2c a4 24 53 98 d2 3f 0b d0 6d 77 6f 52 d7 3f
       0.29054716661694413 0.3644064585016628
000050 b4 96 03 b9 0c 53 c3 bf 01 bc 30 d5 5a a6 d8 3f
       -0.15097197564971554 0.3851534921586222
000060 1f 22 52 5c 59 02 d2 bf 6f aa 46 54 5b 1c ad bf
       -0.28139337554651606 -0.05685696986923438
000070 ec bb ba d4 47 4a c3 bf 6a ef 8f 13 f4 e8 c2 bf
       -0.1507043637006683 -0.14773417430103147
000080 2c ab e4 8f 73 81 b9 bf 3f 8b 34 e5 90 f2 c0 bf
       -0.09963152182596663 -0.13240252677595696
000090 3f d5 86 da 10 70 db 3f 1e 57 bd a2 36 3b c3 3f
       0.42871495571610646 0.1502445501925473
0000a0 a0 ba 68 d0 02 2a c2 bf 13 a5 e7 0e 03 b0 ba bf
       -0.1419070737478778 -0.10424822915924307
0000b0 46 84 16 2d 0f 4e c7 3f 95 6b 18 65 cd a0 db bf
       0.18206968022880882 -0.4316895949611362
0000c0 42 b3 07 2d 31 77 ca bf 28 5e 3b a0 97 05 c3 3f
       -0.20676245402082755 0.14860816310714253
0000d0 57 30 61 4a 3d 11 9e bf 30 97 57 ed 7e 82 c8 3f
       -0.029362638153813538 0.19148241604778482
0000e0 a1 66 28 b7 ea a5 c5 3f 86 31 bb 6b 9c fc ca 3f
       0.16912588065388426 0.21083407650293057

linears.1.weight f8 [30, 30]
000000 94 dd eb f1 18 19 ba 3f 60 c8 e9 04 a2 30 e2 bf
       0.10194545656474069 -0.5684366317712026
000010 f7 ef 0e df d0 a7 cb 3f 9f b6 d8 75 ef 6b c9 bf
       0.21605883494873954 -0.19860642675614756
000020 a7 eb 6e cc 50 ed c6 3f 95 2d 49 52 0e 34 c2 3f
       0.17911729795545492 0.14221362130988938
000030 57 39 35 4b 95 0a cf bf 01 de 68 22 ab 77 c4 bf
       -0.24251047298680348 -0.15990199260862428
000040 5e 61 d5 c2 c9 31 b7 3f 01 af 12 71 5b 06 b7 3f
       0.09060345656087551 0.08994075308390494
000050 b1 65 b2 47 8a cd 9a 3f 4e 8f 2f cd 4b 59 e4 3f
       0.026174698473004635 0.6359004027876638
000060 07 50 dd b0 24 17 b0 3f 12 b3 3a ef e9 39 6f 3f
       0.06285313909512534 0.0038117951424595587
000070 9a 99 fd 6c 1b b1 d0 bf 91 38 79 85 50 bf c4 3f
       -0.26080976146331525 0.16208845631848992
000080 b4 e7 60 dd 29 14 b2 3f 5d 45 4f 62 dd 7d c3 3f
       0.0706201711153927 0.1522785882976149
000090 23 64 d8 2c 78 9d c2 3f c0 88 a3 84 3f 6e cd bf
       0.14543058576308096 -0.22992700554374856
0000a0 74 a4 4e 29 cd 5b ce bf 5a 01 0b e1 15 ff b5 bf
       -0.23717655674889537 -0.08592354530538185
0000b0 26 5c b0 a6 84 1b cb bf 92 7e b8 c4 b8 e5 e0 bf
       -0.21177728785616629 -0.5280422060204322
0000c0 cc 54 92 17 ba f0 99 3f 43 33 73 6a 35 5b dc 3f
       0.025332362831780128 0.4430669345427313
0000d0 f4 77 7a d2 d9 6d c8 bf 70 53 90 84 98 e1 c5 bf
       -0.19085238244309688 -0.17094713661995398
0000e0 28 cc 8d a1 84 6c c9 3f c1 b0 6c 85 47 a8 ab 3f
       0.19862420929311608 0.05401824477880402
0000f0 28 91 ec bc 8e ad b1 bf 3c ef 40 31 1d 7a c5 bf
       -0.06905452835468806 -0.16778912453616524
000100 7a db fc 52 6e c1 85 3f 2d 76 61 2d 62 c0 d1 bf
       0.010622846515259122 -0.27736715728483113
000110 1d ea ae 00 c8 79 be bf e9 42 a2 27 0f 0a a0 bf
       -0.1190457345646014 -0.031326745594133794
000120 0c 90 68 49 d9 b2 cb 3f 60 87 e8 b3 a4 ea c4 3f
       0.2163955315055549 0.1634107473810742
000130 6e ed 69 f2 80 b7 cc bf aa 0f 45 4d 54 01 ae 3f
       -0.22435008846864996 0.05860389178499699
000140 40 07 c6 dd 0a 75 c1 3f c1 6c 45 f5 dd 79 d7 bf
       0.13638435200487642 -0.36681317283882825
000150 6a 88 da 7f c5 1b a0 bf 7d 97 a8 a3 35 22 cd bf
       -0.03146187959397724 -0.22760649195805263
000160 e1 03 f5 2a ee 6a 9d bf f1 3a 7f 11 96 4f bf 3f
       -0.02872821938695214 0.12230813910648998
000170 d8 d4 cf 77 d2 cd b3 bf 91 8e 4c e9 db 1b d0 bf
       -0.0773593466290835 -0.2517003801642455
000180 c5 9b bb af 60 73 af bf 70 c0 eb de 17 f8 9f bf
       -0.061427136852038745 -0.031219838124286914
000190 20 78 6b 8e 74 b1 b4 3f f1 26 d5 c4 bf 8f 8f 3f
       0.08083275296255055 0.01541089839396956
0001a0 27 74 16 31 00 65 bd 3f 39 6c 20 8c 56 84 c7 3f
       0.11482239912443558 0.18372613756295822
0001b0 ba 55 bf 3c e7 ca c3 3f 14 a0 70 86 4e cf bb bf
       0.15462961641484957 -0.10863199979996835
0001c0 89 bb 06 03 de 3b a6 3f 25 79 d9 a5 6d 35 d1 3f
       0.0434255007452214 0.26888600536575985
0001d0 66 f2 30 a5 bc 82 a6 bf b1 e6 84 56 f0 02 ca 3f
       -0.04396619335645795 0.20321468567435866
0001e0 e2 bb 2f 73 6e 08 d0 bf 65 ae 01 20 64 30 d8 3f
       -0.25051461456945223 0.3779535591663488
0001f0 ba 72 13 d3 67 f2 c3 3f be 16 80 af f5 31 c0 3f
       0.15583513075298133 0.12652464932778246
000200 d7 8c 28 d5 7d 7f 88 3f a1 be cc b6 1e 6d c3 bf
       0.01196192080266771 -0.15176757741709415
000210 1c b1 53 c7 3b 9d bc bf 81 d6 5c 64 f3 12 c0 3f
       -0.11177419296626961 0.12557833099861074
000220 c0 82 6d 84 ed 28 c3 bf 99 07 15 a1 1d 27 d2 bf
       -0.14968651739311234 -0.283637435251984
000230 24 7a 7f 7c 71 53 8c 3f cb 1f 2e ba d3 2a e5 bf
       0.013831030475498336 -0.6614779125529763
000240 64 b0 85 5d a1 3a d4 3f 8f f5 ad 2b 93 c2 9f 3f
       0.31607851155309263 0.03101568178270991
000250 a2 00 04 88 8e 46 c6 bf 80 c8 9e 8c d2 66 a4 bf
       -0.17402822152508174 -0.03984697310024021
000260 44 3c 09 cb e2 22 b4 bf 85 5b 7b e8 63 fc d4 3f
       -0.07865731675086446 0.32790467932994033
000270 54 2c fe ac fb 09 c3 bf fa 4b 25 13 25 97 cd 3f
       -0.14874216029088194 0.2311750739559953
000280 92 50 88 f1 63 6c d6 3f 8d 63 53 ec db f7 c3 3f
       0.35036562525898163 0.1560015586790339
000290 ca b3 2e fc eb ff ce bf ee 41 1f e3 31 c9 e8 3f
       -0.24218511403651483 0.7745599208811293
0002a0 20 89 7f 86 48 74 ce bf fa 01 98 72 aa fb d9 bf
       -0.23792368476194614 -0.40598546210097164
0002b0 77 ed 60 28 96 11 d2 3f d9 69 22 f2 8b f0 cd 3f
       0.28232339804863876 0.23390340159387682
0002c0 4e b0 63 4d 47 28 ce bf 00 ae ed 73 e4 56 af 3f
       -0.2356042030218099 0.06120981135503811
0002d0 8b ec 42 c1 05 bd b0 3f 5b 86 62 af 56 9a dc 3f
       0.06538425415321762 0.4469200814001845
0002e0 ea 1c 1d 69 57 15 b0 3f 73 c1 e8 ad 17 5e d1 3f
       0.06282564464810361 0.2713679502803849
0002f0 c1 dd 84 73 f2 e4 c9 3f 68 53 6e d0 c4 b9 c1 bf
       0.2022994102533016 -0.13848171403210618
000300 94 6c c6 73 6e 8f cc bf d8 73 90 19 4b 39 d2 3f
       -0.22312718060570502 0.28474690910826217
000310 a6 7b 96 0f 77 c6 e4 bf 69 ce 11 11 45 31 e3 bf
       -0.6492266945314114 -0.5997643788709414
000320 14 14 87 2a 62 e1 d2 bf 0a 07 8c 30 2e 04 cc bf
       -0.29500631478396255 -0.21887757654626966
000330 86 21 e9 82 8d 2f e2 3f cb c6 77 d9 1c 84 c4 3f
       0.568304782566927 0.16028175943897902
000340 30 13 4c ca c1 de 96 bf ba ff 90 6c b2 26 c5 3f
       -0.02233412549232411 0.1652434377774606
000350 88 13 d6 d8 a4 98 c2 3f ab 41 7f 8f 8e 3d 82 bf
       0.1452833231707269 -0.008906472925361472
000360 98 f5 ec 68 ab ba dc bf 22 dd 86 b0 57 65 d2 bf
       -0.4488934063591272 -0.2874354576010366
000370 17 66 5e 50 2a 82 bb 3f 35 67 d4 80 4c ed c4 3f
       0.10745491468551226 0.16349178591263472
000380 4d 9b 3f c3 af 8c b4 3f ce 7e be 2e 20 39 d5 3f
       0.08027170674141111 0.33161167683463766
000390 ee d2 a9 f5 a1 8a aa bf 53 b2 f1 35 37 33 e4 bf
       -0.051838933218197755 -0.6312519124599681
0003a0 1e 18 e8 6f 55 48 bd 3f 3e 29 8f 19 01 8c c8 3f
       0.1143849752625958 0.19177259204873026
0003b0 e3 1e e6 5b 0f e9 ab bf e6 f4 2f df eb 16 b3 3f
       -0.05451248165905811 0.07456850241574706
0003c0 9a 0f 27 19 76 c2 d2 3f b5 ba 97 b1 4d 57 a2 3f
       0.29311897713000123 0.035822322777553074
0003d0 f0 ef b7 03 40 2b d2 bf 38 34 9f 67 3a cc 74 bf
       -0.28388977397094006 -0.005077579635281153
0003e0 1e 77 ba 6c 8a 76 cb 3f e9 04 c9 05 de d0 b6 3f
       0.21455507573130544 0.08912456170311923
0003f0 6e 31 5f e4 8d 77 c6 bf 56 94 4c 58 7d 8e a9 bf
       -0.17552350665063038 -0.04991523459310858
000400 f2 a2 87 2f c3 e1 dc 3f e8 14 5e 24 67 ac da 3f
       0.45127944604477854 0.41677263785852725
000410 75 b2 db 35 4d 9d ce 3f c2 84 14 68 80 de e1 3f
       0.23917546396059533 0.5584108383956379
000420 31 07 64 45 f1 a8 da bf 36 b3 e5 02 ac a2 ce 3f
       -0.4165614297527212 0.23933935300319725
000430 25 27 24 c4 42 e0 cc 3f f2 ab 10 dd 30 a4 80 3f
       0.22559389664848442 0.008125669237491782
000440 63 d5 7c 1d 7f a6 d1 3f ba 31 bc 96 8a 0f d1 bf
       0.27578714255954234 -0.2665735694906989
000450 c8 f9 76 0e a6 b1 d1 3f f9 18 81 be ca b5 80 bf
       0.276467813611728 -0.00815924066422412
000460 90 01 27 94 b0 26 6c 3f c8 a9 2f 00 e1 e1 95 bf
       0.0034364174655083304 -0.0213694721568716
000470 50 8b 93 96 4c 4c d2 bf a9 47 3b 54 a2 54 ac 3f
       -0.28590693192216055 0.05533320692269623
000480 4e 12 38 48 33 8f b0 3f a9 7c 3a cf ab fb b1 3f
       0.06468506348762412 0.0702464466980809
000490 18 ea d6 29 18 d3 a8 3f 8a 8e 8f 3f de 27 c6 bf
       0.04848552237259102 -0.17309167960694466
0004a0 eb f9 ca 1f ce ea be bf a7 7b 86 d8 e9 93 d0 bf
       -0.1207703425998045 -0.25902792115260315
0004b0 ec 38 ec fe 24 82 82 bf a0 ff 69 4a bc 2f c7 3f
       -0.009037293462395422 0.18114427217005602
0004c0 f2 ba e7 86 25 0c b3 3f 6c e3 c1 66 94 c9 b9 3f
       0.07440409225067038 0.10073211201405535
0004d0 9a 6a 20 ee ee 84 c1 bf ed cb c8 04 19 ef d0 bf
       -0.13686930300976458 -0.26459336726401156
0004e0 42 ce 50 f8 a3 82 b5 3f 55 6a 67 12 75 c1 b6 bf
       0.08402466595071537 -0.08888942431750853
0004f0 e5 7c 4c 36 1e d4 a1 bf ef 35 8f d3 dd 32 9d bf
       -0.034821457031506665 -0.02851435283428388
000500 a3 5f 80 29 47 b1 c3 bf 62 40 32 06 1d d1 c7 bf
       -0.15384759451330607 -0.18606913378289663
000510 92 56 9a 74 65 df c5 bf b1 7e a7 a4 08 af aa 3f
       -0.17088001435756844 0.05211665162982849
000520 5b b6 49 55 a0 60 a9 3f 6b cd b3 d1 e1 94 9e bf
       0.04956532517540487 -0.029864815162864582
000530 48 1a 4b 0d 9d bf d6 bf 9a ed 5c a6 58 ab b8 bf
       -0.3554451589410843 -0.09636453687283222
000540 cf 12 c9 85 94 a1 c1 3f 95 4f d1 e6 26 9a b7 bf
       0.13774353535168024 -0.09219592223354163
000550 3e a3 01 57 5f 9a b0 bf 3b ea b2 78 b4 5f a9 3f
       -0.06485553621463411 0.04955829594969826
000560 40 a3 46 ee cd 85 cf 3f 4c c6 bc 26 86 b1 c3 bf
       0.2462708867508585 -0.15385510341143271
000570 1f 90 c9 4f fd 7c b3 bf f9 73 2a bb 48 75 b4 3f
       -0.07612593839581948 0.07991461343267749
000580 0a 8e e2 cc b9 fb a9 bf 61 7b d4 53 a0 71 c9 3f
       -0.05074864030873634 0.19878009885084238
000590 7e 49 dc d1 4c 48 cc bf 31 ae 75 e0 eb 74 c1 3f
       -0.22095642325491477 0.13638065776773226
0005a0 8b 3f 3f 4e fd 5a c1 3f a9 88 16 1e 05 d1 bf bf
       0.1355892784181346 -0.12428314194270008
0005b0 ca f2 b9 9c d4 11 94 3f e2 76 47 bf 43 07 b7 bf
       0.019599268022363593 -0.08995459957028687
0005c0 18 33 ec b8 37 60 ca bf 02 cb 6b 1e c9 fa bc bf
       -0.2060613301222467 -0.11320168488218132
0005d0 b2 9d ea 20 e6 7f a7 3f f3 a6 27 6e 70 47 ca bf
       0.04589766647159922 -0.20530515078217312
0005e0 c3 b4 35 7b d0 75 d4 3f de 04 d9 80 de 81 e4 3f
       0.31969081909376146 0.6408531681592213
0005f0 e4 33 9c 45 9e 1d d0 3f 1a 32 08 14 3c 29 e1 3f
       0.2518077544962678 0.5362835303545268
000600 f9 a1 0a a4 c2 2e dc bf 23 9c 92 7d ad 52 d1 3f
       -0.4403540231674295 0.27067124617537014
000610 95 fd 35 d1 74 20 c6 3f 9d a3 a3 37 d6 71 cd bf
       0.17286548819900519 -0.23003652302511748
000620 e2 1a e6 47 eb 62 c0 bf 3c db a5 ac aa c6 a1 3f
       -0.1280187703198044 0.034718831610851514
000630 61 b0 79 f8 c5 4a d2 3f 9b a9 c1 a9 23 9b b3 bf
       0.28581380143328344 -0.07658598799176845
000640 23 0a ea e9 64 82 c0 bf 43 91 bc 7f 7d 37 cb bf
       -0.12897931501000057 -0.2126309274400545
000650 03 c1 7b 00 26 83 ba 3f db 2e da 89 d5 21 e0 bf
       0.10356366645624253 -0.5041301433970732
000660 50 5e a1 45 82 89 d3 3f ab 55 f9 a4 82 e5 c3 3f
       0.3052678756698457 0.1554415994202548
000670 56 39 6a 34 8b 70 d5 bf 94 51 a8 56 11 a3 9b bf
       -0.33499412649770954 -0.026989241518167242
000680 82 37 23 7c d4 b9 9b 3f 89 69 a1 e8 c6 2c c4 bf
       0.027076072766071053 -0.15761648520385688
000690 02 16 a4 47 3f 23 c1 bf de a1 2f 1e 14 9f b2 bf
       -0.13388815878003874 -0.07273984658207364
0006a0 c4 0a 7c bf 5f b2 cb 3f 37 5e 7d 7b 21 7a c3 3f
       0.21638104295569438 0.15216463594218663
0006b0 d7 d5 d8 b9 d7 cb cb bf b1 08 37 df bd 30 d0 3f
       -0.2171582848983877 0.2529749564965967
0006c0 89 d6 fa ab 63 a7 ba 3f 94 df e0 83 5b 22 b8 bf
       0.10411665867544619 -0.094274253556135
0006d0 28 60 b0 de 2c 3b d7 3f 36 92 52 aa c6 4e 95 bf
       0.36298677203149277 -0.02080831923071199
0006e0 a5 c4 2b ac f3 93 cf 3f e5 74 9c 79 24 30 c2 3f
       0.24670263201509104 0.14209419191403252
0006f0 38 4b 5f 82 cc eb ad bf ed 13 49 a4 dc 82 d2 bf
       -0.05843962756593729 -0.2892371754026602
000700 a4 23 db 43 31 ef af 3f cd 5c 24 31 ff d3 c0 bf
       0.06237176850624529 -0.13146963023675654
000710 b2 ee 05 fe 51 e5 cd bf 73 5a 4d 45 a2 9d b1 bf
       -0.23356079963183657 -0.06881155197093296
000720 02 ff d2 8d fd 7a b4 3f 4a 69 23 0a d9 57 c5 3f
       0.08000168526177379 0.16674340243373315
000730 a2 d3 43 d1 84 ec ab 3f 0c 01 40 ae 9d 5e 97 bf
       0.054538870377576446 -0.022821868667962028
000740 2e 4d 36 93 b0 1e cd 3f 68 c5 55 f0 55 0f d2 bf
       0.227499076729694 -0.28218601675242505
000750 e7 4e b5 51 aa 8c c9 3f 50 e7 73 48 f8 bf c9 bf
       0.19960526456508562 -0.20117095506412364
000760 66 fe cc 06 61 31 d0 bf 9f 6c ca 3a a4 4c b3 bf
       -0.2530138555921212 -0.07538820681877433
000770 16 92 84 3b 82 41 d1 3f 6d c4 fd 02 f4 30 c5 3f
       0.2696233350018543 0.16555643220957297
000780 46 e1 9c 43 e5 f1 ce bf 61 10 c4 80 86 4b cf bf
       -0.2417570667401014 -0.24449235236545788
000790 8b ee 52 eb c9 5c c8 3f d0 ac e9 62 74 b1 af bf
       0.1903316878359543 -0.06190074641639287
0007a0 b7 2e 47 59 4a cf d0 bf 6b e5 38 fd 57 81 c0 3f
       -0.262652003465273 0.12894725670211513
0007b0 b4 ad 2b 4a 29 dc c2 bf a3 21 14 30 b0 1a c0 bf
       -0.14734378930675762 -0.12581446025457152
0007c0 38 b6 9d 1e fd 66 c5 bf fb 78 a9 b5 e8 6c b2 3f
       -0.16720546717572105 0.0719743197928188
0007d0 7d fd 74 8d 7d 31 7d bf 3e 68 95 0c 07 91 cd 3f
       -0.0071272758862613835 0.2309883891528574
0007e0 db f6 40 5f 48 9c d6 bf b7 fd f6 b3 50 58 bb 3f
       -0.35328873922467857 0.10681633371040432
0007f0 ee f8 b1 7f 95 4b b4 3f 79 c4 dd 42 af 73 c3 bf
       0.07927832000311572 -0.15196791424708403

linears.1.bias f8 [30]
000000 90 54 30 7b e3 94 bb 3f 05 47 14 df b4 5e a9 3f
       0.10774060971773936 0.049550678473805156
000010 f7 9d 75 50 60 56 4b bf 33 f6 38 c3 3b 2d b2 bf
       -0.0008342714581148204 -0.07100270763563614
000020 db 2d 68 07 a7 10 af bf c5 69 98 9b 3b bf a2 3f
       -0.06067392316262118 0.03661524080617399
000030 44 cf be e5 76 25 9f bf f8 1e f3 77 cf ae b8 3f
       -0.030416353008788435 0.09641739538630734
000040 f9 9f 11 8f 32 66 b2 3f a1 b1 51 4f ee 02 84 3f
       0.07187191002742556 0.009771215243937816
000050 b3 71 88 a0 32 10 c3 3f 22 57 47 56 a2 d8 a9 3f
       0.14893181646847395 0.050480912239136325
000060 08 47 bb d0 f5 e7 be bf 4b c3 2b 3d 5e 56 b1 3f
       -0.12072693201050921 0.06772412293845524
000070 e2 f2 2b f0 83 67 b0 3f 37 0b 95 4b 08 de 6c bf
       0.06407951940122872 -0.0035238420502151885
000080 55 ef f1 84 8e 9d ab 3f 9a 96 13 ca 99 6f bf 3f
       0.053936437348027035 0.1227966421461936
000090 2c 07 d8 f6 cb 4b b6 3f b3 ef 23 c0 01 27 af bf
       0.08709406639539158 -0.06084447355712488
0000a0 2c 3f 9f f5 6b b1 bd bf 50 68 57 46 23 f3 a7 bf
       -0.11598849054939525 -0.04677686914119816
0000b0 f1 30 10 7e e7 fa 85 bf e3 c5 28 1a 39 81 b4 3f
       -0.010732468161244376 0.08009678734449426
0000c0 a6 8b d5 c1 ba 86 a1 bf e7 7a 2c 4c 87 bd 9e bf
       -0.034231029664417975 -0.030019868873860125
0000d0 2b 30 6a e9 7c 40 a5 bf 35 d4 18 68 8e 19 b9 3f
       -0.04150762891103484 0.09804620782308933
0000e0 0b ae fb be c3 cf b6 bf 9e 11 51 34 51 a3 b8 bf
       -0.08910773670839249 -0.09624202277433944

linears.2.weight f8 [30, 30]
000000 03 a1 cc 8f 09 67 cd bf cc c6 c8 ea f5 54 c4 3f
       -0.22970695039226294 0.1588427921683916
000010 c3 46 d0 70 45 83 c9 bf 40 1a 6a 26 38 b7 dc 3f
       -0.19931858070827077 0.4486828208104363
000020 c5 ae 44 b0 c0 e0 dc bf 73 02 58 a9 1f c0 8c bf
       -0.4512178155298268 -0.014038321834051381
000030 bd 55 cc df 90 a8 d1 bf 88 d5 8c 19 d1 91 c5 3f
       -0.27591344695369086 0.16851247546734904
000040 ab 26 fb 04 cc 30 c3 3f 0c ef 57 5e 2a da d7 bf
       0.1499266647645546 -0.3726907655070455
000050 e9 4b c7 2a 81 8a cb bf 9a 84 73 e7 ed 69 cc 3f
       -0.21516432369989438 0.22198270608263188
000060 9d 1e 84 d5 08 e6 c4 bf 00 3c f5 52 15 0a d3 bf
       -0.16327009606924472 -0.2974904356132697
000070 1b 06 6f 11 f4 21 ba 3f cf ce 62 60 db 00 e0 bf
       0.10208058763148424 -0.5001046068705025
000080 92 54 0b ae de c2 b7 3f 84 93 79 9d bd 93 c0 3f
       0.09281722783210203 0.12950868787006808
000090 2e ec 50 e5 c2 af d6 3f 08 81 42 eb 78 f1 c4 bf
       0.3544776191153599 -0.16361915099424373
0000a0 81 4e 97 5f df 9a ba bf 00 66 15 a9 f0 50 c4 bf
       -0.10392566760793366 -0.15872009521517327
0000b0 08 27 1d 5e 29 52 b3 bf f3 b4 b7 b6 3b b6 c8 bf
       -0.07547243640615531 -0.19306131765134857
0000c0 c5 18 0a 29 fe 90 d9 bf f4 55 2f fd e1 48 ca bf
       -0.39947465904004914 -0.20534920561355785
0000d0 7a 30 37 7d 3d de c9 bf 17 3e df af c5 55 cd 3f
       -0.20209473241846238 0.2291800602674676
0000e0 04 ed 38 64 9c 2a a1 3f 54 0a 04 7b 02 f9 cc bf
       0.03352822040002404 -0.22634917265539178
0000f0 d4 8f fe 30 9c ae c7 3f 90 f9 ae 4e ea f8 d1 bf
       0.18501617805770698 -0.2808175819772254
000100 ad b9 ae 70 f7 b2 cb 3f e9 53 a9 b9 a0 26 c5 3f
       0.21639912607265668 0.1652413279104217
000110 26 ff 30 b6 98 93 c6 bf 8f d4 af 60 d4 39 ce 3f
       -0.17637928863586544 0.2361398193458268
000120 00 d9 80 b8 79 63 c9 3f 8b 60 6a ee 34 07 d0 bf
       0.19834825047446003 -0.25043986590163375
000130 50 c0 a2 24 47 d4 ac bf 2c 4d fe 0a 4f 08 c0 3f
       -0.0563070518704768 0.12525356327805903
000140 2f fe 17 18 28 a0 d0 3f d8 60 1d 95 df 50 c6 3f
       0.25977518418219153 0.17434305935854044
000150 af 2c e4 30 ca 30 d0 3f e5 e0 9b 23 66 ef da bf
       0.25297789358655626 -0.42086175420219113
000160 f0 db f0 f0 18 15 c1 3f 95 c2 38 db 19 32 b5 bf
       0.13345634236040338 -0.08279573061077834
000170 9a ae 19 f5 ac 6b ca 3f 20 2c fb 12 08 5b a7 bf
       0.20641099899090848 -0.04561639053061861
000180 1d 9f ce 71 bb 84 83 3f 7a 7c 3c 0d 44 38 7a bf
       0.009530510340325865 -0.006401315524072188
000190 d3 c4 93 12 61 24 c4 3f 45 65 f7 84 a9 58 cf bf
       0.15736020476427956 -0.24489325516223395
0001a0 74 5f de bc dc c3 aa 3f 68 90 79 ec bf 58 cc 3f
       0.05227556043172302 0.2214584259664918
0001b0 60 ff 40 44 45 50 d2 3f 39 67 fd 05 08 3b b0 bf
       0.2861493269483528 -0.0634007467864678
0001c0 1c b7 7e 18 78 f3 be bf 1c 23 e8 82 78 b9 d2 bf
       -0.12090254400274286 -0.2925702360521869
0001d0 3f 27 f7 62 d8 33 80 3f df e0 cf cb 31 6e d5 3f
       0.007911386985955835 0.33485073951261585
0001e0 74 f9 6c 2d 29 8a d0 bf 42 ac ae 0b 08 4a bd bf
       -0.2584326690302057 -0.11441087994778434
0001f0 fe b9 e4 35 4d 04 e0 3f 93 6d 38 d5 9c 21 e6 3f
       0.5005250980955791 0.6916031040631644
000200 4d 0a dd b7 24 97 ea bf 52 60 0d cf 9e ad b4 3f
       -0.830950125797537 0.08077423624979588
000210 40 ab a7 34 27 20 f0 bf 68 2f 4f c8 8c fa ac 3f
       -1.0078498894533396 0.056599044277020394
000220 b4 7a c3 b1 f8 0e d6 bf 73 e4 54 f0 24 16 ed bf
       -0.3446637855503625 -0.9089531606652045
000230 d9 f8 4c 92 03 a0 e3 bf 39 6f 82 d5 fd 38 db 3f
       -0.6132829530177119 0.4253534874967389
000240 a0 2c 80 64 98 19 e6 3f 93 a7 c0 e8 ae bc 84 bf
       0.6906244242576527 -0.010125509717983571
000250 41 0d 71 69 89 96 c1 bf 4f 99 86 f9 f4 c1 ee bf
       -0.1374065174914936 -0.9611763833570793
000260 25 d7 c4 28 70 bc ad 3f 81 fd 01 4d 89 41 dd bf
       0.05807829377810795 -0.45712502022066565
000270 72 5a ad 9b 04 f8 f2 3f ef 7f 95 0c f2 28 e7 bf
       1.1855512696398844 -0.7237482305317807
000280 7f 80 f2 51 1d c9 ca bf e4 88 e8 c4 5c 73 d2 3f
       -0.2092625284321947 0.2882911608632084
000290 31 c4 16 bf a7 88 f2 3f f2 8a fa be dc 7f dc bf
       1.1583631004725812 -0.44530409479391075
0002a0 17 d0 de 72 1a d3 da bf 7d d4 50 77 11 f9 a2 bf
       -0.4191347238331686 -0.03705648976794238
0002b0 aa 0b cc bc 8e 3e e5 bf 9b 43 96 55 02 7b d6 bf
       -0.6638864219133798 -0.3512578807649846
0002c0 9d 46 06 f8 b6 59 a0 bf c3 b3 8a a8 e4 71 c0 bf
       -0.03193446900980954 -0.12847574452953667
0002d0 0e c1 36 44 98 bf c2 3f e4 34 38 19 e5 d6 98 bf
       0.14647200899845142 -0.024257259048728566
0002e0 78 88 4d 3e 1b 0a d6 bf 9c 08 3c 4a 79 24 c4 bf
       -0.3443668468881991 -0.15736309170467144
0002f0 6d 1c 6a 4b d6 81 d4 3f 3a 69 7e 77 8d cc de bf
       0.32042462696740054 -0.4812349001819204
000300 6e 58 85 d0 01 4f d1 3f 32 f5 ce 7f ab e1 ce 3f
       0.27044720996253246 0.2412618993820757
000310 45 ed 51 c3 e3 cc d1 3f a6 16 73 4e a1 72 cb 3f
       0.2781304747984062 0.2144357331327928
000320 49 04 e0 bb 27 de b1 bf 2f ab da 5c 6f cd 96 bf
       -0.06979606949609364 -0.02226804737316995
000330 64 dd e5 62 ea b5 c9 bf 12 b2 0d 0c c2 c4 d2 3f
       -0.2008641226673077 0.29325915505504085
000340 bc d5 f0 07 1a 53 a4 3f c8 30 e1 53 50 71 b9 3f
       0.039696515530902116 0.09938528106539757
000350 ec 4d c9 2e f2 8d bc bf 39 92 05 24 6c 23 d3 3f
       -0.11154092447514302 0.2990370132231735
000360 68 70 1b 95 31 6d d1 bf 67 5c b9 8c 70 06 be bf
       -0.2722896534085124 -0.11728576121946475
000370 c8 5b e5 5a 42 da d7 bf 4a ad b4 4c be c0 c4 3f
       -0.37269648434215386 0.16213206048392187
000380 4f ab b0 3a a2 7b af 3f 44 20 44 2a 14 ce b6 bf
       0.06149012533599906 -0.08908201248061781
000390 1f 71 e9 7a 6b cf cd 3f 62 37 f3 8d 1d 98 bf 3f
       0.2328924513011623 0.12341484752252321
0003a0 ec 40 34 bd 73 3c c8 bf c3 67 b5 c6 9e 10 ce 3f
       -0.1893448518608304 0.23488220884865826
0003b0 ab 8e b4 6f b4 90 c4 bf 43 56 24 f4 04 dc c0 3f
       -0.16066604093895384 0.13171445771210885
0003c0 d4 e4 e8 8f 4b 18 cd 3f c3 c5 c2 7a 3b 73 d0 3f
       0.22730392958491186 0.25703322399484935
0003d0 34 ef 15 3f e2 ac ce bf bb 58 31 44 a3 d2 bb 3f
       -0.239650994113498 0.10868282713758763
0003e0 5a b3 27 bc c7 ba c4 3f dd 0e a5 91 2b ea d1 bf
       0.16195007979640758 -0.2799176142036524
0003f0 62 25 46 7b d9 cf df 3f 62 32 ce 21 3c 1e ca bf
       0.4970611289832815 -0.20404769564301534
000400 96 f5 9e 93 73 b0 d0 3f 02 44 a0 08 07 7f 90 3f
       0.2607697431193058 0.01610957136296421
000410 d9 2e 2d 6e 03 32 cc bf 0f ce 0e 54 97 7a da bf
       -0.22027628783904765 -0.4137323685529006
000420 5e 46 86 23 5c ef ab bf 9c 07 30 62 87 47 d3 3f
       -0.054560546242225824 0.30124077404627214
000430 09 43 25 03 c6 53 9c bf 7b c8 e5 7f ab 42 b3 3f
       -0.027663320486058605 0.07523605225085987
000440 eb 80 64 5c 21 6e c9 bf 9b 58 5d 5a 99 79 b9 3f
       -0.19867341052395857 0.09951170402686886
000450 a8 d4 23 83 da 64 c3 bf 2f bb 0b ee c5 20 d9 3f
       -0.15151530650442635 0.39262531515753357
000460 7e ba 4b 38 da 2b c4 3f c3 57 30 f1 4c c4 cd 3f
       0.15758826969927847 0.23255311753081118
000470 a0 2f f0 f8 bf b9 c3 bf 37 fd 3b 0d e1 0e b0 3f
       -0.1541061368483243 0.06272703717330762
000480 ce 7c ad 39 54 59 bb 3f fc 1c 25 1d 2b 8f ab 3f
       0.1068318024458563 0.05382666331075289
000490 a8 8f 47 2b 45 fa d9 3f 8a cd b3 a9 0c bf d4 3f
       0.4059002802516667 0.3241607339143334
0004a0 7e a5 07 60 bd a0 be 3f f0 8a d5 23 96 83 82 3f
       0.11964019388655875 0.00904004380089904
0004b0 fa 59 39 75 ad cf ba 3f 93 cc 7e 68 92 f6 cd bf
       0.10473140823282981 -0.23408727743444455
0004c0 11 8e 99 8b c2 e2 d5 3f a9 0a 24 ac e0 a0 d6 bf
       0.3419653285293132 -0.3535691910803203
0004d0 11 40 62 41 06 d2 b5 3f ac c3 5b 51 6b ae d5 3f
       0.08523596855434358 0.33877070374642915
0004e0 21 80 c4 7d 80 e5 d7 3f 90 7b ac 4c 7a 9a c4 bf
       0.3733826854895615 -0.16096428626857717
0004f0 3b f1 ff 58 5c 02 dc 3f d7 b7 c8 3a 4e ee a2 bf
       0.4376440877092766 -0.03697437732294844
000500 32 e3 8e 2b 3c 9a c6 bf 81 7a 65 b3 63 af b4 3f
       -0.17658187987196922 0.08080123071474966
000510 8a 47 9f d3 6e 64 b2 bf 99 1b 5e 25 85 b5 cc bf
       -0.07184498468930492 -0.22428955387678398
000520 46 06 ee 45 01 d2 c6 3f fd 3a 7d 92 86 57 c0 bf
       0.17828384317913243 -0.12767107155601556
000530 d6 1c 5b fc 64 4b c4 bf 5a 07 7c 74 19 fe bb 3f
       -0.1585508568007074 0.10934599965915251
000540 cd e8 43 e3 10 01 65 bf c1 9c 3c 1e 60 bd ad bf
       -0.00256398485555307 -0.058085445109378415
000550 91 07 8f 00 52 1e bb 3f 8c 52 0b fc 97 f1 da bf
       0.1059314013828312 -0.42099570859617397
000560 47 37 da cb b5 3e a7 bf c4 6e bb b2 10 f0 b2 3f
       -0.04540031541283312 0.07397560466364
000570 66 59 62 ca 96 4a d5 3f cb e3 eb 6a 23 0c c0 3f
       0.33267755283431766 0.1253704330518118
000580 5d 7e de b8 3c 3c c7 3f de a3 c1 0b fb b3 ba 3f
       0.18152579333126342 0.10430878674527785
000590 72 ff 8d 6b 16 26 96 3f ce 26 fa b3 f9 16 c9 3f
       0.0216296675821463 0.19601365364024165
0005a0 97 6d de c4 51 61 b7 bf cb db 34 a7 d5 64 ce 3f
       -0.09132872635239263 0.23745222725275847
0005b0 22 4d 0b 4d 2c af b7 3f b9 87 d7 9e ca 10 cb 3f
       0.09251667862854565 0.21144993549301974
0005c0 d8 2d 92 fc c5 81 e4 bf d9 2e a9 cb ce 94 b9 bf
       -0.6408414776828364 -0.09992687675656543
0005d0 c6 28 e3 41 6b 02 ed bf 6b ed 74 75 6c 0d b4 bf
       -0.9065452849256637 -0.07832982890697841
0005e0 76 2a ad 44 d8 70 c5 3f 27 54 29 dc 39 67 ec bf
       0.16750624993649738 -0.8876008319881564
0005f0 93 89 e7 2c ec df d5 bf 6a fa 4c 17 7c ae b2 bf
       -0.3417921484489394 -0.0729749256979432
000600 76 68 9c 5d 55 ea c6 3f 37 6b 89 a0 04 ce d0 bf
       0.17902628966186612 -0.26257434537335506
000610 98 06 74 db 3a 90 c1 3f 3f 7f 9a 24 8b 10 e9 bf
       0.1372140475796655 -0.7832694735443296
000620 d0 60 03 f2 e3 1e dc 3f 5b 03 19 10 ad 51 e0 bf
       0.43938540109730884 -0.5099702181251858
000630 05 10 10 08 b4 8e e9 3f 8f fb a5 2f d1 20 d3 bf
       0.7986698300815084 -0.2988779988590346
000640 18 a4 ab e5 4a 2f c1 bf 59 7c 1b 06 07 11 bf 3f
       -0.1342557546079497 0.12135356806855792
000650 80 9b 90 2e 0b bf e8 3f 84 4c f7 7a 2e ff d7 bf
       0.7733207616300746 -0.3749500466194109
000660 97 68 35 0f ba df dc bf 8f f4 51 4e 62 77 b8 bf
       -0.4511551998636007 -0.09557165538895361
000670 79 cf 00 cf 47 b3 d3 bf 9b 41 94 d8 bf 6a 9a bf
       -0.3078174134745875 -0.025797841638508606
000680 ea 17 27 10 74 e0 76 bf 83 be 68 c8 5b 38 d9 3f
       -0.0055851491656024686 0.3940648514862703
000690 58 ad 86 a9 03 53 e1 bf 65 52 f5 12 32 39 bc 3f
       -0.5413835822159099 0.11024773562287178
0006a0 90 08 cc fd b9 f8 e1 3f 12 b4 04 41 8c c9 f5 3f
       0.561612125108029 1.3617060222416097
0006b0 db 4d 69 0a 94 c9 f1 bf 43 13 3f 87 87 30 c0 bf
       -1.1117134482091078 -0.12648099998309634
0006c0 5e 1d cb e5 63 62 f0 bf a1 ca 70 97 7f aa c1 bf
       -1.0240210510545107 -0.1380156983810439
0006d0 0c 33 88 e8 d0 1c e4 bf 8b c0 5a 57 2a ae 03 c0
       -0.628517584003562 -2.4600416969843244
0006e0 62 05 cd c2 61 6d f1 bf c6 93 45 8a b2 c6 bc 3f
       -1.089204560223458 0.11240688205505397
0006f0 b1 80 60 a9 4a 31 f2 3f 24 c8 8c f6 1a 37 a8 3f
       1.1370340935027736 0.04729542026179015
000700 4c 29 84 8f fc a2 ac 3f a5 a2 40 09 1a 0a f3 bf
       0.05593098880679523 -1.189966236250407
000710 f3 18 40 1a 34 05 ca 3f 58 97 76 28 f0 00 f2 bf
       0.2032837989974677 -1.1252290325732783
000720 40 41 8b 07 3c 04 00 40 7b 88 96 4a 52 3f e6 bf
       2.0020676221248834 -0.6952296692654863
000730 63 54 fb 5a 88 f6 c0 3f 4d 3f e4 b7 23 8a b7 bf
       0.1325235790488107 -0.09195159186878961
000740 24 f5 64 a6 31 3f 00 40 c8 9a 7f 78 4f 6c d7 bf
       2.030856418567639 -0.36598574416568086
000750 d5 fa c3 c9 ea b4 ef bf 64 4a 69 32 9d c4 df bf
       -0.9908346119626353 -0.4963753692910926
000760 bc 00 06 ea 18 60 ea bf 5c 59 9d d0 0b 9a a3 bf
       -0.8242306299944384 -0.03828465386929977
000770 f2 fb 8e 5c 88 29 b9 bf 0d a5 bd 92 c8 be 81 bf
       -0.0982899881337145 -0.008664671877073116
000780 b7 a4 fe 64 60 b8 b7 3f 83 a4 f5 6b 0a 09 a3 bf
       0.09265711274805964 -0.037178350142149895
000790 83 aa 64 8b 52 e3 ba 3f 48 af 75 82 cb 29 c1 3f
       0.1050311651530738 0.13408798093893837
0007a0 e8 ad bc 66 9e 2a c1 bf 88 76 f9 7f d6 bb a2 bf
       -0.13411312118965601 -0.03658933937252323
0007b0 4f 8a f7 c8 98 c7 ba 3f 76 a3 54 e3 6c 14 d4 3f
       0.10460810572070865 0.31374666404968055
0007c0 b5 9b 65 76 6c aa d2 3f d1 63 5f af e2 cb c7 3f
       0.29165183603475536 0.185909591323052
0007d0 da 2f fc e8 0d 1a ba 3f 65 05 65 e8 53 60 d0 3f
       0.10196005762207908 0.25587938017641526
0007e0 af a7 8b 2e 9b 1e b3 bf 42 74 8c 4a b5 79 cd 3f
       -0.07468576322904029 0.23027673854895353
0007f0 51 90 da ac 10 f8 ba 3f 89 46 74 d7 ad e6 c3 bf
       0.10534767360746967 -0.155477266504523

linears.2.bias f8 [30]
000000 8e cf 0e 88 ea bf aa 3f b1 bf 96 b5 e1 41 c6 bf
       0.05224545393812639 -0.1738855492271774
000010 c8 15 a0 27 2d 64 af bf 26 30 9d dd 5d 1b b3 bf
       -0.061311160170628265 -0.07463633213518558
000020 e6 00 d0 3e 7e 48 9f bf a4 eb da 68 47 6e ae 3f
       -0.030549976905604924 0.059435111570074
000030 6c b9 03 95 9a 04 a4 3f 91 87 07 78 8b 79 a9 3f
       0.039097624483349275 0.049755438234355805
000040 02 f8 77 cf 1a 11 b0 3f 74 b7 9a 63 3a 81 ab bf
       0.06276099743988087 -0.05372030702470357
000050 48 61 bd 3a 17 be c1 3f 06 94 48 cb 7b d9 b2 3f
       0.13861360901024455 0.07363103592850004
000060 4d 8a 11 e8 b6 d3 ac 3f 6d 8e 69 36 a2 52 ab 3f
       0.05630275328509935 0.053364819662218156
000070 76 3d 19 85 b1 41 b6 3f ae 16 e3 5d ed a2 ac bf
       0.08693990230061907 -0.05593053599436125
000080 ea d2 2a b6 f9 d6 a6 3f a7 9d d1 86 02 37 ab 3f
       0.044608882415024656 0.05315406699883889
000090 ea 16 a5 03 b6 3b b1 bf ed f6 82 26 87 ab 7b bf
       -0.06731736744867658 -0.006755378657713013
0000a0 38 c2 07 66 84 54 ab bf 4c 1e f4 21 43 0b b3 3f
       -0.053379189925071235 0.07439059809632304
0000b0 d6 e7 a9 7f 26 01 9e 3f cd 35 70 66 fa c9 79 3f
       0.02930126337239599 0.006296136975846034
0000c0 5c 89 e1 b5 01 dd c4 3f d5 09 0d 04 12 80 a0 bf
       0.16299458866985617 -0.03222709941339345
0000d0 fe 56 3f c2 b4 9e ad 3f 97 d1 f9 a9 97 87 aa bf
       0.05785145636734333 -0.05181573820019308
0000e0 df aa 51 6a 18 44 a7 bf f6 08 b5 5a 4a e0 8a bf
       -0.04544140146102448 -0.01312311257664021

linears.3.weight f8 [30, 30]
000000 66 44 05 a8 ad 4a dd 3f 99 d0 ba 31 8f 83 bd bf
       0.457683004458039 -0.11528868640999902
000010 1f b4 b9 85 99 31 c3 3f 97 ee d6 76 77 2a c5 3f
       0.14995116262017036 0.16535847952569746
000020 60 66 23 85 ce c8 c7 3f 81 67 44 5e a9 89 dc bf
       0.18581563473599072 -0.4459021969392936
000030 8d 9c bd df 57 ba d2 bf c9 c8 6d 32 00 9d ca bf
       -0.2926234898536187 -0.20791628324838587
000040 1c 46 3e ee a4 0f c4 3f 25 c5 fe a5 48 6f c4 bf
       0.1567274249360232 -0.15964611153825917
000050 e5 68 9f ee 35 91 a1 bf b2 c7 62 0e 46 5b cb bf
       -0.03431099450945555 -0.21372295095858146
000060 98 57 56 3e 44 58 d3 3f 07 4c f7 12 3a 91 cb bf
       0.3022623642694895 -0.2153694717986527
000070 7c f1 27 6b 6f 99 c9 bf 2e 89 f6 9b ff b2 c9 3f
       -0.19999497158267932 0.2007750999010311
000080 ef bc 4a b2 62 c1 c7 3f d5 7f 75 b7 1d f1 b4 bf
       0.1855891581121578 -0.0818041394136338
000090 c9 9c 51 97 17 07 d0 bf b6 24 c3 76 d1 ff d1 3f
       -0.25043287064768244 0.2812389049327736
0000a0 f5 ab 33 f0 a0 c8 ca bf db 63 79 ca 42 35 b6 3f
       -0.20924770096402737 0.08675019686906131
0000b0 75 49 c5 b7 59 e0 57 bf 06 7e 80 34 e6 89 84 bf
       -0.0014572979117316285 -0.01002864692423967
0000c0 34 00 6e 5e ea 75 c6 bf 6f 6b 77 61 76 4c c1 3f
       -0.17547349558663117 0.13514594802003496
0000d0 ef 19 0e 8b 6b 89 d0 3f c2 63 58 e9 7f 33 c2 bf
       0.258387456699352 -0.14219664472400778
0000e0 2a d9 46 3c ea de 90 3f 25 ce d3 55 a9 97 d6 bf
       0.016475353173256803 -0.35300668126658
0000f0 36 23 37 b7 8a c8 d3 3f 7e 18 6a 1c 67 31 d0 bf
       0.3091151036465364 -0.25301530623290336
000100 ec ed 00 e7 4a 85 d0 bf 32 6d b0 09 63 2a ba bf
       -0.2581355338949993 -0.10220927225639256
000110 87 7b c2 8d 16 5a d4 3f 79 2a 9e 49 04 3f d7 bf
       0.3179985412952466 -0.3632212370800186
000120 72 61 f1 c2 51 50 b4 bf f5 36 16 c3 61 c9 bc bf
       -0.0793505764899061 -0.11244784367428536
000130 79 f0 f5 78 39 88 c5 3f ba 67 ad 2b ba 04 d3 bf
       0.16821974188121994 -0.297163527158428
000140 c0 05 ae eb b6 2c af 3f 47 4a 73 d9 78 e5 c7 3f
       0.06088801981878644 0.186690431763582
000150 aa 42 97 9b fb d1 c6 3f 74 76 88 cc 2e 9e a7 bf
       0.17828316781244286 -0.04612871405354904
000160 2c 48 83 ac 5f f6 9e 3f 91 ab 54 41 d5 e3 be bf
       0.030236716179224896 -0.12066395611752358
000170 87 26 93 cf b4 f7 d1 bf 79 95 b6 62 22 b5 c5 bf
       -0.2807437922570916 -0.16959028072339402
000180 0c e0 a8 04 8e 2f d2 bf 78 8b 1f af aa d6 c8 bf
       -0.28415251212163706 -0.19405110884607857
000190 c6 ce 22 12 a3 64 c5 3f c0 98 33 1e 0d 32 bf 3f
       0.1671336973719148 0.1218574713453533
0001a0 98 76 79 b5 ef 07 a0 bf 9e 54 6b 34 08 84 cf bf
       -0.031310549643177754 -0.24621679839643645
0001b0 42 07 74 d4 a5 0a c6 3f 63 b5 d6 77 f3 bc a6 3f
       0.17219994424527313 0.04441033208727665
0001c0 18 94 e7 8f f0 2b c7 bf e9 35 10 ed e0 aa 86 bf
       -0.1810284330996701 -0.011068112597082585
0001d0 dd c2 12 a4 20 aa a8 bf 65 1d 32 aa db e4 cf 3f
       -0.048172969845273285 0.2491716939004888
0001e0 e1 c8 a5 02 92 76 d5 bf ee 02 ee 41 e8 2f c3 3f
       -0.33536196001581514 0.14989951342797475
0001f0 a7 2b 1f 21 27 40 c8 bf 0c 16 44 e3 bd bd c4 3f
       -0.1894577895858138 0.16204045865031025
000200 cc 3c fb b1 77 0e c6 3f fa c8 81 e2 d2 2a 9a 3f
       0.17231651487825272 0.02555398471344803
000210 b6 af 49 11 95 91 ce bf d7 77 ef a8 7e 67 c4 bf
       -0.23881781906254468 -0.15940840958404465
000220 77 46 e6 72 67 dc d9 bf 47 d6 3a 63 a0 e6 d4 3f
       -0.40407739849715746 0.32657632532513897
000230 23 24 30 ab 42 75 d2 bf d1 e2 45 de 1e 32 c4 bf
       -0.2884070083387675 -0.1577795586888642
000240 c6 f4 dc 4f 81 63 d0 bf 3e 24 be d0 13 92 cc 3f
       -0.2560733108437713 0.22320792858616473
000250 62 62 26 63 07 c4 d2 bf a2 23 cf 39 f9 73 b5 3f
       -0.2932146518956299 0.08380086575847526
000260 3b 1a 9f 1c c2 88 c5 bf c5 25 d0 02 e4 c3 d5 bf
       -0.1682360305550946 -0.34008121752466663
000270 17 11 76 fa a4 b4 d0 3f ad e6 ed 53 4b 06 ce bf
       0.26102566203214067 -0.2345670852480927
000280 28 11 c4 6a df 99 d2 bf ee 6f 1a 9e 83 60 c2 bf
       -0.2906416456828702 -0.14357037753950358
000290 ea 4a 10 db 80 c8 c7 bf 16 11 30 15 f1 a3 90 3f
       -0.18580637642352055 0.016250388067434583
0002a0 ba 6c f9 be b0 5f c9 3f 8c c0 23 b3 cd 58 3a 3f
       0.19823273968618144 0.00040202161757375214
0002b0 e4 e1 32 8b 21 4c d3 bf ad 1e b1 75 a8 78 b8 bf
       -0.30152166932705726 -0.09559109567009712
0002c0 9b c7 ab 68 14 4a 8d bf 45 60 da 3d ac ad be 3f
       -0.014301452106767523 0.119837536907995
0002d0 ee d8 85 a9 fc 57 d6 bf b2 15 99 0b eb 0b c7 3f
       -0.34912029795613264 0.18005121294315313
0002e0 24 ae 21 de fe 1b 8a 3f 30 f2 dc b4 c9 d9 04 3f
       0.012748709825436917 3.976961907745482e-05
0002f0 6c 9f ba 00 b2 94 ca bf 25 ab a2 99 87 6c e1 3f
       -0.20766282115550483 0.5444982529346346
000300 e5 f2 39 ee 01 1f d0 3f 27 ad f0 47 6c 31 c7 3f
       0.2518925501279184 0.18119576943113566
000310 23 40 c4 5e bc 65 dd 3f e4 fb ea 62 38 bf 63 bf
       0.4593344617323984 -0.0024105168625676455
000320 64 5e 5a f0 2b 20 c8 3f e8 e7 6d 85 d0 3d 91 3f
       0.18848180042253937 0.01683736624134005
000330 dc a7 3c a4 f6 2c 8c bf 48 5c 93 6e bd 7a d0 3f
       -0.013757635962594543 0.2574914531555277
000340 1e 24 a8 85 a0 77 c1 3f b7 cb 50 73 bf 31 c1 bf
       0.13646322752200118 -0.13433068400044387
000350 f5 4a 75 78 c6 f2 c4 3f 44 83 43 b5 f8 98 c0 bf
       0.1636589134382899 -0.12966832018630658
000360 2a 83 84 57 50 01 b3 bf 85 a1 cd 33 01 ec c6 bf
       -0.07423879753742982 -0.1790772917695557
000370 ff ca 9d d7 ae 99 bc 3f 38 25 fb 48 04 31 d6 bf
       0.11172001613685366 -0.34674174429945337
000380 dd e9 51 69 fc 98 d2 bf ae d8 e1 7f c5 c9 d9 3f
       -0.2905875233188036 0.4029401539659244
000390 be 3f 78 58 69 0f b5 bf f6 90 32 ff 49 f3 a7 3f
       -0.08226641092210138 0.04677802314952999
0003a0 2f 02 26 db 2d fa 9d 3f bb 0a c4 ca 76 29 d0 bf
       0.029274670124779852 -0.2525307636389404
0003b0 cb e0 d5 2f 60 e0 c9 3f 5b 42 50 a0 21 09 ca 3f
       0.20215990386691937 0.20340366676147678
0003c0 86 5f a0 77 74 05 d3 3f c0 ca b8 fa 4d 95 ce 3f
       0.29720794374724624 0.2389314150073769
0003d0 85 05 8b b1 e2 c4 e6 3f a7 21 df 7c ec 4f c0 bf
       0.7115338771474603 -0.12743908021208236
0003e0 8b 0a 04 e0 7d eb d1 3f 0c 71 05 0d 10 24 cd bf
       0.27999827267209615 -0.22766304622462774
0003f0 b2 ed e3 51 ff ad 8e 3f db 0a af 52 63 67 eb 3f
       0.014980311094851515 0.8563706030766655
000400 06 73 2a e7 e1 32 a6 bf 6b 41 f7 6e 7a 30 c4 3f
       -0.043356952160342785 0.157729438955822
000410 f0 c6 fc 39 8d 80 bb 3f 6e 57 ce d0 e4 4e c0 3f
       0.10743029275615945 0.12740764804464838
000420 01 9b ca f0 ee b0 c6 bf 56 ea f8 92 d5 3d c1 3f
       -0.17727457768815927 0.1346995322836217
000430 25 f6 aa 4b c2 62 ba 3f 03 fa 88 8d 2c e2 de 3f
       0.10306944224699828 0.4825545675447815
000440 3d 33 57 a0 de bb dd bf 5b 5e ee a4 79 ea e6 bf
       -0.4645916524721548 -0.7161224576293067
000450 0f db ea b2 0d cf b0 bf bb 40 49 9f da 0d e0 bf
       -0.06565938585377416 -0.5016911612565517
000460 1f e8 c4 1d 44 8c ec bf cd e6 18 ae 82 18 9b 3f
       -0.8921223241261521 0.02646068751912516
000470 1d 70 a6 eb 0e a8 e9 3f 56 b5 96 e9 61 5f ea bf
       0.8017649271528203 -0.824143367984713
000480 15 f9 a5 d6 43 4e eb bf a1 69 4c 97 4b 6f b3 bf
       -0.8533038322782739 -0.07591698116121971
000490 8a 00 e1 fd 90 27 cb bf b1 87 5b 1c 8f 68 d2 3f
       -0.21214496990615245 0.287631776516828
0004a0 51 a8 59 4a 16 5e e1 bf f1 2b 1d 37 91 79 e4 3f
       -0.5427352382805656 0.6398397518581743
0004b0 0c e2 71 a1 7b ee c8 bf b4 bc 94 3f f1 b9 48 bf
       -0.19477792151498396 -0.0007545879335903089
0004c0 f3 0a 40 0d 06 0e 86 bf dc 9c b6 28 65 e7 92 3f
       -0.010768935469973573 0.018460827455467718
0004d0 ce 88 9b c8 2a 87 d0 bf 19 c9 80 ca 49 bc c4 3f
       -0.258249946504418 0.16199610126347677
0004e0 9e d7 12 f6 09 7a d4 bf e2 ba 48 a5 d2 52 c3 bf
       -0.319948664003613 -0.1509650523234632
0004f0 62 4d e5 c4 4a ee d0 3f e8 43 d1 7a 29 f1 d0 bf
       0.26454419353577496 -0.26471936220064984
000500 e5 3c f8 90 0b 54 af bf ec 0f fa 9a b6 db c4 3f
       -0.06118808884286312 0.16295511786677197
000510 8f 63 56 49 e3 82 d4 3f 3d 32 81 38 5b 5c d7 3f
       0.320488759630785 0.3650119830897756
000520 2c 6b bb 29 83 a6 b0 3f 65 fc bc 8e ef 35 cf bf
       0.06504077690935323 -0.2438334891284938
000530 3d b1 a6 03 74 c6 d3 3f 84 12 3c 5c b4 49 d7 3f
       0.3089876208930667 0.363873567650707
000540 a1 70 a7 bf 75 4d d5 3f 11 aa 5b cc ee cb c5 3f
       0.33285278049675965 0.17028603533192713
000550 a6 ab 32 78 ab 55 99 3f fc ac c1 d6 05 b3 b7 3f
       0.02474086686258272 0.09257542126731616
000560 26 78 dd be f3 45 b0 bf 68 8c 35 19 d4 3f ad bf
       -0.0635673848132404 -0.05712759788254901
000570 90 e3 51 6e 50 f3 aa bf 8e f5 32 7b 95 18 cc bf
       -0.052637589899808934 -0.21950024142817565
000580 93 ac ea d6 51 f2 b0 3f ea 41 48 85 0d d8 88 3f
       0.06619750496854442 0.012130838041259435
000590 23 25 0d e4 7b 23 d6 3f af 19 84 b3 e2 e1 b2 3f
       0.345915768343348 0.0737592399856115
0005a0 c1 f9 32 3c b5 a5 de bf b2 08 42 3a 7c 43 cc bf
       -0.47886401060887 -0.22080948681474905
0005b0 07 40 56 7b 5d 1e ce bf 0d 62 17 43 a1 d2 d3 bf
       -0.2353016712409046 -0.30973083068741475
0005c0 9b bd 18 42 12 40 c7 bf 15 06 25 d4 43 37 e2 3f
       -0.18164280154585985 0.5692462104272545
0005d0 85 f2 41 22 38 3b c3 bf 61 9a 0c d3 a4 3c c3 bf
       -0.15024472878203113 -0.15028820328844275
0005e0 7b 8f 39 da c9 78 c9 3f 9b 34 d7 d7 44 0d ca bf
       0.19899867206106223 -0.20352993525594773
0005f0 15 c2 ef 55 54 2a d5 bf 91 76 ea 0d 5e 55 c5 3f
       -0.3307085837577984 0.1666677062939255
000600 23 74 7d d6 62 88 ca bf 69 53 0c a1 6e d7 ce 3f
       -0.20728717301509034 0.24094946731261338
000610 3f cb 72 bf 43 d0 c9 bf 34 11 f1 4f e4 df cc 3f
       -0.20166823242251472 0.22558263686563296
000620 92 54 e3 a2 a1 f8 b8 3f f9 e7 92 7d 79 99 d1 3f
       0.09754381396062886 0.27499234450408455
000630 27 28 fb f8 d8 53 d1 3f df 36 52 60 d9 6f b8 3f
       0.2707426482635377 0.09545668222036906
000640 66 8a 3d 5e 78 23 b6 bf 3b f8 16 0d 98 b7 d2 bf
       -0.08647873211661192 -0.29245568540853
000650 5f f1 9e 79 d9 55 c5 bf 8a 7a 29 e5 4e 3a a9 bf
       -0.16668241919058865 -0.04927298114192975
000660 65 3d 8b d9 f0 7f b6 bf ea 00 7c f1 46 55 d1 3f
       -0.08788972197657115 0.27082990248164995
000670 2f a3 fe 05 36 53 c2 3f 75 09 be c6 bc 9c cc bf
       0.14316439907749998 -0.22353324608054562
000680 76 69 37 63 69 72 dc bf 36 0e ce fd d5 df d1 3f
       -0.4444831341658281 0.2792868593753356
000690 88 be 13 1d a3 37 cf bf a8 cf 79 d0 98 4b b4 bf
       -0.24388541145116371 -0.07927851762525384
0006a0 30 59 ac ac cd f6 f1 bf d8 e5 96 f3 a8 29 a4 bf
       -1.1227547402427938 -0.039380340323485974
0006b0 0e 26 34 b6 fa 44 c9 3f fa 80 da 92 27 31 b7 3f
       0.19741758248009983 0.09059378943721078
0006c0 a4 2d c5 dc 10 5c ee bf 7b 03 8a f9 3f fc f5 bf
       -0.9487385093611249 -1.37408444858758
0006d0 9c 18 14 3f b0 6d bf bf 60 88 50 c3 03 ff cb bf
       -0.12276746311190084 -0.21871993100018283
0006e0 a9 39 a4 fc fb 45 d4 bf 11 72 71 5d 70 09 a1 3f
       -0.3167715041353412 0.033275138289102675
0006f0 c4 28 d6 be 2b b0 e3 bf 53 2f 26 13 0e 35 b4 3f
       -0.6152552344585946 0.07893455474385051
000700 94 ee 44 88 8d 77 b9 3f 55 15 33 ae 20 fc f3 bf
       0.0994804818810116 -1.2490546040219972
000710 eb ed 97 93 bc 2c e5 3f 5a 0f 9e cf ed 5e f0 3f
       0.6617110140500108 1.0231760129981553
000720 80 c9 d2 a2 a6 06 de 3f 53 73 c7 9b ab 3a f7 3f
       0.469155940062727 1.4518238148804883
000730 4a 13 80 04 c5 78 f8 3f a4 c9 35 61 f1 70 cb 3f
       1.5294847656052348 0.2143842434557658
000740 87 eb 86 34 8f 3a f4 bf 9b de de 4f 88 33 f6 3f
       -1.2642967273556864 1.3875811691231437
000750 8d cc 7c 95 87 36 f4 3f 18 bc 72 88 77 5f ef 3f
       1.2633128966670342 0.9804036774638716
000760 13 4f aa 3c 3e 6d cb 3f 9e 15 27 bd f8 61 d6 bf
       0.21427133524104444 -0.34972971412602216
000770 69 f1 c0 4b 1d da f3 3f e0 cf 11 cd 0c de f3 bf
       1.2407505950096385 -1.241711426785507
000780 53 96 7d f9 0b df ce 3f 86 57 5d 11 a5 26 d1 3f
       0.2411818474021624 0.26798369117511134
000790 74 2c a2 49 e5 5e c7 bf c3 e1 3d 86 88 1e c8 bf
       -0.18258348555932324 -0.1884318023183039
0007a0 d7 46 ce 5f e5 34 b1 bf 58 51 0f 41 41 da c5 bf
       -0.0672133788014223 -0.1707231109309173
0007b0 33 63 dc 6f ed 28 c6 bf 54 5f 08 0c f4 9e d0 3f
       -0.17312400781590895 0.2597017400271302
0007c0 67 0b cb 09 a2 aa d6 bf 19 66 12 70 8e 37 cd bf
       -0.35416460949288936 -0.22825794670352265
0007d0 3f bd d7 bb c5 dc 8f bf f2 77 6f 08 00 e2 6c 3f
       -0.015557808680539352 0.0035257340091296935
0007e0 4f 0b 3c a1 b0 74 c1 3f 06 41 a8 44 7b 01 ae 3f
       0.1363735949781479 0.05860505307293988
0007f0 d9 d7 29 d8 5a 7c b1 bf a1 3c da b5 1f 54 b8 3f
       -0.06830375459125494 0.09503362836606978

linears.3.bias f8 [30]
000000 4c 92 ae 0f 05 d7 ab bf 65 0a a3 42 5d 2f b3 3f
       -0.05437484566144643 0.07494147183300866
000010 aa 78 30 d5 e9 97 b4 bf 06 39 5a e9 d6 ba a3 3f
       -0.0804430146676817 0.03853484724560201
000020 85 59 97 1d 19 b1 ae bf 7f f3 9f 88 de 73 b8 3f
       -0.059944901334961144 0.0955180247837699
000030 0a 75 a0 f1 36 fa 50 bf b1 e0 05 d3 16 10 b1 bf
       -0.001036218315227546 -0.06665175105979661
000040 5b 2d 3e 51 af c5 b1 bf 21 cf 45 13 f6 39 b8 3f
       -0.06942268117398014 0.09463441820645048
000050 47 d3 a1 4f d6 78 ab 3f ca b7 3c fc 01 68 b1 bf
       0.05365628931114102 -0.06799328239568961
000060 87 d3 3e ff ff e1 b3 3f ee 8b 3b 65 8e 1e b0 bf
       0.07766723615243452 -0.06296625110148543
000070 6e 0c 82 5e 76 b6 c4 bf a2 ac 4c de cb 7f af 3f
       -0.16181830992363494 0.061521883855982354
000080 3f 57 a2 07 4e 5b aa 3f ce 5c e4 4e 80 5c 92 bf
       0.051477850372221294 -0.01793098908919149
000090 8b 01 98 80 21 b2 a4 3f 05 52 f9 49 ad 98 b5 bf
       0.040421530673486826 -0.0843609147644387
0000a0 92 5d bb ff 88 ab b4 3f 02 26 2b b8 88 62 8f bf
       0.08074241870359902 -0.015324657554987024
0000b0 67 d9 48 1e 54 86 7d 3f c5 cf 01 08 8d e1 82 bf
       0.007208183848481964 -0.009219266707283577
0000c0 17 28 27 d5 5b 75 b6 3f 18 75 5c 1e 13 69 b1 3f
       0.08772825197152688 0.06800956240882206
0000d0 90 bb 1d 6f bf 7b b3 bf 66 bb fc 7b 2e 3b b3 3f
       -0.07610699141308275 0.07512178923637478
0000e0 be 70 4e bc 4d de 97 bf 5f ea c9 d0 25 6d bd bf
       -0.02330895864325621 -0.11494671199208416
