1D_Transcritical_Inverse_Problem_n_initial_0_01/Models/Model.ckpt-11000.pt (torch, 82425 bytes, 43 tensors)

linears.0.weight f8 [30, 1]
0.4625982793953144 0.01208082312651693 0.3082685146429832 -0.24847551387386008 -0.31426431634205937 0.1445323554558921 0.1396241698072796 -0.3730274994094266
-0.01285369687478034 -0.01355096197158055 0.33819873242040177 -0.013634588634899853 0.012608664190893125 0.2781817486464092 -0.2969458540799446 -0.16155976617263101
0.3522311508902732 -0.07681945286589884 -0.014148389777030344 0.36408673462767965 -0.08344864838338603 0.2687823055226101 -0.19553029993670057 0.014167174863230991
0.12927933817798334 -0.011560965101829102 -0.13896648920565635 -0.06017920084873966 0.2889994624095581 -0.4482120804527802
00000000: 6a14 4cd0 359b dd3f 42af e5a1 d4bd 883f
00000010: 8ecc 31dd abba d33f 86f6 f8ae 0bce cfbf
00000020: d94a 3f14 e81c d4bf becd f245 0980 c23f
00000030: 5ad6 866d 34df c13f a637 9ebb aedf d7bf
00000040: 06d5 adfd 0953 8abf f76c fa53 9bc0 8bbf
00000050: 7ed5 d24b 0ca5 d53f 7d1e 4082 73ec 8bbf
00000060: ffe0 c442 92d2 893f 66f2 31d2 bacd d13f
00000070: 9131 fd2e 2901 d3bf 2cca 078c fdad c4bf
00000080: cd31 6d86 f48a d63f 3672 c18d 70aa b3bf
00000090: 3237 11bb d4f9 8cbf 3b88 8872 324d d73f
000000a0: 4eb9 b3ff e35c b5bf 47a3 fdb2 ba33 d13f
000000b0: 3077 cd09 2307 c9bf e0dd b605 ae03 8d3f
000000c0: 71f0 c2b0 398c c03f 6d30 2e78 46ad 87bf
000000d0: e069 3067 a7c9 c1bf c5e9 16e7 cecf aebf
000000e0: 9e14 e799 f77e d23f 3fe0 cdb8 81af dcbf

linears.0.bias f8 [30]
-0.08750980009798223 -0.17679298513425978 0.11597429144462715 0.14471313005871966 -0.10069626435654697 0.13314722007431726 -0.18407597961634414 -0.03711313537632575
0.26419500907258237 0.33794102669562753 -0.11830234477272579 0.35966213117956203 -0.2545236729937479 -0.014649565637615158 -0.11863405299059686 -0.11804046153825642
-0.0887794231362997 -0.155175130893317 0.4021915566599187 0.11509216640352879 -0.11309240784949112 -0.11746961349510193 0.057552296820193714 -0.4053310151552463
-0.15222573937338937 0.12180945391812978 -0.06252334409520108 0.21141192039766915 0.11765981526680591 0.09646580205759253
00000000: b615 80d1 0a67 b6bf 902c a80c 27a1 c6bf
00000010: 4273 eebc 7db0 bd3f 20b6 73b8 f585 c23f
00000020: 1ea1 3dfa 3ac7 b9bf 85e1 e2d5 f70a c13f
00000030: d436 373c cd8f c7bf 6dfd 622d 7e00 a3bf
00000040: 2bec ee2e 92e8 d03f bc99 6866 d3a0 d53f
00000050: fdc6 d6fd 0f49 bebf 08a8 c150 b404 d73f
00000060: 7438 e4a8 1d4a d0bf a067 836a 9700 8ebf
00000070: fb5a c921 cd5e bebf d05b e951 e637 bebf
00000080: 6f9b ed8e 3fba b6bf b36e 2b58 c7dc c3bf
00000090: 463a a5a7 81bd d93f 369c ba22 ae76 bd3f
000000a0: 86b3 23c1 9ff3 bcbf 9437 3c14 7d12 bebf
000000b0: 9309 4ea1 7e77 ad3f 605c 897f f1f0 d9bf
000000c0: 95eb 1b0e 227c c3bf 4e07 ec84 e72e bf3f
000000d0: 0e1d 20a6 8701 b0bf 7ed8 0bba 8b0f cb3f
000000e0: 48d4 9f22 f41e be3f 9c0f 0599 fbb1 b83f

linears.1.weight f8 [30, 30]
0.096907110298657 -0.5498643300182846 0.2107921270337087 -0.19333200024287794 0.18436969530345507 0.13680586041197212 -0.2477571963128305 -0.154724809264768
0.06800491310331548 0.06353424564150283 0.020956020735193762 0.6081310948684783 0.0851636059418986 -0.00145183748673141 -0.2555296088430962 0.16749552231086864
0.06541711945698779 0.15758149182719744 0.11548464401293353 -0.23510346236399354 -0.23184765156383086 -0.09118699967004233 -0.206465907008104 -0.4977577383641462
0.02010279197035948 0.4267736010850975 -0.18547142408657552 -0.16622296032645198 0.19333664257072175 0.05912882703704787 -0.052988575067120285 -0.170562182793459
0.0262185992483846 -0.2922995563485621 -0.13467400901804452 -0.017562599872654936 0.22769680352234012 0.1474658539124483 -0.21877592797721854 0.06743388322616828
0.15257077050509346 -0.35620939896289355 -0.03674977091828907 -0.21191140843192394 -0.04423337076250592 0.10843566171663364 -0.06118724397644594 -0.2638810199246251
-0.05070097698104792 -0.015414671458838129 0.06840752639852077 0.03068335341487843 0.10018428964516547 0.17155280350322355 0.16707184610619155 -0.10754316138646684
0.030461608056289485 0.256606121452849 -0.028503500358423646 0.18707531572713648 -0.24745447230413864 0.35705092659102294 0.1589369615796411 0.12358916599509115
0.00886336317361389 -0.14871596001857496 -0.10897792551357399 0.12250014743925082 -0.12489039479607485 -0.25518891301844426 0.016824005566759656 -0.6317214150960504
0.29152381222186474 0.034037113633369996 -0.17713076093048294 -0.042891905277894826 -0.07563896296612235 0.3248679163180835 -0.11690504687791542 0.2342908536757573
0.34732948585711526 0.15896667641699008 -0.24514060292853154 0.7423996048186313 -0.23508181233370787 -0.38729279802087524 0.27933088992080674 0.23138749138670506
-0.2325019451001981 0.05816059951005156 0.06944568246150666 0.42056109283637894 0.06690086845262545 0.2672263305356501 0.19822483982476274 -0.13437428422140352
-0.2189763792653496 0.28067534359878177 -0.6179056170812558 -0.5637282665402126 -0.29089596949258506 -0.18115348755025626 0.5372876313444575 0.16438602897365998
-0.0264111308958249 0.16113356621419 0.14938130388164267 -0.012983944331107848 -0.408553330921764 -0.28337889593543064 0.10334968659464765 0.16762231144055562
0.07613817731177064 0.29082290956174295 -0.04769216900915421 -0.6076897582001155 0.11026929130335263 0.18795543069313633 -0.050434381191001076 0.07049383118456518
0.2889289361594044 0.058388700073446105 -0.28754678037338555 -0.0011450445487673681 0.21824358530842783 0.0856670464272138 -0.17943765239027107 -0.04606142603014149
0.42483705745807376 0.3863869963355292 0.23518070862352095 0.5265298602153339 -0.3904546590521603 0.2355143757052143 0.22923285473480662 0.011619354135775702
0.27181477813128463 -0.2634593817476354 0.24282169978061383 -0.011904999404717431 0.006731240483502865 -0.025285668588139028 -0.2821074000643116 0.0896314555058839
0.06083242356348233 0.049933292938716914 0.052046282947109494 -0.1700122862207264 -0.12439966889845468 -0.25488989132109224 0.004487809794933843 0.18340535407776506
0.08801945166820838 0.09118434421748275 -0.15045677866119378 -0.25373463979078653 0.08641739315201599 -0.10224261015812293 -0.03471044100144765 -0.02625747157412039
-0.14234680190925178 -0.18304477851924883 -0.1707956094617668 0.06408513934824057 0.03600777522233296 -0.04069398799065672 -0.34338527914759126 -0.10711260479084998
0.14177584963288653 -0.07802206752084848 -0.0743094527255391 0.059892273263686034 0.23639075412563346 -0.15818070606552134 -0.07106935205167542 0.07621875872515178
-0.059171386112307815 0.18812519136700143 -0.2074229635930831 0.12340368926920178 0.13176787283045294 -0.104956977788084 0.01592476398753827 -0.08622405468623486
-0.20237905813514684 -0.11682125173885118 0.04218533202088158 -0.20157900045637858 0.29672102593193317 0.6144560295217485 0.24805407350858122 0.5086446997693984
-0.4175821412315843 0.2669632440092904 0.1765352050834431 -0.2264087110650694 -0.13176867567502973 0.038261903406539795 0.25622829147908127 -0.08028369639782457
-0.1253901449680302 -0.2163599895783867 0.10725956253931367 -0.47423706306519237 0.3015699497664769 0.1381716022774751 -0.3313520670366438 -0.02361455871120299
0.023408983657467713 -0.15380825758701372 -0.13322561643633515 -0.060003203943494 0.2182295311246338 0.14843641515329176 -0.2190073914522881 0.2552284333873455
0.10809609315453633 -0.09610871225374346 0.34806876894881744 -0.038067749124921356 0.2498872964703616 0.12415861496611762 -0.04383276216162281 -0.2863658300122903
0.06049512026687978 -0.13381374952738243 -0.23088057938525997 -0.07017303219885668 0.06101045376317496 0.16805511201711884 0.052625481272097444 -0.01932344024892935
0.224005486864299 -0.2627934525148139 0.20346034502902374 -0.21256257163608183 -0.255609083843546 -0.07764506123957776 0.2715151164167476 0.16422815789182535
-0.24478509068396812 -0.22678188850164957 0.18713285112711955 -0.059027656328420726 -0.25947455098937927 0.12573794404401104 -0.15018916535298138 -0.1227124601344844
-0.18792399805390134 0.04725144948803333 -0.010047710396322617 0.20461625723320456 -0.3331193910457573 0.10378580262785025 0.08248327334150246 -0.1487710201723673
00000000: 748b 7b85 e7ce b83f a44b 5514 7d98 e1bf
00000010: 6699 ee85 3cfb ca3f 4e1e 285d 1abf c8bf
00000020: 61d5 d919 6d99 c73f 8e6e 2fbc da82 c13f
00000030: b291 c1ff 81b6 cfbf a204 d6c5 05ce c3bf
00000040: e9fd be1d c568 b13f 1bcf 34c3 c743 b03f
00000050: c10a d9be 7e75 953f 5581 8457 cf75 e33f
00000060: 6573 5436 48cd b53f 6258 93a1 72c9 57bf
00000070: 6302 49dc 985a d0bf 759b 4647 7e70 c53f
00000080: d791 aa24 2dbf b03f 6a25 ed5c a12b c43f
00000090: ddca 39d1 6690 bd3f d6cd 03c9 de17 cebf
000000a0: ca7e 8f10 2fad cdbf c337 67fd 0758 b7bf
000000b0: 455d 2b8f 796d cabf 37b7 e645 43db dfbf
000000c0: 63b0 4888 d395 943f a739 dd38 4250 db3f
000000d0: 86ae 6512 87bd c7bf 2f24 3941 cb46 c5bf
000000e0: 2ad7 7a4e 41bf c83f e9fa bf34 2246 ae3f
000000f0: 0f29 f389 5121 abbf c321 844a fbd4 c5bf
00000100: 5064 4669 0cd9 9a3f a6c0 c932 09b5 d2bf
00000110: 6146 2d78 ff3c c1bf 79d8 5720 eefb 91bf
00000120: c01e 443a 2b25 cd3f b153 ea3d 29e0 c23f
00000130: df37 e87f d900 ccbf d042 19d3 5843 b13f
00000140: 038c d262 7087 c33f 4fb3 c481 22cc d6bf
00000150: b886 75b0 ddd0 a2bf 0da5 6ebc e91f cbbf
00000160: 5534 a2a1 c1a5 a6bf 0706 cb84 70c2 bb3f
00000170: b256 9f37 ef53 afbf 0021 a737 6de3 d0bf
00000180: f087 047c 7af5 a9bf 02b7 5a2e ba91 8fbf
00000190: 3891 aed8 2783 b13f ef46 cbfd 746b 9f3f
000001a0: 9156 9977 ada5 b93f ccae 4a38 71f5 c53f
000001b0: 49e1 8d39 9c62 c53f 1336 10d9 f287 bbbf
000001c0: db94 8ae9 5331 9f3f 1cfa e514 3c6c d03f
000001d0: e29d 7187 0530 9dbf 2eed 777d 15f2 c73f
000001e0: 8cc9 e590 96ac cfbf 95c1 2d21 ecd9 d63f
000001f0: f419 0ede 0b58 c43f aebd 1622 8aa3 bf3f
00000200: 72b8 b477 f426 823f 9e25 56e4 1f09 c3bf
00000210: d814 1132 fae5 bbbf 0dbb 016f 2b5c bf3f
00000220: cdd1 3b21 d1f8 bfbf 0ed3 ede0 0355 d0bf
00000230: 7cae c9e6 4f3a 913f eea6 40d4 0f37 e4bf
00000240: c2e1 df7d 53a8 d23f 8ba5 cf03 506d a13f
00000250: 3bf0 a784 38ac c6bf 3806 dd84 edf5 a5bf
00000260: 762b 3e38 135d b3bf f9c5 06cd a2ca d43f
00000270: 64f7 1339 7ded bdbf c007 2521 3efd cd3f
00000280: e956 ac73 a53a d63f 56b1 2e22 0559 c43f
00000290: 4bf8 3f6c c460 cfbf 8f4c e8d0 bcc1 e73f
000002a0: 9dc8 ed2b 2917 cebf aa76 5ebb 67c9 d8bf
000002b0: 793c 3eab 8ee0 d13f f6cc 1af6 1a9e cd3f
000002c0: 3d1a 3bad 9fc2 cdbf 1b73 9fe1 39c7 ad3f
000002d0: 3344 0537 31c7 b13f f3f1 ec12 79ea da3f
000002e0: 69f9 1352 6a20 b13f 0bf7 9177 3c1a d13f
000002f0: 4eae 267a 6e5f c93f 50c1 1332 2d33 c1bf
00000300: 0745 c501 6b07 ccbf 9e38 63b7 95f6 d13f
00000310: 401e 2c00 e2c5 e3bf 1adf 93dc 0f0a e2bf
00000320: 4591 e020 0a9e d2bf 3fd7 4a98 0930 c7bf
00000330: 966e a5d4 7531 e13f 153b 2ef5 990a c53f
00000340: 9ab1 cafd 840b 9bbf 0ac2 9652 06a0 c43f
00000350: 661a 6733 ed1e c33f 4998 3382 5397 8abf
00000360: 1dc6 bede bc25 dabf 30d5 9a3c e122 d2bf
00000370: 0bd2 f903 2075 ba3f 5cca dbdc a574 c53f
00000380: 70f6 87a5 ca7d b33f 34b2 5fb1 d79c d23f
00000390: b4d8 56a4 1b6b a8bf 36ad b2ca 3172 e3bf
000003a0: b9a7 e6b7 9b3a bc3f ef5f f76d ec0e c83f
000003b0: c062 9e03 89d2 a9bf 66e8 813b e20b b23f
000003c0: be0d ebca cf7d d23f 71f5 8aaa 1fe5 ad3f
000003d0: b485 719c 2a67 d2bf 593d ec38 aac2 52bf
000003e0: e511 bbe2 67ef cb3f b1f2 bf8a 46ee b53f
000003f0: 2bf7 5720 d0f7 c6bf 5c2b d0fc 5c95 a7bf
00000400: bc52 fac4 8730 db3f da16 3786 90ba d83f
00000410: 9114 18c6 661a ce3f 02c1 3f26 55d9 e03f
00000420: 7dca cc89 35fd d8bf f124 b2c6 5525 ce3f
00000430: 719a 208f 8057 cd3f a442 1c50 e3cb 873f
00000440: de2c a9cf 6965 d13f e08c 1bbd 84dc d0bf
00000450: 178f a80d c814 cf3f b339 d1f8 a561 88bf
00000460: b37c cf9b 3792 7b3f 32ff 927e 7ce4 99bf
00000470: 7517 4f32 0c0e d2bf df34 174a 16f2 b63f
00000480: e6af 7b6b 6d25 af3f 6a87 4e48 db90 a93f
00000490: b7bb 4576 cfa5 aa3f 2c3c 9e6c f6c2 c5bf
000004a0: d955 8d1d a8d8 bfbf 8586 d3b0 1d50 d0bf
000004b0: b86d cc44 cf61 723f 4570 d69e d379 c73f
000004c0: aaa9 535a 7188 b63f 6640 5270 db57 b73f
000004d0: ecd9 e7ef 2a42 c3bf 95e1 f036 303d d0bf
000004e0: 4ebb 6445 731f b63f 5506 e35a 922c babf
000004f0: 27a6 dc21 91c5 a1bf fff8 be16 3de3 9abf
00000500: 81f9 7185 6b38 c2bf 60cc b8e4 026e c7bf
00000510: 8e26 786a a1dc c5bf 2909 a939 e267 b03f
00000520: 6a99 f671 9c6f a23f a19b 20a7 d7d5 a4bf
00000530: 9778 f73f 06fa d5bf 33ea 904e bb6b bbbf
00000540: 1a97 c406 b625 c23f 0e4c 5e14 41f9 b3bf
00000550: b666 3dbd f105 b3bf 8bb8 e635 33aa ae3f
00000560: 8bef 055f 0d42 ce3f df6d b4ef 433f c4bf
00000570: c052 cfde 9931 b2bf 35f5 1094 1283 b33f
00000580: 2736 6c40 b64b aebf 37cd 3c7c 7c14 c83f
00000590: 282d 89ee d58c cabf 9af1 9d59 6297 bf3f
000005a0: 3632 3c08 c5dd c03f c839 16e3 75de babf
000005b0: 1d8c 17d2 944e 903f 4982 0197 c712 b6bf
000005c0: 7af9 0a96 8ee7 c9bf d136 b25f ffe7 bdbf
000005d0: de19 cdda 5099 a53f 3da0 4237 57cd c9bf
000005e0: 3672 9a2f 7afd d23f 8a07 f4b0 9fa9 e33f
000005f0: a0f1 ad62 3cc0 cf3f c162 d93f d146 e03f
00000600: 84ee fe71 aab9 dabf 0c41 9000 ed15 d13f
00000610: 8388 36a2 b498 c63f 07e9 c6ec f5fa ccbf
00000620: 7dab 54c4 cbdd c0bf 51aa a06f 1097 a33f
00000630: 659b 0d59 0b66 d03f 0c3f 6eea 788d b4bf
00000640: 0a6f f0c5 c80c c0bf 1677 b323 afb1 cbbf
00000650: 7724 4ad9 5c75 bb3f 3ba1 1a69 e659 debf
00000660: 3204 ed0b ec4c d33f 2a43 8268 9baf c13f
00000670: c399 d84c df34 d5bf 1f11 7f35 6a2e 98bf
00000680: 6837 f74c 86f8 973f a271 182e fdaf c3bf
00000690: 1db0 ca78 890d c1bf 6f5f 2f6d bdb8 aebf
000006a0: d7d1 99fd f1ee cb3f 0837 4fe6 f6ff c23f
000006b0: 2857 ef27 6f08 ccbf 131c 9aa3 a955 d03f
000006c0: 0492 ec80 2fac bb3f 9491 fd9f 949a b8bf
000006d0: c639 d93a c246 d63f ab38 0cb3 9d7d a3bf
000006e0: e955 0393 4efc cf3f 43cf cbe6 dbc8 bf3f
000006f0: 027d f46f 3f71 a6bf 460f a658 d153 d2bf
00000700: a448 3a66 37f9 ae3f c3d4 fc16 cf20 c1bf
00000710: 68e0 deac 7e8d cdbf 4cf1 5a1e dcf6 b1bf
00000720: 7400 411f c33c af3f 9b02 0575 d482 c53f
00000730: 62f5 ff21 baf1 aa3f 9154 a91f 86c9 93bf
00000740: dc75 1a38 36ac cc3f 08dc 09a1 9bd1 d0bf
00000750: 3f5d f713 fd0a ca3f a4eb c316 4035 cbbf
00000760: 8fc9 ea33 e65b d0bf 9c4b b8f6 8be0 b3bf
00000770: c54a 58f0 8060 d13f bd25 9da3 6d05 c53f
00000780: df9c 842b 1e55 cfbf 3348 385d 3007 cdbf
00000790: 5192 cc21 f8f3 c73f a9ed fa7a df38 aebf
000007a0: dd31 a925 3b9b d0bf e384 c452 2e18 c03f
000007b0: a6c9 b308 6639 c3bf 4ddd 1673 156a bfbf
000007c0: 9f35 e3c0 e40d c8bf d7b9 7a8c 5731 a83f
000007d0: 9942 6adc e493 84bf edf4 8592 dd30 ca3f
000007e0: 1c1e 8dfe d351 d5bf e462 13d4 b491 ba3f
000007f0: 1402 78b1 9f1d b53f cfce 1dc5 ed0a c3bf

linears.1.bias f8 [30]
0.10194528146218758 0.061786784047275244 0.002720290624299834 -0.06698728994470485 -0.06269830788299678 0.05653061649520146 -0.03374300819612861 0.09429672723738816
0.06747322943206162 0.006303964013157816 0.14500322666353427 0.04817203522502514 -0.11677507567338942 0.06420524648395674 0.06680707073660784 -0.006358414301306612
0.057609734341812734 0.11896825240317381 0.08978464543137561 -0.05881833864665013 -0.08855375767590186 -0.04257873191278614 -0.007971294684635947 0.07538087281119782
-0.038532542858161954 -0.03397511958032258 -0.04198377394663995 0.0817748994455616 -0.07703824860461961 -0.09120340153715947
00000000: 8592 dc01 1619 ba3f 43ba 9d71 84a2 af3f
00000010: 5f20 8be8 dc48 663f c267 8f3b 1426 b1bf
00000020: 0f3c df0d ff0c b0bf b7a3 23ba 94f1 ac3f
00000030: 8d91 5779 c346 a1bf eaba 9a8f d423 b83f
00000040: 4b26 c4f1 ec45 b13f 8fc6 5874 2fd2 793f
00000050: 24cc 2a3a 778f c23f b419 bf47 01aa a83f
00000060: 6150 01ab f8e4 bdbf a755 e149 c16f b03f
00000070: d78d f4a7 441a b13f b10f a8d7 470b 7abf
00000080: a3d1 dbe9 057f ad3f cb7a 5511 b474 be3f
00000090: f58a cf63 20fc b63f a5ea c8f1 6f1d aebf
000000a0: 8de9 2785 75ab b6bf 7d21 242a e1cc a5bf
000000b0: 6f7d d10f 4153 80bf d4d0 772f 294c b33f
000000c0: fba6 d096 89ba a3bf 1a4a f3d6 2f65 a1bf
000000d0: da7f 20b0 e57e a5bf b09b c026 33ef b43f
000000e0: 0847 4c56 c7b8 b3bf 92d4 e22a 1b59 b7bf

linears.2.weight f8 [30, 30]
-0.17720277436684048 0.1494312375098199 -0.2709338202774985 0.3532577665322475 -0.37695096837375014 -0.09252687778089876 -0.17921168594999312 0.1965729751713302
0.17860588682403153 -0.26357531706746595 -0.1510451027328021 0.1429409365001997 -0.21866252074347106 -0.2542910451887926 0.11447646000372956 -0.4232988502614462
0.0411710546060974 0.19702371860650023 0.25782278837652267 -0.08882102072053766 -0.12224271430318842 -0.14965767258563364 -0.193433681759205 -0.15704919736727244
-0.3373225612571289 -0.18716603947800436 -0.14574221027888715 0.25244030018336144 0.059422347832046016 -0.2369517447148935 0.1601346737195967 -0.23009682671283768
0.24313395274208655 0.18852184779962217 -0.17399331707443574 0.18988608741342053 0.20418860729668473 -0.23000718975151616 -0.09713743597543162 0.1011206240163838
0.24009295798183222 0.17249424711153064 0.2690212146896641 -0.37525914787584985 0.17337230385811728 -0.10668696204637126 0.17961852484326465 -0.07061073498096855
0.018989777899571736 -0.02464221619441821 0.1301162748688152 -0.21843990022882048 0.07657981437202259 0.19931179619577483 0.2601091988427636 -0.12875953713308227
-0.146377909030916 -0.26168125155047167 0.03240669811852363 0.2933906266330042 -0.051843443514657486 -0.13370731540405856 0.20039177002085934 0.20996086199039685
-0.4609068733139441 0.0721036984755433 -0.5843591517302504 0.0738280021752782 -0.23874702694100994 0.10555661354041751 -0.17334943702680747 0.3330963344030296
0.3893476049676198 0.00720027756583597 -0.11906969550943253 -0.43235811897831455 0.005291704563009845 -0.17485328759341526 0.392638754718581 -0.43214522137736067
-0.21855069859380766 0.29009288846328024 0.3563314045212345 -0.3108037873914548 -0.14891769077605083 0.029956778785142413 -0.4447184911780061 -0.34197536715431615
-0.025227611792829854 -0.1340851058055325 0.15666896985395795 -0.04756374887685594 -0.3569639866176713 -0.1748378346331383 0.308921333223768 -0.4517854546398554
0.26527188664592183 0.21040353204853515 0.29274000399843775 0.24022179567961724 -0.06467952058533145 -0.016087586044737163 -0.20818299397267578 0.26234204560731816
0.013458012419187036 0.09759245783355362 -0.07058852106431346 0.3137131868084508 -0.2932150244148546 -0.13883639318237756 -0.34322174199567335 0.1344741132767821
0.03380369812125331 -0.07721850003512609 0.23880666587011243 0.14251410648783303 -0.18319760225268142 0.20561196310056193 -0.188525224543517 0.16014228296788105
0.1972576006213787 0.26225031477721217 -0.20672677796015784 0.14124986588219118 0.1112431461058391 -0.2784516862294364 0.44475830144189044 -0.21011163136652045
0.2387155257453997 -0.01309079926950803 -0.2587843246659249 -0.3517954247071463 -0.019690040661722943 0.29558407590046315 -0.035813847219985144 0.02981293973098615
-0.17365249031724597 0.06773636759142673 -0.12128199918933154 0.33714696571821234 0.16038038387251335 0.23246022273185044 -0.12548008913418227 0.03757576612384981
0.07575017520647066 0.04097966674073068 0.37807760777942223 0.3211515179530907 0.11848968990171041 0.010968811130366752 0.1449272325591006 -0.2821646061467104
0.29995243641997216 -0.3818211229712745 0.12434052096172077 0.3393313564276316 0.41330381429852114 -0.15984648176248017 0.45585938927973135 -0.027783572507642025
-0.13559783984817753 0.10624948388308697 -0.12042322330113102 -0.22880856253905543 0.20892644162633492 -0.08559334613711946 -0.19066892689884285 0.1511534980529215
-0.026426209725832726 -0.03955886203724717 0.09053506847240118 -0.3822749053583493 -0.047227976638807734 0.07833277141078458 0.33625602268115606 0.14621450665698354
0.20636668447050233 0.1037076370777319 0.0012748199845733445 0.16803838158851736 0.07209428404833362 0.2386665973538805 -0.15304278578696506 -0.11031351376986422
-0.26167961160446535 -0.1283151226009758 -0.4582833256739548 -0.04192456711937437 0.24064261916099655 -0.46453589123205685 -0.03180459521957524 -0.1782815497414537
-0.03137671587451276 -0.22578016088240643 0.17549350562020105 -0.2759670065397481 0.3630118154136347 -0.2914826874226083 0.41673219239234444 0.014163962323346647
-0.16340666645959195 0.1420444280870193 0.3273663548771733 -0.27524610152767653 -0.2522467149560175 -0.0619639474558399 -0.1991786053090226 0.0025641858367471547
0.020014587526583118 0.3686431893688188 -0.13778114539933486 0.06188860358526712 0.011443495820942727 0.6659854148104639 -0.5472244977261654 -0.11090209671086967
-0.5191173518564436 -0.14092087875017556 -0.4544961148052032 -0.35471182598865486 -0.20750421573772515 -0.002440869608732276 0.6957544387600939 0.04277336441532178
0.06203445292553002 -0.4032371543587695 0.15801394118632578 -0.6201228087595527 0.5523529104460381 -0.22090901203318744 0.14646191483040563 -0.11516925100693741
0.6354696955731391 -0.1455210048498099 -0.5545606277740944 -0.38809749976851754 -0.5256560672894298 -0.05212956527830014 -0.11448543973518033 0.009616047056316933
0.09419485343103744 -0.030648553616064406 0.1022139705944394 0.13479881068420968 -0.129330006339097 -0.025057903104328223 0.11317768309992181 0.3034445971904768
0.28928825261260593 0.1809747453865522 0.10553811793090044 0.2622266311549275 -0.08069902068881157 0.21901015988040837 0.09000517053385008 -0.13922621646070363
00000000: 0741 559c 94ae c6bf 8880 0d13 9020 c33f
00000010: 7d38 5ece fa56 d1bf ae18 9476 c69b d63f
00000020: 2317 57f4 f61f d8bf 31e8 116a d7af b7bf
00000030: dbad 1b95 68f0 c6bf 44b3 d1a1 4d29 c93f
00000040: 2b22 64c5 8edc c63f 309b b501 6bde d0bf
00000050: 0fab 3a28 7255 c3bf 8994 c37b e34b c23f
00000060: ed20 ba2b 22fd cbbf f118 b0f2 4d46 d0bf
00000070: 1fbc e04b 544e bd3f 02ab 930f 5417 dbbf
00000080: d368 265a 5f14 a53f bfc1 f9bd 1238 c93f
00000090: 8767 0f27 2b80 d03f 082a 3173 f9bc b6bf
000000a0: 5641 1b6c 4c4b bfbf 1be6 ac8c fb27 c3bf
000000b0: 56e2 8c54 6fc2 c8bf 1d1a 4727 301a c4bf
000000c0: 4c59 335e b196 d5bf 806c 3d89 0ef5 c7bf
000000d0: a5b4 6545 aea7 c2bf abb7 5e5c fb27 d03f
000000e0: 4e2b 2e21 9b6c ae3f faea 234d 6f54 cebf
000000f0: fd67 4a01 4b7f c43f eb8f d214 d073 cdbf
00000100: 4688 c96b 031f cf3f 3ec0 70e1 7b21 c83f
00000110: 4b54 47bb 6945 c6bf 11f9 b3f3 2f4e c83f
00000120: cf0b 472f da22 ca3f b9ef e926 e070 cdbf
00000130: 7455 bbbe ffdd b8bf a2fa 198d 0ae3 b93f
00000140: 5e14 44b5 5dbb ce3f 1dcc 0b9f 4a14 c63f
00000150: 666d c1c1 a437 d13f ddb3 e9f1 3e04 d8bf
00000160: 2b28 8d4b 1031 c63f fe14 e634 d64f bbbf
00000170: 2792 fa64 bdfd c63f 6d62 7d8d 8b13 b2bf
00000180: f0d9 256c 0e72 933f 43bb 9f22 cf3b 99bf
00000190: 8994 9e6c a6a7 c03f a2e8 cfb1 d6f5 cbbf
000001a0: 6bf7 4216 bc9a b33f 5e16 2f87 0c83 c93f
000001b0: 92c7 9a0d a1a5 d03f 9770 8448 317b c0bf
000001c0: cd83 12e6 82bc c2bf 15ae 58b8 62bf d0bf
000001d0: 6649 2e59 9c97 a03f 68de 957a e9c6 d23f
000001e0: daa0 d04c 398b aabf dcbc 7241 521d c1bf
000001f0: 4246 5001 70a6 c93f 1b28 d85d ffdf ca3f
00000200: eca3 d88a 7f7f ddbf b783 df52 6375 b23f
00000210: 5e97 b9f6 11b3 e2bf b130 df56 64e6 b23f
00000220: 914b 5d38 438f cebf bc58 081b c205 bb3f
00000230: fbb2 6779 5030 c6bf 696c ab49 7351 d53f
00000240: 9e28 8737 12eb d83f 049f adca 097e 7d3f
00000250: 6c5e 2800 5a7b bebf 0801 4b63 c1ab dbbf
00000260: e48d 9c20 c1ac 753f 19e9 e7af 9761 c6bf
00000270: 6424 aa4c fe20 d93f 780f 3c6e 44a8 dbbf
00000280: ce3a 7d23 78f9 cbbf 2f20 30c3 e190 d23f
00000290: 7536 3d3c 22ce d63f 5b6e 9491 35e4 d3bf
000002a0: cae8 d621 bc0f c3bf f0e8 b364 fdac 9e3f
000002b0: d64d e28b 4476 dcbf cbc8 7da6 ece2 d5bf
000002c0: 04f1 6c5e 44d5 99bf 0e61 2864 b329 c1bf
000002d0: a40e e992 ba0d c43f 0871 cd93 465a a8bf
000002e0: fdd9 177a 7fd8 d6bf 1028 ed0e 1661 c6bf
000002f0: 3ae6 cefb 5dc5 d33f 9c25 1f8a 0dea dcbf
00000300: 2851 6cef 36fa d03f 9940 8ec0 80ee ca3f
00000310: 67de d991 40bc d23f 1d7c 1d7a 96bf ce3f
00000320: 918c a249 d68e b0bf 4524 bc9f 4379 90bf
00000330: c716 5987 bda5 cabf 6ff2 8f4a 36ca d03f
00000340: 1f33 add9 df8f 8b3f 2f3b bbbe d1fb b83f
00000350: 48b9 71dd 1612 b2bf 97a3 6a79 e013 d43f
00000360: 68b0 23f3 08c4 d2bf 9a40 1b14 64c5 c1bf
00000370: bc71 4953 58f7 d5bf 2e58 579f 7236 c13f
00000380: a54b d4e3 b74e a13f e80a 4c74 97c4 b3bf
00000390: a74d fd81 3791 ce3f 60bd 4af9 e63d c23f
000003a0: c3c0 30df 0473 c7bf 7775 9728 7e51 ca3f
000003b0: d256 f134 9821 c8bf cde3 06d6 8a7f c43f
000003c0: 3a33 c7af bc3f c93f 805d 558b b5c8 d03f
000003d0: 31ee 45e7 0576 cabf 86a2 43c1 7914 c23f
000003e0: 2ac1 6d4a 6e7a bc3f 60c6 7705 27d2 d1bf
000003f0: c250 d485 eb76 dc3f a43c 9d1c f0e4 cabf
00000400: 31dd 0ff8 3a8e ce3f 2aa5 ed55 59cf 8abf
00000410: 0316 ca20 ec8f d0bf d6f9 fff4 d083 d6bf
00000420: 57c9 cb42 a029 94bf e97e cd78 d9ea d23f
00000430: 9f88 1b4d 3156 a2bf 129e 9184 4887 9e3f
00000440: 1d09 64ab 3e3a c6bf 4615 8eab 2b57 b13f
00000450: e596 1c4c 560c bfbf 8a24 eddd d093 d53f
00000460: e280 d32b 5887 c43f c188 20af 41c1 cd3f
00000470: 7fb3 9047 bb0f c0bf 5d87 3f7d 213d a33f
00000480: 7195 2d0d 5d64 b33f 3aa3 e770 49fb a43f
00000490: 5acd 306c 6c32 d83f 82d5 aa18 bf8d d43f
000004a0: ca80 0a1f 5755 be3f 87bc a5e8 d076 863f
000004b0: 5510 12be f98c c23f 2f49 df22 fc0e d2bf
000004c0: 0ce0 31b4 6b32 d33f 015a 05dd c16f d8bf
000004d0: 3023 19c7 c7d4 bf3f bb4b 97dd 9ab7 d53f
000004e0: 6259 6ed7 9173 da3f 3477 c679 d975 c4bf
000004f0: 90fb 21dc cc2c dd3f 723d 25fd 4b73 9cbf
00000500: 8430 c71f 455b c1bf 20a7 7e8a 2a33 bb3f
00000510: fbdb c16d 0ed4 bebf a733 9356 9949 cdbf
00000520: 6d02 0705 1abe ca3f d104 6a0e 72e9 b5bf
00000530: c86c b2e2 d667 c8bf 221a 6871 ff58 c33f
00000540: b666 1eea 780f 9bbf 6714 6f25 0f41 a4bf
00000550: c5e6 3a66 4e2d b73f 661e 262a 3177 d8bf
00000560: a067 3dee 432e a8bf bb13 6ad3 9d0d b43f
00000570: 0ee9 1ffb 3785 d53f 4071 252e 28b7 c23f
00000580: f872 6438 396a ca3f c023 986d 958c ba3f
00000590: e703 1789 fbe2 543f 209e b21c 4882 c53f
000005a0: 2054 3760 c574 b23f 8329 2487 a08c ce3f
000005b0: f4ff ebef e796 c3bf 29cb f2a5 813d bcbf
000005c0: 19c1 77d7 5bbf d0bf 51a3 9343 a16c c0bf
000005d0: 9a97 0496 8354 ddbf 7874 5a09 2377 a5bf
000005e0: 62fe a899 60cd ce3f c23b 2abf f4ba ddbf
000005f0: 9043 a920 b148 a0bf ab53 cf08 eed1 c6bf
00000600: b3e6 12e1 9b10 a0bf c2ab 8943 5de6 ccbf
00000610: bc4a a639 9276 c63f 433f f784 71a9 d1bf
00000620: 72d7 d0e8 953b d73f 8623 7500 a7a7 d2bf
00000630: f1fd 6080 bdab da3f da34 afd7 fe01 8d3f
00000640: ca37 3278 82ea c4bf 1b3c 9b06 832e c23f
00000650: 2d86 0003 92f3 d43f 676c 1ad3 a19d d1bf
00000660: 219c d067 cf24 d0bf b231 b50f bdb9 afbf
00000670: 0abd ee3d af7e c9bf 6106 e9c9 7c01 653f
00000680: 7a79 7a3b b47e 943f 8edc 8e9a d997 d73f
00000690: a56e bf04 d0a2 c1bf 2ba4 c9f0 dcaf af3f
000006a0: bf42 6c02 b06f 873f 7d2a 07a5 c04f e53f
000006b0: 9bb9 29f3 dc82 e1bf f656 6e6e 1464 bcbf
000006c0: 3c4e 20fe 9b9c e0bf 6c1d c702 b209 c2bf
000006d0: 8dd5 4fdf 7616 ddbf b90b 083b 99b3 d6bf
000006e0: 9015 3086 7f8f cabf 4bf5 95e4 dffe 63bf
000006f0: 9faf 10d0 9e43 e63f 337e 9bf2 63e6 a53f
00000700: b2af 14d5 fac2 af3f 7631 a035 a3ce d9bf
00000710: 028a da02 cd39 c43f b607 e4c9 0bd8 e3bf
00000720: b4ea c602 e0ac e13f bb7f 091b bf46 ccbf
00000730: 412f 2797 43bf c23f 6761 9466 bb7b bdbf
00000740: 20be 028b c455 e43f c001 5baa 6ea0 c2bf
00000750: 000c feed f5be e1bf d391 4ae5 96d6 d8bf
00000760: 6977 3eac 2cd2 e0bf 4fcc 0cf4 b9b0 aabf
00000770: 18e1 87f3 ea4e bdbf 0c4b fdfc 93b1 833f
00000780: eb14 f066 271d b83f 1584 cd9d 5562 9fbf
00000790: 82bd e5dc b12a ba3f 06d5 b661 1641 c13f
000007a0: 2917 cfb9 e28d c0bf a592 5b69 c7a8 99bf
000007b0: 7f1c 8d6f 36f9 bc3f f62e 45e3 a26b d33f
000007c0: e8a3 05e0 b283 d23f 5728 6b32 2e2a c73f
000007d0: ab9e fecc 8b04 bb3f c0d7 3c35 52c8 d03f
000007e0: fc7b ade6 b0a8 b4bf 7fcb 1661 8608 cc3f
000007f0: 13ee e92f 940a b73f a7e6 3827 2ad2 c1bf

linears.2.bias f8 [30]
0.060502946465991865 -0.14461759716589773 -0.05235227364528272 -0.10376803132594305 -0.034917888469228095 0.07372495523999237 0.06639609391719642 0.035478744706265615
0.050676826632927476 -0.05295108944761093 0.14284784327705938 0.0517714066472561 0.059361413240680415 0.05595415466727522 0.07244743338054176 -0.052936639009776236
-0.009486866949400572 0.05815415780648973 -0.06060804354706411 -0.006527660914824168 -0.05047993215584407 0.07527751747387233 0.050823747101251496 -0.020831719178847807
0.16192208838160543 -0.043688990384924596 0.05225549835515224 -0.06138495556538652 -0.044135901453014575 -0.030228083181212093
00000000: 4122 c400 3efa ae3f 0c77 2055 d482 c2bf
00000010: b0ff 5ace eacd aabf 714c eaac 8a90 babf
00000020: 869a 0aea c1e0 a1bf 02a3 a77f a3df b23f
00000030: 64dd f49b 55ff b03f d9de 6e20 452a a23f
00000040: 6d62 1b22 50f2 a93f 4c1c eeba 671c abbf
00000050: ddec 968f d648 c23f a0f4 d524 c881 aa3f
00000060: 4bb0 0681 9e64 ae3f 7917 bee0 05a6 ac3f
00000070: cb6e 0c3d ea8b b23f 5742 9dda 821a abbf
00000080: f23c 50ba d96d 83bf 0583 cfbb 61c6 ad3f
00000090: 9780 d179 0408 afbf 1373 60a2 bfbc 7abf
000000a0: 6963 6d73 81d8 a9bf 37a2 ac2b 6345 b33f
000000b0: 12f2 51f7 9105 aa3f 73d4 5e02 e954 95bf
000000c0: 96ac 0ced dcb9 c43f 7309 cc41 675e a6bf
000000d0: 6670 f190 3bc1 aa3f a64f 3d51 d96d afbf
000000e0: 2cee a31a fb98 a6bf c97d bc52 1cf4 9ebf

linears.3.weight f8 [30, 30]
0.4681358250355328 -0.09799502335544309 0.15976744668248388 0.09954552056781475 0.1433031222132559 -0.43619798374196955 -0.24514111013662745 -0.223163382423963
0.12633798029033466 -0.08594129235786949 -0.037420651783768244 -0.23258980797266393 0.29819381091023245 -0.2611901101989982 -0.21923439556960658 0.1869071048541771
0.1888317525594001 -0.09419177340446704 -0.2332263293840661 0.2798443478882568 -0.19508478544714858 0.08201115725880494 0.0024092070778371057 1.0486146017145841e-05
-0.15469187565436504 0.12093623709874295 0.20129330624118988 -0.10721874409232975 0.02140338593726013 -0.3454091093631729 0.34157006022400604 -0.23383760020520894
-0.2644788347187612 -0.09071332822395056 0.32297978237206937 -0.37378109906936724 -0.07835700507576232 -0.09120909430190866 0.14791252087834872 -0.2829344711685743
0.0579012288897958 0.17272461412534706 0.17535015191811998 -0.07188364932480665 -0.007971936293177141 -0.1129819025279402 -0.2817504752720461 -0.16268639620516398
-0.26653044457162 -0.1995068518411646 0.14920633260065838 0.12301992554749326 -0.044588764500758035 -0.25180655811529684 0.15196794619331028 0.05550176758252376
-0.1904070925800507 0.003432099110944895 -0.037413776068129165 0.2506339894463819 -0.3617890153725346 0.1320228673720687 -0.183375071410646 0.21294272259765293
0.204358319985085 0.018225419102095394 -0.2372723878026041 -0.1607691717046917 -0.37351354268516956 0.3017700848627434 -0.2823802605541146 -0.14018215200783177
-0.2958717709397596 0.22694834672614336 -0.2634450991799855 0.07895656778293561 -0.17944141601233743 -0.3443935630072194 0.25941284248239577 -0.24553126587952656
-0.29211122190991196 -0.1172262696802296 -0.17921234966666535 0.013818311595276706 0.19789474132765159 0.01327278071877892 -0.28864979447540784 -0.13909798095611658
-0.014428837746932816 0.12689246476437008 -0.2695281118825159 0.17258200691070175 -0.01622642270732423 0.004192129727164326 -0.21352255417753044 0.507283763673626
0.23607924098974797 0.1548778448869197 0.4483409614734415 0.005254742105285804 0.22383067962529493 0.022129138595139288 0.038758411448972005 0.2628709035953345
0.14658866416756514 -0.16863356643295316 0.18545337885958926 -0.10418418541671921 -0.12014334359559792 -0.15623880192439984 0.1334541759456596 -0.3480086839850984
-0.31643719320567837 0.4304605924455931 -0.023928592649805923 0.007268117433117063 0.004978313844494394 -0.2251378229739869 0.23283992859539193 0.17440612067028038
0.2666327377597633 0.217590965410123 0.2539582871838391 -0.08376797494653118 0.32193985875628617 -0.23801552933203787 -0.2153825855570348 0.37971653901517305
-0.004189860779132173 0.03355344336400256 0.1057307076785636 0.14977045330680963 -0.2605504152276224 0.15433909999673484 0.14259980502063205 0.10229146032755541
-0.143083216611289 -0.2928804995525592 -0.07499588787002225 0.04648128380707721 -0.3774843548128181 0.07051352821306495 0.3951818605957265 -0.2849178009703113
-0.3756243826012179 0.10606370090843291 -0.18612279265182197 0.21065824499802255 0.030405712282206704 0.2483248619722523 -0.16676432519305054 0.012947026113825427
0.09122907453731119 -0.010034522567025382 -0.2759741533632804 0.15891351911946558 -0.24538069824441322 -0.032628478903859476 0.2458166639898921 -0.19386386641547068
-0.055775540441936014 0.15117960957891807 0.37547516508418577 0.35234649889442127 0.051847836951179005 -0.12206349418314745 0.22078810391299417 0.26825545591675
0.3261180255123239 0.05501457755499173 -0.08922760776484578 0.08143275145014853 0.037976619829623165 -0.17211118784916793 -0.12718298831039268 -0.27534981548376963
0.04765231566140979 0.044586601608288944 0.2345122525643329 0.17610708062012262 -0.3052208856373437 -0.25428324925065804 -0.25417720406136846 -0.28397773641838364
-0.16427985639472883 0.37680869052266225 -0.13611673347156547 -0.16870788570341047 0.2066523947138812 -0.1698926564350539 -0.2559738399891631 0.19455157645452964
-0.16500897907863485 0.26760996085747724 -0.1621514478943217 0.21129868299278348 0.10523353325209575 0.2946789531821269 0.10986752682016818 0.12878695575311813
-0.07050548181133753 -0.2493898024665391 -0.17614181109928445 -0.026699198790706546 -0.04907159122222917 0.1373802391578503 0.13647710637285823 -0.2139437112950821
-0.41554005529136034 0.26276838639167294 -0.07808548723465492 -0.08197358714653354 -0.36496693032980093 -0.13640019070256634 0.12037640334083183 0.031114557666560242
-0.4066350086081954 -0.6258571924940224 -0.1591616411509698 0.07395795516646263 -0.25908683164180846 0.035193218460562115 -0.3884721462166149 0.07993998732276367
0.10538891675619066 -0.5039352873140628 0.026273634005042214 0.3509378338614893 0.4051081585015666 0.6828200755409698 0.7434505299450519 0.1945109304879915
-0.548428589123331 0.5872046804018495 0.45789793411391705 0.5322403155936631 0.1579943291310173 -0.2591273212860565 0.39846482095893204 -0.5150075768826133
0.18466193799127945 0.2703236802835686 -0.18870066461578333 -0.20131550382847307 -0.08346084721753869 -0.14707255779102288 -0.1863127069308278 0.22135853913044362
-0.3412428528015336 -0.25391872108667973 -0.03205121966174096 0.006620583982571011 0.10565034949913484 0.06375215261071605 -0.062358953966862876 0.06797897386706503
00000000: 1545 a7f6 eff5 dd3f 897d 7bac 3316 b9bf
00000010: 90bc 3b7b 4273 c43f c953 4db3 d07b b93f
00000020: 3f0a a9b7 c157 c23f 7f2f b0f2 aaea dbbf
00000030: c991 78ad c860 cfbf 1a7c 9622 9e90 ccbf
00000040: a27a cbca d72b c03f fe92 0da0 3f00 b6bf
00000050: 786b 36b7 cc28 a3bf c410 50b9 80c5 cdbf
00000060: dca8 6e7e 9b15 d33f 2cf9 55b9 56b7 d0bf
00000070: e19c 9067 df0f ccbf d28e 5e6f 92ec c73f
00000080: c030 d88c a32b c83f bf0d 53ba f31c b8bf
00000090: e5a5 a240 5cda cdbf f3a1 8944 f8e8 d13f
000000a0: bca9 b8ca 89f8 c8bf 116c 55e6 aefe b43f
000000b0: 1aab 7933 79bc 633f c2bd 3eef b4fd e53e
000000c0: 0c3a 7281 f1cc c3bf 0b8b 3d5f adf5 be3f
000000d0: efd4 9aa3 fac3 c93f 4d0e 6507 b072 bbbf
000000e0: e92d 7fea c4ea 953f e123 1dcf 2e1b d6bf
000000f0: 5e1c 7dab 48dc d53f 706e baf6 63ee cdbf
00000100: 307b 66a2 38ed d0bf 947e 081a fd38 b7bf
00000110: bea9 a364 b3ab d43f 636a 178f 07ec d7bf
00000120: f480 3666 340f b4bf c4dd 1fad 7a59 b7bf
00000130: d0b3 eb27 ccee c23f 0e20 252f 991b d2bf
00000140: 45b3 f5d8 3aa5 ad3f 8ef8 7014 d71b c63f
00000150: 6821 ebaf df71 c63f ea98 f782 f766 b2bf
00000160: f4e6 512d 9753 80bf 93b9 65c8 61ec bcbf
00000170: dc41 3b25 3308 d2bf 8b46 9a67 e8d2 c4bf
00000180: 62b3 b4b5 d50e d1bf 0d2c fec5 7089 c9bf
00000190: 5b1e 706f 3119 c33f 4d9b fbdc 3b7e bf3f
000001a0: 967f 99aa 56d4 a6bf 6881 0141 991d d0bf
000001b0: 1e64 7887 af73 c33f 3c36 4649 ba6a ac3f
000001c0: bf64 c775 425f c8bf 143c 052e a21d 6c3f
000001d0: b6d4 4301 e627 a3bf c90b fc24 630a d03f
000001e0: d6ee 441d 8d27 d7bf 88f5 d714 20e6 c03f
000001f0: 3b21 4e97 d578 c7bf 0533 bd06 b541 cb3f
00000200: 4b2f 80d6 6928 ca3f fc60 ff2b afa9 923f
00000210: dd91 ed0c f15e cebf c79c 568f 1594 c4bf
00000220: ae89 9c58 a5e7 d7bf 5962 5979 3350 d33f
00000230: 986a 07a8 8412 d2bf 0ba3 2d1f 7df1 c1bf
00000240: 58bc ff26 90ef d2bf 8bf7 88b7 a40c cd3f
00000250: b83f 51d5 48dc d0bf 229f 6e64 7f36 b43f
00000260: e813 a9b2 eff7 c6bf 3b69 844c 8b0a d6bf
00000270: 5bf4 a752 389a d03f d08c 8c8a 916d cfbf
00000280: 6f73 3944 f3b1 d2bf b537 8272 8a02 bebf
00000290: 49c7 6d26 6ef0 c6bf cae8 1963 c64c 8c3f
000002a0: 03bd 0669 9d54 c93f 86bf e978 c22e 8b3f
000002b0: 4437 d1fc 3c79 d2bf 18b5 926f f6cd c1bf
000002c0: fd5d f0d1 dd8c 8dbf 67ca 2225 033e c03f
000002d0: 90d5 78d6 f23f d1bf 069e c7cd 2a17 c63f
000002e0: 64a5 6fcb a89d 90bf 0a9a 4241 c42b 713f
000002f0: 1550 9301 b554 cbbf faa3 d828 ab3b e03f
00000300: 5461 a835 d837 ce3f 2807 5587 09d3 c33f
00000310: 8414 bf49 9eb1 dc3f 349d db17 ff85 753f
00000320: 1982 6ad4 7ba6 cc3f d716 385a 05a9 963f
00000330: d68a 3c7b 24d8 a33f 78c3 807b e0d2 d03f
00000340: c931 48d7 6ac3 c23f 2d2f 6be2 c895 c5bf
00000350: ad3b 91b2 efbc c73f b50d 2095 d0ab babf
00000360: 443f 93d3 b6c1 bebf 9fd5 5010 a2ff c3bf
00000370: 29c2 99c4 0615 c13f e728 1c37 c645 d6bf
00000380: 6b9c 03c9 8140 d4bf a051 b195 aa8c db3f
00000390: 961b 7bab bc80 98bf 030f dc6a 2cc5 7d3f
000003a0: 56d6 6bf2 2364 743f 6109 62f1 50d1 ccbf
000003b0: 6095 42e3 b2cd cd3f 8423 4094 f052 c63f
000003c0: f526 2ec2 8210 d13f c3b7 2b50 05da cb3f
000003d0: 4d2d 8042 da40 d03f aef5 d868 d171 b5bf
000003e0: 62c6 28a3 a99a d43f e9ea 35f9 4a77 cebf
000003f0: 9f35 8c14 a891 cbbf af82 3499 464d d83f
00000400: e9b1 5630 6329 71bf df49 d5bb ea2d a13f
00000410: de90 a9eb 2a11 bb3f 510f 6e9f ad2b c33f
00000420: b128 17a6 dbac d0bf 4672 7d35 62c1 c33f
00000430: 3f63 7ddd b540 c23f a755 c4ec c52f ba3f
00000440: 29da f903 8d50 c2bf 79b8 cdd9 8dbe d2bf
00000450: 7b79 bc35 ee32 b3bf e6ac a713 65cc a73f
00000460: bf0d ab23 b428 d8bf a4c6 99b1 2c0d b23f
00000470: f5c9 cedb a84a d93f 6cce 4ddf 173c d2bf
00000480: 168e b6d9 3a0a d8bf 23c7 b19e fd26 bb3f
00000490: ec68 bd25 dfd2 c7bf 081b 7370 d9f6 ca3f
000004a0: 2864 74cf ac22 9f3f 4a2e 7aec 1bc9 cf3f
000004b0: 15fd 6b8d 8858 c5bf 232a ea6d f883 8a3f
000004c0: 5e04 95e3 c95a b73f 2c00 0dd2 fa8c 84bf
000004d0: 1724 cf7e 8fa9 d1bf fb53 c137 4757 c43f
000004e0: 5cc3 037d a268 cfbf f4df 9e13 aeb4 a0bf
000004f0: 04ff 52a2 eb76 cf3f 2bb6 10fb 87d0 c8bf
00000500: 62cc 3a94 9c8e acbf 0454 7b7b da59 c33f
00000510: 3acb 9ffc c807 d83f 1a25 6754 d88c d63f
00000520: 00b6 25b8 cc8b aa3f b956 8d9b 8d3f bfbf
00000530: f779 d3da c842 cc3f 67b4 88ee 182b d13f
00000540: 9f89 8d23 1edf d43f c0cb cde6 de2a ac3f
00000550: 8415 40d9 9ed7 b6bf 323b 4ddc c6d8 b43f
00000560: 3c99 5ce8 ab71 a33f f13f 8b49 bd07 c6bf
00000570: b549 b33b 8847 c0bf 5f98 1dd5 549f d1bf
00000580: 4c58 b062 e265 a83f dba8 7e17 0ed4 a63f
00000590: 8a36 a35b 7f04 ce3f 51c1 ed43 ad8a c63f
000005a0: 4796 772e bd88 d3bf baf0 dc3f 2d46 d0bf
000005b0: 5644 b576 7044 d0bf 5661 adf4 b02c d2bf
000005c0: 1bb0 4d51 1f07 c5bf c92d a932 a21d d83f
000005d0: bb6f 59eb 456c c1bf bd33 d651 3898 c5bf
000005e0: 80d5 77ee 9573 ca3f 240c 9ce5 0abf c5bf
000005f0: b8a3 d819 e061 d0bf 12f4 20e9 10e7 c83f
00000600: ef33 58a4 031f c5bf 7ede 7d87 8520 d13f
00000610: ad42 daee 60c1 c4bf 0229 92d2 d50b cb3f
00000620: b2a1 c2b7 95f0 ba3f ea26 af1c 05dc d23f
00000630: 36c4 953a 4720 bc3f 9b36 8e49 177c c03f
00000640: d083 91b2 a50c b2bf 195c c64a 01ec cfbf
00000650: ee97 109b d08b c6bf 33bd 8ae6 0857 9bbf
00000660: 939f ec5e e91f a9bf 225a 26f9 ac95 c13f
00000670: ff16 43f2 1478 c13f 463f 99ed 8162 cbbf
00000680: 17e2 e950 3598 dabf 3365 7e7e 32d1 d03f
00000690: b80e f715 69fd b3bf 751f ee93 38fc b4bf
000006a0: 15d5 7841 9e5b d7bf f32a 1ebb 8f75 c1bf
000006b0: 2c19 8feb fcd0 be3f a1f5 6d9e 7edc 9f3f
000006c0: 4d60 d8d7 4e06 dabf 704d b7a9 0507 e4bf
000006d0: 82b3 c29d 685f c4bf cf0f b896 e8ee b23f
000006e0: ec73 2eef e094 d0bf 807f a874 d804 a23f
000006f0: 0f11 da46 badc d8bf 0aa5 316f f276 b43f
00000700: 0826 d49e c4fa ba3f 720e 4ae5 3c20 e0bf
00000710: 3ae6 31bb 79e7 9a3f b14e d7f5 c375 d63f
00000720: 4dd9 06c5 4aed d93f db05 b07c a9d9 e53f
00000730: 0bda 09c4 58ca e73f b889 94f2 bbe5 c83f
00000740: 713c cf1c ba8c e1bf 594a 4c78 61ca e23f
00000750: 1337 fb22 334e dd3f d1cc a2d7 1c08 e13f
00000760: 681c 497e 2839 c43f db1d 9bc2 8a95 d0bf
00000770: c701 a897 7280 d93f 9fe5 7c2b f17a e0bf
00000780: fe87 3e9c 00a3 c73f 13bf 89b1 fb4c d13f
00000790: 760e a1e7 5727 c8bf b87e 8fd8 b4c4 c9bf
000007a0: 52b8 4ba9 b05d b5bf 63fe ec08 46d3 c2bf
000007b0: 046f 8c43 18d9 c7bf 3ab7 2003 7a55 cc3f
000007c0: 5faf 3143 ecd6 d5bf 2f34 ba4e 3440 d0bf
000007d0: 50f9 7c78 0469 a0bf e111 f87a 2f1e 7b3f
000007e0: a5e5 e8bb e60b bb3f 7d3b 83a2 0f52 b03f
000007f0: 3207 cd47 83ed afbf 6c1e 93ed 1167 b13f

linears.3.bias f8 [30]
-0.07988873010315078 0.0507238110924933 -0.06661255601426808 0.04620830204135581 -0.04488024997175158 0.08586971013117584 0.02848923366097746 -0.061675848717476715
-0.06866064596570996 0.06132435775348328 0.062346602822517486 -0.06375269911255897 0.060976050120453984 -0.045184498946452836 -0.13255765297761823 0.07437569777071557
0.053960422735366914 -0.01955882074128964 0.03901928074481848 -0.06708159265570157 0.05774184247268466 -0.019782045562474242 -0.03154116999515815 -0.009900412301577169
0.05567681761169369 0.07352384013803184 -0.071983838554345 0.12244816244677972 -0.02090005622864879 -0.06460111700212187
00000000: 40ac 1c7b 9673 b4bf 889e 8aab 78f8 a93f
00000010: 6091 953d 850d b1bf 2b83 2454 9da8 a73f
00000020: 64de ba4b 8bfa a6bf 80fb baac 8efb b53f
00000030: 45b0 721b 482c 9d3f 67a3 6312 fa93 afbf
00000040: cfe8 f17c be93 b1bf 49b3 fffd e765 af3f
00000050: 4261 47d8 e4eb af3f ff5c b8cd 1852 b0bf
00000060: 2895 36ba 4038 af3f f2b6 8532 6c22 a7bf
00000070: 28cb 2f30 a6f7 c0bf f4da 8a25 490a b33f
00000080: 1c7d da55 b3a0 ab3f 9689 ba3d 3a07 94bf
00000090: a9c4 6ccd 55fa a33f 50ad 9e5e 422c b1bf
000000a0: 90da 0fba 5690 ad3f 4b8a f49a be41 94bf
000000b0: f7ab 360b 2a26 a0bf 9be2 6ad8 aa46 84bf
000000c0: d93d 93fd ab81 ac3f 8282 de58 75d2 b23f
000000d0: e173 6e68 886d b2bf f209 2a45 c358 bf3f
000000e0: 4749 f207 d366 95bf 9e26 cfe4 b289 b0bf

linears.4.weight f8 [3, 30]
-0.3432002109147125 0.04891229617301117 -0.4482999189731725 0.3384625880261608 -0.36252196230202305 0.2236210174354935 0.14189660511262153 -0.06432259718879751
-0.13991902045752636 0.15767174774050485 0.41031961396945715 -0.5023648178451496 0.4028558104613336 -0.5245736055333834 0.36584644994456095 0.27700307330902163
0.20839423209185814 0.11892563715851505 0.17369553961350553 -0.4598378308856299 0.37535520443720005 0.09923819746855297 0.2435382299129874 0.3569110923180257
0.1449972489589312 0.39143048626973836 -0.05017744704235423 -0.3989503583052322 0.4839369303292481 -0.13663909540488417 0.1514893028593038 0.21496880088078993
-0.1500523984065411 -0.2907929284106337 0.30204210300440604 0.04834411496368495 -0.08305277211438301 0.5185135704866329 0.04483102909275387 0.42010664638680384
0.1704203914246317 -0.1257279573386725 0.3714298082440096 -0.45315079118724927 -0.09530393071045415 0.020354662765402983 -0.022690529526616113 -0.8106365805577377
0.23028517364963136 -0.16725688680637543 0.2711794361495334 -0.31480035694302544 -0.15618470100631895 -0.27540168176905394 -0.011142593414334457 0.4650906386752817
0.17165728630531163 0.1380288169804552 -0.44317918740276513 -0.4425151326322399 -0.007611761311407351 -0.05134997166982817 -0.06256493421029473 0.3809729562440265
-0.449604830738904 -0.03429269378228148 0.25434550661780675 -0.39393875174251974 -0.0945296341730661 0.1475841296867007 0.1306423785922541 -0.1288245200164053
0.054613383607281914 -0.3687940628471236 -0.4163127829881804 0.2246840454024474 0.2620954344584906 -0.06499716336850303 0.3248668265408114 -0.1774968630795256
0.46201627416551166 -0.2701368199882259 -0.33214736228134506 -0.42503015801517946 0.226181859369743 -0.21603026791172644 -0.29135176027885645 0.22729343376133276
-0.46149158504933596 0.28106042864593295
00000000: bbf9 7604 fef6 d5bf 0ee6 de50 080b a93f
00000010: ad82 b224 f2b0 dcbf fe7a 9ffc 5ea9 d53f
00000020: d0cf 0a51 8f33 d7bf 5eb6 4a0e 9d9f cc3f
00000030: 26a2 2fff aa29 c23f b0d5 511b 7277 b0bf
00000040: 040a 7ad0 dde8 c1bf 8439 067c 962e c43f
00000050: 94fe b932 ad42 da3f 0eca e961 5f13 e0bf
00000060: 15d7 bbbc 63c8 d93f be8a 0396 4ec9 e0bf
00000070: 5ea7 773a 076a d73f 403d 3019 6bba d13f
00000080: 6839 c185 a9ac ca3f f374 401a e971 be3f
00000090: 26f0 0ccb a73b c63f d082 47a7 fb6d ddbf
000000a0: 1a3c dcd5 d105 d83f 6e34 a4ac ac67 b93f
000000b0: 42a8 66be 422c cf3f c579 459f a1d7 d63f
000000c0: 2df0 2415 458f c23f d7e5 4b74 320d d93f
000000d0: aa5d 16bc dbb0 a9bf 4680 6915 6788 d9bf
000000e0: dece 459a d2f8 de3f 703b 0fcf 637d c1bf
000000f0: 06be bc60 0064 c33f ffbe b800 1984 cb3f
00000100: 9ed5 ebbf ea34 c3bf a5a1 5bf1 599c d2bf
00000110: b0d0 9a66 a854 d33f ff38 7251 8fc0 a83f
00000120: 61cb 124c f242 b5bf 83b6 78c5 a997 e03f
00000130: 464b 99b7 17f4 a63f 5a11 c4fc 06e3 da3f
00000140: 8bc2 dedb 55d0 c53f 9932 7b8c da17 c0bf
00000150: 82b9 ca87 81c5 d73f 9591 132d 6c00 ddbf
00000160: 0ee7 94a1 d665 b8bf 3f14 984b dad7 943f
00000170: e4a2 fba8 2f3c 97bf e1f9 4d20 bcf0 e9bf
00000180: ae17 ca0c fc79 cd3f ad9c 6e75 ac68 c5bf
00000190: af09 67fe 005b d13f 12b9 7565 b025 d4bf
000001a0: 3395 7a3b dcfd c3bf fd88 1d60 2ea0 d1bf
000001b0: cd20 7592 edd1 86bf 434f b286 0bc4 dd3f
000001c0: 0095 66af ddf8 c53f 8316 6ba3 edaa c13f
000001d0: 316a 0a3d 0c5d dcbf 25ff a8fd 2a52 dcbf
000001e0: 4ef7 5b9e 822d 7fbf 76e3 f121 8b4a aabf
000001f0: 6f42 4f6a 4104 b0bf 48a0 ee64 dc61 d83f
00000200: dc6b 0957 53c6 dcbf adc2 92dc cf8e a1bf
00000210: cab6 3360 3247 d03f a91d d7e1 4a36 d9bf
00000220: 9db2 4617 1833 b8bf 42dd 3469 09e4 c23f
00000230: b73f c3b3 e3b8 c03f 8f59 3266 527d c0bf
00000240: 99cb 0811 49f6 ab3f 95ca b869 529a d7bf
00000250: 9ed2 f55e dea4 dabf eede 7761 72c2 cc3f
00000260: 3a87 dbed 2bc6 d03f 1820 0073 a7a3 b0bf
00000270: e713 e33a 9eca d43f fcd9 089b 37b8 c6bf
00000280: 5dae f0b4 ac91 dd3f 24df d2f1 eb49 d1bf
00000290: dbdd 9c02 e741 d5bf 454a 1fb1 b133 dbbf
000002a0: a483 78f4 86f3 cc3f fd40 d03b e1a6 cbbf
000002b0: f0e6 81da 81a5 d2bf 16dc 4c84 f317 cd3f
000002c0: 64a1 4a00 1489 ddbf 3efa 4ee1 e4fc d13f

linears.4.bias f8 [3]
0.08013053094283609 0.048107567995983945 0.045620393260279654
00000000: 4a83 cf39 6f83 b43f c337 771e 8ea1 a83f
00000010: 5ec8 2a62 8e5b a73f

step f8 []
11000.0
00000000: 0000 0000 007c c540

exp_avg f8 [30, 1]
-0.004914331355747017 -74.29308118465595 0.006882772506208472 -0.01195674443546664 -0.0055894349579988034 -0.03524269974415935 0.03227703083037917 -0.0055787566050594815
110.33315737119943 106.24191471316308 -0.003931366323208134 139.55265696311915 -80.61459728913471 -0.029161695312065836 -0.002837295354001148 -0.030670917582710525
0.0027581079065763354 -0.07563238257688143 92.16009298085254 0.0029260276240446782 -0.0395999301007271 0.013854969195778033 0.013773228735843272 -132.1396602969679
0.01881262135368116 69.66659970729314 0.03204504977801044 -0.11994106831900068 0.003434015282372021 0.00831368934925614
00000000: 6935 46c7 0c21 74bf e5ca 95d7 c192 52c0
00000010: 5f9c 1e2d 1c31 7c3f e821 8912 c77c 88bf
00000020: 0947 9085 f2e4 76bf cad7 a5c5 540b a2bf
00000030: 352c a86f 9d86 a03f 93b8 bc12 c0d9 76bf
00000040: 446e 4b73 5295 5b40 3a5d d987 7b8f 5a40
00000050: 12a1 961c 561a 70bf 1cd0 a75d af71 6140
00000060: ce42 de8f 5527 54c0 e91b a53e 90dc 9dbf
00000070: 3817 2558 3d3e 67bf 94ff d26f 3268 9fbf
00000080: 9b21 3ee8 2b98 663f 20af afd1 a45c b3bf
00000090: 2c45 a1f6 3e0a 5740 c896 7a1e 53f8 673f
000000a0: 88bb 6929 7146 a4bf d3e3 a97c fe5f 8c3f
000000b0: 2fa0 d877 2335 8c3f db00 df18 7884 60c0
000000c0: 2d47 dda5 9d43 933f 3996 d191 a96a 5140
000000d0: 9a2a 9771 3568 a03f eb9d e035 75b4 bebf
000000e0: 72b6 9dea a621 6c3f 02cc e97e c406 813f

exp_avg_sq f8 [30, 1]
0.15798038400316874 391391.7984165539 0.17751592906799912 0.14537873588037795 0.1889224144684839 1.0624550054135136 0.10785781301862785 0.13523413984850424
895325.7525221072 822653.0748761641 0.4584183789903294 1447260.1126756074 463918.414645733 0.1461658542740096 0.4577119385032263 1.579654127125428
0.36624924773832745 0.637890687956452 614532.3060067497 0.3164369872083189 1.055094090683852 0.11089251834521593 0.21299417516091435 1263807.7646860522
0.789723958864994 347260.65030167316 0.07083312173527032 1.350363368818932 1.293790607690453 0.041948915142922545
00000000: 3500 5a83 b338 c43f ee1b 9431 7fe3 1741
00000010: c2dc ee8a d7b8 c63f ffec 113a c59b c23f
00000020: b4ce cf13 9c2e c83f 8a8f dbd1 d0ff f03f
00000030: 9078 88d3 919c bb3f aadb f92f 5a4f c13f
00000040: e093 4a81 bb52 2b41 282b 5626 fa1a 2941
00000050: e985 690a ba56 dd3f 014f d81c 5c15 3641
00000060: 1be4 98a8 b950 1c41 ff0a f30d 90b5 c23f
00000070: 350c b703 274b dd3f 18ec ef67 4346 f93f
00000080: 4020 4eaf a070 d73f d544 66bb 9969 e43f
00000090: adea ac9c 08c1 2241 ee7c d3eb 8040 d43f
000000a0: 400a 5b57 aae1 f03f a6ed a9bb 7363 bc3f
000000b0: e0fd 46a4 6443 cb3f 1277 c2c3 bf48 3341
000000c0: 682b 062e 6b45 e93f 8bae e899 f231 1541
000000d0: 469a 5395 1e22 b23f feb2 ac9e 169b f53f
000000e0: 7c70 bec7 5db3 f43f d176 4805 547a a53f

step f8 []
11000.0
00000000: 0000 0000 007c c540

exp_avg f8 [30]
0.004963723362795357 -0.29443415856460475 -0.007023420142362976 -0.025225153088705567 0.00539707022882972 -0.04119589318264219 0.025244884933127515 -0.00415337617076923
0.46181529521511483 0.4428384782156728 0.01716905025114402 0.6445054433793056 -0.31433852417325586 0.00326517669491353 0.019174546088903805 0.0171508052785665
-0.001919626899454732 0.009218525199244845 0.38209333511161564 -0.021975864022462592 0.023183022504476382 0.003845496410846846 -0.009765278631459805 -0.5523529796601514
0.026702186556721994 0.2721744815331236 0.005104900592209663 -0.027457955316451038 -0.05547772667265335 -0.008279857164647205
00000000: 654f 2758 d754 743f 6e0e 775e 02d8 d2bf
00000010: 568c 14fd 96c4 7cbf 87d8 355e 9fd4 99bf
00000020: ed59 0802 3d1b 763f c4dd e5cb a017 a5bf
00000030: 085d b78c cbd9 993f cd9d 246d 2103 71bf
00000040: cb74 6fbd 618e dd3f b630 5633 7757 dc3f
00000050: 6203 5475 c394 913f 220f 2de1 c99f e43f
00000060: 4b9c 4c54 1f1e d4bf ce9e d963 92bf 6a3f
00000070: 654e 7801 7ea2 933f 0206 160f fb8f 913f
00000080: d94a 3cb0 7f73 5fbf 4e20 fc81 29e1 823f
00000090: b9bb 949a 3774 d83f ce7c 1c45 d780 96bf
000000a0: 6aa8 ea4d 4abd 973f df80 492a 9780 6f3f
000000b0: b919 de82 d1ff 83bf d2a1 ef27 e0ac e1bf
000000c0: a9a3 f867 d157 9b3f b664 3f84 4e6b d13f
000000d0: dd66 7c51 e0e8 743f 2891 6530 f01d 9cbf
000000e0: 7b52 6e9b 9367 acbf 0bd5 e69d 07f5 80bf
