1D_Transcritical_Inverse_Problem_n_initial_0_01/Models/Model.ckpt-32500.pt (torch, 82425 bytes, 43 tensors)

linears.0.weight f8 [30, 1]
00000000: 5131 9af6 59fe dd3f 498e 9406 523d 893f
00000010: b7d5 f8ec 66d2 d13f 3c8f 9d9f ac62 c6bf
00000020: 2640 bc3b 51ee d2bf eb6c c2bd 0043 c33f
00000030: c7a3 cb5c 4c6a b43f b636 fcfa 5beb d0bf
00000040: 7f43 5776 cc7b 8abf 6398 5c18 2f9e 8bbf
00000050: 5e1c ac52 9401 d63f 3817 f643 2916 8cbf
00000060: faae fc2a fe55 8a3f 7503 af3a a609 d53f
00000070: 90c2 26ea 23af d1bf 986b fbb3 a66e c4bf
00000080: 8604 e002 1a77 d63f 869f 3709 30c6 b2bf
00000090: d030 f8b0 f0d4 8cbf cea3 5fed 7c4d d63f
000000a0: f5c2 b771 a9f6 b6bf 6c02 6d79 3539 c23f
000000b0: dfdd edd8 b875 d1bf 97d5 2b70 c89e 8c3f
000000c0: 6f56 7a7a 39da c03f f985 99d2 7275 88bf
000000d0: 225e 05dd 0b6f b3bf c676 7ffe 2425 abbf
000000e0: 44f4 5f14 0923 d13f 9446 111d bc36 dbbf
0.46864937860734296 0.012323990655722332 0.2784669222049518 -0.1748863009807965 -0.29579573472529075 0.15048226609801615 0.07974698319925642 -0.26436519155764004
-0.012931439744450433 -0.013485305720291224 0.3438463981005436 -0.013714144121660263 0.012859330832348349 0.3287139485437856 -0.2763147150645091 -0.1596268061465167
0.3510193851544233 -0.07333660340338896 -0.014078026199989685 0.34847949200644457 -0.08970126177133493 0.142370876588774 -0.27281018433083476 0.013974729464716158
0.1316596839939623 -0.01194276528548509 -0.07591318269748418 -0.05301776510871785 0.2677633952114926 -0.4252157482015744

linears.0.bias f8 [30]
00000000: f775 56db 5001 b7bf b322 33b0 64fc c9bf
00000010: dd76 c9ec b420 a33f 3ce2 459c 0818 ca3f
00000020: 38b3 9f58 5424 c1bf 2e0a 8611 eaba c43f
00000030: bfa9 15e5 3278 d4bf e502 bf35 f5f0 a03f
00000040: 5c6a 4b80 f58c d23f 102d e48d 7846 d73f
00000050: d307 a24f 5e75 c3bf e681 4120 cc9a d83f
00000060: a4f4 e74c 65f7 d1bf 388e 6925 30b0 acbf
00000070: 6e7f 2920 a647 c3bf 3c9e 7bf6 a5a2 c2bf
00000080: 9ad2 9288 2408 b7bf 331a 1401 cec0 c1bf
00000090: a5f9 a0ea 7664 db3f 6057 f414 eb0b c33f
000000a0: d3ac f57e aa4e c2bf 462a a301 a2d2 bebf
000000b0: c83a 3362 4098 c43f f0b8 0123 da95 dbbf
000000c0: 964a 57dd 5cdf cabf 59de 1a81 27ef c23f
000000d0: 12b7 d73c 05ae a5bf b1d7 a29e fcce c83f
000000e0: 434c 544d 5779 c53f e57c ba33 27a4 cc3f
-0.08986382822919113 -0.20301493266585666 0.0373589076086611 0.203858448319595 -0.1339211876615083 0.16195417266506368 -0.31983635303063446 0.03308836251335893
0.2898534539105293 0.36367620331357475 -0.15201929939581635 0.3844480814932737 -0.2807248354946046 -0.05603170830434262 -0.15062405176558563 -0.14558863196656258
-0.08996799787821388 -0.1386964326158747 0.4280068675324407 0.14880121730009943 -0.14302569579317623 -0.12040150203680708 0.16089634699752353 -0.43102124613405035
-0.2099414902464402 0.14792341045334714 -0.04234329574306463 0.19381673570540905 0.16776553417057202 0.2237595560627376

linears.1.weight f8 [30, 30]
00000000: 110e 1405 ecff b93f 00c9 acd2 bb2f e2bf
00000010: 727a 4e64 449b cb3f 7682 c9b6 415f c9bf
00000020: e25e ef3b d4f9 c63f c796 9513 7d27 c23f
00000030: 8b99 3a8c 3817 cfbf c86c 379a 1a6b c4bf
00000040: 7e7c 279c fe23 b73f a08d 81b0 03f2 b63f
00000050: 9137 1a28 ee68 9a3f e53b 5401 8956 e43f
00000060: db47 bdbb 2c24 b03f ced6 7994 3e16 6c3f
00000070: 6841 6186 d9aa d0bf 1974 9d1c e2cb c43f
00000080: ce85 c61d 09fb b13f d99a 8441 618a c33f
00000090: ae53 3ec9 4190 c23f 9ac3 6e6b c07a cdbf
000000a0: 8f0d 87e0 3a4f cebf 80ad c4e0 6618 b6bf
000000b0: af1f c051 eb0e cbbf e138 97f3 4fe2 e0bf
000000c0: d65a 86c6 348b 993f da64 20b5 4d5a dc3f
000000d0: 7fd9 d548 4e61 c8bf 64e1 ce8b 84d5 c5bf
000000e0: b118 5519 0160 c93f f422 59ce 9eda ab3f
000000f0: 9048 bda4 abac b1bf 700d 9dd6 de75 c5bf
00000100: e096 4f50 15b6 853f 9436 52d6 a1bf d1bf
00000110: 0c86 0401 b177 bebf 23a4 42aa e714 a0bf
00000120: f9ab b242 b8a8 cb3f 3750 6b9d 36eb c43f
00000130: be45 d3bb c6bc ccbf ee81 f19e 91e8 ad3f
00000140: 1751 cfc0 e674 c13f f473 406d e77c d7bf
00000150: b2f1 f66b 1607 a0bf 28e7 82ce 9422 cdbf
00000160: 43f0 d0e9 a461 9dbf 0d0a 1345 9c54 bf3f
00000170: 29b2 0064 49ce b3bf 3d36 a60b 2b18 d0bf
00000180: aea8 f812 2d8d afbf b9b1 cc03 e9fe 9fbf
00000190: 4703 7aac 13bc b43f 4cd0 d4fd 6263 8f3f
000001a0: 4ecf 9f1f 3565 bd3f d5d0 9523 608b c73f
000001b0: 96e5 2e8c 92c7 c33f 8ffd c645 b7d6 bbbf
000001c0: d85f 29c5 945a a63f d2ce a84a 043b d13f
000001d0: edc8 20c6 d387 a6bf 4275 26ef 9b02 ca3f
000001e0: 6228 a1d2 df06 d0bf e50f 6689 7c2b d83f
000001f0: 1bbe 75cb 71f5 c33f 8796 00ef ef2e c03f
00000200: 1a42 4699 dc4e 883f 5f5b a785 156a c3bf
00000210: 7895 4b27 3797 bcbf d8a3 6e62 ec0f c03f
00000220: 673d 34be 6a1c c3bf 5348 8c2a 861f d2bf
00000230: 7111 c4c1 1685 8c3f 3e1a e0d2 d826 e5bf
00000240: 367c 5c27 8834 d43f 7d81 9b72 38db 9f3f
00000250: 1467 96ea 9649 c6bf 2b8c 51fd f272 a4bf
00000260: db0b e354 b01c b4bf 0a23 e566 e4fa d43f
00000270: c86e aafe 49f8 c2bf 0ef5 0c0b 329a cd3f
00000280: 33fc 47e0 dd6a d63f d2d3 a2de ebfa c33f
00000290: b7c1 35cb f402 cfbf 59db eb17 b1c4 e83f
000002a0: a75b d4fc 3271 cebf 2a10 c32a 7ff7 d9bf
000002b0: cbd8 8bc2 1510 d23f c711 048d 00ee cd3f
000002c0: 99d8 62dd 3f25 cebf 0e93 0658 4a4a af3f
000002d0: fcce 668d 32d1 b03f b477 57f9 aa94 dc3f
000002e0: b66f 06aa 6329 b03f c458 84d0 1159 d13f
000002f0: 2fd6 b23a f0da c93f 3273 e27e c9af c1bf
00000300: fec6 038b 6f85 ccbf 86ac 5c59 4734 d23f
00000310: c223 364d 94c2 e4bf 8fcc f5af 592c e3bf
00000320: e34b e745 5adc d2bf 912a 01d8 64ef cbbf
00000330: a2c5 da95 ca2b e23f 3337 85c9 288e c43f
00000340: daf3 5345 c82e 97bf 83cc ca26 b61c c53f
00000350: 47b4 0a51 b3a2 c23f 037e 0b90 71dc 82bf
00000360: 5cce 7951 e9ae dcbf 9f46 1548 5560 d2bf
00000370: 4bed 5b66 3c6e bb3f a6c8 f82d 53f7 c43f
00000380: 5d9b df3d 9678 b43f 3db6 f88e 1b2d d53f
00000390: be3f 2317 7b62 aabf 58c5 b927 f430 e4bf
000003a0: 393e 0b44 6f34 bd3f ccd6 87e4 7d82 c83f
000003b0: 12f6 aaf1 10c1 abbf 8bc8 be25 bf02 b33f
000003c0: 22b3 b69a 19bf d23f 321f 10a9 a385 a23f
000003d0: 98be e827 932e d2bf 9450 e78c 56fc 73bf
000003e0: 353e 3a2c 3c7d cb3f 9268 de7b b8c3 b63f
000003f0: 0d12 58c1 f67d c6bf d786 f658 f673 a9bf
00000400: 49e2 2367 22da dc3f 25d3 fc55 f4a2 da3f
00000410: 4d96 1b68 ac96 ce3f b71f bb07 88d9 e13f
00000420: 3432 cac4 85a1 dabf 509a 20d6 039c ce3f
00000430: bd87 78d1 f1e6 cc3f 4595 cd7d 6c0d 813f
00000440: 837e 1696 2ba3 d13f 692d a119 490c d1bf
00000450: 6d8c 1881 80a6 d13f df25 718a 9421 81bf
00000460: 6578 d93b 69c8 6d3f 8b3e 4e98 de15 96bf
00000470: 459b b002 0049 d2bf 7c57 bc99 9aaf ac3f
00000480: a273 a841 4582 b03f a4e2 045c 80e8 b13f
00000490: 11ee 4d07 12ed a83f eea5 6fe8 9f21 c6bf
000004a0: 0fd9 6101 2af8 bebf e117 a831 9990 d0bf
000004b0: f51c 5091 fb9c 7ebf 6299 74db 7537 c73f
000004c0: d485 d541 d766 b33f a66a 6516 0c6f b93f
000004d0: d6c0 346f 1eb1 c1bf 83c2 ce9b 83da d0bf
000004e0: e70a ee44 68c6 b53f 06cf 2445 611c b7bf
000004f0: 46ba 41ef 14e1 a1bf 59be ac58 142a 9dbf
00000500: 8f80 8015 c27f c3bf a516 edc6 e8ce c7bf
00000510: dddb 8bd0 addb c5bf 8349 8ab1 4d6e ab3f
00000520: baf4 7ef8 8ab1 a83f 665b ddc6 7de1 9fbf
00000530: 3ab6 3af7 1ca7 d6bf 1380 a831 7cf2 b8bf
00000540: 6a77 570c 8fa6 c13f ebc8 0f04 6840 b7bf
00000550: fed2 cbe0 ede4 b0bf 7395 c9dc 8f0a aa3f
00000560: 3614 681b c956 cf3f f2a4 c7d6 0ab7 c3bf
00000570: dcd1 e00d 3f29 b3bf baa7 e5b7 d660 b43f
00000580: 7be1 baf5 178a aabf 1b7e c6d6 a450 c93f
00000590: c9e7 21e7 e51c ccbf edec 765f cc3f c13f
000005a0: 1d51 bfb5 1e49 c13f f4ce 3dea 4fd8 bfbf
000005b0: 2efd 3ed7 ca83 933f 9c8e 0050 cae3 b6bf
000005c0: 2176 994b 794e cabf 142c d4a3 1b1e bdbf
000005d0: 0845 67e1 fe38 a73f d563 1ff6 ad35 cabf
000005e0: d23c 900c 3276 d43f adb0 9dd0 5881 e43f
000005f0: 89ce d150 b714 d03f 6c29 ee80 8428 e13f
00000600: 6bce c739 502f dcbf d3e4 6563 c849 d13f
00000610: 82a5 1e85 3032 c63f 11a0 ef1a 2b60 cdbf
00000620: d1e9 3bf8 b874 c0bf bad9 382a 290d a23f
00000630: 1f41 964d 6448 d23f a645 1123 afbe b3bf
00000640: e0a4 f3c1 c070 c0bf 1e7b 78ed 3149 cbbf
00000650: 866b 5e40 b6a6 ba3f 25f3 1e3a 8f20 e0bf
00000660: 0ab9 cc30 a780 d33f c8c2 fba5 b9ea c33f
00000670: 5c70 920d b867 d5bf 6d0e f4c0 3b18 9bbf
00000680: 2f17 fee2 082c 9b3f c7fb e2cb ee1a c4bf
00000690: 8f49 fd1c f12d c1bf 0e45 0d8d 1d92 b2bf
000006a0: 5ab3 948f 63a6 cb3f a2ec 774a 3486 c33f
000006b0: 884d 6e26 84bf cbbf 9500 27dd ff29 d03f
000006c0: 1817 f995 428a ba3f 1980 ca37 c60a b8bf
000006d0: 9c31 a76a d335 d73f 4ca7 f9fb ecc4 95bf
000006e0: 4f44 0654 4f88 cf3f 9c2a 63cb 5120 c23f
000006f0: 1c34 40f7 edc2 adbf 132d e8b0 c288 d2bf
00000700: e89e edde 6810 b03f 3a9b bc36 abc6 c0bf
00000710: da2d 22a0 f9f0 cdbf be72 f6bb d67f b1bf
00000720: cc5e 0aab 1d56 b43f 61d2 f271 bb4b c53f
00000730: 9de6 4513 3926 ac3f 5058 8792 14c8 97bf
00000740: fb34 9c07 212a cd3f 6f32 cdbb d805 d2bf
00000750: fa5b 06fc 507f c93f 19ae f796 1cc4 c9bf
00000760: bbbc 8b1c 022a d0bf c1cb 8a61 f330 b3bf
00000770: b86b 2b3f 423b d13f cc63 a34d c73b c53f
00000780: de0b 97d1 c8ec cebf e84e 560a 1c38 cfbf
00000790: 90c7 5134 ba61 c83f d37b ccd3 12c3 afbf
000007a0: 2da8 568b c8d1 d0bf 10c6 8134 f085 c03f
000007b0: 47ff ddee 0cd8 c2bf 7219 35c8 961f c0bf
000007c0: 8df0 9b95 427d c5bf df53 ea27 d63a b23f
000007d0: a006 1444 8b90 7cbf d8ec e4c0 3a77 cd3f
000007e0: 2f3a 5efa 5091 d6bf 4d05 2c0a 5b62 bb3f
000007f0: 2c3d 5992 ae41 b43f 0e87 7db2 4978 c3bf
0.10156130908949758 -0.5683268656487428 0.21567587754994438 -0.19821950364259394 0.17949917723193837 0.14183009582773407 -0.24289614531626244 -0.15951855211355892
0.09039298355445344 0.08963034686308058 0.02579090232625664 0.6355633760412017 0.06305198272210026 0.003428575731784323 -0.26042783854520346 0.16247202298373578
0.07023674942913447 0.15266051959152696 0.14502737356511147 -0.23030858274208016 -0.2367929073644572 -0.08630984294420863 -0.2113927983448298 -0.5276260144835555
0.024945091835969567 0.44301169098032533 -0.1904695373193128 -0.17057854487007795 0.19824231850561128 0.054402315796840656 -0.06904099246938444 -0.16765962104009757
0.010601202500719109 -0.2773212998371062 -0.1190138461575076 -0.03140949204800616 0.21608641869292436 0.16342814146503468 -0.2245109955897941 0.05841498437144198
0.13638004698317083 -0.36699853581541153 -0.0313040739815479 -0.2276178367954398 -0.02869279553509353 0.12238480268846548 -0.07736643496964092 -0.25147510659812494
-0.06162396294196647 -0.03124584279719198 0.08099482498984144 0.015326283809010154 0.1148255541045817 0.1839409040218302 0.15452796788103446 -0.10874505475566408
0.04365982920415917 0.26922709742505646 -0.04400502961688511 0.2032046239591328 -0.2504195744446688 0.37765420358505103 0.1559278720337581 0.12643241090806986
0.011869166781964192 -0.15167492891370224 -0.11168236455303837 0.12548594290026815 -0.1493047169428607 -0.28317407755924257 0.013925721920266839 -0.6609920614872136
0.3157062897097974 0.031109697337230003 -0.17412077383487967 -0.03993949262874027 -0.07856275627550195 0.32781324432703285 -0.14820218024111953 0.2312681726415708
0.3502726259466186 0.15609501238728157 -0.24227771684992458 0.7740102259839247 -0.23782956452552392 -0.4057310025784796 0.2822317504755005 0.23382574925939378
-0.23551176366681117 0.061113665814707216 0.06569210006892584 0.4465739665009736 0.06313155079845853 0.2710613762186649 0.20199396959439883 -0.13817709632430702
-0.22282213485555497 0.2844408390689711 -0.6487523563420086 -0.5991638600084047 -0.2946992571498283 -0.21824322268578958 0.5678456236693601 0.16058835830556858
-0.02263939784187472 0.16493870634221616 0.1455902238571147 -0.009209525307084304 -0.4481757445966872 -0.28712970771185015 0.10715081690789423 0.1637977575752007
0.07996500979025485 0.33087815248549984 -0.051532599043297975 -0.6309757972614234 0.11408133898952934 0.19148229273530715 -0.05420735311552617 0.07426066085352738
0.2929138193965618 0.036175836932726205 -0.2840927018869279 -0.004879320228116896 0.21475937041803808 0.08892395996227467 -0.17571911278368227 -0.049712847099056816
0.4508138663509596 0.4161959495279908 0.23897318919550728 0.5578041220660371 -0.4161085531020803 0.23913619952618825 0.225797869949984 0.008326385106281928
0.27558412224787093 -0.2663748503006987 0.2757874737455442 -0.008364830470003191 0.003635602507343671 -0.021567800565718314 -0.28570556891138593 0.0560272514978086
0.06448777058581226 0.06995393988189363 0.04868370379605492 -0.17290114259166905 -0.12097418340440334 -0.2588255867889285 -0.0074739291058059 0.18138001647566698
0.07578797681119137 0.09935069605618682 -0.13821773939117205 -0.2633370420035492 0.08505870516641388 -0.09027679384308493 -0.034920362669130386 -0.028480832969931622
-0.152336369036679 -0.18600187028112206 -0.1707665699284168 0.05357592384565903 0.04822954448125345 -0.031133618605362477 -0.35394977706423314 -0.09745002949102881
0.13789547064419178 -0.09082651232873544 -0.06599318254650297 0.050861831380454435 0.24483598554812297 -0.1540235089044369 -0.0748481186754541 0.0796026419608599
-0.051834820505464806 0.19777355658605775 -0.21963189874423808 0.13475947057108986 0.13504394411450785 -0.12439441174302229 0.019057435405327165 -0.08941330388239027
-0.20551983062152693 -0.11374066114164832 0.04535671712404549 -0.20476316945749198 0.31971408106705923 0.6407894205599597 0.25126440899405417 0.5361959951563171
-0.44038777964235604 0.27012834269369285 0.17340666294084534 -0.22949732604251996 -0.12856208916475834 0.035256658939420274 0.28566844536637065 -0.07712835889949207
-0.12844094724940813 -0.2131712350391916 0.10410632201675982 -0.503974545972231 0.3047273613509708 0.15560074429187964 -0.3344555027522398 -0.026459630634248322
0.026535166601681922 -0.157071923784285 -0.13421453395364977 -0.072542044579013 0.2160152865484644 0.15253308902888302 -0.21678211094386435 0.25256344410809933
0.1036721817154923 -0.09391440260014895 0.3626602689298808 -0.021259024504991772 0.24634734728582194 0.14161131316207765 -0.05812781947324927 -0.28959719921177046
0.06275039141257432 -0.13106289074604566 -0.23391647643107555 -0.06835691536839314 0.07943902421754528 0.16637366355793673 0.05497911796824193 -0.023224183505441254
0.22784817573157298 -0.28160684909815975 0.19919788652325093 -0.20129735347232794 -0.25256397998505137 -0.074965678514487 0.26924186867625677 0.1658867959111191
-0.24160108789337092 -0.24389982704871405 0.1904824023691245 -0.06203516803201805 -0.2628041611411643 0.12908747257056108 -0.1472183386176715 -0.12596401954415232
-0.16788513474591973 0.07121027445312177 -0.006973785407582561 0.23020109575904857 -0.3526194043160186 0.1069695377191426 0.07912722657168975 -0.15210839476917964

linears.1.bias f8 [30]
00000000: c91e d6cc 267c bb3f 49d0 47a5 9c48 a93f
00000010: 2fa3 4397 ed4b 48bf 51f9 f083 9819 b2bf
00000020: 2cc8 d4c4 2b2b afbf 6234 df0a 4c45 a33f
00000030: 0dbc 65cd d4b0 9fbf 97f0 2c3f dd8c b83f
00000040: 9b82 4de8 736f b23f 567b 444d 5960 833f
00000050: 230e ece3 b708 c33f 12ae b803 def5 a93f
00000060: d85f a39a 34da bebf 8e90 2895 d32a b13f
00000070: b978 985a b870 b03f f416 37e5 48d1 6dbf
00000080: 271e cb1b 5207 ac3f bb40 8f55 3857 bf3f
00000090: 2459 0fb9 1256 b63f b3c0 8a16 1e38 afbf
000000a0: 3f8e b253 3802 bcbf 06e5 9113 ebd8 a8bf
000000b0: deb3 763d deda 85bf c9f2 a020 497a b43f
000000c0: d513 2dc5 b6aa a1bf 6c86 87f1 abed 9ebf
000000d0: 1e97 b78a ce6c a5bf 5400 dedc 17a9 b73f
000000e0: 527d 96dd 7d82 b6bf abbc d444 d901 b8bf
0.10736315251244401 0.04938210980972763 -0.0007414732085893934 -0.07070306035254716 -0.060876243378871514 0.03763806946481264 -0.030947995220625347 0.09589941780444843
0.0720131342072911 0.009461114569203549 0.14870356205948196 0.05070394320895501 -0.12051705146166058 0.06705973044933186 0.06421997272306869 -0.0036398338067752337
0.054743352787735504 0.12242462242943734 0.08725087183060914 -0.06097501778765615 -0.10940887492557126 -0.048529955042747416 -0.010671364069674224 0.0799909310016559
-0.03450556904730432 -0.03020352040937839 -0.04184575503658848 0.09242390768304293 -0.0879286447511636 -0.09377820902294569

linears.2.weight f8 [30, 30]
00000000: c493 5e48 73a1 ccbf 6bbb 8112 fce5 c43f
00000010: 45cc 1ea4 1c81 cabf aeb1 c5eb 6817 dc3f
00000020: faa1 7878 0354 dcbf b9f6 147b 2d10 97bf
00000030: dd1c 60ba 53fc d0bf 92a2 ca79 13a6 c63f
00000040: 3d8c 397b 840c c33f 2070 77c4 910f d7bf
00000050: 6700 993a 0a97 cabf 4881 c353 1a3d cb3f
00000060: 3044 24c9 f8a9 c5bf 5924 32ef 887f d2bf
00000070: 2afd 4c37 4293 bb3f 5eba 5ceb 198a dfbf
00000080: 2965 f738 6309 b53f 07f1 2d63 3b94 c13f
00000090: 68e5 1f38 71fc d53f 0910 40a8 cfef c3bf
000000a0: 0bb8 1026 c8ab bcbf 1061 51a6 423e c3bf
000000b0: 8931 cd46 e298 b6bf 8fae 00b3 3363 c8bf
000000c0: 5ef9 8f89 e92f d9bf 148c 6a5d e5c0 cabf
000000d0: 8d89 1f6a 6f6c c9bf ac67 440f d767 ce3f
000000e0: c10d d578 c890 a53f 9eab c46f 74fb cdbf
000000f0: ba5d 1134 c8fe c63f 4dcb 5e3d 805f d1bf
00000100: dcbb 5a2d 7815 cc3f 5850 3a70 127e c53f
00000110: fc9f e19c cc15 c8bf b523 e101 6518 ce3f
00000120: a918 63fd 4ffd c83f 9c49 0d51 c8b3 cfbf
00000130: 95c2 0117 64ef b0bf 7616 b7aa 6f86 bf3f
00000140: af20 7759 9b65 d03f 460a 9cf8 efbc c73f
00000150: e3fa 88c9 7f6e d03f 1443 ae63 bacb dabf
00000160: 2dae 0743 ffd3 c13f dfd6 00e9 82dc b5bf
00000170: 1feb f3ad 9350 ca3f 60aa 9b92 01fc a7bf
00000180: 4cf6 c32c c2bd 8a3f 0da6 bd3a 3499 8cbf
00000190: 3ed2 e4ff 0dca c33f 78eb fd8f e621 cfbf
000001a0: 9e94 71bc 3327 ac3f 1309 db51 b547 cb3f
000001b0: 49bf 7da2 0ecf d13f 675e 3c75 1e83 b2bf
000001c0: dc7d 1dfe cdc5 c3bf fc1a b2cb 729c d2bf
000001d0: 57e8 9fad bb40 813f 804b e0b0 7235 d53f
000001e0: 124e 3a3f 9f0a d0bf 95fd fe37 215f bdbf
000001f0: c625 7520 ed32 df3f e4a5 c4fe e07d e53f
00000200: 4408 a8c9 d61f eabf c287 3d02 61b6 b43f
00000210: 90b2 11b3 5606 f0bf 00f2 36a9 d4f4 ac3f
00000220: 1e98 642c 4df6 d5bf ab20 ed3e a7cb e4bf
00000230: ef64 53c7 79a7 e2bf 8528 1073 3f1d db3f
00000240: 505b 9c06 f7ca e53f 702b db03 63e4 84bf
00000250: 9d84 db7a 7ccf c1bf 92a8 ff05 a7ef edbf
00000260: 2160 b41b aa9d ad3f f70b 23ed 202b dcbf
00000270: d5f2 d08d cd7b f13f ca40 5cc4 af99 e6bf
00000280: d48c 304c 00c5 cabf f851 4b6a ee71 d23f
00000290: 5793 42e9 c6b4 f13f 9d9a 7075 ce52 dcbf
000002a0: 8d04 b7dc cabf d9bf d2b6 acb3 9a95 a2bf
000002b0: c9ee 6fdb f02e e5bf 65dc 8dde 027c d6bf
000002c0: 774d 181a 5b55 a0bf a251 d02c 706d c0bf
000002d0: 86dd 65cd 9cb2 c23f aac3 95f8 78d1 9abf
000002e0: d3ae 461d ef17 d6bf 6f5c bbc2 1388 c4bf
000002f0: 19da 55a8 8636 d43f 5e8e 3187 81a0 debf
00000300: f461 717d a0d8 d03f 50e3 8313 e37e ce3f
00000310: 6126 e4d3 a9de d13f 76d9 06c5 9b22 cc3f
00000320: 5cb7 cd4c dc16 b2bf e512 f75c 84db 73bf
00000330: d1a7 67ec ad97 c9bf 63d2 83e1 2795 d23f
00000340: 02a7 eda3 9c0a a33f 400c 3cca 1886 b83f
00000350: 67c8 cdf1 b386 bbbf 61fb 9b31 e82f d33f
00000360: c0b5 bd58 faa3 d1bf 2815 f25b fe22 bfbf
00000370: 0e7b 5327 adad d7bf fecf d542 c96a c43f
00000380: 1974 170f 1a40 ac3f 3182 1354 39c5 b6bf
00000390: 9ef7 dab2 f283 cd3f 128b 9fdb 8201 c03f
000003a0: f323 3b70 1d28 c8bf fb9f 5a4f 66b5 cd3f
000003b0: 7ab3 1250 36ea c4bf 876f a3a4 3b33 c13f
000003c0: 26b0 706b a422 cd3f 2ae6 1e64 7663 d03f
000003d0: 1f17 ca7a d6cb cebf 2d50 bd7a e33a bb3f
000003e0: 8545 4199 1585 c43f 4847 2b78 5edc d1bf
000003f0: 4816 4399 ccb7 df3f 2ce1 3631 3239 cabf
00000400: 6b5a f4f5 51bc d03f 7bed ca35 00ae 943f
00000410: 1e59 e79c 8e27 ccbf 7c6e f94f db6c dabf
00000420: ddcc 3239 7404 acbf 1411 3d41 d43a d33f
00000430: 4965 b2e1 e4ab 99bf b84d a322 210d b33f
00000440: 566a 4ecf be50 c9bf 180d 8a33 41bc b93f
00000450: 7ea8 65f1 b2bf c3bf 526a df50 e306 d93f
00000460: c365 8d9b 5446 c43f b3d0 8f8f 59a9 cd3f
00000470: 72ee de5b d14d c4bf 3b81 b327 7b3f b03f
00000480: 1186 0fee 9b3e bb3f 7533 029b a2fe ab3f
00000490: dfe2 f2e7 d600 da3f 2c4a a349 4cb1 d43f
000004a0: ed50 022a c06b be3f 4dc0 60cf a00c 843f
000004b0: fb3c 4897 c493 bb3f 5971 28c9 59d0 cebf
000004c0: e0ea 7c6b 46cf d53f a9ca 51ae 7f96 d6bf
000004d0: 34d6 c1cd 00ab b63f 34b1 8cb9 40da d53f
000004e0: d0eb 09cd f4ec d73f e643 c602 5815 c5bf
000004f0: e363 a546 2b4b dc3f 1d37 5ad1 d939 a4bf
00000500: 4109 331c 8c55 c6bf fa3b d76b 70e3 b33f
00000510: 9147 6495 962f b3bf e444 b8a7 6722 cdbf
00000520: 1515 8969 f98a c73f 94dc 1296 611c c0bf
00000530: 9b18 5e39 ad19 c4bf 77aa a970 7848 bc3f
00000540: 7ce1 e1d7 7d0b 54bf ae29 cb7c 8029 adbf
00000550: 8e65 45f3 1e04 bc3f 0600 661f 2419 dbbf
00000560: cd3b ab7e 2dbb a5bf 3463 4b9a 75e0 b33f
00000570: c51e e26e b36f d53f 73d5 ccfc cd99 c03f
00000580: dc85 5a3f dbbf c73f 1ebc b069 ddf9 b93f
00000590: 8881 2b8f d8f1 923f cd4c 3eeb 8d8b c93f
000005a0: fd17 eebb 413f b7bf 28f4 3190 a101 cf3f
000005b0: c303 1c85 36e4 b63f 6140 0dee d65a ca3f
000005c0: c1d0 3cfd df25 e4bf b629 4f0c 33e7 babf
000005d0: d7ea 71c1 78b6 ecbf fc6a 137c 22b5 b2bf
000005e0: 08c3 625a 07eb c43f ccf1 a626 6d15 ecbf
000005f0: 4707 93b3 b967 d5bf cd0d de96 b640 b4bf
00000600: cc77 bbf0 bbb5 c63f 40bf 33f6 bb78 d0bf
00000610: 28f3 819a c45c c23f 6225 6044 9bb2 e8bf
00000620: d87d da57 dec6 db3f cf48 1697 a42a e0bf
00000630: c347 9625 b43f e93f 6bba 5a13 c169 d2bf
00000640: eaa5 58c1 0ddb c1bf abb1 6a60 6924 c03f
00000650: 6092 74e1 927d e83f abf1 0b23 8e3e d8bf
00000660: f8f2 aa78 a08b dcbf e06b 4902 50a3 b9bf
00000670: 6926 3f50 adec d3bf 5f61 8be3 4b27 95bf
00000680: f984 820b 64e7 50bf 4e30 c636 39e7 d83f
00000690: 2f93 4d0b d45e e0bf a81a 08e6 276c bb3f
000006a0: 18d3 4c78 9182 e03f 34ae 1623 d4b3 f43f
000006b0: aca3 db27 a7d3 f0bf 9382 5a4c 4515 c0bf
000006c0: c44e 6b43 6805 f0bf 22d7 ed38 41b8 c1bf
000006d0: 5722 6873 8ee4 e3bf e099 6fbb c9ac fcbf
000006e0: 0389 7059 8a86 efbf e2e6 a70d 285f ba3f
000006f0: 4104 c93e cb9f f13f 18ce 7966 7ff5 a73f
00000700: 4550 a09e d98a ad3f 1cf5 a8b6 cb3f f1bf
00000710: cfaa 8c39 d0e5 c93f 8f16 09ec cc12 f1bf
00000720: 4cf2 94db 39e0 fb3f c5e2 069b dfe0 e3bf
00000730: ca99 a9be ab10 c13f b02d f14c fed5 b7bf
00000740: b7d3 6fb3 cbff fd3f 7c39 c160 3fa9 d6bf
00000750: e353 17ee fa93 edbf 47cf d5ee b97c dfbf
00000760: 9e30 298b 5e14 eabf 6ab3 3d4c 60f9 a3bf
00000770: 65ce 3e39 1e61 b9bf c841 7b20 7772 7fbf
00000780: 316c 7fda 6205 b83f b8ae 841c 29ed a2bf
00000790: 6fcb af07 8747 ba3f 48b6 92f8 57dc c03f
000007a0: e238 4a88 dd23 c1bf 3f49 4995 24ac a1bf
000007b0: c876 361b 6431 bb3f b8fb 4fa7 e9e5 d33f
000007c0: fae0 5c63 c595 d23f 6432 3997 6efc c73f
000007d0: 63e0 ff60 db89 ba3f 4789 f8ab 948f d03f
000007e0: 593a 863c 7a53 b3bf 912a e09f f51b cd3f
000007f0: 2a1e e6b4 1fab ba3f c2f9 4c5b 0ad8 c3bf
-0.22367707284607097 0.1632685747494763 -0.20706518186270464 0.4389288237059884 -0.44262778057830554 -0.022522650372812623 -0.26540082169272045 0.17694323965885822
0.1488195039447379 -0.3603252810114572 -0.2077343736764334 0.2128022107126617 -0.16924962827082046 -0.2890341125390186 0.1077157387744491 -0.49280403122512506
0.08217449322491589 0.13733618109461807 0.34353285294454006 -0.15575595584243754 -0.1119961827214128 -0.15033753510466186 -0.08827032307198669 -0.19052740326275283
-0.3935493319876481 -0.20901171742761504 -0.19862168008610262 0.23754394765347564 0.042120232343701776 -0.23423629243310712 0.17965033094763588 -0.27145391457741114
0.2194051953751729 0.16790991287109835 -0.18816526088926355 0.23511946288843225 0.19523048279206037 -0.24767402608501932 -0.06615281640712063 0.12314508359767182
0.2562015889821038 0.18545341147553723 0.25674433404121383 -0.4186845754093593 0.13928213856648722 -0.08539598644787415 0.20558401101865173 -0.04684452929162286
0.013057248107084217 -0.013964088480594073 0.15460371966186587 -0.2432220652661632 0.054986588242891474 0.21312586304527112 0.2782627665355802 -0.07231321680262114
-0.15447401912659486 -0.2907988537994439 0.00842424987421368 0.3313872077280209 -0.25064831900201157 -0.11473281495181305 0.48748329324424977 0.671616075128608
-0.8163865984536263 0.08090788178154099 -1.001547526825707 0.056555410057146815 -0.3431580480122437 -0.6498600224522496 -0.5829438107568005 0.42366014706261296
0.6810259942165917 -0.010201238207988544 -0.1391444778337573 -0.9355044476663059 0.05784350956145113 -0.4401323619642307 1.0927253284163971 -0.7062605700648643
-0.20913699836919497 0.28820381527228234 1.1066350089760897 -0.44255410641418697 -0.4023310809535097 -0.03629764025968786 -0.6619800840266744 -0.3513190434818568
-0.03190121358434344 -0.12833978832408116 0.14607582120127577 -0.026189699337411255 -0.34521081789965286 -0.160402746280599 0.3158280033016197 -0.4785465069055358
0.2632218575504617 0.23824728443994525 0.279215294766436 0.21980616684386306 -0.07066132426345234 -0.004848019641433087 -0.1999413875885794 0.29035374663297925
0.037190337191374226 0.09579615533225283 -0.1075241532651333 0.29979901165636674 -0.2756334177600728 -0.1216277098156594 -0.36997536507071593 0.15950885547101729
0.05517655786727733 -0.0889468984855817 0.23058923466845455 0.125046117055796 -0.18872421245603696 0.23209837794024665 -0.1633975878698058 0.13437600649819734
0.2276196980104725 0.25607070710575164 -0.24059563632561606 0.10636731859750688 0.1603114126506108 -0.27907525763759056 0.49559321372030185 -0.204870485334831
0.26149415034288975 0.020195010455365186 -0.2199571863299718 -0.41289408502573344 -0.054721481306296595 0.3004656445593963 -0.02506978633446025 0.07441908927585572
-0.19777665254953786 0.10052878864558001 -0.15428768908470042 0.3910454072735422 0.15839631648377236 0.2317306471810575 -0.15862481103782816 0.06346864432589865
0.1064240890696271 0.05467708723254009 0.4063012375950574 0.32332141104885426 0.1188316443024779 0.009789711311981497 0.10772350972569093 -0.24073335954825373
0.34077606675024974 -0.35293571494473014 0.08854680083626293 0.34144609565807404 0.3738376619655215 -0.1647138608500704 0.44208795451191757 -0.039503866964066804
-0.17448569657251237 0.07768919594603566 -0.07494488856562344 -0.22761245431369226 0.18392865803813466 -0.12586612537208863 -0.1570335893740705 0.11048081160121535
-0.0012234429300673469 -0.05695725940093453 0.1094378799365556 -0.42340949121717164 -0.04244367762804977 0.07764372841792239 0.33494268253751286 0.1296937450767178
0.1855424937576079 0.10146888571101484 0.01850069402542112 0.19957136141292722 -0.09080897176872323 0.24223727741983336 0.08941975354902269 0.20589720367070455
-0.6296234079404927 -0.10509032297628704 -0.8972743776533559 -0.07307639626689516 0.16342250741356446 -0.8776155238079411 -0.33445589577251095 -0.07911244567190252
0.17742108587748218 -0.2573690323179001 0.14345605415646756 -0.771802552743946 0.43401297168199227 -0.5052054358405033 0.7890263303872803 -0.28770472421721277
-0.13949748936401757 0.1261111946854617 0.7653288272309275 -0.3788180677654746 -0.4460221460720244 -0.10014820152120718 -0.31132061802472905 -0.020657716525279365
-0.001031730365902482 0.3891127619651841 -0.5115757199060676 0.10711907735831494 0.5159385060893298 1.293903481545283 -1.0516730839683346 -0.12564913013649867
-1.0013201364098885 -0.138435509488482 -0.6216499570883326 -1.7921845742908928 -0.9851733919970517 0.10301447232623276 1.1015121891544057 0.04679487348485284
0.05769996701579364 -1.0780751357227194 0.20232584772141712 -1.0670899601113069 1.742242677442067 -0.6212003734463784 0.13332125482265972 -0.0931090295645649
1.874950123715491 -0.3540800518866474 -0.9243139887063275 -0.4919876892447416 -0.8149864881502429 -0.03901196413685322 -0.09913815400687438 -0.007677522029283464
0.093832186073471 -0.03696564171909017 0.102653922440181 0.1317243541465578 -0.1339070239523102 -0.03451647112219058 0.10622239746450213 0.3109077581320281
0.29039129928015905 0.1873911131282454 0.10366603010322843 0.25876347345378686 -0.0754925153507683 0.2274157553332157 0.10417364279248234 -0.15503053148309048

linears.2.bias f8 [30]
00000000: 1588 43ee 1ea9 ae3f f0b7 fcc0 35c2 c5bf
00000010: d752 1a60 3d70 afbf 8a3e 9fd4 acce b3bf
00000020: 4403 be3e cb08 a0bf b2fa 0c45 4bbd ac3f
00000030: 3f07 fa77 20ac a63f 2852 244a 1e14 a93f
00000040: e560 202d 37f1 ae3f b489 793e 8b9a abbf
00000050: b31a 4ace ef38 c23f 381f 0547 767b b23f
00000060: 2f76 c408 33d8 ac3f 2b6c a80c 10b3 ab3f
00000070: a173 4329 e31b b63f a911 1684 c6cd acbf
00000080: 4197 b8a4 7645 a53f af08 e30e 9d96 aa3f
00000090: 6d9d 556f 9164 b1bf c1bd 0ca6 a7ac 78bf
000000a0: 4fb2 ad63 2b0f acbf bc83 cef7 58d9 b13f
000000b0: 9bef d208 4946 9e3f ae18 9cdc 77fd 7a3f
000000c0: 84ca 495c 3c0b c53f d039 d75c 0c3b 9fbf
000000d0: 3d9a 6465 e708 ae3f fc22 e5fc 084c a9bf
000000e0: 43a2 1891 1d51 a7bf 3a3f cdc2 7227 8dbf
0.05988403948300928 -0.16998931811525564 -0.06140319631700713 -0.07737236205070466 -0.03131709233185245 0.056131698779144826 0.04428197350081441 0.04898161559154729
0.06043407846317609 -0.05391345155364338 0.14236257145622275 0.07219638093840508 0.056336970157854764 0.054100514931825515 0.08636302716645484 -0.05625744211559731
0.04154558907275297 0.05193033987735995 -0.06794079750181022 -0.006024031522243901 -0.05480323402193631 0.06972271013229564 0.029564992106983472 0.006589382371890702
0.16440538889181167 -0.030498688856647693 0.05866168129641778 -0.04940822684381449 -0.04554073711580433 -0.014235397882344725

linears.3.weight f8 [30, 30]
00000000: dd71 99b6 6037 dd3f a949 14eb bd55 bdbf
00000010: 6b30 d75c 0d56 c33f dcae 198c c6a7 c53f
00000020: 59e9 18e8 f540 c83f 8687 b2ca 9b7d dcbf
00000030: e585 c9f9 2622 d2bf e1ce 57e1 008b cabf
00000040: e007 81cb ef51 c43f 0268 2cb0 9be7 c2bf
00000050: a9e2 21ac e2fe a1bf 89df 19d9 e226 cbbf
00000060: 2f86 9d5a d079 d23f c3ec 96f6 1959 ccbf
00000070: f45e 3ab1 8688 c9bf d285 6ba0 6bc6 c93f
00000080: 4b0e 3d9a 4f4d c73f e01a df94 594c b5bf
00000090: 1b4f 2ec7 66fb cfbf 02ea 3832 ccef d13f
000000a0: 42b9 44ba ccd7 cabf d9a6 ee54 bab0 b73f
000000b0: 5e21 2dee a41e 42bf 3b39 c3d0 38fb 85bf
000000c0: a4a7 435e db6f c6bf 505d bcc4 71f9 c03f
000000d0: 35e3 27ff 19ff d03f 78ff 7773 4528 c3bf
000000e0: 4636 505c e115 903f 2888 50c5 e487 d6bf
000000f0: a182 8ea6 57ca d33f a4bb ba0b 6f15 d0bf
00000100: 1550 e658 879c d0bf 1c17 8fc7 7952 b9bf
00000110: ba80 7807 597e d43f ceec acdf 87fa d6bf
00000120: 814f c2ec afdd b4bf 7d96 c8a0 9ffa bcbf
00000130: c9af 6306 7ba2 c53f 195b f33a 1b21 d3bf
00000140: 5a2b 1664 b0fe ac3f ffbe af8d 31d6 c73f
00000150: a807 382c f977 c63f d378 b619 2384 a7bf
00000160: 4a99 efca d1a7 9d3f 9be0 a04a 4b22 bfbf
00000170: 846e c1cf 99cd d1bf 1de9 665b 0985 c5bf
00000180: c66f 46ce dee8 d1bf 4617 aaef 36a7 c8bf
00000190: 3428 d4d0 bf84 c53f 62e5 ddd9 f22d c03f
000001a0: 1d1a 3bfc 27c3 a0bf 1fc3 39c5 c85b cfbf
000001b0: df05 8662 c229 c63f a77d bab3 c35b a73f
000001c0: fb68 3dbd 33fc c6bf 3dff 0322 5eea 8abf
000001d0: c396 ce81 ab19 a8bf 0712 13c9 fcb6 cf3f
000001e0: adf5 d022 209e d5bf 7a8d 722b 5d12 c33f
000001f0: c9f0 1588 22b4 c7bf a8b7 936c ec35 c53f
00000200: e9f9 ce1f 7187 c63f f826 ee3e ec4f 973f
00000210: 92f1 d602 6ffb cdbf fd24 0842 3be9 c3bf
00000220: b197 ec4d 58bc d9bf 5278 148d cd42 d53f
00000230: 91c7 3537 f63a d2bf 20cc 5c40 d7f7 c3bf
00000240: d16b cd77 f49e d0bf c784 a20d 0e6a cc3f
00000250: 6d19 03e5 36ab d2bf b1b3 df72 0b81 b63f
00000260: 5d16 0c00 0563 c6bf c59a 506e 7407 d6bf
00000270: 20dd 7425 ba79 d03f 55bb a913 9590 cebf
00000280: 2e89 ace6 aeda d2bf c19f 1946 c2e8 c1bf
00000290: 5249 f8b8 ea35 c7bf 59f7 4046 113a 883f
000002a0: 78a9 5c7d 66ec c83f fe29 bf78 22ca 70bf
000002b0: 4d33 4f52 4027 d3bf 1ee6 915b 224b b9bf
000002c0: cf57 41c5 7822 93bf c474 7b5a 9dcb bf3f
000002d0: c9be 44ed d44a d6bf 411c 2038 5bec c63f
000002e0: 86e9 e1cd 7c74 8a3f ad61 c39d 2610 49bf
000002f0: 681a f4c3 e4c2 cabf ce5e 6ea0 5d6b e13f
00000300: c1f4 36b2 6690 d03f bbf6 871a 6326 c73f
00000310: b1db 9fc3 8967 dd3f 8e04 4f49 75be 743f
00000320: 6e94 741a 4a3f c83f 98f7 8cae 97c2 913f
00000330: 2384 a481 9d18 84bf aaff c64d 9c8c d03f
00000340: dbd2 06a0 b58c c13f 7138 962f 470c c1bf
00000350: 5403 2dce d1b1 c43f cc04 1d5d 95c4 c0bf
00000360: df78 e945 c514 b3bf fdd2 e433 1702 c7bf
00000370: 96aa ff20 5a5c bc3f f8e7 68ff 2547 d6bf
00000380: e682 037d d17c d2bf 2fa0 8677 7dae d93f
00000390: 31a1 af3b 10f4 b2bf 0ad6 c3ad cd74 a43f
000003a0: 739c 0161 eb69 9d3f 46dc 523e 2c09 d0bf
000003b0: b1c4 8bb0 56b2 c93f 78a0 03b8 fe0b ca3f
000003c0: a17d 9627 29c7 d23f 710c ce05 f39b ce3f
000003d0: 5f31 52fc afd9 e43f 9d09 94ed 313e c0bf
000003e0: 747e 1304 b502 d23f 846b 0f74 ed09 cdbf
000003f0: 40bb e860 64ae 2a3f affa 0e27 7c8a e93f
00000400: e02b aa69 6611 a6bf 90bc 9df9 e4ab c23f
00000410: bb42 6590 5718 bb3f 1b2b bd41 824a c03f
00000420: 1fa3 3eba db0d c7bf 2f22 e7ec a05c c13f
00000430: 43a6 2cec 285a ba3f 12e0 a52d d918 db3f
00000440: 4639 063d 435f dcbf 31ee 9a9a 4d38 e5bf
00000450: bcdd 7214 d190 b0bf a11c 71d9 5729 dcbf
00000460: 2cf7 521d 4683 eabf d26c d27d f985 9b3f
00000470: 1184 a82e c090 e73f 2f58 e517 8a46 e8bf
00000480: 4c67 3e2d 9238 e9bf 32ab 7358 4b31 a8bf
00000490: 3793 50bb 940c cbbf 26fc c9a2 384a d23f
000004a0: c87c e5c3 2ce0 debf 34fc d6ba 9794 e23f
000004b0: 067d 11f1 6c76 c9bf 076f 8af5 72d8 6a3f
000004c0: 10b2 bbd0 094f 843f 5b8a ec39 3102 8c3f
000004d0: 2c81 ce36 8fd9 d0bf 66d2 8db2 1d3b c53f
000004e0: b953 99ad fef1 d3bf 1eb6 953d 2d34 c1bf
000004f0: f03b d976 2aa6 d03f 8606 6617 2481 d0bf
00000500: 89ca a8a4 aea3 b0bf c38a 6e53 a54c c43f
00000510: 4abe f943 a5e7 d43f 9f49 dc3a 2e25 d73f
00000520: b3df cf7e 3127 af3f 8e02 054f ac36 cdbf
00000530: 3afb 5f33 d72a d33f b3ef 49aa dfff d53f
00000540: e87d cbf2 988b d53f 84d1 4fb7 d300 c33f
00000550: 8fdd 3afc e7d3 823f cada 3613 506d b63f
00000560: e9d4 cac1 b620 a7bf 586b 6d1e 445b b2bf
00000570: addd 63d7 8359 b1bf 5a19 cd98 0ea5 ccbf
00000580: 770e f837 162a af3f 909f ada0 86cf 913f
00000590: b364 ce01 ae14 d53f b4f7 4cc1 4a11 b83f
000005a0: cc9d e332 ad67 debf b4e6 c483 caa8 ccbf
000005b0: f083 c93c 8463 cfbf 8336 cf23 d6af d3bf
000005c0: 6510 a57c e431 c7bf e183 dd13 b51b e23f
000005d0: 859b 3077 0133 c3bf 807d 1224 2b6e c3bf
000005e0: 2c6c 202f cdc8 c93f f8d8 3e3b b4ec c8bf
000005f0: 8499 bf2c 93d0 d4bf 86e8 4936 daba c53f
00000600: e8dd 197f b94a cabf 724f 1009 3300 cf3f
00000610: 3c26 397e 4a6e c9bf dea3 8c9c 996d cc3f
00000620: b9b8 a807 531d bb3f 7873 90ed bcf4 d13f
00000630: 223a cda8 700d d13f 296b 7cd8 4d0e bb3f
00000640: d758 b151 2098 b5bf 7261 7bfb f794 d2bf
00000650: 33e5 c33b bd9c c6bf 2660 92ec 0210 a7bf
00000660: 0c6c 149a 9a4b b6bf ddf3 cef8 3c4c d03f
00000670: c073 3ade ce82 c23f cdd4 6bfe 9795 ccbf
00000680: 5d69 4072 03f5 dbbf f935 4ae2 972d d13f
00000690: f610 9e5e a345 cfbf 7496 f30c e51f b4bf
000006a0: c9ce 9bb6 19e4 f1bf 3630 0ca8 cd88 a4bf
000006b0: 48c2 78e8 6c2b c93f 8a22 89c0 705a b73f
000006c0: 9ce6 bba8 5054 eebf 2af9 da1c 7ef3 f5bf
000006d0: fe81 35eb ea9a bfbf a023 1fcd efdb cbbf
000006e0: 2af7 3af1 d04e d4bf 2729 2b1d 42b3 a03f
000006f0: 6968 2f1d c6a7 e3bf 7b4a f8fa 470d b43f
00000700: 320c b5d3 a14b b93f 6d6f c8fb b6eb f3bf
00000710: 7d47 0b42 c522 e53f 8ce9 335d d84b f03f
00000720: 1b1e aad0 a311 de3f eebd 8cf0 7d1a f73f
00000730: 49d8 442c 1364 f83f 29bc f578 2059 cb3f
00000740: f7a7 2647 d921 f4bf ed73 a485 901f f63f
00000750: 6482 90e4 09fa f33f 6880 b28b d15a ef3f
00000760: 3548 0814 214a cb3f eb8b e703 3857 d6bf
00000770: 1ee3 7ae5 6ccd f33f 7164 ac19 dccc f3bf
00000780: dd13 61da 41eb ce3f 3b63 9101 1e30 d13f
00000790: 45a8 346d adb5 c6bf b242 73e5 c3fd c7bf
000007a0: cbbc 444a dfda b0bf 0921 1ef4 3cc9 c5bf
000007b0: 1615 b79c 6663 c6bf 5698 be1f 863d d03f
000007c0: 3a47 b6e6 ffa0 d6bf bb26 407e 36cd cdbf
000007d0: fa62 01fe f9e1 90bf 61b7 60d7 d83b 6f3f
000007e0: 38ec f1bc 39d2 c03f 221d 587c e42d ad3f
000007f0: bd1c 559f bb81 b1bf b11e 243f 3b39 b73f
0.4565049918362812 -0.1145895670818279 0.15106360467177934 0.16918260422550346 0.18948243935467238 -0.44516653818765695 -0.28333448785096343 -0.20736704829288669
0.15875050961227455 -0.1476931200239165 -0.035147746574641765 -0.21212421036375087 0.2886849293628044 -0.22146915951257115 -0.19947894719802373 0.20136781056412062
0.18204684287239767 -0.08319625744398307 -0.24985966420774094 0.2802610865070677 -0.20971068472995041 0.09254040311375479 -0.0005529694866277903 -0.010733074065140449
-0.17528860190151108 0.13261243921508958 0.26557016294059405 -0.149666482335302 0.015708466777189643 -0.35204428929330556 0.30922499909687856 -0.2513082136674092
-0.25955375367743844 -0.09891472932858075 0.32021165589868483 -0.3590411838847104 -0.08150767832040452 -0.11319921183948085 0.16902101337416145 -0.2988956523599185
0.05663062307129137 0.18622416895185975 0.1755362955009876 -0.04593000115277026 0.02896049309847485 -0.1216170365522679 -0.2781738785613259 -0.1681224533366014
-0.27983827728325783 -0.19260298445095198 0.16811368653026337 0.12640224111582216 -0.03273892358770445 -0.24498853330762757 0.1731493931838903 0.04562198227835817
-0.17957159748295468 -0.01314233342463888 -0.04707084617193182 0.24777183359232444 -0.33777621650718964 0.14899792310198362 -0.18518478054818946 0.1657081155930744
0.17600835850858168 0.022765818921050646 -0.2342356456628179 -0.1555551597996682 -0.40212066278251785 0.33220232751216827 -0.2848487414513495 -0.15600100176524823
-0.259701840395505 0.22198653856052017 -0.29170009960616633 0.08790656618630412 -0.17489683630280953 -0.3442050053876467 0.25742963464604607 -0.2387873025904478
-0.29459736372713763 -0.13991573737007282 -0.1813329127476871 0.011829504925227207 0.19471436616124627 -0.004099020628880455 -0.29927070653939297 -0.09880270705789271
-0.01868618682814099 0.12420066317595785 -0.3483173672748135 0.17908802261828963 0.012917494805368756 -0.0007648647838563359 -0.20907268112223965 0.5443561681194866
0.25881354717041566 0.1808589820429257 0.4594444666285496 0.005064447545863561 0.18943144122855265 0.017343874005056742 -0.009812574881438668 0.2585821876091311
0.13710661233712682 -0.13318719695638806 0.16167662207774447 -0.13099925085592756 -0.07453568417392685 -0.17975130113486407 0.11078418069488757 -0.34809255545007955
-0.28886830528612817 0.4012750308270396 -0.07403661210230862 0.0399536394706211 0.028724363132280616 -0.25055986486717463 0.20075496311577504 0.20349105820719493
0.2934058081245557 0.2391341951698425 0.6515731742997949 -0.12689804172994182 0.2814152278715263 -0.22686546484950665 0.00020356154750930146 0.7981549036847663
-0.043101501844908574 0.14587080181397427 0.10584018016130418 0.12727382860097056 -0.18011042207697245 0.13563930099032137 0.10293823019005637 0.42339162309463163
-0.44331437072186863 -0.6631229419358019 -0.06470972775684108 -0.440023386331129 -0.8285246441589371 0.02687825994926813 0.7364197646421663 -0.7586107699123711
-0.7881556399981746 -0.0472510858033587 -0.21132144113757942 0.28578010461200376 -0.4824325478602529 0.5806387566771094 -0.1989265610782029 0.003277039079263025
0.009916378672152809 0.013676056461524746 -0.26327877380573983 0.1658665773244536 -0.31164519265194773 -0.13440480715819175 0.26014196020417923 -0.2578821400166834
-0.06499759216311864 0.15858904432123752 0.32663852346647515 0.36164432285399956 0.06084589646337637 -0.22823099001290753 0.29948978440363627 0.3437422907807061
0.3366453524631354 0.14846273852129965 0.00919324148649883 0.08760548085306677 -0.04517146220806884 -0.07170511000496782 -0.06777214058444399 -0.22378714047426734
0.06086797173705077 0.017393210942287463 0.3293871896399409 0.09401385516409172 -0.4750779149021269 -0.22390109476127906 -0.24522450416682728 -0.3076072072698041
-0.18121009908839195 0.5658822429651275 -0.14999407119577426 -0.15179957639064057 0.20144047547441468 -0.1947236336979541 -0.32523040170635675 0.16976478243652
-0.20540541368585186 0.242193583894387 -0.19867831385845303 0.22209472793590995 0.10591620385159474 0.28056262206683114 0.2664453171209137 0.10568701300909979
-0.08435251230671113 -0.2903423267248605 -0.17665830057357254 -0.045044032457724634 -0.08709112416947579 0.25465320871063374 0.14461694575302708 -0.22331523821745805
-0.43682943494208876 0.26840779398557363 -0.24431268806450362 -0.07861167494010052 -1.1181885846280457 -0.04010622669565615 0.19663773871572432 0.0912237615640469
-0.9477923675141997 -1.3719464423334764 -0.12345760576636874 -0.21764943614678334 -0.3173105579152088 0.03261763197004291 -0.6142302103064711 0.07832765462107176
0.09881030481942402 -1.2450475535651677 0.6604944505618132 1.0185168877347648 0.4698266542186233 1.4439677616572868 1.5244323472266095 0.21365743547673446
-1.2582638530097918 1.382706186333276 1.2485445907879233 0.9798362472975102 0.2131997440160959 -0.34907341367050887 1.237652679830894 -1.2375145914905057
0.24155448115393954 0.2685618415176127 -0.17741935570058068 -0.18743179992317988 -0.06583972514339391 -0.17020379943665656 -0.17490847255809489 0.2537551221852302
-0.3535766366049874 -0.23282509960727346 -0.016487032058964048 0.0038127169782659486 0.1314155743201313 0.05699075715898007 -0.06838581695511699 0.09071703235178565

linears.3.bias f8 [30]
00000000: cf58 2371 ce25 acbf 6772 857d de5c b23f
00000010: 5abe 12fe df43 b4bf c68c 275d e144 a43f
00000020: c645 4e14 cbcc aebf 3278 bd8c b06d b73f
00000030: 6c8e d690 55a8 613f 16cf 798f de3b b1bf
00000040: 4f90 1eea 0bef b1bf 7e4b 5a98 019a b73f
00000050: f160 2a96 c754 ab3f e43f e123 897a b1bf
00000060: 736b 8c3c 1d9a b33f 82bd 1394 1951 b0bf
00000070: 27db d644 327c c4bf 00f5 2a5f 736d af3f
00000080: 250f f9fb 648f ab3f 03c7 ad49 209b 94bf
00000090: e401 9178 8ced a53f fde2 2d5a db7d b5bf
000000a0: 2910 2747 4d40 b43f 4935 4dad c491 91bf
000000b0: 1ae8 1f54 1af4 773f c53e 9fca 1b64 7fbf
000000c0: f067 f456 b656 b63f 16cc 9034 f9e5 b13f
000000d0: 8fd3 8baf be6a b4bf a560 8da0 459f b33f
000000e0: 8bbd 2f2a 8bbb 99bf fee0 a4a7 1b44 bdbf
-0.054975940047073395 0.07172957005008983 -0.07916068985900307 0.03958801519527237 -0.060156198719720375 0.0915174811939046 0.002155463333751764 -0.06731978419139426
-0.07005381074719817 0.09219369859265034 0.05338119228435002 -0.06827599645589505 0.0765703461478731 -0.06373748650707081 -0.16004017220776598 0.061381917349971005
0.05382838798371229 -0.02012300920200173 0.04282797786482087 -0.08395167304650993 0.07910616862415111 -0.017157624318590057 0.005848028989925447 -0.007663830338017601
0.08726062415044544 0.06991536649074734 -0.07975379739566633 0.07664904756291209 -0.02512948460565449 -0.11432049601433289

linears.4.weight f8 [3, 30]
00000000: 5a30 96b5 33a8 d6bf 9b25 8f3c 1fb1 a63f
00000010: 79f5 0050 b987 dcbf 3429 7353 8588 d83f
00000020: 8c43 0423 4120 d2bf 6c7d fbc0 6108 d13f
00000030: fa1f 2315 be10 c63f 9b3b d44c 4ef0 c23f
00000040: e8f3 8521 4658 c4bf 6626 78bc 8314 c33f
00000050: 315f 70a0 bc0d d83f 68c8 6eaf deb4 dfbf
00000060: 239f 212f 5447 d93f b24c 0b8e f00a e0bf
00000070: a84d 56b8 ae59 d53f b6df 1b61 1b6f d23f
00000080: 9025 c1dd d5b0 c93f 8a6c 401e cbd8 c93f
00000090: a94f c651 4e21 cf3f 6dfb 70c0 1003 ddbf
000000a0: b547 dac7 ebc6 d63f db49 e53a e152 b53f
000000b0: 24b3 afa7 e9df d23f 1e0b d4f0 8904 e13f
000000c0: 344d c9a4 eeb2 c33f d560 f0ee 2a47 d93f
000000d0: 32b8 3734 db6e 95bf edac ad19 5d57 d8bf
000000e0: 93c5 b3fb 11d6 dd3f 750b c46c b806 c0bf
000000f0: 50f2 485c fa04 c73f 5c4c 0fce a9ad ce3f
00000100: 2922 a7f7 b7bc c4bf 7534 ac7c b12a d3bf
00000110: 2968 a03f 0c40 d73f f851 59a5 8f62 ab3f
00000120: cbb4 eff0 1106 c1bf 5907 42e2 a0b2 e33f
00000130: e95a 1cc2 cbad a93f e0d4 77bc 00c0 db3f
00000140: ae8b 2635 1022 ca3f 6d51 1099 cccc c2bf
00000150: acb6 80d9 565c d93f 622b 7a3f 902d dfbf
00000160: d45c 38b2 3dd3 cbbf 3d73 f4e6 153e af3f
00000170: c1cf 5460 2039 98bf 0ff4 920b b58c edbf
00000180: 9a95 7a77 51f5 d23f 912c 0794 8d04 c9bf
00000190: 8bb9 f82b 8f30 d33f 49eb b600 0e45 d1bf
000001a0: 7d21 392c de01 bebf c8d3 26ce d07d cbbf
000001b0: daa9 9fda 5709 7a3f 13fc ada8 0870 dc3f
000001c0: 005b 7330 cba7 cd3f 4222 726c e1d1 b43f
000001d0: 5dda 2416 fa57 e0bf ac85 5faa 002e ddbf
000001e0: 4541 1567 029c 58bf 0420 3f5f 7956 99bf
000001f0: ebe7 823a a56f b3bf f28a 09fe 75a6 d53f
00000200: 7a10 9ac5 79c1 dfbf 0040 6210 ee0b babf
00000210: aaa7 ba3b 9e5c cf3f 3042 867c e9c3 e3bf
00000220: d593 21d3 a98f b7bf cf10 b5b1 2544 c53f
00000230: 0e41 d070 26a4 ce3f 2339 b82f 1740 c5bf
00000240: f29f 5e4f 7d33 b13f e565 2c8a ca0b dabf
00000250: 4317 1d9b cff4 ddbf 74c7 9d2e 8206 cd3f
00000260: b32a a3d1 1f8d d23f eba1 8d93 2645 c9bf
00000270: cfd1 9588 df00 d23f 8573 2844 8615 c9bf
00000280: acc0 aaf0 4044 df3f 7e5a 49be a80a c6bf
00000290: 54bf 362d 9e02 d3bf a494 9533 bc76 ddbf
000002a0: f6ef f531 6f9d cd3f 43c3 6b39 5012 cfbf
000002b0: 8c5a 2b00 1ea0 d1bf e402 f3a6 46d3 c93f
000002c0: f412 7d6d 4d29 dcbf 4b9f 1605 f530 d13f
-0.3540162347133041 0.04432008375404025 -0.44578392804017813 0.3833325686397473 -0.2832186548194435 0.2661365875810222 0.17238594085779352 0.14795855285089207
-0.15894390713574968 0.14906355574230473 0.3758384291445394 -0.4954144204340367 0.3949785671488703 -0.5013354086207953 0.33359878541633714 0.28803143008508003
0.20070908859115066 0.20192851044780397 0.24320391648200015 -0.45331209939097655 0.3558911754308796 0.08329589546091347 0.29491654754274266 0.5318040565183286
0.15389807745177964 0.394968732203336 -0.02093069559298772 -0.38033225543649857 0.46619081096931686 -0.1252050906260497 0.1798394156084151 0.23967478333961167
-0.1620092353098397 -0.29948079276147804 0.36328417027982823 0.05348633664531016 -0.1329977442214044 0.6155552310085383 0.0501540827228178 0.43359392552458864
0.20416452975504512 -0.1468749759084277 0.39626094093805864 -0.48715597342441275 -0.21738406374126973 0.06102055019639472 -0.023655420188518187 -0.9234261728339578
0.296223036459503 -0.19545144775324677 0.2998388223085377 -0.26983976430681317 -0.11721600131671113 -0.21477708879470314 0.0063565666004969604 0.44433800194377787
0.23168315759422597 0.08132752320865058 -0.5107393677233848 -0.45593277585984526 -0.0015020392859988612 -0.02474393504942897 -0.07592232397556102 0.3382849675019052
-0.49618381783535137 -0.1017445363997922 0.24501398006878833 -0.6176650459402193 -0.09203587917870888 0.16614218880761775 0.23938446529837915 -0.1660183890348402
0.06719191730246601 -0.4069696759557629 -0.46806707523170504 0.22676112438380935 0.2898635432472176 -0.19742281155346517 0.2813032945480502 -0.19596937492397273
0.48854087355267484 -0.17220029155096833 -0.2970347825566837 -0.46037201917199355 0.23136701526152564 -0.24274637988812672 -0.2753977777150929 0.2017601313764522
-0.44002090160601814 0.268613104790792

linears.4.bias f8 [3]
00000000: 1f21 e04a c654 b43f dc4d ea86 bde5 b13f
00000010: b467 40a5 e1e0 af3f
0.07941855743422764 0.06991180938557967 0.06226258413535338

step f8 []
00000000: 0000 0000 00bd df40
32500.0

exp_avg f8 [30, 1]
00000000: c6be dd2e 148f 88bf 4ed7 415e 17c3 3f40
00000010: cd23 9b66 7d6d 4dbf b2b9 a6ab f04b 833f
00000020: b1b8 702b bbeb 62bf 2390 edc0 5ec9 783f
00000030: 096c 37c3 09af 9d3f e4b2 f5b7 22bf 4cbf
00000040: ffdc 5188 a85f 48c0 8093 a0b2 4a62 46c0
00000050: fda9 a38b 587d 88bf fe86 a0a8 9a86 4cc0
00000060: aac4 118f f02a 4140 9b0e a1a6 6ea4 7bbf
00000070: b5a5 e113 3b53 79bf 2737 5308 6713 85bf
00000080: 19b2 c280 6835 70bf ad4c 707a f9f4 883f
00000090: 4bd0 630d 4bef 42c0 37f1 39f5 d46c 873f
000000a0: ee34 24bb aec5 833f c432 d568 cac9 863f
000000b0: 4e68 1f97 3dd0 7b3f cdd3 37bb 0af3 4940
000000c0: fed4 d9a4 604b 7f3f 1da6 e646 0e8e 3cc0
000000d0: e705 6797 5dd2 943f 3ff4 1670 fe7d 84bf
000000e0: 8b92 2d28 d547 973f 47a8 600a 038b 62bf
-0.011991651230089839 31.762075320314857 -0.0008980619724862027 0.009422188032513688 -0.0023096709878905543 0.006051416522357331 0.028988029995030504 -0.0008772773289088234
-48.74733070370893 -44.7679045948089 -0.01195782829423297 -57.05159480894325 34.33546627395238 -0.006748611669596417 -0.006182890674702281 -0.010290913526116064
-0.003957184042672889 0.012186001824409176 -37.86947791455949 0.01143804906245603 0.009654393278220454 0.0111270726435121 0.006790390574645212 51.89876499391503
0.007640244975495534 -28.554905349074136 0.020333731046553807 -0.01000593928881177 0.022734957291862073 -0.002263551653432425

exp_avg_sq f8 [30, 1]
00000000: b187 60d3 6819 6d3f 90df 7147 c262 6541
00000010: d0aa ebe9 ec5c ed3e c737 d886 2154 813f
00000020: 9881 b4b1 2a94 393f 66a9 5b12 2613 953f
00000030: f25f d2cd 8fe5 bf3f 76a2 5002 02b6 063f
00000040: a3b2 4cf4 e1a0 7541 9c23 f93a 8f7e 7341
00000050: 1237 247a 4121 793f 8f2d af38 5182 7f41
00000060: 20fc 39bc ac5c 6941 4ee7 b3a0 4e35 583f
00000070: ed58 d21d 93f5 553f 989a b410 4285 7d3f
00000080: ebc9 6753 3189 4e3f 2811 b516 78ef b23f
00000090: fab1 a5ef 2c31 6e41 4ce5 c663 b21b 713f
000000a0: 3ab0 c1cd 62c0 823f a118 1fdd 8d48 6e3f
000000b0: 7525 b1d6 3417 6f3f 57a4 4221 7b0d 7d41
000000c0: fce7 a0ba 98c3 a23f 109a 3f24 4405 6341
000000d0: d204 2285 455e b83f 06ac 9a0d e16b 5340
000000e0: a136 409e 721e 953f 014e afa6 4c1f 183f
0.0035521552445212036 11212306.232650548 1.4001364716039437e-05 0.008461248328810357 0.0003903011544981404 0.020580859060751598 0.12459658408113208 4.331773406135869e-05
22679071.26872505 20441331.685824975 0.006135230798703055 33039635.542768057 13296997.88207823 0.001477553162486395 0.0013402878460389526 0.0072071629213385155
0.000931881985535119 0.0739665084302642 15829351.488976467 0.004176804385161614 0.009156009582703562 0.0036967058922271066 0.0037952453617761625 30463922.078770008
0.0366485336130182 9972257.132763892 0.09518846988978005 77.68561115364727 0.02062396136175571 9.201913205397068e-05

step f8 []
00000000: 0000 0000 00bd df40
32500.0

exp_avg f8 [30]
00000000: 94ae 4328 4478 7abf 5824 e764 8062 e03f
00000010: c9e7 a7a6 1dee 2cbf e59f 42e0 f6e4 793f
00000020: 4ae3 9d98 e83b 5ebf d0b7 efbd 0c98 813f
00000030: d5d7 e629 7265 61bf 031a a352 d473 4bbf
00000040: 6724 acc1 12b8 e8bf 16c7 12a3 b6ab e6bf
00000050: d5d5 ec8a ef5a 7ebf 39cc b17e 6e29 edbf
00000060: 5f7f 320e 4fb2 e13f f427 daa3 9d24 70bf
00000070: 3e4e 7326 2b67 6bbf 17ce 7b8a f648 7abf
00000080: 90f5 b243 6a56 66bf f4b8 681e 0d40 71bf
00000090: e85c 7cbd c538 e3bf a5ba a695 aef6 793f
000000a0: bfde 5e42 4742 65bf fbb7 b314 a4b9 113f
000000b0: 0432 0c1f caa9 753f 4821 fc3c 784d ea3f
000000c0: 5e09 fab2 93b8 7abf dd50 73f7 b083 ddbf
000000d0: 67d3 89bf efa0 74bf f409 0154 9489 5b3f
000000e0: 7490 6348 d9d5 8b3f 8ab5 574f 3840 5abf
-0.006462351073632928 0.5120241137275441 -0.00022071945143392464 0.006321873053970227 -0.001845338005720803 0.008590793177031403 -0.0021235685119007455 -0.0008377825481822868
-0.7724698813118608 -0.7084611115480779 -0.0074109418044847235 -0.91130757088684 0.5530162122049481 -0.003941169530330402 -0.0033450930382999114 -0.006417239237396475
-0.0027267528035667746 -0.00421147465253412 -0.6006802273649585 0.00633876988506069 -0.0025950805456565747 6.761611909997238e-05 0.005288877044915544 0.8219567481146806
-0.006523682546346469 -0.4611627975948645 -0.00503629352225663 0.0016807507054329403 0.013591477891573535 -0.001602225294273426
