1D_Transcritical_Inverse_Problem_n_initial_0_01/Models/Model.ckpt-20500.pt (torch, 82425 bytes, 43 tensors)

linears.0.weight f8 [30, 1]
000000 e8 43 9a e4 7f 31 de 3f b1 35 d5 1f 06 04 89 3f
       0.47177121471855665 0.012214706274472716
000010 62 cf 62 b4 df 14 d4 3f fc 5a 59 3a 85 13 c8 bf
       0.3137740384656721 -0.18809571599077646
000020 7f 5f b7 80 a4 f4 d2 bf 46 57 2d 89 78 76 c3 3f
       -0.2961817986483694 0.1520529432115671
000030 c4 24 a2 2f 0f c5 ba 3f 34 84 3f 99 67 6c d4 bf
       0.10456938660549314 -0.31911649671207276
000040 8e 2d 2a 03 5b 67 8a bf 69 a6 68 56 a1 a4 8b bf
       -0.012892447504120576 -0.013497600984084106
000050 69 13 1e e3 0e ab d5 3f 6a b1 c7 bb 75 00 8c bf
       0.33856556109849706 -0.013672752183048604
000060 ff 79 1a e0 64 2e 8a 3f 1c 62 d5 bb fc 6c d5 3f
       0.012783802117437125 0.33477705329053875
000070 6e fd 48 b8 e8 57 d2 bf 55 08 de 7f 18 a8 c4 bf
       -0.2866155433329912 -0.16137987369080756
000080 1e 55 b7 00 50 c1 d6 3f 13 40 5f cd 93 7d b2 bf
       0.35554885930953783 -0.07222865833250607
000090 9d 0b 65 83 4e c5 8c bf 79 70 31 02 5b c4 d6 3f
       -0.01404820765003994 0.3557345887582027
0000a0 5a f8 49 14 d8 87 b8 bf bc c5 ea c1 93 4b c9 3f
       -0.09582281585059729 0.19761893242461592
0000b0 09 d6 21 d5 ad d7 cf bf 51 4c 92 0b eb a0 8c 3f
       -0.24876950175136894 0.013978802004464582
0000c0 e1 c0 b6 d5 11 e9 c0 3f c7 fa 62 7c ca 42 88 bf
       0.13211272177932812 -0.011846143647173858
0000d0 a2 fa b2 72 cb 73 bc bf 43 e0 56 e0 69 e5 ac bf
       -0.11114188719055076 -0.05643778670804569
0000e0 c0 ea 74 d3 c5 aa d1 3f ff 4b cb 23 c8 94 db bf
       0.2760481419569878 -0.4309559201767001

linears.0.bias f8 [30]
000000 a2 de ae 34 dc 9b b6 bf d2 36 5e 36 e2 c8 c9 bf
       -0.08831573759277458 -0.20144298224152252
000010 e0 9d 6a 46 35 70 bf 3f 6f d1 c3 b1 b2 52 c7 3f
       0.12280590981628547 0.18221124343802894
000020 c5 9d 90 cc f1 a9 bd bf 35 69 37 5a 73 57 c3 3f
       -0.11587439769993242 0.15110628037548116
000030 80 f5 4d 31 80 12 d2 bf fa f2 cc 4e 21 24 7d bf
       -0.2823791963090443 -0.007114534481669871
000040 db a0 18 ff 1e 72 d2 3f 54 ab e9 96 e4 2a d7 3f
       0.28821539794672696 0.36199297654700513
000050 42 49 64 39 4e f2 c2 bf ed f7 3a 89 72 80 d8 3f
       -0.1480195789559478 0.3828398075237363
000060 8d 73 c1 90 65 dd d1 bf b2 a7 b1 16 cf 8f a3 bf
       -0.279137984621962 -0.03820655014062825
000070 34 ef 49 40 b2 36 c1 bf 90 18 4b 8e 22 df c0 bf
       -0.1344816984090983 -0.13180953929822126
000080 12 d1 db dd 29 be b5 bf e4 b1 70 e5 b5 dd c2 bf
       -0.08493291536780515 -0.1473910684884593
000090 7b 82 44 af f9 49 db 3f 04 1b 44 19 db 97 c1 3f
       0.42639009586313364 0.13744677289670204
0000a0 35 ea 74 a0 aa 7f c1 bf a3 57 99 e1 f8 a8 c1 bf
       -0.13670857271957151 -0.1379691220815263
0000b0 a5 6b b1 a3 b4 71 b3 3f 86 a9 9b 5e 2c 7b db bf
       0.07595376011287998 -0.42939290274684827
0000c0 98 f9 f2 35 5a 59 c8 bf 43 7b 63 41 b0 ba c2 3f
       -0.1902268184112017 0.1463222808151504
0000d0 db 4a 4d 8e 04 48 af bf c8 a4 c3 9d ac 12 ca 3f
       -0.061096327181663766 0.20369489386874862
0000e0 1e c9 03 f1 ff 02 c3 3f 53 71 db e9 96 a1 c6 3f
       0.14852904575634168 0.17680632036980146

linears.1.weight f8 [30, 30]
000000 50 69 a8 ba c1 e9 b9 3f d5 6e 0e 16 8c 25 e2 bf
       0.10122309500767313 -0.5670833998478552
000010 2d 20 31 b9 f7 8f cb 3f a3 7e 42 0f dd 53 c9 bf
       0.2153310446030913 -0.19787181134323814
000020 e3 21 bb 81 1f 05 c7 3f a7 59 7c 1e 1a 1c c2 3f
       0.17984384378929893 0.14148260582505864
000030 45 ee 39 c1 fb 22 cf bf 94 20 a5 1e c9 5f c4 bf
       -0.2432551091659311 -0.15917314525927806
000040 b4 07 02 87 e4 bf b6 3f 23 fa aa e9 c6 7b b6 3f
       0.08886555000392954 0.08782618717939576
000050 3f 96 4e 30 d0 0e 9a 3f 91 e0 bb df 19 47 e4 3f
       0.025447133015083386 0.63367932985331
000060 7f af ad 7a 85 86 b0 3f b1 e8 03 ba 26 45 69 3f
       0.06455263371543472 0.0030847317103709017
000070 4a 2e 46 3e 32 a5 d0 bf 00 6d 17 b5 41 d7 c4 3f
       -0.26008277970752103 0.16281911222800005
000080 cf b4 63 5b 8c e4 b1 3f 33 b6 4a 5a d0 95 c3 3f
       0.06989361983478946 0.15300945671826724
000090 df 81 76 15 81 4c c2 3f 8e 7e 8a 76 ff 85 cd bf
       0.14295972393030262 -0.23065179145941211
0000a0 58 13 8d a6 b4 43 ce bf ef 64 f1 8f 29 2f b6 bf
       -0.23644121296288279 -0.08665714039070214
0000b0 10 1b 82 1a 91 03 cb bf 67 63 f8 4e 0a d1 e0 bf
       -0.21104635042521425 -0.5255176107776663
0000c0 50 7e cc 9a 35 2f 99 3f 0a aa e9 e2 98 48 dc 3f
       0.024594152043503847 0.44193098220299076
0000d0 90 2d d1 67 c5 55 c8 bf 00 a4 4a a8 44 cb c5 bf
       -0.19011752671427162 -0.17026575295793123
0000e0 d1 4a db f9 b0 54 c9 3f f8 a7 77 6c 2f 07 ac 3f
       0.19789707374601176 0.054742319098139036
0000f0 b1 c4 fd 2d 79 69 b1 bf 05 56 3c b8 4c 66 c5 bf
       -0.06801564572176023 -0.1671844386661833
000100 14 7f 91 16 a0 c1 87 3f 53 51 47 db 55 cf d1 bf
       0.011599779785853616 -0.27827974714206966
000110 4b d5 18 d4 c2 b8 be bf cf cf ff e8 73 3a 9f bf
       -0.12000672987126852 -0.030496417137285733
000120 64 c5 27 4c de b3 cb 3f 40 58 73 79 0a ca c4 3f
       0.21642664640925624 0.1624157994289721
000130 bf fd e2 15 5a c9 cc bf c8 57 50 6e ae c2 ad 3f
       -0.22489477223096618 0.05812592598537908
000140 52 1c 6a 7a e7 96 c1 3f f7 1e 49 ff 17 81 d7 bf
       0.1374177310683274 -0.36725425653683835
000150 85 6e c2 f1 7d a6 9f bf c3 70 9a b5 15 01 cd bf
       -0.030908553963497915 -0.22659560553882416
000160 ea 11 3a 37 a6 64 9e bf 74 c3 ed 64 99 17 bf 3f
       -0.029680821533945613 0.12145384515839713
000170 d9 50 2b ea ee 8a b3 bf 43 71 d2 9d 86 21 d0 bf
       -0.07633870331784766 -0.2520462552290789
000180 cb ae d7 95 cf a5 af bf 6b 90 5f 3a 1e fa 9e bf
       -0.06181191162235463 -0.030250999749015167
000190 3e 2d 45 52 6e 8e b4 3f 85 55 6e 58 c9 a8 90 3f
       0.08029832371282894 0.016268869421386185
0001a0 7b 33 f9 44 41 22 bd 3f f9 8b 39 ad 97 91 c7 3f
       0.11380393918916624 0.18413063009492683
0001b0 1c fa 39 5f 9a e2 c3 3f 3e a5 2d b3 0a f9 bb bf
       0.15535287523012264 -0.10926882624120979
0001c0 f6 91 60 4c 00 07 a6 3f 01 c0 1a 4f b6 35 d1 3f
       0.04302216465319823 0.26890332913444587
0001d0 8e f4 3f 3e d6 06 a6 bf 62 3f d7 da b8 e0 c9 3f
       -0.04302091131101192 0.20217047391497106
0001e0 f3 5a 4d c2 ba fc cf bf d1 63 64 1d cd 1d d8 3f
       -0.2499001930943546 0.37681892271353684
0001f0 12 6e 31 54 92 06 c4 3f ee b7 d3 45 c6 1d c0 3f
       0.15645054923048513 0.12590864572069854
000200 e6 c4 b9 7f 63 3c 87 3f 41 c9 65 23 cb 58 c3 bf
       0.011345650992753819 -0.1511472628440718
000210 5c dd 3d a4 84 75 bc bf d5 2e e6 e4 b9 fd bf 3f
       -0.11116818437391401 0.12496530378683286
000220 74 ce 94 82 ff f8 c2 bf b5 b0 fe 9b e6 09 d2 bf
       -0.14822381855048017 -0.2818542979610002
000230 01 6d 28 d5 67 94 8d 3f 81 37 f8 c4 77 1b e5 bf
       0.014443217461169501 -0.6596030089437904
000240 97 c3 86 8b 35 23 d4 3f e9 3c e0 37 b6 31 a0 3f
       0.3146489965975489 0.031629270859520116
000250 f2 bd d1 b9 c2 5a c6 bf c7 32 91 ae 10 b8 a4 bf
       -0.17464479516227943 -0.040466805753202766
000260 bb ea 44 9c b0 fa b3 bf 12 7f 58 ef 4e f2 d4 3f
       -0.07804397406736545 0.32728932736971317
000270 83 01 96 b0 97 c5 c2 bf a8 d3 d5 7f 58 ab cd 3f
       -0.14665504572259289 0.2317915558047876
000280 90 a2 4d 54 41 62 d6 3f f1 ee e2 4f 1e 0c c4 3f
       0.3497470210336724 0.1566198244162176
000290 a1 e3 72 03 ff 13 cf bf a9 d4 62 27 bf b7 e8 3f
       -0.2427977339591765 0.7724300164469656
0002a0 b5 0d 08 5e 13 60 ce bf 27 6d f3 d8 1d ec d9 bf
       -0.23730699626331178 -0.40503641306505006
0002b0 2d 26 ea c1 82 07 d2 3f 27 2c 71 bf c8 dd cd 3f
       0.28170842110611966 0.23333081577070056
0002c0 b3 83 95 d2 0f 14 ce bf a7 1f 89 34 7d 06 af 3f
       -0.2349872377626788 0.06059638277343931
0002d0 d9 32 ee 2e f6 ec b0 3f 8c 63 bc bc 01 7f dc 3f
       0.06611574788821474 0.4452518790363278
0002e0 a0 04 4c ab 1c 45 b0 3f f6 48 6b c6 14 52 d1 3f
       0.0635545652585443 0.2706348359762524
0002f0 14 af c7 d1 14 cd c9 3f f8 4b 1a 03 ec a1 c1 bf
       0.20157108538784796 -0.13775396491527636
000300 0b 65 11 0b 7b 77 cc bf e8 9c f9 5a 54 2d d2 3f
       -0.22239625969340468 0.28401669391901274
000310 8b 78 27 ff 32 b5 e4 bf 26 de 8a d0 7b 1c e3 bf
       -0.6471190436821116 -0.597227008161046
000320 fa 02 e7 20 64 d5 d2 bf 3d 41 d3 7f 0d ad cb bf
       -0.29427436078189795 -0.21621865025964296
000330 5f e1 24 d5 a7 1e e2 3f 47 76 d2 49 0e 9c c4 3f
       0.5662421381921766 0.16101244549365587
000340 f3 99 53 06 9e 9d 97 bf f6 f4 3c 4b d7 0e c5 3f
       -0.023062199722426468 0.16451541112647988
000350 69 df 47 e7 99 b0 c2 3f fc 7d 45 9a 59 b9 83 bf
       0.1460144404697943 -0.00963087083863367
000360 08 81 a6 e0 6f 8a dc bf f8 3b df 48 69 59 d2 bf
       -0.4459495252467751 -0.2867072307244025
000370 c7 9b b9 71 86 52 bb 3f 41 53 46 5c 47 05 c5 3f
       0.10672798420419759 0.16422359471894235
000380 57 d9 d3 fe b5 5c b4 3f 75 de 02 5c ec 07 d5 3f
       0.07953965636611336 0.3286085985705321
000390 1c da 7c d0 95 2a aa bf ee ab b2 98 94 27 e4 bf
       -0.05110614938751132 -0.6298315985089837
0003a0 a1 40 be 00 b2 18 bd 3f 16 89 48 e5 70 75 c8 3f
       0.11365807073730362 0.19108401484943077
0003b0 60 a8 5c 1b a9 89 ab bf 68 05 79 29 f1 e6 b2 3f
       -0.05378464182861431 0.07383639585989032
0003c0 36 42 dc 0d ef bc d2 3f aa 3d e7 70 66 35 a3 3f
       0.292781604323895 0.037516785890712015
0003d0 bc 36 46 f5 9b 30 d2 bf 19 2d 02 8a 2c 76 73 bf
       -0.28421687080922786 -0.004751371365397072
0003e0 0f 33 61 e0 4c 81 cb 3f 32 ab 1b be a6 bb b6 3f
       0.21488343196906398 0.08880083218870707
0003f0 83 81 3b 6f 46 82 c6 bf ac 27 78 11 69 63 a9 bf
       -0.17585068160316206 -0.04958656633614508
000400 21 e1 f2 64 dc bf dc 3f e4 9a fd 75 7a 84 da 3f
       0.44921026094699995 0.4143358375790014
000410 79 88 55 df 6a 92 ce 3f c0 f0 0d 6d ae c9 e1 3f
       0.23884330658899325 0.5558693056077786
000420 a1 10 49 aa a9 87 da bf df 70 73 b9 d3 97 ce 3f
       -0.4145301974242646 0.23900839381429415
000430 fe ee d9 f7 fd ea cc 3f b9 a6 b0 1f 06 4e 81 3f
       0.22592138864626315 0.008449600069144624
000440 54 f5 b4 ee 0e a1 d1 3f 62 1d aa e2 47 0a d1 bf
       0.2754552203294527 -0.266252490379392
000450 9b f7 c9 f9 01 84 d1 3f f8 5b 48 4a ce 62 81 bf
       0.2736821116776526 -0.00848923839752834
000460 d5 99 02 99 2c cc 6e 3f 91 49 26 ae 38 37 96 bf
       0.003759467224955441 -0.02169502795147477
000470 4c c7 12 a5 e9 46 d2 bf 92 66 cb eb 36 c8 ad 3f
       -0.2855781662029713 0.05816814068175548
000480 79 e0 b6 9d bd 79 b0 3f f5 79 64 8d 73 9a b1 3f
       0.06435761547516163 0.06876299097027767
000490 62 aa 39 1d 8c fd a8 3f b3 9e 93 e7 24 1e c6 bf
       0.04880941254380812 -0.17279492671445026
0004a0 a3 54 a3 88 3b 00 bf bf f6 d1 02 e3 6d 8e d0 bf
       -0.12109729848755761 -0.2586931912331062
0004b0 6d df 9d 67 54 1a 7b bf 81 64 54 24 a7 3b c7 3f
       -0.006616906839432929 0.18150796197804556
0004c0 f6 5f ae 41 b9 9f b3 3f 60 cf e2 b5 ef 3d b9 3f
       0.07665593961280578 0.09860132399154287
0004d0 09 99 14 02 44 ce c1 bf 2c b9 81 90 49 cc d0 bf
       -0.1391072282942292 -0.2624687110136559
0004e0 83 c3 fb 8f ae 9e b5 3f bc 54 ba 6d 8b 50 b7 bf
       0.08445254340382573 -0.09107276371863099
0004f0 66 27 10 4a 0b d8 a1 bf 4d b0 e5 f7 b7 e7 9c bf
       -0.03485141066637602 -0.028227686410375253
000500 02 5f 4c 55 16 68 c3 bf 06 31 b5 d0 ea c4 c7 bf
       -0.1516139904494978 -0.18569693747338806
000510 da c6 be 88 52 dd c5 bf aa ba d7 c2 d1 d4 ab 3f
       -0.17081672360432415 0.054358058008678725
000520 35 d6 db ef 79 3b a8 3f 84 8a 34 72 d8 65 a0 bf
       0.047328768281584756 -0.032027019444531596
000530 cf dd 98 3d 8b 9a d6 bf 0b ed 19 dd de 04 b9 bf
       -0.35318261161179704 -0.0977305688665419
000540 02 fe f7 96 64 b4 c1 3f 23 22 2f 5b cb 05 b7 bf
       0.1383176552917434 -0.089932164918658
000550 2a 75 3d c4 ae 00 b1 bf 34 b2 7e d8 9c 6d aa 3f
       -0.0664166668988925 0.051617528369522964
000560 58 40 2f d9 4c 3d cf 3f 77 01 fe 93 b0 c5 c3 bf
       0.2440582333060799 -0.1544705126398289
000570 cd 16 06 cd 2e 10 b3 bf 71 07 e1 75 d7 50 b4 3f
       -0.07446568017447959 0.07935854556947476
000580 98 7c 45 88 b7 ab aa bf 8c 41 d9 55 aa 54 c9 3f
       -0.05209134615392336 0.1978962821181195
000590 1a 56 3f f4 ea fe cb bf 65 9a 9f e1 ff 25 c1 3f
       -0.2187169735540671 0.13397215382356645
0005a0 50 3f 02 9a 88 2d c1 3f 31 de 30 0e 89 be bf bf
       0.13420207519493 -0.12400108906228337
0005b0 88 e6 14 2c 3e a7 92 3f 44 4c b4 8a 78 ac b6 bf
       0.0182161058812427 -0.08856919657073187
0005c0 d6 f8 3c f0 e6 32 ca bf 0a 3a b6 e4 5e 55 bd bf
       -0.20467840891246308 -0.11458390315804237
0005d0 bf 16 84 73 f8 c9 a6 3f 2d 44 02 1e 15 1a ca bf
       0.044509662724562464 -0.20392097440029158
0005e0 fa c1 46 72 15 6c d4 3f 6d 7c 59 7b 80 7a e4 3f
       0.31909691009334973 0.6399538430377
0005f0 35 d4 f4 fa e7 06 d0 3f 83 14 2f c8 27 21 e1 3f
       0.2504215193505986 0.5352972898332528
000600 aa 3e ba fc 8d 25 dc bf 3d 0e 91 3a fc 3b d1 3f
       -0.4397921531717467 0.2692862102451022
000610 9e 42 61 1c c3 4d c6 3f 75 0c 62 03 8b 44 cd bf
       0.17424811254251876 -0.2286542669790809
000620 94 8f 7e 53 52 90 c0 bf fd 4b 7a d2 ba 7b a2 3f
       -0.12940434529184286 0.036100233262139604
000630 e9 9a f2 65 4b 37 d2 3f 92 04 03 be c6 f5 b3 bf
       0.28462490993335493 -0.07796899928054504
000640 e9 eb 84 8c 14 55 c0 bf f3 e0 6b 7e d7 64 cb bf
       -0.12759644376077908 -0.21401494667930585
000650 42 8f 58 8b fa dd ba 3f 39 43 3a c0 c1 17 e0 bf
       0.1049496259880103 -0.502900004810818
000660 51 d1 3b cd cc 72 d3 3f 57 b0 4d 6e 07 e2 c3 3f
       0.30388183634137983 0.1553353584853336
000670 84 1a a2 61 e0 59 d5 bf ac 03 60 24 67 40 9a bf
       -0.33361062559598786 -0.025636302561909893
000680 08 cd 78 d7 71 4f 9a 3f 5f e4 4c e7 50 ff c3 bf
       0.02569368245731332 -0.1562291268726623
000690 86 7c bb 24 fd 6a c1 bf 47 ef 4a 24 a0 a1 b2 bf
       -0.1360775403363485 -0.07277871023228243
0006a0 00 ee 42 22 38 6c cb 3f c5 45 dd 76 ee be c3 3f
       0.214240090111943 0.1542642670051874
0006b0 a5 a1 7b 89 17 85 cb bf 96 e4 e1 38 7c 0c d0 3f
       -0.21499914372476528 0.2507620387546664
0006c0 c2 d7 98 d2 6e 15 ba 3f 9f b6 9c 22 2f 9a b7 bf
       0.10188954011468268 -0.0921964129927013
0006d0 21 fd 40 ab 2b 35 d7 3f 0f 3b 3a 7d 37 14 96 bf
       0.36262027477273945 -0.021561495798375904
0006e0 9d 77 e5 3e 18 51 cf 3f 3d 9d cf c1 19 14 c2 3f
       0.2446623141394725 0.14123842204501527
0006f0 38 02 d5 9b d3 c0 ad bf 71 e7 3c 14 1d a5 d2 bf
       -0.058111775181263814 -0.29132773376806315
000700 cf 6f df 14 44 85 b0 3f 18 df ad a2 d6 8b c0 bf
       0.06453347692098464 -0.12926752990073775
000710 75 7b 91 ea a8 29 ce bf 56 8a 36 aa a5 06 b1 bf
       -0.23564635709314144 -0.06650767713157654
000720 92 e7 d1 70 aa 32 b4 3f 0f e3 3e 31 0b 10 c5 3f
       0.078898098510676 0.16455211548397883
000730 cc a9 81 b2 68 15 ad 3f f2 bd 38 d1 f2 92 99 bf
       0.056803962507575884 -0.024974626560092923
000740 4a b9 7b 12 56 61 cd 3f fc 32 69 c0 2a fc d1 bf
       0.2295329656839818 -0.2810160521519689
000750 d7 94 94 fa 3b 46 c9 3f 32 a0 5e 3d 04 b7 c9 bf
       0.19745588050242333 -0.200897722211495
000760 a0 68 66 85 49 0c d0 bf 77 3e 6a 6f a6 ba b2 bf
       -0.2507499506697375 -0.07316055507748752
000770 97 1f 34 1d fc 1d d1 3f 2a 11 7a e8 1a 76 c5 3f
       0.2674551282111621 0.16766678191573564
000780 dc dc 5c 85 1b e7 ce bf 23 46 f8 47 e2 07 cf bf
       -0.2414278412995604 -0.2424280978598726
000790 ea 20 12 05 01 67 c8 3f 5a fd 59 8d 6e d8 af bf
       0.19064343211744667 -0.06219811892969558
0007a0 a8 79 c6 bf 6e d4 d0 bf eb 3b 9b 34 15 8b c0 3f
       -0.26296585777336157 0.1292444712512116
0007b0 5d 12 dd d5 f8 d5 c2 bf d4 af 8c a2 da 24 c0 bf
       -0.14715490763241493 -0.12612469613065846
0007c0 f0 6a 12 d6 d4 b4 c5 bf 38 9e 65 42 8c bd b1 3f
       -0.1695810361169019 0.0692985212423246
0007d0 21 a1 43 55 16 e3 7b bf 97 4c 4a f3 8a 36 cd 3f
       -0.006808364141967866 0.22822701339155024
0007e0 ad 9f 48 58 df 75 d6 bf fb e7 af 2f 1e 6d bb 3f
       -0.3509443628449798 0.10713375725018175
0007f0 54 ef 4a 4b 26 37 b4 3f e4 a9 f7 26 80 7d c3 bf
       0.07896651590539011 -0.15226747420031395

linears.1.bias f8 [30]
000000 84 cf eb f4 79 65 bb 3f 54 8b c1 e5 9e b7 a9 3f
       0.10701715688247587 0.05022903971327844
000010 62 3d 89 7a b4 2c 2a bf 7a 29 1f b1 62 fe b1 bf
       -0.00019969657047845107 -0.0702878649164286
000020 cf 0c f2 46 81 39 af bf 3d 30 24 1d dd 08 a4 3f
       -0.0609856032470134 0.03913012486199861
000030 ee fb 18 88 c8 46 a0 bf f5 15 df 84 1a 0b b8 3f
       -0.03179003392551026 0.09391942733699195
000040 42 bd a1 6a 8e 79 b2 3f 91 e8 ca cf b2 97 82 3f
       0.07216730216326986 0.009078404394461866
000050 e0 c4 03 90 8f f9 c2 3f 5a 13 a4 a9 c7 ea a9 3f
       0.14824099094361198 0.05061935373126998
000060 a4 ac 75 6f 03 c3 be bf 44 cf d7 83 b3 e0 b0 3f
       -0.1201631686323475 0.06592866867850683
000070 0a e7 1b 58 65 c7 b0 3f 6b 79 5e 8c 00 6a 70 bf
       0.06554253960703363 -0.004007341520177436
000080 24 3e 6e 5b 11 8e ac 3f 1b 8a 6c cb 52 37 bf 3f
       0.05577139130684497 0.12193791834264582
000090 92 50 6c 5a 0f 65 b6 3f 4b e4 df 3a b1 51 af bf
       0.08747955281825373 -0.06117013782199673
0000a0 29 4e 1d 0a 05 6d ba bf 63 77 8b 97 a5 b6 a8 bf
       -0.10322600838599584 -0.04826848483001702
0000b0 a8 72 31 34 b4 aa 85 bf 5e e9 36 c1 0b 57 b4 3f
       -0.010579498141106328 0.07945321528578606
0000c0 54 48 b1 bc 01 f4 a1 bf 48 88 2b ec f4 2f 9f bf
       -0.03506474903464665 -0.03045637790172176
0000d0 20 12 5b a8 e1 65 a5 bf 00 9a e7 95 5c 8d b6 3f
       -0.041792918969381754 0.08809450778753813
0000e0 10 a7 fd 81 bf e1 b5 bf 26 9e e2 f7 1b 77 b7 bf
       -0.08547589229206332 -0.09166121293912308

linears.2.weight f8 [30, 30]
000000 78 19 c6 de 76 7f c9 bf b4 04 79 da 02 e0 c3 3f
       -0.19920240285518864 0.15527377765287087
000010 2b 95 0b 22 89 4a ce bf 25 31 7e 99 79 e0 d9 3f
       -0.236649648307471 0.4043258665995089
000020 a3 eb 7f 65 94 56 da bf 93 9b ca e1 d0 88 9a bf
       -0.411534403916159 -0.025912536412444686
000030 21 33 7b 7d 04 d1 cc bf ce 2d 6b 0e 2d 7e c7 3f
       -0.2251287090970431 0.18353808597599514
000040 e0 45 6f d3 50 eb c4 3f 49 df 92 af 7e 6a d4 bf
       0.163431266059475 -0.31899993081923533
000050 a8 54 d9 3b 2d d6 c6 bf 56 53 32 1f 05 30 c6 3f
       -0.17841115400611796 0.17334045432348927
000060 c6 38 46 a7 f5 d4 c8 bf 4c 53 2d 76 0d 21 d2 bf
       -0.19399901073160758 -0.2832673696587349
000070 31 66 e7 83 59 07 c0 3f 3d 44 a2 fa 10 8e dd bf
       0.12522429409618632 -0.46179604030573157
000080 14 43 76 ce 5b 3e ae 3f b5 7e 20 87 ba 64 c5 3f
       0.05906950850761042 0.1671364936637382
000090 28 07 73 6c fb 92 d3 3f 50 6e 2a ec 52 ce bf bf
       0.3058460768771618 -0.12424200311436917
0000a0 98 2a f5 02 1d 70 bd bf 29 4f 00 db df 21 c3 bf
       -0.1149919635983373 -0.1494712657300792
0000b0 4b c3 e1 01 cd b9 c0 bf 06 52 2c 94 dd 3a c6 bf
       -0.13067019073380445 -0.1736714337827296
0000c0 62 67 f2 dd 26 a1 d7 bf 72 66 73 d7 43 54 c9 bf
       -0.3692109267664049 -0.19788406391198837
0000d0 08 4c 3a d7 1e 2a c7 bf 85 23 94 dc 01 cb ce 3f
       -0.18097291478315491 0.24057029028361057
0000e0 ba 5f fd 65 24 1f a7 3f ef 38 0c 32 ca 23 ce bf
       0.045159470987243336 -0.23546721881616103
0000f0 0e b4 22 cb dc 31 c4 3f 57 62 f7 f6 2a 8f cd bf
       0.1577716819641925 -0.23093163546470194
000100 1e ff 16 99 52 a8 ce 3f 3d d5 85 58 f3 cc c7 3f
       0.2395117995747506 0.18594209501649486
000110 f3 14 22 50 7b 37 ca bf 29 f1 37 9c ec 7b cd 3f
       -0.20481816685438722 0.23034436824662777
000120 e0 6b d3 e3 b7 1a c7 3f a0 c7 98 b0 52 67 cf bf
       0.18050287842092327 -0.24534066794290954
000130 79 7b f7 dd 21 22 bb bf 4c 41 40 c9 b1 59 bb 3f
       -0.10598956746205869 0.10683737910608676
000140 32 ea 78 d2 22 65 ce 3f b6 84 00 5d 15 5e c9 3f
       0.23746142651528285 0.19818369904627325
000150 cc 66 8f 7e 66 c7 d1 3f 5c 5c cc 0b 5b 8f da bf
       0.27779543265715456 -0.41499973442245675
000160 83 e7 b6 a6 f6 9f c2 3f fd a3 2a d6 10 25 bb bf
       0.14550669803957925 -0.10603432873416803
000170 11 b6 fe 88 a9 a3 ca 3f 78 cc 06 6e 1c e9 b0 bf
       0.20811957539756112 -0.0660569923991704
000180 d7 26 4a 95 a2 c1 9d 3f 0c e0 e7 33 25 7d a0 bf
       0.029058971750180653 -0.03220478304496063
000190 21 1d d8 76 6b 1e c3 3f 97 c9 7f f0 ae 41 ce bf
       0.14936583807887252 -0.23637949698565983
0001a0 bd 86 a0 92 72 38 b2 3f 24 d2 a1 57 4b 92 c7 3f
       0.0711738212562762 0.18415204790984874
0001b0 b2 40 4e 51 79 4c d0 3f 42 0b fe 17 54 b3 c0 bf
       0.25466759624488156 -0.13047267123701017
0001c0 6a 37 1c 42 19 3e c7 bf bd e7 a2 9a 56 45 d2 bf
       -0.18158260086095918 -0.285482073795375
0001d0 94 08 ee 71 87 fc 8b 3f 00 6a be 4f d4 bd d4 3f
       0.013665254749643453 0.32408626353722525
0001e0 46 0a c0 a0 85 16 cc bf 0a 79 12 6b c9 b1 bd bf
       -0.21943731640938519 -0.11599406112734215
0001f0 d5 a4 c9 60 fc 27 dc 3f 7c b7 9a a3 f9 f0 e2 3f
       0.4399405427162269 0.5919159121892643
000200 4b f7 3f b2 b4 61 e8 bf 7a 2b 54 c9 19 77 b4 3f
       -0.7619269830172269 0.07994233289006827
000210 45 c5 62 5f 56 db ee bf d6 02 c3 d0 da b6 ad 3f
       -0.9642745841030452 0.05803569601403573
000220 53 ae c5 f5 34 87 d5 bf 6b 8b 45 13 05 ea d0 bf
       -0.3363773727530532 -0.2642834366035262
000230 88 07 81 23 21 61 dd bf 43 e5 a8 cf 45 6f da 3f
       -0.45905331103505675 0.4130415466239194
000240 7b 0a a7 4e 30 96 e4 3f 6b 27 12 7f 22 16 82 bf
       0.6433335815602982 -0.008831281187912507
000250 82 cf b3 45 86 98 c1 bf 00 4d 30 5a de a2 ea bf
       -0.13746717837750216 -0.832381416463619
000260 0f b3 f9 ac b9 ec ab 3f 38 95 a1 d8 58 ca d8 bf
       0.05454044567600224 -0.38735028415097217
000270 4e 27 9f 35 d8 ab e7 3f 8c 78 6d 16 62 77 e4 bf
       0.7397271201418592 -0.6395731390037027
000280 5d 96 cd 96 c2 e5 ca bf e1 38 3d c9 e7 79 d2 3f
       -0.21013672221595217 0.28869051601658496
000290 60 64 19 43 3b b7 e7 3f 68 88 0c e5 16 a8 db bf
       0.7411171255618108 -0.432134364777204
0002a0 52 00 7d 50 6a f8 d6 bf f8 a7 07 e2 0c 14 a1 bf
       -0.35891206607994264 -0.03335609683183799
0002b0 05 d5 da a1 80 e2 e4 bf 00 62 d7 87 f3 69 d6 bf
       -0.6526492272593322 -0.35021675363307736
0002c0 1d aa 96 94 a8 c3 9f bf d3 f1 a4 07 3d 89 c0 bf
       -0.0310198155108684 -0.12918818352944914
0002d0 e3 0a 18 48 dc eb c3 3f cc f3 b1 12 3d fb a1 bf
       0.15563539047442196 -0.035119923145408544
0002e0 5e 84 8e cf 5b d8 d6 bf 11 15 2d 11 aa 6c c6 bf
       -0.35695548314294523 -0.17519117201496973
0002f0 5d 50 48 d7 00 bb d4 3f 8e 61 cb 3a 10 0a de bf
       0.32391377471618005 -0.469364221016371
000300 e1 80 12 5a 5b 86 d1 3f 3f 1a 5b e0 68 44 cd 3f
       0.27382549091454506 0.22865019755245616
000310 61 ec f1 9a 60 6f d2 3f e5 9d 7c 46 9f 73 ce 3f
       0.2880479348311323 0.23790350858438028
000320 0d 39 2f 3a 5c f6 ae bf c7 9e 59 6b cb d9 7d bf
       -0.0604733296419103 -0.007287783247739993
000330 c1 e3 d8 3d 48 bf ca bf 57 6d b3 90 95 fa d1 3f
       -0.20896246929058118 0.2809194481939889
000340 2b 9f c7 90 a2 bc 9e 3f 16 1b 9d 86 13 a6 ba 3f
       0.030016460501342806 0.10409662281481888
000350 ca df c1 40 f1 d6 b8 bf eb 08 80 84 d8 f2 d3 3f
       -0.0970297606562546 0.3116971296259538
000360 78 72 6f 69 33 a6 d2 bf 85 c7 42 32 47 10 bd bf
       -0.29139409347934686 -0.11352963425704672
000370 81 75 63 fe 71 15 d7 bf f1 05 24 99 bf 45 c3 3f
       -0.36068391649845216 0.150566053176632
000380 e4 9d 73 92 2c 76 a2 3f cf 22 9a e7 bb 9a b4 bf
       0.03605784690608596 -0.08048605350826253
000390 fe b6 7e 47 d0 87 ce 3f 6b 0b d4 27 97 28 c1 3f
       0.23851970187154586 0.13405122227421926
0003a0 6b a1 78 38 1d 01 c7 bf 3c d0 db e7 b1 84 cc 3f
       -0.17972150094397973 0.22279952832434613
0003b0 d7 70 00 da ba 16 c6 bf 90 d4 b0 43 f8 63 c2 3f
       -0.17256866116156885 0.14367583565914233
0003c0 8a 71 e8 01 f4 82 cc 3f ae 19 81 35 0d 6f d0 3f
       0.22274637311137396 0.25677805161503897
0003d0 8c 11 9e 4a b1 38 ce bf f0 65 db e1 ae 0e bc 3f
       -0.23610511916571075 0.10959904684150223
0003e0 12 6f f9 0b d7 74 c3 3f d4 61 f7 12 f8 dc d1 bf
       0.15200317463574514 -0.2791118798463945
0003f0 89 e9 1f a3 b8 12 df 3f 0c 51 d9 2c d1 4d ca bf
       0.4855176537527304 -0.20549978914153433
000400 2b 69 78 48 99 8e d0 3f 32 25 f4 21 28 93 92 3f
       0.2587035377233799 0.018139483520859652
000410 99 3c a3 b4 20 eb cc bf 58 ba 5e ab 05 91 d9 bf
       -0.22592552967259819 -0.3994764493499239
000420 6b 62 3b d0 22 30 a9 bf 5c e1 ae db f3 33 d3 3f
       -0.04919537345785304 0.3000459332793264
000430 df e6 cc 9a aa 44 9a bf 4b 77 14 a6 22 d6 b0 3f
       -0.02565256662203452 0.06576744608579792
000440 39 a6 e8 0a 72 0d c9 bf 75 1b 45 c7 a6 8b b8 3f
       -0.1957228234544333 0.09588091244687098
000450 24 68 60 45 b5 57 c3 bf 1f 8c 1e 0d 67 7a d8 3f
       -0.15111413848427546 0.38247085839447154
000460 fd 10 f9 5f c7 4b c4 3f 6f 41 f2 c0 6c b6 cd 3f
       0.15856258569886697 0.23212966366964902
000470 a3 27 10 5d b0 1f c4 bf d6 fd ee a5 6b bb ae 3f
       -0.15721706909272112 0.06002365494304811
000480 f5 16 0e 88 c5 cf b9 3f ed 36 77 ea bf 39 ab 3f
       0.10082659312874027 0.05317497002725511
000490 22 38 b3 d0 83 db d9 3f bb ab a3 30 db ae d4 3f
       0.4040231264197037 0.3231723761552378
0004a0 ce 17 be c9 f5 72 be 3f 6a 58 8c bf 84 49 84 3f
       0.11894165206294291 0.009905850501621145
0004b0 37 ba f0 47 7f f6 bc 3f 41 a8 93 dc 46 0e cf bf
       0.11313624864917747 -0.24262319345808872
0004c0 6a b6 eb f2 52 34 d5 3f 5d 3d 82 a5 75 4c d7 bf
       0.33131860468606666 -0.36404172099078896
0004d0 4d e2 1a 44 ae 74 b7 3f 72 8d db ec c6 e7 d5 3f
       0.09162415659637553 0.34227154856326714
0004e0 83 fd cb 3f cf 8d d8 3f 8b 26 e9 0e be 57 c5 bf
       0.38365536909255854 -0.16674018600524607
0004f0 d4 e9 47 04 ab 33 dc 3f b4 5f dd 51 4c ba 9d bf
       0.44065356653268606 -0.0290309834448121
000500 eb a6 b0 84 ee 54 c5 bf ea 31 59 21 ed 7e b6 3f
       -0.16665441016203117 0.08787424148722037
000510 41 bb d8 5b a6 85 b4 bf de bd 3c f2 71 7f cd bf
       -0.0801643347010499 -0.23045181587211422
000520 9b 47 8d c3 ec c5 c7 3f c3 f5 b7 f9 9f 69 bf bf
       0.1857276873438963 -0.12270545813222271
000530 ca e2 cd 7f 68 29 c3 bf c6 e4 8a c1 53 e3 be 3f
       -0.14970117798272603 0.12065623736534112
000540 cb 05 9e 79 60 25 89 bf 20 c7 3a 22 4a 79 ae bf
       -0.012278321944679945 -0.059519116094987945
000550 27 fd 8f d9 48 52 bc 3f c9 b6 d8 3f 51 e3 da bf
       0.11063056289275562 -0.4201243518353804
000560 87 5f 59 32 d3 dd aa bf e4 12 1e 3a 9f de b2 3f
       -0.05247364034283835 0.07370944184192357
000570 58 fc 12 04 c1 ff d4 3f 18 7b 1c 47 26 bd bf 3f
       0.32810998342387654 0.12397994266619283
000580 a5 66 a3 4d d3 c8 c6 3f 68 fe 4a 08 28 d4 b9 3f
       0.17800370493823894 0.1008934993978926
000590 cc 95 56 e4 ae 6b 90 3f 05 4e c0 6d aa 78 c9 3f
       0.016035778700503475 0.19899492606110428
0005a0 ff 51 25 e7 fe 18 b3 bf d3 0d dc c9 46 ab cf 3f
       -0.07460015433509425 0.2474144445078382
0005b0 2d 93 43 89 6c 89 b0 3f be 9f a1 ca 3b 4f c5 3f
       0.06459692336245544 0.16648051637753086
0005c0 4f 12 a4 40 22 59 e2 bf a0 e0 be 7d 8a b6 bc bf
       -0.5733805906789459 -0.11216035432778648
0005d0 f3 41 df eb 64 5b eb bf f5 3e 50 a7 24 c7 b0 bf
       -0.8549065214993433 -0.06553868374635015
0005e0 92 46 77 b0 f8 cf c4 3f 23 b8 6b 39 af 46 e9 bf
       0.16259678474903133 -0.78987847533222
0005f0 fe c0 08 2d 3d 0c d2 bf 38 48 e7 c5 e8 1b b8 bf
       -0.28199700734968747 -0.09417586166026204
000600 cc 20 5b ed 51 30 c4 3f 58 b0 67 87 18 fe cf bf
       0.15772461022993978 -0.2499418889195819
000610 b5 f7 5a c0 f0 3a c3 3f a9 9f 38 80 37 bd e5 bf
       0.15023621933317846 -0.6793477539367717
000620 02 eb 95 43 6f 31 db 3f 5d ae 60 6a 9d 90 de bf
       0.4248922500625413 -0.47757659328883567
000630 d1 64 eb b8 d8 91 e6 3f 7a ec 49 5b ec 5a cc bf
       0.7053035365780947 -0.22152475793322762
000640 55 2d 86 9d 44 c5 c2 bf 52 11 e2 fd 6e fa c0 3f
       -0.14664514247520324 0.13264262577662095
000650 78 49 28 60 ad 92 e5 3f 1e f6 b6 df 1b 20 d8 bf
       0.6741549375604299 -0.37695977065217956
000660 aa 6b ca cd 87 2a db bf 92 ef 7e de 8e a0 ba bf
       -0.4244708547282082 -0.10401242191340845
000670 b4 1f 99 6d 94 d9 d3 bf 01 c0 17 08 d3 9a 8b bf
       -0.31015501692717895 -0.013478897747489784
000680 e4 e9 d6 d3 f4 6d 78 3f 40 fe 58 50 4b 75 d8 3f
       0.005964237553991645 0.38215906950424383
000690 14 02 53 bd f4 c8 dc bf 20 67 9d 2c 44 11 b9 3f
       -0.44976538170524916 0.09791971291761259
0006a0 89 25 27 6b 64 2b db 3f 57 32 e7 0c d7 57 f2 3f
       0.4245234533705902 1.1464453224208648
0006b0 24 f8 6f 32 2a c0 ee bf d3 2b 5b 9a 12 e8 be bf
       -0.9609576211075859 -0.12072864788494479
0006c0 e8 be 67 d9 c3 42 ee bf 16 a8 28 6d 40 3c c2 bf
       -0.9456500288196965 -0.14246373491306547
0006d0 00 47 9e 4f 22 4b e3 bf a9 63 54 27 c9 6d ec bf
       -0.6029216342014649 -0.8884015815884726
0006e0 a2 8a 74 43 00 09 e8 bf f5 97 e8 d4 7a f2 b6 3f
       -0.7510987584576763 0.08963744829142668
0006f0 be 31 d3 4a 37 70 f0 3f cc f2 13 30 4a d0 a5 3f
       1.027396480832166 0.04260475003136363
000700 f5 23 b6 ef d1 df ac 3f ab 03 2d 9a ce 0e ed bf
       0.056395111571937585 -0.9080575000044652
000710 e8 de cd 1c bc fe c9 3f fd c0 cd fe 3b ed ee bf
       0.20308638960317826 -0.9664592720637583
000720 bd 42 f1 3a 7e b0 f0 3f 2a 7c 77 ec 90 34 e0 bf
       1.0430891325415097 -0.5064167612544044
000730 13 68 13 88 a3 b0 c1 3f 2a c6 ef 09 90 4c b9 bf
       0.13820308822943214 -0.0988245033511467
000740 ea 1f 57 3b 11 90 f2 3f 72 24 02 75 6d 08 d5 bf
       1.1601726835233372 -0.3286393778476572
000750 63 44 e2 d6 e2 c1 ea bf 61 98 ca 26 32 b6 de bf
       -0.8361677357626259 -0.47987035549375007
000760 f4 54 cc ae 79 55 e9 bf 86 c9 57 3e af 65 a6 bf
       -0.7916839994456084 -0.04374454151174505
000770 d3 1b 0d 00 1e aa ba bf c5 4e b1 3e 98 5c 64 bf
       -0.10415828229189054 -0.0024855588467661304
000780 46 79 e5 a2 bb c5 b7 3f 2f d3 fd 98 bf b8 9f bf
       0.0928609154411549 -0.030978196823940592
000790 0c e1 e6 86 ba 31 ba 3f c1 13 e0 be 60 db c0 3f
       0.10232129853728028 0.13169488258441045
0007a0 65 83 a5 7f 4a 6c c1 bf 81 05 fb 38 c4 ea a0 bf
       -0.1361172793649771 -0.03304112620890987
0007b0 12 f2 8e 42 cb 13 bb 3f 10 8a d8 2a a3 ab d3 3f
       0.10577078223190764 0.3073509138504571
0007c0 1f de a8 7b 76 4b d2 3f e3 a9 13 43 9e e0 c7 3f
       0.28585588527809763 0.1865423038028232
0007d0 1d 99 f7 ae 50 6c ba 3f 68 a1 4e c5 42 f4 d0 3f
       0.10321525832805319 0.26490849750782397
0007e0 6a 6d 7d cd d0 f4 b2 bf 90 0a 06 d7 cf ae cc 3f
       -0.07404809014172078 0.22408483504485277
0007f0 08 f3 46 17 1e 5b b9 3f 22 3a 68 2f c8 19 c4 bf
       0.09904659336366362 -0.15703680338670362

linears.2.bias f8 [30]
000000 fe ac d0 02 4e c0 af 3f 38 6b 97 98 40 fc c4 bf
       0.06201404365887163 -0.16394813013797616
000010 5b 2d b4 81 b5 e8 ae bf cf 0a 32 76 5b 32 b6 bf
       -0.06036917885111378 -0.08670589099532865
000020 69 97 32 7b 83 38 a0 bf 6f ef c4 7b ae f8 ac 3f
       -0.0316811645400737 0.056584789856485844
000030 ad 16 00 15 32 53 aa 3f 25 fa 6c bc 22 9b a6 3f
       0.05141598230697517 0.044152341366942495
000040 85 70 04 05 63 0b ae 3f 56 ef c9 56 d9 df ab bf
       0.058680624353855605 -0.05444220718797392
000050 b3 32 bf 91 e3 f1 c1 3f 83 0f ee c1 b5 13 b1 3f
       0.1401943647055269 0.06670700058572092
000060 4d 5d d7 eb 23 f9 ac 3f 72 ce 2e ec be d3 ac 3f
       0.056588289775101865 0.05630299218264846
000070 40 a5 e7 d3 2a 81 b5 3f 16 6f 3d cd a1 14 ad bf
       0.08400218652208924 -0.05679803495760731
000080 ed d4 d1 91 cf b3 9b 3f 20 e2 a9 67 53 99 a9 3f
       0.027053111338735048 0.04999790802407156
000090 d8 15 0c 50 e8 96 b1 bf 15 fa de f9 6e f7 72 bf
       -0.06870891527440592 -0.004630502224186835
0000a0 28 91 38 4f 81 ee ab bf 12 b2 84 37 84 7c b2 3f
       -0.05455402462055964 0.07221247058323169
0000b0 9a 22 82 3b 7d f2 a2 3f 7e ed 07 de 43 30 50 3f
       0.03700629569454357 0.0009880697981533289
0000c0 6a e9 9f 31 c3 6c c5 3f 63 27 ec a8 2f 81 a0 bf
       0.1673816673572433 -0.03223561226884788
0000d0 e3 aa fa e3 96 2b af 3f e5 27 f8 a6 a5 07 aa bf
       0.06087943585347035 -0.05083959258270435
0000e0 34 47 f2 19 76 18 a7 bf 14 c3 3a 16 26 25 91 bf
       -0.045108500163350135 -0.01674327383688297

linears.3.weight f8 [30, 30]
000000 da 40 14 ae 6b 81 dd 3f 6d 4c fe 97 da 37 bd bf
       0.461024208068023 -0.1141335125997089
000010 4b 30 49 66 36 93 c3 3f 62 1b 7e 79 3f 15 c4 3f
       0.15293006891659142 0.1568984359002697
000020 92 42 63 75 05 8f c6 3f 93 b4 32 b2 15 4f dc bf
       0.17623966438124633 -0.44232695009379447
000030 33 d0 f6 25 fa eb d0 bf 3a 41 6e 83 00 60 cb bf
       -0.2644029017203621 -0.21386724870218093
000040 3f 33 ef 7a 94 2a c4 3f a9 20 b8 84 9e 6c be bf
       0.15754943850188316 -0.11884489765373253
000050 86 c3 54 47 57 6a a1 bf 72 9c 03 54 b6 f9 ca bf
       -0.034014441926394176 -0.21074561216593996
000060 9c 4e 02 f4 97 8f d2 3f 54 8b 15 c6 a8 5c ce bf
       0.2900142558002956 -0.23720273658826818
000070 c4 17 ec 81 1f 9c c9 bf 30 c0 43 df a0 12 c9 3f
       -0.2000769981752325 0.19588099385828306
000080 39 23 56 4f f8 ce c7 3f 49 11 14 2f 10 df b5 bf
       0.18600372194148365 -0.08543492459654546
000090 2e 83 df b4 e2 c6 cf bf 3d 8c 95 05 46 ef d1 3f
       -0.24825700599378692 0.28022909684495173
0000a0 26 15 ea 03 08 03 ca bf 91 5f bc 30 2e 66 b8 3f
       -0.20321750823146906 0.09530914964523009
0000b0 f0 6b d7 f3 e1 22 41 3f 9a d5 8f b7 3d 04 77 bf
       0.0005229571613044586 -0.005619278986150356
0000c0 d9 f8 5d 94 28 4b c5 bf 34 83 c3 dd 2e 3a c0 3f
       -0.16635615581976174 0.12677560642534902
0000d0 e6 7e 07 37 a0 4b d1 3f 60 6c d5 30 44 53 c2 bf
       0.27024083494141704 -0.14316608795602104
0000e0 59 ed 74 2e e4 66 93 3f c7 cb 37 03 76 84 d6 bf
       0.018947186789984503 -0.3518347770142864
0000f0 09 28 b0 ea b5 21 d4 3f b8 de 92 d6 e9 6d d0 bf
       0.31455753248940305 -0.25670858339752156
000100 2b 9a bc bf 7c 95 d0 bf e2 b1 f3 0e 85 e1 b6 bf
       -0.2591239807538012 -0.08937865843808582
000110 1f a5 41 a2 b9 df d4 3f 97 07 d5 ce a3 2b d7 bf
       0.326155098393956 -0.36203856657459127
000120 c3 2f 14 20 08 2c b4 bf 37 c3 a6 3d ce 80 bc bf
       -0.07879687102484838 -0.11134041791116266
000130 b0 0e 65 05 21 37 c6 3f 14 ab 94 ae eb d8 d2 bf
       0.1735574032155589 -0.2944897847070689
000140 e6 f9 e5 49 7a f9 ae 3f d0 85 68 ac ab ce c8 3f
       0.060497113724512094 0.1938070861661303
000150 aa 64 14 be 5f fb c5 3f 0b ad bf ee a4 e1 ac bf
       0.17173382550462196 -0.05640902914441356
000160 5b 8f 22 a9 e8 9b a1 3f ee 41 4b e6 af d7 be bf
       0.034392614981043144 -0.12047862408076757
000170 eb a2 56 dd 08 98 d1 bf b8 9c 37 01 84 a9 c5 bf
       -0.2749044572361032 -0.16923570689616496
000180 c0 dc 71 ea 39 23 d2 bf 2a 01 f1 7c 43 a3 c8 bf
       -0.2834000386714699 -0.19248241043715925
000190 d3 42 1e 27 5b 5b c5 3f 73 10 ca df cc 05 c2 3f
       0.16685046587055882 0.14080201079571317
0001a0 cc e1 bf c5 51 ae a0 bf 0a 78 e3 fa c7 62 cf bf
       -0.03257995165762714 -0.24520206213395596
0001b0 12 bb 0d de 59 93 c5 3f 43 92 f5 08 b2 79 a5 3f
       0.16855929701292688 0.04194408759466175
0001c0 f4 92 55 87 ab 53 c6 bf 82 a2 d1 b2 68 26 91 bf
       -0.17442840679282023 -0.016748081125486987
0001d0 73 d8 98 b2 55 16 a8 bf 24 07 05 59 56 b7 cf 3f
       -0.04704540066852383 0.24778251024877662
0001e0 62 f3 1b df 39 a3 d5 bf d4 de bb 84 79 dc c2 3f
       -0.33808752811437703 0.14735335332055988
0001f0 7f c0 5f e5 0f 13 c7 bf 6d fe 32 e3 36 f4 c5 3f
       -0.18026922893432482 0.17151533216200524
000200 43 8d be 33 1c 4b c7 3f 7c 0c 4b 59 b5 4f 96 3f
       0.1819796803148198 0.021788438391706397
000210 9c 88 64 ca 22 3f cd bf 9f 32 c8 60 b4 ee c3 bf
       -0.22848925478416937 -0.1557221863335103
000220 8f 42 c6 e2 52 98 d9 bf a0 ec 1d 08 3f 73 d5 3f
       -0.39992210527365385 0.335159070898678
000230 c5 42 9a 64 77 16 d2 bf a9 7e 47 fa 2d b2 c3 bf
       -0.28262123894186814 -0.15387510986964983
000240 d5 3b b0 b5 a1 f2 d0 bf 7b 20 46 7e 0b 04 cc 3f
       -0.2648090624142559 0.2188734404155673
000250 26 cc 35 d6 9f 8f d2 bf 52 dd 51 bb 08 c0 b6 3f
       -0.2900161353965721 0.08886770795094392
000260 23 9d d9 9b 6f 62 c7 bf 4c a1 d9 49 d9 45 d6 bf
       -0.1826915274607269 -0.34801323139119655
000270 94 1c 80 ed 64 67 d0 3f 02 6a 62 9d af 25 cf bf
       0.25631068414117775 -0.2433375853041327
000280 24 8e 74 e6 1e e3 d2 bf ff 43 8b 4f e2 4c c1 bf
       -0.2951123476543407 -0.13515881427750284
000290 dc 43 89 86 83 86 c6 bf 3d f1 f9 4f 89 1f 83 3f
       -0.17598003453397737 0.009337494614776726
0002a0 24 83 d7 2e df 39 c9 3f 23 39 4d bc bf cd 76 bf
       0.19707860743712857 -0.0055673112554599806
0002b0 72 e8 d3 ed 4d f1 d2 bf 28 da ed 79 e4 67 ba bf
       -0.2959780523812078 -0.10314777352127946
0002c0 ea cd 42 a5 9f c1 96 bf eb df b5 3f 6d 81 c0 3f
       -0.02222299047634905 0.12894979105817525
0002d0 50 39 85 2a 18 de d5 bf 7b 55 62 14 17 1e c7 3f
       -0.3416805663336122 0.18060577864950375
0002e0 4b 7e 01 d8 48 08 83 3f f4 db a2 21 9c fe 6a bf
       0.00929314526746263 -0.0032952355805622117
0002f0 57 27 c7 58 0b 68 cb bf 2f e5 3a 62 73 6a e1 3f
       -0.21411268076763676 0.5442444723659373
000300 4f af 4e 95 a5 70 d0 3f d4 99 1e 34 80 40 c6 3f
       0.256875415618869 0.17384340805911214
000310 90 fe 85 2a 3d 2e dd 3f c9 74 d2 19 f8 a3 77 3f
       0.45594720032384206 0.0057716075363291675
000320 70 30 60 56 75 a1 c8 3f 84 89 69 76 4b 46 8e 3f
       0.1924273177868403 0.014782514144091825
000330 f0 6b 99 d6 1f e9 6a 3f 69 57 e7 33 77 ac d0 3f
       0.0032849904862763887 0.26052646702497967
000340 1e 41 5e 3b d1 53 c1 3f 80 47 88 00 76 bc c1 bf
       0.13537040137135475 -0.1385638716315576
000350 7d 3f aa e3 f9 f9 c4 3f f0 54 96 36 8e 70 c0 bf
       0.16387866608101467 -0.12843492188827765
000360 61 0b b4 03 a3 73 b3 bf c9 5d ad 52 69 85 c6 bf
       -0.07598322716152729 -0.17594639336560494
000370 3b 43 c0 42 c2 05 be 3f f6 65 d7 c7 cc b7 d6 bf
       0.11727537278808324 -0.35496825710069346
000380 18 9a 6e 3a 71 b8 d2 bf e7 1c fb 49 f5 ff d9 3f
       -0.2925074644685153 0.40624744629572124
000390 47 56 4e 5e 01 15 ab bf 4c 11 2e 97 97 69 a0 3f
       -0.05289463306614244 0.03205560417612449
0003a0 bc a1 06 f5 61 8e 94 3f 37 41 5b 27 0c f7 ce bf
       0.020074396686739368 -0.24191429063513123
0003b0 53 2d 56 1b 8b 40 ca 3f 6f e2 3a b3 3c 89 c9 3f
       0.20509470782085745 0.19950064422097877
0003c0 75 59 54 51 38 9c d2 3f 8b a7 df d4 34 53 ce 3f
       0.2907849115594197 0.23691425699444965
0003d0 90 e9 ac b5 1c 8a e1 3f aa 36 2a e4 71 80 bf bf
       0.5481093929623047 -0.12305366344863936
0003e0 3f 38 99 fd cd 56 d2 3f c5 aa f2 01 b2 31 cd bf
       0.28654813542823726 -0.22807908148873515
0003f0 b3 3e c5 00 44 6a a6 bf 78 99 a2 8b 3e 79 e6 3f
       -0.04377949246793147 0.7023003318070513
000400 80 43 78 d7 1e 9f a4 bf 71 c3 d0 28 d0 e8 bf 3f
       -0.04027649288412416 0.12464619633170827
000410 d9 ae 55 fe 24 25 bb 3f 82 51 29 15 ad 96 c0 3f
       0.10603553017943614 0.12959826977988703
000420 eb 87 4c d5 33 49 c8 bf 8f 44 91 13 38 b2 c1 3f
       -0.18973396220195524 0.1382513137382699
000430 10 f0 9d 95 99 ef ba 3f 1d ca 81 5c 0f 61 d5 3f
       0.10521850493199758 0.33404907258878486
000440 a0 70 ec e9 d4 27 d8 bf bf 7b 07 1f 16 3a e3 bf
       -0.3774311336908429 -0.6008406263389289
000450 18 d9 b5 07 8e ca b0 bf 3d 09 30 14 90 09 d5 bf
       -0.06559074104538742 -0.3287086674828464
000460 41 b6 5e c3 39 d5 e6 bf 45 7a 14 6f 9f d8 9e 3f
       -0.7135285201854417 0.030123225359711254
000470 2e 80 d1 cd aa b9 e3 3f b0 ea 7d 0f b0 ea e3 bf
       0.6164144534959684 -0.6223984053206859
000480 e4 58 7b e3 eb 54 e4 bf 59 57 78 5b 1a 12 8b bf
       -0.6353663867000958 -0.013218122402615927
000490 fb 9b 10 0a d7 7f ca bf 56 46 fd b4 0a ed d1 3f
       -0.20702636710595343 0.2800928847765126
0004a0 5b c0 cb c7 f6 09 d8 bf 9e 79 c9 0c 54 d4 de 3f
       -0.37560815345114457 0.48170949219447745
0004b0 2b ae 23 41 54 df c8 bf 82 7b 9c 57 2e eb 77 3f
       -0.1943154638350831 0.0058395204776208205
0004c0 40 ff ce 3b 71 c0 a4 3f 6f 99 6e 66 92 40 84 3f
       0.04053071837506517 0.009888786078431548
0004d0 c6 d2 57 7f 75 43 d1 bf 46 98 6c 0b eb 55 c5 3f
       -0.2697423690399713 0.16668451364347642
0004e0 7f cc 75 9b bd 5a d2 bf 28 88 8c a0 59 f1 b9 bf
       -0.28678836995749885 -0.10133896035816348
0004f0 be d9 be e2 78 6a d0 3f 2b 3f b1 cf 47 26 ce bf
       0.2564985479652043 -0.23554322854260454
000500 25 9a 44 40 19 83 b0 bf 23 64 e0 6d b6 ec c3 3f
       -0.06450040644686135 0.1556613956934437
000510 85 50 93 b6 47 e9 d5 3f a1 37 35 ba 1c 0d d7 3f
       0.3423632891620019 0.36017530617106713
000520 2b 4c f3 a8 10 d4 ad 3f db 26 5a 60 d0 ff c8 bf
       0.05825855314619618 -0.19530682282157028
000530 37 24 0a 17 3f 90 d1 3f e6 11 2b 1b e0 57 d4 3f
       0.27442910432779705 0.3178634896578657
000540 20 2a 87 85 54 91 d5 3f c3 bd 8f b5 dd b6 bd 3f
       0.3369952491745227 0.11607156450894877
000550 3b f9 12 38 c6 d7 98 bf bd b6 08 d7 a2 2e b5 3f
       -0.024260613605968855 0.08274286031584217
000560 13 d1 04 78 93 1d 89 bf 8f 58 f5 7b 83 1b bb bf
       -0.01226344308870656 -0.10588857437446307
000570 02 17 c6 a6 47 a7 b6 bf 08 a6 37 38 e4 9e cf bf
       -0.08848998853326509 -0.2470364832400238
000580 95 44 8f 5a 86 99 ab 3f ca 53 d1 17 01 e6 9a 3f
       0.05390567641701086 0.026268021658626663
000590 ef fe 6f 88 56 04 d3 3f 89 13 5e ca 7e f3 bf 3f
       0.29713977169011135 0.12480919304478112
0005a0 07 8c b7 8c bd 7a de bf d1 41 f6 39 6d 0d ce bf
       -0.47624148122685067 -0.23478474931881846
0005b0 fb 8e 8c db f0 7f d0 bf ab 6f eb 82 23 17 d3 bf
       -0.2578088897737271 -0.29828727517246517
0005c0 b3 a6 db 46 62 4a c6 bf 3b 77 53 62 c6 b5 e1 3f
       -0.17414501628745924 0.5534393234663421
0005d0 bd a7 58 5c 15 76 c3 bf 6d e2 9b e8 c4 aa c4 bf
       -0.15204112061593192 -0.16146146161897282
0005e0 14 0f ee 81 d4 17 cb 3f 7f 85 e5 b7 d6 e9 c7 bf
       0.21166473716959244 -0.18682369212460156
0005f0 77 74 d0 c3 99 1a d4 bf 1c dc 46 bc 7f 14 c7 3f
       -0.31412357447135925 0.1803130788154882
000600 e9 c6 bd 01 4c a0 ca bf 72 51 f5 92 ee 39 d0 3f
       -0.20801687321686949 0.2535358843936343
000610 cb e6 f1 f7 1e 0a c8 bf e6 c7 14 38 49 29 cb 3f
       -0.18780886751829082 0.21219744909609445
000620 07 2a 5c 0c 03 bb bc 3f fb 5f ad 58 14 95 d2 3f
       0.11222857524641237 0.2903490892399529
000630 e1 c6 50 e6 da 46 d0 3f 7c a8 08 ad f8 8f be 3f
       0.25432465068580085 0.11938432907541768
000640 c5 93 c0 c5 c8 2f b3 bf c3 56 21 ac 67 00 d2 bf
       -0.07494788005767734 -0.28127471742241655
000650 b8 81 12 c5 85 49 c8 bf e8 20 1b 28 2b 3d a2 bf
       -0.18974372980757237 -0.035622929235218426
000660 60 05 32 d2 5d bf b1 bf f8 df 75 3b 3c d1 cd 3f
       -0.06932627088283061 0.23294785407392715
000670 0b a3 85 cb b1 60 c3 3f 2d 28 59 c7 32 61 cd bf
       0.1513883823165759 -0.22952875837137424
000680 7f a8 18 8a 9c 2f db bf b5 7e cb 6d 72 49 d0 3f
       -0.4247809742543111 0.2544828483787385
000690 35 c6 b0 ce 79 86 ce bf 09 19 92 95 4a c0 b3 bf
       -0.2384788760405613 -0.07715288306835445
0006a0 f6 11 1b f4 d3 0e ee bf 4e a8 6e c6 be 98 a6 bf
       -0.9393100516977586 -0.04413410351055856
0006b0 72 c5 a2 87 ae 6f c8 3f 1a fa 40 95 a0 4f b7 3f
       0.19090825674860984 0.09105876582996367
0006c0 f0 7f d7 e5 a0 47 ec bf a7 ee 7d f7 30 41 f3 bf
       -0.8837437142465188 -1.2034158389714464
0006d0 c9 91 6f 97 7d 1d c0 bf e7 74 af 65 39 3f c8 bf
       -0.12589998144461692 -0.1894294497023232
0006e0 a0 3b 84 dc e9 31 d4 bf 20 15 fb 2c de c8 9f 3f
       -0.3155464795572076 0.03103968762913667
0006f0 98 5e 1d 7c 3d 3e e3 bf 45 76 9c fa e2 85 b3 3f
       -0.6013476776233402 0.076261697944994
000700 37 48 00 49 8f e7 b8 3f 68 c3 04 e5 c0 6d f1 bf
       0.09728332073453393 -1.0892952867545436
000710 41 cb 91 9d 7c 25 e2 3f 6d 9b 8e 94 cd 0e ed 3f
       0.5670760228661963 0.9080570127015172
000720 a5 d7 c4 b0 95 08 de 3f fe 90 bd ad d7 1a f4 3f
       0.4692739702471676 1.2565533434618028
000730 14 59 b5 95 62 5e f5 3f c2 c0 31 5e 94 f8 ca 3f
       1.3355432365402224 0.21071104621251463
000740 cd 09 7d 60 4d 8d f1 bf c6 5f 02 e3 db 45 f3 3f
       -1.0969976204947784 1.2045554034757386
000750 79 0a 12 8e 79 c4 f0 3f 98 fe 6d 80 74 91 ed 3f
       1.0479674863460373 0.924005747641746
000760 5e b2 79 4f e2 b6 ca 3f 04 e2 49 30 33 e8 d5 bf
       0.20870617752679527 -0.3422973605698021
000770 88 f0 43 4f 63 e4 f0 3f 16 d7 56 fe f6 08 f1 bf
       1.0557587715439087 -1.0646886763692627
000780 45 bb 4d 14 5d dc cd 3f 69 d6 a1 0d fd 43 d1 3f
       0.23328746310604678 0.2697746880652177
000790 8c 6b 8d 37 90 d5 c6 bf da ec 1c d1 7d 78 c8 bf
       -0.1783924361469328 -0.19117710791201753
0007a0 98 5c 1e 83 18 b1 b0 bf fe 4c 2f 69 e8 74 c5 bf
       -0.06520226670396523 -0.1676302445981505
0007b0 ed 8e 2d cc 82 d0 c6 bf 6a a5 75 6f a6 a2 cf 3f
       -0.17823824853541428 0.24715118830071542
0007c0 35 a1 e9 9d cf a0 d6 bf 7b 01 eb 48 01 d4 ce bf
       -0.3535651247134582 -0.24084487972687527
0007d0 3c 98 f1 c2 45 96 95 bf 3c 50 49 ca 5d 0c 6d 3f
       -0.02108105661718461 0.0035459358062244466
0007e0 73 c7 ab fd e7 28 bf 3f 14 20 f6 79 d5 17 aa 3f
       0.12171792929782814 0.0509630881670661
0007f0 23 16 ed 65 cc d0 b1 bf 73 26 99 61 01 bf b5 3f
       -0.06959226120405808 0.084945761039444

linears.3.bias f8 [30]
000000 43 1a 92 7a 4d 15 ad bf 82 08 b6 e7 70 12 b3 3f
       -0.05680315133308913 0.07450013787277679
000010 95 ec af d7 df fb b3 bf 6a 2d 4f 49 4a f1 a3 3f
       -0.07806204810906288 0.038950272988212145
000020 0b 45 a4 9b ee b5 ad bf 28 eb e0 12 4f e2 b6 3f
       -0.058028656481960615 0.0893906994905761
000030 8d 71 56 8c 21 8a 8b 3f 38 e9 e6 f4 03 91 b1 bf
       0.013447057814851582 -0.06861901024868622
000040 4d 46 74 39 11 88 b2 bf 49 6b de 6e 64 c9 b5 3f
       -0.07238872196855901 0.08510425287969982
000050 75 82 71 57 94 ba aa 3f b6 26 ff cb a6 6d b1 bf
       0.05220473830627707 -0.06807939987552455
000060 be a4 a6 30 c4 0f b2 3f cd e3 c1 5b c2 f2 af bf
       0.07055307567374577 -0.06239898080907089
000070 c8 5c 6c 02 0b 29 c4 bf 03 2c bc 27 e9 9a b1 3f
       -0.15750253313374274 0.06877000064939413
000080 86 8b b5 13 0c dd ae 3f 43 76 f4 60 2e 06 95 bf
       0.06028020611372313 -0.02053139178052833
000090 de a1 f7 8a ad 98 a7 3f 36 d2 b6 65 86 73 b4 bf
       0.04608671494844761 -0.07988777144675727
0000a0 1a 28 8d b1 c8 57 b3 3f 26 46 68 35 0a b4 94 bf
       0.07555822691679773 -0.020218047628139633
0000b0 f3 20 03 90 47 f5 87 3f fc fd 49 66 30 a7 7d bf
       0.011698302347568723 -0.007239522038275489
0000c0 64 fd f0 c0 ae 34 b4 3f 9c ab 5d 6e 4e 25 b3 3f
       0.07892887316210345 0.07478800005416847
0000d0 e7 2a ea 4a b1 99 b5 bf 6a da 4f fd ee 29 b6 3f
       -0.08437641219112955 0.08657735523579793
0000e0 d6 99 95 52 d6 82 9c bf e2 d7 5c bc a3 8a bb bf
       -0.02784285430007024 -0.10758422230432488
