1D_Transcritical_Inverse_Problem_n_initial_0_01/Models/Model.ckpt-11500.pt (torch, 82425 bytes, 43 tensors)

linears.0.weight f8 [30, 1]
000000 0b 1f 90 5c 38 b8 dd 3f ca 21 6e 5b fb c0 88 3f
       0.46436890639641665 0.012086833694198957
000010 10 3d cf 8f d3 ad d3 3f ce 8c d1 b6 39 88 cf bf
       0.30748452228449796 -0.24634477068602795
000020 18 49 e5 33 c6 15 d4 bf 76 2c f2 ed 4d bf c2 3f
       -0.3138289934914993 0.14646314733940685
000030 f0 7b 32 88 e8 2e c1 3f 67 da 76 3b a2 c5 d7 bf
       0.13424402857069095 -0.37143760497148154
000040 a5 9d 10 17 99 47 8a bf 6b d8 11 c0 83 b3 8b bf
       -0.012831874863038115 -0.013525990771295867
000050 f8 a6 55 9c d8 a5 d5 3f 20 e4 ea ff 6e d4 8b bf
       0.33824744479225854 -0.013588778672202706
000060 b8 4b 8e e6 22 e2 89 3f 78 71 b4 33 1e 13 d2 3f
       0.012638352070814082 0.282416868680023
000070 44 9d ef 94 57 fd d2 bf cf 74 45 3d af 78 c4 bf
       -0.2967127756550847 -0.15993299953235016
000080 28 b8 3d 0d 8a 84 d6 3f b6 63 67 0a 16 4b b2 bf
       0.3518395547206432 -0.0714582229042112
000090 8a 48 cf 9f 8e f7 8c bf de c5 9c 6c 5b 46 d7 3f
       -0.014144052745823883 0.36366925818137286
0000a0 1f 13 45 04 95 22 b5 bf 18 23 a8 6c 65 0a d1 3f
       -0.08255893091434217 0.26625953303350647
0000b0 e1 99 3d a1 8b 5d c9 bf 0d 20 5e fd 39 07 8d 3f
       -0.19816727994039154 0.014173939747493614
0000c0 9c 33 ee ee 2a 5b c0 3f ee 4b dc 76 1c b3 87 bf
       0.1277822176602087 -0.011572096230826969
0000d0 24 b7 58 6c 87 59 c2 bf a5 f1 b9 38 00 95 ad bf
       -0.14335720816000574 -0.05777741138897178
0000e0 17 48 21 cd ae 81 d2 3f 31 f2 85 49 c1 c1 dc bf
       0.2891652110312192 -0.4493258684158575

linears.0.bias f8 [30]
000000 d0 b9 0c a8 b6 89 b6 bf 84 96 cc 6b ef 28 c7 bf
       -0.08803884127403383 -0.1809367443431037
000010 65 ed 9f 13 cc dc bd 3f bc 96 b8 18 35 dc c2 3f
       0.11665034751051946 0.14734519679148217
000020 9d 0b a6 f5 ef f5 b9 bf 15 57 56 f9 b4 3f c1 3f
       -0.10140895602493889 0.13475668120070652
000030 1e d2 bf 45 a0 49 c8 bf cd 73 8c 3a 81 84 a2 bf
       -0.1897468891690019 -0.03616718139367201
000040 fc 91 12 5f 0f 2a d1 3f 70 8c 74 fd b8 e2 d5 3f
       0.2681921413843893 0.34196305037966734
000050 00 fc 39 91 42 bf be bf 13 ca cc e4 7b 43 d7 3f
       -0.12010589643067249 0.36349389404054583
000060 7e 80 e1 0a da 8d d0 bf c4 78 58 d3 6f 5d 90 bf
       -0.2586579424150911 -0.01598143317652824
000070 57 46 bb c8 00 a7 be bf f1 c7 6c 3a d5 6e be bf
       -0.11973576450989164 -0.11887867618932525
000080 76 c9 b1 37 66 99 b6 bf c7 a7 6a ce e2 fb c3 bf
       -0.08827818736771129 -0.15612444952904367
000090 74 e6 42 dd 89 ff d9 3f c5 80 88 94 36 d5 bd 3f
       0.40622183425475744 0.11653462530421439
0000a0 32 09 5e e8 e1 82 bd bf 32 b5 83 01 56 ca be bf
       -0.11527835772543396 -0.12027490174269387
0000b0 44 41 aa 83 d9 8e af 3f e0 bf 48 30 55 32 da bf
       0.061636731455225774 -0.4093220683598684
0000c0 42 6b d9 f3 54 da c3 bf 4c 8a bb 61 6e 1e c0 3f
       -0.1551004591627479 0.12592868587587913
0000d0 8f 80 24 35 22 23 b0 bf c2 12 4e 48 70 74 cb 3f
       -0.06303609654833252 0.21449092417255683
0000e0 10 27 0e a5 ad 9b be 3f a3 b8 8d f3 01 9e b9 3f
       0.11956296233816155 0.1000672549832609

linears.1.weight f8 [30, 30]
000000 b0 86 4b 0d d7 09 b9 3f ae 6e cb 30 45 ad e1 bf
       0.09780639719567819 -0.5524011567135483
000010 ec 92 2d 32 7a 1a cb 3f a4 bd d6 c7 44 dd c8 bf
       0.21174552393053803 -0.19425258405452184
000020 93 69 6d 1c 4d 7a c7 3f fc 7f 8b df 1c a2 c1 3f
       0.18341983688408145 0.1377597896125734
000030 7e 52 ca eb d8 9a cf bf 73 b8 e8 39 65 ec c3 bf
       -0.2469130660362175 -0.15565171554175414
000040 9d 1b 39 45 5b 35 b2 3f b5 3a e3 cd 25 34 b1 3f
       0.07112665596024077 0.0672019603400525
000050 35 77 c6 2c 13 67 96 3f c5 7a f7 f1 8b 95 e3 3f
       0.021877574546685003 0.612005207625622
000060 7b 25 75 83 9d 02 b5 3f 58 c2 51 09 7a b5 40 bf
       0.08207115611471309 -0.0005099149590375813
000070 89 eb 03 ab 45 6a d0 bf 35 a0 d7 6a 18 51 c5 3f
       -0.25648633671487936 0.16653733460339173
000080 c8 b6 7c 9c 9a fb b0 3f d9 6e 39 e0 92 0d c4 3f
       0.06633917160499003 0.1566642374844978
000090 52 3a fa 94 2d a2 be 3f 93 cf 85 83 38 f9 cd bf
       0.11966214072365602 -0.23416811391836898
0000a0 62 b1 41 c9 c5 ca cd bf f9 4f 47 32 84 1b b7 bf
       -0.23275062872870494 -0.09026361682418828
0000b0 f0 b8 ba 32 f2 8b ca bf 67 ed 78 a4 17 10 e0 bf
       -0.20739581563015674 -0.5019643986083054
0000c0 83 1b 92 e4 2e 73 95 3f f1 43 49 32 7a 74 db 3f
       0.020947201443529472 0.4289842120243171
0000d0 ab 38 76 ed fc db c7 bf 2b 65 12 ab 37 61 c5 bf
       -0.1864010009271103 -0.16702934125059107
0000e0 86 d9 40 e0 a9 de c8 3f 1b 89 75 bd 62 cf ad 3f
       0.19429515313977336 0.05822285235150756
0000f0 6e be 8d 4d 80 6c ac bf 13 5b d5 19 16 e3 c5 bf
       -0.05551529833507805 -0.17099262486836916
000100 b6 f7 8d 99 1e 73 98 3f 0e 0f 6c c7 fb 8c d2 bf
       0.02387664615843451 -0.2898549506646625
000110 43 11 88 a6 b8 ef c0 bf 40 ed 52 de 46 1b 94 bf
       -0.13231571322843125 -0.01963530284841153
000120 eb df a3 b3 45 dd cc 3f 96 fe 48 bc 5d 30 c3 3f
       0.22550269385806074 0.14991351789102642
000130 b0 13 eb 6e b9 fb cb bf e1 20 6b 7b 48 43 b1 3f
       -0.2186195174782859 0.06743290913721324
000140 c0 63 a8 4f 35 33 c3 3f 03 54 74 40 11 cf d6 bf
       0.15000025167026187 -0.3563883904874389
000150 ce 20 fb 25 5c e1 a2 bf 8a 1c c6 ca 4d 6e cb bf
       -0.03687561000475768 -0.21430370713298813
000160 da 11 54 f4 ba 74 a5 bf 51 7f e5 61 1e 4c bc 3f
       -0.041906206441158125 0.1105364789013923
000170 8b 8a 6f c5 80 51 b0 bf 58 56 6e ec 86 c1 d0 bf
       -0.06374363727767667 -0.2618119534393819
000180 8a 55 6a 11 95 09 aa bf 50 dc 8a 92 b4 3b 92 bf
       -0.050854357124232655 -0.017805882877578505
000190 27 0b d7 50 46 0c b2 3f 12 cb 4f 2b 92 dd 9c 3f
       0.07049979661591675 0.02818897618630973
0001a0 41 b6 d0 64 7d 39 ba 3f 30 3f 10 f8 f1 fd c5 3f
       0.10243972503004618 0.1718122922179588
0001b0 cf fc f1 ab 5a 1b c5 3f fd fe 5e ad ea 63 bb bf
       0.16489728351368746 -0.1069933579701647
0001c0 42 ac 4b ca ef ad a0 3f 5a 48 39 bc c6 96 d0 3f
       0.03257703155926396 0.2592026556131991
0001d0 0c ed ee 06 d2 8f 9f bf b8 d7 48 54 20 45 c8 3f
       -0.030822068856406523 0.18960956683593877
0001e0 06 f4 f3 df 3f b4 cf bf 7b f4 b4 a0 25 0e d7 3f
       -0.24768827853395708 0.36023846334484916
0001f0 bb 2c bc 79 57 50 c4 3f bc 5a 72 1d 5c b0 bf 3f
       0.15870183414549452 0.12378478735841275
000200 b8 32 11 ee af a1 82 3f d6 4d eb cc 69 10 c3 bf
       0.009097456410154123 -0.148938393648321
000210 4d 61 df 62 bf f1 bb bf 78 11 6b 70 7c 6b bf 3f
       -0.10915752567178068 0.12273385758004973
000220 a2 18 23 d1 1d 76 c0 bf b6 da 19 05 d1 99 d0 bf
       -0.12860462867519568 -0.25938821313995264
000230 8e 94 9d 5f 9b 02 91 3f 1f 01 41 3f f8 5a e4 bf
       0.016611507140073693 -0.6361047015598479
000240 37 7b 75 c5 09 e5 d2 3f 1d c1 46 73 e4 50 a1 3f
       0.2952293804464036 0.03382028491194176
000250 f9 73 c2 74 8a a4 c6 bf 96 76 4f 13 ec d8 a5 bf
       -0.17689638806487532 -0.0426706098148603
000260 00 36 b4 73 61 6b b3 bf a6 3a bc fd 74 ce d4 3f
       -0.07585724901965563 0.3251011350520606
000270 8d a4 ba 57 ab 1e bf bf a3 14 2a 7d 5f f5 cd 3f
       -0.1215617264921482 0.23405068980733743
000280 46 c4 b4 f9 63 3e d6 3f df e8 08 7d 68 52 c4 3f
       0.34755801568377753 0.15876489739623076
000290 5f d4 5e e5 2b 5a cf bf 3a db 26 b5 1f e8 e7 3f
       -0.24493931483962947 0.7470854318733935
0002a0 c7 3a 70 21 38 1d ce bf 5d 16 f2 0c d4 f8 d8 bf
       -0.23526670105680678 -0.3901872755453491
0002b0 e4 6d e2 44 0c e4 d1 3f 39 3a cd 0a 7a a3 cd 3f
       0.27954394080162914 0.2315514137976196
0002c0 43 d1 b8 cc 46 ca cd bf 85 98 a7 da 98 e5 ad 3f
       -0.2327354907626021 0.058392311755413075
0002d0 70 10 b6 bb 08 92 b1 3f 7d 2d 68 37 25 2b db 3f
       0.0686345537452 0.4245083848079146
0002e0 53 ab 0e 92 7d eb b0 3f 25 d0 e9 43 c9 27 d1 3f
       0.06609330001689999 0.2680533564773689
0002f0 c8 7e c2 9f e9 79 c9 3f 8d 74 d0 69 c9 4d c1 bf
       0.1990329771115198 -0.1351863638564378
000300 63 c3 a9 bc 83 22 cc bf c3 c6 3e 50 d4 03 d2 3f
       -0.21980330192630068 0.28148372494170476
000310 19 71 76 83 21 ec e3 bf 92 28 f1 c7 ec 35 e2 bf
       -0.6225745742445127 -0.5690826325528795
000320 44 5b ed c1 7c ab d2 bf 53 53 90 ce b8 e7 c7 bf
       -0.29171675623131343 -0.18675909124490406
000330 11 8c d4 d1 9a 57 e1 3f 90 49 61 c9 cb ef c4 3f
       0.5419439409491834 0.16356799443253722
000340 8a 85 a3 e6 ad 37 9a bf 27 b8 9a 01 ad ba c4 3f
       -0.025603024675438436 0.16194689348543642
000350 8a 75 fd 36 21 04 c3 3f 75 a4 7c c4 4d ef 88 bf
       0.14856352982580417 -0.012175185736469122
000360 06 60 ba 8a 3f 87 da bf c0 40 32 ec 0c 30 d2 bf
       -0.41450489566477733 -0.2841827684978959
000370 d2 3c b5 48 4a aa ba 3f a4 f2 9f 1d a5 59 c5 3f
       0.10416092181297934 0.1667982477810216
000380 67 78 e7 39 bf b3 b3 3f 74 c3 33 5b 49 ff d2 3f
       0.07696147121120732 0.2968314543386932
000390 eb 99 57 9f 32 d7 a8 bf 84 fe 66 26 40 8f e3 bf
       -0.04851682849021074 -0.6112366437955221
0003a0 33 ae 77 dd 04 70 bc 3f f3 2b 4b 93 26 29 c8 3f
       0.1110842743580001 0.18875581924507365
0003b0 55 47 94 86 85 3c aa bf 32 a6 2b e7 25 41 b2 3f
       -0.05124299304783501 0.07130658048449659
0003c0 df 2a d1 fd 0f 8a d2 3f b7 2e db 15 b0 43 ac 3f
       0.2896766642267447 0.055203917186728395
0003d0 eb 84 11 a9 ca 5c d2 bf 75 a8 d0 2b 30 72 5e bf
       -0.28691355238522814 -0.0018582792683994574
0003e0 fe 3a 12 b1 69 da cb 3f d3 c0 9c 24 4f 14 b6 3f
       0.21760293146186166 0.08624739307265665
0003f0 78 fe de 2f f8 e0 c6 bf f7 18 f1 47 a3 ee a7 bf
       -0.17874052369551285 -0.046742537052113
000400 0e 70 96 12 f7 6b db 3f 86 98 bb 0d 32 ff d8 3f
       0.42846466841888364 0.3905758985623681
000410 d2 24 62 7e 0a 32 ce 3f 78 18 67 4f b3 fd e0 3f
       0.2359021298509903 0.5309692908129042
000420 80 93 a6 8a bf 37 d9 bf 66 fb 96 be 6a 3b ce 3f
       -0.3940276006708743 0.23618826204434668
000430 e2 b3 c7 3c e5 42 cd 3f 86 6b 07 c6 46 95 86 3f
       0.2286039873864914 0.011026909750332835
000440 23 16 18 c8 1f 71 d1 3f 50 65 63 5d a0 e4 d0 bf
       0.27252954998434314 -0.26395424957225533
000450 b1 5d 8f da 5e a8 cf 3f f2 63 c4 87 fd 0b 87 bf
       0.2473257605731596 -0.011253338533196076
000460 7e 17 7a 1a 2e 6e 79 3f 4f 76 cb de e8 2a 99 bf
       0.006208591548448326 -0.02457774982291588
000470 08 03 7f 21 0b 19 d2 bf 84 63 98 be 95 be b5 3f
       -0.28277853270633146 0.08493934539036557
000480 b9 34 b2 15 49 7e af 3f 33 d5 62 32 bf 0d ab 3f
       0.06151035680623224 0.05283925523819235
000490 05 de 96 c0 61 56 aa 3f 7a a4 42 a6 76 d4 c5 bf
       0.051440291175307386 -0.17054637067966266
0004a0 de 8d e7 07 94 af bf bf 47 be c3 03 4e 5c d0 bf
       -0.12377286141377605 -0.2556338345302475
0004b0 e0 96 ff 30 0f 3b 6d 3f 93 3f 99 0d 08 7c c7 3f
       0.0035682007510214747 0.18347263969417024
0004c0 c2 11 20 b0 1a 49 b6 3f 9c 4d 1c 16 6c 6b b7 3f
       0.08705298232968686 0.09148288287933898
0004d0 3d 2c c9 d3 dd 22 c3 bf 13 2f 1f 56 db 47 d0 bf
       -0.14950154152970355 -0.25438578996976097
0004e0 b9 3d 53 8e 88 1a b6 3f e1 9d db 4d 26 ed b9 bf
       0.0863423678849732 -0.10127486611201376
0004f0 a4 45 41 6a c7 ed a1 bf 8b 54 9b d9 96 76 9b bf
       -0.0350172345357678 -0.026819569617903254
000500 ca 65 0e 00 65 4c c2 bf 61 36 d9 73 98 84 c7 bf
       -0.14295637610193374 -0.18373399407066685
000510 df 5d d3 da 61 d3 c5 bf 12 02 88 ba 12 3c b0 3f
       -0.17051337418409582 0.06341664365755431
000520 06 db d1 e4 b1 eb a2 3f 40 cf a5 7e da 83 a4 bf
       0.03695445936403101 -0.04006846233360628
000530 ee 70 8d d1 71 05 d6 bf 0f d8 14 c1 8e 1a bb bf
       -0.3440823122416664 -0.10587398733045482
000540 2a f3 ef 10 bf 0e c2 3f 61 d5 63 ef 02 40 b4 bf
       0.14107502295510105 -0.07910173744661143
000550 eb 69 0f dc 29 c1 b2 bf ba ab 78 2f 91 73 ae 3f
       -0.07325994131625861 0.05947545723423482
000560 ad 5f 3d dc d9 4c ce 3f 84 7a 4e 1c d7 25 c4 bf
       0.2367203069104539 -0.15740479356914616
000570 39 50 aa d5 d4 3d b2 bf a3 5e 1e 01 a3 88 b3 3f
       -0.07125597206533109 0.07630366113005009
000580 65 f4 ac 8a 27 07 ae bf b6 29 83 58 8c 49 c8 3f
       -0.05864833419625696 0.18974451372043938
000590 3b 0a 55 6f 3a ab ca bf 8f 05 d5 ff 90 d0 bf 3f
       -0.20835047184125863 0.12427622075940391
0005a0 ee 33 8c 5e 22 eb c0 3f 23 b7 2c 52 6c a5 bb bf
       0.13217572800240823 -0.10799290662972942
0005b0 48 a5 0b 2e ea b0 90 3f 80 d4 ae 88 10 2c b6 bf
       0.016299876270669672 -0.08660987221704097
0005c0 2d e2 12 6d e8 f3 c9 bf 78 8a a1 8d ae d0 bd bf
       -0.20275597883097998 -0.11646548230923226
0005d0 eb 6f b6 6d be ca a5 3f d3 a2 cc 59 12 da c9 bf
       0.042562437908799065 -0.20196751961454726
0005e0 09 1f 3c 2b 66 37 d3 3f 76 ac d9 19 5b ca e3 3f
       0.30025629255440883 0.6184516434563097
0005f0 b9 f3 5e 15 1a cd cf 3f 07 90 32 d0 04 69 e0 3f
       0.2484467129087571 0.5128196779592152
000600 04 8f 77 5d a7 f3 da bf c3 df 79 7e 2a 1c d1 3f
       -0.42112144591941125 0.26734411574534195
000610 1e 00 08 be 76 8c c6 3f d2 e8 72 c5 b7 06 cd bf
       0.17616161612386433 -0.22676751271303047
000620 ca 2e 48 a0 ee d0 c0 bf 8f 3a f1 66 7e 6a a3 3f
       -0.13137610269801875 0.03792185789699431
000630 c7 d8 4f 2e ad ae d0 3f 5d 88 50 1d 6a 74 b4 bf
       0.2606614067330039 -0.0799013444489289
000640 14 0b 82 ef 17 18 c0 bf 43 e3 e1 d1 08 a5 cb bf
       -0.12573527521825467 -0.21597395179903786
000650 f5 50 27 90 c2 5c bb 3f 99 79 4f cf f1 a2 de bf
       0.10688415545820702 -0.47869534726296475
000660 94 82 c9 49 0a 53 d3 3f 09 bc 25 b3 1f 0a c2 3f
       0.30194337087417833 0.14093395469123518
000670 5b 59 b0 3d c7 3a d5 bf b2 1c 22 99 87 87 98 bf
       -0.33171254181197235 -0.023954504701148856
000680 8f d7 b9 c7 3a 5a 98 3f 4d 45 bf ef 47 bd c3 bf
       0.0237816986468356 -0.15421389776615016
000690 06 15 fb 18 77 22 c1 bf 46 1d fd cf b3 55 af bf
       -0.13386429519429316 -0.061200732363938345
0006a0 68 34 82 87 a6 d6 cb 3f 0d 30 11 21 18 26 c3 3f
       0.2174881135619302 0.14960004438978594
0006b0 23 9a f1 1b d1 ef cb bf 91 ce 85 ff 04 48 d0 3f
       -0.21825612892571752 0.2543957228983596
0006c0 e8 fa f5 e3 44 5b bb 3f 15 67 11 bf 31 6b b8 bf
       0.10686140599680594 -0.09538565554376206
0006d0 bf d0 f2 30 0e 5d d6 3f 18 93 11 a2 7c a5 a2 bf
       0.34942965297819834 -0.036418814452906456
0006e0 09 47 ec a3 00 dc cf 3f 6d 9a 43 9c 70 1c c0 3f
       0.24890144352007607 0.12586791639406006
0006f0 bc 33 6e 33 e8 19 a7 bf 7a eb 94 67 64 63 d2 bf
       -0.045119529989370716 -0.28731641879465253
000700 f7 14 f5 26 cd 5b af 3f e4 4a 14 06 f5 04 c1 bf
       0.0612472639136658 -0.13296377941931958
000710 67 45 3e 93 4c ab cd bf 28 44 23 86 4b cb b1 bf
       -0.23179013433086057 -0.06950828575942636
000720 b9 ca 7f c5 6a 0e b0 3f 5a ad f0 ba 2d 6d c5 3f
       0.06271998712308403 0.16739436748444342
000730 18 96 2f 9d e1 52 ab 3f b4 17 b6 72 ad eb 94 bf
       0.053366709172945004 -0.020430288435384816
000740 f8 16 76 b9 42 cf cc 3f fe d0 79 c3 61 ef d0 bf
       0.22507509284712746 -0.2646107109969903
000750 7a b7 6e 67 22 e4 c9 3f 1f da a4 d8 4e 12 cb bf
       0.20227460909284983 -0.21149621561353713
000760 1b cf 92 e9 cc 4c d0 bf 3c 3f 71 50 ae a7 b3 bf
       -0.25468752679738466 -0.07677735771107747
000770 c5 c1 71 bd 02 54 d1 3f 76 59 fe 2f 93 1b c5 3f
       0.27075260639597004 0.16490402072367844
000780 9a d2 63 72 71 46 cf bf 51 45 9b 9b ae 4c cd bf
       -0.24433725438543236 -0.22890265081381725
000790 95 32 1b c4 2b 04 c8 3f 91 aa 18 d7 09 6e ae bf
       0.18762728763103512 -0.059433276659850105
0007a0 4c ce 17 7b 3f a3 d0 bf aa c1 df 75 88 27 c0 3f
       -0.25996386547851524 0.12620645289963522
0007b0 7e 4b 59 90 75 2f c3 bf 95 10 c9 04 df 88 bf bf
       -0.14988584087640427 -0.12318223826247483
0007c0 b0 4c e9 bb d5 c1 c7 bf ce 7f d3 56 db bd a9 3f
       -0.18560287165982947 0.05027661738290555
0007d0 b4 d6 a8 a9 56 b6 83 bf 51 f6 2b 9c 44 a0 ca 3f
       -0.009625126888845294 0.208015991454817
0007e0 f0 d0 fe 67 76 75 d5 bf a7 7f fc 4e 4a af ba 3f
       -0.33529434352682497 0.10423721722008726
0007f0 fd d7 36 10 22 fd b4 3f 05 f7 60 53 62 1a c3 bf
       0.08198750396590522 -0.14924267836789099

linears.1.bias f8 [30]
000000 30 b3 62 da 9e 60 ba 3f 3e 2a 34 8a c0 15 af 3f
       0.10303681213072191 0.060712830420091
000010 6c 9d 34 ab af 97 63 3f 62 eb 04 05 a6 58 b1 bf
       0.0023916655569739455 -0.06775891897716016
000020 1f 4b 24 d7 2b 00 b0 bf dd be 48 70 8f 02 ac 3f
       -0.06250261309132242 0.054707033592760836
000030 5e ed 02 57 78 22 a1 bf 90 16 d9 1c 3e 2f b8 3f
       -0.033466110822213166 0.0944708652906121
000040 77 77 bb 17 d8 78 b1 3f 66 50 b3 5c 3c ee 7a 3f
       0.06825018481637622 0.00657485560369162
000050 1d 04 71 d3 2d 9d c2 3f 9e d9 98 15 c2 ef a8 3f
       0.14542172264376144 0.048704209457741884
000060 e6 36 35 d2 70 02 be bf 48 2b 50 dd 0b 94 b0 3f
       -0.11722474224117327 0.06475900796082812
000070 cf ae cc de d2 2d b1 3f 9b b7 fb 97 5d 2f 79 bf
       0.06710546435777619 -0.006148686981516517
000080 2f a7 6d b7 f3 5d ad 3f 85 85 c5 a0 e4 85 be 3f
       0.05735742200961479 0.11923054623686909
000090 e1 bf a9 23 30 f2 b6 3f ed d1 1d de 36 3e ae bf
       0.08963299627953304 -0.05906840764410846
0000a0 8d 30 d6 f0 b2 f9 b6 bf be d2 27 72 14 f5 a5 bf
       -0.08974760417749135 -0.04288543599606019
0000b0 88 32 3c b7 b0 46 81 bf 94 17 d2 64 f4 71 b3 3f
       -0.008435612289326558 0.07595756017152971
0000c0 1f 73 2c 6a 7d 8e a3 bf b8 65 dc 93 92 35 a1 bf
       -0.038196486673973455 -0.03361185126250227
0000d0 80 ca 37 75 77 7b a5 bf 62 dc 85 a7 6e 09 b5 3f
       -0.041957600649671356 0.08217517461695104
0000e0 6b ee be d2 c9 1b b4 bf 70 35 f7 cc 68 85 b7 bf
       -0.07854901690637354 -0.09187941555065549

linears.2.weight f8 [30, 30]
000000 fa 5c 1d 66 b5 bc c6 bf 4c 5c d1 97 43 fc c2 3f
       -0.17763392911977133 0.14832348740557888
000010 ae 9b 35 69 99 3e d1 bf 31 a2 35 35 d2 d7 d6 3f
       -0.2694457557139981 0.35692267605057554
000020 5b 24 be 35 d2 41 d8 bf db 74 1b 31 67 40 b6 bf
       -0.3790174031096904 -0.08692021321208492
000030 09 ef 36 a1 1b 70 c7 bf 3d 7d 90 de d1 2b c9 3f
       -0.183108762472209 0.19664977424052124
000040 df 99 89 21 81 d3 c6 3f 55 18 c1 f2 33 18 d1 bf
       0.1783296025998444 -0.2671022291800729
000050 38 4f 02 6b 72 72 c3 bf 80 ca 24 61 36 97 c2 3f
       -0.1519301435952174 0.14523963683457808
000060 21 54 9a c6 e0 e0 cb bf 8c d7 b1 51 65 4d d0 bf
       -0.2178002328625164 -0.25472386339185316
000070 79 c1 f6 4a 64 e2 bd 3f 0b 75 6d 00 23 3d db bf
       0.11673571424649322 -0.4256064895797215
000080 92 65 50 59 7e 6a a4 3f b8 10 97 00 3f 15 c9 3f
       0.039874981310457205 0.1959608796006529
000090 8f fd 1d 2f af b5 d0 3f 4a 68 e9 e5 46 1f b7 bf
       0.26108913041385845 -0.09032099831657195
0000a0 4a 40 20 ee 2e 8a bf bf 57 dc 84 2d 64 15 c3 bf
       -0.12320226014731009 -0.14909031126601022
0000b0 5b ba 13 f6 4d 30 c8 bf 39 35 89 e1 f6 37 c4 bf
       -0.18897413745385702 -0.15795789730547385
0000c0 fc d8 a2 39 97 b9 d5 bf 38 cd 56 3a 0a b4 c7 bf
       -0.3394525587895172 -0.18518188332164143
0000d0 50 68 56 e7 4d 0b c3 bf 7f a7 9d d6 73 20 d0 3f
       -0.14878248019960205 0.2519807430131706
0000e0 18 04 77 c9 65 da ad 3f d6 24 42 68 45 76 ce bf
       0.05830686649597555 -0.23798434820881792
0000f0 84 62 a5 b2 3d 86 c4 3f 53 62 6a 86 e4 ce cd bf
       0.16034671042395499 -0.2328763634038916
000100 d2 db e4 07 a0 01 cf 3f 38 cf a1 2a 86 f7 c7 3f
       0.24223709474037364 0.18724133569377854
000110 cd ea 41 c8 e7 82 c6 bf 7a 71 fc 2d 3e 93 c9 3f
       -0.17586991575429636 0.1998059963742767
000120 c3 0d 22 67 79 1a ca 3f 4a 70 da 23 6f cd cd bf
       0.20393292938034166 -0.23283185244224774
000130 fc 02 c8 2e df a5 b8 bf cc df 5e 7c c2 69 ba 3f
       -0.09628100292321656 0.10317626510993633
000140 91 54 6b 77 58 b7 ce 3f 3d 99 fa 09 37 54 c6 3f
       0.2399702628232814 0.17444503772021305
000150 2f 3c d5 01 cb 2c d1 3f f8 05 c1 0b 36 83 d8 bf
       0.26835894755362494 -0.38300849101878454
000160 1a d8 e8 5c d9 d1 c5 3f 20 ad 45 29 91 68 bb bf
       0.170466585508337 -0.10706431634541902
000170 48 71 bb ff 10 8d c7 3f c1 63 c3 f8 72 e5 b1 bf
       0.183992504948842 -0.06990736554452238
000180 e8 60 b4 95 8f ce 92 3f b0 f1 95 f6 e9 c6 9a bf
       0.018366092216724278 -0.02614942138232984
000190 38 17 e0 9f 98 1b c1 3f 38 3a 8a 18 f1 54 cc bf
       0.13365466886915 -0.22134221742858684
0001a0 90 ed 90 5b 8e ec b2 3f 93 1f e1 49 ec 90 c9 3f
       0.0739220593977079 0.19973519904510492
0001b0 09 fe 0a 2c 50 a4 d0 3f c0 b0 cb 34 46 71 c0 bf
       0.26002888012951125 -0.12845685556329123
0001c0 28 86 e6 11 ff f8 c2 bf 3b 00 03 67 64 f1 d0 bf
       -0.14822376607939813 -0.26473341045130255
0001d0 e7 a9 a2 47 55 f7 9d 3f 8f 0a 24 9b d3 34 d3 3f
       0.029263813493040216 0.3000992789313068
0001e0 87 3c 73 81 7b 22 ad bf a3 c1 ff 8b 3d 01 c1 bf
       -0.056903705169696166 -0.1328503545369247
0001f0 1a 51 bc 3b 33 a4 ca 3f d7 f1 41 d0 df a3 cc 3f
       0.2081359903028293 0.22375104588344527
000200 45 4e 0c 87 ee 2c de bf 78 b6 30 ad 13 b9 b2 3f
       -0.47149241627014177 0.07313654878881859
000210 af 7b 61 4b 69 3e e3 bf 6b f8 9b 8e 95 7f b2 3f
       -0.6013685676842807 0.07225928050681467
000220 01 b3 f0 eb cc 5b cf bf f3 1e 2b e2 cc a3 b8 3f
       -0.24498902817267523 0.09624939462366537
000230 6c 01 0d 25 57 04 c7 bf 80 1f 26 47 5b 91 d5 3f
       -0.1798199587738155 0.3369968600095419
000240 56 6b a4 ef d6 d8 d9 3f 65 ad 39 ac 99 10 75 3f
       0.4038598385101769 0.00514278438968616
000250 2b fc fa e3 aa e3 be bf 3d cf d1 d4 75 65 dc bf
       -0.12066143098762498 -0.4436926439586733
000260 1e c5 2f 8a 77 98 83 3f 8f c8 1a b7 ff 35 c7 bf
       0.009568151383037956 -0.1813354152741948
000270 5c 38 0b b3 51 a8 d9 3f 5c 2d 62 8c dc 0e dc bf
       0.40089838490246676 -0.4384070750172293
000280 5f b1 4c a0 9e da cb bf f0 3f 38 03 92 8e d2 3f
       -0.21760924174430848 0.28995180429865197
000290 b1 ab 18 75 b2 6d d7 3f e6 1d 2a 07 d7 69 d4 bf
       0.3660703795928227 -0.31895995807323485
0002a0 9e 18 8f dd 56 5f c4 bf 87 79 28 cf 2b 73 98 3f
       -0.15915952509221126 0.023876842993666905
0002b0 5e 88 a8 fa dc a1 dd bf f1 4f 04 7b 39 f2 d5 bf
       -0.46300434568741433 -0.3429092122398734
0002c0 fb 6b e1 90 66 74 9a bf 45 95 9b 63 55 12 c1 bf
       -0.025834658234412427 -0.13337199557933324
0002d0 66 02 ac 33 1b 40 c4 3f 65 d1 17 b9 76 bb a8 bf
       0.15820636771242674 -0.048305234999051185
0002e0 c5 d5 a7 4e 74 01 d7 bf 28 82 4c 0d aa c1 c6 bf
       -0.3594637649651669 -0.17778516435011338
0002f0 b9 34 fe f4 8f f9 d3 3f 0a 65 68 f8 4d e1 dc bf
       0.3121070759305656 -0.451251499734625
000300 2f a6 bd 83 e4 31 d1 3f 52 90 91 06 6c e0 ca 3f
       0.26867020478548204 0.20997381516201813
000310 18 08 c7 94 0f d7 d2 3f e6 a0 ff ca 7b 29 cf 3f
       0.29437627343225037 0.24345347797430533
000320 db 77 cb 04 83 0f b0 bf 56 28 73 f4 36 37 91 bf
       -0.06273669116077889 -0.016812189741166904
000330 22 54 5e b6 84 f4 ca bf fa 4e 67 09 d7 c2 d0 3f
       -0.2105871096106578 0.26189208906474415
000340 4b 12 13 05 c1 c1 8a 3f 6b 28 76 28 88 a3 b9 3f
       0.013064868895875345 0.10015154826956667
000350 e5 e1 d6 1e dc 2d b2 bf 4e d7 2f f3 30 35 d4 3f
       -0.0710122657100168 0.3157465338584772
000360 25 27 ad 17 d5 ee d2 bf bf 48 5e c0 13 8b c1 bf
       -0.29582717239519446 -0.13705679791434552
000370 5b 2a 1b fc 60 ee d5 bf 40 a2 f9 c2 dc 24 c1 3f
       -0.3426744901632099 0.13393744964857213
000380 45 e2 fc 90 6e 34 9f 3f 84 91 95 e3 a0 4d b3 bf
       0.03047344932494613 -0.07540326648956436
000390 31 03 0a 78 ce d5 ce 3f 8e c7 eb 2a 3a 63 c2 3f
       0.2408998571518395 0.14365317435982344
0003a0 66 70 bc 34 f0 19 c7 bf a0 80 40 40 cf 41 ca 3f
       -0.18047907423977277 0.20513334882071366
0003b0 b9 e7 6e 0c 14 32 c8 bf 42 bf 0c 35 8d 93 c4 3f
       -0.1890282688817118 0.16075291719743673
0003c0 06 1c 48 c1 0f 70 c9 3f 21 73 42 32 df bc d0 3f
       0.19873234689313807 0.26152782352601106
0003d0 95 54 4a bf 67 b5 ca bf c2 3a 5c 7c b0 c8 c1 3f
       -0.2086610492739608 0.1389370543697251
0003e0 cf 28 4f 3b 42 1d bd 3f 98 52 a4 d4 3b cb d1 bf
       0.11372770259837071 -0.27802940145310506
0003f0 27 6e e1 30 d7 a4 dc 3f 66 61 5c 11 18 e4 ca bf
       0.447561071143101 -0.21008587691973019
000400 50 51 dc d2 3e ce ce 3f 8b 7b 08 bd 5f a8 85 bf
       0.2406691102593279 -0.010575054127057523
000410 36 e9 71 20 27 73 d0 bf f9 20 ef 9c ef 92 d6 bf
       -0.2570283715100631 -0.3527182610091724
000420 2d 10 e2 4c 0f a8 96 bf 52 f6 bd cc 63 ed d2 3f
       -0.022125472133225955 0.2957391261514647
000430 3c d7 40 8e f7 b9 a1 bf b8 86 75 5a 9e 56 a0 3f
       -0.034621940722372874 0.03191084722744847
000440 f7 ce 58 1a 76 5b c6 bf ae 21 10 29 16 d1 b1 3f
       -0.1746661785742771 0.06959665777697552
000450 14 e5 44 65 ce 9b bf bf c6 3b 40 c7 fa a3 d5 3f
       -0.12347116444006573 0.3381335206803978
000460 22 06 a4 39 f4 8b c4 3f ad ee 85 5b b6 b7 cd 3f
       0.1605210572670766 0.23216895550637187
000470 4c 1f 2b 8b e2 65 c0 bf a5 b4 42 47 09 67 a4 3f
       -0.12810928149542133 0.0398486041534423
000480 8f 61 dd 38 94 d3 b3 3f be ab 0d e9 2a 83 a5 3f
       0.07744718921947523 0.04201635451212081
000490 a4 7e 9e 94 8c 58 d8 3f a3 0b 39 53 c0 8d d4 3f
       0.3804046107634156 0.32115181090574135
0004a0 ae 3b ce 25 b3 3f be 3f b1 7a dc 05 ae d9 86 3f
       0.11815948174465404 0.01115737872492892
0004b0 06 7a 61 5d 67 1b c2 3f 83 ae 46 92 c2 d6 d1 bf
       0.14146129665000745 -0.2787329128720801
0004c0 5f 20 f7 46 85 67 d3 3f 95 d6 a8 59 40 6d d8 bf
       0.3031933968563915 -0.3816681743222515
0004d0 6b 40 f4 a8 39 0d be 3f 00 68 5b e2 8d a2 d5 3f
       0.1173893010602584 0.3380465231435892
0004e0 d5 6f ca e6 95 38 da 3f ac c7 b8 fb 1e 92 c4 bf
       0.40970370805893924 -0.16070925990203244
0004f0 79 f4 f5 01 14 ef dc 3f dc 6f 55 34 96 5c 99 bf
       0.4520921725414336 -0.024767252868841058
000500 9e 69 72 3f c5 bb c1 bf 5b de ac 2b 74 03 bb 3f
       -0.13854280088419285 0.10552145067492218
000510 b5 36 25 99 47 fe bc bf ab 27 4a 82 e3 61 cd bf
       -0.1132550000085882 -0.22954982625770745
000520 1a e1 b2 09 0b 8d ca 3f 3d 45 33 c0 79 2a b8 bf
       0.2074292943341412 -0.09439812605275662
000530 fb ce cc b1 e9 4d c7 bf c9 cf a8 fa c4 12 c3 3f
       -0.1820652120746827 0.1490102981493904
000540 ce 29 ae 6e 86 90 9b bf a9 b2 c0 61 f4 32 a6 bf
       -0.026918507104292826 -0.04335750287314017
000550 b1 b3 65 d6 10 ee b7 3f 4c 7d f1 ed f5 96 d8 bf
       0.0934763453894465 -0.38421390759136353
000560 49 03 6e e6 c9 8d aa bf d6 18 84 40 10 68 b3 3f
       -0.05186301172125824 0.07580663275811914
000570 1a b4 70 68 f2 37 d5 3f 31 c8 54 8d 5f eb c1 3f
       0.33153972815745336 0.1399955215543414
000580 07 d4 3b 99 b8 99 c9 3f 8c c6 06 83 65 ac ba 3f
       0.20000369531740622 0.10419306229484898
000590 13 ff ce 06 c0 d5 67 3f b7 2c f4 ee 0f 10 c6 3f
       0.0029095411796048547 0.17236518066088077
0005a0 f9 e9 dd 46 76 7b b0 3f 63 96 d5 12 e4 a8 ce 3f
       0.06438388090274562 0.23952914161343405
0005b0 da 73 2f f1 54 c9 c1 bf 80 18 34 26 d4 18 b8 bf
       -0.13895665909413318 -0.09412885601713761
0005c0 5b 55 d9 96 fd a6 d1 bf e5 35 ed a9 6b 34 c0 bf
       -0.27581729632705326 -0.12659974858472292
0005d0 d6 53 3f ac 88 fc de bf 36 55 7e 3f c4 c2 a6 bf
       -0.4841634447196247 -0.044454701185865295
0005e0 57 c4 bb 49 a4 cf cd 3f 5d ef 7d 80 9e e3 de bf
       0.2328992233301814 -0.4826427702716865
0005f0 df f2 11 4c c6 c2 a5 bf 4b 77 2b 68 2a 21 c6 bf
       -0.04250163725462185 -0.17288713537612418
000600 5d d8 b6 a0 2b 10 90 bf 58 12 0d 99 7f 4b cd bf
       -0.01568668526098126 -0.2288665292091021
000610 84 30 03 39 a2 23 c6 3f 1e 94 6b 3f 50 1c d3 bf
       0.1729624536877773 -0.29860311692601893
000620 94 dc ee ba e1 c2 d7 3f d1 fe d2 1c 60 53 d3 bf
       0.3712696385877703 -0.30196383299697255
000630 d8 4f d1 b7 44 86 db 3f fc c9 d6 59 59 b1 72 3f
       0.4300700945943823 0.004563664462170266
000640 46 97 34 db 53 b1 c4 bf 03 d1 9f 17 38 1b c2 3f
       -0.16166160777464195 0.14145566133050388
000650 44 75 4f d6 90 3b d6 3f f8 9c 1f 72 2b 54 d2 bf
       0.34738560608623836 -0.2863873114096829
000660 83 f1 f0 05 f7 10 d1 bf 45 48 f0 40 99 1f b1 bf
       -0.26666045742219796 -0.06688840709128481
000670 a9 af 87 d6 06 9e ca bf a8 3d 5d b4 aa 31 51 3f
       -0.2079475924978145 0.0010494391476248786
000680 d1 e8 c5 5a fc 40 93 3f fa c9 c9 59 be ae d7 3f
       0.01880258850130973 0.37004050033934244
000690 4c cb 46 e0 c9 04 c4 bf ea b3 b4 19 52 d6 b0 3f
       -0.15639613581660183 0.0657702744253609
0006a0 e1 b4 65 44 9d 2f a3 3f 2d 1e 04 17 1e 09 e6 3f
       0.03747264347007629 0.688612980798046
0006b0 52 44 4f 3f c7 54 e2 bf 5b df 82 84 2d f2 bc bf
       -0.5728489147678693 -0.11307034001481268
0006c0 d9 de 68 42 2e 68 e1 bf 43 95 9b 1a 54 f1 c1 bf
       -0.5439673707068905 -0.14017726229864466
0006d0 40 c7 9a d2 9b fd dd bf f5 19 d7 54 4d 07 d8 bf
       -0.46860404555183166 -0.3754456833379714
0006e0 a9 bd b5 10 17 d2 cd bf 0d 6e 88 76 7d b8 69 3f
       -0.23297394100107496 0.003139729542693598
0006f0 91 85 29 d7 0a 0c e7 3f fe b9 f9 cf b8 56 a6 3f
       0.7202200128923996 0.04363038576854093
000700 9f 24 fd 4b 78 05 b0 3f 17 48 bc b5 32 20 db bf
       0.06258346419521608 -0.42384021518330556
000710 84 6e 80 28 37 c5 c4 3f f9 37 74 66 44 68 e4 bf
       0.1622685382616177 -0.637727928262165
000720 45 17 12 55 ea 33 e2 3f 00 1e f9 23 40 12 ce bf
       0.5688373242889858 -0.23493196255206783
000730 24 e8 95 37 66 84 c2 3f f9 ee 73 99 35 c0 bc bf
       0.14466550554408386 -0.11230788227470247
000740 f2 32 c7 5d ce f0 e4 3f c6 56 fc 52 44 00 c5 bf
       0.6543952781299522 -0.1640706448749169
000750 cf d0 77 94 28 58 e2 bf 98 fc 2b 42 3e 82 d9 bf
       -0.5732615375295839 -0.3985744138917169
000760 cf 34 9c 92 f3 a2 e1 bf 32 3a ee fd 78 b4 a9 bf
       -0.5511415351371854 -0.05020502185572119
000770 66 dd b5 46 0b be bc bf 65 f9 fb 5f c0 ee 7d 3f
       -0.11227484203651769 0.007307769264797014
000780 36 d1 41 0e 1c fc b7 3f bf 19 e6 44 77 0c 9f bf
       0.09369063709329314 -0.030320991115809322
000790 cc c6 fd 7e 5e 3f ba 3f ec 2c a2 9c 44 3e c1 3f
       0.10252943611501592 0.13471276901359575
0007a0 d5 f0 2a 76 1d c3 c0 bf 00 39 ca 54 66 92 99 bf
       -0.13095443982991264 -0.024972533154646648
0007b0 24 06 f8 93 89 76 bc 3f 04 97 c1 05 d2 66 d3 3f
       0.11118373739739035 0.30315065920000017
0007c0 e7 1e 95 54 f9 73 d2 3f 5d 2c 3f 79 84 37 c7 3f
       0.28832848796854055 0.18138175888302302
0007d0 9a e5 77 e0 bc d4 ba 3f e1 b9 a2 36 7e d9 d0 3f
       0.10480862121757753 0.2632747205306299
0007e0 89 1b 7a e1 17 43 b4 bf e0 dd 75 0f 82 f1 cb 3f
       -0.07914876227196833 0.2183077407350842
0007f0 d1 f0 ed 80 b0 2d b7 3f 6f 4c 71 7d 65 56 c2 bf
       0.09054091594402115 -0.14326161027074444

linears.2.bias f8 [30]
000000 57 8f 89 7d 40 f4 af 3f 3c 00 87 59 65 0c c3 bf
       0.06241036922872805 -0.14881579276516443
000010 8c 92 e6 02 29 44 ab bf c9 a9 60 c3 c2 ba ba bf
       -0.05325439606102575 -0.10441224355660163
000020 34 5e ea 5b 5a cb a1 bf cc ab b3 04 79 9b b2 3f
       -0.03475458499923115 0.0726848255614378
000030 96 40 86 e7 16 b4 b0 3f cc 87 3c 8f 36 2d a3 3f
       0.06524794723941549 0.03745432375423227
000040 28 dd 82 90 58 24 aa 3f 5f b1 4a bb 3e 10 ab bf
       0.05105854763081147 -0.0528583148601196
000050 3b 95 0b 9a cc 52 c2 3f a3 06 c3 c5 76 85 aa 3f
       0.14315183183422583 0.05179949916920392
000060 8a 8b 81 84 ec 8c ae 3f 72 73 2d 20 9f df ac 3f
       0.05966891400819126 0.056393597295687395
000070 b8 7e 65 76 a6 fc b2 3f 71 f1 06 f3 5d f9 ab bf
       0.07416763678110783 -0.05463689414634388
000080 0a c4 51 c0 0a 17 7b bf f0 c7 82 8d 1e c5 ad 3f
       -0.0066137714357958986 0.058144526266360574
000090 bd 0e 40 f5 12 1e b0 bf ed 15 43 1f 21 3b 78 bf
       -0.06295889365724867 -0.005915765174170568
0000a0 6d 32 9b eb e3 0c aa bf 7e 5b b7 28 80 a7 b3 3f
       -0.05087959528973305 0.07677460664795707
0000b0 52 45 ba 3f 59 46 a9 3f 48 77 13 5c 21 2f 91 bf
       0.049364842442751425 -0.01678135036933462
0000c0 29 0d b4 76 e3 d9 c4 3f 5a 0f e6 fe f8 58 a6 bf
       0.16289943023739653 -0.04364755736881305
0000d0 46 4c 32 0d 89 45 ab 3f 0a ba 83 af d0 5c af bf
       0.053264887677095404 -0.061254998612515335
0000e0 2a 59 7e 6b 40 e1 a6 bf 22 46 72 ba d4 d6 9d bf
       -0.04468728363206005 -0.029139827613624665

linears.3.weight f8 [30, 30]
000000 9e 5a 43 23 e7 d8 dd 3f 53 84 48 16 fe b0 b9 bf
       0.4663637012830949 -0.10035694164300084
000010 ac fe df 22 9d fc c3 3f 48 61 fe 54 68 14 ba 3f
       0.15614666178588743 0.10187389445343797
000020 df 2b a7 13 e4 bd c2 3f 7f 9e af 09 f0 df db bf
       0.14642001113529 -0.4355430693235362
000030 3f 51 e9 0e 2b b8 cf bf 00 54 51 8c b3 ef cc bf
       -0.24780786731811053 -0.2260651049752198
000040 b9 6a 02 f7 b1 c2 c0 3f 2e 8c 9d ed 68 29 b7 bf
       0.13094162522323474 -0.09047561455877037
000050 bc a9 bf 1a d1 ae a2 bf c1 50 f0 54 2d 53 cd bf
       -0.03648999644777315 -0.22910086295508417
000060 72 08 48 4d c2 e6 d2 3f 3a e9 42 91 70 e7 d0 bf
       0.29533441111573844 -0.26412595925980364
000070 fc c2 61 f5 50 b2 cb bf ac 18 25 24 b7 9a c7 3f
       -0.21637927991425687 0.18440903916252205
000080 f5 2d b3 8b 10 a7 c8 3f e1 e5 1b 8a a8 2e b7 bf
       0.1925984079483524 -0.09055570003319914
000090 11 ea 50 90 7f 17 ce bf a9 da 90 e1 e4 21 d2 3f
       -0.23509211107905562 0.28331872966684074
0000a0 7e 2b ae fd 16 90 c8 bf 5c b1 39 f3 74 eb b5 3f
       -0.191897271983489 0.08562403619879916
0000b0 ec 7b 3f 4b db 87 4c 3f ab ce 51 cf 99 97 69 3f
       0.0008706875582865626 0.0031240467165448336
0000c0 e8 26 56 cc 68 ac c3 bf f9 b7 63 2e 6a 41 bf 3f
       -0.15369901635522543 0.12209190018231188
0000d0 4c 29 c9 70 84 3e cb 3f 5d 93 db 8e b5 8f bc bf
       0.21284537798994518 -0.11156782853829612
0000e0 92 94 a6 3c 01 e6 98 3f cb 8f 4b 64 2e 6c d6 bf
       0.024314898802590586 -0.35035285753678796
0000f0 e7 ca 6b f6 c0 d4 d5 3f 9d 1a c0 be 2f 2a ce bf
       0.341110458989688 -0.23566242994293854
000100 52 86 3d f6 4c bf d0 bf cc 7d 02 c1 39 63 b7 bf
       -0.2616760639849406 -0.09135781252051983
000110 ac ce 12 b2 64 ad d4 3f 17 9f af 78 ca ad d7 bf
       0.32308308973299904 -0.36998235498184456
000120 77 cc 73 e5 dc 93 b3 bf 48 2e ab 37 8b 1b b7 bf
       -0.07647495843757378 -0.0902640353116847
000130 72 a0 29 f3 70 17 c3 3f 0a 89 94 e7 c0 0a d2 bf
       0.1491528689687161 -0.28190634360557054
000140 82 97 18 11 8d 36 ae 3f 5d 83 03 d5 9c 64 c6 3f
       0.059009941422387704 0.17494545365391448
000150 3c 61 f4 32 d5 90 c6 3f 19 67 38 a2 92 96 b3 bf
       0.176294946556263 -0.07651630840737446
000160 0e 24 be b0 ff a1 6d bf 20 e9 79 1c d0 a6 bc bf
       -0.0036172861054564248 -0.11192036338062339
000170 31 a7 95 67 04 12 d2 bf e3 ae 2e 22 ca 62 c5 bf
       -0.28234968295747637 -0.16707731885013918
000180 37 08 29 ec 9b 2a d1 bf 9a 88 0c 78 17 d5 c9 bf
       -0.2682256513836622 -0.20181554185643763
000190 e4 15 ce c8 a1 f6 c2 3f 9e 6e 13 1c 2b 1d c0 3f
       0.1481516104214925 0.1258901488389385
0001a0 a6 c7 59 45 aa f6 a4 bf 8d d7 f8 84 4a 3c d0 bf
       -0.040944405522977775 -0.25367987618971527
0001b0 75 7a d5 c4 94 49 c3 3f 87 9f b2 3d 9d 0f a9 3f
       0.15068301783590568 0.048947252065146656
0001c0 df 5c 39 7f 55 1c c8 bf 9b e2 f0 f4 1a 48 61 3f
       -0.1883646842204376 0.0021095777988445314
0001d0 2b f1 df 75 62 0e a6 bf f8 a1 fb 24 60 16 d0 3f
       -0.04307849587346121 0.25136569606414083
0001e0 60 92 0a c8 ea 1f d7 bf 36 55 d6 78 de 1e c1 3f
       -0.3613230660942346 0.13375454807525394
0001f0 7a 1a f7 15 86 95 c7 bf 43 d0 ff c5 13 dd ca 3f
       -0.18425060341379035 0.20987174194272215
000200 4b 16 cb 7a 40 1a ca 3f 85 4b dd 7b cc 46 92 3f
       0.20392614360587155 0.017848200855336244
000210 49 e0 61 d8 73 43 ce bf 68 ff 99 c8 bc f0 c4 bf
       -0.236433487563547 -0.16359672350881316
000220 cd 95 ff ae 69 2c d8 bf 39 b7 bc 84 ce 70 d3 3f
       -0.37771074380574704 0.30376017534841854
000230 a3 94 6c 1e b0 21 d2 bf af 21 ee 2a c4 2a c2 bf
       -0.2833061501608631 -0.14193012329293483
000240 1f 3d 28 8e a2 cc d2 bf 26 2c fd d8 4b d3 cc 3f
       -0.2937399280790078 0.22519825072444738
000250 a8 03 6b 4c e9 2d d1 bf 77 e8 ea 7d fb 02 b4 3f
       -0.268427204730012 0.07817050766144172
000260 8d 6d 88 ca fb c2 c6 bf cc 6d ed 8d 33 f4 d5 bf
       -0.17782542599966825 -0.3430298696527785
000270 44 0d f0 ab 07 91 d0 3f ff 1d 62 5d 78 f5 ce bf
       0.2588519267157674 -0.2418661552403449
000280 35 a4 10 07 d0 7b d2 bf a5 e8 42 99 ec 65 be bf
       -0.28880692186300233 -0.11874274007542114
000290 0a da 6d f7 59 f9 c6 bf 05 45 df d4 0f 4d 90 3f
       -0.1794846017980521 0.015918967597660778
0002a0 81 40 d2 e0 cd 95 c9 3f af bf 7c 9f da db 88 3f
       0.19988416173555737 0.012138088218847402
0002b0 91 93 02 31 fb 7d d2 bf cb 69 bf 3a af 1f c1 bf
       -0.28893928323878365 -0.13377943390407973
0002c0 0c ef 5f 48 e3 7b 8c bf 7c 0c b5 6f b1 14 c0 3f
       -0.01390817227001364 0.12563150362447917
0002d0 cf 7b 5f 00 73 05 d2 bf a8 02 ac 83 41 3d c6 3f
       -0.2815825942652141 0.1737443821839595
0002e0 c9 d2 93 17 37 c8 8f bf c2 33 9b c1 7e b3 71 3f
       -0.015518598944689004 0.0043215705315561865
0002f0 7d 3e d3 44 ab 8f cb bf 89 40 b8 2d 29 75 e0 3f
       -0.2153219305096065 0.5143018620456284
000300 95 6b 1d 16 9d 1e ce 3f 9f e8 63 c4 59 b5 c2 3f
       0.2353092535002729 0.14615938271874016
000310 76 2d d6 aa b7 c3 dc 3f d0 3a c6 3e 6a ca 6d 3f
       0.4494456451727368 0.0036365580655862498
000320 58 c4 90 ac de 5d cc 3f f8 35 b6 49 a1 44 95 3f
       0.22161467958497627 0.0207696152916039
000330 2e dd 76 3d 47 fd a1 3f 9f b6 f5 60 b3 f3 d0 3f
       0.03513548493668349 0.26487431019527635
000340 93 8d de 42 cb 6b c2 3f ae 3a 70 d6 08 ba c5 bf
       0.14391461148362036 -0.16973982306122565
000350 df 2e da b1 dc 24 c8 3f db 33 91 5d 4b ca ba bf
       0.18862494167512175 -0.10464926752429397
000360 13 1a f6 fc 40 f1 bc bf 10 56 40 8d 80 75 c3 bf
       -0.11305624175847866 -0.15202338120495584
000370 ed c9 03 87 30 2f c2 3f 18 6f 87 95 bf a9 d6 bf
       0.14206511108893896 -0.3541106186146279
000380 79 99 12 0a 32 34 d4 bf d9 ad 22 92 2b b9 db 3f
       -0.3156857584348454 0.43317689200440906
000390 4e d3 6d e2 95 21 8f bf b1 fa 12 c3 ff b7 8c 3f
       -0.01520077798134314 0.014022825375261535
0003a0 5f ec fd 91 92 10 78 3f 5a f4 93 b4 1b d1 cc bf
       0.0058751798059076535 -0.22513147656710225
0003b0 47 96 7f 00 e7 b7 cd 3f 1e a5 58 27 67 49 c6 3f
       0.23217475437484067 0.17411508008198323
0003c0 5e e4 4b 58 1e c7 d0 3f 06 d5 df 63 2e 4f cc 3f
       0.2621532308836033 0.22116641880681004
0003d0 51 01 03 ed 24 7e d0 3f 68 b5 eb 83 c0 6c b6 bf
       0.2576992334907305 -0.08759692402573693
0003e0 0a 51 b0 98 b0 66 d4 3f da 49 29 06 eb e0 cd bf
       0.3187676898098891 -0.23342645455211547
0003f0 2b 2c cf ea 0b 64 cb bf ad 45 36 38 cb 9f d8 3f
       -0.21399067845627093 0.3847530411668128
000400 3e 91 3c 4e d1 ac 85 bf ca 34 1b 8e cf 94 a2 3f
       -0.010583529663172993 0.0362915860147069
000410 33 c5 98 48 36 82 ba 3f b1 b1 16 8a 5d b1 c2 3f
       0.103549378131693 0.1460377620945912
000420 d4 cf 80 52 1c 81 d0 bf 8c 33 1e 80 ba 71 c3 3f
       -0.25788028771353066 0.15190821891556217
000430 0f 23 f1 42 6d e2 c0 3f 88 c9 2a 46 00 89 ba 3f
       0.13190999764108155 0.10365297043862232
000440 b0 83 bb b1 3d a5 c2 bf 44 58 00 28 18 06 d3 bf
       -0.14566775492042217 -0.29724697023755575
000450 67 ca b6 87 26 f7 b1 bf 01 2b 01 23 b3 6c a4 3f
       -0.07017746747332297 0.0398918133001498
000460 45 1f 01 93 16 85 d8 bf 63 c9 4b 7c 39 6b af 3f
       -0.38312305789849105 0.06136493341718354
000470 3c 89 35 07 4c 55 d9 3f 68 71 5a a4 93 7a d2 bf
       0.39583111480728284 -0.28873148965955986
000480 4c 17 0f 4c 05 4a d8 bf 08 29 1b e5 04 5a bb 3f
       -0.37951786449081193 0.10684233277712363
000490 48 d8 fc e3 0d ec c7 bf 94 08 46 54 ea a5 cc 3f
       -0.18689130432329848 0.22381333460731823
0004a0 3a ba 15 a9 1e 4c 98 3f cc 3e 62 78 6f 0f d0 3f
       0.02372787386905826 0.25094210392215355
0004b0 6c 8a 9e 07 27 61 c5 bf 7a b6 bd bb f7 06 89 3f
       -0.16702735778843036 0.012220321099188459
0004c0 97 ac b6 23 e6 ef b5 3f af 01 dc 8f 57 3b 7d bf
       0.08569181796944957 -0.007136671103353739
0004d0 88 46 f4 c2 d7 ca d1 bf 1b 77 8b d7 f3 4a c4 3f
       -0.27800554312225545 0.15853736900947343
0004e0 14 0d 1f 80 56 f5 cf bf e2 5e 2f 7a 91 96 a2 bf
       -0.24967461830065274 -0.03630499474064465
0004f0 7e a6 7e 44 4b 8b cf 3f e0 17 4b 15 9c 14 c9 bf
       0.2464384159514345 -0.1959414581271508
000500 cc 09 b2 00 dc 3e ac bf 0d ed 4e 3f 81 5d c3 3f
       -0.055167079052825224 0.15129104224420367
000510 6e e5 0f bd 7f ff d7 3f a3 73 d9 7b a5 b1 d6 3f
       0.3749694200810926 0.35459267706556313
000520 f4 16 d7 c4 5a ed aa 3f 18 0f 05 43 c6 4d c0 bf
       0.052592121628135674 -0.1273734881634645
000530 52 61 26 b8 84 c6 cc 3f 1e e4 72 cd 3c 93 d1 3f
       0.22480830184646067 0.2746116644225952
000540 1c 32 85 e8 a7 e7 d4 3f 4a 0d db 23 08 28 af 3f
       0.32663915354786055 0.06085229337397864
000550 fe f0 68 35 67 e2 b5 bf 70 bc ce 91 7f 4f b4 3f
       -0.0854858880420046 0.07933804807429268
000560 31 22 2a ca 1b 58 a0 3f 35 e5 9d 99 ae 3d c5 bf
       0.0319222149165096 -0.16594488621539374
000570 8d 5a 9f 12 80 5d c0 bf 76 cc 02 5b 95 6f d1 bf
       -0.1278534022264534 -0.27243551147257195
000580 20 e8 1d c3 c0 87 a7 3f 8f 66 e4 1f f6 00 a7 3f
       0.045957588022204954 0.044929210084046926
000590 7c 01 c4 a0 00 e8 ce 3f 1b 92 5c 7b 66 06 c6 3f
       0.24145515298733844 0.17207032226100769
0005a0 06 f0 98 64 2b e7 d4 bf bd 5e 5a b8 5c 27 d0 bf
       -0.32660946678129255 -0.2524024772951455
0005b0 80 39 f3 37 d8 5f cf bf eb 3a 4e 8c 1a 4a d2 bf
       -0.24511244518221176 -0.2857729311153167
0005c0 50 37 62 f8 29 59 c5 bf 0e a7 fb bb 24 30 d9 3f
       -0.16678356769664981 0.3935634456416758
0005d0 7a 61 12 a2 34 3b c1 bf d6 cc 1f ee 1d 51 c5 bf
       -0.1346193114629946 -0.16653799178275247
0005e0 18 72 4e 11 b7 6e ca 3f a6 0b 62 13 45 c1 c5 bf
       0.20650375695267154 -0.1699606270450122
0005f0 7b 22 87 66 97 8a d0 bf 71 8e 9e 74 1f bc c8 3f
       -0.2584589482544641 0.19324105448059783
000600 82 63 a3 f1 a1 76 c5 bf d7 b1 6e 46 5d 17 d1 3f
       -0.16768287943594024 0.2670510471168916
000610 ad bf 61 75 de 83 c5 bf c7 14 92 db 32 9b cb 3f
       -0.1680868218568298 0.21567378731939454
000620 ef c0 ba 3b e2 f3 b9 3f 70 17 66 ce 71 07 d2 3f
       0.10137762029876617 0.28170437961704575
000630 71 d4 97 40 3b e3 be 3f 44 cb f5 2c c3 e4 bd 3f
       0.12065477683047889 0.11677188728007787
000640 f7 7a 7d d2 f3 e1 b2 bf 48 f1 2c 23 52 83 d0 bf
       -0.07376026047630178 -0.2580151885520263
000650 bf c0 40 b0 5b e0 c5 bf 30 f7 a0 ea f0 b5 a2 bf
       -0.17090936761952055 -0.036544350281913274
000660 e4 a2 10 cb c8 5d a8 bf 50 ee dd dd bb 00 c3 3f
       -0.04759051779575943 0.14845989545198046
000670 cf 0e 4e 3b 4f b2 c1 3f 4d d6 2d 4a 4b 11 cb bf
       0.13825407405612686 -0.2114652740671538
000680 e5 15 dc 8d ac ae db bf 18 0f 8d d9 87 20 d1 3f
       -0.43253625730025497 0.2676105141183469
000690 6a 75 92 f2 bd b1 b8 bf fd 02 2e 19 05 2a b4 bf
       -0.09646212742014418 -0.07876617302646234
0006a0 18 d6 44 f8 57 f9 d8 bf 00 2c 98 86 d4 37 c0 bf
       -0.39021872754105535 -0.1267038018416713
0006b0 ab e3 f9 74 29 8d bf 3f 3b ba d1 e0 da 03 a6 3f
       0.12324771028387597 0.042998161262279365
0006c0 59 59 59 7d 34 46 db bf 9d 84 0e 49 62 ed e4 bf
       -0.42615997544398493 -0.6539775301827323
0006d0 9b 51 c8 cd d0 0d c4 bf 91 26 b5 5f 88 98 af 3f
       -0.15667161987279318 0.06171060722642808
0006e0 6c e6 28 ba cc ea d0 bf b5 77 2e 67 ba 46 a0 3f
       -0.26433103732742924 0.03178961286106078
0006f0 32 6e 65 76 75 bf d9 bf 7d 52 4d 64 ce 9c b3 3f
       -0.4023107200825705 0.07661142300396225
000700 41 c6 97 16 8e 92 b9 3f a9 cf 7e 8e a4 05 e1 bf
       0.0998925023229953 -0.5319388182747292
000710 a7 f9 6b 69 6a 72 ab 3f 5c fd 24 0a e8 45 d8 3f
       0.053607297295445826 0.379266748339395
000720 6d 23 e7 b0 d2 b5 da 3f 61 ec 7d 89 59 c1 e6 3f
       0.417347595936511 0.7111022649181785
000730 a5 81 ed 1b 3f bc e8 3f 69 bc 1d c4 16 92 c8 3f
       0.7729793115104725 0.19195828033432186
000740 ea 7f db 79 69 5f e2 bf f4 5e dd a9 a8 d0 e3 3f
       -0.5741469745662446 0.6192210500402937
000750 40 2f f8 4c f7 2c df 3f 85 80 a0 b5 31 ba e1 3f
       0.48711950794744396 0.5539787814523299
000760 52 cf 25 2c 75 b4 c4 3f 7d 6e 68 ee 5d d6 d0 bf
       0.1617571321072498 -0.26308391840004913
000770 00 3b c3 d3 4f bc db 3f d6 23 94 ab ff 34 e1 bf
       0.4333686416620566 -0.5377195693155226
000780 60 52 a4 36 e9 b9 c8 3f 5c c3 43 fd 5f 47 d1 3f
       0.19317355316219942 0.26998138172989683
000790 fd a4 92 b1 07 f0 c7 bf f0 4c 57 fd 2c 04 ca bf
       -0.18701263590381947 -0.20325243349234468
0007a0 30 c7 b6 6e 39 ca b4 bf 65 fe 75 88 e1 93 c3 bf
       -0.08121069863298369 -0.15295046961908834
0007b0 76 72 e0 ba 2f 82 c7 bf c0 40 5b b5 ac 1d cd 3f
       -0.18366047501412525 0.22746809821410885
0007c0 eb 28 7a d5 df 04 d6 bf 1b 18 c8 3f 6e 14 d0 bf
       -0.34404750678426294 -0.2512469885699617
0007d0 57 06 4c f8 f0 c3 9f bf e4 58 c3 8d b3 2a 7b 3f
       -0.031020894198269335 0.006632520086176739
0007e0 c3 ff ed 1b 65 d7 bb 3f a7 57 6f ff 0c 99 ae 3f
       0.10875541622044609 0.059761434727689626
0007f0 dc 0c 05 72 62 3c b0 bf eb cf c7 62 ff e0 b1 3f
       -0.06342139514622452 0.06983944093354892

linears.3.bias f8 [30]
000000 1e 17 8b 4a 1c b9 b3 bf 15 7f be d0 f4 c7 aa 3f
       -0.07704331226258573 0.05230679557939603
000010 d2 45 8f 6e a0 66 b1 bf 7b 2a 0b d4 a4 61 a7 3f
       -0.06797220896921566 0.04566683853552874
000020 1b 75 93 fd cd 05 a8 bf 61 67 9c 2f 19 19 b6 3f
       -0.04691928596887803 0.08632047092797059
000030 00 f4 5f c4 fb 4c 9c 3f eb 7c 0f 80 27 7c b0 bf
       0.02763741861416591 -0.06439444424130485
000040 3e 69 f6 99 19 b5 b1 bf 8d ed 7b bc a7 2b b0 3f
       -0.06916961678362996 0.0631661257902378
000050 59 e2 09 a9 d7 a7 af 3f c7 45 c3 94 59 76 b0 bf
       0.061827411064716294 -0.06430587655929464
000060 ba a9 af a7 1e bb af 3f 97 a8 16 f9 99 ac a7 bf
       0.06197448536825641 -0.04623871961241937
000070 e4 27 bc d8 c5 9f c1 bf 13 74 95 ee 5c 90 b3 3f
       -0.137688380077008 0.07642155480193961
000080 28 a6 86 ec 89 04 ac 3f 9e e4 3b bc 35 a8 92 bf
       0.05472212803153936 -0.018219794858826625
000090 ea 48 76 e9 83 56 a3 3f 33 1d 42 e3 5d 84 b1 bf
       0.03776943421247998 -0.06842600630090061
0000a0 41 0c 32 e9 00 5f ae 3f a1 eb 44 68 e4 17 93 bf
       0.05931856962799787 -0.018645829071128998
0000b0 09 2c a1 a9 99 16 9c bf de a9 f5 b4 e7 52 84 bf
       -0.027429963091247376 -0.009923753938626708
0000c0 ac 73 f9 64 52 e5 ac 3f 9b af 11 e6 17 94 b3 3f
       0.05643708689306179 0.07647847525521316
0000d0 ba 10 6d a4 67 59 b2 bf 84 b8 3b bf dd 6f bf 3f
       -0.07167670978839427 0.12280069273740152
0000e0 52 ec 75 db 6e bc 96 bf 20 3c 36 1a d2 e0 b0 bf
       -0.022203189987959178 -0.06593049182832589
