1D_Steady_BedloadTransport/Models/Model.ckpt-500.pt (torch, 31347 bytes, 32 tensors)

linears.0.weight f8 [20, 2]
0	0xbfc0aae41703c7ff	-0.1302151787163552
1	0x3fdbd16bad7c82b0	0.43465702001598583
2	0xbfd0920a035d13d1	-0.2589135201308724
3	0xbfd14d764c94bc96	-0.2703529117452005
4	0xbfd7a6df61fb9277	-0.36956009453414346
5	0x3fd2d1bd6393b396	0.29405150150597004
6	0xbfdc6e1bfd481e08	-0.44422054037610836
7	0xbfbb0eb1633eb774	-0.1056929461762744
8	0xbfd8636a027309e2	-0.3810677551192879
9	0xbfd4c5ebe37473f1	-0.3245801659812165
10	0xbfd2731a8bc4f070	-0.2882753720221052
11	0xbf78f7c3861b2226	-0.006095660939259539
12	0xbfdd5179fe100f94	-0.4580979329186843
13	0xbfc6f59b12819a28	-0.17937029269815352
14	0xbfd083552d76a868	-0.2580159133891642
15	0x3fb4297f7c0a2cd3	0.07875820902170298
16	0xbfacafc798bede14	-0.056028592487049306
17	0x3fc329b787a9eb1a	0.14971059917646629
18	0xbfd89d547263bf66	-0.3846026532255479
19	0xbf699b4ef9f54a36	-0.003125814677028128
20	0xbfd361e0e891a64a	-0.3028490325146761
21	0xbfba8233fe8fd0e3	-0.10354924168479189
22	0x3fcc11c2e8be359b	0.21929203380970538
23	0xbfdbb6c9500379b6	-0.43303139509034894
24	0xbfc46ef8adfdc83a	-0.1596365785185883
25	0xbfcb7d7c0c4226c3	-0.21476698492579346
26	0x3fd7343f142ec986	0.36256386729214574
27	0x3fd083cb637d5244	0.2580440970971589
28	0xbfb10902c7377405	-0.06654374469458453
29	0xbfb23fd5676a0dbb	-0.07128652357828617
30	0xbfb6647655bd71f3	-0.08747043221723753
31	0xbfcd0e434a35ed06	-0.22699776767317575
32	0xbfc782a18f40ee3e	-0.1836740445595399
33	0x3fa189f2d1554a49	0.034255588582386816
34	0x3fd2e0dac4010931	0.29497403279323736
35	0x3fe21e4b47db3530	0.5661980060046172
36	0xbfa09c4c05305957	-0.032442451127439646
37	0x3fcb3e408c77f539	0.21283728464906362
38	0x3fa2e85d7fbb4c55	0.036929056017151275
39	0xbfbaa89fc4265a86	-0.10413549937070785

linears.0.bias f8 [20]
0	0xbf7d8ba6d928fc73	-0.00721326041326541
1	0xbf736d726c5cf322	-0.0047430486354727314
2	0x3f83210e6e3ee2f8	0.009340393771581898
3	0x3f62608406107733	0.0022432879054709253
4	0x3f5cee90f04afe8c	0.0017658629814575636
5	0xbf78f9f7c254ffc0	-0.006097762879392066
6	0x3f277ca7d6c3fa59	0.00017919110121762913
7	0xbf80f031189a8e3e	-0.008270629466387121
8	0x3f692d62ca5b195c	0.0030733994961763943
9	0xbf6c808c631a01ac	-0.003479265397629846
10	0x3f64bd88fc490810	0.0025317836282576847
11	0x3f6f738a417bd673	0.003839273482180877
12	0xbf80b03339f870a2	-0.008148575026148134
13	0xbf5d30aa3092df6a	-0.0017816221245947291
14	0x3f5c4bc301fc5a78	0.0017270473835588034
15	0x3f6d411f69769e0b	0.0035710919871296868
16	0xbfa07e61ea1d449d	-0.03221422179070397
17	0xbf64d6f48776c973	-0.002543904872902286
18	0xbf29536b242de778	-0.00019322092893131102
19	0x3f63321e6c7dc732	0.0023432344641428843

linears.1.weight f8 [20, 20]
0	0xbfcd924cc9a8bc61	-0.23102722021710334
1	0x3f9c7e40f848997e	0.027825369981792296
2	0x3fc672752510fc85	0.17536796865349316
3	0xbfc90544c350bb03	-0.19547328507311343
4	0xbfd35cf0d9f0e50a	-0.3025476578073528
5	0x3fa3c76a5c30ab20	0.038630794290233306
6	0x3fcb83d57b36189c	0.21496075168778794
7	0xbfb101f8d6609f8d	-0.06643634065460287
8	0xbfc3193e5b6c9890	-0.14920787300178917
9	0xbfd777769f2492b9	-0.36666646519942564
10	0xbfd6fb1d394826d8	-0.3590767917054172
11	0xbfc6bf5dc453f693	-0.17771503530814367
12	0x3fd555540c2d22ab	0.33333302678196713
13	0xbfa591edf049acee	-0.042128978330618114
14	0x3fc9ef57082d0f0e	0.2026165761873177
15	0x3fc6393e2b61dca0	0.1736219131305221
16	0xbfc4d9a8d43997d1	-0.16289244043872356
17	0xbf903ebd4e57ea03	-0.015864332110121292
18	0x3fd75467d111e30e	0.36452670495013784
19	0xbfd61cd4bdd03b5c	-0.3455097058912793
20	0xbfb0b021d119e36e	-0.06518756251342747
21	0x3fd0c5b4ebcdbeb4	0.262067060734789
22	0xbf937600946aca6a	-0.019004830416358955
23	0x3fc42fd45b16b4a4	0.1577096409577382
24	0x3fd61b45a5092e26	0.34541455380233044
25	0x3f9316ba89008aca	0.01864139043039862
26	0xbf992addc08a09bd	-0.024577584149037202
27	0xbfb16df3d323ca63	-0.06808399109631007
28	0xbfb02277abd4c985	-0.06302593178842215
29	0xbfca6eff1b5dea7d	-0.20651234470627236
30	0xbfd28c5b33242174	-0.2898166655945922
31	0x3fd4753fbb9a177f	0.3196563083696375
32	0xbfc79a78457f96f3	-0.18440154450870913
33	0x3f957fe9f5ada632	0.020995765323652722
34	0xbfd7a98d8794754a	-0.36972368469453853
35	0x3fb8fc57182a3d5d	0.09760040607419769
36	0xbfd82addab546c86	-0.37761632663177414
37	0x3fc0fc01b717ad9a	0.1326906341558754
38	0xbfc11d7ac20310f4	-0.13371214364281736
39	0x3fd56c4528788f1c	0.33473328544845216
40	0xbfda084f680142e9	-0.4067572131798856
41	0xbfd337694d1fdf3f	-0.30025703937234377
42	0x3fd045c5f07bfb5a	0.25425861820979423
43	0x3fa37e0b4eb818c4	0.03807101570059637
44	0x3fd3e27c875c15b2	0.3106986352798585
45	0x3fad85cb6494a0d9	0.057661396053221466
46	0x3fbaac19bf160106	0.10418854632553484
47	0xbfcafd6174f96f90	-0.21085756503714181
48	0x3fc5730d78a92a94	0.16757362739220538
49	0x3fb1c9cdb74ebd13	0.06948552823336156
50	0xbf5799a0e7ee1088	-0.001440436491720683
51	0x3fba2458bf1ec20a	0.10211710611361738
52	0xbfd4481f34ea65fb	-0.3169019715074623
53	0x3fcbfb3f47d45bb7	0.21860495574284552
54	0xbfc596d50b276128	-0.1686655334913294
55	0xbfa2cdd3b4172566	-0.036726585134213605
56	0xbfc3f8a54d5c5aca	-0.15602556493168712
57	0xbfc00058beb54f82	-0.12501057922292708
58	0xbfd8c4fd10fb4afc	-0.38702322634087216
59	0xbf91ef826004201a	-0.01751521788631303
60	0x3fb69caba417dbff	0.08832810169393211
61	0xbfd783b0ad970896	-0.3674127288069341
62	0xbf90e7371029b76e	-0.01650701557303285
63	0xbfd47920f0377ee4	-0.3198931070200912
64	0x3fbc85ebe76f326a	0.11141847992184642
65	0x3fc74fc1d98d50cb	0.18212149737030922
66	0xbfd4263f3b76ae57	-0.3148344116877743
67	0x3f84658b51a332cd	0.009959305218580817
68	0xbfaa96077670c6f0	-0.05192588158423728
69	0x3f9e3ae0915a526d	0.029521473762161344
70	0xbf93eb52ab605659	-0.01945237322805435
71	0xbfd43957c2789443	-0.3159999274378757
72	0x3f71d64399e02d81	0.004354728762346994
73	0xbfcb16e5002a191e	-0.21163618572263315
74	0xbfd17fe1e38df86b	-0.27343032095075753
75	0xbfd7b49fe8d29760	-0.3703994535120412
76	0xbfc919eba6a5956f	-0.19610353123713817
77	0xbfcbe169e01074f9	-0.21781657639159116
78	0xbfd3bced0f0b9ade	-0.30840612859030425
79	0xbfd3cf8a2e9d45a9	-0.30954222252065705
80	0xbfac8c34b026a169	-0.05575718546180292
81	0xbfcdf67676b31b23	-0.23408394618874082
82	0x3f9c3b50d3cab4c5	0.027570021559473874
83	0xbfc4a1ce1c89c44b	-0.1611879004808848
84	0x3fc22cabb071f837	0.14198824038970922
85	0xbfd19550b9d97692	-0.2747384848533808
86	0xbfbed1537fa14c61	-0.1203815638157706
87	0x3fd131c4b9c089c6	0.26866262569288
88	0xbfc9b488084bcc38	-0.20082188038904447
89	0x3f97e6347bf4b0df	0.023339099946654392
90	0xbfd6a3a694fb628f	-0.3537384467031552
91	0x3fd48a1e27d31623	0.32093004120938157
92	0x3fd82d1ed6bcc2ac	0.3777539345783605
93	0xbf8415c37604bd97	-0.009807135619296399
94	0x3fc73c78be6e4c7a	0.18153294847852292
95	0x3fd86c2236d22789	0.38159995416264586
96	0x3fd712ff5d2b0bbe	0.3605345163197703
97	0x3fc8c2917e931c7f	0.19343775444415098
98	0xbfd59648ece5b0a8	-0.3372976602029305
99	0x3fc2cd5984b466cf	0.14689177493783354
100	0x3fd22a618b8951a1	0.28383673311807384
101	0x3fcb34b78c729b7a	0.21254629476353754
102	0x3fd33e1a0cc16854	0.30066539045004004
103	0xbfcecb8cc5a9772b	-0.24058684970344166
104	0x3fc34dc5e2901827	0.15081094324722352
105	0xbfbf89f166eec5b5	-0.12319859278684116
106	0xbfcb7bc3c4ee349a	-0.21471449962374295
107	0xbfd8dcdb25f5ecdc	-0.3884799833974293
108	0x3fb6ee85b6bd2573	0.08957706176183482
109	0x3fbd12dea26c36c1	0.11356917825124936
110	0xbfd1a1a37cd57569	-0.2754906386452008
111	0x3fd0f245f884c27c	0.2647871901454335
112	0xbfcf7420587e9678	-0.24573139496822072
113	0x3fb60b3337e33f64	0.08610839952893695
114	0xbfd514ac20e70682	-0.32938674176339344
115	0x3fd7b43a68c10f7f	0.3703752539624858
116	0xbf7eb26039caf57d	-0.007494331247185013
117	0x3fb674caf101fb33	0.08771961578348168
118	0xbfcafe51267f87cb	-0.21088613872330905
119	0xbfd6d16392b40b58	-0.35653008772367434
120	0xbfd5791ad2f128ad	-0.33551664924437824
121	0x3fcb0bf8905b744e	0.2113028244847634
122	0x3fc5dfad8fbc3a86	0.1708886100609172
123	0x3fc8ba216329963c	0.19318024961391866
124	0xbfcbdea622662557	-0.21773220710410143
125	0x3fbf8fc9d9d3c29b	0.12328778808638179
126	0x3fccb6306bea4e20	0.2243099715166048
127	0xbfd0c44b8cfd8902	-0.2619809033259487
128	0xbfd48990a8f5eca9	-0.3208963060385011
129	0x3fb99b0246fb5437	0.10002149804070447
130	0xbfce13b0915dd832	-0.23497588251092477
131	0xbfa67640ddefcc3d	-0.04387095174015385
132	0xbfd35781a4bfa3fa	-0.30221596802454054
133	0xbfd3aeec141aa625	-0.30755140269556797
134	0x3fc92fa94eaedf39	0.19676700918147974
135	0xbfbfa6388580825b	-0.12363007792783647
136	0xbf95eac89fe63412	-0.021403441199755298
137	0x3fcb9456914ab41f	0.21546442121817308
138	0xbfcbebdb7b978ef0	-0.218135295245808
139	0x3fcf6a608d51e7a7	0.24543387318027252
140	0x3fc094ea2213139a	0.12954451240343873
141	0x3fcdd745ed2fc2fa	0.233132115186457
142	0x3fcdae9e8bb428fc	0.23189145871612726
143	0x3fd024c6d720b691	0.2522446728570254
144	0x3fd93e89b0377beb	0.39444200714745986
145	0xbfd7b8b66e37c16d	-0.37064896357971727
146	0xbfc9728716bbd3f6	-0.19880760774654477
147	0xbf93fcf042563d09	-0.01951957135093799
148	0x3fd7f891d41cd7a9	0.37454648698928367
149	0xbfd43c0589f33071	-0.3161634299438055
150	0xbfc527fda6a687bc	-0.16528292309982173
151	0x3f9351ba46e3101d	0.01886645372066208
152	0x3fd3740e9d76537e	0.30395856263321963
153	0x3f838ce32d312ebb	0.00954606515565303
154	0xbfd62f3a4be36d5d	-0.3466325512979063
155	0xbfbfb2f1d70df29a	-0.12382422924378958
156	0x3fd1b4d3b7a9d6af	0.27666180549509084
157	0xbfcd91d033cd5d04	-0.23101236848263096
158	0xbfd755637e83f119	-0.3645867095472269
159	0xbfa7a978f1c4c2dd	-0.04621484710003696
160	0xbfb334a0eec70e5d	-0.07502179936914773
161	0x3fb83f27bc5a5985	0.09471367214641731
162	0xbfcf18d2993f9a90	-0.2429450271876772
163	0xbfd5d0e515501438	-0.34087493020371396
164	0x3fc223630362fa11	0.14170491853106218
165	0x3fd15cd3332a35ee	0.27129058834620323
166	0x3fbba51c5d178d69	0.10798814080003684
167	0xbf694eae025f6963	-0.003089275228359488
168	0x3fcb08d358bd0141	0.2112068351070864
169	0xbfb807ae740190d7	-0.09386720974140715
170	0x3fd4261636a9fbd1	0.3148246320560562
171	0x3fd38439748b48c1	0.3049453390241404
172	0xbfaa493b9a44ed64	-0.051339972097106196
173	0x3fc63656cd2eb802	0.17353329676319623
174	0xbf6e1e3117d24b30	-0.0036765059326823377
175	0xbfc2e82ac5427df0	-0.14771017677138287
176	0x3fc46f2262065228	0.15964154993402357
177	0xbf80eaaf7d5767b9	-0.00826012707959821
178	0x3fd35b720048ca88	0.3024563792015802
179	0xbfcfec2c8386611f	-0.24939495489230354
180	0x3fb393739aee96e8	0.07646868259925166
181	0x3fb5e99b9f6e7689	0.08559582369204057
182	0xbf9c40b83fbdd11f	-0.027590636148901667
183	0xbfd28063e3f9b397	-0.28908631575796434
184	0x3fda5fee8c3fcc86	0.41210521408283574
185	0xbf81df65e1f31bcc	-0.008726879079757575
186	0xbfbaf3d3f629e476	-0.10528301963667439
187	0xbfaaac5e73d7f2d8	-0.05209632076364351
188	0x3fbab579cfa1f99f	0.10433160132558904
189	0x3fad746785644f89	0.057528719933684754
190	0x3fd6d62a49eda96f	0.356821605868979
191	0x3fc2240435d031d6	0.14172413470841033
192	0x3fd175ee5a6826e7	0.2728229411010105
193	0x3fc61b54011c00fe	0.1727089887062973
194	0x3f90d0cf0768c237	0.016421542002890113
195	0xbfc4450c568935d5	-0.15835718369855437
196	0xbfd07c9ac65f6dbd	-0.2576052605852189
197	0x3fb539e267a1d636	0.08291449575502771
198	0x3fcdcfc8654eae8b	0.23290352770469655
199	0x3fc28b01066357b5	0.14486706554333542
200	0x3fcd1b06f6438fc0	0.22738730454068268
201	0xbf98dae3c2d3880a	-0.024272497907880143
202	0x3fccefc2308486d0	0.22606685036685414
203	0x3fbfa77fc3285e64	0.12364958300201462
204	0x3fd0354ce98462cc	0.2532532005730388
205	0x3fcb1b53581e1073	0.21177141001328756
206	0x3fd3d1269aab54c7	0.3096405516092315
207	0x3fcde3140fdf0d73	0.23349238181081552
208	0x3fcec494efbe58f0	0.2403741999266411
209	0xbfb78c443667dcb5	-0.09198404625191155
210	0xbfc8ae224057ef45	-0.1928141416718693
211	0xbfc2332b36ba7a5a	-0.1421865479687366
212	0x3fd2e2aa856ca425	0.29508460073208403
213	0x3f8c567538bd75a9	0.013836780351705285
214	0xbf89aaaa2aa3f523	-0.012532548357280298
215	0x3fa84390c40c4cf5	0.04739048379101433
216	0xbfb32dd3ecaebce0	-0.0749180271948151
217	0x3fd193a7fcaba217	0.2746372191891466
218	0xbfb59a04f3c85e5f	-0.08438139869428472
219	0x3fd3428f76b35ab1	0.30093752471786234
220	0x3fbfffc340cf68ab	0.12499637920646715
221	0xbfbcea8a83bc6435	-0.11295381275375933
222	0xbfbe2217cbbb0f05	-0.11770771716970437
223	0xbfcf8e6e9f91945a	-0.24653418342055283
224	0xbfd8307d232bbb36	-0.3779595225777713
225	0x3fc6e95d5714d882	0.1789967227175034
226	0xbfbec52e9196f875	-0.1201962571567224
227	0x3fd279ab8abd517a	0.2886761526945275
228	0xbfc57099fe19db1d	-0.16749882609629987
229	0x3fd3ad16522566d8	0.30743940374450807
230	0xbfc4e6d2b57c0243	-0.16329416142981942
231	0xbfd7d46c56c5484d	-0.37234028314299367
232	0xbfca7bfcbe7f17e3	-0.20690879155716776
233	0x3fa32c5c0d3f2c02	0.03744781171516111
234	0xbfcd56662826428a	-0.22919918976233006
235	0xbfd2e14438d7c670	-0.2949991755586785
236	0x3fbc4dca64bfc6a4	0.1105619903535407
237	0xbfc5de2eff60d718	-0.17084300489084892
238	0xbfd7e0c49526a9fc	-0.37309374394922634
239	0xbfd5fc7c122009d8	-0.34353544015917015
240	0x3fcc6df5caccf559	0.22210571672796212
241	0xbfd2201954bbf19f	-0.2832091643793095
242	0x3fb516f14f7ef348	0.08238132658784736
243	0x3fd6ce07b6d802b2	0.356325081404104
244	0xbf93bbd4d232ed77	-0.019271207170033357
245	0xbfd3f71556760301	-0.31195577090697674
246	0x3fcb757da13bd257	0.21452303288210103
247	0x3fd5af70438e82ce	0.3388329181416737
248	0xbf94194fb4390451	-0.019627805113718037
249	0xbfd2c565777533e4	-0.29329811731150657
250	0xbfbd75d4da799093	-0.11507921537264769
251	0xbfd0fef57718e779	-0.2655614531573672
252	0xbfcbe07c5ade0879	-0.217788261765296
253	0x3fd552f327e694e0	0.33318785568765286
254	0xbfbb3d17cf2943d7	-0.10640095527311587
255	0xbfae27cfbe246e3b	-0.05889748760293086

linears.1.bias f8 [20]
0	0xbf65d6c863070e69	-0.0026658929639056706
1	0xbf5cb0934b48484b	-0.0017510832232159486
2	0x3f733aa007baeb4f	0.004694581144287848
3	0xbf5206c2bc0844b5	-0.0011002446846116014
4	0xbf2dd4f5f328486e	-0.00022759916608145213
5	0x3f745dfbc07140e6	0.004972442059696136
6	0x3f9a6963e8d5c7d8	0.025792656980634238
7	0xbf609de3011fa171	-0.0020284112624617203
8	0xbf6c4a9f215e1129	-0.003453551103065906
9	0xbf87db9a6f48bf1b	-0.011649328728793365
10	0xbf2ea386e2190370	-0.00023375531695715322
11	0xbf57d5c3f3edd32c	-0.001454774246409228
12	0x3f6bdd0b7f52baec	0.003401300864957482
13	0xbf6d421c5c2004d7	-0.0035715631393037173
14	0x3f61108e7303c999	0.0020830900394852134
15	0x3f4174ba6f48693a	0.000532713921134665
16	0xbf7fa98911ec42a2	-0.007730040960055947
17	0xbf72e26f23017407	-0.004610475662130581
18	0xbf660ab24c7a9e64	-0.0026906473538764065
19	0x3f6ec172a52a799a	0.003754352489820434

linears.2.weight f8 [20, 20]
0	0x3fd6f48d1a101ad3	0.3586762194176291
1	0xbfd04c1980dce492	-0.2546447523523706
2	0x3fc88f4da525898b	0.19187326968956273
3	0xbfb055e832fa66e5	-0.0638108372171718
4	0xbfcbc7bb3cfe5f73	-0.21703281858639975
5	0xbfc11c12c8d2392f	-0.13366923146936346
6	0xbfcaa283991f676f	-0.20808453537648172
7	0xbfd06429db5ba7f9	-0.2561134950798301
8	0x3fd3fa41c7cb942d	0.31214947234394935
9	0xbf91fd42c24105f2	-0.017567675691912706
10	0xbfc0b475daba5d18	-0.13050721340253157
11	0xbfa07ea6947203d4	-0.032216268177769486
12	0x3fd021847262e7da	0.25204573793928164
13	0x3fceee70fe7cc9f7	0.2416516535391364
14	0x3fc53ddeac8704e8	0.16595061706724512
15	0x3fa5cde685b174bf	0.04258652097699089
16	0xbfc826b56e040283	-0.1886812960801941
17	0x3fad6e5706c7f37e	0.05748245198990441
18	0xbf967c9c56f57032	-0.02195972710374878
19	0xbfc4d728468dc2ea	-0.1628160805226096
20	0x3fc4a83156fcbdc0	0.16138283488679228
21	0x3f9ce8764c2c3c76	0.028230522536486245
22	0x3f728abf2ea211d1	0.004526850514711759
23	0x3fa3e4b35ceee377	0.038854222387675934
24	0x3fcae1b3cee7b636	0.21001288988866101
25	0xbfc888a30d8843e0	-0.19166982804065835
26	0xbfd47bd9acbed9fc	-0.3200592219322116
27	0x3fd03a48871fb6c2	0.2535573310441174
28	0xbfc4dc134233df45	-0.1629661629920013
29	0x3f987e709830db08	0.023919829644195395
30	0x3fd3845bbfbe6fb0	0.30495351529111314
31	0x3fa25d7b545c8bff	0.03586945919803241
32	0x3fc73a2d82014155	0.18146294448753034
33	0xbfc1571651d293a2	-0.13547019000284616
34	0x3fd6bb57c705014c	0.3551845019865325
35	0xbfa03d82f81e6f7a	-0.031719296253156906
36	0xbfc7e6e9535be20a	-0.18673435755023632
37	0xbfd02479a71c00d3	-0.25222626990581637
38	0xbfc7f9d9349f568d	-0.18731226987317875
39	0xbfd2523dbe3fa348	-0.2862696035286274
40	0xbfb89021f37878ac	-0.09594928926569207
41	0xbfd277849d72e00b	-0.28854480148174905
42	0xbfc377b8b063f6b3	-0.15209110844437176
43	0xbfcf453594c6c1aa	-0.24429960026237768
44	0x3fb6f156a0d0272a	0.0896200316057302
45	0x3fccb3ac3eb38d91	0.22423317967978254
46	0xbfb5f87ed67b091e	-0.08582298981039968
47	0xbfcf29f78b06f063	-0.24346823013718497
48	0x3fd0d97399f22cba	0.26327219041622707
49	0x3fbc6f28b129dd89	0.11107115102082878
50	0x3fd68fb168b8cbb7	0.3525203249620818
51	0xbfb39c93ac269e00	-0.07660792305852482
52	0xbfd64fc6a28081ad	-0.3486191355641733
53	0xbfd07050690355be	-0.25685510878733087
54	0x3fb7248809daef22	0.09040117493253466
55	0xbfd668c50b6754b9	-0.3501446353305471
56	0x3fd83a66e6fdd65f	0.37856457288521556
57	0x3fc126478e74b792	0.13398069816451802
58	0xbfc189809e667b74	-0.137008740753085
59	0xbfb8b8bb82889d53	-0.09656879364830688
60	0xbfd41e77272469d4	-0.31435946295246464
61	0x3fd19bd0b62a6d07	0.2751352099382562
62	0xbfc14cd1ae666d24	-0.13515683189039251
63	0xbf9e372df78c18d3	-0.029507368311009707
64	0x3fbdf3fe23508806	0.1170042835442758
65	0x3fc90908ac64486e	0.1955881921535964
66	0x3faf9588da0e10ee	0.06168773328593767
67	0xbfd8a955ba707a61	-0.38533538062066525
68	0x3fd3ebb7a792beaa	0.31126204838344995
69	0x3fd378de60d8e8c8	0.30425223787063915
70	0x3fcf4efeb254ef62	0.24459823329550107
71	0xbfc338ff7af75d58	-0.15017694000446613
72	0xbfa9a7193fdbb22d	-0.05010298637884989
73	0x3fca364592d9fcc9	0.2047812430427938
74	0xbfbbc01138727a49	-0.10839946392159407
75	0x3fd1c836d1e5ac36	0.277845101335234
76	0x3fd4eddae3bc3014	0.3270175193763418
77	0xbfcb1cb2e9f9728f	-0.21181332039386233
78	0x3fc4be79479f2c00	0.162062797519269
79	0x3fd3d255e8a5afd4	0.3097128650613261
80	0xbf7fbde66e051de2	-0.007749462238570955
81	0x3fc1f1b837a7bcf5	0.140189196753887
82	0x3fd043953d74e78b	0.25412493707300915
83	0xbf9b5b0e5b545474	-0.02671453888350013
84	0xbfb2bd4a56ce62f1	-0.07320084208766865
85	0x3fcc5e033dc90d8d	0.22161903874267033
86	0x3fd1da0cd06de2a7	0.27893371920030535
87	0xbfb9bcd1abbaf135	-0.10053739969857108
88	0xbfc90d35e1d2826b	-0.19571565176467529
89	0x3fd2af08c71fa860	0.29193324514074526
90	0xbfc4a7254139668e	-0.16135087666298314
91	0xbfcaa8bd07ba6ddc	-0.20827448727946674
92	0x3fcd986ff0ef3afd	0.2312145163000067
93	0xbfb84b1bb5dc35ab	-0.09489606084772244
94	0x3fc29a0f96381f7c	0.14532656512187347
95	0xbfac5ca85ff008f6	-0.05539442225564699
96	0xbfd832880ab5b713	-0.37808419271355936
97	0xbfba3f2496e9c33b	-0.10252598461535183
98	0xbfce9ce12035c407	-0.23916257927660942
99	0xbfb1d51577cb3659	-0.06965765165951988
100	0xbfc7d31fb8a332ff	-0.18613049045088556
101	0x3fc8954b0450fdab	0.19205606184730803
102	0xbfc3bf0033c77e33	-0.15426638153347624
103	0xbf851c7ef8669ed8	-0.010308258014290514
104	0x3fd59c6ceeb8cf82	0.3376724559086527
105	0x3fd08d5df9b2bd64	0.25862836250867915
106	0xbfd642268c089ab1	-0.34778751063496843
107	0xbfc1682f959fdc87	-0.13599200063592695
108	0xbfc8fac0e128b15d	-0.1951523875626532
109	0xbfd01be4cad8dc81	-0.2517024975708822
110	0x3fd3c6ffbc409fa9	0.3090209329989145
111	0xbf8bff2b0965a711	-0.013670288299823892
112	0xbfbe25fa4f46a8e5	-0.11776699481439186
113	0x3f90b470d4869efb	0.0163133268084996
114	0xbfab69bac95e1667	-0.053541028100011094
115	0x3fcdafef0753e54d	0.23193157060431205
116	0xbfd6166d553a61fc	-0.3451188404374361
117	0x3f8e240be84092eb	0.014717190766597684
118	0xbfc96481edf2854b	-0.19837974661371968
119	0xbfd3b13631cc62f3	-0.30769114363788147
120	0x3fd3b79a805dd95c	0.3080812696056421
121	0x3f910a371914e6cd	0.0166405304964659
122	0x3fc208b035e66807	0.1408901465591159
123	0xbf9684a66421f3a8	-0.02199039446030651
124	0x3fc808d38204cd25	0.18776935432979616
125	0xbfd4d72d72cb4328	-0.3256333943400471
126	0xbfc3664d1b7af988	-0.1515594848805899
127	0x3fbfe3bdab8fb87a	0.12456880033980325
128	0xbfd707fda5642ce7	-0.3598627200269235
129	0xbfd208469a3a69c0	-0.28175511418671917
130	0xbfd199fcc6aa0942	-0.2750236454086413
131	0x3fca53fc537259b3	0.2056880385832308
132	0x3fcfc337a9554f83	0.2481450630972369
133	0xbfa6f29856a8fa2d	-0.04481960351812506
134	0x3fbab61390e22b55	0.10434076583093817
135	0x3fd1de98c13b320d	0.27921122427213235
136	0xbfc0acb3180c9ae6	-0.13027037309912898
137	0xbfd73c283479476c	-0.36304669498814834
138	0xbfaa0813f4c7a5b3	-0.050842879896502956
139	0x3fc2d6837df117a4	0.1471714367818865
140	0x3fbef228be1ff7c1	0.12088255540581284
141	0xbfd5960c86c2ce4a	-0.33728325996637365
142	0xbfad05d70b7dfd71	-0.056685180809831766
143	0x3fd1bf8f039abe31	0.27731681205748077
144	0x3fd6ddc145a87ee6	0.357284849191258
145	0x3fb421abff2fb016	0.07863879184850506
146	0xbfd688cda8ce9837	-0.3520998142724951
147	0xbf9a64793007832e	-0.025773900562742806
148	0xbfc07a5183acf421	-0.12873286179993307
149	0x3fcd378bf416e3ff	0.22825765055111444
150	0xbf73333940dedc5d	-0.004687522550674475
151	0x3f86a9acf7cb430c	0.011065818130562309
152	0x3fc105274c3ddb9c	0.1329697725556941
153	0xbfced3e58d90e149	-0.24084157383345886
154	0x3fb5404c26907f82	0.08301235143198762
155	0x3fd0db118d166382	0.26337088373252737
156	0xbfca4f0b2c4c87ca	-0.20553722060236473
157	0x3faf921eccdade9c	0.06166168451949014
158	0xbfce4ee17c2f8e4c	-0.23678225101240213
159	0x3fc7a637066e88b9	0.18475997747470332
160	0x3fc75b52b6046f53	0.18247445952953942
161	0x3f62108ead17ba95	0.002205160774557522
162	0xbfd5c3a3dadd5c9e	-0.3400659215307743
163	0xbfd7f252c567e728	-0.3741652419845303
164	0xbfd300ce669b2699	-0.29692420978663275
165	0xbfc9a0237ffd216d	-0.2001995444245596
166	0xbfbcd402d42469a9	-0.1126100318837532
167	0xbfd3f8cbd7512fbe	-0.3120603182512659
168	0x3fb5884181e51292	0.0841103498579037
169	0x3fc80376f6a40fbe	0.1876057342816448
170	0x3f879cd21d9d745f	0.0115295806205557
171	0x3fd178ef220e3762	0.27300623250709155
172	0x3fdb7dc6d6063c37	0.42955180073562665
173	0x3fd37e6d693f673b	0.30459151533215206
174	0xbfc082e56c84d3b2	-0.12899463461658695
175	0xbfd61db8da44ab25	-0.3455640918279406
176	0x3fc9825f5ab608c1	0.19929115227939145
177	0x3fb02348a42db689	0.06303838737741264
178	0xbfc22a78b9933b89	-0.1419211298111487
179	0xbfb2b5c17958f44a	-0.07308587277016546
180	0x3fcf4ced75098f53	0.24453514303888343
181	0x3fd43aed4721c1ef	0.31609661051245913
182	0x3fcd75cafd01bbcc	0.2301572547325733
183	0xbfd3fc0edb1e7ed6	-0.3122594013056931
184	0xbfb73f4e60cfd089	-0.09080972541397804
185	0x3fd614e410518060	0.34502507775869695
186	0xbfb54025e1d852f4	-0.08301007045549708
187	0x3fb47867d0bf97d0	0.07996224256893858
188	0xbfb09b9eee9a16e3	-0.0648745853923987
189	0xbfc67f910793832f	-0.17576802129681243
190	0xbfb2f61dd809babc	-0.07406794094434138
191	0x3fd6a8652f365f28	0.35402803049645337
192	0xbfba1d482025ed2a	-0.1020093039023108
193	0xbf87627c6411b0ff	-0.011418315700403968
194	0xbfc811739a0de853	-0.1880325796335592
195	0xbfc32bef84d689ac	-0.1497783087371095
196	0xbfc9228a3c370e23	-0.1963665765780301
197	0x3fc49c41563f9c46	0.16101853095389823
198	0x3fbbc8ee144750f0	0.10853469843943109
199	0x3fb30d27446574ca	0.07441945476371639
200	0xbfbc0271b487c625	-0.10941229493598621
201	0xbfcf9c6600caaa3f	-0.2469604019036797
202	0x3fb589e7bf31c4b7	0.08413551729042267
203	0x3fd464af3fbc394f	0.3186452982344194
204	0x3fc1332534be2343	0.13437333178833386
205	0xbfaf635e0c9143b5	-0.06130498793994069
206	0x3f721513fbf62c79	0.00441463285768428
207	0xbfd4749569148643	-0.319615700356824
208	0xbfb036d953378182	-0.063336928192717
209	0x3f8dc62faf75f984	0.014538166563167428
210	0x3fd4232d54c6bac4	0.31464703825887974
211	0x3fc20385345b7fed	0.1407324319507092
212	0xbfd246e84b7ff963	-0.28557784436261197
213	0xbf9ea7d25b694157	-0.029937064008039495
214	0x3fc668e7ce1530e0	0.17507646143565747
215	0x3fd143f4c7bbb987	0.26977271561818167
216	0xbfcd6ff451d0e83e	-0.22997907633708964
217	0x3fa0298805b4e75d	0.03156685895596809
218	0x3fd752eb4a890213	0.36443598059489196
219	0x3fc07210e1587b0f	0.1284810161896179
220	0x3fd1dd8393957616	0.2791451398132677
221	0xbfc860499fc7fe6d	-0.19043846418206858
222	0xbfd3fb8ad7dcdd15	-0.31222792702051666
223	0x3fd25cc3d6dcb498	0.2869119261038775
224	0x3fd311c2b400345b	0.29795901849940315
225	0xbfd410dda69d29cc	-0.3135294081772855
226	0x3fd5a35c4ae2993a	0.33809573472025856
227	0xbfd1fc197f6707c6	-0.2810119384922668
228	0x3f77260ecc744f07	0.005651529128289707
229	0xbfb020e8b68012e4	-0.06300215201924747
230	0xbfc39873a665fae5	-0.15308995842857268
231	0xbfc283979b61c8b9	-0.1446408756924649
232	0xbfd091e43503cade	-0.25890450646617846
233	0x3fc8065db6187ff0	0.1876942767275973
234	0xbfc20caf41447081	-0.14101210295564573
235	0x3fbe49839426e33a	0.1183092343043314
236	0xbfd428345683dd72	-0.31495388458957685
237	0xbfc465fbf32f7688	-0.15936231016432978
238	0x3f54e03458645b39	0.0012741576370609144
239	0xbfc09a2926fa7c8f	-0.1297046127628829
240	0x3fc0b24a89dcf2de	0.13044101459117646
241	0x3fd1eadb43661fac	0.27995950300145966
242	0xbfd25fbd7dd347c9	-0.2870935181391557
243	0x3fd01e20356ecd3b	0.2518387338452219
244	0xbf97bf534fff287b	-0.023190786130534918
245	0x3f9b6d1028a685f3	0.026783230286701664
246	0x3fa76ac0ce292961	0.04573633686648538
247	0xbfd6317c3c6abd88	-0.3467703428277322
248	0xbfb506f932724bd1	-0.082137656036408
249	0x3fd27e99d5d6c198	0.28897710688308953
250	0x3fb685bff016f8b6	0.08797835933271156
251	0xbf9116c9522e1c0c	-0.016688485756756008
252	0xbfd661830a28bdcf	-0.34970165245155455
253	0xbfdaeee5373a4b99	-0.42083101647693294
254	0xbfd3dd89faab7ac6	-0.31039666633106966
255	0xbfcfeecc0d113674	-0.24947500837372483

linears.2.bias f8 [20]
0	0x3f50e25fd136eaf4	0.001030534335639541
1	0xbf620595bc344904	-0.0021999287142843178
2	0x3f609d47c7f9a485	0.0020281221366543222
3	0x3f6bb51a7a67de2e	0.0033822552825275775
4	0x3f608980730a8368	0.0020186909462868614
5	0xbf65997f1b77f4e4	-0.0026366694034992578
6	0xbf62e6861285a341	-0.002307187900602165
7	0x3f6d2f6aeb314ed8	0.003562649560572822
8	0xbf522f6f940efaa0	-0.0011099424011572837
9	0xbf5449dae2b8dda4	-0.0012383115344059914
10	0x3f64fa484b292609	0.0025607501968678598
11	0xbf695e3b78d6f9fe	-0.0030966912806598126
12	0xbf6263586f67d69e	-0.0022446372270178002
13	0x3f2b69636c0b74b3	0.00020913447044438246
14	0x3f71104649039b34	0.004165911246878196
15	0xbf6e6427b767b8d3	-0.0037098670684293316
16	0x3f65314a37d859f5	0.0025869798253197415
17	0x3f66c1d0d360835f	0.002777965414694369
18	0x3f5fec3c70987466	0.0019484129173925834
19	0x3f6099094a5147b3	0.0020260983897424033

linears.3.weight f8 [1, 20]
0	0xbfc2902ccf26ff47	-0.14502487292156216
1	0x3f93d9765989dd50	0.01938424035549008
2	0xbfb94605a4e46905	-0.09872470164956233
3	0xbfc648644591156c	-0.17408421894848958
4	0xbfde6cb8ab52ebc1	-0.4753858254513795
5	0x3fd3f4f85ed15de6	0.31182679423861115
6	0x3fc06188c0f2b9cb	0.12797650738998664
7	0xbfe0c68da9a6cf23	-0.524237471915033
8	0x3fbaa1393ed71bfe	0.10402257713495541
9	0x3fdc5fe1e90913ec	0.44335220105523265
10	0xbfdbff545c5df36f	-0.4374590780278628
11	0x3fd7738055988dee	0.36642464026428356
12	0x3fd781ecaeda6e31	0.36730496478569125
13	0x3fad82c4a34e84a7	0.05763830655565388
14	0xbfd32614c33a7dee	-0.2991992861297764
15	0x3fdf3b0a84c24ae8	0.48797858204595324
16	0xbfe16b47bf65be57	-0.5443457353812374
17	0xbfa0fdc6b0d7777e	-0.033186158263318596
18	0xbfde40f3772c5a5f	-0.4727142967034634
19	0xbfd46a299c74166b	-0.3189796474328889

linears.3.bias f8 [1]
0	0xbf62b0d3eb1f0d9d	-0.0022815836937028614

step f8 []
0	0x407f400000000000	500.0

exp_avg f8 [20, 2]
0	0x3f9ffabb65720f6d	0.03122990423845755
1	0x3fc454212d9c7bfe	0.15881743170845647
2	0x40143a5d216c4c06	5.056995889887736
3	0x3ff21251aca1716d	1.129472421968866
4	0xbfddbf332b9ba07b	-0.46479491480432217
5	0xbfeb96fb94f10a82	-0.8621805104269955
6	0xbffb1f25625381bd	-1.69510401161834
7	0xbfbf0f155dbd875d	-0.12132390535910305
8	0xc01381409077b985	-4.876222855861106
9	0xc0016c915f49571d	-2.1780116504913978
10	0x402546ef4426b1b0	10.638544206355476
11	0x3fe5554c13a72926	0.6666622527930357
12	0xbfd1568a1e63accc	-0.27090695350370875
13	0x40025746d3055dbb	2.292615555382978
14	0x3fdb0983356630a4	0.4224555989719738
15	0x3fb05e0071f135d2	0.06393435270111716
16	0x40118c4026f93c52	4.386963471376548
17	0xbfc00a10f9cdb7a6	-0.12530719945374108
18	0x40341661f9b6f9bc	20.08743248669792
19	0x3ff90083cceb294e	1.562625694716718
20	0xc00ee073e4ffee25	-3.8595960512737
21	0xc012a5861d8ede49	-4.661644422383298
22	0xc00d914dcaf3bab0	-3.695949159205462
23	0x3fd7f83ca75d1ea5	0.37452617973438357
24	0x3ff8d4335012a6b6	1.5518067481847715
25	0x3ff8237cb028c923	1.5086638337348368
26	0x3ff455f0a913955c	1.2709814648199744
27	0x3fe32b83299119cf	0.5990615665294231
28	0xc00d400dea76f221	-3.656276542429865
29	0x3ff53cbfac8120e6	1.327331231923432
30	0xbff04d4f5bdb9bfb	-1.0188745105931492
31	0xbfd33f9fbb5d825a	-0.30075829789533304
32	0xbffbdb2fe2658fa9	-1.7410124629613881
33	0x401744c96dac4a38	5.817174638405554
34	0xc00ed3dd381c33b3	-3.8534492858511498
35	0xbfdb8ba8a4154f15	-0.4303990938544627
36	0x3ff2c6acbc0f2b67	1.1735045763077439
37	0x3fe3fcd1e0e76188	0.6246117966320961
38	0x401c07da9b042def	7.007669851427166
39	0x3fe5b61729c58abf	0.6784778419353968

exp_avg_sq f8 [20, 2]
0	0x407b9e6257941160	441.89900930251133
1	0x3f873cb6d801fcdc	0.011346271960290748
2	0x40e1ba880ee5564f	36308.25181834085
3	0x402c959e7a0a47d6	14.29222470641609
4	0x40749cc304b0ae3f	329.797611894759
5	0x40016b6e0206be1b	2.177455917197006
6	0x40c0abcc5b8507bd	8535.596542958048
7	0x404cbcf4517d989d	57.47620600350022
8	0x40d88ceeb0d64fd9	25139.72954328344
9	0x4014dfe1ae108147	5.21863433814753
10	0x40d966e14b30577d	26011.52021416229
11	0x40703f5efae91049	259.9606885055587
12	0x408740403fd4efd1	744.0313717494665
13	0x404ef82f8f402409	61.93895140296815
14	0x40d1e58d8d9f267d	18326.21176890143
15	0x40a55148012e8de9	2728.640634016822
16	0x4103f901c2f9f063	163616.22020328333
17	0x3ff254b8fcb63b05	1.1456842299991774
18	0x40717c99e73487eb	279.78757401008505
19	0x40b5d406a47ed0f9	5588.025947500247
20	0x40d1fe64646283a7	18425.568627003257
21	0x40478e2451ff43bc	47.11048340763179
22	0x40cd516ef88e2298	15010.866960303203
23	0x3fc5267f84232c2d	0.1652373690797914
24	0x40f199d90fcabf3d	72093.566355464
25	0x403aa04fcbe5db89	26.62621759759671
26	0x40b969ba576b8550	6505.727896423385
27	0x400c25899de75c0f	3.5183288894872997
28	0x40c6496e8ad0f267	11410.86361133419
29	0x4089f34dc7eb74a6	830.4129789729093
30	0x41018a6afba69e5e	143693.37287639355
31	0x3fd257e0bc29e7a9	0.286613639596562
32	0x409a30de1ae52be8	1676.2168994720505
33	0x409fe42e9c11bb11	2041.0455172319819
34	0x40a62dd01c27a2cc	2838.9064648042895
35	0x3fd041a676cb13c4	0.25400697327523525
36	0x40cffa163ebe9b1f	16372.173789811843
37	0x3ff51ce51059958e	1.3195543898267235
38	0x411a0ea875204277	426922.1143808732
39	0x3fe28d83d915171c	0.5797747840776739

step f8 []
0	0x407f400000000000	500.0

exp_avg f8 [20]
0	0x3fe13e3fe250d7d2	0.5388488216619811
1	0xbfeed94c274cdcca	-0.9640255706389322
2	0xbfd370cddf5233a4	-0.3037600212926981
3	0x3fe59017c0e32528	0.6738394515352057
4	0x3ff6d47fe6c1adb0	1.4268797887733449
5	0x3fc7358a349f1ea4	0.18132140702640698
6	0xbfd258354cd48784	-0.28663380148838535
7	0x3fe0b903626aa26a	0.5225846216390668
8	0x3fc1b307705ae0bc	0.13827603326877191
9	0x40074b36a289ef4d	2.9117253015846587
10	0x3ff17082a3a837ee	1.0899683373313525
11	0x3fe0725ca39eb9b8	0.5139601894095938
12	0x3fe0b079822a7ba9	0.5215423147491168
13	0xbfeca78f40ee0975	-0.8954540508423593
14	0x3fe323a834c0c084	0.5981026678400814
15	0xbf8e6d9dee35d13d	-0.014857515174960251
16	0x3ff407ec2e187a32	1.2519342232332176
17	0x3feca4e77118de07	0.8951298912933802
18	0x3fb1ef5cf63ad64c	0.0700586415431072
19	0x3fe0e96b68cabb6c	0.5284935995785935

exp_avg_sq f8 [20]
0	0x40567536612c3534	89.83144406621142
1	0x40b752168708f228	5970.087997969742
2	0x40558799f636e350	86.11877208099509
3	0x40a1bb59514109e3	2269.674448044259
4	0x40b6797d11432632	5753.488544651818
5	0x40b045f7beb4c895	4165.96775369546
6	0x406a42bc55786e4f	210.08548997422847
7	0x40a4d2d334b03512	2665.4125113549026
8	0x40c8f4f8c5db0788	12777.943538073232
9	0x402825dfc23e6608	12.07397276889516
10	0x40ae830c588f3c5e	3905.5241131554785
11	0x409c53bbcfea6aa0	1812.933410322912
12	0x40bd7d5d3ac23cb3	7549.364177837199
13	0x4098765dcd7bde6d	1565.5916041712292
14	0x409669e938fe28f0	1434.4777564728247
15	0x40c83897b1d797e8	12401.185114812062
16	0x404f751f8f3bda5a	62.915025619721476
17	0x407fcf4cb7926beb	508.9562297553627
18	0x4094c9d1a0e66e7e	1330.454715347761
19	0x40ddac9328e77e79	30386.29937159873

step f8 []
0	0x407f400000000000	500.0

exp_avg f8 [20, 20]
0	0x3ff298e930c202b2	1.1623317627528817
1	0xbff78f0c984cbf39	-1.4724241208277375
2	0x3fe9d32c5be123ce	0.8070279879112776
3	0xbfd8eaf968bc32c3	-0.38934169033090543
4	0xc0040f126ad79871	-2.507359347061588
5	0x4013f9a9cbcec81f	4.993811783309893
6	0xbff6d43a7504ae77	-1.4268135615374413
7	0x3ff3362a4e964d87	1.2007239408311265
8	0x3ff41ea5cb2cc16b	1.2574823318974164
9	0x401d8e1b89e0d1bd	7.38877692637146
10	0xbfde68b8be01e39e	-0.4751417022267165
11	0xbfe72f943301dd44	-0.7245579715953814
12	0xbfded560d4c14270	-0.4817735746083036
13	0x4000a3387a88fadd	2.079697568230911
14	0x3fb7dad66f806e3f	0.09318294737061537
15	0xbfd7ff53d891b478	-0.3749589552815631
16	0x3ff3a8868a2a1dd5	1.2286439320613358
17	0x40049f2609498715	2.577709267193209
18	0x3ff095bde7793f6e	1.036558059877247
19	0xbff1a98bf0adb72d	-1.1038932229525458
20	0xbff014be9f7c0e0f	-1.0050646047465113
21	0xbff646a8c9be6a74	-1.3922508125894213
22	0xbff1b47d9b449398	-1.106565100207467
23	0xbff7bf003a5fff29	-1.4841310768387734
24	0xbfffc3ec3eabb7a3	-1.9853327224804864
25	0xbff77f6bea0b76b6	-1.4686087744116043
26	0xbffa3eea3f1aa82e	-1.6403601136212376
27	0xbfdccd7050105595	-0.4500389844773392
28	0xbfc5c054e371d2e4	-0.16993199449247876
29	0xbff82c319b61b53c	-1.510789496383338
30	0xbff6beab183b85d0	-1.421549887331242
31	0x3ff91537446ba75b	1.5676796600987106
32	0xbfe4064532c071fd	-0.6257654181713971
33	0x3ffd83f12ca004c6	1.8447124236266048
34	0xbfabb4e44ef9449e	-0.054114470138878476
35	0xbfc4faed5accde41	-0.16390768941504244
36	0xbff5c79ad7755096	-1.3612316528642956
37	0x3ffdfd21ba7029ca	1.8742997439136269
38	0xbfd1e604054622f6	-0.2796640445235846
39	0x3f9fbf47441fc6d9	0.031003106625525276
40	0x3fda7ddfc0c628bc	0.41393274140922265
41	0xbfcc4d5841a87210	-0.22111037450748983
42	0x3fd0a448670d4925	0.26002702773725367
43	0x3fa614e4355fb390	0.04312813903366142
44	0xbfd3b9246cefc0f4	-0.3081751884301547
45	0x3ff52a3e9d3f154f	1.322813619846176
46	0xbfc2e3e16aafd442	-0.1475793620044517
47	0xbfb8f440ac4cf27f	-0.09747699934536945
48	0x3fd1bbf36ba68538	0.2770966101907848
49	0x4000c2380d3be697	2.0948334726243263
50	0xbf9258b477f79510	-0.017916507551395233
51	0xbfd8f907a5a89a39	-0.3901995771179006
52	0xbfc2b5a1a4194d9e	-0.14616795075072003
53	0x3fd053c7ef4a8ccc	0.2551135861232978
54	0xbfb6f08acd69e335	-0.0896078826425651
55	0xbfc6b4e18e5b5e50	-0.1773950524427499
56	0xbfc073d34735ed36	-0.12853470780451354
57	0x3fd63bf9e33a9748	0.34741065206832333
58	0x3fd2cbddc451d6be	0.293693010061684
59	0xbfcc904d26fc7082	-0.22315372851960907
60	0xbfaf7244f9496a29	-0.06141868155528513
61	0x3f9b2967009c1692	0.02652512494298393
62	0x3f9b57ff63ef6ba1	0.02670287177521014
63	0xbfcb2b52ebb3b843	-0.21225964077842904
64	0x3fb9652a21238886	0.09919989880612165
65	0xbfd2573c016e983e	-0.28657436504215983
66	0xbfb89aa5340d4148	-0.09610970040126177
67	0x3fce9fa2372a1ce1	0.23924663251475578
68	0x3fa1e4ea042efad3	0.03494960118358894
69	0xbfdf1b1dbd785bfb	-0.4860300398153751
70	0xbfc15e57af1fd98f	-0.13569160510060072
71	0x3f855778f5ccebd6	0.010420746804461627
72	0xbfb136b685e4169e	-0.06724110382864487
73	0xbfa8055715969d4b	-0.04691574228791725
74	0xbfc7ddec94d12d23	-0.186460087456319
75	0xbfafbdd6a972f7eb	-0.061995227989868194
76	0x3fd8bd7de9e3ab61	0.3865656646800542
77	0xbfc72eaaeb5398ca	-0.1811116837554379
78	0x3f837f94ed1b34f3	0.00952068661299641
79	0xbfb620b7d902a127	-0.08643673942663509
80	0x3f9804ce88421c87	0.023455836359542317
81	0x3f9e56854ae2ca30	0.02962692517821547
82	0x3fdaf9b2dff729a5	0.4214904009974368
83	0xbfba3f7292a4959e	-0.10253063278340455
84	0x3fd7a10182556281	0.3692020199573918
85	0xbff4c7b48bbed53c	-1.2987561663442895
86	0x3fbdad11325d705f	0.1159220455132881
87	0x3fd8c93938b873ac	0.38728170909035486
88	0x3fa3660ca5e23ddf	0.03788795018146706
89	0xbffe5852732941a3	-1.8965630053026892
90	0xbfc15b9c6873b637	-0.1356082448977973
91	0xbfc724bcdfb56e5f	-0.18080864833142393
92	0xbfd337bd318d0ab3	-0.3002770408531134
93	0xbfd098d6badbc22e	-0.25932853935140343
94	0xbfd9d5005b97e496	-0.4036255735841875
95	0xbfd5a2f61ddfb263	-0.33807137410511795
96	0x3fc997a2b7dad906	0.19994005181587954
97	0xbfd65dd159260d27	-0.34947618204042147
98	0x3fb85eb40887e085	0.09519505699415916
99	0xbfb627e93d616b5d	-0.08654649494694185
100	0xbfbc5cd721f23863	-0.110791631496086
101	0x3fe7524436a02e4e	0.7287922923000651
102	0x3fca6d99a7c94b23	0.206469733168512
103	0x3fe4fccaebe907a0	0.6558584792730819
104	0x3ff0e309f85ec83e	1.0554294301951042
105	0x3fcaf14c0cf7eb2c	0.2104888022730277
106	0x3feb12d68eb4fac3	0.8460495745892661
107	0x3fb077ddcef2e364	0.06432901670895103
108	0xbfcccb8726685c20	-0.22496117949842276
109	0x3fca4e87262d4fe1	0.20552148212539037
110	0x3fe21cb3d31fbd91	0.5660037158503873
111	0xbfb9e5808ab94688	-0.10115817438897967
112	0x3fd8d6088197dae1	0.3880635514791902
113	0xbfee3c1db1f061b1	-0.9448383784647857
114	0x3fb7f885dd97d575	0.09363590869891943
115	0x3fd063692cfdf4f8	0.2560675563216388
116	0x3fb93e47f348bf8e	0.09860658349566462
117	0xbff0747ba9dcf601	-1.0284382472303835
118	0xbfcbf2d5914319c6	-0.2183482131278664
119	0x3fc9e5c91afc1a16	0.20232499902358886
120	0x3fdadcefba6f44d4	0.4197348900461979
121	0x3fb1903e4f3e5fb7	0.06860722956332564
122	0x3fb67b98c221f6f2	0.08782343616072888
123	0xbfcd6326310e1e74	-0.22958829303046324
124	0xbfca433ad59bc19d	-0.2051766913423422
125	0x3fcd5b790e91e5c2	0.22935403071805466
126	0xbfd207da648280fe	-0.28172931495102194
127	0x3fd4409f0ab511e0	0.3164441685260311
128	0x3fd03437fdba245e	0.25318717744864283
129	0x3f9f30c8b90ef901	0.03045953397281043
130	0x3fa76d21479141df	0.04575447081208827
131	0xbfd9126894ce0e76	-0.39174856693009674
132	0x3fceba085a5b1e94	0.24005226528082757
133	0x3fc3ad5aa5fa891a	0.1537278471415185
134	0x3fc9bd47911099fa	0.20108885367626766
135	0x3fc9118be436b137	0.19584797518963068
136	0x3fe0565d67bce2d7	0.5105425859574905
137	0x3fae2f5b4e2cf425	0.058955052655143704
138	0x3fc737586e22a1ae	0.18137650850009152
139	0xbfc78ae50d738983	-0.18392623097231472
140	0xbfb38282dfae34c9	-0.07621019326161894
141	0xbff265512813b7b3	-1.1497356000431693
142	0x3fc0937062cd902e	0.12949948143352813
143	0xbfebee89a9259da2	-0.8728683761263947
144	0xbffc69504e2d89b9	-1.7757113508056206
145	0x400169421096ab02	2.176395539854071
146	0xbff4b9ff4ec9c324	-1.2954094960843543
147	0x3fe84e23250c6c66	0.7595382426838
148	0x3fdc3b9b56c874c2	0.44113810992150715
149	0x400c96cddff27be1	3.57363486250641
150	0xbfec4633f4be5fa7	-0.8835696964406353
151	0x3fdd814a76c0e10e	0.46101628872885747
152	0xbfdf0131a49a46d3	-0.4844478709647834
153	0x3ff9183ddba2cac3	1.568418367340812
154	0xbfc3ccda3fd3962a	-0.15468910328415691
155	0xbfcd76ab61a63346	-0.2301840044787246
156	0x3fd6bb9693558581	0.3551994742211591
157	0x3ffb9dfd95f65c72	1.7260719163803313
158	0x3fd02a2e4ab13a7d	0.2525745133797626
159	0xbfe09493cdf9fd77	-0.5181368849734288
160	0x3fc764d31edd74b3	0.1827644253452597
161	0xbfe10a789960886b	-0.5325282092710614
162	0x3fd82aaad81056c2	0.37760420894606395
163	0xbfe570be3956338c	-0.6700125808580295
164	0xbfe3c75f9a758612	-0.6180875794199798
165	0xbfea640a7077479f	-0.8247120091057133
166	0xbfe46b79bd77db4d	-0.6381195736456476
167	0x3fe6a7fd33e6ab69	0.70800647866177
168	0x3fd8183c258d1be2	0.3764791838370326
169	0xbff250503133db9b	-1.144607727239168
170	0xbfe36a8fa39343b2	-0.6067579455212722
171	0xbfc057cde42d5933	-0.12767957345449474
172	0xbfdc1218899ba451	-0.43860448301581295
173	0x3fe37f296e1cc94f	0.6092726851114011
174	0xbfd6e665ef35e946	-0.3578123889962125
175	0xbfd797943bda14b1	-0.36862665028486236
176	0x3fd35f0a1505581c	0.3026757436067571
177	0x3fe2129004e5542d	0.5647659392949486
178	0x3fd48f70f068ad00	0.32125495412283556
179	0xbfd9ef46d6896806	-0.40522929144719944
180	0xbfd6d8916a45effc	-0.35696826341859356
181	0x3fcbb51e0f9ffd7c	0.21646476519525126
182	0xbfe4bf5b53644901	-0.6483589771981145
183	0x3f9fa0dc214e86d7	0.030887069256670365
184	0x3fc2086a029c2e9a	0.14088177802510843
185	0x3fb581d6b3a2a5b4	0.08401243100765649
186	0x3facab9343baf3d7	0.05599651529107746
187	0xbfdd15ebef0b2b37	-0.4544629892740661
188	0xbfd5ac7984ece1c1	-0.3386520193194223
189	0xbf9bbcde6d61fd18	-0.027087665010637613
190	0x3fc2be9a88ff758c	0.1464417618689534
191	0x3fda32de5cd87089	0.40935477320614005
192	0x3fd214db9da2d896	0.2825230636038979
193	0xbfc19ae95a0b7d86	-0.13754002472613197
194	0x3fd1d88b5b0f3a34	0.2788418187382462
195	0x3fd47c81fb852645	0.32009934961806535
196	0xbf7942b21cf0683d	-0.006167121652675131
197	0xbfcc24ed70ba7f5c	-0.21987693790742469
198	0xbfd56d89ffbd9eb9	-0.334810733553677
199	0x3fd473387ce68392	0.3195325107317838
200	0x3fd98b5345233c8e	0.39912873985026287
201	0xbfe816e000b9d9eb	-0.7527923597506833
202	0x3fd4e76fa79bb5ad	0.3266257416533687
203	0xbff04473245bebfe	-1.0167113704944764
204	0xbfea977a1c328ce6	-0.8309908438426674
205	0xbff1108e1b5116bc	-1.0665417735157652
206	0xbfedd2d390073230	-0.9319856465386405
207	0x3feb1b1023f9c3a2	0.8470535948418851
208	0x3fdfba29e1ad4dba	0.49573752440229735
209	0xbffa5d1809b71f72	-1.6477280025009944
210	0xbfebb346de5cbeac	-0.8656343787206047
211	0xbfd5346623041204	-0.3313231794311664
212	0xbfe4e082dc9a4f94	-0.6524061497352585
213	0x3feaf0810fd58265	0.8418584164865704
214	0xbfe0ddd51986ef1e	-0.5270791529251004
215	0xbfe25775b1867ec9	-0.573176237801783
216	0x3fec9a573024a33b	0.8938404026313046
217	0x3fe8217142e7419c	0.7540823275285677
218	0x3fdf1126cb353f30	0.48542184681444933
219	0xbfe0bfc142f0aa03	-0.5234075839446749
220	0x3fa9e47a81e525f4	0.050571277958237376
221	0xbffc2c3ac07d40c0	-1.7607982176887589
222	0xbfff4aa1b9a9995a	-1.9557206394616373
223	0xc0081555930464d1	-3.0104171262470136
224	0xc00bd22e7ba15d43	-3.477627721654842
225	0xbffa9a6c111d7cfb	-1.6627007168352168
226	0xc00aa1954cd46170	-3.328898048621504
227	0xbfc4dc863ae7256b	-0.1629798686611069
228	0x3fdaddd07d4231c1	0.4197884772518386
229	0xc005b26046333e16	-2.7120976910007455
230	0xbffee24f8f74bcc3	-1.9302516559362608
231	0x3fec3d168794b9b6	0.8824570320191956
232	0xbfc449fb150a5ace	-0.15850771453252438
233	0x4008f07420d370da	3.1174089970137233
234	0x3fe2564a4a0baa11	0.5730334707453172
235	0x3fd5d6e7f1cc4bbb	0.3412418233212368
236	0xbf8998aa4a627aba	-0.012498217005768242
237	0x4006d3f4d177c20e	2.8534942974731683
238	0x3fc717166153d8b6	0.18039207222290593
239	0xbfd6156cbd50b809	-0.3450576638014132
240	0xbfb1e5071093b679	-0.06990093378746022
241	0x3fe4b2e1badbe88b	0.6468361520376374
242	0x3fe252a73036f5e4	0.5725894872372774
243	0x3fee7972601c1d5d	0.9523250462670309
244	0x3ff212f7b59a55cf	1.129630765329569
245	0x3fd2c9eda3efe396	0.29357472428778786
246	0x3ff12139f80bbe16	1.0706119241039054
247	0x3fabdae631a6bd5d	0.054404443322136876
248	0xbfca6c68b3f52538	-0.20643338000290057
249	0x3fdedb40ade197ca	0.4821321199473202
250	0x3fe5590813480999	0.6671181084241652
251	0xbfca33b9a4e18b89	-0.20470352698165709
252	0x3fc886b9a72e6eda	0.19161148703721304
253	0xbff067404b39615b	-1.0252077997630156
254	0xbf99f1574f8550d6	-0.025334705570757197
255	0x3fa3691bf3e70d3a	0.037911294482479055
