1D_Steady_BedloadTransport/Models/Model.ckpt-6500.pt (torch, 31381 bytes, 32 tensors)

linears.0.weight f8 [20, 2]
-0.14762247518805208 0.15738018749927596 -0.2601065357573007 -0.27086799558413566 -0.3488839447934358 0.4265509129373312 -0.45611895575459277 -0.017185503020617103
-0.38027885039195714 -0.25560428222987863 -0.30280778013550347 0.0012680099201988844 -0.4472480343034871 -0.22066639699757246 -0.25830607269136036 0.06405729410567572
-0.05433455697154736 0.09408776471405303 -0.8080122213624035 -0.003906026159616754 -0.3030568058015488 -0.08449004148831728 0.21874814624806538 -0.3569165572466014
-0.1600710853826317 -0.23494336523253131 0.35972325000828714 0.2709392641222279 -0.07229934114933308 -0.03838151624851874 -0.0869133325981243 -0.026559436445186275
-0.21884091804668818 0.0007288627609675446 0.30400406075865566 0.40263594369597755 -0.026085558189815703 0.13160976261991347 0.039621813145965815 -0.2762767772379326
00000000: 2d2b 8b13 4be5 c2bf b082 2cb3 0825 c43f
00000010: e86b 23e2 95a5 d0bf aa48 a4b7 e655 d1bf
00000020: 892f 3f53 1d54 d6bf 1744 4933 9c4c db3f
00000030: 2f4e 838f 0d31 ddbf 6e64 c195 1399 91bf
00000040: cbcf 721a 7d56 d8bf c245 3910 d25b d0bf
00000050: 9201 2ae2 3361 d3bf 2737 d948 6bc6 543f
00000060: 2d29 2238 b69f dcbf 0a22 37e7 cb3e ccbf
00000070: 6b53 a431 1688 d0bf b70e 410f 0f66 b03f
00000080: 368c 7832 bdd1 abbf c28d 66c0 2216 b83f
00000090: 7ea2 3072 3cdb e9bf d8aa 9cd3 87ff 6fbf
000000a0: 30dd 6f5f 4865 d3bf 77ae 07ad 23a1 b5bf
000000b0: b018 1973 f0ff cb3f a99a 318b b8d7 d6bf
000000c0: d876 6096 357d c4bf f3fe 0acb 9f12 cebf
000000d0: 075f 99aa b405 d73f 98dd a6a3 1157 d13f
000000e0: 4d3c c2a9 3582 b2bf f4d6 1dfa bda6 a3bf
000000f0: 8966 18c1 f33f b6bf d2a3 ba9b 6532 9bbf
00000100: 11c1 04ad fa02 ccbf 514d 5edc 24e2 473f
00000110: ddd0 b372 cd74 d33f 9292 978c c9c4 d93f
00000120: 59eb 4a2d 2cb6 9abf 8eb7 24b5 96d8 c03f
00000130: 621d 576f 4f49 a43f 8b65 b8ca 84ae d1bf

linears.0.bias f8 [20]
0.0011774684765910642 -0.01445995646683238 0.00983390163625862 0.003953516521982399 0.012282797265551 -0.013464554246809418 -0.006761290658092001 -0.013420143841324486
0.005811700655186471 -0.5327322117322276 0.013864957900750638 0.01679166702461994 -0.014948621696668196 -0.004624921991598909 0.01079170898540461 0.013745293109142263
-0.040566588210268296 0.0304479833947801 0.021298435631136203 0.006194382242929781
00000000: 1780 5626 a94a 533f f355 0381 2e9d 8dbf
00000010: 37c6 5bef cb23 843f 0863 a802 9031 703f
00000020: 6ab5 7824 b927 893f 5d80 29e1 4d93 8bbf
00000030: c086 1524 bab1 7bbf b5b3 3f37 057c 8bbf
00000040: a97e f883 02ce 773f 214d 5d6c 240c e1bf
00000050: 1800 f425 3b65 8c3f f43f ddb2 d531 913f
00000060: b3b0 750a 629d 8ebf 751e 350b 95f1 72bf
00000070: 8437 48a9 f619 863f ac87 0503 7e26 8c3f
00000080: 15c8 58d3 24c5 a4bf ad90 a393 c12d 9f3f
00000090: e07d f7d1 41cf 953f fbd8 6fd2 475f 793f

linears.1.weight f8 [20, 20]
-0.23153983874133427 0.029456984240106905 0.17426593028400375 -0.20019981926614178 -0.3016134506089738 0.02610217113864988 0.21521959984409395 -0.06791945641597279
-0.15364241772624798 -0.3925838523250178 -0.35820735563878003 -0.17709746860467193 0.3366767926121181 -0.04306666325475844 0.21292224570311782 0.18034334733866483
-0.17297624116461202 -0.01732824864004793 0.3553909210722635 -0.34131295534066697 -0.06134585347678031 0.2598236369392188 -0.017769570278293133 0.1558414454805978
0.3447899504271946 0.008490499433576113 -0.025042324166613544 -0.06610705588028565 -0.05700285277213749 -0.2069992319264646 -0.2920316494180309 0.3168455712309421
-0.1880527108940942 0.021879173151904557 -0.3741976311854301 0.0965389185662345 -0.385930163295756 0.13497469797274933 -0.12447834164927168 0.3269659892178962
-0.42074621526985023 -0.297463191880087 0.24520632920840343 0.022774431092907468 0.3120459915743745 0.017707866792871965 0.10439039038412838 -0.21863336481312712
0.14603895100091108 -0.011433575215238948 -0.0004529586891906503 0.11441041289798722 -0.3092400110299857 0.21732313674047024 -0.14665745188178717 -0.03231846435387978
-0.19043024086487187 -0.12698838391878922 -0.4116859110415303 0.003211354006897234 0.09185369399968635 -0.36552496838429455 -0.011904960730625929 -0.3154166057197041
0.11409676514608298 0.1942771895993696 -0.3105717147986484 0.013312092787380944 -0.047076574992465675 0.056760379052031615 -0.017671603805096317 -0.31917543540804594
0.003818608191029616 -0.21443594802098495 -0.27903679148740085 -0.37203436073914914 -0.1883341987726024 -0.22085314510563023 -0.30034876625346235 -0.31040421417489844
-0.050959733358071545 -0.24227859389907527 0.030359844430188312 -0.1647093095573459 0.13512564586250478 -0.26756655294141235 -0.12684095603143763 0.27156678118723515
-0.18865178673928773 0.03504772633301961 -0.3603952474271973 0.316600439605561 0.36589036830433186 -0.0029707204811362346 0.1651996904610818 0.37273362821962813
0.36564146023510136 0.2008680920879651 -0.30418279286312644 0.12540798659883776 0.28406559331059866 0.20618986318894547 0.2992399882478728 -0.248654506353807
0.1446405390409001 -0.12534880305291102 -0.22104375729401923 -0.3926456474000823 0.09195663339781637 0.10684492757863177 -0.2812242397844686 0.26501626739405926
-0.2532063206884264 0.0921432807818067 -0.3355495127293355 0.3645929521615332 -0.009253178480763884 0.09410866292669835 -0.19576006187821965 -0.36607987476520953
-0.3340098312467483 0.18569816852341106 0.15986173960304892 0.15642192347732248 -0.24234011928865706 0.09106729672673092 0.20221296763466884 -0.2778812899190054
-0.3107255244674742 0.06985297753163662 -0.2639116454825735 -0.03394098758449033 -0.31943423947626215 -0.2823455856744887 0.209329785547335 -0.11443754672892695
-0.03666402730634066 0.2403957136167319 -0.20987596841978387 0.23403341008130765 0.13111952441111874 0.2376042802907242 0.23248404513175813 0.24992057974721432
0.39939434602873664 -0.3923751657406299 -0.19363616482570054 -0.018898772726626732 0.3719846955925807 -0.3272403558718461 -0.1620676353716652 0.017374032900815236
0.30886221299857186 0.00479692020529956 -0.34049510361380464 -0.12200642217746897 0.2585095434625422 -0.23561545510971074 -0.37238670932259543 -0.04176032804633381
-0.07506826093312943 0.09595397180331272 -0.24328916613314022 -0.33972459847842584 0.14314083194758714 0.270506982062026 0.1096228790828889 -0.004009352493315928
0.210473751016511 -0.0820962723022681 0.31545324670943636 0.305065630006269 -0.05024040591725776 0.17213384464476175 -0.005232176648926504 -0.14774661269931924
0.15739781310104065 -0.009572331404242684 0.3005969148060421 -0.2470282623817979 0.12247814053528613 0.12118187684156935 0.037523197497555325 -0.2742797116955148
0.4655984650978718 -0.02181957310260308 -0.048812777268292945 0.005135504576189349 0.14118051027302222 0.1391726651866734 0.3766954418212326 0.10106575315500806
0.29326501569132957 0.12235286379900141 0.027257227999413658 -0.14623263513965873 -0.24163209856043966 0.03807494152593906 0.26013235875591756 0.11318124335771619
0.22944905533847776 -0.018804825449269643 0.22986969000340624 0.12849195443783876 0.25974029359980194 0.23163354041361767 0.31725705726718134 0.22567034754449278
0.23471023089272589 -0.08056689495213172 -0.18791578920511792 -0.14508198484756885 0.2993466658932351 0.007447683648715774 0.005402189526901948 0.06991033797120672
-0.0643132703505591 0.2679479239433557 -0.08799517125985777 0.3004482010273317 0.1265385269569982 -0.11145881031889458 -0.11667648750102126 -0.24413788986779136
-0.37608466937594576 0.1790729481736243 -0.11801484873863081 0.2883956799924323 -0.1657711058514272 0.31060583329739455 -0.16197800559299683 -0.3732467529708868
-0.20471815640409818 0.0357215838420983 -0.2258049616360145 -0.2912879637398679 0.11103235074280669 -0.1722274312967063 -0.373741411757852 -0.3445340644412003
0.2209891180718555 -0.2845595675217711 0.08125416979621781 0.35504779660944996 -0.020788025388092726 -0.31204141286587883 0.2128302267286435 0.3386647574505662
-0.02002632594141042 -0.2931790720510412 -0.11629135732615584 -0.2647403039352392 -0.2196025691808738 0.33462960390729546 -0.1099800020448355 -0.06213219656004734
00000000: 0ebd 8ef1 18a3 cdbf 02d9 ccbf f829 9e3f
00000010: 613b b093 584e c63f 66e3 34ce 25a0 c9bf
00000020: 608d 9980 a24d d3bf 2194 940d 87ba 9a3f
00000030: 86f0 64db 508c cb3f 5b96 1164 2b63 b1bf
00000040: 44d0 b403 8eaa c3bf 001d ab05 1820 d9bf
00000050: d2ee 698b deec d6bf 1544 ee3d 21ab c6bf
00000060: 93d6 65d1 1c8c d53f 983d 746c d50c a6bf
00000070: d560 f140 0941 cb3f 3774 6fa5 7d15 c73f
00000080: febc 64e1 1524 c6bf cae7 d214 7fbe 91bf
00000090: 7d3e d38f b9be d63f dae9 384b 12d8 d5bf
000000a0: 1b20 db44 b968 afbf 236e d851 f3a0 d03f
000000b0: b343 d6ac 2f32 92bf 1eab d9cb 9cf2 c33f
000000c0: b6c0 44de 0911 d63f 65bd 268b 7763 813f
000000d0: fbe8 3eed b1a4 99bf 7069 0a5b 64ec b0bf
000000e0: b5bc de58 7a2f adbf a7ec b569 f37e cabf
000000f0: ad6e e983 a5b0 d2bf fb6f 94a5 3247 d43f
00000100: 726d 9b79 1c12 c8bf fb92 9a74 7e67 963f
00000110: 65a7 0b9f daf2 d7bf c67e 084a c6b6 b83f
00000120: 264b 796d 14b3 d8bf b94b cad4 d946 c13f
00000130: d4a5 7106 d0dd bfbf fc16 a6c1 02ed d43f
00000140: 70fc 9f88 81ed dabf 39e1 380e a309 d3bf
00000150: 6774 5cc6 eb62 cf3f 478a ea32 2e52 973f
00000160: a83a 2ac0 8ff8 d33f 247c 07d3 0222 923f
00000170: d36c b720 54b9 ba3f a8e9 d797 2dfc cbbf
00000180: 0adb 3e83 67b1 c23f 55a7 017d 7c6a 87bf
00000190: dbd3 aac1 62af 3dbf 7dfd b735 004a bd3f
000001a0: 0f43 7f9d 96ca d3bf 4973 7b9a 3ed1 cb3f
000001b0: 1903 c6df abc5 c2bf f4e8 e9b6 0b8c a0bf
000001c0: 368e 57a4 0460 c8bf 8598 f3c5 2741 c0bf
000001d0: fc6d 09dd 0f59 dabf 44a2 ef8d b24e 6a3f
000001e0: 70d5 be43 b983 b73f 253f 45d6 c264 d7bf
000001f0: a951 fcc7 a061 88bf f89c 8b21 c92f d4bf
00000200: e5be e112 7235 bd3f 2113 d82f 13de c83f
00000210: 84dc 872f 68e0 d3bf 2511 4ed9 5e43 8b3f
00000220: 742b 00bc 6b1a a8bf 365d 7947 b20f ad3f
00000230: b49d a441 8118 92bf 4ee7 30ce 5e6d d4bf
00000240: cea5 7ea9 3348 6f3f 171f eb1b a372 cbbf
00000250: 156d 7421 bddb d1bf f339 1735 69cf d7bf
00000260: 292d 39c4 551b c8bf 3345 b975 ea44 ccbf
00000270: e5f6 1c08 ea38 d3bf 41fe 1aa3 a9dd d3bf
00000280: db20 5fe8 6417 aabf 59a0 a826 fc02 cfbf
00000290: 94d9 c1ab a616 9f3f 15a1 f2d4 3115 c5bf
000002a0: 7148 ea12 cc4b c13f a3c1 9876 cf1f d1bf
000002b0: 2065 f90e 533c c0bf 3544 f8a2 5961 d13f
000002c0: 5448 30e3 bd25 c8bf 4888 cc8c c6f1 a13f
000002d0: 5e5a 553a b710 d7bf af53 807d 2e43 d43f
000002e0: ca76 726f bf6a d73f 1836 fc69 0d56 68bf
000002f0: 4a7a eb71 4325 c53f 89a7 d425 deda d73f
00000300: 5a5f 7170 ab66 d73f f1f2 29af 0bb6 c93f
00000310: b498 d61a bb77 d3bf 0fb3 8c70 5e0d c03f
00000320: dc05 4c74 212e d23f e3e4 94ef 6d64 ca3f
00000330: be85 cb7a bf26 d33f bf74 652e e9d3 cfbf
00000340: 0ba1 6dc8 9483 c23f 5e3d daf8 6d0b c0bf
00000350: fb08 486e 294b ccbf a701 a035 1b21 d9bf
00000360: b208 184d 788a b73f 1b97 b16d 305a bb3f
00000370: 4fdf 2df4 93ff d1bf f463 57ca 06f6 d03f
00000380: 6ed3 9f48 8834 d0bf 7a06 81b9 b396 b73f
00000390: 6b1e d7a9 a479 d5bf 38b2 78ad 7d55 d73f
000003a0: 76e4 ab97 54f3 82bf 655b 8a5d 8117 b83f
000003b0: 3aa0 d06b aa0e c9bf 4ec8 7548 da6d d7bf
000003c0: 28d3 6fc5 6a60 d5bf 4d19 5e24 f5c4 c73f
000003d0: 9306 bd77 5976 c43f ae33 db32 a205 c43f
000003e0: 2c40 6d43 0005 cfbf fc2a 2db5 2f50 b73f
000003f0: 86b4 6851 1de2 c93f c6d5 179b cec8 d1bf
00000400: 2bb2 674f ede2 d3bf 65cf 067e e2e1 b13f
00000410: 9265 98ab ede3 d0bf 29b2 568f b660 a1bf
00000420: c07b f14e 9c71 d4bf cf14 2938 f311 d2bf
00000430: 5e93 8083 51cb ca3f 529d a270 c74b bdbf
00000440: 30d6 709c a0c5 a2bf 928d 0a68 49c5 ce3f
00000450: 8526 4a3a 37dd cabf bd3b 3c89 cef4 cd3f
00000460: f83d 9b4a 86c8 c03f e37f 9e2a d169 ce3f
00000470: 5c62 5785 09c2 cd3f 664a 4ec6 65fd cf3f
00000480: 95a5 994d ad8f d93f e696 27ba ac1c d9bf
00000490: 67e7 9fe1 11c9 c8bf f67c 2e2b 335a 93bf
000004a0: 87b0 8be5 98ce d73f aaa9 9988 81f1 d4bf
000004b0: 46a7 d4dc a1be c4bf 8f3c 6f9c 7fca 913f
000004c0: ac23 f303 66c4 d33f 1ad9 7376 efa5 733f
000004d0: 040b 9ef9 abca d5bf 8b79 2719 d03b bfbf
000004e0: 5808 b89c 6b8b d03f 396e 10b1 a528 cebf
000004f0: d85b 8010 2fd5 d7bf 545e 7516 9c61 a5bf
00000500: 0ee6 ac6d ac37 b3bf 6408 d182 7090 b83f
00000510: 48a8 0172 1924 cfbf f823 073e 0cbe d5bf
00000520: 82f3 f753 7052 c23f a7f2 5284 fc4f d13f
00000530: 36eb 8db8 3e10 bc3f 950e 645d 1c6c 70bf
00000540: 6c24 a4ca cdf0 ca3f 9668 a9e4 4204 b5bf
00000550: db2d 82d0 6230 d43f 0bad 00fe 3186 d33f
00000560: 106c b448 1cb9 a9bf ff59 a458 7b08 c63f
00000570: 042a 81b9 556e 75bf 99b5 d16a 5ce9 c2bf
00000580: cd8d dd8d 9c25 c43f 201f 9f92 a89a 83bf
00000590: 70b5 97d7 fa3c d33f 310b 0f42 9f9e cfbf
000005a0: 1eee 1238 ba5a bf3f 5106 e785 c605 bf3f
000005b0: 76cb 2f94 3d36 a33f 1e11 ec7d cc8d d1bf
000005c0: 2971 2a81 5dcc dd3f a2ae 8dc3 de57 96bf
000005d0: 640e fd03 fdfd a8bf d445 4083 f708 753f
000005e0: bb44 3af5 3312 c23f 69a9 bcee 68d0 c13f
000005f0: 6e2a cb32 c71b d83f cdde 8bf8 71df b93f
00000600: ca21 dda0 dac4 d23f fdb1 966c 8452 bf3f
00000610: 0030 599b 51e9 9b3f a630 c440 c0b7 c2bf
00000620: 588f 7df4 cced cebf 9252 4d09 8f7e a33f
00000630: 7a3b 5f31 02a6 d03f 41f4 bd2a 72f9 bc3f
00000640: 0670 632e 965e cd3f 7f14 3f79 9241 93bf
00000650: 3e01 74b8 5e6c cd3f ab08 0ea3 6c72 c03f
00000660: cdbb 9dc0 959f d03f ead8 5df8 2aa6 cd3f
00000670: c8d0 588b f04d d43f e0b5 3015 c4e2 cc3f
00000680: 5b45 dc1e fc0a ce3f 25ad f532 08a0 b4bf
00000690: 8edd 84e4 9f0d c8bf 985c 14e6 0b92 c2bf
000006a0: b865 0beb 7e28 d33f b229 3c5b 7681 7e3f
000006b0: 6974 8435 9b20 763f 8017 3dd7 a4e5 b13f
000006c0: bfbd daa0 d576 b0bf 2b8a 970c 0f26 d13f
000006d0: a75a c4fe d986 b6bf ac7b 6317 8b3a d33f
000006e0: e46e 7b19 6a32 c03f 47b4 2b89 9088 bcbf
000006f0: 1b6f 07a2 82de bdbf a32a 590e e93f cfbf
00000700: 46c9 df6e c511 d8bf b483 00c4 dceb c63f
00000710: b359 c69b 3836 bebf ec02 7827 1375 d23f
00000720: 1577 20d3 fc37 c5bf 8262 fd49 f7e0 d33f
00000730: a5bb 58fe b1bb c4bf 1548 5659 46e3 d7bf
00000740: fc95 535d 3434 cabf bbec b974 194a a23f
00000750: e027 c04e 2de7 ccbf 6ecb 7e45 76a4 d2bf
00000760: e704 3dbb 9d6c bc3f 425c 7268 8c0b c6bf
00000770: 464b 2a19 61eb d7bf a181 c89a d80c d6bf
00000780: f8fb 7115 5f49 cc3f 3746 1155 3936 d2bf
00000790: 193a f0c1 12cd b43f aa15 bd64 1ab9 d63f
000007a0: b4d7 c2c4 7449 95bf dc6b d08b 7cf8 d3bf
000007b0: 482c b357 053e cb3f 85b5 63f2 aeac d53f
000007c0: 04da e8fb c781 94bf a42c 9527 72c3 d2bf
000007d0: 4af6 8538 45c5 bdbf dc6f d550 81f1 d0bf
000007e0: 57ed 5fde ef1b ccbf 8289 4349 926a d53f
000007f0: f91f ff3f a627 bcbf 7412 8290 cacf afbf

linears.1.bias f8 [20]
-0.010784285304509159 -0.008933222200093037 -0.010690172840705118 0.007984179605725908 0.013310354047964792 0.01743194493156694 0.000705500685591263 -0.01605933520371386
-0.0037625491252370924 -0.09579964112096397 -0.007759730508750346 -0.00875520135726687 0.00907878573988733 -0.004914641095868007 0.009166292497138117 0.007790828418114104
-0.0058647845079703035 0.028035029242085525 -0.006182331199949794 0.00937789016551412
00000000: 487e 8c45 1216 86bf 6c12 94c9 944b 82bf
00000010: e252 eab5 bae4 85bf 28fb 5572 025a 803f
00000020: ce6b ac7a 7542 8b3f f808 8c05 aed9 913f
00000030: 8813 9b2f 2b1e 473f e857 fbbd db71 90bf
00000040: e9d9 282e a3d2 6ebf 8944 9545 5386 b8bf
00000050: 8777 2ccc aac8 7fbf 5eae fe3b 3fee 81bf
00000060: 93be b8fe e597 823f e20a 74ec 5f21 74bf
00000070: 1998 01f4 c6c5 823f 2696 3b94 46e9 7f3f
00000080: 519f 8e1a ac05 78bf 55da f2f6 36b5 9c3f
00000090: e2b6 11e5 a452 79bf 6ae9 871c b734 833f

linears.2.weight f8 [20, 20]
0.34662800225447843 -0.2580401306641592 0.18912597099911732 -0.05413176412956517 -0.22109476697505423 -0.12924410722777474 -0.21124509713857326 -0.2640510922383583
0.3198677425475326 -0.027510985457045268 -0.13085758282603524 -0.018602131695937735 0.2782746260227195 0.2721318019037742 0.16193709296996775 0.04605279468825187
-0.15712889792880255 0.05866203923911713 -0.021824315209698585 -0.1563466038616169 0.18425342160379474 0.032347996169682286 0.00868674583422811 0.030858132574858463
0.21161701370179137 -0.19796260468976398 -0.3179412944128662 0.2664503531666273 -0.1884457766825842 0.042936450730983004 0.30416647378647343 0.025387596989900136
0.1894728711496933 -0.16056547778856248 0.36165269304097314 -0.03652416934853904 -0.2105692945566934 -0.25166463908346837 -0.19242947758288229 -0.28814172223285506
-0.12682305887513376 -0.29919097147971074 -0.16126427116052713 -0.22128325306228253 0.0827388410339612 0.23660014424235554 -0.09686339835448328 -0.26589359446642463
0.2898549165920351 0.08673080299347423 0.3536097547462608 -0.04634221139868694 -0.24186629100503212 -0.19018081077301807 0.08551466913509835 -0.33754587711410744
0.43426396246273624 0.13656152200677205 -0.13690917372863454 -0.08845517827980194 -0.34178138010651576 0.26922059220154 -0.13768963561368464 -0.020498844513180528
0.11206528376838824 0.1998355466492938 0.062062907998991036 -0.40077933150890327 0.3228851815798919 0.29114084359975295 0.24569210434064165 -0.13500493044070366
-0.04463408519516486 0.239137301470188 -0.11275394597393343 0.2812923318758614 0.3869352675651113 -0.21419763371557712 0.16725117736092524 0.32147892402318173
-0.007356072571284286 0.1362384208420394 0.2477262482289431 -0.013820429204354783 -0.07436650884708225 0.22982013879015195 0.26797892542654544 -0.1048832804617492
-0.17329685009867407 0.27680565106810245 -0.16144984409154 -0.19271330263189498 0.2779307968448192 -0.03733038107760125 0.14212795566878045 -0.04737527979290363
-0.38474963194105305 -0.09740272076467615 -0.24578834022236012 -0.0766932157258966 -0.17566244561284633 0.1933994460615491 -0.15406590524682623 -0.015501868739637343
0.34032430018802384 0.25637334730660355 -0.3484106665250951 -0.13050388880675193 -0.20384070282065897 -0.2442996553290946 0.3089944694682333 -0.020358707817157796
-0.11997714319918014 0.0022586117291982268 -0.04999085465769489 0.23044546377043612 -0.36620522849097026 0.014758673687417569 -0.19997151597692361 -0.31299440683371266
0.31970210219751505 0.020437348337641714 0.14441403663343041 -0.03317571881405563 0.19095096012331667 -0.33195656053772504 -0.1470534113416007 0.13417408392748323
-0.3772550166944945 -0.26537319301905027 -0.2752749432191365 0.19145313378348217 0.20610003250621536 -0.0767648305967911 0.10971207307071486 0.2731666997396352
-0.15214963523388872 -0.36556909918318137 -0.049801232453874696 0.1444655090259649 0.1127177202761114 -0.3397333566750164 -0.05779039069874919 0.28607437630110094
0.35258684595612444 0.08253341433054506 -0.3547624262274135 -0.031598700077540745 -0.12303241018581282 0.22061968250337882 -0.005019117790719099 0.02196635854801683
0.18047426383191392 -0.2193804301638206 0.0808632880723933 0.26635731299829024 -0.18612094265037077 0.06277448617855345 -0.23789982302913487 0.1919472504043436
0.1860622011652331 0.0040935736105647685 -0.3373541661441643 -0.38117229720530055 -0.29483532390748224 -0.20378778370589223 -0.10968032438412419 -0.3082035183694569
0.06779735377591671 0.19872315343676838 0.011020518803618961 0.264375905301247 0.41161814082477677 0.2879928195077221 -0.12320220686547546 -0.34899923046575987
0.19031842216331285 0.060960363408899584 -0.1409395966588258 -0.07306841864209121 0.2665768272134664 0.32169125402057597 0.23419289590394007 -0.31793000966742274
-0.09131635767692996 0.3408568229785787 -0.08350473728338179 0.09315588400534859 -0.08473452902925374 -0.16252981579726 -0.07618924750482386 0.3424358810809044
-0.07667051327737909 -0.035762949721454704 -0.1825041295569803 -0.1526486851288406 -0.23471441186212313 0.16333497979492279 0.103138223803454 0.07554962055337847
-0.12152783315250622 -0.24933332007492895 0.08177133600434928 0.32344357381271427 0.13327928419729218 -0.05842451198665087 0.004712673871910331 -0.32669085436782175
-0.043497828562210454 0.0022044782954111814 0.3160518959338804 0.14731236480323548 -0.29077770663342006 -0.01980284959563148 0.1683791491920992 0.27266202400260975
-0.2118411692978306 0.031153470172281 0.36720716168829787 0.12833076284630873 0.2864853844088008 -0.18887180289988229 -0.3103622368277328 0.28187581444477294
0.29820837689725926 -0.31625355541777395 0.3377924114341925 -0.27538326224655624 -0.014135689833330923 -0.0532505870299677 -0.1535373199296384 -0.1504669881612948
-0.26122022563005026 0.18166043980460192 -0.13466308378594516 0.1163898639175603 -0.32745259609791766 -0.15998245087023627 0.0004368738519777046 -0.1297827889095727
0.13406701101561466 0.28021515439811256 -0.28598057818050854 0.24671920683014373 -0.024133604646404922 0.024278723210423427 0.0459330793661005 -0.3432161350790595
-0.09280077338369462 0.29559550729975886 0.08943060097947839 -0.02207734766437477 -0.3494466714962739 -0.42811300726344514 -0.30675716617256354 -0.249633545220943
00000000: 22e4 6337 272f d63f 3685 90c0 ba83 d0bf
00000010: 60fa 21a2 4735 c83f 29f8 3899 28b7 abbf
00000020: a7bf bc54 d54c ccbf b63b df26 128b c0bf
00000030: 1644 d34f 140a cbbf ccc1 688d 36e6 d0bf
00000040: 365e 528d b678 d43f 0d64 46fb d62b 9cbf
00000050: 81f1 55f7 f0bf c0bf 856a 14ed 6f0c 93bf
00000060: dfbf 8460 40cf d13f 6c35 5881 9b6a d13f
00000070: 815c 28cb 5aba c43f a3a0 265e 3b94 a73f
00000080: 5f2c eeba cc1c c4bf 2aec 1868 f308 ae3f
00000090: b33f 5500 1d59 96bf 6391 365f 2a03 c4bf
000000a0: 6771 fbb9 9d95 c73f 6ca3 47a3 ea8f a03f
000000b0: f625 224a 5bca 813f 7c0a e638 4699 9f3f
000000c0: 262d 902c 4416 cb3f 0f9c 7cb0 d656 c9bf
000000d0: 5646 6371 2659 d4bf 9fee 36c8 850d d13f
000000e0: efe3 f5bf fd1e c8bf 574b 6437 c4fb a53f
000000f0: 7ef6 5ca8 7677 d33f a5be 2ecb 34ff 993f
00000100: 8698 88a4 a540 c83f 7df7 fbd9 688d c4bf
00000110: 7cc3 4756 5125 d73f 2a28 bbc1 4bb3 a2bf
00000120: 45d6 d444 eff3 cabf ba14 9b00 461b d0bf
00000130: bf9e 8074 87a1 c8bf 4c9b 66fa e970 d2bf
00000140: 37aa 1fed bc3b c0bf 88e2 70e3 f125 d3bf
00000150: 25e9 52c1 4ea4 c4bf 160a 8777 0253 ccbf
00000160: e68c 5968 5f2e b53f 70f9 dfdc e948 ce3f
00000170: 2da7 1c28 0acc b8bf 5fbf 1c91 6604 d1bf
00000180: 0e3f d6a2 fb8c d23f a7ac 696a fd33 b63f
00000190: 22a2 0bcf 8aa1 d63f 686b c394 2aba a7bf
000001a0: 158b ef80 79f5 cebf 7866 4c45 d857 c8bf
000001b0: 4375 4313 4ae4 b53f d6b3 c605 5a9a d5bf
000001c0: f8f6 2613 fbca db3f f39d 7413 d97a c13f
000001d0: 48eb d763 3d86 c1bf 2da4 dfa1 ffa4 b6bf
000001e0: 591c 7c02 bfdf d5bf 5f95 ba01 e93a d13f
000001f0: 4cbe fa60 d09f c1bf 64db 282b a6fd 94bf
00000200: 235c cd78 4fb0 bc3f 97ef b710 3694 c93f
00000210: 2df7 4ca0 b5c6 af3f 3595 6f5a 5ea6 d9bf
00000220: 00ea cf9b 26aa d43f 4d9c 7234 0da2 d23f
00000230: 16a5 83c0 d672 cf3f 6652 8570 d747 c1bf
00000240: ee74 6660 47da a6bf 25b9 8814 0d9c ce3f
00000250: 7af7 734e 71dd bcbf 0d6f 818d b100 d23f
00000260: 4a1d f723 8cc3 d83f d930 d8fb d36a cbbf
00000270: 1dc8 7d90 7c68 c53f f519 4256 1c93 d43f
00000280: 3d42 eeb1 6621 7ebf ccd4 fcb4 4270 c13f
00000290: f985 4063 7eb5 cf3f 4358 989b e24d 8cbf
000002a0: 4579 6afb ae09 b3bf e06e 080e bf6a cd3f
000002b0: e059 2e14 9126 d13f 0ffc 7a73 a1d9 babf
000002c0: 2a39 d657 972e c6bf 07df ab0c 2fb7 d13f
000002d0: a2a2 2874 63aa c4bf 1f71 275a d4aa c8bf
000002e0: 63fb bf40 9ec9 d13f 7343 c0bb f71c a3bf
000002f0: 90ed b8b4 3f31 c23f b9e0 b29a 9241 a8bf
00000300: 586e 95eb bc9f d8bf c0c7 397c 62ef b8bf
00000310: ce1f 7f09 fe75 cfbf 1028 5ea5 2aa2 b3bf
00000320: 6672 8565 1b7c c6bf 270e f323 50c1 c83f
00000330: 465c 3b7c 6eb8 c3bf 8ae8 1b9a 71bf 8fbf
00000340: 94dd d592 dfc7 d53f cadd 8fc1 6b68 d03f
00000350: d261 9340 5c4c d6bf 4581 36f7 59b4 c0bf
00000360: 5eac 1ac0 7317 cabf 1801 080b 3645 cfbf
00000370: 1eb3 40bd 90c6 d33f 2ad6 0dc1 e9d8 94bf
00000380: 45d8 4e72 d2b6 bebf 884f 5cf0 a680 623f
00000390: eb30 b5bb 6698 a9bf eae9 33a9 3c7f cd3f
000003a0: 148c ff0d e86f d7bf 41f0 8ea6 cb39 8e3f
000003b0: 934f a0a8 aa98 c9bf 37a1 4bb1 1908 d4bf
000003c0: 54a6 59ce ff75 d43f 1095 e83a 87ed 943f
000003d0: 5343 36be 287c c23f 29c3 a766 68fc a0bf
000003e0: fb49 6fc0 1471 c83f 68f0 ccba c63e d5bf
000003f0: c91b 3d6c a5d2 c2bf f93a 38cb 9d2c c13f
00000400: 3f1b bd39 f224 d8bf 661f 50d8 dffb d0bf
00000410: 6634 a2cb 1a9e d1bf e08b 284a 8981 c83f
00000420: 35cc a861 7c61 ca3f 3a6d e524 dca6 b3bf
00000430: 41a9 d025 1716 bc3f 253b 6f2e 907b d13f
00000440: d1c4 b6a5 a379 c3bf 5ee0 5aef 7b65 d7bf
00000450: b138 6111 8c7f a9bf 4450 5586 d87d c23f
00000460: b2fc 438a 11db bc3f 4fe3 11fa 30be d5bf
00000470: 47fc 25bc b396 adbf f5f4 9be6 0a4f d23f
00000480: f267 186b c890 d63f 187d 60eb e820 b53f
00000490: 42c4 9f76 6db4 d6bf 92b9 db6e b42d a0bf
000004a0: 8a9b 1852 0d7f bfbf 705b 9a08 443d cc3f
000004b0: 292b 412c ed8e 74bf d4c3 4d5e 597e 963f
000004c0: 61c0 76da c719 c73f 8dcf 776e a814 ccbf
000004d0: f9cb b7d9 74b3 b43f aa32 188b ff0b d13f
000004e0: 3a5b e4a0 cfd2 c7bf bbfb 281d fd11 b03f
000004f0: 7631 d15b 8073 cebf 899a 853d ba91 c83f
00000500: b062 83de e2d0 c73f 3091 7f4c 6cc4 703f
00000510: db8b b0ed 3597 d5bf 4ed4 a87d 2065 d8bf
00000520: 52d8 78fa 94de d2bf 1caa 2bd5 b715 cabf
00000530: 8d96 3e7e 0214 bcbf 482c fa3f 9bb9 d3bf
00000540: 4310 39d9 2a5b b13f 4005 7ca2 c26f c93f
00000550: f39f c5fe ec91 863f c6a1 c7ea 88eb d03f
00000560: 6418 529d f357 da3f 0f2f 516f 796e d23f
00000570: 2141 4809 2e8a bfbf a87e 4bde 0056 d6bf
00000580: a445 82a3 5a5c c83f 4612 635e 3236 af3f
00000590: 1f38 2e07 4f0a c2bf 162f 70a4 9cb4 b2bf
000005a0: c235 b040 980f d13f d65d dbe9 9696 d43f
000005b0: 4f75 6e66 08fa cd3f 1d11 7c1c f758 d4bf
000005c0: cbef cf41 8260 b7bf e9ee d322 99d0 d53f
000005d0: 5675 b103 9160 b5bf 11a2 3b63 10d9 b73f
000005e0: 9ac9 057f 29b1 b5bf 7cb0 bce9 c6cd c4bf
000005f0: b40e 5776 2381 b3bf 220b 8e2f 78ea d53f
00000600: 5208 18c3 ada0 b3bf a69d ec76 854f a2bf
00000610: ca84 ea99 4b5c c7bf 56f0 33fb fd89 c3bf
00000620: 3781 6c31 1f0b cebf ae89 411e 29e8 c43f
00000630: a40f 3442 4467 ba3f 1a81 804d 3857 b33f
00000640: 2d9a f1b4 721c bfbf 9530 c37b 27ea cfbf
00000650: 718f e35d f7ee b43f 4620 e8ac 4cb3 d43f
00000660: dc4a 6eab 4b0f c13f feeb 8850 d1e9 adbf
00000670: 0a4e 81c2 984d 733f bc5f dac1 80e8 d4bf
00000680: 9750 3eee 5845 a6bf 4980 df45 200f 623f
00000690: eafc 37bb 313a d43f 2f2b 90ae 21db c23f
000006a0: f85e 1919 1a9c d2bf fafb 85bd 3247 94bf
000006b0: 19df 8dad 728d c53f baf3 fc6a 4b73 d13f
000006c0: 8050 0a87 9c1d cbbf a5fb 2ffe b1e6 9f3f
000006d0: efb9 9377 5280 d73f bc70 bf76 246d c03f
000006e0: a256 34cb c655 d23f fdb7 4b84 f32c c8bf
000006f0: 4caa 4592 f9dc d3bf eab6 24db 400a d23f
00000700: a5af 8a96 d815 d33f 05d6 708d 7f3d d4bf
00000710: ea98 fc0f 649e d53f 79be 4d1e e19f d1bf
00000720: 070f 532c 2cf3 8cbf d6b1 9233 a943 abbf
00000730: c119 e863 1ca7 c3bf 81e3 a394 8042 c3bf
00000740: ada0 8809 d5b7 d0bf ed07 f837 a640 c73f
00000750: 0469 6bd2 a33c c1bf b59f 1ce3 b9cb bd3f
00000760: 4ec6 cebb fbf4 d4bf b6f6 3511 4e7a c4bf
00000770: 42eb 1ee8 86a1 3c3f fba2 f9f0 b89c c0bf
00000780: b36b e499 1b29 c13f 67f1 fe8a 0bef d13f
00000790: a5e4 a47b 814d d2bf 1db5 50b6 7e94 cf3f
000007a0: 057c c3ca 7ab6 98bf 97a9 b588 85dc 983f
000007b0: b42b 5d63 8a84 a73f e9f0 e7ce 40f7 d5bf
000007c0: 4ffa b99e cac1 b7bf 8b9b 2c6b 09eb d23f
000007d0: a6ee 7782 ece4 b63f c7bb cdb8 719b 96bf
000007e0: 7d71 7192 555d d6bf c813 4c19 3466 dbbf
000007f0: 4a96 21cf e8a1 d3bf b6af 5af4 fdf3 cfbf

linears.2.bias f8 [20]
0.013470805993290235 -0.015850261133007994 0.025466722993007975 0.015278509229186313 0.012475596624232622 -0.009513446266397807 -0.013956137625877432 0.012585876452578132
-0.00910256197869785 -0.008470830698809153 0.011095897260709853 -0.010545536742179961 -0.010580938598441487 -0.010779371056415748 0.014095284540415684 -0.016130791365704205
0.012846039773644832 0.010610605075260128 0.011058721599757801 0.009992010703992329
00000000: 1319 89f9 9496 8b3f f71c cc04 0d3b 90bf
00000010: 97a6 90d9 f213 9a3f 1596 c4cb 564a 8f3f
00000020: 544b fe3b ce8c 893f 3303 b124 c97b 83bf
00000030: 7bf4 7315 0995 8cbf fde4 0abe 9fc6 893f
00000040: 3e0a 1130 5da4 82bf bb19 92a6 2759 81bf
00000050: 1a11 d61e 72b9 863f c653 69fb e598 85bf
00000060: 9729 ee89 75ab 85bf 2321 45b1 7e13 86bf
00000070: 98fc 0711 fddd 8c3f 2b48 7f15 9784 90bf
00000080: b8f6 af45 064f 8a3f 81e6 4f4e 03bb 853f
00000090: a52b da7c f4a5 863f ee36 8ff9 b076 843f

linears.3.weight f8 [1, 20]
-0.15145423114190742 0.02793828526520021 -0.14090136648370166 -0.26789961679842683 -0.4653235033476042 0.2985084135855404 0.14275756816352275 -0.5255432253972945
0.10087495884662084 0.4454459327135503 -0.4427198814899278 0.36937848664557754 0.3709348609239839 0.05121235469580515 -0.30326143785079884 0.49090596976026624
-0.5568321556092178 -0.029942771452559407 -0.479648126294777 -0.33624518196059006
00000000: 5a33 cc2c da62 c3bf 92d7 1496 da9b 9c3f
00000010: c42d 8154 0e09 c2bf b7a6 306f 4425 d1bf
00000020: f009 3c3b dcc7 ddbf 3791 7b08 c31a d33f
00000030: ba68 4247 e145 c23f 50e7 b606 40d1 e0bf
00000040: fc48 3bf9 f0d2 b93f c104 49a8 2f82 dc3f
00000050: 7472 12c5 8555 dcbf 5347 ffa9 e5a3 d73f
00000060: 3359 2792 65bd d73f 38a7 2379 8138 aa3f
00000070: 6a41 6da9 a268 d3bf 3c04 62df 006b df3f
00000080: 1f7d 36ab 91d1 e1bf 9eb6 8f60 51a9 9ebf
00000090: 0985 010e 8eb2 debf d854 fd82 0a85 d5bf

linears.3.bias f8 [1]
-0.01157760771294446
00000000: 3ab1 f133 00b6 87bf

step f8 []
6500.0
00000000: 0000 0000 0064 b940

exp_avg f8 [20, 2]
-0.008511236228932257 0.0008246081468313559 0.006429898173986958 -0.005494234869229526 -0.009333341414317495 0.0030392644243820268 0.05108593019740816 0.003038109361367927
0.017488927685398746 -0.005511943260858563 0.11906219596815107 0.00466121428386075 -0.006568904376709089 0.0019154437691793124 -0.028728156826532673 0.05683743381742396
-0.009321235843694277 0.0006171422339490452 0.14757540859400775 -0.005101281699704814 0.02572089599189527 -0.004975818483347015 -0.016620780007200107 -0.00029602908698189034
-0.005191388516734379 -0.0020399042668722807 -0.006686700809834987 0.00016378573697900544 0.04257189635260743 -0.0020401767304619534 0.025926799050954685 0.00010799217193258174
0.052769247067501766 0.003848663198756185 -0.008814951392057095 0.0025013036293429444 -0.008424107643778845 0.0014369414159912052 0.07283383786915813 0.0020598214988041034
00000000: caac 03ca 566e 81bf f562 e682 5005 4b3f
00000010: e66d fba5 3c56 7a3f 1434 4771 1f81 76bf
00000020: f25c 18e1 5b1d 83bf 9ace cfa9 cce5 683f
00000030: 529b f75e ef27 aa3f d3ee 288b 60e3 683f
00000040: d6b7 cd11 9ee8 913f f149 af00 b193 76bf
00000050: e286 df2d dc7a be3f 4f91 8a2e a317 733f
00000060: 790b 7fd7 fee7 7abf 5c14 2416 f461 5f3f
00000070: 6e61 2df8 e96a 9dbf b969 dece cb19 ad3f
00000080: 0713 db18 0317 83bf 20fc 1bdb f638 443f
00000090: f073 cd40 c0e3 c23f 882e 16e1 14e5 74bf
000000a0: b59f 6f1c 9456 9a3f d848 821a 8661 74bf
000000b0: 597e 42aa 0905 91bf 83e7 4b3f 8b66 33bf
000000c0: 6c3c 67be 9043 75bf fa3a 9f43 fdb5 60bf
000000d0: d7f6 bd94 8363 7bbf 0868 8bc4 bc77 253f
000000e0: 4655 20cd fbcb a53f d28c bb8a 8fb6 60bf
000000f0: 5025 0e08 8e8c 9a3f 5da0 fe62 3b4f 1c3f
00000100: d367 c71c 9204 ab3f cba1 4d52 3b87 6f3f
00000110: afc6 8ebf 920d 82bf b5f2 2129 9d7d 643f
00000120: adc5 9f96 a840 81bf e62c d418 f88a 573f
00000130: fbb0 b007 3da5 b23f cb7f 223f c2df 603f

exp_avg_sq f8 [20, 2]
4.089875801675188 9.804845152570424e-05 99.41712248968453 0.03591240615760281 1.2991774902977804 0.0065953973106275526 21.194382027426258 0.160860034275376
67.16507798825687 0.016246973084442423 64.73724836427193 0.6520806371929033 1.8629808232768426 0.15568935688389918 46.01951010501304 6.751820564929387
456.07074570371464 0.0029868771945592253 1.3377846187648523 13.89478844999198 52.29590314805387 0.12131545446631871 47.43231743633871 0.0004825832532937286
185.16438749749594 0.06660273820527225 16.164419790311193 0.008865461753724381 44.24361307437614 2.0652340584689477 405.7611117970587 0.0012820777472363077
9.209978517920582 5.132335342370913 11.405181918628735 0.0008603640779714562 144.91432644233979 0.0034992020171640964 1092.3272526805354 0.0019877158716829976
00000000: 3c96 f366 085c 1040 9cda 2692 ebb3 193f
00000010: c1e7 8622 b2da 5840 bd65 ef63 1c63 a23f
00000020: 0474 0856 6ec9 f43f 9e66 0d7c c603 7b3f
00000030: d8b9 4205 c331 3540 651c 39c5 0f97 c43f
00000040: 9336 44a3 90ca 5040 5808 3ae8 0ba3 903f
00000050: f564 c313 2f2f 5040 c625 6336 d8dd e43f
00000060: 80c9 d0fa c4ce fd3f 4468 13fc a0ed c33f
00000070: 7c7c 9f4e 7f02 4740 ee53 0b40 dd01 1b40
00000080: 973c 3fc6 2181 7c40 b804 c57b ef77 683f
00000090: 6afd 2ad8 9067 f53f b11b 33b6 21ca 2b40
000000a0: 60d6 8327 e025 4a40 b5a5 6e95 870e bf3f
000000b0: 5c48 812d 56b7 4740 0cce 5d4a 67a0 3f3f
000000c0: b9b3 91a9 4225 6740 ed6a 6a86 e00c b13f
000000d0: a633 566a 172a 3040 4196 5e22 0e28 823f
000000e0: 6aa9 95b6 2e1f 4640 05ad 1d6f 9985 0040
000000f0: 784f 9083 2d5c 7940 c325 b37f 6c01 553f
00000100: b4a9 e64d 826b 2240 265a 7eea 8287 1440
00000110: c4e1 2201 74cf 2640 afd9 ecc9 4131 4c3f
00000120: f5f6 8629 421d 6240 a0e4 39c7 5baa 6c3f
00000130: b6a1 531b 4f11 9140 f02b 34d5 8a48 603f

step f8 []
6500.0
00000000: 0000 0000 0064 b940

exp_avg f8 [20]
-0.003744346909023563 0.014285973421645705 -0.005445468494100593 0.005455273227461895 -0.016074932379098756 -0.008070332032580865 0.0014183465171358604 0.0047478545226837
-0.007679666070738936 0.056268734782014364 -0.005200509790482327 -0.006185463789394359 0.023227084960945277 -0.0013852956910261373 0.007134713702457784 -0.02262871598087747
0.006084761324434882 -0.017864795232822177 -0.014380936155814096 -0.006356141100931289
00000000: c6c0 9cf0 76ac 6ebf 3496 19e5 f641 8d3f
00000010: 3539 7fd1 fc4d 76bf a2a1 a4c1 4458 763f
00000020: c520 6a73 f275 90bf aeaf 2ea1 2d87 80bf
00000030: 359d f3f9 f93c 573f a3df 6a7e 7c72 733f
00000040: b76d e3a9 b674 7fbf 2523 5a6f 41cf ac3f
00000050: d3f8 8f37 214d 75bf 2206 faca ed55 79bf
00000060: 009a 2749 d7c8 973f 103d 0cec 59b2 56bf
00000070: 0c48 4b20 4a39 7d3f 2476 5a6c fb2b 97bf
00000080: 5753 47ae 55ec 783f 0b4d 191d 264b 92bf
00000090: a1f9 cc93 c073 8dbf 7324 84a2 e508 7abf

exp_avg_sq f8 [20]
0.5199964281141634 16.16092121792613 0.29358841937096775 5.632231053765992 15.14939459728606 10.364490393819814 0.5250908380559018 6.669480885746031
34.6398043793275 0.06738973941762726 10.745002950307146 5.601300849261053 19.346496759722346 3.8883648012434637 4.215433023991557 34.58505471016203
0.7846001807473576 2.0072312784427555 10.442909165884776 77.41724404059433
00000000: 4e30 998c cfa3 e03f a839 0822 3229 3040
00000010: 5db0 eb14 27ca d23f 20c3 cd93 6787 1640
00000020: df15 db72 7d4c 2e40 1453 227c 9eba 2440
00000030: 7a23 1c4d 8bcd e03f 264e b665 8cad 1a40
00000040: 4c86 221c e551 4140 cf79 e236 7440 b13f
00000050: 44fc d506 717d 2540 7288 ea68 bb67 1640
00000060: 6d2d fb02 b458 3340 d410 4201 5f1b 0f40
00000070: a716 8279 9adc 1040 2242 9f12 e34a 4140
00000080: dfdb 97d6 711b e93f f75b c345 cf0e 0040
00000090: c325 7dfd c4e2 2440 6d33 5920 b45a 5340

step f8 []
6500.0
00000000: 0000 0000 0064 b940

exp_avg f8 [20, 20]
0.003206780337238988 0.01471635297850566 0.0024504806769381346 0.029660756059442333 0.017399961367309296 0.05016381990016786 0.019994678378736308 -0.014017428057790597
0.0074758177676413256 0.08813780635639912 0.00879270333750921 -0.0015874986549030796 0.017915384548756328 -0.016099788788400328 0.001650654873878066 0.0008361538662337738
0.02397657837694156 -0.011685659316566344 0.0025030816715016103 0.00030720893816207245 0.0013765200615551804 0.00018780282426702344 0.009307928343300948 0.023114208503067907
0.003574626168623363 0.02277416923055055 0.004529482663956664 -0.006083954648564991 0.009816743276980639 -0.00034532557092985787 0.003143327584003308 -0.006451197315492906
-0.002034526598646621 -0.002957347691832062 -0.00997558822642743 -0.011671727688311807 -0.007538989560000954 -0.0015922114213762079 0.010296119257367469 -0.008476896853877897
0.0009174398304878159 -0.0034178644307924313 -0.000608979892172992 0.0030245982388368508 -0.0030822990934822724 0.009039082337353961 -0.002614457975651819 -0.006662858896419817
0.001146599717048148 0.01351920512163954 -0.003285691407378894 0.0012102821378113182 -0.00227256445699041 0.0032465532709966506 0.00015463261778724007 0.00024943045373148384
0.0046996154866035 0.0035174946600333395 0.0009370187861095649 -4.0858214106869855e-06 -0.00030156540442665233 0.0027767954212796434 0.0018292666648478451 0.003305025673650603
0.003182047292264049 -0.000277379019232244 0.0029403736196299017 0.0025874207792865077 -0.001593410417637318 -0.00037496994709510417 0.003862776443897152 -0.0017237318847794067
0.0008152330725784869 -0.0032474649238516296 0.0001321071180807098 8.410969868055437e-05 0.0012097078177311976 -0.003052518792422623 -0.0012801200203185858 -1.2779665990138606e-05
-0.0072585682628990055 0.0017825802804768776 -0.0064172452726266194 -0.0011906602544498493 0.001690790151896593 -0.013757436909221394 0.0015618261713698407 -0.0037988236973180854
-0.006366591579911336 -0.00594012420043904 0.0024410477629095554 0.006488803340344655 0.0004847338282157578 -0.0018843405064223138 -0.000896629159010886 -0.0023860144427941053
-0.01003413194191533 -0.002160149452907224 -0.006420749988277136 0.0064435183274675865 -0.0028514082062161103 0.0028292846247120985 -0.004224868412170125 0.005607174381972904
0.0022694592545990247 -0.005403265566599958 0.0025296158641568067 0.009126756068345798 -0.002973443653137198 0.01174112864931908 0.003613096057680785 0.0038175559186556245
0.0020490910509149726 -0.0025101609946778887 -0.0004770998829349416 -0.0007368854403509214 -0.00020004636024650917 -0.0034522245742620505 -0.004086967041140904 0.004472954228346935
-0.008482810669423633 -0.0036336789203925916 -0.012136113239847646 -0.0013193907539542655 -0.0037536057290190423 -0.008726140323100305 -0.002937494623001343 -0.010085203904324337
-0.002889752907746296 0.0011831086180315164 -0.005019810729350764 0.010051281459343402 -0.0012553820557349579 0.0038981580239049554 -0.002819659877657632 -0.0036596944722680686
-0.00868400875651796 0.003201959947581121 -0.0011344861332145445 0.0021042540934076304 0.006955942064025338 -0.0050857501094854415 0.013141732883257417 0.02854582124580781
-0.002447704886201604 0.047623673190820594 -0.002166268599141124 -0.008418166176531733 0.014619962826652587 -0.00885898111356597 -0.0006438005488609019 -0.011330738797366223
-0.005111483894141768 0.003226638272463373 -0.006825803916169643 -0.007762826625698062 0.006369318822914621 0.006283103856862094 0.01392092366811964 -0.012756194914483026
-0.002157661205934307 0.001279362232662222 0.0017825665190027396 0.006902220285791783 0.0021841520702923275 0.0012087901530593395 0.001942303900419349 0.0006202120974840874
-0.001299245629085486 -0.014342017016840944 0.004190410963165552 -0.0010772229036009296 -0.0012597936076090732 -0.0022128029227494856 -0.0013569820312936479 -0.002034517826322091
-0.004290061823885922 -0.0018374396536709134 -0.0007549275532793679 -0.0002202043786592257 -0.0025525441069267694 0.0034651791154079866 -0.0016151033493060124 0.008798738417362787
0.003576746328013457 0.008345696009479242 0.003304573817099546 0.0025316397602650506 -0.0006876483876692378 -0.0022916479537327867 0.0043483400503933865 0.002042226962179209
0.0034224053132805507 -0.003547888932521121 0.001087995599735645 0.0008715474119590144 0.002832967418489353 -0.0035481892578477143 -0.0011751336209338125 0.0019390901631606825
-0.0037756585509434847 0.0025069452138353964 -0.004466416391603061 -0.002962014612988455 0.0021402072851134392 -0.014983622463199881 0.001630367517039608 0.008493867621176236
-0.00192212514350351 0.004728608616596417 0.001463705935599075 0.004166242719242228 0.002510859346114607 -0.0022426409023617293 -0.003469058695417162 -0.004037563612412166
-0.007772389928607754 -0.0027278205115841255 -0.0022950505130217825 0.0033489297055332144 0.00907606920298907 -0.003954149683134342 0.008718360201941562 0.009361264751539177
-0.002636950475631582 0.014042716075139941 -0.0015359893140881882 0.019311115273969472 0.015878499889266418 -0.010484708199690402 -0.0035515662162378973 -0.00773420569730162
0.0009476312974057111 0.00346172151511474 -0.004590554382576277 -0.003447823209662691 -0.0008343622570354984 0.004083989847922769 0.014700781230481985 -0.011800019594004476
0.0013291696687360644 4.084926431251549e-05 0.004545829778706116 -0.002674614131814018 0.00014216865607337057 -0.0025445797425102477 9.33320681463755e-05 -0.000382420043316332
-0.0026304912470568862 -0.003926481153629363 0.001169815485609364 -0.002620316795071173 -0.0022889219117466423 -0.00036171019713695265 0.001389788294837219 0.0012237580719256995
00000000: 1491 9015 1b45 6a3f 6495 1276 9b23 8e3f
00000010: 5ee2 bdcb 0713 643f ebef ffa4 635f 9e3f
00000020: cbd6 18a4 4bd1 913f 95ca d37b 12af a93f
00000030: 703f ec26 7c79 943f 3c6f a858 2bb5 8cbf
00000040: 357f 2a8d f69e 7e3f c087 d703 3390 b63f
00000050: e668 39aa e801 823f b142 89b3 7302 5abf
00000060: 89be ed1a 6958 923f da55 4689 767c 90bf
00000070: 348a d12c 590b 5b3f 9656 44c1 2a66 4b3f
00000080: 60eb feef 508d 983f 6059 c6a4 a6ee 87bf
00000090: 24d9 62bd 5781 643f 8679 aa57 1c22 343f
000000a0: b1ff 6229 8b8d 563f fe82 05fa 9d9d 283f
000000b0: b7b8 9ffe 0810 833f 25d9 5f46 40ab 973f
000000c0: 0152 abcf 8848 6d3f 05b7 27a0 1c52 973f
000000d0: 5b48 8dbe 818d 723f 4a58 ef23 7deb 78bf
000000e0: ea74 9ffa cc1a 843f 6313 9b08 9aa1 36bf
000000f0: 66a9 9025 09c0 693f 6563 d717 926c 7abf
00000100: 9268 8726 b6aa 60bf be77 d1f3 013a 68bf
00000110: 0ae6 86c9 146e 84bf 7a45 acc5 58e7 87bf
00000120: 5b72 ae19 34e1 7ebf c093 ebfe 3716 5abf
00000130: 298d e3bb 2116 853f 505f 12d6 555c 81bf
00000140: 3bfe b308 0b10 4e3f 552f 7afe c7ff 6bbf
00000150: 4b53 435c 7ef4 43bf 3376 9ed0 0ac7 683f
00000160: 5c26 b2b9 0c40 69bf 44c3 3218 1583 823f
00000170: b5f2 1170 ea6a 65bf 7b82 ed90 834a 7bbf
00000180: 9f24 5312 30c9 523f 9140 ecfe f4af 8b3f
00000190: 0e4c 7624 98ea 6abf e170 da8c 4ad4 533f
000001a0: e39a aac0 e99d 62bf f6f5 f403 8498 6a3f
000001b0: 0abe 9412 9c44 243f 6eff 32a4 bf58 303f
000001c0: 238c 196d e73f 733f b717 eb90 b8d0 6c3f
000001d0: 87d1 6285 48b4 4e3f 70b0 9a09 1e23 d1be
000001e0: 45bb b38c 6dc3 33bf 34de b4b0 5cbf 663f
000001f0: 1a68 1320 80f8 5d3f 8edd c825 2413 6b3f
00000200: 5547 bfa1 3c11 6a3f a56b f2d0 a52d 32bf
00000210: 863e 1911 6916 683f caca 18f4 3632 653f
00000220: c4be 8068 3f1b 5abf 55ca e5a8 f392 38bf
00000230: 7d0d f24f d4a4 6f3f b7ec 9e04 db3d 5cbf
00000240: a0e4 52b1 abb6 4a3f e939 9274 6d9a 6abf
00000250: cb28 e280 c750 213f 52ff d49e 810c 163f
00000260: 97a5 f3e0 e1d1 533f ecbf 488c 9801 69bf
00000270: 2e81 d267 36f9 54bf 1b37 5eeb 07cd eabe
00000280: 4503 e114 29bb 7dbf a406 7500 af34 5d3f
00000290: 52b2 3829 f848 7abf cee4 9fb6 fd81 53bf
000002a0: cdec 081a b0b3 5b3f 4aab d0ec db2c 8cbf
000002b0: d01a ff14 c696 593f e14f 62f1 b51e 6fbf
000002c0: d59c f6e9 da13 7abf ba0f cdf2 ab54 78bf
000002d0: 1dd2 e889 3fff 633f 9ef8 30e2 0094 7a3f
000002e0: c6e5 7ff0 7bc4 3f3f a80a 6036 7fdf 5ebf
000002f0: 9457 1175 7861 4dbf 4f98 fcbf d58b 63bf
00000300: 2332 4664 c68c 84bf 1c93 2668 29b2 61bf
00000310: 0774 72f3 a44c 7abf fc69 cdc7 8464 7a3f
00000320: 19a8 c81f d65b 67bf f614 e59d 702d 673f
00000330: c112 907a 184e 71bf 9026 7f69 8cf7 763f
00000340: 6241 e6a8 6697 623f 6703 670e bc21 76bf
00000350: 2e4e 0e2d fdb8 643f c62b a876 0cb1 823f
00000360: b427 e567 c35b 68bf 3b1f 899c bb0b 883f
00000370: fc21 f62c 3699 6d3f 01e7 47ba fe45 6f3f
00000380: c749 9b61 41c9 603f 969e 276c 3090 64bf
00000390: f7c4 e564 6844 3fbf 3a99 006f 7125 48bf
000003a0: 16e0 5e26 7138 2abf ae0b a3f4 d647 6cbf
000003b0: ad25 81dc 7ebd 70bf 8a3c 0982 3b52 723f
000003c0: 5f07 3a93 6f5f 81bf 3470 1284 60c4 6dbf
000003d0: 00c0 b98b d1da 88bf 0862 e308 ed9d 55bf
000003e0: d693 24bb e1bf 6ebf 99d4 76ba 02df 81bf
000003f0: 5e9f d06a 5f10 68bf 475f 8a27 8da7 84bf
00000400: 0dee 6e47 40ac 67bf 3da6 9c34 5162 533f
00000410: 857e a22e a78f 74bf 76c7 3429 c495 843f
00000420: 413e e537 7491 54bf 5523 46a7 07ef 6f3f
00000430: e674 bb5e 4119 67bf adb8 4b82 effa 6dbf
00000440: 3400 dcec ebc8 81bf 2e3b 4128 ff3a 6a3f
00000450: 1248 c135 6196 52bf e4e6 6fd0 f03c 613f
00000460: 4583 d87a d57d 7c3f 187a 55a6 cbd4 74bf
00000470: 5924 9287 0dea 8a3f 36b9 c0a2 1d3b 9d3f
00000480: f9c4 f78d 350d 64bf 3d6c bd4d 2162 a83f
00000490: bf88 3499 febe 61bf 9d2d 5d23 8b3d 81bf
000004a0: 8c75 ac31 12f1 8d3f fbe8 4451 a824 82bf
000004b0: 0777 b826 9718 45bf 79f9 9704 9234 87bf
000004c0: 28c7 8c82 c7ef 74bf db6a 663b c06e 6a3f
000004d0: adf5 6bc9 5ff5 7bbf 8fd3 b5e7 e9cb 7fbf
000004e0: 2cea ac00 b716 7a3f 414e 52d9 4fbc 793f
000004f0: 5dd6 13bf 9282 8c3f 9635 d57f eb1f 8abf
00000500: 0a3b 178a f1ac 61bf e0c5 bcbc 08f6 543f
00000510: 715f bb39 a034 5d3f f430 5ba6 8045 7c3f
00000520: 0cc2 c3b6 7fe4 613f aa1c 358b 08ce 533f
00000530: 5de3 cbee 9cd2 5f3f 1480 6f56 b752 443f
00000540: 9010 215f 6e49 55bf 1839 5ef0 585f 8dbf
00000550: 9f91 b2e0 f629 713f 71d0 0d49 33a6 51bf
00000560: d27f 0a16 f5a3 54bf db45 f185 9520 62bf
00000570: 20ca 855c 983b 56bf 9aad de70 b1aa 60bf
00000580: 07d9 b3b3 7492 71bf 6510 23ce c71a 5ebf
00000590: 74c5 7a93 cabc 48bf 4b61 a535 d5dc 2cbf
000005a0: 4f44 bfae 12e9 64bf def6 36df 0163 6c3f
000005b0: 97cd 2704 3c76 5abf c232 fdad 1205 823f
000005c0: 6430 2810 fb4c 6d3f 1373 625b 8c17 813f
000005d0: a0d7 178f 3112 6b3f 070c 38bf 3bbd 643f
000005e0: d028 08ab 6988 46bf adbe 7c20 efc5 62bf
000005f0: dce7 eea4 90cf 713f 8828 6f40 dcba 603f
00000600: 3042 9ddc 4d09 6c3f 0eac eb5d 7610 6dbf
00000610: c338 3861 62d3 513f b3b2 cdd0 118f 4c3f
00000620: d0aa 37cd 2935 673f edb5 519a 1711 6dbf
00000630: 3d10 1a1e de40 53bf fae0 6c35 22c5 5f3f
00000640: 9cc6 e83f 21ee 6ebf aee6 99f6 7189 643f
00000650: 05e9 5085 604b 72bf 8af1 937c cb43 68bf
00000660: 03a9 7a09 5788 613f 97f3 a3c3 bbaf 8ebf
00000670: 2822 a2ca 41b6 5a3f cf2f 329d 3b65 813f
00000680: 7aa7 5428 fa7d 5fbf 8a64 d235 4e5e 733f
00000690: e97f f547 3afb 573f 571a 9f43 9f10 713f
000006a0: f16a d858 a791 643f 3c54 a2aa 285f 62bf
000006b0: 388e a1b4 246b 6cbf 1bb8 bb3a b189 70bf
000006c0: 14d0 e108 f1d5 7fbf ba1f 5f7c a758 66bf
000006d0: bbd2 acdc 11cd 62bf bdd2 faf1 366f 6b3f
000006e0: 357d 3963 7996 823f fd2a 29f9 3932 70bf
000006f0: e464 897f eeda 813f 330e a8af ff2b 833f
00000700: b171 ba01 169a 65bf f562 5172 6dc2 8c3f
00000710: 83b2 bef7 672a 59bf 6735 3402 4bc6 933f
00000720: ad8d ef16 7442 903f 0a2f 9bb6 0179 85bf
00000730: 463d f297 2c18 6dbf 58b6 7c08 e7ad 7fbf
00000740: d7c7 2bb7 4e0d 4f3f 58b6 3f96 c15b 6c3f
00000750: 854a 198f 8bcd 72bf 7c48 b1fd 9b3e 6cbf
00000760: 9da8 b14d 2357 4bbf df29 58ad 5fba 703f
00000770: ed72 e274 711b 8e3f 8ebd fcd1 9b2a 88bf
00000780: 9fff 8310 f1c6 553f 121a c808 b26a 053f
00000790: 913e b9e3 a59e 723f f3ca 3787 12e9 65bf
000007a0: 7879 ea74 63a2 223f 542f d6d8 5ed8 64bf
000007b0: 016f afb8 6877 183f 1127 5294 f10f 39bf
000007c0: 7ddd 1c3c 8a8c 65bf 798a 4ac2 3615 70bf
000007d0: 45ea 31d0 8f2a 533f 6066 14de 3377 65bf
000007e0: af2c 2198 37c0 62bf 6b21 a377 7db4 37bf
000007f0: 1b83 94d1 31c5 563f deb0 6a39 d00c 543f
