1D_Steady_BedloadTransport/Models/Model.ckpt-10000.pt (torch, 31415 bytes, 32 tensors)

linears.0.weight f8 [20, 2]
000000 30 65 9c b7 fa a4 c2 bf 07 d5 86 35 0c f5 b6 3f
       -0.1456597706353846 0.08967663103870303
000010 9b c0 cc f3 bc c5 d0 bf 1f f0 81 02 81 ea cb bf
       -0.2620689755303915 -0.21809399244728042
000020 2d f3 91 d0 05 d1 d5 bf 78 c5 b6 b4 be 47 d6 3f
       -0.3408827339952037 0.34812896392676107
000030 04 7f 87 8d 76 db dd bf 80 da a9 0a 7b 54 9a bf
       -0.46651996442049914 -0.02571289303383617
000040 e7 05 b6 f2 81 44 d8 bf 0a bb 9a af 3d 8e c9 bf
       -0.3791813726639632 -0.19965334963259124
000050 a9 54 e1 e3 55 ff d4 bf c1 28 6e 0f b1 6e 62 bf
       -0.3280844426529464 -0.0022500475128640345
000060 91 75 03 d9 98 71 dc bf 3b 34 85 81 d3 e2 c9 bf
       -0.4444334143898568 -0.202234686128948
000070 68 e6 df cb fb dc cf bf 8d f1 e1 9b ba 3f a2 3f
       -0.24893138365569034 0.03564246323455498
000080 97 0e d5 9a 3a 89 ab bf c1 8a 1b e4 7c 46 b6 3f
       -0.0537813486103264 0.08701305932076321
000090 01 65 f7 9f a4 16 ee bf 77 4f 29 86 2a 67 69 bf
       -0.9402640461295563 -0.0031009512470436223
0000a0 d9 49 3b f5 a1 8d d3 bf 5b 48 1c 6d 6d 6c ab bf
       -0.3055195708122063 -0.05356161076464679
0000b0 16 c0 74 2c 2e 30 cc 3f c2 85 68 80 f9 17 d3 bf
       0.2202203480787836 -0.29833829440948645
0000c0 1f 71 1b b1 e5 4d c4 bf c1 af 08 85 fb 16 cb bf
       -0.15862723491489647 -0.21163887019917918
0000d0 51 a8 35 cc 9d 20 d7 3f 59 27 ac 2d 52 97 d0 3f
       0.36136574690192896 0.2592359014530437
0000e0 c1 33 98 c1 6b b1 b2 bf 39 a1 c9 78 af 33 9c bf
       -0.07301972843579475 -0.02754091429452041
0000f0 87 ca 9c 40 55 79 b6 bf 8d 83 f7 e3 53 56 9b bf
       -0.0877888949151303 -0.026696501530640005
000100 f9 37 d3 05 f9 05 cd bf 70 a3 e1 2b 7a 5f 6f 3f
       -0.22674477371623405 0.0038297067795167103
000110 71 bf bc 76 38 a6 d3 3f 51 ac 4e 58 39 7e d3 3f
       0.30702029796065405 0.30457910178910647
000120 19 a7 d9 6d ad 3e 99 bf 2d e2 27 fa 1d e7 bd 3f
       -0.024653158025478825 0.11680781705207073
000130 75 af f5 f3 44 76 a3 3f 3a cc 2f 77 ab 45 d3 bf
       0.03801169851325784 -0.30112730635955

linears.0.bias f8 [20]
000000 50 26 c8 c1 1d dc 78 3f df c5 76 22 dc b6 92 bf
       0.00606929420292486 -0.018275680163872706
000010 e7 b7 71 26 46 11 91 3f 7d 17 41 7c 1e a4 61 3f
       0.016667457672546872 0.0021534533898685524
000020 13 08 a2 78 2b 3d 90 3f ac 9c 1f b5 cc 4c 8b bf
       0.015858344304895477 -0.013330077435922703
000030 db e6 2b 99 62 0e 75 bf 21 8f 26 9b 3b 70 8b bf
       -0.005140671872817494 -0.013397660896607601
000040 82 4f 8f bb f0 99 7d 3f 4e 9a 51 94 aa 3f e6 bf
       0.007226887094436198 -0.6952717682696148
000050 34 fd 1a 99 a6 7f 8f 3f c8 07 7b d6 6a a8 92 3f
       0.01538019327870064 0.018220586148124857
000060 43 72 05 c8 e1 c3 94 bf 6e 9b 1d 29 92 02 67 bf
       -0.020278480370836027 -0.002808843107163942
000070 58 cb 3c 05 2d 19 7e 3f 13 96 60 f6 3c a2 90 3f
       0.00734822832218892 0.01624388936774863
000080 80 a7 ac 08 b4 73 a5 bf f0 2e 8c 25 2c 08 a3 3f
       -0.041898370798960194 0.03717172582954997
000090 63 f6 18 db d9 cf 97 3f f5 cb 7b 0c f0 9d 7b 3f
       0.023253826139116984 0.006742417994007423

linears.1.weight f8 [20, 20]
000000 e9 5d 62 b6 ec b4 cd bf 4e 55 b8 3e c5 1a 9d 3f
       -0.2320838823841165 0.028422433808448937
000010 f8 5e 8e f8 89 45 c6 3f f7 c3 04 5d 8a df c9 bf
       0.173997160306264 -0.2021344141190011
000020 0f c5 26 2d 3f 5b d3 bf 1a 7c 3b a3 6d e3 96 3f
       -0.3024442616397928 0.022351945007241004
000030 71 0a 3a 66 65 6e cb 3f 4b ab bf 41 57 50 b1 bf
       0.2143065213350215 -0.06763215403740934
000040 af 50 9a 81 70 f6 c3 bf de c3 47 02 e5 70 d9 bf
       -0.1559582360101834 -0.39751553747833934
000050 0f 68 eb f0 49 f4 d6 bf 43 03 82 1c c2 a9 c6 bf
       -0.3586602070550961 -0.1770556105803057
000060 9b c1 ee 9b 92 6a d5 3f 5c ac 16 11 cc b2 a5 bf
       0.33462968089863815 -0.042379738889700674
000070 4d 7f a2 25 9b 5e cb 3f dd 9b 7c 2e 5d 34 c7 3f
       0.2138246473086788 0.1812855221735096
000080 00 03 ba 58 03 55 c6 bf 63 93 f9 4e d0 32 91 bf
       -0.17446939308504028 -0.016795401401754072
000090 42 ee 6e 1d 5f 9d d6 3f 2d f0 62 35 4b e1 d5 bf
       0.35335519670818283 -0.3418758412697141
0000a0 b0 0f 1f 26 b6 f0 ae bf d5 16 9a fb 24 a5 d0 3f
       -0.060430233148081824 0.2600796181726371
0000b0 30 4a 9f 2b 23 4c 95 bf d4 8c a4 73 b8 79 c3 3f
       -0.02079825357197701 0.1521521153127653
0000c0 84 e9 81 82 50 0b d6 3f 1e 38 4c 52 e1 4e 7a 3f
       0.34444058174963055 0.0064228822345864505
0000d0 e6 93 6d 94 54 40 9a bf 61 71 1e 3b c9 de b1 bf
       -0.02563602596218919 -0.06980569547017047
0000e0 90 f4 73 bd fe 66 b0 bf d9 d4 09 e3 ef 7b ca bf
       -0.06407158017460035 -0.20690725885257313
0000f0 c4 cf 9e c8 08 b2 d2 bf 77 de 79 20 e2 67 d4 3f
       -0.2921163520034009 0.3188405339383062
000100 95 30 c7 6b 25 fd c7 bf 68 37 13 cc e1 83 96 3f
       -0.1874129081974202 0.021987464981797628
000110 bf 5e 74 22 88 6a d7 bf 3b 31 37 03 b0 bb ba 3f
       -0.3658771835775773 0.10442638472085701
000120 cd a4 42 15 d8 6b d8 bf 30 14 be d6 a7 3f c1 3f
       -0.38158227993205857 0.1347551153704969
000130 79 af 71 6d df 72 c2 bf 61 73 2e 8f d6 80 d5 3f
       -0.14413063854169275 0.33598865492404256
000140 2a 4c 13 2f 78 19 db bf ee aa 5f ea 1c b9 d2 bf
       -0.42342953297810715 -0.29254839790398435
000150 4e 39 25 94 ec 9b cf 3f 45 ea d1 26 42 47 98 3f
       0.2469459269872893 0.023709329242118455
000160 33 12 de a6 88 45 d4 3f 11 34 1d fb 53 c3 8c 3f
       0.3167440061154451 0.014044433689969467
000170 60 2d 8e 67 7d d0 bb 3f 79 94 2b cc db 08 cb bf
       0.10865005281646267 -0.21120784253358574
000180 06 d5 9a 53 fa e7 c1 3f 6c f6 d3 d2 09 d8 8f bf
       0.13989190180078753 -0.015548779245814624
000190 e2 38 b6 cd b2 de 70 3f 51 67 a5 32 b4 d1 bc 3f
       0.004118631793416068 0.11257482754208793
0001a0 93 e9 5a f1 1d 88 d3 bf a2 90 98 77 f6 34 cb 3f
       -0.3051829201682718 0.21255379523893675
0001b0 84 cc a3 9b 7e 68 c2 bf 68 f0 c5 ad d6 63 9e bf
       -0.14381392097093137 -0.029677728992723834
0001c0 a6 94 ad d0 bd 76 c8 bf f6 7e b7 fa 3f df c0 bf
       -0.19112370194776424 -0.1318130468562157
0001d0 d9 e9 2d 79 2b fa da bf 31 c9 c1 2c f6 88 6a 3f
       -0.4215191539184651 0.0032391365148721975
0001e0 8b d9 fd 80 4c ad b7 3f fc c2 eb 47 12 7a d7 bf
       0.09248808049401284 -0.36682564757852254
0001f0 30 5b e3 22 72 6c 8a bf a3 38 b4 70 86 44 d4 bf
       -0.012902156533909442 -0.316682443678369
000200 d6 94 9d 3f 1a bd bc 3f f9 d6 1e e6 73 df c8 3f
       0.11226047566522665 0.19431923614836658
000210 d1 65 2b de 26 fd d3 bf ec b1 b7 d2 d9 e8 89 3f
       -0.3123261613487474 0.012651159041490133
000220 05 b4 39 98 33 a1 a6 bf 8b d4 0b 7d 15 e0 ac 3f
       -0.04419862015934232 0.05639712478106514
000230 47 1e ba 91 13 f1 93 bf 0e ae 63 70 b4 5c d4 bf
       -0.019474321145507536 -0.31815825439
000240 d0 11 08 2b 95 f1 70 3f b6 25 a9 9d e0 35 cb bf
       0.004136641204699434 -0.21258170793798364
000250 f9 ab 49 f5 c5 da d1 bf d4 03 65 1a c5 ce d7 bf
       -0.2789778609646301 -0.3719952352294602
000260 37 56 e0 72 7d 34 c8 bf f6 3d b4 ea b6 0f cc bf
       -0.18910186871714682 -0.21922956905517282
000270 84 03 d8 87 dc f9 d2 bf 45 f9 b5 83 c4 b8 d3 bf
       -0.2965003325080533 -0.3081523214567777
000280 be 6c 4e 3a 37 25 a9 bf 04 29 49 bc 32 f1 ce bf
       -0.0491120585131397 -0.2417357844700022
000290 ec 65 19 48 a9 0c a0 3f c9 47 5f 2e ea e8 c4 bf
       0.031346597720311425 -0.16335799469248816
0002a0 f4 31 ca e5 3c 55 c1 3f 25 88 d7 fe 8d d9 d0 bf
       0.13541375370222364 -0.26327848326593745
0002b0 f2 b7 e2 8f 19 33 c0 bf 71 e1 17 71 11 72 d1 3f
       -0.12655944371857647 0.2725871662546729
0002c0 79 73 e8 c9 ec bc c7 bf fc 25 0b c1 87 b1 a2 3f
       -0.18545303210057876 0.036510698618780396
0002d0 d7 06 e9 2f 59 07 d7 bf aa 2b a9 9c 98 32 d4 3f
       -0.3598235099671973 0.315588143338284
0002e0 43 a6 c5 5f 36 81 d7 3f 39 5b 1e 87 5c 12 6a bf
       0.3672614989542106 -0.0031825835403184424
0002f0 2e e0 8d 49 62 58 c5 3f 54 cc a8 81 dd f9 d7 3f
       0.16675976363672035 0.3746255651669277
000300 d4 5c ae d7 5d a4 d7 3f 6a 76 46 d5 00 ae c9 3f
       0.36940713942153747 0.20062265790777484
000310 26 73 0c 83 96 0f d3 bf 12 32 98 92 ca 4b bf 3f
       -0.2978264121791646 0.12225023344962718
000320 59 90 80 0e f7 33 d2 3f d9 3b 16 5b 60 37 ca 3f
       0.2844216958640167 0.20481495330429203
000330 db 30 f3 ba 38 3b d3 3f d0 7d f5 5f 43 e4 cf bf
       0.3004895997699017 -0.24915353951926855
000340 c6 af 7c 71 96 61 c2 3f e9 0f e5 c2 db a0 bf bf
       0.14360313931808671 -0.12354825504468149
000350 2b d2 00 ef a8 6b cc bf 4b 33 9e 55 1d 61 d9 bf
       -0.22203551931456053 -0.39655240403299236
000360 82 50 fb a6 13 37 b8 3f 68 88 05 dc f4 71 ba 3f
       0.09459040476514427 0.10330133792516139
000370 05 80 95 0b 9d 10 d2 bf c2 ab 9a d9 a9 e7 d0 3f
       -0.2822640050053454 0.2641396164933064
000380 68 80 89 22 02 47 d0 bf f9 63 2b 77 fc e9 b7 3f
       -0.2543340050961036 0.09341409596835594
000390 97 51 f0 9b 39 8b d5 bf 4c 64 1e 75 58 45 d7 3f
       -0.33662262180703223 0.36360751569151684
0003a0 23 4f 92 8d a6 6d 84 bf 98 0c d9 11 27 87 b8 3f
       -0.009974766917629168 0.09581226526010977
0003b0 05 29 cd 98 30 da c7 bf 0a 06 41 0e 2a ca d7 bf
       -0.1863461252308484 -0.37171412841789275
0003c0 86 9e 22 bb 38 ff d4 bf 9f 36 0b f7 6d 1e c8 3f
       -0.3280774905674452 0.188428636195046
0003d0 ba 76 8c c0 a3 29 c5 3f 98 df 17 1f c7 67 c4 3f
       0.16533324147979106 0.159417047674421
0003e0 aa 7b 01 90 4c 99 ce bf 1c 81 92 de ab c4 b8 3f
       -0.2390533164170539 0.0967509668721544
0003f0 ff 85 fb 30 fb 42 ca 3f c5 07 d2 59 96 6e d1 bf
       0.20516910449718748 -0.27237471362616034
000400 6a de 76 74 de 99 d3 bf 8e a8 8f b1 40 2f b2 3f
       -0.3062664162966714 0.07103351912488362
000410 ec 35 35 31 02 a2 d0 bf 82 b1 40 fe 8c fb a3 bf
       -0.2598882179780435 -0.03902855495138892
000420 71 25 69 cb 8b 5c d4 bf 8b 71 c0 c4 25 46 d2 bf
       -0.3181485639984976 -0.28553146566425686
000430 6d 93 f6 ce 8f 61 cb 3f 22 67 88 d3 c2 09 bc bf
       0.21391484838127486 -0.10952394165397242
000440 12 3d ca f6 32 f5 9f bf be 4c 1a c5 6f 70 ce 3f
       -0.031208797753206126 0.23780629276425275
000450 45 1d 7a 00 2b cc ca bf 1f 7a f8 5d a3 a1 cd 3f
       -0.20935571215907536 0.2314953049507986
000460 4e 3f 4a c4 84 ba c0 3f af a0 4a 87 31 87 ce 3f
       0.13069209656213804 0.23850077730208372
000470 32 19 66 2f 87 72 cd 3f 23 fb 32 f3 9e 72 cf 3f
       0.2300576192321358 0.24568545222242574
000480 95 18 99 ea 46 94 d9 3f 43 7f c7 67 f1 71 d9 bf
       0.39967511091197966 -0.39757952818580494
000490 ba e7 18 28 34 c5 c8 bf 9e 91 07 79 00 2b 96 bf
       -0.1935181804454354 -0.021648414027269795
0004a0 68 de ac 6a d1 43 d7 3f 10 83 20 9b 5f da d4 bf
       0.3635142843008681 -0.32582845830079155
0004b0 5b 44 82 9a 9b b6 c4 bf 44 1f 01 71 bd a4 93 3f
       -0.16182274860742293 0.019183120748748964
0004c0 99 bc 8e b0 80 d5 d3 3f 9c c0 35 bd cd 2d 71 3f
       0.30990617029142126 0.004194072407116913
0004d0 0d 51 ba 47 10 5d d5 bf b9 ed 3f 58 ee a3 bd bf
       -0.3338051510302343 -0.11578263906988341
0004e0 32 47 05 c2 b8 b0 d0 3f 8a 03 36 b2 56 51 ce bf
       0.2607862372143358 -0.23685725881298608
0004f0 08 95 5e 4d 98 15 d9 bf cf e8 61 be ca d6 a0 bf
       -0.39194304996119955 -0.032888732662245006
000500 d6 0d 61 fa 59 a4 b2 bf 68 45 89 9b ba 9f b8 3f
       -0.07282030451556606 0.09618727013846284
000510 d1 b4 59 48 07 2a cf bf ce db 5d f8 06 ca d5 bf
       -0.24347010643706438 -0.34045576338342876
000520 e5 01 49 ff 09 45 c2 3f 65 11 20 87 68 6f d1 3f
       0.1427319046506589 0.27242482372118665
000530 9d 5b 06 c7 a9 f4 bb 3f fa 23 b3 72 11 43 73 bf
       0.10920201405529757 -0.004702633053235589
000540 eb ba ee ff 20 41 cb 3f 32 e1 8a 82 d9 5a b4 bf
       0.2129250764532665 -0.07951125561783526
000550 25 5f 2b d3 92 29 d4 3f 6f 1e 45 82 79 84 d3 3f
       0.31503744718564725 0.304960610596459
000560 1d aa d2 fc 09 e6 a8 bf c9 c2 31 92 fd 14 c6 3f
       -0.048630058395549215 0.1725155795898188
000570 14 2c 72 98 c5 be 6a bf 15 16 e6 ab c9 a5 c2 bf
       -0.003264795235343518 -0.1456844415044293
000580 90 36 65 c8 3d 8a c4 3f 4a f2 41 76 b8 58 83 bf
       0.16046879086427568 -0.00944656477826657
000590 a2 42 73 89 3e 60 d3 3f 16 be 86 f8 aa 7c cf bf
       0.3027492849624115 -0.2459920609958181
0005a0 ff 8f 77 25 ea 02 c1 3f 51 e4 aa 9a 34 18 bd 3f
       0.1329014475769554 0.11365059639037269
0005b0 84 2b d2 df fe 6c a4 3f 65 8c ee 9a 35 54 d2 bf
       0.039894070455452485 -0.28638973360120296
0005c0 11 89 35 da 28 59 dd 3f 6d 5c 2b 12 05 59 a0 bf
       0.45856686887249604 -0.0319291672400873
0005d0 01 6d 68 84 b5 69 ac bf b9 1d b3 87 2d 92 6a bf
       -0.05549399606044326 -0.0032435311564744354
0005e0 2d ea f8 c0 1a cb c3 3f e2 de 22 5d b3 b6 c1 3f
       0.15463575766064377 0.13838808105150863
0005f0 77 5f 77 8e 37 9b d7 3f 40 0c 65 0e e7 96 b8 3f
       0.3688486949226823 0.09605259038384961
000600 e6 2f dd c9 17 24 d2 3f bb 84 be 34 3c 8a c0 3f
       0.2834529372528308 0.12921860289956108
000610 70 dc cd d4 7f 5d 95 3f ba 91 6c 35 8c 59 c3 bf
       0.02086448418000625 -0.15117027863119664
000620 1f 21 15 8e 83 69 cf bf 5b 4f 98 79 31 01 a7 3f
       -0.24540752828239307 0.04493097886384475
000630 db f2 91 b9 8f cb d2 3f c6 69 c6 e6 2f 4a b7 3f
       0.29367440340119594 0.09097575554043322
000640 61 f1 35 b9 5c c0 cf 3f 9e e1 2c b9 f1 7d 9f bf
       0.24805792850009836 -0.03075387661667294
000650 ee 28 74 48 c6 22 ce 3f 09 4e 92 51 ad 2b c1 3f
       0.23543623483448733 0.13414541705115848
000660 a4 b5 cb bb 24 ed cf 3f 93 64 75 5a f1 4b d0 3f
       0.24942454499925504 0.25463517984241796
000670 8b c7 66 21 43 a7 d3 3f da 82 1f d5 27 d8 c9 3f
       0.3070838762461043 0.2019090452804651
000680 12 9a 23 cc f1 09 d1 3f 28 80 56 1e ac cb b8 bf
       0.2662319654031374 -0.09685779324218002
000690 97 b8 e4 f0 18 b3 c8 bf 2c b6 98 3b 3d b8 c3 bf
       -0.19296561968207435 -0.15406003389345935
0006a0 ea 5e 7e 9e e3 46 d2 3f cf 4f 6e 31 1b 31 93 3f
       0.285576729563657 0.018742012874625232
0006b0 c0 52 1c ed 61 bc 45 bf 89 f9 16 34 af f1 b0 3f
       -0.0006633260875071531 0.06618781110498707
0006c0 64 c1 13 5b eb a5 b0 bf fa 52 d3 d4 2f 0a d2 3f
       -0.06503172849239075 0.2818717554448963
0006d0 ef 59 a3 6c a6 fe aa bf 89 e0 a8 5b 46 29 d1 3f
       -0.05272407604359219 0.2681442160715127
0006e0 71 59 bb 69 03 42 c0 3f e2 60 3c 2d 17 96 bc bf
       0.12701456701934036 -0.11166519979849768
0006f0 e2 1c 9d d0 2b ec bd bf 9c 5e cf 4d e0 63 cf bf
       -0.1168849357901425 -0.24523547934835654
000700 9a 22 ec 44 cc 12 d8 bf db 47 df 39 13 cb c6 3f
       -0.3761473343916265 0.17807236028471504
000710 08 cc 5b d4 e7 3f be bf d3 9b 9f 84 95 47 d2 3f
       -0.11816262182746595 0.285619143977269
000720 7f 79 33 6d 5f 59 c5 bf 35 30 c8 c4 b6 e7 d3 3f
       -0.16678994018634438 0.31101769654265193
000730 0e e2 cb 51 81 c1 c4 bf ac a0 f7 96 15 e5 d7 bf
       -0.1621553086659024 -0.3733571981706614
000740 05 90 a1 be 8c 55 ca bf 3a a8 b0 b3 fd 46 a2 3f
       -0.2057357722106873 0.03569786852342856
000750 a8 d0 c4 5c 08 d7 cc bf 04 6f 62 96 c3 9d d2 bf
       -0.22531227617003435 -0.29087915121066055
000760 46 c2 90 b1 f6 69 bc 3f ce aa 06 36 bf 0b c6 bf
       0.11099187693685861 -0.1722334874915163
000770 ad aa 17 93 da 10 d8 bf 11 41 75 cf e3 06 d6 bf
       -0.37602867474076157 -0.34417052516529717
000780 f4 16 47 d1 4d 12 cc 3f 80 06 8d 6c 76 30 d2 bf
       0.2193085929740658 -0.2842079219882194
000790 36 8b 4b 1c 2c 86 b4 3f 20 67 73 62 3b c3 d6 3f
       0.08017230692670982 0.35566601385436236
0007a0 b2 ba 7e f4 f1 2c 95 bf b5 25 49 ef 60 f2 d3 bf
       -0.020679264591019382 -0.3116686188482974
0007b0 ca 23 28 f3 a1 42 cb 3f b6 d3 02 d5 9e b0 d5 3f
       0.21297096608057436 0.338905056017491
0007c0 22 0a f3 61 5a 78 95 bf 36 c0 ac 3f 93 bd d2 bf
       -0.020966922977786358 -0.29282075136416397
0007d0 ff cc 5d c4 16 c7 bd bf c3 23 f4 05 a8 dc d0 bf
       -0.11631910604574001 -0.26346779424107697
0007e0 d8 c1 c5 fd 02 f6 cb bf b6 4a e5 96 53 69 d5 3f
       -0.21844518080935305 0.3345536206808605
0007f0 ce 3d f4 18 84 65 bc bf 40 7e 7a 64 9c 28 b0 bf
       -0.11092401131849458 -0.06311967328155621

linears.1.bias f8 [20]
000000 7a 93 f5 84 7f 52 8a bf d4 98 5d 68 01 7f 85 bf
       -0.012852665181250823 -0.010496150014386897
000010 96 5a 9a f0 69 75 90 bf f7 9d 65 47 c8 4c 86 3f
       -0.0160728982069381 0.010888638190137618
000020 60 0f 67 3b c1 df 8e 3f 87 87 ef c5 a0 90 96 3f
       0.015075215936014963 0.022036087113412896
000030 f1 b8 58 5e 01 e7 68 bf 01 a8 b4 36 d0 be 94 bf
       -0.00303983943265173 -0.02025914510628724
000040 09 01 eb bf bf db 61 bf 4c 9b 0e f7 cc 23 b8 bf
       -0.0021799798117571084 -0.09429627448717531
000050 ff 09 13 e4 8b ec 66 bf 45 3a 1f 48 55 d7 85 bf
       -0.002798341011471139 -0.010664621604431388
000060 77 e9 42 ab d5 c1 86 3f 54 b3 bf 69 c5 c4 72 bf
       0.011111897744161976 -0.004582186837052433
000070 c0 bf b6 ba bf 78 87 3f 01 2d 1b a7 46 1a 82 3f
       0.011460779080920136 0.008839179968524126
000080 ed 62 69 03 b6 2b 69 bf 9c 8a 8c 9d 8c e8 a0 3f
       -0.0030726008365430297 0.03302421019750065
000090 f7 bc 58 72 46 8b 75 bf 93 d3 ee 00 58 b4 87 3f
       -0.005259776289263877 0.011574447182150205

linears.2.weight f8 [20, 20]
000000 0e 51 ec 4d 6b 30 d6 3f dc 94 20 92 d0 73 d0 bf
       0.34670527085951697 -0.25706877012482976
000010 4a cd d3 61 da 4b c8 3f 47 2c 3d 9f 8c 04 ac bf
       0.18981485153890737 -0.05472220844111369
000020 73 ec a1 f5 d9 8c cc bf 2e ec e0 58 55 72 c0 bf
       -0.22304844373488528 -0.12848917808318688
000030 d2 49 f1 ba df 1c cb bf 04 a9 ef 50 1d eb d0 bf
       -0.21181866291097023 -0.2643502512352287
000040 4a 94 9c 82 97 89 d4 3f 5c 2d 30 77 a2 b7 9c bf
       0.32089793925326104 -0.02804426052538865
000050 af 3e 2c ec 64 b2 c0 bf 3b 9b 29 dd fa 9d 92 bf
       -0.1304441598117498 -0.018180770634354842
000060 27 ac 7e 7e 32 b6 d1 3f c8 0b a6 9a 57 c8 d1 3f
       0.27674543717393124 0.27785291769413023
000070 86 d0 5a d8 f0 a6 c4 3f 78 2d f5 ca 18 6a a7 3f
       0.16134462894627094 0.04573132970343868
000080 03 d3 26 d3 85 1b c4 bf b5 57 a0 b3 b7 39 ae 3f
       -0.1570899277700378 0.05903410022453618
000090 0d f3 e1 e6 fa 9d 95 bf 38 eb 35 88 01 e5 c3 bf
       -0.021110458700138546 -0.1554262080279274
0000a0 33 2f 81 6b f1 a8 c7 3f b4 b3 d6 c3 2d 00 9f 3f
       0.18484323262452448 0.030274119451565176
0000b0 74 f8 cc 44 85 65 80 3f 8f 52 b4 a4 86 d2 9f 3f
       0.008006135141496375 0.031076530268438204
0000c0 49 1e 03 73 36 fd cb 3f 0b a7 13 c4 7b 6c c9 bf
       0.21866493812398094 -0.19862315248547477
0000d0 a9 eb 31 3e 96 45 d4 bf c5 71 5b ac d9 eb d0 3f
       -0.31674724649172475 0.2643951590705707
0000e0 4a 5e 29 d0 25 81 c8 bf 2f 32 ce 2e a3 90 a6 3f
       -0.19144127525463467 0.0440722460399211
0000f0 6b 99 25 69 e7 3a d3 3f a0 97 e7 84 bb 61 9b 3f
       0.3004702116799282 0.026740007387978104
000100 ff a6 c1 ca fe 9b c7 3f d4 43 1e 6e d3 93 c5 bf
       0.18444809818475247 -0.16857378842226345
000110 37 cf d7 4a 53 51 d7 3f 76 2c 3a bc 43 85 a5 bf
       0.3643387061012961 -0.042032353140791054
000120 80 50 a4 aa f3 26 cb bf d7 42 83 cd 1d 1d d0 bf
       -0.21212621528741593 -0.2517771250686968
000130 04 22 e8 2c bf dd c8 bf 21 ca 54 c4 f3 99 d2 bf
       -0.19426717465127308 -0.29064649746865895
000140 5b 41 1f 1f db 8a c0 bf 1f ea e1 f0 d8 24 d3 bf
       -0.12923754710801458 -0.29912398837737614
000150 ef 99 11 0b 3d b6 c4 bf 6d 37 0a e9 ce 7b cc bf
       -0.16181147613970334 -0.22252832774068612
000160 8b 67 1c a2 6e 6f b4 3f 79 73 7e 8c 78 5b ce 3f
       0.07982531984126078 0.23716647014671446
000170 4f 9d 2a 5c c4 f1 b8 bf 34 26 b4 cc 32 1f d1 bf
       -0.09743907213361534 -0.2675292014178894
000180 7e 4e 41 2d 01 64 d3 3f 59 0a 76 53 b4 c9 b5 3f
       0.302978796190679 0.08510901486992263
000190 eb 42 44 9c 88 cb d6 3f da e6 4d 20 b7 bd a7 bf
       0.356172707180163 -0.04636928815211912
0001a0 f1 a5 5b 4b 8d 2a cf bf 50 97 62 2c f4 a3 c7 bf
       -0.24348608188238033 -0.18469097296945813
0001b0 42 c9 ba d3 f3 31 b5 3f 8b aa 8d d0 29 85 d5 bf
       0.08279346388988976 -0.33625264517346726
0001c0 72 94 fa e2 d5 07 dc 3f 23 c0 ea 0d 37 6d c1 3f
       0.43797824064160473 0.13614547900715576
0001d0 bd 1c ed 81 fa 40 c1 bf 88 65 2d 3d 72 84 b6 bf
       -0.13479548782399844 -0.08795846932971163
0001e0 77 83 32 47 9b f6 d5 bf 8f db aa d0 27 33 d1 3f
       -0.3431766696249307 0.268747285630007
0001f0 41 e5 a2 b0 45 9b c1 bf 34 52 f3 09 f6 55 91 bf
       -0.1375510323030458 -0.016929478032425574
000200 4b b2 74 15 f5 38 bb 3f ee ba 0c 66 5b e1 c9 3f
       0.1063378503210483 0.20218985064408151
000210 b1 a2 d5 d9 04 30 ae 3f b0 13 64 02 78 c5 d9 bf
       0.05896010550606457 -0.402677538237465
000220 19 60 ea 0e bc 00 d5 3f a5 6a 4d 24 7c 90 d2 3f
       0.3281698365840398 0.29006866021306116
000230 77 1a cf 8e 6b 9e cf 3f 62 1b 01 ab aa f8 be bf
       0.24702209923835358 -0.12098185229215866
000240 28 e2 79 30 48 0f a4 bf fe 3d 12 3e bf 42 d0 3f
       -0.039179092328542275 0.2540739160694726
000250 ba a4 db f4 16 dd bc bf f5 5e f2 27 b3 29 d2 3f
       -0.11274856069543918 0.2837951555352299
000260 9d c2 02 a6 33 ef d8 3f 59 00 72 70 b3 58 cb bf
       0.38959971630087314 -0.21364443769926103
000270 0e b5 fe 30 3c 73 c5 3f 4d 52 e0 05 32 dc d4 3f
       0.16757919685679962 0.32593966077664477
000280 73 58 37 39 15 92 7a bf 69 27 ac 66 25 94 c1 3f
       -0.006486971763896776 0.1373335601168109
000290 75 3e 29 82 3a d5 cf 3f 74 52 d1 70 1a 56 89 bf
       0.24869471889040864 -0.012371260230943572
0002a0 26 48 79 5d b4 c2 b4 bf 60 52 db ba 30 a9 cd 3f
       -0.08109595567773961 0.23172577976096687
0002b0 6d 9f db 35 25 07 d1 3f 44 46 a2 43 d4 db ba bf
       0.26606111774025615 -0.10491682673662078
0002c0 b4 0a 4d 40 56 fd c4 bf bd b2 cc a0 9c 8a d1 3f
       -0.163981229206987 0.2740851946171395
0002d0 0e 41 cb 0a 81 5a c4 bf 9c 1d 17 ca 5c 56 c8 bf
       -0.15901196505593201 -0.19013557307901585
0002e0 7f c3 de 86 e0 37 d2 3f 0d 3c 91 62 32 15 a1 bf
       0.2846604649631032 -0.03336484387602221
0002f0 bc b5 fe 0b 43 cd c1 3f f3 96 1e 0c dd bd a6 bf
       0.13907659612361367 -0.04441729329054835
000300 c2 ae 73 2e 13 a0 d8 bf c1 43 55 32 25 c7 b8 bf
       -0.3847701982146924 -0.09678871611437413
000310 af 39 5f 49 d7 6d cf bf 4c 88 0b a1 cb b0 b2 bf
       -0.24553958017936625 -0.0730101841141117
000320 fa 9d be f9 29 77 c6 bf a4 3f 34 d8 c6 9a c8 3f
       -0.1755115956741376 0.19222341114845876
000330 c8 da 87 ff d7 c7 c3 bf 13 0d f3 4d 96 64 91 bf
       -0.15453624703487479 -0.016985271937994883
000340 8a 07 49 36 a8 1c d6 3f 8f b2 8c ff 5c 5b d0 3f
       0.3454990892533877 0.2555763717271384
000350 a9 e9 cf 92 ca 2a d6 bf 17 77 e9 29 76 c4 c0 bf
       -0.34636177384495653 -0.1309955315254505
000360 ed d1 87 92 4b 24 ca bf 1a 7e 30 f6 71 3e cf bf
       -0.20423264174281944 -0.2440931751343534
000370 85 e4 87 cb 92 ad d3 3f dd cf 5e 30 f9 99 9a bf
       0.30746908069665607 -0.025977986886303362
000380 4b 46 80 d7 30 a5 bf bf e8 0c c1 5a ae 99 85 bf
       -0.12361436139351516 -0.01054702963313621
000390 f5 9f 10 50 92 27 a9 bf ed 26 8e 10 f4 32 cd 3f
       -0.0491300318465732 0.22811747368205407
0003a0 84 40 ea ec d8 81 d7 bf 8c e8 87 44 0c 7a 8d 3f
       -0.3673002542136674 0.014392944184681754
0003b0 3d 78 8a 98 fe b8 c9 bf 6f e2 9d 02 89 40 d4 bf
       -0.20095808456693645 -0.31643891578236255
0003c0 64 85 5e ce 5e 71 d4 3f ad 49 ef e9 03 a2 93 3f
       0.3194195761990015 0.01917272677730757
0003d0 a1 75 14 b2 3e 72 c2 3f ac 80 db 43 0b 88 a1 bf
       0.14411147780712688 -0.034241058381441064
0003e0 3f 88 c6 ed b4 1c c9 3f 48 e5 16 ce de 54 d5 bf
       0.19618856058247222 -0.33330507398530473
0003f0 12 13 6b 72 16 85 c2 bf 85 30 20 b7 d8 30 c1 3f
       -0.14468651377514924 0.13430317823111096
000400 a8 ed 3a 73 56 a3 d8 bf 54 24 f6 a1 ad e1 d0 bf
       -0.3849693417830289 -0.2637743074088281
000410 8a ba 16 fc 98 bf d1 bf 49 84 f1 8e 0b f2 c7 3f
       -0.27731918924374865 0.18707413177165425
000420 4d 11 cc 9a fe d8 c9 3f 6b 23 42 08 b7 e0 b5 bf
       0.2019346481175809 -0.08546012832279153
000430 63 d9 f9 09 ce a6 bc 3f 86 f8 b3 f6 37 54 d1 3f
       0.11192023986391102 0.2707652959069339
000440 c5 95 1a e4 40 91 c3 bf 16 f8 c9 bb bf 72 d7 bf
       -0.15287028444178766 -0.3663787206531891
000450 ff 64 48 ea d0 f6 a9 bf 2b 69 aa 87 45 22 c2 3f
       -0.05071118221185066 0.14167088627147825
000460 ee 5b 4d 06 aa 32 bd 3f c8 3f 7e 69 17 ac d5 bf
       0.11405432371007837 -0.3386286287504814
000470 34 bd c3 fa 6f e4 ac bf f6 c4 be fc 8d 6d d2 3f
       -0.05643033920375232 0.2879366844382071
000480 4d bd 10 dd 62 6a d6 3f fa a1 ca e5 c9 95 b5 3f
       0.35024329746643873 0.08431684360642314
000490 9e c1 f6 68 e2 bf d6 bf f0 6f cc 18 ab 8d a0 bf
       -0.35546169519786897 -0.03233084371296957
0004a0 b6 a2 3b 6b d0 f9 be bf c8 4f a9 1e c2 0e cc 3f
       -0.1209993612097929 0.21920038697373756
0004b0 e4 ff 44 cf 2a 35 75 bf 9e 66 4e 58 f1 17 9b 3f
       -0.0051776573421306905 0.02645852185705754
0004c0 ea 95 b1 e3 b4 76 c7 3f d9 94 8b c1 68 03 cb bf
       0.1833101379190077 -0.21104154062701388
0004d0 3c 4e cb 40 44 87 b4 3f 3a ab cc f5 5e 0d d1 3f
       0.08018900472534879 0.2664410972962973
0004e0 25 f9 bf 14 49 fb c7 bf 10 cc 30 ae dd 62 b0 3f
       -0.1873561240499352 0.06400857451153308
0004f0 16 4a d1 7d f3 88 ce bf ab 6f fd c1 0b e1 c8 3f
       -0.23855441707071695 0.19436785671393628
000500 6f d4 6f 51 d9 ca c7 3f 5c 37 0b e5 32 74 63 3f
       0.18587795711906405 0.0023747438466221026
000510 f9 98 2a de f1 a1 d5 bf 08 d0 56 51 18 5e d8 bf
       -0.338009325942394 -0.38074310248634946
000520 75 48 09 32 1d 83 d2 bf 6c 7b d5 05 1d 1f ca bf
       -0.28925256620744416 -0.20407450470790012
000530 7d b3 69 c0 cd d0 bb bf bc a6 5f 27 4a c6 d3 bf
       -0.10865484187679715 -0.30897764058191135
000540 ca f0 d6 10 c2 80 b0 3f f2 c1 bd d6 9b 8d c9 3f
       0.06446469222186405 0.19963405595218792
000550 39 ca 14 f3 d4 d7 81 3f dd 05 4d 82 73 d0 d0 3f
       0.008712447803735578 0.26272285198873907
000560 24 22 4d 41 94 38 da 3f 76 07 c1 a6 f9 05 d2 3f
       0.4097033155162839 0.2816146973092296
000570 34 4b be 08 bb ce be bf f1 bf 87 97 bb 73 d6 bf
       -0.12034195865116432 -0.35081376836660555
000580 58 84 b7 b4 b0 44 c8 3f d6 bf 97 4b a8 3a af 3f
       0.18959626030030807 0.06099439547313039
000590 aa 1a 38 be 47 3a c2 bf d4 40 78 db 9a 82 b3 bf
       -0.14240357196850556 -0.07621162279270105
0005a0 0a 10 cb 13 29 5e d1 3f e8 c7 16 25 e0 8a d4 3f
       0.2713720982831097 0.3209762918660304
0005b0 24 14 da 63 15 01 ce 3f e0 6f e3 6f ab 38 d4 bf
       0.2344080674703558 -0.3159588425312432
0005c0 32 13 4b 01 b3 ca b5 bf a8 a1 58 fe d6 ce d5 3f
       -0.08512419492315074 0.3407495006418011
0005d0 4e 54 75 a4 ce 69 b5 bf 90 47 8d 79 63 22 b8 3f
       -0.08364573969932218 0.09427472798895864
0005e0 a5 8f 63 56 ce c4 b7 bf 6d 2f a3 fb d4 c6 c4 bf
       -0.09284677132705939 -0.16231787001595013
0005f0 01 22 d6 14 0f 48 b4 bf ca 57 60 4d e7 e7 d5 3f
       -0.07922453173353718 0.34227926784785423
000600 82 eb cc 01 fb b8 b1 bf fa 90 93 7c 69 23 a3 bf
       -0.06922882837254288 -0.037379547555049755
000610 d8 21 a1 6e 37 df c6 bf ad 4b 40 a0 39 ba c3 bf
       -0.17868702794863967 -0.1541206390835134
000620 b0 d5 c9 18 9c fd ce bf ac 96 de ac 7f 1f c5 3f
       -0.24211455545780103 0.1650237650002756
000630 53 5e bf 93 40 51 b9 3f b7 72 ec c0 26 40 b2 3f
       0.09889606101148134 0.07129137239503334
000640 b7 25 b1 50 2e 1c bf bf f0 d2 a0 da 05 ab cf bf
       -0.12152375669497571 -0.2474067037125205
000650 a3 08 51 91 51 24 b5 3f 70 a2 43 78 2a b6 d4 3f
       0.08258542821661989 0.3236185240225842
000660 bc 12 1d a4 02 23 c0 3f 5d a9 36 bc c4 a3 ad bf
       0.12606843007428903 -0.05789007947471945
000670 67 0c 71 fb 2b 76 68 3f 9c d1 b4 61 67 d1 d4 bf
       0.002986036207887777 -0.3252809957660021
000680 24 a6 75 62 78 2e a5 bf 69 c9 fe 79 f6 36 5d 3f
       -0.04137016488932613 0.001783123683691013
000690 26 5f 0f a9 71 68 d4 3f 14 c3 1f a4 80 4f c3 3f
       0.3188747549988754 0.1508637238871634
0006a0 90 38 ca 3e 1a 6a d2 bf 37 20 de d6 d7 e6 87 bf
       -0.2877259839232318 -0.011670767063847716
0006b0 65 26 3c 04 a2 3f c5 3f 04 78 60 af 48 a2 d1 3f
       0.16600442129883955 0.27553002478259736
0006c0 ac 88 a6 c8 a1 00 cb bf 7a b4 39 30 00 b8 9f 3f
       -0.2109567861307985 0.03097534460396332
0006d0 64 f8 ea 99 65 99 d7 3f ad e7 6c 98 3a f8 c0 3f
       0.36873760252991006 0.13257534449240663
0006e0 99 72 2b c1 0f 5e d2 3f a3 d0 33 fc 7a 71 c8 bf
       0.28699106086950504 -0.1909631473023455
0006f0 e0 86 10 88 b7 f1 d3 bf 3c 86 0f 62 37 24 d2 3f
       -0.3116282299762201 0.28346046997294017
000700 27 ff 80 cd 18 6e d3 3f d7 0f 55 94 cc 3c d4 bf
       0.30359478062381345 -0.31621088491033106
000710 60 13 80 23 3e 94 d5 3f 64 26 60 c1 fe a9 d1 bf
       0.33717301813913103 -0.2760006798203902
000720 48 4f 94 6e 65 1b 95 bf 47 35 b5 07 e0 e5 aa bf
       -0.020612320780016874 -0.05253505796518226
000730 a3 69 c6 a3 e1 e8 c3 bf 3e 24 0b 7b 85 00 c3 bf
       -0.15554447647884925 -0.148453412132115
000740 5d 10 c9 18 7c 85 d0 bf e4 3d 69 4d 63 3b c7 3f
       -0.25814726276826666 0.1814998748763933
000750 3c 2c fc 97 ce d0 c0 bf 68 d2 46 98 31 b7 bd 3f
       -0.13137228413720148 0.11607656448070147
000760 7a bc 93 b0 34 12 d5 bf 47 1b ae 24 78 66 c4 bf
       -0.3292361950288477 -0.1593771151640004
000770 ba 24 b8 a7 b4 bd 5a bf b6 d5 a2 d9 72 29 c1 bf
       -0.0016321434221729229 -0.13407741190682793
000780 fb be e4 f0 85 26 c1 3f e9 94 a2 88 2d de d1 3f
       0.1339881349790558 0.2791856607748984
000790 52 cb 1d c1 f7 55 d2 bf dd 60 b5 34 eb c3 cf 3f
       -0.2864970575239357 0.2481664664617317
0007a0 04 ad 45 f7 d4 e2 96 bf 0d 02 0f 36 1a e6 98 3f
       -0.022349670021339044 0.024315270947910906
0007b0 e2 8d 40 e1 60 90 a7 3f 07 b3 29 41 77 02 d6 bf
       0.046023395058252495 -0.3439005028110817
0007c0 85 d8 43 96 3b a9 b8 bf 7c 37 84 02 79 ee d2 3f
       -0.09633228701190617 0.2958052181792181
0007d0 23 ea 46 d6 5d a8 b6 3f bd 18 66 ad 4b 4b 94 bf
       0.0885065696847183 -0.01981847997515084
0007e0 ee ab ed c6 c9 27 d6 bf 8c 69 49 39 81 92 db bf
       -0.34617847849466343 -0.4308169421616632
0007f0 c0 d3 a2 c9 fc 92 d3 bf 0e f0 ce 4c 05 e8 cf bf
       -0.3058464020826328 -0.2492682099381231

linears.2.bias f8 [20]
000000 99 17 2c 99 a4 bc 90 3f 8a c5 7b 8b 44 2b 94 bf
       0.01634461579217081 -0.019696303380390336
000010 4a e2 07 e1 2d 70 9d 3f d0 13 d3 93 14 70 93 3f
       0.02874824224452003 0.018982240221493474
000020 a0 0a aa 51 52 0f 90 3f 82 1e ac 8a a8 cb 88 bf
       0.015683447107685766 -0.012107197505897508
000030 5e 84 77 a4 f3 90 91 bf b7 2f ec 7a 4e 22 90 3f
       -0.017154509461651528 0.015755869152641568
000040 f3 48 30 c5 b8 20 87 bf 55 79 7c b7 60 cd 84 bf
       -0.011292880552023798 -0.010157352065615891
000050 16 df 5b bf 7b b6 8b 3f 50 8d ae 2f b3 c1 89 bf
       0.013531653191861486 -0.012576484577783958
000060 98 e8 a4 b0 4b c8 89 bf de 9a 61 39 fe bf 8d bf
       -0.012589064911129363 -0.01452635395635354
000070 b1 e0 25 dd c2 31 90 3f ef a2 4b 31 ce 74 93 bf
       0.015814823863792685 -0.019000264891391557
000080 44 12 97 4a 32 cf 8e 3f e0 04 e6 0a de ed 89 3f
       0.015043633366880312 0.012660727222057522
000090 f0 21 9a e8 df d4 8c 3f cc 81 f8 6b c6 7b 89 3f
       0.014077901159240874 0.012443113489155964

linears.3.weight f8 [1, 20]
000000 de 95 22 cd 05 af c3 bf e7 46 6b c8 8f f5 9d 3f
       -0.15377876774179716 0.029257055862052985
000010 39 61 50 89 df 31 c2 bf a7 ed ac 84 5a 5e d1 bf
       -0.14214700894150115 -0.2713838859233086
000020 d1 12 01 3f 6a b5 dd bf 7f 29 36 a8 c1 2a d3 3f
       -0.46419769432786234 0.2994846480074997
000030 37 e1 a3 be e2 22 c3 3f e5 80 ee cc 2a a2 e0 bf
       0.14950212772942859 -0.5197957995005963
000040 a3 33 7d 52 39 10 b9 3f 5e 8d 1a 90 45 78 dc 3f
       0.09790380729573527 0.44484080383900515
000050 81 50 b8 87 19 58 dc bf 13 7a 3a 1a dc 36 d8 3f
       -0.44287718061355724 0.37834837495202683
000060 07 8a 9e 04 75 bc d7 3f c4 f9 2d 70 7c a3 a4 3f
       0.3708775086508073 0.04030979985599317
000070 85 3e 74 69 d1 54 d3 bf 72 c3 d3 87 49 76 df 3f
       -0.30205188081979656 0.49159467949271296
000080 73 75 2f 14 28 b8 e1 bf 84 44 64 49 a0 02 a1 bf
       -0.5537300485845392 -0.03322316070455947
000090 52 30 b6 da e5 9a de bf 30 d6 c8 65 a8 a3 d5 bf
       -0.47820421560823434 -0.33811387958425865

linears.3.bias f8 [1]
000000 23 5a 19 28 a0 5a 8d bf
       -0.01433301088688405

step f8 []
000000 00 00 00 00 00 88 c3 40
       10000.0

exp_avg f8 [20, 2]
000000 b7 5f 75 f5 2b 9a 5e 3f e4 7a 4e db 0a d4 45 3f
       0.00186781208852514 0.0006661465655389523
000010 ab 21 c9 fc 22 06 93 3f 76 9d 75 17 cd 6e 65 bf
       0.018578097037136903 -0.002616310662847783
000020 cb e1 5e 37 6e 34 89 bf 2d 8c 10 da 96 0a 62 3f
       -0.012307034554269422 0.0022023149799834858
000030 04 cc 0f 3d c0 aa 85 3f a8 a3 36 04 24 c8 43 3f
       0.010579587806182296 0.0006036926137556924
000040 5e 7b 2c 7e 40 fd 8f bf b2 7d 64 bf fa e4 57 bf
       -0.01561975846339941 -0.0014584015567108252
000050 81 79 a5 70 13 be a9 3f 4c c9 5b ee 89 f0 4b 3f
       0.05027828931882806 0.0008526490680352077
000060 ad 92 a8 35 61 e1 44 3f ce 87 6a 68 e4 5a 70 bf
       0.0006372189193980159 -0.003992931574119353
000070 f3 ce 01 e9 4f 84 94 bf f4 32 7d a9 cb a1 88 3f
       -0.02003598079359299 0.012027350530524818
000080 59 06 e1 53 43 94 84 bf 27 75 49 f0 c2 6f 31 3f
       -0.01004841422775653 0.00026606091731713955
000090 81 da a4 18 c6 21 9c 3f 2c 2d 33 f1 69 ed 20 bf
       0.027472586874149222 -0.00012914579619969482
0000a0 c5 8e 8c 35 98 bd 7d 3f f0 e3 45 69 72 40 6a bf
       0.007260889594167434 -0.003204558810633966
0000b0 07 0f 36 e9 99 d3 81 bf cc 89 b6 be c8 98 43 bf
       -0.008704378537693026 -0.0005980472755491794
0000c0 da 41 00 62 48 18 86 bf fc b1 4a 34 77 2e 62 bf
       -0.010788503161195107 -0.002219422169522865
0000d0 a5 89 4b 48 d0 1a 52 bf bd 0a 34 0a 2a 2c eb 3e
       -0.0011050256736600897 1.2956865538265244e-05
0000e0 5f 35 8c c5 2e 86 91 bf f9 be 03 30 c2 26 74 bf
       -0.017113428885797585 -0.004919775529046205
0000f0 0a b3 8c b5 c2 41 86 3f 82 fb 08 d4 75 8a 25 3f
       0.010867615857557595 0.00016434372266080013
000100 68 dd d0 eb 5b 1a 89 3f c3 1a 12 df f1 16 5d bf
       0.012257307180432789 -0.0017754900002572716
000110 f9 de ee 99 f5 39 87 bf b5 95 30 3b f4 ab 51 3f
       -0.011341017494359106 0.0010785946913157544
000120 ef 19 55 1e b0 7f a7 bf 20 ed ee 90 7f 4c 48 3f
       -0.04589605684536823 0.0007415411836214948
000130 ab db a0 73 89 ee 1a 3f aa 5b 10 15 09 20 43 bf
       0.00010273660601077424 -0.0005836529109072193

exp_avg_sq f8 [20, 2]
000000 ab c8 59 9c a3 00 27 40 6c bc bc 48 1a f3 20 3f
       11.501248250923103 0.00012931533671564925
000010 c7 68 76 c7 58 ea 42 40 38 18 0f 9b f2 cb 52 3f
       37.83083432466224 0.0011472577282218965
000020 cf 30 d0 84 de 3e 04 40 a0 c7 52 a7 90 1f 2b 3f
       2.530697858432269 0.00020693436423396567
000030 64 31 79 a5 de 57 ee 3f eb a3 a7 0c 4e df 77 3f
       0.9482262832548654 0.005828194504354105
000040 1d 85 5b 1a 43 51 35 40 dc 03 5e b6 46 d6 46 3f
       21.317430159896606 0.0006969304347280675
000050 da 68 51 0e 30 3e 04 40 e4 86 d6 c2 2c 15 c9 3f
       2.530365096911834 0.19595870507787716
000060 78 6c de ef 28 48 bb 3f 61 20 16 cf 07 45 73 3f
       0.10656982284710803 0.0047045044933683175
000070 92 bf 06 04 e7 f1 12 40 60 f3 77 3e b6 46 ca 3f
       4.736232817565808 0.20528295564863708
000080 de f3 d7 d0 e1 46 6d 40 58 1a 2a 7d 92 c2 22 3f
       234.21506540468448 0.00014312780566090827
000090 a8 54 d0 41 9f fd a9 3f 38 22 ff e8 4a ab f7 3f
       0.05076310804739964 1.4793194867544468
0000a0 b8 ea 22 6d 23 37 3c 40 7f 5d da 8d b7 57 88 3f
       28.215384312653185 0.01188605691576927
0000b0 24 75 9b dc d7 13 43 40 f8 b8 04 4b 54 eb f6 3e
       38.15502507773115 2.185750480626026e-05
0000c0 3d 6d 0d e2 f9 f1 42 40 10 25 ff 79 76 25 61 3f
       37.89043832450486 0.002093058967123647
0000d0 53 52 53 4e b4 aa e3 3f 0d c9 e2 37 1c 98 31 3f
       0.6145879297060425 0.0002684658901542937
0000e0 d1 e1 fb 7c 21 be 55 40 b4 24 64 8e a5 1e b4 3f
       86.97079395864354 0.0785926315912942
0000f0 36 e0 9e 48 7a f3 66 40 83 d9 a4 03 77 d6 5c 3f
       183.60867720632967 0.0017601167915707045
000100 e9 a1 f3 c5 ce 17 31 40 a4 7d 81 c2 c9 7f c9 3f
       17.092998859387 0.1992122840629068
000110 de 5a 0a 58 0f 5a 30 40 b4 50 4d 81 5a c2 14 3f
       16.351796629455627 7.919003867346252e-05
000120 bd a7 df 67 16 f8 7f 40 d5 e0 a3 7d 89 bd 37 3f
       511.50547015538524 0.00036224943836727963
000130 bc 99 ef f0 72 3f 62 40 b1 c2 8e bf f0 92 13 3f
       145.98278090283372 7.46688309749648e-05

step f8 []
000000 00 00 00 00 00 88 c3 40
       10000.0

exp_avg f8 [20]
000000 fe a7 21 c0 92 76 67 bf 9c 15 56 36 29 b7 80 3f
       -0.0028641573163001857 0.00816185185500267
000010 54 f8 96 35 4b 6b 60 bf 24 5a 38 e8 07 d8 44 3f
       -0.0020042866642305066 0.0006361044510779274
000020 e8 4b f5 99 10 93 6c bf 0a a8 44 19 f3 a8 62 3f
       -0.003488094734771508 0.002277827074199661
000030 7e 2f d8 e8 ea b3 45 bf 79 2a 57 bc 84 6b 63 bf
       -0.000662316991737452 -0.0023706047529448685
000040 54 17 df 22 1a 4c 6d bf d4 d3 0e 5c 30 7b 83 3f
       -0.0035763273690205075 0.009512307938942678
000050 76 cd 87 ea 0e 81 57 bf 6c 48 2c 82 4b 94 53 bf
       -0.0014345784821870578 -0.0011950242412166702
000060 7c 5d 6a 80 76 87 80 3f 6f c7 2f 7f fe ad 56 bf
       0.008070874971322743 -0.001384256870320812
000070 6e d4 6a 5c 6c f7 79 3f bf d8 72 2a b5 28 65 bf
       0.00633947685735335 -0.002582887496454494
000080 29 dd ef 20 ae 78 65 bf 9a bc 8c 77 58 b5 73 bf
       -0.002621021361388327 -0.004811616491493665
000090 a4 52 8f 83 3f 09 76 bf d5 b2 e2 32 ab 5a 52 bf
       -0.005379913426584313 -0.0011202499258999206

exp_avg_sq f8 [20]
000000 83 3e b8 16 76 d8 f1 3f 26 fc c5 53 f9 29 16 40
       1.1153469932068283 5.540990170439761
000010 44 20 85 14 56 75 da 3f 86 23 68 9a 33 25 d0 3f
       0.41341163638981393 0.2522706039313153
000020 d1 be a1 16 28 1d 10 40 27 ef da 71 80 aa da 3f
       4.028473237630991 0.41665660017655387
000030 6f e0 31 2d 9b e4 9b 3f 74 08 a2 fe 62 34 e2 3f
       0.027239250787232935 0.5688948605823172
000040 8b 1f a9 db f9 88 2c 40 94 e5 8e 8f 61 90 7d 3f
       14.267531265635418 0.0072177706687680705
000050 03 7e 49 a5 97 6b 12 40 b6 a2 e4 34 8b a9 10 40
       4.605070669756517 4.165570093588647
000060 01 86 75 c5 45 09 0e 40 0e 98 14 03 0f 0a c3 3f
       3.7545276094904243 0.14874446535503733
000070 e7 2e af 16 6b 9a 10 40 e6 14 65 ae 9b 9b 2c 40
       4.150799135629973 14.30392212852389
000080 6d 1e b4 43 e2 73 01 40 88 e9 73 4a c0 b4 06 40
       2.181583908972064 2.838257390653954
000090 08 49 7f 41 3b 78 41 40 04 4b 99 5f 8b ac 22 40
       34.93930834498502 9.337000834906128

step f8 []
000000 00 00 00 00 00 88 c3 40
       10000.0
