1D_Steady_BedloadTransport/Models/Model.ckpt-10500.pt (torch, 31415 bytes, 32 tensors)

linears.0.weight f8 [20, 2]
0	0xbfc2a4a1feb10c06	-0.1456491941081312
1	0x3fb4f386451d3d73	0.08184088885649547
2	0xbfd0cb7a08935340	-0.2624192317719469
3	0xbfca4f868559e900	-0.20555192481317164
4	0xbfd5be682d78ff53	-0.33974651756942825
5	0x3fd4d574e67ba262	0.32552835949039693
6	0xbfddf53ddd4cddb3	-0.4680933629165011
7	0xbf9bbc52d876bb2d	-0.027085585081006492
8	0xbfd83dd193376db9	-0.3787731111203488
9	0xbfc87b124a146925	-0.19125584237264906
10	0xbfd54b83ad97b449	-0.3327340312233145
11	0xbf63f0410ec81efc	-0.0024338980349546385
12	0xbfdc739da36cc1c4	-0.4445566268869039
13	0xbfc89aaac4d9e72a	-0.19222006427644917
14	0xbfcfb74f58f60d10	-0.247781675756507
15	0x3fa068ff82faa8a6	0.03205107187143712
16	0xbfab7e57652b0472	-0.05369828329049477
17	0x3fb5677c733fb377	0.08361032308284942
18	0xbfeea742371045ad	-0.9579173160038202
19	0xbf69102add03f806	-0.0030594670462269517
20	0xbfd390a4610f26ed	-0.30570325354038524
21	0xbfa975e3274beced	-0.049727533862062724
22	0x3fcc3431c26b9cb3	0.220342845851723
23	0xbfd1db0a92453a82	-0.2789942196294889
24	0xbfc44393129bcefe	-0.15831221016525626
25	0xbfca150e0a19a3df	-0.2037675427739307
26	0x3fd7240970444f1d	0.3615745159488471
27	0x3fd0aa9d4ee288ee	0.26041348174670886
28	0xbfb29dd44284de29	-0.07272078155516994
29	0xbf99fa13b20eb64b	-0.025368030302777716
30	0xbfb67fb8aafb86af	-0.08788637327554726
31	0xbf9c36b34f0cae40	-0.02755241556148591
32	0xbfcd12a126ba4e1c	-0.22713102713588362
33	0x3f71bfde81b90bca	0.004333371321595567
34	0x3fd3ab25d2074630	0.3073210288103807
35	0x3fd26aee8f50108b	0.28777660365472774
36	0xbf98f7ee80bbf598	-0.024383284194291116
37	0x3fbc3d215b0055d0	0.11030777427398353
38	0x3fa374976f346f9c	0.037998897862251385
39	0xbfd273b2bea13372	-0.2883116590135649

linears.0.bias f8 [20]
0	0x3f7ad632421703e6	0.00655192977996053
1	0xbf932fa9fa7d2e9f	-0.01873651114810448
2	0x3f917734279e428c	0.017056288641074377
3	0x3f614e66a47168b8	0.0021125797971253933
4	0x3f907e6b899a9859	0.016107254289316895
5	0xbf8c87176672e94a	-0.013929541410438024
6	0xbf718a237f779251	-0.004282129920714598
7	0xbf8a3a9a30859a1b	-0.0128070875222877
8	0x3f7e28eec1a55721	0.007363255159665434
9	0xbfe6bdf0859b7136	-0.7106859788432647
10	0x3f8fc256e85f5d18	0.015507391897627218
11	0x3f92b8cca4a41aee	0.018283078717128136
12	0xbf953f9887053bed	-0.020750411263460156
13	0xbf62e26825b73374	-0.0023052248122667433
14	0x3f7cc96984363449	0.007028019117012959
15	0x3f90c0580da8a8a4	0.01635873397223321
16	0xbfa54941afcded0c	-0.04157452841806206
17	0x3fa339806cfb1f07	0.03754807787259833
18	0x3f97f3c8b128d6f0	0.023390899479827476
19	0x3f7bb185a8c63410	0.006761095148601917

linears.1.weight f8 [20, 20]
0	0xbfcdb9a030e67f11	-0.23222734821046534
1	0x3f9d1ba95612b985	0.028425832632529974
2	0x3fc64366b716a02e	0.17393192233908067
3	0xbfc9e44352cb4c37	-0.20227853338892185
4	0xbfd35ab0ded28e48	-0.3024103332520309
5	0x3f96a14c647f9044	0.02209967959778704
6	0x3fcb6f311e23766c	0.21433080646140767
7	0xbfb15a39fe10474c	-0.0677829976341659
8	0xbfc3fef8d3a4c182	-0.15621862730177943
9	0xbfd973efda2d13e1	-0.3977012282014681
10	0xbfd6f45ebf629424	-0.3586651677126744
11	0xbfc6a95d443168dc	-0.1770435889218963
12	0x3fd56970247ff0a2	0.33456042828016497
13	0xbfa5b9998417d93a	-0.04243163812127411
14	0x3fcb68f705d685ab	0.21414077553803898
15	0x3fc73d4ee54dfea0	0.18155847736851616
16	0xbfc656a8621dd352	-0.1745195845684529
17	0xbf913efa0dec48d6	-0.016841799831191683
18	0x3fd6929edb6ac15d	0.3526990072960155
19	0xbfd5dee8b49dfa06	-0.3417302860106307
20	0xbfaed0aeed350c1c	-0.06018587728114985
21	0x3fd0a71d7e42fae0	0.2601999028228601
22	0xbf95cbed9c700c3c	-0.021285736725996637
23	0x3fc3755337d855fc	0.15201797701654118
24	0x3fd60c87a5e7b1ea	0.34451476289430494
25	0x3f7af649aa59faf6	0.006582534556968103
26	0xbf9a360c76f37e41	-0.025596804390146003
27	0xbfb208aa12f8a62f	-0.07044470751920849
28	0xbfb07c6271cbfdd7	-0.06439795759432997
29	0xbfca77cfe2851393	-0.20678137360132762
30	0xbfd2af4fb70d72c3	-0.29195015789245476
31	0x3fd46bac3503bd8d	0.31907181908805954
32	0xbfc7f9688dc30251	-0.18729884073219918
33	0x3f9665e62a447fd3	0.02187308915119941
34	0xbfd75b7a85fa812d	-0.3649584110626332
35	0x3fbaf352f77c9476	0.10527533094553285
36	0xbfd86385f85756f9	-0.3810744214255091
37	0x3fc13b19f5951c3e	0.13461613169985925
38	0xbfc2b553d9ab9a1b	-0.14615867737229923
39	0x3fd590d0e1753bbb	0.33696386353852475
40	0xbfdb22595c960852	-0.42397150079353196
41	0xbfd2af5a14646cd5	-0.2919526290076651
42	0x3fcfa52263c00236	0.24722699995619885
43	0x3f98a95ce230c742	0.02408356791074274
44	0x3fd44fc19dfa4d93	0.3173679392577579
45	0x3f8cd5b62b4cd83c	0.01407949752465864
46	0x3fbbf628c510f90a	0.1092248421782395
47	0xbfcafb5d74f07670	-0.21079605302741156
48	0x3fc1c59e4b814562	0.1388433331181132
49	0xbf8f7b84511cdc3e	-0.015372308469166037
50	0x3f730f8a81ac32fd	0.004653492966792736
51	0x3fbcc4cd0c6e3b16	0.11237794450265101
52	0xbfd380233080b8d8	-0.3046958898220402
53	0x3fcb2121373ac7b7	0.21194853970297142
54	0xbfc25355d8becc1d	-0.14316819270388317
55	0xbf9dcb8c7845bc54	-0.029096789208264376
56	0xbfc86eb323997d32	-0.1908782886339196
57	0xbfc0f2452aadac15	-0.13239349922091095
58	0xbfdb1de1a7ec38cc	-0.42369882010178794
59	0x3f6c10f61197de83	0.003426056483245622
60	0x3fb7b32ae047e346	0.0925776288567138
61	0xbfd77a9e4c34f446	-0.36685903017115995
62	0xbf8aa308c256f945	-0.013006275587824087
63	0xbfd4458394238a00	-0.3167427965801437
64	0x3fbcb4224ce9c20e	0.11212362649690297
65	0x3fc8dfa6e20ec2d2	0.1943253139302415
66	0xbfd3ff7b0059feaa	-0.3124682906563786
67	0x3f8a089efc92541b	0.012711755831597718
68	0xbfa6943b78cc2a29	-0.044099672790327844
69	0x3facd3c2fac924af	0.0563031130919368
70	0xbf94052ad88f3317	-0.019550961940512836
71	0xbfd45b1f63378062	-0.3180616825975503
72	0x3f7198c429042131	0.0042960798748555165
73	0xbfcb31b68e9c5825	-0.2124546238271147
74	0xbfd1da489c1573ba	-0.2789479755645591
75	0xbfd7ce580e2fbf97	-0.37196923623468464
76	0xbfc8353c73af329b	-0.1891246380677288
77	0xbfcc0d0d1570e146	-0.21914828822060367
78	0xbfd2fa56567aa818	-0.2965293736002663
79	0xbfd3b0d83659ad1a	-0.307668736530745
80	0xbfa91e9b4995b260	-0.0490616347623003
81	0xbfceecf71b26bfb8	-0.24160660577535764
82	0x3fa00e372de634ee	0.03135845599454422
83	0xbfc4e19d71651aa2	-0.1631352237402171
84	0x3fc157dabf0c589c	0.13549360588576043
85	0xbfd0d2a897c6cf26	-0.2628575784867614
86	0xbfc0308c5bea2e7b	-0.12648157585168804
87	0x3fd174c75b492e30	0.2727526084388243
88	0xbfc7bf7cda63dfde	-0.18553124106961055
89	0x3fa2b97626f60cb6	0.036571209197995655
90	0xbfd70443071782d0	-0.3596351212745903
91	0x3fd4334534ed44dd	0.31562929314266147
92	0x3fd784f204234d42	0.36748934177486003
93	0xbf6aa9e08dd271ee	-0.003254831869140987
94	0x3fc55dbb9b5b70c7	0.1669229992465999
95	0x3fd7fc72728ba3f6	0.37478314577180016
96	0x3fd7aa90d49e6b89	0.36978550685460526
97	0x3fc9ab0ba269eaae	0.20053239279135
98	0xbfd3121650a75d86	-0.2979789531359177
99	0x3fbf53e6c95039d3	0.12237398543241022
100	0x3fd2341b7b4a3014	0.2844303802492061
101	0x3fca317a67bf077c	0.20463495317204294
102	0x3fd33dde2c53782b	0.30065111473766376
103	0xbfcfe0eb75dea7f8	-0.24905150657042419
104	0x3fc25cfd990587d1	0.1434628483939933
105	0xbfbf948b3769b2ca	-0.12336034872869131
106	0xbfcc6f684290fefe	-0.22214987993537955
107	0xbfd9640915a30748	-0.39673068154308
108	0x3fb847c5f0f3c270	0.09484517223951072
109	0x3fba5be1432cb970	0.10296447649009166
110	0xbfd2118e95bf1c80	-0.282321592556805
111	0x3fd0e6f049742810	0.2640953748056072
112	0xbfd049c16b2da3bb	-0.2545016810095679
113	0x3fb7f5ddd753d9a8	0.09359537608165758
114	0xbfd5910e8467f2e4	-0.33697855882910077
115	0x3fd73fea66d6e4a5	0.3632761005679391
116	0xbf84a06b98d78a7a	-0.010071602441660266
117	0x3fb894f1a7fa6239	0.09602270461108099
118	0xbfc7b55025ade0fe	-0.18522073592954053
119	0xbfd7d3a96fc09a71	-0.3722938147861106
120	0xbfd4f95c1adc8666	-0.32771971343217954
121	0x3fc829363969be94	0.18875768473980215
122	0x3fc532cbb1d04eeb	0.1656126611929872
123	0x3fc477ddd9126359	0.15990803813181279
124	0xbfce8b010d983259	-0.23861706889910542
125	0x3fb8e983e29b3c7f	0.09731315882094015
126	0x3fca50a85ed72409	0.2055864775741443
127	0xbfd167883f42e2fe	-0.27194410493716237
128	0xbfd398185172ac36	-0.30615814165020383
129	0x3fb2427256e295a4	0.07132639523714218
130	0xbfd09a40b277d8ca	-0.259414839062981
131	0xbfa41b2c0a3f7f64	-0.0392698061475574
132	0xbfd45970519702eb	-0.3179589077736142
133	0xbfd24cc8b0b60b7e	-0.2859365201658689
134	0x3fcb70e552c7d5db	0.21438280622503111
135	0xbfbbead984c4898e	-0.10905227176093588
136	0xbf9f853a5936e9ae	-0.030781661696644917
137	0x3fce6521b9eff11e	0.23746129588097004
138	0xbfcaeb2ff77e7df9	-0.2103023489444096
139	0x3fcdae0c62f9b9ee	0.23187403519428024
140	0x3fc0bf4cc438e61c	0.1308380087009916
141	0x3fce88e50921eef4	0.23855269380498323
142	0x3fcd6b3bd8296945	0.2298350148656231
143	0x3fcf68c9d3d80a55	0.24538538783970645
144	0x3fd99442c299c918	0.39967411998726865
145	0xbfd973dc8b65ce1f	-0.39769662488035523
146	0xbfc8c655a1fe2a0b	-0.19355268869215111
147	0xbf96c6f27f4df662	-0.022243298549702202
148	0x3fd73f6e7b2f1fa3	0.36324655561156244
149	0xbfd4d874b31b50cd	-0.3257114171112903
150	0xbfc4b45053da6659	-0.16175273985281782
151	0x3f93aae9dd62a8b0	0.019206670892039923
152	0x3fd3d62841dd0515	0.30994612152069695
153	0x3f70f96299a7cade	0.004144082219215332
154	0xbfd54e16d9c16eab	-0.3328911901969415
155	0xbfbd6e050ff1451a	-0.11496001853199225
156	0x3fd0b72be2e29f5d	0.26117989689600113
157	0xbfce5438feae62f6	-0.23694527087788914
158	0xbfd9295f5b09bd41	-0.3931501759570502
159	0xbfa09faa8400608a	-0.03246815549226863
160	0xbfb286f9b11f045b	-0.07237206053015781
161	0x3fb8a6cbbf14d8f9	0.09629510321687808
162	0xbfcf285cc0e2b095	-0.24341926019895213
163	0xbfd5c82ef79d79a5	-0.34034322911420595
164	0x3fc2450c2b475421	0.14273216355528098
165	0x3fd1763d02a0cfa8	0.2728416944184979
166	0x3fbbf4287fd03d5e	0.10919430847592568
167	0xbf72afd787152b7d	-0.004562227158497187
168	0x3fcb4f7d9056d866	0.2133633570462649
169	0xbfb452cd1d08e41a	-0.07938844641547896
170	0x3fd42b9e38a5beb8	0.315162234611289
171	0x3fd3830ab8551090	0.3048731613273583
172	0xbfa8c2e33a319a63	-0.04836187444089004
173	0x3fc614c469c63505	0.17250876583822375
174	0xbf68eacd1970962b	-0.0030416494223739674
175	0xbfc29e2e52257dae	-0.1454522992234905
176	0x3fc4986cd5048aa9	0.16090164567238688
177	0xbf837393de66dc57	-0.009497790550865455
178	0x3fd3689e9910cecc	0.3032604689389984
179	0xbfcf79692aac6005	-0.24589266379985034
180	0x3fc12cf9e463c810	0.13418506290287313
181	0x3fbcf4ab75c55a48	0.1131083643461831
182	0x3fa472f9c1f3ce79	0.039939694333864524
183	0xbfd2600d8fe06dcd	-0.2871126084371241
184	0x3fdd50604dbc40a2	0.4580307730802905
185	0xbfa08fd14138e29b	-0.03234723969621208
186	0xbfacb26141d5cb1d	-0.05604843071605201
187	0xbf6ed933765ae910	-0.0037656788943795164
188	0x3fc40e0c7401730d	0.1566787306245704
189	0x3fc1b0076251bc4a	0.13818447399850903
190	0x3fd79409d87f67a3	0.3684105505213841
191	0x3fb87ba4d088247d	0.09563665476902546
192	0x3fd2182edb6988b8	0.2827260153482132
193	0x3fc09a3e5d629601	0.12970714149302867
194	0x3f94f87563225edd	0.02047904412810807
195	0xbfc363636647b56d	-0.1514705895819292
196	0xbfcf6d6dd0d82130	-0.24552700707887132
197	0x3fa73ecbae0f67c5	0.04540096759565374
198	0x3fd315095419e6cf	0.29815896237378764
199	0x3fb6cb3d70b1156b	0.08903869630110754
200	0x3fd02d0e54f88bb1	0.25274999902665757
201	0xbfa0fe5bfeae77f7	-0.033190607871105664
202	0x3fce00f1fc3e9b60	0.2344038468993075
203	0x3fc15bba7d1c735b	0.1356118307966437
204	0x3fcf9a39d84bf6c4	0.24689410268177003
205	0x3fd08950b1719a68	0.2583810551499597
206	0x3fd379353e0f00f2	0.3042729478875251
207	0x3fc993bbcd9b9136	0.19982097186506004
208	0x3fd186f0d5226b46	0.2738611298934085
209	0xbfb9a873aed76890	-0.10022662180509401
210	0xbfc8cf24baad9036	-0.19382151713500811
211	0xbfc3aa585786672e	-0.15363601945574018
212	0x3fd2212b6949b541	0.2832745102121699
213	0x3f962dbbac9a6ca2	0.021658832940926083
214	0xbf79b63aa67c7fa1	-0.0062773028401180994
215	0x3faf7dba643c994e	0.06150610421745971
216	0xbfb182d093ce1b3c	-0.06840232475779556
217	0x3fd23e8626776ec6	0.2850661636018511
218	0xbfa7b7670dad596e	-0.04632112543065402
219	0x3fd0f6298feddb62	0.26502455764368993
220	0x3fc0495aede40019	0.12723862281563994
221	0xbfbc9acd8e43f1af	-0.11173710559155013
222	0xbfbdeb44a3c2746b	-0.11687115667378271
223	0xbfcf68d882499247	-0.2453871380013359
224	0xbfd81357f038653d	-0.37618063410771524
225	0x3fc6c86b799e473c	0.17799132765190417
226	0xbfbe4318104dd745	-0.11821127317474829
227	0x3fd24285e66a4789	0.285310244574355
228	0xbfc54e7fd5440985	-0.16645810998313607
229	0x3fd3e80bbcb8bf6a	0.3110379546151224
230	0xbfc4c3145aa5fdbb	-0.162203354131618
231	0xbfd7e6f053855a73	-0.3734703841813946
232	0xbfca5ba5f254c5e1	-0.20592188198638353
233	0x3fa249a9b1f7767b	0.03571825311130979
234	0xbfccd44a4d979817	-0.22522858418159394
235	0xbfd29c5a349556d5	-0.2907929910191858
236	0x3fbc68c1dcd07b36	0.11097346917129589
237	0xbfc60aa953e65ffd	-0.17220036122012053
238	0xbfd80862016bc2df	-0.37551164759410754
239	0xbfd60bb5ebadcf02	-0.3444647599746845
240	0x3fcc08a0ac8a118b	0.21901329445621473
241	0xbfd22fa9fbf55905	-0.28415917973815424
242	0x3fb48005e3dd4fe6	0.08007847607706217
243	0x3fd6c48718882263	0.3557450999801743
244	0xbf952959d46c41fc	-0.020665553655875954
245	0xbfd3f215f2c5d740	-0.3116507407024649
246	0x3fcb4379e4667461	0.212996708415548
247	0x3fd5b0f459ffe6d9	0.33892544545197506
248	0xbf95d4312bc63278	-0.02131726102520523
249	0xbfd2be1cb63332ba	-0.2928535250946812
250	0xbfbdc721f972e7b7	-0.11631977405605097
251	0xbfd0d9a83235a505	-0.26328472998882574
252	0xbfcbf1a263774c8b	-0.21831159455050328
253	0x3fd5692fdb3f84a1	0.33454510127018905
254	0xbfbc744edabc96f1	-0.11114971962214405
255	0xbfb03742c24f1cee	-0.0633432125460904

linears.1.bias f8 [20]
0	0xbf8adacb294f249d	-0.013112628172068869
1	0xbf85f993ced4b1ee	-0.01072993731448776
2	0xbf910f0394822525	-0.01665883630679334
3	0x3f86c15130e96e65	0.011110910706683083
4	0x3f8f1d8d001c2992	0.015193082395417421
5	0x3f9704098d61fce4	0.022476338629073292
6	0xbf6c2e12bc540348	-0.0034399381571578493
7	0xbf9512f65e6e4c84	-0.020580148233034126
8	0xbf60da91ad16ff34	-0.002057346843429198
9	0xbfb818113ffeaeee	-0.09411723911642486
10	0xbf575f95e65682a5	-0.0014265979637927775
11	0xbf861f292fde7db0	-0.010801622174595987
12	0x3f872c445335167f	0.011314901150977661
13	0xbf724354fa549613	-0.004458743996371267
14	0x3f87ef533859a7ec	0.011686945111438939
15	0x3f823fc34356ab2d	0.008910680286893314
16	0xbf6724b281c3cddf	-0.0028251158201954975
17	0x3fa1271cbbc00718	0.03350152770873488
18	0xbf754160249d83cd	-0.005189300116257689
19	0x3f8827568960fd96	0.011793781344862347

linears.2.weight f8 [20, 20]
0	0x3fd6313700abab15	0.3467538363026262
1	0xbfd071ce9c2bc285	-0.25694623232906394
2	0x3fc84d25eb03cd16	0.1898543736966551
3	0xbfac12b146258ce5	-0.05483011227877358
4	0xbfcc915a5706c476	-0.22318581818902644
5	0xbfc072b332dd02c4	-0.12850036605416026
6	0xbfcb1c98e63c95e0	-0.2118102192118121
7	0xbfd0ea1913e8d525	-0.2642882055691465
8	0x3fd4853446182ed0	0.32063013882792024
9	0xbf9cbf1b01b9de8c	-0.02807275960955606
10	0xbfc0afff4582c3fb	-0.13037100690920042
11	0xbf9267cc6a81a5e7	-0.017974084854733532
12	0x3fd1b38f536159a8	0.27658446447949325
13	0x3fd1d27ab6c7b7d0	0.2784716401064289
14	0x3fc4a4783b776c6d	0.1612692156184922
15	0x3fa76b7dff321c8d	0.04574197521383736
16	0xbfc41c295f04c3a3	-0.15710942401485992
17	0x3fae3d96f78c1836	0.05906364223305653
18	0xbf95865157dd92de	-0.021020194042096978
19	0xbfc3ed00baaa0671	-0.1556702529378984
20	0x3fc7ab3d9fd25046	0.18491335204874043
21	0x3f9ec4148fc5d3fe	0.03004486205596279
22	0x3f8048e0e66ee385	0.007951504738103807
23	0x3fa011784aa65279	0.03138328467608615
24	0x3fcc0d4135945c68	0.21915450206936105
25	0xbfc967ecc35196a8	-0.19848403489156863
26	0xbfd4493ce1935858	-0.3169700816046137
27	0x3fd0e64736681415	0.2640550643266704
28	0xbfc85abe7816f92c	-0.19026928771740736
29	0x3fa6923582ad29aa	0.04408423633738619
30	0x3fd3347351291799	0.3000763218482177
31	0x3f9c10109dce61c7	0.027405032760357686
32	0x3fc792193db90c79	0.18414607538042896
33	0xbfc5b3994741fa94	-0.16954341868764244
34	0x3fd754662f450b40	0.3645263158434098
35	0xbfa5cc436788ba95	-0.0425740302929302
36	0xbfcb2c88bb47efe5	-0.21229657311039243
37	0xbfd01bc7fb05607c	-0.25169562829751846
38	0xbfc8e6cd2c243c00	-0.1945435014281145
39	0xbfd292b116c5b834	-0.2902033541093971
40	0xbfc09250f81be449	-0.1294652186841481
41	0xbfd321d961745234	-0.2989409877493785
42	0xbfc4b85f8091404d	-0.16187661912636245
43	0xbfcc86f41502859e	-0.2228684523188748
44	0x3fb46140697e5040	0.07960894179842715
45	0x3fce5747f5d938fe	0.23703860763857415
46	0xbfb8ee58bbf4d2dd	-0.09738688076761144
47	0xbfd11ec92f724493	-0.2675040210097645
48	0x3fd3740bba548061	0.3039578742627836
49	0x3fb5c9406f9ae257	0.08510210728389588
50	0x3fd6cfd28eb529a9	0.3564344781522331
51	0xbfa7ef611b40afbb	-0.046748194290870036
52	0xbfcf39fccf6189e1	-0.24395713926339993
53	0xbfc799efc631dd80	-0.18438527276496686
54	0x3fb51af405c9c3b4	0.08244252339660713
55	0xbfd585d194cb9df8	-0.33629264384077784
56	0x3fdc0ced5736d679	0.43828900830280976
57	0x3fc16afb30bd1a44	0.13607730750864466
58	0xbfc1360fc3db866b	-0.13446232856135806
59	0xbfb68fc60816dd76	-0.08813131043904385
60	0xbfd5f6b104b265ed	-0.34318185290029996
61	0x3fd13412434793d5	0.26880318231843364
62	0xbfc19d1d9a447217	-0.13760728867136215
63	0xbf910902a0c9b737	-0.016635933936803595
64	0x3fbb16510b56518f	0.10580927397524519
65	0x3fc9e5172d010bb4	0.20230378816094474
66	0x3fae013cf12d877e	0.058603195610671385
67	0xbfd9c583b4c3ea37	-0.40268032696591
68	0x3fd50a5cb6b0912f	0.3287574562148334
69	0x3fd2900132085fc6	0.2900393475151727
70	0x3fcfa4bb087fbeb2	0.24721467890730292
71	0xbfbe3eed6e6c93e2	-0.11814769693280838
72	0xbfa3de4302709170	-0.03880509762555817
73	0x3fd05b3c2a0313c3	0.255568543460239
74	0xbfbce2e3b3f2902b	-0.11283705847978413
75	0x3fd22eb29279e51a	0.28410019211112714
76	0x3fd8f0ad4a190ae8	0.38968975292315955
77	0xbfcb555de6f76155	-0.21354268815663127
78	0x3fc576b3d477dfa2	0.16768501161982124
79	0x3fd4ddc978585f6e	0.32603680374585664
80	0xbf7ae229d3a6f54c	-0.006563342462354637
81	0x3fc19f3b19fd8d62	0.13767184037269958
82	0x3fcfd83bc718e706	0.24878642293497694
83	0xbf8985c9aabdf55e	-0.012462211154110999
84	0xbfb4f29e8a2e2648	-0.0818270766596011
85	0x3fcda85940e0fc8d	0.23170009296334051
86	0x3fd10683b32680a7	0.2660226106181746
87	0xbfbad3022de2fd82	-0.10478223438530246
88	0xbfc4e309d85be4c7	-0.1631786638679726
89	0x3fd18a8f2e0928f9	0.274081988293474
90	0xbfc44f248970c144	-0.15866524420699524
91	0xbfc8518e97f2300c	-0.18998892230263242
92	0x3fd23a2e8c486e24	0.2848011369657988
93	0xbfa0fc9b824d0050	-0.03317724195085303
94	0x3fc1bf7f4f45abdb	0.13865653391562102
95	0xbfa6a78c8794884f	-0.044247046995466215
96	0xbfd89cf8bcf2845f	-0.3845807881535332
97	0xbfb8c62e54340494	-0.09677400165311872
98	0xbfcf64a6adeaa158	-0.24525912754075807
99	0xbfb2996b52040109	-0.0726534915193079
100	0xbfc6773d10f947b1	-0.17551387146755595
101	0x3fc89714979d2550	0.19211060908336686
102	0xbfc3c727dc0ea079	-0.15451524968125677
103	0xbf9177efdc5c59b1	-0.017059085678818146
104	0x3fd62428ca673119	0.34595699087073367
105	0x3fd05bd94a858ff2	0.25560600545418233
106	0xbfd629456df869fd	-0.34626899470609357
107	0xbfc0ca79983011e3	-0.1311790459732399
108	0xbfca1053ffa55db8	-0.20362329466546014
109	0xbfcf3ecfdf34e689	-0.24410437010537958
110	0x3fd3aa24b5432838	0.3072597284450498
111	0xbf9bf1a762d0fa83	-0.02728902378680199
112	0xbfbfb0cb81d0e809	-0.12379142684304169
113	0xbf88f6c8b58b96e9	-0.01218945316345406
114	0xbfa9207d15944056	-0.04907599342743711
115	0x3fcd25b387a5c2f1	0.22771305201924677
116	0xbfd78378a58ee71a	-0.36739936988634414
117	0x3f8d75ba15b02acb	0.014384702479238417
118	0xbfc9be1be479ab9f	-0.20111416488665854
119	0xbfd43d24678efbd6	-0.31623182404649464
120	0x3fd47240da8dbf7d	0.31947347014556
121	0x3f936a112850b9cd	0.0189593010765579
122	0x3fc273bbb6780662	0.14415689859019937
123	0xbfa179dc9db7d0e8	-0.03413285661000193
124	0x3fc92a583dfb405b	0.1966047575610926
125	0xbfd55403bc2db904	-0.3332528436357196
126	0xbfc280e30e234d8a	-0.14455831709220163
127	0x3fc12c884bf15813	0.1341715212644777
128	0xbfd8aa1477ab0bc8	-0.3853808563837302
129	0xbfd0e1a4cd9e5efd	-0.26377220230050097
130	0xbfd1c40d7dcb7c3f	-0.2775911072221255
131	0x3fc7db3fd2417907	0.1863784577025813
132	0x3fc9da237b933c40	0.20196956190054216
133	0xbfb61f654b8bd339	-0.08641656011952827
134	0x3fbcb647112c2c1d	0.11215633553744948
135	0x3fd150c2b12e948c	0.2705542307178994
136	0xbfc396167d4e8504	-0.15301781767360734
137	0xbfd7730a6bc7aa48	-0.3663965275324341
138	0xbfaa16e894934697	-0.05095602811492233
139	0x3fc226c4dcaee494	0.14180813575311346
140	0x3fbd3e426e3f694a	0.1142312544974732
141	0xbfd5a9c093d74262	-0.33848585546096477
142	0xbfacd51c84f3291d	-0.056313410977582225
143	0x3fd26fae31049885	0.2880664328280392
144	0x3fd667c644480521	0.35008389156435454
145	0x3fb59ce4b1f6c81c	0.08442525238822934
146	0xbfd6bfc299919dc6	-0.35545411107019864
147	0xbfa08fbaf605944a	-0.03234657529063918
148	0xbfbef9c5b9d99fc1	-0.12099872386318024
149	0x3fcc0aa7684850fc	0.21907513229292153
150	0xbf7532eb093742a1	-0.005175512418148871
151	0x3f9c15af0db3ad56	0.02742646714334048
152	0x3fc77a0efc431558	0.18341243092997206
153	0xbfcae6714ae64513	-0.21015754849626286
154	0x3fb47f18cbf21333	0.0800643442071987
155	0x3fd10ddcffb5b9e7	0.26647114726702487
156	0xbfc7ff489a5148b9	-0.18747813735041577
157	0x3fb06afb8b2ffa48	0.06413242481355852
158	0xbfce8a1ebe6d4b20	-0.23859009073438475
159	0x3fc8de4cf24f95f7	0.19428407508455312
160	0x3fc7cd0073f8fa83	0.1859436575195624
161	0x3f61095357dd09c2	0.002079642085761808
162	0xbfd5a3ae645ba327	-0.33811530876714574
163	0xbfd85a708e93bb5e	-0.3805199997286105
164	0xbfd27c49a6f9a4ab	-0.2888359194390186
165	0xbfca1b91e2bd4e72	-0.20396636554015718
166	0xbfbbde8e6e43c818	-0.10886469070445093
167	0xbfd3c9159eb6dad6	-0.3091482210105999
168	0x3fb099e7aadfeede	0.06484840318438098
169	0x3fc98c80c0b92687	0.19960030947031646
170	0x3f8169f419d89dca	0.008502871550333153
171	0x3fd0cfc4dd8fdd07	0.26268121373091485
172	0x3fda3cf4829dd430	0.4099704051544135
173	0x3fd1faa9c561889e	0.28092426562774075
174	0xbfbebdcd54164993	-0.1200836496630358
175	0xbfd674f44ce40387	-0.35088832386832575
176	0x3fc83f6f9441f397	0.18943590869085078
177	0x3faf436a42fb84aa	0.06106121127755533
178	0xbfc242241e42cf82	-0.14264346578204018
179	0xbfb3809bda3d28bf	-0.07618116453264444
180	0x3fd163cef9262289	0.27171682673409997
181	0x3fd485f1963f95da	0.32067527458852185
182	0x3fce02a1b52f17a2	0.2344553122222211
183	0xbfd43474dc4cb1fa	-0.3157016898501578
184	0xbfb598fff3e75e36	-0.08436584191019211
185	0x3fd5d141b0064cc9	0.3408970087995838
186	0xbfb5687245b0bb3c	-0.08362497521805506
187	0x3fb8137234f8973e	0.09404672425497737
188	0xbfb7d8f874067b0e	-0.09315445740365311
189	0xbfc4cbb47ddd51fc	-0.16246658464173425
190	0xbfb460c24fa3b824	-0.07960142559360911
191	0x3fd5eaa807d8ac26	0.3424472881912969
192	0xbfb1ae6d1624204a	-0.0690677813582862
193	0xbfa35723fe5ee8fa	-0.037774205018154164
194	0xbfc6d3de25781e6f	-0.17834069089461788
195	0xbfc3c3e99ecb5c33	-0.1544162774432337
196	0xbfcf0b5dfa066999	-0.2425343962502893
197	0x3fc5223175b6fa73	0.16510599372664422
198	0x3fb92fb91be2827e	0.09838444643765773
199	0x3fb2310f001c785a	0.07106107475962756
200	0xbfbf1eeb8fac8389	-0.12156555421507965
201	0xbfcfa1b514be6c92	-0.24712241661913886
202	0x3fb52ae972ed0f48	0.08268603378115558
203	0x3fd4b3fb83a7c722	0.3234852586457341
204	0x3fc01169ee49bf5a	0.12553142676506007
205	0xbfadae9734cb16c1	-0.05797264594506891
206	0x3f698df85450c5af	0.0031194544012797735
207	0xbfd4cd8001fa0a36	-0.3250427264503374
208	0xbfa58eacd45e6762	-0.04210414974586631
209	0x3f5e187b6f1972a3	0.0018368916902523978
210	0x3fd46c8b29c380f6	0.3191249759529592
211	0x3fc361a3561f9882	0.1514171762966648
212	0xbfd26ab4e5aef16c	-0.287762855816047
213	0xbf85ca40935e37e5	-0.01063967179996079
214	0x3fc5394977ad9a50	0.16581075996073702
215	0x3fd1a627ab5871e7	0.275766293840006
216	0xbfcafc3ea4896470	-0.21082289728181847
217	0x3f9fa902d521d612	0.03091816354613825
218	0x3fd79d08c728da94	0.3689596123617005
219	0x3fc0f6f0c4c56f7c	0.13253602607698756
220	0x3fd25e78928c0bbe	0.287016051399572
221	0xbfc87b25f55ac9c7	-0.19125818710524653
222	0xbfd3f41fab0338dd	-0.3117751283688344
223	0x3fd225fcf3cf0812	0.2835686093277455
224	0x3fd377b663e6b1bc	0.30418166881534225
225	0xbfd43bc14e3ee00f	-0.31614716187641617
226	0x3fd591cac2546a3b	0.33702343919290784
227	0xbfd1ad6011e91be3	-0.2762069868953729
228	0xbf94ebbda0b32f72	-0.020430529530855286
229	0xbfaaebfee1cac40d	-0.05258175379038486
230	0xbfc3ef5f9a2dddd2	-0.15574259784965122
231	0xbfc301553c487592	-0.14847817843921668
232	0xbfd083dc536e8c46	-0.2580481352580971
233	0x3fc729b71b514d0d	0.18096054872385317
234	0xbfc0c9f9aa33793d	-0.1311637955722719
235	0x3fbdb169faa4e1cd	0.11598837250938417
236	0xbfd5144918646bf0	-0.32936313039834797
237	0xbfc46508b3ac32a7	-0.15933331273153792
238	0xbf5e4779dc6027cb	-0.001848095898369528
239	0xbfc130031b4a010d	-0.1342777140853361
240	0x3fc126e84e8e3903	0.13399986110420778
241	0x3fd1dc0429b95a56	0.2790537269078518
242	0xbfd2566cecd51ce0	-0.2865249932114704
243	0x3fcfcb2145d760f9	0.24838653478833075
244	0xbf96b98c0c2462ca	-0.02219218086347289
245	0x3f98fcbd5bf85541	0.024401625383764673
246	0x3fa786ffcb67789d	0.04595183713875992
247	0xbfd604b6a2472046	-0.3440376839394087
248	0xbfb8adaf9ff3f598	-0.09640023856260027
249	0x3fd2ee8cce96c0a3	0.29580993818945894
250	0x3fb69ec758e9ba4a	0.08836027069785604
251	0xbf9405f64933e9ed	-0.019553993432944883
252	0xbfd622e632d65bc0	-0.3458800789316534
253	0xbfdb990ae23a78c3	-0.4312159737836618
254	0xbfd3909a5c642e99	-0.3057008650073186
255	0xbfcfe85d7139bc5b	-0.24927871731367443

linears.2.bias f8 [20]
0	0x3f90f7854e0f870d	0.016569216622776262
1	0xbf9472100fec77bc	-0.019966364833741798
2	0x3f9da0923074d28e	0.028932842452564382
3	0x3f93bed289b80061	0.019282617240606096
4	0x3f905a12f4edac7f	0.01596860523151777
5	0xbf894399a11fdea7	-0.01233596823656964
6	0xbf91cc55fef05904	-0.017381042180283593
7	0x3f9070c2f53d8c7c	0.0160551511938931
8	0xbf87766a301e9ff0	-0.011456327050680642
9	0xbf8542377e45576f	-0.010380204716664313
10	0x3f8c19d839bf82d3	0.013721169721919868
11	0xbf8a2de0e3fd8e03	-0.012782818753925623
12	0xbf8a1fff6325b1f4	-0.012756343091234058
13	0xbf8e52acdaaa1e50	-0.01480612795172856
14	0x3f904bec3ea05d8d	0.015914622614301478
15	0xbf93afa8fb4c957b	-0.019224777544100995
16	0x3f8f2b1c6b90b5fc	0.015218946488029232
17	0x3f8a4bd27e1014cd	0.012839931938297156
18	0x3f8d76eb5b14109d	0.014386976925841838
19	0x3f89e833a2646509	0.01264992083865703

linears.3.weight f8 [1, 20]
0	0xbfc3ab830aacf31b	-0.15367162724751257
1	0x3f9df741a3324975	0.02926352079936963
2	0xbfc231eca7541785	-0.1421485726388562
3	0xbfd162611f60442b	-0.27162960113588736
4	0xbfddb37fbaf9ceec	-0.46408074626309204
5	0x3fd32b345099754c	0.2995119845489469
6	0x3fc339fa56ff692c	0.150206844786973
7	0xbfe09a650ba0b49f	-0.5188470103363619
8	0x3fb8fce6f803dc61	0.0976089816575594
9	0x3fdc776248037422	0.4447866156822916
10	0xbfdc579386b9d243	-0.442845231598117
11	0x3fd84380783f0259	0.37911998503481
12	0x3fd7b3a3fa1dd37b	0.3703393881362939
13	0x3fa3f2e4bfc412ce	0.03896250573055725
14	0xbfd354947cbd8536	-0.3020373552481773
15	0x3fdf780bce13a0bf	0.4917020332782264
16	0xbfe1b5f514861135	-0.5534615898946301
17	0xbfa17e6d241b0323	-0.034167681367313095
18	0xbfde97a48e438c4b	-0.4780055417342665
19	0xbfd59b536025216c	-0.33760532750286276

linears.3.bias f8 [1]
0	0xbf8dd1407afdbf04	-0.01455927253093093

step f8 []
0	0x40c4820000000000	10500.0

exp_avg f8 [20, 2]
0	0x3f6c13bbfa270d88	0.003427378790748118
1	0x3f4765b8edcb3a9c	0.0007140305493410107
2	0x3f9054a9907a6984	0.015947961276290737
3	0xbf64082aea6c4433	-0.0024453008840130907
4	0xbf8a3c75383f0740	-0.012810626772878586
5	0x3f5f2cbd435c0fea	0.0019027565262499332
6	0x3f850dbde7255b93	0.010280116669191297
7	0x3f43b590ba44a4c0	0.0006014782598288346
8	0xbf8a6e0eb059d615	-0.012905230290225092
9	0xbf56c7c083d5e227	-0.0013903980282902269
10	0x3fa4d3069ce73292	0.04067249932595475
11	0x3f4225630c2aa792	0.0005537732725617742
12	0x3f4f1e388c69266e	0.0009496475329992657
13	0xbf70cd4cc64409b7	-0.004102039242072689
14	0xbf8f46d35bbc8de5	-0.015271807896687537
15	0x3f8188d836cd2a65	0.008561791584402909
16	0xbf810ad5a00c4335	-0.00832144636800223
17	0x3f35971dfd804ec8	0.00032944185432025016
18	0x3f965bb4c8d8309e	0.021834206350874845
19	0xbf314df109b0db26	-0.0002640450927090969
20	0x3f7b7ccc411d49b9	0.00671081339699458
21	0xbf683470103a85f7	-0.0029546917665619304
22	0xbf76262d6664a5b6	-0.005407502502103359
23	0xbf440a330f4de566	-0.0006115674319594866
24	0xbf89b5bd320c1cf8	-0.01255367096884051
25	0xbf624d255c21a7fb	-0.0022340516743968287
26	0xbf5250db9ee815fc	-0.001117910836570756
27	0xbf2a8a5377a5c8d6	-0.0002024866951831408
28	0xbf92b7f4821614c4	-0.018279858054957257
29	0xbf6f1f345e3003ad	-0.0037990591822567228
30	0x3f8bc0a17f783275	0.0135510079408274
31	0x3f3c08a8c10c45ee	0.00042776222203241745
32	0x3f85844550cfb52c	0.010506192711512506
33	0xbf50e4bf17e5d840	-0.0010310999055867104
34	0xbf7f1e2f861431b3	-0.00759714664424076
35	0x3f5211f1ad2230ce	0.0011029110069414208
36	0xbfa64cd876afeb90	-0.04355503510301795
37	0x3f4fddac09e9380d	0.0009724702866351645
38	0xbf68d56631164174	-0.0030314441616569546
39	0xbf48df5fdecb39bf	-0.0007590501896517706

exp_avg_sq f8 [20, 2]
0	0x4027360f1bbe7fe9	11.605584017757751
1	0x3f28cbadfbb0539b	0.00018917559450018221
2	0x40426417e502e608	36.78197920457393
3	0x3f47e337c73a442a	0.0007289907793667273
4	0x400503be725e8357	2.626828092107114
5	0x3f20e18e37fd209f	0.0001287923914736798
6	0x3fe69467a53b5aea	0.70561582824561
7	0x3f6de91a5ec646d1	0.0036511912387105845
8	0x40350577fdd786d6	21.021362176054787
9	0x3f4237c70b317149	0.0005559656041316609
10	0x3ffb0aec688e9db2	1.6901668628941988
11	0x3fccbf7c227539c5	0.2245936554194953
12	0x3fb4b57490bc642d	0.08089378865806003
13	0x3f676c077835de45	0.0028591295137479233
14	0x40118b35d7a10034	4.385947579576214
15	0x3fc018cc0b46a22d	0.1257567458208241
16	0x406d61f536e4c5af	235.06118340189047
17	0x3f2023815db4180e	0.0001231284539714998
18	0x3fa127d187491b1f	0.03350691582141096
19	0x3ff7377a8753ff13	1.4510445867781
20	0x403c441664303d9d	28.26596666505576
21	0x3f8dfe83f167b9f1	0.014645605854608031
22	0x40433205a6f83c98	38.39079749222691
23	0x3ef2de894eaf8679	1.7995150226718445e-05
24	0x404266c930e1e75f	36.803014860443675
25	0x3f5599b46575bbda	0.0013183843310249272
26	0x3fda50101b04fa1c	0.4111366523610813
27	0x3f2561ae7003ae42	0.00016312841763209586
28	0x4056ff9b5a2f1ca8	91.99385695076728
29	0x3fb02bfb5fedbc47	0.06317111103065641
30	0x406680e510b5268b	180.02796206837624
31	0x3f61d3b2f7c263ee	0.0021761413064038592
32	0x403120b809097c70	17.127808155837954
33	0x3fc27fbd2d8585a3	0.14452328417523316
34	0x40309872d6815074	16.59550228745543
35	0x3f1562d6cc5237ae	8.158145927181115e-05
36	0x40809932c2cda382	531.1497856202625
37	0x3f390ef86f392726	0.0003823620347459415
38	0x4060db6332ab8384	134.85585912226463
39	0x3f0b7cf76c38b1e7	5.242948602943495e-05

step f8 []
0	0x40c4820000000000	10500.0

exp_avg f8 [20]
0	0xbf62dcd5ffa4121c	-0.002302568403253836
1	0x3f7bb7bb5757247d	0.0067670171751582605
2	0xbf5754f703bb34ee	-0.0014240658046447657
3	0x3f43b1f9e7318e83	0.0006010503988247016
4	0xbf5ca2b5a2c6a297	-0.0017477773463758
5	0x3f629c675d88d377	0.002271844754682946
6	0xbf440def119931e3	-0.0006120126083231616
7	0xbf680f4722483c02	-0.0029369725546142264
8	0xbf65c884cb3831bf	-0.002659091341916858
9	0x3f7f8d8780622c88	0.007703332236029266
10	0xbf365daf80c873cc	-0.0003412774538292223
11	0xbef9c2450b6886d6	-2.4565568958695817e-05
12	0x3f79105222cf1e8c	0.006119080394405462
13	0xbf56b4305e998f22	-0.001385733829374077
14	0x3f75f44f6aff5062	0.005359945513152638
15	0xbf44f4d50e10138c	-0.0006395378405846682
16	0xbf6a2d1419aacc33	-0.003195323236775427
17	0xbf68bec2a191c03d	-0.003020649088789211
18	0xbf6ed7da202fcf0f	-0.0037650356548456563
19	0xbf2e65455013debc	-0.00023189993957094767

exp_avg_sq f8 [20]
0	0x3ff1e811c1434615	1.1191575574233685
1	0x40157c018df097f0	5.371099679765379
2	0x3fdb3c5d854fd3db	0.42555940645916984
3	0x3fc8149e3efb0801	0.18812921595787205
4	0x400f7e9773bc4274	3.9368123094393983
5	0x3fd21bac70eddd37	0.28293906238782845
6	0x3f948212e3c320f6	0.02002744212293891
7	0x3fe047d0e267102c	0.5087665960240932
8	0x402c76d0d75604cb	14.23206208157571
9	0x3f76a76b3fe4b480	0.005530756896672817
10	0x40124e68d555f148	4.5765717824654715
11	0x4010c0cea0089c1b	4.188288212323665
12	0x400d1137958ce9a1	3.6334067996624104
13	0x3fb9a25466e9ab1f	0.100133204579532
14	0x40119cb1e4540b70	4.403022353772812
15	0x402bf564b41bca98	13.979283932106497
16	0x400185b8073ce938	2.1902924123252454
17	0x4007146d3b768870	2.884973969034995
18	0x40421e2da5a06544	36.23576803523841
19	0x40211621278dd966	8.543221698823526

step f8 []
0	0x40c4820000000000	10500.0

exp_avg f8 [20, 20]
0	0x3f724cc07497e7a4	0.004467727450441137
1	0xbf54d9cb8f21447e	-0.0012726295358514157
2	0x3f67b82231cb6a81	0.0028954189168478033
3	0x3f7c2062e3d1cffc	0.0068668234717854625
4	0xbf6481838dfcf4c2	-0.0025031632830222203
5	0x3f859af6c7882dfe	0.010549476589424064
6	0xbf5ebff5668f893a	-0.0018768211832527874
7	0x3f79125ade0502df	0.006121020269632209
8	0x3f6c5c475cbd0fa2	0.003461970691121822
9	0x3f85d83e1050feeb	0.01066635596555395
10	0xbf3bda2ac21097e0	-0.00042499107263649187
11	0xbf06bdf67ed2d1df	-4.3377003615150315e-05
12	0x3f502fcb7aa22d9f	0.0009879576778385258
13	0x3f6b837a13deacbc	0.003358591492504807
14	0xbf7883d85c2580dc	-0.0059851123390617066
15	0xbf766d082b9b0263	-0.005475074687354284
16	0x3f59aa18cb3bb9f0	0.0015664331557975163
17	0x3f693419e361c80d	0.0030766015652767876
18	0x3f6e8980c93c2f8a	0.0037276759484309906
19	0xbf55caf4ab4d0cee	-0.0013301267001260514
20	0xbf652afdfaaf1bc4	-0.002583976796333572
21	0xbf64b2b240283801	-0.0025266152818010927
22	0x3f860121628cd48f	0.010744343585978448
23	0x3f681c4bd43de808	0.002943180183078379
24	0xbf5b66e9c5be427e	-0.0016724856313638232
25	0xbf6dbeb8adbe426c	-0.0036309821134142186
26	0xbf48cf20c0643a65	-0.0007571134490563346
27	0x3f86cb2107a53795	0.01112962536413046
28	0x3f5bdaf640664b7f	0.0017001538086318377
29	0xbf65213483f22c7f	-0.0025793100063019043
30	0xbf6dce66dd7203ae	-0.0036384591181221814
31	0xbf70da9e7d0dcdcc	-0.0041147414166177836
32	0xbf5ed7289ee1dfae	-0.001882352512920331
33	0x3f65135356361d12	0.0025726916953236
34	0xbf79a4baf0f5052f	-0.006260614623273582
35	0xbf7a76c0179cf834	-0.006460905418689978
36	0xbf81125ebe52d147	-0.008335819419109781
37	0x3f68c3a6c7e50471	0.0030229813993690115
38	0x3f6e3e5a2be5bd94	0.003691841236267821
39	0xbf700421d0fcaf5c	-0.003910190673007321
40	0x3f613b5376df82ac	0.0021034841692969177
41	0xbf6c3d9f9dc3270a	-0.0034473531251010313
42	0xbf5ef8b36ab8f372	-0.0018903495901121084
43	0xbf65d385364f624f	-0.0026643373298436477
44	0xbf70ae2192353ae2	-0.004072314393239936
45	0xbf3a398d771592db	-0.000400158917804467
46	0xbf701ed1d4f423d5	-0.003935641914048345
47	0xbf61585d6bb540a6	-0.002117330992099725
48	0x3f5c22955ac24063	0.0017172297039316435
49	0xbf57a0e73bc8b335	-0.0014421709194138547
50	0xbf6a46b3a4ad1588	-0.003207541337732326
51	0x3f5269c747bdaf80	0.0011238523574901016
52	0xbf617ee99114d9aa	-0.0021357118463598184
53	0x3f6fd355a1914ca2	0.0038849518282773757
54	0xbf57cf85ba2fef23	-0.0014532857828716903
55	0xbf57ea5c4502e337	-0.0014596844739982026
56	0xbf56d0665b4f2360	-0.0013924598290364285
57	0x3f6d99648d85694a	0.0036131824419218016
58	0x3f57c02420c2e61b	0.0014496186077351872
59	0xbf277522d9522b22	-0.00017896700288518816
60	0xbf1aa3cf98c12f48	-0.0001016231018990374
61	0x3f5071b3a281e142	0.001003671097377604
62	0x3f5d27eb08541b2c	0.0017795367469390462
63	0x3f56fada7e4e57d6	0.001402581570095309
64	0x3f612cfab2431842	0.0020966431057756483
65	0x3f4933fbc711e569	0.0007691363699812551
66	0x3f6245edaacd351d	0.002230610078561525
67	0x3f23a25afe917497	0.00014979706546372894
68	0xbf12a150c8887807	-7.106833994227633e-05
69	0x3f5e1443a7f64232	0.0018358860687365361
70	0x3f570690b84b6e02	0.0014053738861353753
71	0xbf57e5b656195f33	-0.0014585762622995712
72	0xbf3f246de89b1a8b	-0.0004751938182433821
73	0xbf601b18ffb8f7b2	-0.0019660461673813518
74	0x3f31476a30c10c1b	0.00026365606823136747
75	0x3f28861e65786ee6	0.00018710251855302075
76	0x3f4aa147217c6c71	0.0008126828497298078
77	0xbf5889ee49adf6b3	-0.0014977290181542979
78	0x3f09d8f0c1c1ae9e	4.930004817612947e-05
79	0xbf52d94c6f8a7bc6	-0.0011504408304643262
80	0xbf259c691a926a1a	-0.00016487868314103775
81	0xbf557b1601fd97ee	-0.0013110842628178926
82	0x3f3562b72056c434	0.00032631846292036364
83	0xbf6bc1a08db8f498	-0.0033882270634238536
84	0xbf4c391237bd1729	-0.0008612956002955519
85	0xbf7762accda97962	-0.00570933820071526
86	0xbf4f4c34418c6ec8	-0.0009551291614999452
87	0xbf6012c76d9ab2b7	-0.0019620795327085177
88	0x3f3b9be9acbdf3df	0.0004212804312755929
89	0xbf501ee7430167f5	-0.0009839304366523448
90	0xbf6381ca191e93a7	-0.002381224367996332
91	0xbf51193c6c86727e	-0.0010436143948943373
92	0xbf5f634b2a4c1dab	-0.0019157632861509326
93	0x3f47cc7d27ebb569	0.0007262812722196702
94	0xbf3e81051c267cad	-0.00046545386080682865
95	0xbf474e2cc821616c	-0.0007112234745916663
96	0xbf7210ac06619825	-0.004410430881852921
97	0x3f4d8c8f8b1ce849	0.0009017659087711206
98	0x3f2cc2d0caa005fc	0.0002194290039483764
99	0xbf43ccbff201a79e	-0.0006042420609564286
100	0xbf4117b56eb10f71	-0.0005216251278245943
101	0x3f5ccf6eceed854a	0.001758440219156237
102	0xbf660c4ac504ae19	-0.002691408190136146
103	0xbf63b256dbcd8692	-0.0024043747384190984
104	0x3f55e02a11d21232	0.001335183223347813
105	0xbf689afa804cf6dc	-0.0030035870171606204
106	0x3f4e278f6f67386a	0.0009202432982478141
107	0x3f52fb9e3d07f91a	0.0011586232468512926
108	0xbf518e117787c7ae	-0.0010714693618152182
109	0x3f72aeb2d7e2b0f0	0.0045611368242754885
110	0x3f230fbf1ba059e8	0.0001454277788190538
111	0x3f4b3404902e8780	0.0008301756173418745
112	0x3f5537ada89477f4	0.0012950130351962992
113	0xbf5f220bf1828ffe	-0.0019002071985960707
114	0x3f59aa0c5e6debb7	0.0015664215841002368
115	0x3f58e7a986d27dfb	0.001520076325768004
116	0x3f4094cd97485559	0.0005060199605987733
117	0xbf6239979eb2eef9	-0.0022247277571220106
118	0xbf59a825ebdddf52	-0.0015659685445523386
119	0x3f595b3356af1cc8	0.0015476228097542222
120	0xbf65ec3c289db39c	-0.002676122186065345
121	0xbf702163a57a5e30	-0.003938092464202778
122	0xbf6a1ac087c3a801	-0.003186584506797097
123	0xbf7d13d8348dee08	-0.007099003364483554
124	0xbf786d89b1bd2729	-0.005963838451700267
125	0xbf7de316ffa950c2	-0.007296647871573638
126	0xbf786d7eafb200de	-0.0059637974437693735
127	0xbf73c439ff890eb4	-0.004825808101091834
128	0xbf2139b99700a6af	-0.0001314200449098932
129	0xbf718c4ca69d03cb	-0.004284190575902745
130	0xbf78518542ea8ce8	-0.005937119056997654
131	0x3f62de91efec49be	0.0023033953033373125
132	0xbf5b0fe79640ba52	-0.0016517411795679182
133	0x3f76479c106d8e0a	0.005439386010809519
134	0xbf62055f21d7dc26	-0.0021998270083219027
135	0xbf634d3fc5827d1e	-0.002356171182398405
136	0xbf72ab06553b52cc	-0.0045576331501322
137	0x3f724b8545482b80	0.0044665532955247
138	0x3f586838fd712cf3	0.001489692358307701
139	0xbf534ac8f4e7c934	-0.001177498099079144
140	0xbf5e210104e2e072	-0.0018389234497089538
141	0xbf52a08a88ca06c1	-0.0011369088053076323
142	0x3f7893d4c81909be	0.006000357797861287
143	0x3f82665981377a36	0.008984278922921179
144	0x3f3b753583f7a426	0.0004189735081739386
145	0x3f66c9022e23bd74	0.00278139520479897
146	0x3f5b959045e5501b	0.0016836079517661476
147	0x3f8b914d844d34e5	0.013460736846946772
148	0x3f5c2f7cc81dbd30	0.001720306260235404
149	0xbf63c13cb63db2e2	-0.002411478593720027
150	0xbf5db1b40878f484	-0.0018123872886371137
151	0xbf3177d6e65c22ad	-0.0002665424020596257
152	0xbf48ca231356f837	-0.0007565184848130683
153	0x3f50e6c7c4d0b5ee	0.001031584822395511
154	0xbf809a3efaaf2d36	-0.008106700921323023
155	0xbf80af98b90a1485	-0.008147423884347535
156	0xbf808236c86217da	-0.008060863485535853
157	0x3f6049d3d4f4f54f	0.001988328680140462
158	0x3f67a770c48e3b9d	0.0028874590393068293
159	0xbf5f1e3331844bf2	-0.0018992900787153624
160	0xbf6a1d951fd21330	-0.0031879341682405013
161	0xbf333a3ad2ea2772	-0.00029338775758757437
162	0x3f364551c6db61d6	0.0003398251200059909
163	0xbf45db91f8709251	-0.0006670439478325218
164	0x3f5140d22f6428d5	0.0010530521954615253
165	0xbf71b15ed0ea95e6	-0.004319544196424973
166	0x3f53900479097053	0.001194004409760492
167	0xbf51f73e5cf96865	-0.0010965451255260602
168	0xbf562d673e9439be	-0.0013535984274458536
169	0xbf492773a30745e5	-0.0007676424630124716
170	0xbf4779cacfe785cd	-0.0007164230626665547
171	0x3f13b133d96e3609	7.511977160686729e-05
172	0xbf5a90b0eeaca4ff	-0.0016214111189561395
173	0xbf4f88396f36d43a	-0.0009622841302446901
174	0xbf3efdabf0c17fb3	-0.000472883680009413
175	0xbf496046334163f6	-0.0007744162344450734
176	0xbf6fdf96d516310a	-0.0038907953209613754
177	0xbf39d4b10da9e7b3	-0.00039414713470586475
178	0xbf4898d678fac713	-0.0007506415585878133
179	0xbf427dccc5b0b772	-0.0005643129219430178
180	0xbf7040227c3a6ec0	-0.003967413623879146
181	0x3f613413f0715652	0.002100027984435462
182	0xbf2edeeb21a603a5	-0.0002355253244097608
183	0x3f6dca68154e0d35	0.0036365540385660208
184	0x3f6421673a5ee2ee	0.0024573341533734505
185	0x3f5a97d33147375c	0.001623111956280585
186	0x3f66bcff9c8b43e7	0.0027756683742627855
187	0x3f5dee5468869f8c	0.0018268417644353467
188	0xbf64721de3911315	-0.0024958213585101288
189	0x3f54d461e157aa5c	0.0012713390218503018
190	0x3f5b3b7374c7c1fb	0.0016621234418573428
191	0x3f5d5b0c7939b4be	0.0017917272388346252
192	0x3f618f26cfcd06d7	0.0021434553185891536
193	0xbf61a046e151515e	-0.0021516212823746014
194	0x3f3cae3cfdaa53ab	0.0004376315024868192
195	0x3f3c87afd2e31489	0.0004353336579579555
196	0x3f2ffaf23a128f73	0.0002439900099818721
197	0xbf60044bfb88d2b3	-0.0019551738771731108
198	0xbf5f05d2c292a453	-0.0018934782222379723
199	0x3f5ca2014c45e0e8	0.0017476093936164509
200	0xbf6270ae4a08eaba	-0.002250996025649013
201	0x3f53c24cae26a8db	0.0012059925871690722
202	0x3f51d15fe00f354b	0.001087516430050189
203	0xbf54ef01e813c168	-0.0012776869410196737
204	0x3f5b0853961d01a4	0.0016499344132655325
205	0xbf65d3e6a8d63269	-0.002664518839713904
206	0x3f5febb79d3fa8e1	0.001948289213937353
207	0x3f4cd4e5aead5969	0.0008798715110554359
208	0xbf5b45e506f7d72d	-0.0016646133989274934
209	0x3f6074faa9706018	0.002008905004469607
210	0x3f3ba2a7eb1c220d	0.0004216823536898069
211	0xbf3f9d5cecd4ae9d	-0.00048240202598280065
212	0x3f4a12a30f3f9011	0.0007956787289882268
213	0xbf5f52d69cb9b6fb	-0.0019118400404311553
214	0x3f57274b979d3d05	0.0014131773190973484
215	0x3f5677bf6ee2aaec	0.0013713235344236475
216	0x3f5ec99851df61b3	0.001879118680781483
217	0xbf5cda75c53bae52	-0.0017610693075153128
218	0xbf501d8f4d9920b1	-0.000983610100222559
219	0x3f3a30baf84889d0	0.0003996330708863323
220	0xbf7fc5696c96512a	-0.007756625950964749
221	0x3f6cb5c07e9ed92e	0.0035046348247888192
222	0xbf427a73d8351f8e	-0.0005639138839024103
223	0x3f84f60942dc1b5b	0.01023490176477331
224	0x3f613c6a10c7a67d	0.002104003104467732
225	0x3f720272d6ce9fa1	0.004396866407581885
226	0x3f6d2b2304710a66	0.0035606082851995955
227	0x3f8f3b08d23a8eb2	0.015249318042442315
228	0xbf7377bfd460c142	-0.0047528737396052585
229	0x3f51ae12d3248b5a	0.0010791000209528696
230	0x3f64794bf56d105e	0.0024992450302381694
231	0x3f779a6974ef29a6	0.005762493076824892
232	0x3f7c7b00c4a7e9d3	0.006953242302638124
233	0xbf5479a417df462e	-0.001249704596819955
234	0xbf6455556f9908a2	-0.0024820965452657254
235	0xbf60e1541995f039	-0.0020605700089486837
236	0x3f5405dabee8afa9	0.0012220989407394167
237	0xbf5ced036bb339b9	-0.0017654927640254738
238	0xbf6534a19fe5f906	-0.002588573144009068
239	0x3f6dd3cd21cb552d	0.0036410337910221164
240	0x3f7246e9288c4c9e	0.004462157034839679
241	0xbf5455f8c426020f	-0.0012412003858061104
242	0x3f5f2c22f9098eb4	0.001902612832190548
243	0xbf66900c0437280c	-0.0027542338081945113
244	0xbf4681689d52d079	-0.0006868134320456985
245	0xbf44df9243a47ad6	-0.0006370033436587607
246	0xbf5381ea0956a9d2	-0.0011906419289099313
247	0xbf45d3edf0d75a37	-0.0006661331005329345
248	0x3f617e8a38c62edc	0.002135534252550515
249	0x3f01d29398946393	3.3993844292540914e-05
250	0xbf2aeff46f044846	-0.00020551546868624783
251	0xbf6ec04afb5eae00	-0.003753801774072363
252	0xbf62f3cb700b10dc	-0.0023135159866304166
253	0x3f40bf226fc4a1be	0.0005110662600929445
254	0x3f62abd6e8c98769	0.0022792050788646334
255	0x3f620cb4837eebb3	0.00220332390378305
