1D_Steady_BedloadTransport/Models/Model.ckpt-11500.pt (torch, 31415 bytes, 32 tensors)

linears.0.weight f8 [20, 2]
00000000: 9cea 0167 8da7 c2bf 57d9 164d 806b b13f
00000010: 309c fd18 1bd5 d0bf 7197 0160 b79b c6bf
00000020: 2eed 09d6 1899 d5bf ad3f 89ea 63cd d13f
00000030: 29ca 679d 5731 debf 2fe3 5925 2419 a0bf
00000040: d28d 6166 6b34 d8bf 9469 69c6 aa10 c6bf
00000050: ccc2 8461 fad7 d5bf 2195 dc23 efb6 65bf
00000060: 2d5b 2fa3 9082 dcbf dee9 1d5a 13e4 c4bf
00000070: 6156 b3e6 9082 cfbf 513a c7f2 b9aa 993f
00000080: 3fa7 ec1e 9e65 abbf b691 dd0f 9952 b33f
00000090: 8ba6 b614 7ac0 efbf e36e 10ad d395 68bf
000000a0: b8f2 c722 6a94 d3bf a79e 5ff0 07ea a6bf
000000b0: 3cd5 5e71 5936 cc3f 9366 5a0f e767 cebf
000000c0: ccd1 ad14 e42c c4bf db64 94ea 6a54 c7bf
000000d0: 403a 0553 142e d73f 2157 9121 e672 d13f
000000e0: 27ea 7116 337d b2bf 4865 29d0 c85e 97bf
000000f0: f68b 4ce0 f38d b6bf 0f68 e1ae e16c a0bf
00000100: a5b2 bc6c 4e25 cdbf 8a5b 3753 c219 733f
00000110: 8e67 191b 48af d33f e729 e61a f075 d03f
00000120: b0f8 8961 d669 98bf f871 0b13 9a35 b83f
00000130: e24f 6104 1084 a33f 53f9 0f7e 3048 d0bf
-0.14573829202330024 0.06804658777295934 -0.26300694885725573 -0.17662708461574142 -0.33746930029129174 0.2781610288993715 -0.47176161166786074 -0.03144181209513019
-0.3781994342627658 -0.17238363922190258 -0.34130725405979656 -0.002650706358411484 -0.445469054565751 -0.16321031475292974 -0.24617205872225426 0.02506533188153021
-0.053509656214670624 0.07547909390775129 -0.9922457127151615 -0.003001130513906479 -0.3059335078867593 -0.044754264919729274 0.2204086116377456 -0.23754585504211842
-0.1576199627849192 -0.18226372198186067 0.3621874628778734 0.2726378753480834 -0.07222289369557498 -0.022822511391813266 -0.08810352541017594 -0.03208070049068123
-0.22770099934986834 0.004663237650183736 0.3075733437195759 0.2571983587919519 -0.02384123773890029 0.09456789936979948 0.038116932425196884 -0.25440609274655407

linears.0.bias f8 [20]
00000000: 5e96 abf6 3460 7e3f 77b2 6c6c 66fe 93bf
00000010: 7771 0fc2 8ec3 913f 8b00 f6fb 6c94 603f
00000020: 3a46 03ff 73c5 903f c5fd f151 3b94 8fbf
00000030: 24e4 9925 51e0 65bf b053 2f95 3a00 87bf
00000040: c350 97f3 3f46 7f3f 8376 c057 9ea1 e7bf
00000050: de05 2acc 180a 903f ca85 cd46 63ae 923f
00000060: 28e1 53f4 eaeb 95bf 12cf fc04 1f6f 51bf
00000070: e375 e22c 2eae 7a3f f6c2 6652 a4e1 903f
00000080: 932b dbd8 90dc a4bf 5d58 b657 2c73 a33f
00000090: 16b2 8de8 6e35 983f 358f 0c74 8eac 7b3f
0.007415968788995279 -0.019525146835052767 0.017347555727484 0.0020238998983473414 0.016378223838563445 -0.01541944831683296 -0.0026704392337788697 -0.011230905225525806
0.00763535481515393 -0.7384788240339762 0.015663516484442634 0.018243361660443637 -0.021407767450882492 -0.0010640910076746318 0.006513767597565476 0.016485755471594886
-0.040745283576675416 0.03798807688433279 0.02364133161920464 0.0067563595373803425

linears.1.weight f8 [20, 20]
00000000: ec50 7739 c2c4 cdbf bd2d 932d 632a 9d3f
00000010: e18d 57e2 0c3d c63f e860 b23a 46ec c9bf
00000020: 81ea 2a6d 5159 d3bf c2f6 3767 533b 963f
00000030: 211a af5a 6b70 cb3f 522d b947 a76d b1bf
00000040: 8875 80dd 9510 c4bf 2b84 a1ec 9877 d9bf
00000050: eaf5 420e 35f4 d6bf 56e4 2d44 11a7 c6bf
00000060: 55f2 90a2 f768 d53f 369d 9b58 04c9 a5bf
00000070: 0bdd 0f0f 637f cb3f f12a 7821 d551 c73f
00000080: 5736 466f 7259 c6bf d50b ca4e 5a5d 91bf
00000090: ba1a ffd4 ce77 d63f d327 fc8a 49d6 d5bf
000000a0: cfee abce 98af aebf 427b 678e 20ac d03f
000000b0: bf77 399b f5c2 96bf 9129 0069 4c71 c33f
000000c0: ed74 6efd c80f d63f f657 e699 ec7e 7c3f
000000d0: 7450 500b 5b1d 9abf 9e0a 1108 e444 b2bf
000000e0: 56e1 0f7d 6f9d b0bf c589 116b 226e cabf
000000f0: aff0 4c41 80a8 d2bf a4a4 2725 6c72 d43f
00000100: 1607 1791 71ef c7bf f97e 6e59 9f1d 963f
00000110: 6074 6389 7a43 d7bf c2da e64c a34f bb3f
00000120: 6e4a 9273 f457 d8bf 47c1 e6cb 7330 c13f
00000130: cd20 11ac 3826 c3bf 6293 e83f d8b1 d53f
00000140: 71fc 2449 5633 dbbf 7a8d 4ea2 e69d d2bf
00000150: 5477 6d2e b5b3 cf3f ec05 f87d 6c5c 993f
00000160: 7619 4bb7 9761 d43f f0c3 41b4 641d 8d3f
00000170: 98b1 6087 5136 bc3f f446 137a 20ea cabf
00000180: e58d 4fec 1683 c13f 95d5 bcb1 ba92 8ebf
00000190: 7eae 871d 29d7 763f 47dc 3d37 49b3 bc3f
000001a0: 2715 c3ea a271 d3bf 881a 530e 36ff ca3f
000001b0: 7528 5c13 a92a c2bf 3f74 e5f2 ee93 9cbf
000001c0: 6c76 52fc 2a60 c8bf 65ea 5b54 e213 c1bf
000001d0: f1e7 36c1 f069 dbbf 5caf c89c 5b5a 703f
000001e0: 7c6c 7cdc eac1 b73f f63f 1363 187b d7bf
000001f0: 908b 5435 82ea 8abf f70d 22a7 9a46 d4bf
00000200: 1974 4523 fda6 bc3f c824 ba54 f4df c83f
00000210: 4d69 4871 a802 d4bf 84cb a1a5 f352 8a3f
00000220: 3ada 2227 cd7c a6bf 01d0 cdc2 4dbd ac3f
00000230: 9b83 a0f7 5320 94bf 16d8 8d5c 0d59 d4bf
00000240: b555 946e badd 723f db55 7255 2e2c cbbf
00000250: c12c acd3 7bd9 d1bf 5b73 7963 cecd d7bf
00000260: d92b c0e8 4e35 c8bf e15b dfa8 9f09 ccbf
00000270: ea93 9b15 cef9 d2bf c970 3cd1 d8a3 d3bf
00000280: e410 c981 0a12 a9bf acfa 054c 44e4 cebf
00000290: ba5b 4767 1418 a03f 8496 54b3 51d2 c4bf
000002a0: 17c9 261e 655e c13f bb61 7c55 69c6 d0bf
000002b0: 0261 4230 5629 c0bf 1b4f b1f7 dd7a d13f
000002c0: 34c0 96ab e9c5 c7bf 618f 0383 42c5 a23f
000002d0: bd1c ee2c b1fd d6bf a88e 3a84 0b34 d43f
000002e0: ae3f 15c3 c68b d73f 1980 249e 6334 6cbf
000002f0: 0bf8 042d c864 c53f d159 c2a8 ccff d73f
00000300: 1330 209f 0cb5 d73f 4c70 a397 56a4 c93f
00000310: a565 33e6 e916 d3bf 703d a2bf 9c5e bf3f
00000320: 58f2 3678 4136 d23f 6ea2 543c dd27 ca3f
00000330: 7e61 3a44 0444 d33f a636 e063 7ad6 cfbf
00000340: 5f56 91b7 f756 c23f 5216 7b4f 0a7b bfbf
00000350: b4bd 9b99 4f72 ccbf 30ab 9426 5e65 d9bf
00000360: dd50 e899 9c6a b83f 6143 aae5 d739 ba3f
00000370: 799e 69db 1712 d2bf fbe8 27bc f1e4 d03f
00000380: 9ad6 cc97 fc4e d0bf 5b16 6199 0f07 b83f
00000390: b31f 626d 009c d5bf 5016 fb4f f034 d73f
000003a0: 0041 d48d 4cc8 84bf 955e 12c3 2daa b83f
000003b0: dfaf 36ac b06a c7bf 9f31 a3f0 38e7 d7bf
000003c0: 8e7f 5f7a b5ef d4bf fa6c 2063 c33d c83f
000003d0: c11a 887e 4740 c53f a4da 1a39 3c96 c43f
000003e0: 32dd 845c b96f cebf 11e7 9f80 632a b93f
000003f0: 5537 ee20 e96a ca3f 4ae8 f7e9 8a5b d1bf
00000400: 74c4 6fc4 9794 d3bf 1295 c960 1868 b23f
00000410: 348c 7b06 428c d0bf 7d99 4676 9a4c a4bf
00000420: a0a1 1a06 9d53 d4bf 0c3d 5428 6159 d2bf
00000430: 4b78 ab9a 498a cb3f 3abb e9ee 8fb7 bbbf
00000440: 1b0f ead3 fece 9ebf f81f 9d8a 194f ce3f
00000450: b6d0 fbdb 3320 cbbf 29e4 a596 acc8 cd3f
00000460: 8637 7109 bfc1 c03f 85ba 70d8 d98b ce3f
00000470: 23f7 d9fb 425d cd3f 2c6d 3cf9 8257 cf3f
00000480: ef4a 25b5 9793 d93f a0b9 ef86 7176 d9bf
00000490: cc36 5a88 57cb c8bf 0ab3 bc61 fabd 97bf
000004a0: 96ce d423 dc38 d73f c898 e934 ecd5 d4bf
000004b0: e689 cf16 0aaf c4bf 45a5 7210 19ab 933f
000004c0: 71ff cc1c c3d7 d33f 26be 78f6 3cba 703f
000004d0: 90f3 e395 c434 d5bf 3ac0 a380 670f bdbf
000004e0: 761e 7e37 4bbf d03f aa50 3b87 6358 cebf
000004f0: 834b b424 274a d9bf c6b3 53d7 713a a0bf
00000500: eac3 510b b14e b2bf 63ff 5ab9 bfb4 b83f
00000510: 6232 1527 7822 cfbf 87a9 78c1 aec3 d5bf
00000520: bfe3 7a2e 0346 c23f 95b2 c32f 8582 d13f
00000530: b8f3 d9e7 09f6 bb3f 525a c1a5 c4fe 70bf
00000540: 93cd ca4e 126b cb3f 00c5 0162 2147 b4bf
00000550: e2c9 f7c3 7130 d43f 5332 9cfc 307f d33f
00000560: 0e4f a2da e383 a8bf 63b5 1056 7713 c63f
00000570: 66ac b5db 7c58 66bf 702a a7fd f793 c2bf
00000580: 7b76 e9ae 55b0 c43f 0f50 741d c6ad 83bf
00000590: 52cb 7553 ab7c d33f 40c2 57cb 1f78 cfbf
000005a0: 1b60 8bde a96e c13f 8895 603f a9c6 bc3f
000005b0: 839b 3507 de65 a43f 87b3 8824 2871 d2bf
000005c0: 6599 c0c7 0644 dd3f 2454 d9a9 a9ca a0bf
000005d0: 4e47 b3fe ab22 adbf f859 f47f 8db4 71bf
000005e0: 83fd 3d03 1b78 c43f d797 02cd f3a4 c13f
000005f0: c65f cc69 5b8c d73f 678d 1ca8 8d54 b83f
00000600: f8c9 ba3f c208 d23f 809a 248e 7baf c03f
00000610: 1522 eb92 71a1 943f 5b57 85f9 286b c3bf
00000620: 6acd 29f9 0470 cfbf ff55 c989 ef8e a73f
00000630: f260 45c2 1386 d33f 468d 687b 932d b63f
00000640: ee49 20fc 4ee9 d03f c127 7e1d f375 a3bf
00000650: 7e5b 8128 e943 cd3f 5ca9 16c4 70b1 c13f
00000660: d92a 0481 1ce0 ce3f f989 5819 a2f4 d03f
00000670: 66cf f091 d90e d33f 0011 c3b1 7376 c93f
00000680: e860 96de ed95 d23f 44db 5624 0f87 bbbf
00000690: b5b3 6532 fa18 c9bf d37f 2110 9019 c3bf
000006a0: 08cf e58c 74e1 d13f 0589 e02c b812 9d3f
000006b0: abde ff67 c903 95bf b016 af8e b2d5 a83f
000006c0: c459 efe5 125e b3bf 8a29 bb3e 37ac d23f
000006d0: cecc effb 65c3 a0bf 0e16 85e7 76ef d03f
000006e0: 4d61 c90b 6854 c03f 2cdc 8f52 aea1 bcbf
000006f0: ebe7 aaae d9ec bdbf 9c91 d116 5472 cfbf
00000700: 8177 063a 4e14 d8bf 48f8 fcbd 2cc4 c63f
00000710: 4d19 188c dd4a bebf 6131 182c e63a d23f
00000720: f201 eac8 8f3a c5bf 2944 ce69 0de8 d33f
00000730: 389a 0a6a 20c5 c4bf 510c d376 0aea d7bf
00000740: 3990 d108 fd64 cabf 034f 07fe 5c4e a23f
00000750: 711c 6bd0 b1cc ccbf e3ed fdab 8698 d2bf
00000760: fdfd 7e97 3d65 bc3f 8c2c 7ce6 1009 c6bf
00000770: eb51 c92d aff9 d7bf 1d01 5b45 1212 d6bf
00000780: a874 f8e5 5df8 cb3f fdee a1b7 612e d2bf
00000790: 15e7 e4d5 587a b43f a430 818f 7ec7 d63f
000007a0: b4fe f4b9 b91e 95bf af1f 32e9 7df1 d3bf
000007b0: 2b48 4dc9 6446 cb3f 0e7c 70de 7bb1 d53f
000007c0: f6b3 9799 fd81 96bf b948 58c5 2bbf d2bf
000007d0: cbda 0920 22c7 bdbf d8ea 28bf bbd4 d0bf
000007e0: c204 db4e e5ea cbbf b62f 6e55 be68 d53f
000007f0: ea77 e410 3d94 bcbf 96c6 51f7 f155 b0bf
-0.23256709867440095 0.028482007652923736 0.17373810817581073 -0.2025230204205919 -0.30232654248144547 0.021710684943164756 0.2143682663720066 -0.06807942868288322
-0.15675614657895331 -0.39792464359749385 -0.3586552275918097 -0.17697349385324185 0.33453169704060787 -0.042549262825384224 0.21482504115531528 0.18218483099220564
-0.17460470612825205 -0.016957675036348114 0.35106249618949514 -0.3412040574336263 -0.05993344805571398 0.26050580889380026 -0.02222808608927784 0.15189509512886137
0.344713447086021 0.006956981871914172 -0.025502607884917386 -0.07136368939340307 -0.064902275116656 -0.2064860365672542 -0.29153448464399906 0.3194837916221991
-0.186994739384368 0.021597375710938647 -0.3634935704884068 0.10668392779812577 -0.3803683403613495 0.13429114776728054 -0.14960392381386214 0.33897978058876366
-0.4250083650876553 -0.2908875069644733 0.24767174498532063 0.02476663130619798 0.3184565820669357 0.014216219664577395 0.11020383410568113 -0.21026998482425763
0.1368130353795173 -0.014928301381227619 0.005576286894647729 0.11211068724320326 -0.3038108151052534 0.2109134263939334 -0.14192689366638303 -0.02790807111283677
-0.1904348117868041 -0.13341931456655512 -0.4283410918102382 0.0039924219714001195 0.0928026951118443 -0.36688813853561386 -0.013142602207670412 -0.31680933305344133
0.1119230471717433 0.1943345464426669 -0.3126622301366709 0.012853530399501663 -0.04392090895401109 0.05613177302339523 -0.019654571522668012 -0.31793531454548096
0.004605987787063827 -0.2122857968540036 -0.2788991515269111 -0.37193641390131454 -0.18912683834818614 -0.21904369111754732 -0.2964968882573077 -0.30687542374813553
-0.048965767233797114 -0.24134114944532337 0.0314337135384259 -0.16266843086593863 0.13569320652238367 -0.2621100745032227 -0.12626149517451074 0.2731242102502038
-0.18572731855738456 0.03666122292795993 -0.3592341364641916 0.31567657387698 0.36790627528261666 -0.0034429498347350426 0.1671381206342065 0.3749877594031235
0.3704253725015871 0.20032770542354894 -0.2982735393576042 0.12253741911466931 0.2845615076037453 0.2043415588934922 0.3010264078416397 -0.24873285176038457
0.1432790418936518 -0.12297119560670325 -0.22223849296959275 -0.39681199805879697 0.0953767657995885 0.10244511944826008 -0.282354320783703 0.26397364973639953
-0.2548209650443397 0.09385774130449802 -0.33764658624613303 0.36260612307191753 -0.010147665098458436 0.09634672176832233 -0.18294342430942742 -0.3734876966452933
-0.32713067007534213 0.18938486423653683 0.16602414778045296 0.16083481586766368 -0.23778454797295862 0.09830304994821072 0.20638765438018916 -0.2712123188827077
-0.3059443872762764 0.07190086710905444 -0.25856066353861995 -0.039646937311135645 -0.31760335537048867 -0.2867052930677836 0.21515770008312737 -0.108269687488911
-0.030086499866697296 0.2367889334511799 -0.21192024461163833 0.23268658977375026 0.1309126659493211 0.2386429125630977 0.22940861985619518 0.24485814256409222
0.3996333378792504 -0.3978542154062783 -0.1937055030615994 -0.023185646262549965 0.3628454542078797 -0.32555680434451206 -0.16159177888682946 0.019207374218841684
0.3100440770394846 0.004083860526904048 -0.33134569776284994 -0.11351630106560232 0.2616756479187424 -0.23707241156683284 -0.3951509340706069 -0.031695897612599874
-0.07151323820450242 0.09650800967483301 -0.24323942097034307 -0.34006852048573716 0.1427616097405728 0.2735913244676252 0.10922300253328288 -0.004149215845322534
0.21420506331706388 -0.07921036379572755 0.3154568113087902 0.3046381441970755 -0.047881241263125415 0.1724690599670949 -0.0027277411115185666 -0.1451406467952725
0.1616313079893422 -0.009608791135669063 0.30448420668033294 -0.2458533995518497 0.13618968359401226 0.11240632817551532 0.039839685802511425 -0.2881565434243431
0.45727700717033876 -0.03279619406081505 -0.05690515026220898 -0.004322579129868213 0.1599153295355614 0.1378464461351416 0.3679417164980773 0.09504018167767968
0.2817845938072021 0.13035530510497395 0.020147108642762108 -0.15170776542316386 -0.24560606161285686 0.04601238781894423 0.3050584218194806 0.086632936123853
0.26424002286617465 -0.038009259557909576 0.22863497236059155 0.13822755407938814 0.2412143354379939 0.26493122553998166 0.2977813649370006 0.19892736606391992
0.2904009507851826 -0.10752958905400783 -0.19607474766544689 -0.1492176131023358 0.27938569793262547 0.0283917214766314 -0.02052225777876397 0.04850538245913805
-0.0756542025913865 0.29176121831974255 -0.03274077129744911 0.2646157513557633 0.12757587981719568 -0.11184205547020615 -0.11689529909463629 -0.245676528112324
-0.3762393538144054 0.177861778991373 -0.11832985563532823 0.28484491640189985 -0.16584966001757057 0.3110383542307909 -0.16226582696727276 -0.3736597214121434
-0.2062069218692402 0.035754114159912496 -0.2249967830341322 -0.2905594520195491 0.11091980885156967 -0.1721516728797251 -0.3746145197995065 -0.34485298893925337
0.21851705292730128 -0.2840809148108148 0.07999186727547809 0.35592617048383546 -0.02062502095691228 -0.31161449215914677 0.2130857451361988 0.3389577553043076
-0.02198024988131305 -0.29291815063437415 -0.11631978304090322 -0.2629842154307602 -0.21810594892853002 0.3345180353433038 -0.11163694059766241 -0.06381141937324694

linears.1.bias f8 [20]
00000000: 7168 ebb5 a6e3 8bbf 5189 3343 f207 87bf
00000010: a689 ca03 3e2e 92bf a821 9dfa df99 873f
00000020: 1edc 177e 7f8e 8f3f 98ff 4968 b0c0 973f
00000030: f519 4773 4f33 71bf d989 a2b8 a49c 95bf
00000040: ce80 0977 8575 5ebf 9bcb 1660 c307 b8bf
00000050: d6a6 4f9d 574d 5d3f 0db0 d5f4 ba97 86bf
00000060: 8a35 6b8e 51f0 873f 4723 7203 5d44 71bf
00000070: c6a0 11bc 31d8 883f ebe9 8672 388b 823f
00000080: 0cf6 3a24 fd7c 63bf de29 652d ad91 a13f
00000090: a350 082f 2df3 74bf 68b9 3e27 1cfd 883f
-0.013617803980583628 -0.011245625186749793 -0.01775452516688749 0.01152396186411482 0.01540851214939037 0.023195988049792143 -0.004199323990582195 -0.021105359811039868
-0.0018590739602118325 -0.09386845680164273 0.0017884593591994033 -0.011031590077173825 0.011688840063835543 -0.0042155869806571105 0.012131107856660949 0.009054604525648954
-0.002378935257950193 0.03431454829349766 -0.005114723681362818 0.012201518962538585

linears.2.weight f8 [20, 20]
00000000: 3ed9 ec66 e332 d63f 9044 b5e5 ae6e d0bf
00000010: f7f1 394a b64f c83f 25ca bf58 1f2a acbf
00000020: 9bba 9dac 7899 ccbf c0ab 9038 8774 c0bf
00000030: e604 0d94 c019 cbbf 6544 2239 72e7 d0bf
00000040: 1169 7b3f 8578 d43f fd3f f33e d6d2 9cbf
00000050: edba b9aa 83aa c0bf f5e8 4d75 5eaa 91bf
00000060: 4d9e 02d4 50b1 d13f 264d 356f 15e4 d13f
00000070: 4c14 fc68 7ea1 c43f a970 2638 5975 a73f
00000080: 48c9 1ac5 011d c4bf fe48 aad9 4e41 ae3f
00000090: e51c 417c 0064 95bf 3d95 4020 af00 c4bf
000000a0: c6dc c7dd 81ac c73f 0abe ee8a 3b6f 9e3f
000000b0: a89d 61bc 8210 803f 1021 2f7a ed50 a03f
000000c0: a305 5b40 6c26 cc3f 4a9e c8ef 6560 c9bf
000000d0: 11e1 be65 4951 d4bf 74c6 3e0b f4db d03f
000000e0: cc7e 4adb 7804 c8bf 36e9 efc9 729f a63f
000000f0: 95c5 3bd4 6d29 d33f a4cc ef50 8932 9c3f
00000100: 8644 f999 0e76 c73f 2791 eed7 27ef c5bf
00000110: 38f8 04fc 1557 d73f 7f54 3fe8 8247 a6bf
00000120: 2ffc b35c 5d33 cbbf 8613 22ff c519 d0bf
00000130: b57b 0f14 caf3 c8bf 6981 05c8 f77f d2bf
00000140: af55 4b67 d19c c0bf 632c a8f0 c41c d3bf
00000150: c1e5 2c42 dfbc c4bf 8c3d 8a65 f096 ccbf
00000160: 46a4 7edb b245 b43f 569d aaec 0450 ce3f
00000170: 1b39 e425 e1ea b8bf cddc 854e 301d d1bf
00000180: 157b fea4 0f8e d33f 4024 0c2f 32c7 b53f
00000190: 4f1d ac88 aad7 d63f 1ef2 27cf 04b3 a7bf
000001a0: d5dd 5174 444a cfbf 0632 a644 8b80 c7bf
000001b0: 4145 2c47 33f7 b43f 0c58 7224 e185 d5bf
000001c0: 1e8b c4c5 9314 dc3f b227 6817 3b68 c13f
000001d0: cb50 374b 8924 c1bf 2311 4b94 73ad b6bf
000001e0: c8eb c7e5 05f7 d5bf aeae a111 5635 d13f
000001f0: 3b93 9416 95a2 c1bf e3bf ebae e79d 90bf
00000200: d12c 3f52 99dd ba3f 23f4 8464 6ee8 c93f
00000210: 5009 63d4 ffb3 ad3f d154 d49b 29c4 d9bf
00000220: 6a09 f1c1 f61e d53f 7e31 4d90 228f d23f
00000230: 8d16 5959 15b2 cf3f 2ee2 5dc9 34d6 bcbf
00000240: 948f fb60 fb8e a3bf d332 6d3d 8f83 d03f
00000250: 12b9 dc4e 42ee bcbf 3d47 dd5d c837 d23f
00000260: 545a 20db 9bf3 d83f 9ca4 cc9b ae50 cbbf
00000270: fa66 b4bc 2f7e c53f c935 112b abdb d43f
00000280: 8494 d520 e055 7bbf 3407 01d4 bab0 c13f
00000290: 72cb 4663 6cd9 cf3f 1591 cb5f 57b5 89bf
000002a0: 1786 8b9c 3947 b5bf fd51 6eb9 d1a4 cd3f
000002b0: 4208 d118 f303 d13f 624d 6373 0abd babf
000002c0: 72b5 cbdb 2eaf c4bf c10a 2354 4b8a d13f
000002d0: 13ca bff4 0038 c4bf 0d99 5157 6229 c8bf
000002e0: c36d 6351 9343 d23f d8d5 ecc6 bcab a0bf
000002f0: 8449 99ce f1a9 c13f 6c00 af58 0270 a6bf
00000300: e7a4 bc1b e297 d8bf bc4f a1b2 adc2 b8bf
00000310: 22ea 428b ef53 cfbf c304 71d1 b581 b2bf
00000320: daaa 258b 4878 c6bf 91a8 3f4f ca92 c83f
00000330: 8333 adbe 29c5 c3bf f6b5 c7ac ff99 91bf
00000340: bdd8 d39b 0d30 d63f 9eb9 1c96 005d d03f
00000350: 9cb8 1fdd a627 d6bf 52d5 f65e b3d7 c0bf
00000360: 92ce 57e4 54e5 c9bf df74 172a ad3d cfbf
00000370: 2040 9cc2 03a4 d33f 0720 94a4 d313 9fbf
00000380: 9a95 bcef 0acd bfbf ad17 ebad edc7 8ebf
00000390: 3c18 0c21 1421 a9bf d81a 4e46 310d cd3f
000003a0: 1a74 94fc e285 d7bf c6a2 d462 cc6d 8d3f
000003b0: f999 2071 e4c5 c9bf 5a7e f3cd 6731 d4bf
000003c0: 2adb d40d 6673 d43f 97c2 05f6 a613 933f
000003d0: c8e6 7905 d977 c23f 127b 29a1 e762 a1bf
000003e0: a5c6 89ee f03f c93f 3987 cb8f 1e52 d5bf
000003f0: 78cb ca06 667a c2bf b6d7 6482 1c23 c13f
00000400: d2b0 6d6d edb4 d8bf 700f 4998 07e1 d0bf
00000410: 0a9e 73f4 35cc d1bf 1e4c 4f4a 219a c73f
00000420: ad50 b7f4 22d7 c93f e5b3 016e b893 b6bf
00000430: 73e3 7cdf 1fcd bc3f c697 c771 5e4a d13f
00000440: 3d8c d89b aa9d c3bf ab75 9cc3 a673 d7bf
00000450: c050 de77 244c aabf d4ba 8852 b838 c23f
00000460: e7ce 717b 2f53 bd3f 0afc 3bf0 04a6 d5bf
00000470: a4e8 4d89 19ba acbf e572 7d9e 1573 d23f
00000480: c224 c887 b363 d63f 4a27 ace5 0ea7 b53f
00000490: 5cba 0b70 8cbe d6bf d09a 3243 4f8f a0bf
000004a0: 77f6 32c1 7106 bfbf 6ee5 1045 7d02 cc3f
000004b0: 5130 3926 2b0f 75bf 8787 2ea0 ea5c 9e3f
000004c0: 9b5b a5b0 5482 c73f c511 52dc ebb4 cabf
000004d0: 9c20 a714 be71 b43f 756c 1fef 5f0f d13f
000004e0: a63c 2cba cf05 c8bf 735c 84c7 d377 b03f
000004f0: f88e fe58 c98c cebf ffd8 4108 0ad2 c83f
00000500: c9bc bb77 b5cf c73f 7f2e f4b1 6fff 593f
00000510: 5a03 77d9 c5a6 d5bf bb17 a162 aa54 d8bf
00000520: db21 6ea5 7472 d2bf 24fa f207 9c15 cabf
00000530: 0391 88cb b6fd bbbf b01a a8df 90ce d3bf
00000540: bb35 48c1 33d8 b03f ee47 3d12 5e8c c93f
00000550: ba8b 01dd 72bf 803f 817f 1214 7fc6 d03f
00000560: dca9 40e9 5e42 da3f a0dc d796 dce5 d13f
00000570: 4314 7144 e6a7 bebf e3c3 d5ef 2e76 d6bf
00000580: 6ec6 48fd 8c37 c83f 357b 6d0d 714f af3f
00000590: c6d1 0e07 164e c2bf 8732 2744 fc69 b3bf
000005a0: a5a9 ace1 0c6c d13f c7e8 623e 547e d43f
000005b0: a41c ce2c 000b ce3f 7eab 860f 0f2e d4bf
000005c0: 0474 81d1 073f b5bf 88e9 bb13 2bd7 d53f
000005d0: a7d1 e670 585a b5bf e1ec 39aa abe6 b73f
000005e0: 7e73 e51c 9c03 b8bf 4ad1 854d d9d3 c4bf
000005f0: 09da c4b0 4394 b4bf 2f16 2699 13f0 d53f
00000600: b9ca 5a5d 07be b1bf f1ba ef82 a7b9 a3bf
00000610: 43a0 db92 b0c6 c6bf 2e23 d4fc f7dc c3bf
00000620: 1ae0 1f2f d61f cfbf 7036 0760 2425 c53f
00000630: fcf4 0079 80f4 b83f 7bc9 79a6 b62a b23f
00000640: 3258 e7cd a920 bfbf 98d2 1bcd bf92 cfbf
00000650: cf83 9ac2 d236 b53f d225 afa7 87b0 d43f
00000660: c09e e194 2bf0 bf3f dadb 6f0a f4c0 adbf
00000670: 4f8c c56e 5ca6 6c3f 5643 17cb 3bc6 d4bf
00000680: cdb4 cfd6 575a a6bf 1701 2212 4232 5e3f
00000690: ab9a 0790 e872 d43f 5d48 5144 1f96 c33f
000006a0: f6dd 8b6f 5369 d2bf 6ad8 3114 3517 82bf
000006b0: 37d3 5631 5f31 c53f bc21 5068 01ac d13f
000006c0: decd 37c2 18f6 cabf ade0 16c1 7296 9f3f
000006d0: 8ecf 329d 57a2 d73f 9b15 c88e 1ce9 c03f
000006e0: b238 1c58 055e d23f bfac 1c24 c389 c8bf
000006f0: f969 ea5f 6df7 d3bf 79b0 9413 4127 d23f
00000700: 8564 37ed 3b87 d33f d447 0b38 3b3a d4bf
00000710: 1a04 d16c 138e d53f c249 7be7 35b4 d1bf
00000720: 3939 939d e951 94bf 06e8 281b ccee aabf
00000730: e0f0 0242 f8fa c3bf 72c5 ae52 7723 c3bf
00000740: 0a3c 9160 7b86 d0bf b11a 575e 1200 c73f
00000750: 6e2b 89ef 8bc2 c0bf 8c40 37f7 85a1 bd3f
00000760: 46d3 0b73 bd16 d5bf 37a4 5e4e 5b64 c4bf
00000770: 8606 b6cb c0b5 61bf 4397 e37d a52f c1bf
00000780: fcc2 e713 dd26 c13f 3cdd 7659 bfd8 d13f
00000790: 9dff 490a 4257 d2bf 7ed4 0b82 c6d6 cf3f
000007a0: 3c5c c5fa 8870 96bf 79b8 df3f 8028 993f
000007b0: 5ee6 bc98 b26f a73f dcf6 adc5 e308 d6bf
000007c0: 22b4 11ff 00a7 b8bf 570a 419a 75ef d23f
000007d0: 78ee f5bd bb8b b63f 23c1 3a84 cd1a 94bf
000007e0: 2a7d 72c2 cb1d d6bf 46d2 8379 6ba6 dbbf
000007f0: 33db a481 ad8c d3bf 158d b862 72eb cfbf
0.34685597468650886 -0.25675556595258175 0.18993261932691016 -0.055008868774070664 -0.22343357494851976 -0.12855615865677628 -0.21172339657827094 -0.26412635402181756
0.3198559875433072 -0.028148028938460346 -0.13020368419844122 -0.01725146857231948 0.2764474935924895 0.27954612598587614 0.16117839933591183 0.0458171731035873
-0.15713522075891206 0.059092010565239037 -0.020889289459117406 -0.1562708766443083 0.18495200471054413 0.02972119365193574 0.007843991636220363 0.031867428937007
0.21992257253991196 -0.1982543392962149 -0.3174613469705188 0.263424883824974 -0.18763647754257418 0.04418524470379952 0.29940362668920645 0.027536531033501746
0.18329031484839592 -0.1713609508852951 0.36469030009527925 -0.04351433835078299 -0.21250502611653263 -0.25157308497755826 -0.19493986110225384 -0.28906054051733193
-0.12978570502916173 -0.298630938545733 -0.16201391917438282 -0.22335629423149006 0.07918851717717343 0.23681699329356815 -0.09733397650800095 -0.26740653675319664
0.3055457221288845 0.08507074020975924 0.35691321703821627 -0.04628767994652015 -0.24445396117856313 -0.18361035205852277 0.08189697730656055 -0.33629635390514134
0.43875593484169595 0.13599337237275005 -0.1339274995103835 -0.08858415956916992 -0.34320208968682353 0.26888038369973344 -0.13777412035519795 -0.016227359820675146
0.1049438310430333 0.2024057379548206 0.05801391093838737 -0.40259781091419905 0.33001488628010256 0.2899862679667179 0.24762217390723543 -0.11264352718524925
-0.03820024069662434 0.2580297565335005 -0.11301054406496672 0.2846547047275754 0.38986870192585354 -0.21339972121612483 0.16791340555283069 0.32590750890525705
-0.006673694134723299 0.13820586539991953 0.24882273528563875 -0.012552912341057746 -0.08311805793666625 0.23159238390202566 0.2658660642956684 -0.10444703404509917
-0.16159616214956035 0.27406581131451097 -0.1579590983452169 -0.1887629438744586 0.2853744787987262 -0.032560252459386596 0.13799879634695966 -0.04382331211627463
-0.3842702170246199 -0.09672055827223763 -0.2447490148532135 -0.07229172099416119 -0.17554575723928317 0.19197968358577502 -0.15445443926219235 -0.01718902103487171
0.34668293206722095 0.2556764093341374 -0.34617015451557065 -0.13158266198085272 -0.20231114530144062 -0.24406971507315853 0.30688566212575275 -0.030349070472794917
-0.12422245362230058 -0.015029770727220748 -0.04908049491318464 0.226965102509175 -0.3675467936134865 0.014369580045767615 -0.20135169528766975 -0.31551547157684967
0.31954337454537785 0.018629654661199337 0.14428246276275147 -0.03395770876226413 0.19726382872936657 -0.33313716928943254 -0.1443603070416335 0.13388401381388143
-0.38604293524146016 -0.2637347209131269 -0.278089035723014 0.18439117554098144 0.20187794636752213 -0.08819153485974558 0.11250495153661948 0.2701641188745011
-0.15324909791624633 -0.36643380262997977 -0.05136217082250161 0.14235595731721296 0.11455055965216908 -0.33825801334745675 -0.05610732842520008 0.288274197364258
0.3498352838510749 0.08458035571325442 -0.35538016263936867 -0.03234336562427631 -0.1211920830418992 0.2188259684788067 -0.0051414189834525096 0.029651323343962168
0.18366488099374298 -0.20864628084031103 0.07986057285518416 0.2665633998091786 -0.18767735090702792 0.06432841893216494 -0.23867146344593215 0.19390988734421197
0.1860262713084693 0.0015867796681189592 -0.3383040069275488 -0.3801675761391114 -0.2882358184365594 -0.20378446949139672 -0.10934011906698875 -0.30948278275938446
0.06579898327637228 0.1995961751040904 0.008177659387177506 0.26211525879079295 0.4103009488923399 0.27965464335233925 -0.1197494427770645 -0.3509633390559072
0.18919527404209496 0.061152966393584064 -0.1430079969847055 -0.07583595909017947 0.27221986807367166 0.32021051494997405 0.23471071422338696 -0.31531120792595135
-0.08299301972279244 0.341257828971401 -0.08340981251132594 0.09336350351252377 -0.09380508141971508 -0.16271511349953932 -0.08038733544967881 0.3427781100839153
-0.06930585889021303 -0.038525805219128524 -0.1779385296897563 -0.15518092961453916 -0.24315907765390038 0.16519598664165214 0.09748080209915949 0.07096425594662563
-0.1215921523756556 -0.24666593089172717 0.08286778689445316 0.3232745301762324 0.1247584570388609 -0.05811274173168331 0.0034972958875854397 -0.32459921677678005
-0.04365801331719297 0.0018430371497118508 0.3195134550609661 0.15301886401954592 -0.2876785840339545 -0.008833326987069696 0.16556920918596926 0.27612338244264456
-0.21063527568149615 0.030847352061500178 0.3692835841313745 0.13211400005108662 0.28698857883945117 -0.19170417083055288 -0.31197676054730966 0.2836458865374492
0.3051290337148845 -0.3160541579537697 0.33679662348373685 -0.2766241798937267 -0.01984372162115131 -0.05260312873402033 -0.15609648917405305 -0.1495198396419642
-0.2582081263580568 0.17968968969781465 -0.13093709179005536 0.11574590001623813 -0.3295129416940664 -0.15931264235158135 -0.002161861948196289 -0.13426655432629717
0.13399852249087718 0.27885421501874297 -0.2865758038024014 0.24874192571556714 -0.021913662248462126 0.024568561457208624 0.045774060387384394 -0.34429258637088167
-0.096298277161353 0.29586544097779693 0.08806966197692556 -0.019633494563721442 -0.34556859959589536 -0.4320324598950588 -0.30546128902954023 -0.24937276668888644

linears.2.bias f8 [20]
00000000: b33a 5cbd 4561 913f 6904 da5c d4f4 94bf
00000010: 9b07 8c2f 09fe 9d3f 30a2 efe3 5445 943f
00000020: 0d62 1ed6 1ae8 903f 0056 2edc 8a21 8abf
00000030: 8cdc aa75 5038 92bf edae 8e6a 1dfe 903f
00000040: 3948 7542 2e19 88bf b7b5 1cb6 f240 86bf
00000050: d72e b313 f4d9 8c3f 1a66 3cb5 c005 8bbf
00000060: 01d4 94fe 84c4 8abf 868b 4f64 e848 8fbf
00000070: 8695 c6be d77f 903f f153 bdb7 b621 94bf
00000080: 8ccb 07cf e8d7 8f3f 3432 20ae 8911 8b3f
00000090: 1f83 d4a6 4eae 8e3f dc05 c52d 89bc 8a3f
0.016972627337106427 -0.020465200583661778 0.029289382483518627 0.019795729076493795 0.016510409659163772 -0.012759289593115675 -0.017792946988916244 0.016594371441597856
-0.011766778376714014 -0.010866066153165528 0.014087588168329486 -0.013194566279298537 -0.01307014371796278 -0.015275779305687253 0.016112681406999417 -0.019659857716153032
0.01554853326613228 0.013217044474026364 0.01498090216279163 0.013054916104581808

linears.3.weight f8 [1, 20]
00000000: d8fa 982e 9ea8 c3bf 1387 0dfa 83da 9d3f
00000010: c482 0275 d22f c2bf 88ef 0e88 ac67 d1bf
00000020: 5ebf 4383 0db0 ddbf e02e a659 222a d33f
00000030: 7b90 a4a9 305a c33f da50 f133 af8e e0bf
00000040: 8cf3 67cf 89da b83f 38e3 ca77 0e76 dc3f
00000050: be96 d5b4 4656 dcbf a9d5 db83 0557 d83f
00000060: 61ea fb18 a1a8 d73f 29b4 1a5d 4def a23f
00000070: 15e0 6b9a a954 d3bf e32e b917 ce7a df3f
00000080: 4cc3 eaa7 8db0 e1bf 6da0 8990 a458 a2bf
00000090: 2ae5 e88d 7792 debf 5ffa 5716 a087 d5bf
-0.15358330989143698 0.0291538831110137 -0.1420844146096184 -0.27195275580356126 -0.46387040919124967 0.2994466662864692 0.15118988307324685 -0.5174175276283919
0.09708463014244567 0.4447055978630945 -0.4427658811531322 0.38031137348965643 0.36966731490944055 0.03698198091056099 -0.3020423896809928 0.4918704253839065
-0.5528019218091713 -0.035832541126013286 -0.4776896367871638 -0.33640291387556503

linears.3.bias f8 [1]
00000000: c653 a44d a3b2 8ebf
-0.014989162260954713

step f8 []
00000000: 0000 0000 0076 c640
11500.0

exp_avg f8 [20, 2]
00000000: 7270 8d4d e3b8 773f c1c8 d445 2959 4f3f
00000010: e437 25d7 89da 863f fcb3 b422 9b2c 5fbf
00000020: ff35 3e61 c6f2 8abf bba3 4a09 28f3 543f
00000030: 118e a55b 3796 853f 593b ae84 04fb 4a3f
00000040: cb84 2d56 04e0 75bf c6b6 7a81 7d9c 5bbf
00000050: 8ffe c54e 5502 983f 3d38 07a5 c2b2 3b3f
00000060: aafb acab c7cf 5b3f a3b2 d4b3 1ac6 6fbf
00000070: dbc5 380f 1b4d 82bf 02cd 3a03 35af 793f
00000080: b9c9 e325 28f4 82bf 5a72 e392 ea42 373f
00000090: a817 98a3 0cf3 8e3f b417 b289 d34a 31bf
000000a0: 46a5 bfd3 78a2 6c3f 8669 3e6a ae4b 5bbf
000000b0: 84ae 8b85 be18 513f 9c4a 6f41 591d 46bf
000000c0: 8f3d 94d5 b0d8 8dbf a345 c696 6e94 62bf
000000d0: 9abb d206 7bb6 57bf ca1e 8777 6ed5 40bf
000000e0: 0d24 cd15 d892 8abf 904a f111 8e0b 52bf
000000f0: af9a 402f 060b 903f dd78 00c3 ef21 573f
00000100: 5965 50c1 84d5 7b3f 93dd 57d8 a8d9 113f
00000110: 4b82 9f24 1428 443f bbc2 0f77 3383 523f
00000120: 108f d2d7 2579 a5bf 1c92 5921 b426 583f
00000130: 6dbd ac72 a436 83bf e667 8662 5d66 49bf
0.005791557218653863 0.0009566737677799906 0.011159016493049685 -0.0019027247424887586 -0.013158368914242933 0.0012786761264271657 0.010540420994124696 0.0008233806669169882
-0.005340592327088343 -0.001685259403454807 0.023446400578448986 0.00042264225069466363 0.001697487822368985 -0.0038786431820397468 -0.008936129953414465 0.006270606117755097
-0.009254754692368349 0.0003549406709575702 0.01511201738595587 -0.000263859410275176 0.003495441427720766 -0.0016659930488232846 0.0010434971392737922 -0.0006748853510266275
-0.014573461072841435 -0.0022680435124093497 -0.0014473153526457284 -0.0005137242688357465 -0.012975395360301812 -0.0011013877299503073 0.015667053827338403 0.0014118997023682613
0.0067954240558035445 6.809323357247756e-05 0.0006151293139247752 0.0011299135769570607 -0.04193990954925486 0.0014740714153954676 -0.0093815658088647 -0.0007751422863748719

exp_avg_sq f8 [20, 2]
00000000: f69a f5dd ed72 2740 17a2 d2d0 8179 393f
00000010: 3edc b2de e670 4140 e1a1 d20a 309f 363f
00000020: 5760 7c86 e5a6 0540 d2c1 d5e0 b7bf 0b3f
00000030: 451c c4fe f6f2 dd3f 6dbf eb38 4145 563f
00000040: f9cf f5de a28b 3440 205e 4421 815c 413f
00000050: 1cb4 8442 5e19 ea3f c9ec 6874 a678 d13f
00000060: e4f5 a62f b6fd a93f 657c c714 7c63 513f
00000070: 7bd5 cfdd f2d5 1040 c22d 27f0 75b8 a93f
00000080: ded7 b371 2f3d 6d40 d1a9 6ef9 940b 223f
00000090: 7a23 27db 4836 903f e72b d75c 5c2a f73f
000000a0: 257f f402 ef03 3c40 12f3 5bf2 45b2 993f
000000b0: ab4f 51a9 ff1d 4340 c272 82a4 3436 f43e
000000c0: 89b8 d1ff 28e3 4140 2e1f c371 7ea8 433f
000000d0: 7e73 7c4c f78f c93f 47da 4aaf 24b9 0f3f
000000e0: bfc2 5715 07ff 5840 442a 577b 8917 b13f
000000f0: ca2a 8b99 6790 6540 383f e996 ea4e 653f
00000100: 0dea 3be0 b8e9 3040 48d7 3558 683d b83f
00000110: 7ba0 dd31 31c2 3040 2029 d50d eb53 1d3f
00000120: efe6 3534 2342 8140 a915 9a6e d414 433f
00000130: 7b17 0cea 4798 5e40 37d2 20e1 df57 023f
11.724471031409376 0.0003887121136565709 34.88204559071936 0.0003451816836084459 2.7064924723345416 5.292682554170241e-05 0.4679543960523385 0.0013592850625023481
20.545453963291923 0.0005298262135821664 0.8155967044054964 0.27298890464926423 0.050763791386525786 0.0010613166551747485 4.208934274492431 0.05023544842296303
233.9120415222705 0.000137674270005063 0.01583207929232653 1.4478419901449742 28.01536577672154 0.02509412090056446 38.23436466665529 1.9275418055119847e-05
35.77468869915271 0.0005999200252739584 0.19970599398302719 6.0507232693952704e-05 99.98480733461746 0.0667653967022171 172.5126464574917 0.002601106817827683
16.912977232577806 0.09468700555393383 16.758563152893185 0.00011187669902771149 552.2671894274807 0.0005823170915425963 122.37938929730255 3.498699165086323e-05

step f8 []
00000000: 0000 0000 0076 c640
11500.0

exp_avg f8 [20]
00000000: a070 7586 6585 5dbf aaff 8f90 4e42 743f
00000010: 1dbf 5e31 be81 263f 734f 8b15 088e 473f
00000020: 64eb 8d40 e84d 363f 6c56 b189 dd68 5f3f
00000030: c774 472f 24fc 2abf 115d f734 3e46 70bf
00000040: 3be2 5dd5 8e38 65bf e461 edc9 e2ef 753f
00000050: 8e6f 4e77 f4ee 463f a2e2 7a73 e9da 5e3f
00000060: 29f5 b1f0 b751 6c3f ce91 4e76 764c 54bf
00000070: ee92 8bce b62b 713f 5fcd 1871 bb53 533f
00000080: 1905 850a 43b3 70bf 927e 995d 2e7d 3fbf
00000090: 2d50 1d9f ac5f 67bf 517d 690b d933 3a3f
-0.001801823755008626 0.004946047681187263 0.00017171332063758366 0.0007188357804701464 0.000340336992443893 0.0019170916991887678 -0.00020587865550584212 -0.003973238940907523
-0.0025904454914178732 0.005355726140657133 0.0006998723680342476 0.0018832473560178938 0.0034569351751644506 -0.001238933263473563 0.004192079629068186 0.0011796312795809489
-0.004077207450167175 -0.0004804838368723609 -0.002853238250205356 0.0003998188871374336

exp_avg_sq f8 [20]
00000000: 795f 38c4 3fe3 f13f 3494 633d 8750 1440
00000010: c6fe 15fd 0d9f db3f c7ea b9fa c617 c03f
00000020: afff 53fb c36e 0e40 d3d2 4f85 6d5e c23f
00000030: e1d9 74e2 65fd 873f 768a 314c 23ca dd3f
00000040: 46a5 8e91 7021 2c40 66cd 5787 0b5e 6b3f
00000050: 6fef 21a6 f0f3 1140 9eac 26db c7ac 1040
00000060: cf0d b589 6e1f 0c40 c38f 4659 467b a93f
00000070: 24f6 554b 2352 1340 900c 1f64 c7af 2a40
00000080: de44 a206 004e 0140 05b2 07f5 455a 0740
00000090: d893 2058 c2ca 4240 f569 5a5e b5bb 1e40
1.1179807343341663 5.078640898897948 0.4315829249899078 0.12572562448970911 3.804084743023814 0.1435067082344604 0.011713787053491966 0.46546251717351284
14.06531195513038 0.0033407426042175057 4.488222690411802 4.1687311403613005 3.5153475530985143 0.04976863708296222 4.8302127619950035 13.343318108358545
2.1630859869261334 2.9190787451718756 37.58405591574382 7.683309053677012

step f8 []
00000000: 0000 0000 0076 c640
11500.0

exp_avg f8 [20, 20]
00000000: 7725 e5f7 ffad 753f 5000 0454 bd26 5ebf
00000010: 4098 cf22 9b5e 753f 3eb6 b7e4 89eb 773f
00000020: 4742 e704 95f5 5dbf 7007 fdd2 c52a 7e3f
00000030: 1355 5bf3 4ee2 1cbf 9e3a 9d87 2293 773f
00000040: d462 82b2 ab2f 6c3f f612 4412 a9e8 793f
00000050: 3f20 840d 1032 46bf 4091 9d82 a012 58bf
00000060: 9fe6 4a9f b1e6 48bf a9ae 2025 2a70 653f
00000070: 37a3 40ff d9ef 79bf e7a5 adb6 11eb 79bf
00000080: f342 bdf9 498b 5a3f 2939 ea1c f0c4 673f
00000090: c864 d3a2 77ed 713f 0aff 184b e733 66bf
000000a0: 61b4 e4af 0707 3abf 68d3 93e9 c66d 68bf
000000b0: 7f0d e859 4288 843f 7e5d 8c21 76ff 583f
000000c0: 5ff4 1f41 788c 5ebf c46c 15d4 04ae 6dbf
000000d0: 285d 8049 f116 37bf 8863 e67e 8e90 7b3f
000000e0: b72c ead8 9e0c 553f bf1f d71d 388e 65bf
000000f0: fb9d d30a d9c8 70bf 8939 a0c2 e86b 6cbf
00000100: 3ef9 d603 1076 63bf 6633 7330 737e 653f
00000110: b2c7 0312 42ed 71bf 7df4 6194 9772 73bf
00000120: 228d 1458 fe2e 71bf f1ab 9175 a34a 6a3f
00000130: 074b 6643 8165 663f b762 f018 024e 70bf
00000140: a070 64a4 4410 603f 6482 b360 19d3 67bf
00000150: d0fa 8a98 b832 52bf 2b42 f564 0a35 62bf
00000160: 6178 7b40 ef8f 6abf 833c f8d6 2b57 43bf
00000170: 5c1e 5828 6b92 68bf 7cd7 68ce 10be 51bf
00000180: 8784 6bbc 1ef3 5a3f c896 5e11 ee1e 5cbf
00000190: 8fc1 bf47 3bfa 64bf 80d5 1194 4005 3f3f
000001a0: 458f 1122 5ddb 5ebf 29fb 99a3 2cb6 683f
000001b0: 5883 4ab0 b733 56bf ff82 3408 4d77 58bf
000001c0: aa94 9b22 4288 52bf 3ef5 90e0 8f85 683f
000001d0: 345e 4f90 7b12 593f ae42 a0ff 8815 3dbf
000001e0: 1275 8f22 5186 36bf 7008 d981 7d70 483f
000001f0: 2419 096c 3785 523f fe11 98ed 97a2 4d3f
00000200: 6df7 6a98 dd4e 583f b799 7e68 fc30 473f
00000210: dc36 c250 b784 573f 7da0 f25e 3253 e3be
00000220: bcf9 dda5 7f97 1abf 59c1 740c 50a1 583f
00000230: 0513 6a4e fa36 513f 9dea 40e0 0247 4fbf
00000240: b49c 2df7 bba5 3abf 1152 c071 c9a7 54bf
00000250: 1fb0 3f48 61e9 313f 99d7 e228 9e6d 2d3f
00000260: 8e08 2023 9b8b 403f 8d22 e6f8 5360 51bf
00000270: 1143 25f1 e3dc 11bf bc81 9a45 2754 4bbf
00000280: a293 4d7d de4f 30bf a854 4837 4c70 56bf
00000290: db16 bd28 5889 41bf fd5f ce1e 140e 6dbf
000002a0: 0280 a6e3 2339 56bf 8637 a4c6 e20e 73bf
000002b0: 1f57 fbf5 d749 5dbf 7737 c2d5 e8fe 61bf
000002c0: b24d 4916 e93f 393f cdf7 67db 1394 4cbf
000002d0: 2b41 a2ac 8c48 64bf 1dc9 a150 30c2 3bbf
000002e0: 418e f49c a394 59bf c063 9c5c 2601 553f
000002f0: 8a9c 71e7 f49d 09bf bb91 873c b444 30bf
00000300: f134 277f 08bd 6abf 3225 44e5 7922 533f
00000310: 4418 61c5 b20f 143f 04a5 12bb 1aad 30bf
00000320: 472f f6d5 b792 53bf 3209 8268 a351 503f
00000330: 84aa 0aed e4f6 6abf ad7f 1a57 1fba 6dbf
00000340: 3bcf e141 b92e 1c3f 173f 8e4b 9b5d 6abf
00000350: 305d 05af 3f4a 4cbf 99a5 1c74 ae1a 4cbf
00000360: eaeb 002e 8832 52bf f76a 74ee a1de 633f
00000370: 713b aad2 3038 45bf 2980 6398 bcb6 533f
00000380: 95d5 35da 1738 513f 12a8 bdee 657f 43bf
00000390: 2697 66ea bf01 563f 1065 78bb 8957 583f
000003a0: 6f74 8015 2447 40bf 6cee 9419 2919 52bf
000003b0: cea0 5950 ebef 58bf d832 be15 0657 5a3f
000003c0: 613e 71f9 e47d 60bf f354 9436 b078 6cbf
000003d0: 678e dcb4 8f62 5dbf 37c6 520c 1e47 79bf
000003e0: 2292 3032 ead1 75bf a1aa dc67 c034 78bf
000003f0: f6f5 8a86 f3f1 75bf b409 7c91 b504 6ebf
00000400: fbe0 f5b2 f172 2fbf da3b f764 c1e8 6ebf
00000410: 9957 3df3 e2e5 73bf f1a8 9f05 fa20 593f
00000420: 3591 7354 9bde 55bf fd8f 6d3d dfd0 733f
00000430: fab4 7d2a 0637 5abf 2f22 5da0 1b67 5bbf
00000440: 586c 1aa3 738e 6abf b294 da7b 18c5 703f
00000450: 3ed9 88fc 1813 513f 31ee 0463 d8cb 52bf
00000460: 452b 0bfe f21e 4e3f 9807 71ab 6aaf 49bf
00000470: b4a8 e0a8 fefe 783f 3ba4 642b c609 813f
00000480: 40b8 07fd c837 583f d8d6 f0c6 746a 623f
00000490: f43f 7ec1 e036 6f3f 6f72 bf61 50d3 833f
000004a0: 16da dff7 4990 583f 277e f6a2 d489 19bf
000004b0: 5ec6 cb17 4264 5bbf 6f67 038a 2102 0fbf
000004c0: 431b e352 5474 50bf e70c a7fb 0c8e 1abf
000004d0: 90b6 c4a9 c7b8 79bf 5911 0e6b 982e 7bbf
000004e0: 5088 df1b 604e 69bf ba5b 7c38 a388 4e3f
000004f0: c7e4 faa7 29cf 633f 0980 42b9 8e17 60bf
00000500: 6b22 7174 51fa 67bf 952d d704 75b5 31bf
00000510: 8d28 a296 e790 40bf a354 c61a 1706 4fbf
00000520: 4f5b a5ac b5f4 473f 8ad0 11f1 5ef8 6bbf
00000530: 8c7e bacd 7e0d 463f 7b3a f02d 04a9 5ebf
00000540: 4200 3113 c0b6 54bf 00b5 7659 c026 2ebf
00000550: 32ee 18ab 4d77 4ebf 8e28 db55 4a5c 453f
00000560: f742 73fb 4b5d 54bf a152 78bd d323 46bf
00000570: 9f33 67e6 023a 0bbf a9a4 251e 0478 29bf
00000580: 401c 2b2f b524 67bf b85c ab49 26f0 33bf
00000590: 718b dc18 486d 4ebf 5300 a364 2fa4 29bf
000005a0: 9680 029e 8297 66bf fa90 bb4d 1725 503f
000005b0: afac d055 6b85 373f e2c5 b207 1943 633f
000005c0: 5144 ef7f 1035 573f 4338 a304 2c21 3f3f
000005d0: d6c6 e1f5 04ef 5f3f 8e38 843f e7fd 423f
000005e0: 9ac4 76d2 44a0 5cbf c3e3 8f30 af6a 523f
000005f0: 07bc 37c6 1465 3e3f 1a6d 87ed 8675 533f
00000600: 57ae af04 627b 503f d5ea 6d11 1518 52bf
00000610: 5583 5f30 b4d6 0bbf 5c8c a1bc 0b37 02bf
00000620: 78cf aff7 19bf 22bf 3f14 28fb 2bcf 4ebf
00000630: acf0 fa5f 5117 54bf 66c6 171f 4143 4b3f
00000640: bf30 6664 78a3 61bf bb03 9d8c 329d 4b3f
00000650: ae27 2457 fd79 603f 393e a9f3 7cf0 42bf
00000660: 9bca 0a01 0478 553f e294 7edd b912 57bf
00000670: 3935 1fba 5292 593f 0b05 639d 7fcd 3bbf
00000680: 9131 a16a e264 56bf dfd6 dc58 2bf1 5b3f
00000690: dd0a 4f60 b6ed 413f 6486 86c5 e644 54bf
000006a0: df27 bc82 0a40 3e3f 66c1 8168 2125 59bf
000006b0: 0ae0 c4b3 0bbb 553f c05d 58f7 d73f 583f
000006c0: ccbe 4067 05e2 533f 993f e3bd 8aca 54bf
000006d0: ab9f 47f7 134c 4bbf fa6a 31dc f5a7 28bf
000006e0: 755a 00bf 6dd7 70bf 3e26 2e67 9724 633f
000006f0: 202e 36fb 36ad 643f 9547 39e0 be46 853f
00000700: 4a86 ec29 8278 633f a1b1 7a48 1197 703f
00000710: 01fc 0737 fbad 753f ded9 3f4e 1b90 853f
00000720: 6e4a 19bd 388f 6cbf fddb 6d35 23eb 703f
00000730: 2ef8 bcbc afb2 5c3f fa13 5118 d0df 6c3f
00000740: 93ee 046a b25f 723f ddd1 3096 1b40 5dbf
00000750: 8272 c81d 9682 69bf 8a05 4c40 997b 66bf
00000760: 636e ac29 b9cd 633f a6d1 2786 db9f 58bf
00000770: 2438 9474 85df 57bf 4d6c 75db af25 593f
00000780: dc10 c0f0 22e0 693f 5e82 3964 de4f 52bf
00000790: 9e5b dec8 60b7 24bf 9a97 1782 9043 6dbf
000007a0: 9bd4 67ac 3de7 53bf aacf e38b fb4a 50bf
000007b0: 848f b3b7 5f9d 62bf 2ee2 7319 47f2 49bf
000007c0: 3dfb 431d 40f7 5d3f e2d5 85dd 4e5f 41bf
000007d0: 83b8 552a ed1d 40bf 0569 4679 f4c0 64bf
000007e0: e23b f05c 470b 5bbf e728 40a5 0cf8 4f3f
000007f0: 52e7 f6ee d21c 633f 3769 7223 82cf 613f
0.005292892338112912 -0.0018402909191195423 0.005217176437303961 0.005839861532405842 -0.0018285708680318023 0.007365010023763094 -0.00011018378139778335 0.005755553132827855
0.003440699907582315 0.006325397906270727 -0.0006773546583938097 -0.0014692847712121787 -0.000759922723396051 0.0026169608254543353 -0.006332255889028463 -0.006327695077609863
0.001620123140089355 0.002901524515727467 0.0043768571169604045 -0.002710296387505089 -0.0003971475379270281 -0.0029820332534832746 0.010025518769004147 0.0015257505057827132
-0.0018645452842058969 -0.003623017721719886 -0.00035231962965683256 0.006729656814422287 0.0012847472422972525 -0.0026312919642101635 -0.004097793408824209 -0.0034694238756919943
-0.0023756325524281465 0.0026237726011459237 -0.004376657569297325 -0.004747955425156933 -0.004195207149027243 0.003209418541293634 0.0027339481995992706 -0.0039806444101705895
0.0019608822505131213 -0.0029082770976034834 -0.001110725659756607 -0.0022225573554026843 -0.0032424614799842354 -0.0005902256070288301 -0.0029995053216714095 -0.0010829128383540157
0.001644878402366852 -0.0017163586503356355 -0.0025607259576576123 0.0004733355199911457 -0.0018833550932634985 0.003016555009537032 -0.0013551038584084987 -0.001493287302601398
-0.0011311193324499516 0.0029933748342318147 0.001530285518347341 -0.00044378847781082864 -0.0003436992724895209 0.000745831759282346 0.001130394099293116 0.000904392417567623
0.001483646775951776 0.0007077438794922873 0.0014354505720208166 -9.214872049703938e-06 -0.00010143963433326733 0.0015033036923562586 0.0010507053754348916 -0.0009545101206705657
-0.0004066070461505409 -0.0012607066373721036 0.0002733099465774841 0.00022451930676020414 0.0005049235826393315 -0.0010605640451066018 -6.814137694744991e-05 -0.0008340064770955761
-0.0002489011943025925 -0.001369547299991761 -0.0005351715530898764 -0.0035467522597620858 -0.0013563967209861976 -0.0046528681216510045 -0.0017876252167545249 -0.0021967456396571566
0.00038527908899263074 -0.0008721444090153907 -0.002476000551787779 -0.0004235618549791752 -0.0015613172325367327 0.0012820124270034178 -4.886058462077413e-05 -0.00024823570541190513
-0.003263966174222526 0.0011678877245365313 7.652786857290187e-05 -0.0002544584522846257 -0.0011946482917179633 0.0009960265906846064 -0.003291556473717096 -0.003628789149686859
0.00010750776024953401 -0.0032184632404507296 -0.0008633433299491174 -0.0008576728652986309 -0.0011106805686853468 0.002425495407476826 -0.0006475675957789817 0.0012032357931772797
0.001050971310943315 -0.000595021030205036 0.0013431905914357916 0.0014857144395875078 -0.0004967619124759524 -0.00110463155426901 -0.0015220449435223052 0.0016076621459177234
-0.00201315614280144 -0.003475517431648195 -0.0017935183891006014 -0.006171338439501953 -0.00532714350541544 -0.005909682831581138 -0.005357695838652079 -0.0036643549209440466
-0.00023993683269530456 -0.003773095820839495 -0.004857908748666783 0.001533741151883702 -0.001334811868042141 0.00483786776644379 -0.0016000328268675466 -0.0016725320615070917
-0.0032417543923890894 0.00409421504960965 0.0010421508797101155 -0.0011472333099637017 0.0009192167745707211 -0.0007838507507431534 0.006102556957595141 0.00831942386555983
0.0014781439568838511 0.0022480278780915124 0.0038103475344044516 0.00968039320280775 0.001499244913700464 -9.742126780176078e-05 -0.0016718526305194085 -5.914368489508172e-05
-0.0010042975878136885 -0.00010129884950687043 -0.006279735502443665 -0.006636233695534643 -0.0030891301275782004 0.0009318158126657629 0.0024181188199149137 -0.001964358098192069
-0.0029269781985344265 -0.00027021510035459803 -0.0005055552294532959 -0.000946770936524861 0.0007310759622595006 -0.0034143308953905093 0.0006729954870543105 -0.0018713513197813603
-0.001264274190148754 -0.00023003671661340347 -0.0009297494163499952 0.0006518710103702462 -0.0012429468168201876 -0.0006756576430598412 -5.193063116202341e-05 -0.00019431162133834903
-0.002825120807162601 -0.0003042310214999666 -0.0009285547291465313 -0.0001956279614372414 -0.0027577925794304943 0.0009854056906358198 0.0003589045571199085 0.002351330649241077
0.0014164601450270718 0.0004749996629812606 0.0019490765039588596 0.0005795840397995343 -0.0017471954432546678 0.0011240683400031016 0.00046378857788814714 0.0011876886038553803
0.0010059792718902971 -0.001104374479580163 -5.309808152254592e-05 -3.4742398910458174e-05 -0.0001430243681564932 -0.0009402241469734853 -0.0012262625386219401 0.0008319919563161803
-0.0021531440172052048 0.0008427140066730102 0.002011294179401233 -0.000577984820958783 0.0013103522398238202 -0.0014082732286422807 0.0015607650643574957 -0.00042423596950065594
-0.001366826162228472 0.0017054484664646358 0.0005471363552874382 -0.0012371305111646075 0.00046158081634983626 -0.001534731507515452 0.0013263334540862836 0.0014800652546734655
0.0012135555998717294 -0.0012689928913012015 -0.0008330438127446179 -0.0001881110784747937 -0.00411169881410577 0.002336784085348125 0.0025240014890124535 0.010388842790380251
0.0023767988453904697 0.004050319206424653 0.005292874630412393 0.010528767896158916 -0.003486262147626199 0.004130494627012202 0.001751586550156069 0.003524691043397696
0.004485794954515082 -0.0017853040124126065 -0.0031140262565386165 -0.002744483297988769 0.0024174324474993 -0.0015029567517760105 -0.0014571002269039368 0.0015348641735133562
0.0031586344175612412 -0.0011176749984757243 -0.00015805298283730075 -0.003572256319546119 -0.0012148000984073873 -0.00099443974573619 -0.0022723073467307304 -0.0007918212094458249
0.0018289686314003205 -0.0005301604351603507 -0.0004918487581287021 -0.002533414352183463 -0.0016506382851308944 0.0009756147142081756 0.0023330802721063604 0.0021741430060277195
