WetDomainDamBreak_Anchored_200x100/1stStageAdamOptimized.h5-20000.pt (torch, 283123 bytes, 40 tensors)

linears.0.weight f8 [60, 2]
000000 b8 df db a1 93 bd cc 3f 5c cc be 39 1b e4 fb 3f
       0.22453542140260452 1.7431900268245704
000010 2d 34 21 52 a9 3e c4 3f 2f c7 e7 9b 37 83 ee 3f
       0.15816227445830702 0.9535177273776066
000020 8f c1 91 3b b1 16 da 3f c3 03 66 46 e4 b6 dc bf
       0.40763502900429044 -0.4486628234372427
000030 ad e5 52 d6 27 60 d7 3f f3 d9 ad 10 c1 2d bc 3f
       0.3652438729291941 0.11007315308766134
000040 bc 16 1c ef cd 3c d3 bf 1d e6 88 67 76 1c d3 bf
       -0.30058620787199763 -0.2986122141915944
000050 14 92 36 df ce 3e c1 bf 1b 1e 0d 65 b4 6b e9 3f
       -0.1347292508991279 0.7943975423485797
000060 b2 5d 24 b6 e0 cf c0 3f 8d 53 48 2d e9 e4 da bf
       0.13134392636923803 -0.4202216093265683
000070 5b db 8f d6 74 76 c6 3f 21 ad 56 81 1d 4d cd 3f
       0.17549000240952747 0.22891587081299128
000080 e2 de 3a 1c ff a4 cc bf b3 d0 d3 cf 4e f3 cb 3f
       -0.22378529432693656 0.2183626665861361
000090 fa 6d 83 8b 59 af e2 3f b1 8a a5 40 e6 43 d2 3f
       0.583905003058532 0.28539425194882556
0000a0 0f 30 59 e8 af a5 aa bf 61 81 98 00 4c 1f f8 bf
       -0.052045342552986644 -1.5076408408422923
0000b0 c7 4a 6b 43 f6 9d e6 3f bf 56 40 ec eb 47 e7 3f
       0.7067824665812957 0.7275294889720597
0000c0 ce 4e 62 a0 81 e8 e0 3f 36 6b 3f 37 b7 ce ca 3f
       0.5283821232319157 0.2094334621204667
0000d0 25 eb 87 23 cc f5 d5 3f 30 e2 73 aa 76 89 da 3f
       0.3431272837621456 0.41464010854500355
0000e0 31 cf 82 d3 1a ff cf bf ae 85 15 30 ae 46 ce 3f
       -0.24997268035587575 0.23653199527602226
0000f0 11 07 05 bb c3 04 d2 bf 59 d5 bc 6f 69 6f e1 3f
       -0.28154080642353657 0.5448500807166666
000100 38 bb 3f 25 1f 90 8b bf 6c 3f 78 ea fa a7 d7 3f
       -0.013458484005210644 0.3696276941054666
000110 aa d3 70 5d b2 cb da bf 4f 6e a1 18 82 aa c1 bf
       -0.41868266224929107 -0.13801599695840358
000120 d2 c0 23 5c 60 ed d7 bf 1b db af 17 a6 73 e6 3f
       -0.37386330602659 0.7016172850261201
000130 b4 47 90 dc ba 98 d4 3f 03 98 52 8a a1 05 e0 bf
       0.3218218950215672 -0.5006873799909503
000140 e6 33 0f 52 97 0e 99 3f 28 1f ea aa 06 5c 03 c0
       0.024469723113543916 -2.4199345925043367
000150 1d c1 d0 f1 73 3e df 3f 2d 35 c8 52 9d ef d4 3f
       0.48818682303228106 0.3271249111574715
000160 17 c3 13 4f c2 a9 d0 bf ac 93 f0 c3 33 25 d0 bf
       -0.2603612682569731 -0.2522706426118997
000170 57 93 6d 62 ab 06 cb bf e4 ae 83 7d 07 61 d4 bf
       -0.2111410360913861 -0.3184221959806861
000180 0e 19 8b d5 c8 73 c7 bf d1 14 8f a5 e7 e5 e5 3f
       -0.1832209627811569 0.6843145593235481
000190 d1 71 4d 8d a7 c6 d9 3f 5c 1d 2d 4d 6d b1 d2 3f
       0.4027499084384348 0.2920792821573366
0001a0 f1 01 bb 66 bd d3 ae bf b1 ba 92 0d ed 07 e0 3f
       -0.060209196844429054 0.500967527875977
0001b0 d7 25 d1 f7 fe 47 d9 3f ac 86 4f 6e e3 eb c7 3f
       0.39501928521039303 0.1868862427355017
0001c0 aa 3a 3d 5f 4f 39 bd bf 05 88 7f de 0a a2 e1 3f
       -0.1141557319180985 0.5510305734317177
0001d0 00 5e b9 5f cb 11 d0 bf 19 61 ae d2 0f 42 a4 bf
       -0.2510860857778141 -0.03956651160041442
0001e0 78 5c 77 8b ba 46 d7 bf ed fc 18 77 68 6c e0 3f
       -0.3636919366812843 0.5132334066510374
0001f0 d4 76 c6 a0 40 6e db bf 50 ea 48 eb 68 08 ec bf
       -0.4286042757101829 -0.8760265918165917
000200 f4 0b 18 d6 56 2e cd bf 99 5c 07 81 9a 25 f1 bf
       -0.22797666028790753 -1.071680549639302
000210 fc 12 29 a5 8b 4d eb 3f d3 48 d0 18 b1 12 85 bf
       0.8532160020627937 -0.010289558000327414
000220 93 9d cd ad cd 18 c8 3f b1 ad 8c 52 4f 63 cb bf
       0.18825694071277307 -0.21396819620836774
000230 a1 dd d9 68 91 f1 d9 bf 02 2c 13 07 15 0f e4 3f
       -0.4053691410003584 0.6268410814458323
000240 8c a2 c7 17 9d 43 c1 bf ee c7 a7 7a 2d f9 d5 3f
       -0.13487590466617794 0.3433335969740473
000250 f8 bf e9 f1 53 a4 d9 3f 31 d7 46 b1 92 6e d5 bf
       0.400654779666183 -0.3348738414018611
000260 ea 1e 3f b8 dc 2f 9b bf ae a9 33 5c 93 98 d5 3f
       -0.02654976725150863 0.337437477150753
000270 4a 19 47 26 80 51 df 3f fd f3 76 cb 67 f1 e2 bf
       0.4893494008832887 -0.5919684385222578
000280 76 83 2f 58 70 7c d1 3f 6e 6f dc 09 bf 44 e0 bf
       0.2732201443850991 -0.5083918755149008
000290 4c e1 28 eb 1b 28 de bf b1 6e a2 78 7a 42 c4 3f
       -0.4711980625611616 0.15827875986439247
0002a0 7b 04 56 3b db 2a cb 3f d1 b0 de ef 90 4a 83 bf
       0.2122453727461425 -0.009419567413566561
0002b0 1c 61 47 45 9f 95 82 bf 7a 10 41 18 a2 88 d9 3f
       -0.009074444104883166 0.398964427648259
0002c0 2c d6 1f cd 91 30 c7 bf 31 ca 2e fa 9b 04 f9 3f
       -0.18116972461545922 1.563625314022499
0002d0 19 03 3d 0f 7c 5a dc bf 24 ad 50 47 f3 96 de 3f
       -0.44302274215810794 0.47796327556962326
0002e0 e3 ee 3d ff 7e b4 c5 bf f3 59 f2 2c 41 25 ce 3f
       -0.1695708032892674 0.235511919924377
0002f0 88 20 fd 3b 66 b6 c0 bf 3e 5e c2 a9 b1 45 e6 bf
       -0.1305663865007356 -0.6960075679407465
000300 d7 d4 39 52 a6 eb ce 3f 9b 52 23 e0 42 9b 69 3f
       0.2415664578908607 0.00312579213741977
000310 b4 43 4f fb b0 4c c2 bf 0e f9 fe ce 35 59 e1 bf
       -0.14296543379762527 -0.5421399157419573
000320 28 94 05 cd 00 26 dc 3f f0 1d 55 76 c9 fc f2 3f
       0.4398195268789231 1.1867155668604674
000330 b1 80 64 f1 84 56 e8 bf 96 86 4c fc 16 39 be bf
       -0.7605614390086172 -0.1180586210216695
000340 dd 24 01 e8 9c aa cf bf 36 b7 be 1b 22 3e e9 bf
       -0.2473941929659195 -0.788834623517437
000350 55 9c b4 97 d7 73 ab bf 28 7a 56 ff f9 cd f0 3f
       -0.053618180531252925 1.0502872442372198
000360 c9 58 40 6c b6 bd c3 bf 65 4e f9 09 f9 c0 d3 bf
       -0.15422706876478845 -0.30865312551507024
000370 c6 35 46 48 06 cb c2 bf 04 58 28 1a 7e 38 eb 3f
       -0.14682081727043633 0.8506460677042473
000380 37 a8 4f 8d 9e 79 d3 3f 85 3a e4 9b a7 2b dd 3f
       0.30429805564802187 0.4557894728067498
000390 4a 4d a1 ab 92 53 bc 3f 14 d2 b6 9c a6 f4 d3 3f
       0.110650221731068 0.31180730156055003
0003a0 17 4b 76 c4 d3 37 39 3f e4 2c f6 bb d3 64 f9 3f
       0.0003847972879721813 1.5871159879923704
0003b0 a4 47 31 29 61 14 ca bf c3 1c 05 30 81 81 c1 bf
       -0.20374693404533872 -0.13676466793751815

linears.0.bias f8 [60]
000000 7f 53 bb 0c b7 ff a0 bf 1c 61 0d 75 fe 8a 86 3f
       -0.033200950912635634 0.011007297465468961
000010 55 e1 2a d2 33 57 bb bf 34 9b c2 df 17 e1 a8 bf
       -0.10679935341875553 -0.04859232527205962
000020 66 3f e9 f3 21 dd b9 3f 90 49 5a 69 13 9e b4 3f
       0.101030466126074 0.08053704568945919
000030 b7 43 df 38 9e df b1 bf fb 79 22 10 af 50 96 bf
       -0.06981839073638595 -0.021792159423620543
000040 9a 95 fc c0 04 0c b4 3f 1f 30 73 df ee fc b3 bf
       0.07830838882053684 -0.07807820277520293
000050 c0 68 9d 5f 96 d8 b2 3f 11 96 b2 18 ae da d1 bf
       0.07361736139629027 -0.27897217189669826
000060 03 f6 b8 c5 d0 71 ca bf 8a 59 c2 25 ac ab b0 bf
       -0.20659837393206723 -0.06511951372008276
000070 fd 1a e1 3f 2a a8 ae 3f b5 ab c0 38 c7 cc bc 3f
       0.05987674741532165 0.11249966750680936
000080 c5 e3 f9 f2 8a 0d ab 3f 74 55 9b fc 49 f0 bd 3f
       0.052837698135540324 0.11694776932866607
000090 d0 4e 55 40 26 5a c3 3f 8d b1 3b 4e 80 69 9d bf
       0.1511886419417494 -0.028722767615293732
0000a0 8e a4 77 a3 66 36 9d 3f 67 15 e9 41 96 31 ca bf
       0.028527835585837873 -0.2046382734135179
0000b0 1a 9d df 8c 34 30 a8 3f 87 f9 82 c3 b4 30 b0 3f
       0.047242777058096944 0.0632431962321559
0000c0 07 5e 81 3f 1c 4c bb 3f 04 b6 f5 78 da be c3 bf
       0.10663010168479313 -0.15426188379517225
0000d0 a1 3a 2c cc 92 11 9b bf 1c 65 7b fe 81 6c b3 bf
       -0.026434224807469268 -0.07587444746913657
0000e0 e6 3e ab 1d f2 83 83 bf b6 e9 3f 24 88 b3 ab 3f
       -0.009529010324882358 0.0541040939569543
0000f0 53 9e 92 cf 36 01 a5 3f cc 16 46 ee 24 52 b6 3f
       0.04102488788458616 0.08719092194777572
000100 a6 ec 89 2b 7f f4 90 bf 6f e6 8c dc d5 18 d6 bf
       -0.016557681114573918 -0.34526583231090674
000110 e1 47 f6 5e 3a 88 ab bf 49 95 4e 1a 6d 1a c3 3f
       -0.05377371224598427 0.1492439630939464
000120 c3 bd c4 1c 83 c9 ab 3f 63 5d 76 a2 ae 59 c0 bf
       0.054271790754110615 -0.12773688252193968
000130 ac 97 f6 5e b4 f1 ac 3f 1c 1d 2d 95 b5 ef b9 bf
       0.05653155955523856 -0.10131392375943843
000140 38 da 73 7a ee 69 7f 3f ff e0 1a 24 e2 66 ca 3f
       0.0076693835792327955 0.20626475108088724
000150 07 ed e9 17 6f 42 b7 bf 97 d1 05 17 f3 f8 a3 bf
       -0.09085745176155423 -0.039008709488288655
000160 d3 f9 70 69 a1 df bb 3f 71 d1 69 66 97 fa 7d bf
       0.10888108085871488 -0.007319060713247048
000170 48 cb 3b 4a b7 1a a7 3f d4 65 74 51 37 69 9c bf
       0.04512570172473446 -0.02774511751804261
000180 21 bf 30 97 6a b0 b3 bf 39 b3 95 07 2c ba ab 3f
       -0.07691065016910816 0.05415475456798053
000190 68 6b ce db 4d 9f ce bf fb 39 c6 17 b3 f6 b0 3f
       -0.23923657639246731 0.06626433687618054
0001a0 07 d8 df af e3 9d a7 3f 3e 8d 73 84 bf f7 a4 bf
       0.04612647554306198 -0.04095266811216412
0001b0 c9 34 09 7f 61 80 b2 3f 79 b8 ce 22 b4 91 8b 3f
       0.07227143622840794 0.013461501419296905
0001c0 1f 93 9d ad 38 95 a9 bf d1 4e 87 91 59 3c 82 bf
       -0.04996659392671731 -0.008904170755080017
0001d0 ca fc d6 ed 48 a3 b3 3f 2d 68 d5 70 79 83 83 bf
       0.07671027952800383 -0.009528111225041236

linears.1.weight f8 [60, 60]
000000 68 23 9c 65 4b f3 c6 3f 47 b8 17 68 a2 a8 a0 3f
       0.17929975949689525 0.03253657837545681
000010 0d ec b9 e4 50 95 96 bf 3c 3b 55 09 00 0f a9 bf
       -0.022053970299094106 -0.04894256700446539
000020 ef 44 54 0f bb e5 cb bf 15 b3 9b b3 23 5e a4 bf
       -0.21794832466597522 -0.03978072707636763
000030 25 08 7d 3e 07 49 c2 3f 6f c5 85 cd 2c c5 ce 3f
       0.14285364676658321 0.24039230380325757
000040 6e 03 3b f4 ee 7b c0 bf 85 21 c5 43 ed f3 c0 3f
       -0.12878214764898693 0.13244405564388387
000050 9d 01 60 ec ee a5 c8 3f 8f ac 9e 89 93 a4 af bf
       0.19256388227223634 -0.06180249266557169
000060 d9 b6 6a d6 b2 1d bb bf 7c 89 05 7c 35 9e c0 3f
       -0.1059219144323963 0.12982815318816765
000070 86 ff ea 1f 18 0d bd bf c8 50 ad d2 2e 84 9a bf
       -0.11348105220076662 -0.025894862755493603
000080 13 ba ae a3 22 f9 96 bf 8a 2d 2d d0 0e bf b7 3f
       -0.02243475078619823 0.09275906164582728
000090 0f 3a 60 45 5b c4 c1 bf 17 3e 82 bf ca 37 c0 3f
       -0.13880482566351346 0.12670263625157993
0000a0 9f 23 27 82 95 fb c1 3f a9 be db e4 5c 11 c6 3f
       0.1404902349006791 0.17240487265325058
0000b0 55 d3 98 ee 70 1f c5 bf 82 ff 45 50 d1 98 b0 bf
       -0.16502200746767906 -0.06483181199837243
0000c0 84 69 e8 1b 98 1f c7 bf ef 5d d2 52 78 9d a2 3f
       -0.18065167772949675 0.036357650861812967
0000d0 3f 13 40 a2 42 27 90 3f ed 93 51 dc 73 37 ba bf
       0.015774766114208246 -0.10240863922952288
0000e0 d4 36 10 69 71 c5 d2 bf 71 5b 9a 2b 1c 61 bc bf
       -0.2933009649285456 -0.11085678162122094
0000f0 09 a2 71 da 16 49 bc bf 29 09 65 5a 24 48 90 bf
       -0.11049025376417644 -0.015900199906590338
000100 9d 86 d2 9f 21 90 c1 3f 8d f2 5d 83 5b f9 ca 3f
       0.13721103957964412 0.2107347861709922
000110 2d d2 ce 97 00 e9 c9 3f a4 10 cb bc 63 28 62 3f
       0.2024231663941846 0.002216524886849385
000120 84 35 33 0d 24 c5 b3 bf bb b9 93 4a db 50 b9 3f
       -0.07722688028589714 0.09889002390602901
000130 2f e9 80 8b 71 3f a3 bf 0b 7f 68 6d 56 35 c8 3f
       -0.03759341075825017 0.18912773458668428
000140 e1 f5 c5 72 8b 0f c0 3f b4 f4 fd 66 c4 8e c0 bf
       0.1254743872085973 -0.1293569090738963
000150 f7 3f 2b 48 aa cc cd 3f 67 4b af 99 21 d1 ba bf
       0.23280838512300736 -0.10475358964985802
000160 ef 6b 9a f9 a4 f3 a5 bf 27 1d 43 3d 29 df a6 3f
       -0.04287448450960329 0.044671334007541134
000170 0e 1b db 30 75 9a c2 bf ff fc ce 93 b8 68 b3 bf
       -0.14533867726842015 -0.07581666573149802
000180 e4 16 c2 bc e9 0f d0 3f 4b fc 51 00 ac 83 ad 3f
       0.2509712546674179 0.05764520172032713
000190 45 b2 d7 9b 0d a4 c6 3f 82 35 96 15 77 30 97 bf
       0.1768815051031131 -0.022645817463446523
0001a0 18 08 e2 4f 94 a3 c1 bf cf b7 d2 f7 9e c3 c6 3f
       -0.13780454540761933 0.1778448782037558
0001b0 7e b6 30 61 8a bf cd bf 2d be c1 d0 03 8f 97 bf
       -0.23240785356158605 -0.023006496063713456
0001c0 e3 3e aa bb 55 a3 b0 3f 29 4c 0d d8 f0 fb ae 3f
       0.06499229270616129 0.060515905736473315
0001d0 e7 4a 87 2c 24 73 9c 3f 4d c0 65 af cc 82 9b bf
       0.027782979219248907 -0.026866148190890993
0001e0 cf 63 9a 55 ea 81 da bf d4 29 1c 01 52 b4 a8 bf
       -0.4141794048278457 -0.04825073493528334
0001f0 75 fb c2 21 9f b8 e1 bf 71 21 b4 19 1d 7e c3 bf
       -0.5537868174941268 -0.15228618388233486
000200 78 9f f4 5a 55 6f e3 3f 2c a4 27 9a 25 82 e7 3f
       0.6073405052638767 0.7346370707356349
000210 a2 48 de 2e c9 28 e5 bf dc d9 a8 c4 5e f4 c0 bf
       -0.6612287440678026 -0.1324575863124683
000220 ea a9 72 52 9e 22 f8 3f f0 e0 93 66 98 48 e0 bf
       1.5084517689343735 -0.508861732813811
000230 98 61 73 47 bc 06 dd 3f 37 e0 0e ba fa f5 ee bf
       0.45353610017402834 -0.9675267824122845
000240 e7 8c 6e 0b 20 c8 ef bf 1a 18 ad 57 4c 18 d9 bf
       -0.9931793425825192 -0.39210804521678855
000250 ff 6f ea b2 c6 d2 da 3f 53 db 66 ff 32 80 e3 3f
       0.419114756319459 0.6093993175808045
000260 2a a8 fc 7e d2 65 d9 3f c8 97 77 25 89 cf ef 3f
       0.39683973694866614 0.9940839511661972
000270 fc 3c c1 22 38 92 e9 3f 76 f6 5e 66 b1 44 d9 bf
       0.7990990332417875 -0.394817686053876
000280 bd ab f4 66 35 3d c6 bf 0c 6a e8 eb c1 0b ea bf
       -0.17374293830047619 -0.8139352424216795
000290 04 db e5 11 c1 be da 3f b2 21 42 0b 53 f0 de 3f
       0.4178927111419599 0.4834182367271992
0002a0 24 55 8f 7b d2 c2 e6 3f 70 a5 89 b5 0a 76 ed bf
       0.7112820065764578 -0.9206594033868623
0002b0 ac f4 3f 62 8f fd d1 3f 4b c4 71 7f 89 a8 d3 bf
       0.2811010798903435 -0.307161688287185
0002c0 5d 56 67 64 52 21 dc 3f 26 55 5d e9 9e 54 dc 3f
       0.4395338039879329 0.4426648405982
0002d0 8b 90 1c c5 de d9 dd 3f be 07 53 31 04 28 d4 3f
       0.46642274140527523 0.3149424058611848
0002e0 77 9e 91 44 7d 44 b7 3f 41 2d 53 06 51 40 fa bf
       0.0908888142017704 -1.640702271181752
0002f0 b1 09 3d a4 78 97 e5 bf 77 13 84 63 5d 66 f9 3f
       -0.6747401435643977 1.5874914061871246
000300 c8 4b d5 d7 04 0e e1 3f 20 ee 67 aa 87 7a ee bf
       0.5329612937442727 -0.9524572685472243
000310 04 b2 7f 25 85 dd d8 3f 81 48 21 ac 23 b2 dd bf
       0.38852051412575883 -0.46399776277133503
000320 bd 97 65 c8 b3 ff c6 bf df b8 d2 c0 a6 99 e6 3f
       -0.17967841420175815 0.7062562719418358
000330 b3 cc ba 0b 4b fe e3 bf 07 00 50 6b f0 22 c5 3f
       -0.6247916440101079 0.16512875785701928
000340 c8 04 51 53 31 54 df 3f ce b6 d3 42 ab c5 be 3f
       0.4895137132298939 0.12020368939894441
000350 da 41 a1 da 69 60 eb 3f 93 95 64 26 44 78 b2 bf
       0.8555192251315547 -0.07214761674239005
000360 1e e5 ce aa df 2b ee bf b9 e5 f2 41 73 5d e2 3f
       -0.9428556762788138 0.5739074981749389
000370 7a 4e c0 46 75 0a f1 bf 85 3d 15 60 e7 13 d6 3f
       -1.065053249713769 0.3449648321447614
000380 36 0f 96 84 44 e2 b6 3f e5 f8 de 51 25 e6 c4 3f
       0.08939007031409293 0.1632734918366118
000390 c6 90 4f 94 bb f9 e3 3f 1c f9 41 35 9f 1a d6 3f
       0.6242349526114814 0.3453748722166823
0003a0 38 23 2c 14 fe 86 cf bf cd 84 f7 4f 1d 83 ca bf
       -0.24630714402180742 -0.20712629704124766
0003b0 cf 7e 10 54 fd 57 d3 3f 2d e2 94 7c fa f1 c0 3f
       0.3022454567853687 0.13238459666332983
0003c0 8e 59 d3 2f 80 ea c0 3f 8f 94 10 2a ca 33 a5 3f
       0.1321563943408361 0.04141074908719943
0003d0 e0 50 f6 e1 a2 85 cb bf 87 bf b8 ff 66 d9 9c bf
       -0.21501575501736792 -0.028173074110042797
0003e0 d1 dc d2 1f 06 8f c9 bf 74 c0 0d 5f 01 52 9d 3f
       -0.19967724374666898 0.02863313810979702
0003f0 20 d5 b6 3b 58 03 b6 bf 69 40 81 7b 27 34 b2 bf
       -0.08598853547922092 -0.07110831036811906
000400 83 82 77 25 b8 ba af 3f 13 a2 ee 52 4c 47 b8 3f
       0.061971430371845514 0.09483792328558875
000410 e4 4d 79 38 ed 23 dc bf 7e 6f ad f5 d4 1e b7 bf
       -0.4396927882673636 -0.09031420705781376
000420 b3 5f ec c0 7f f0 ba bf 59 ab e0 dc 72 6b a5 3f
       -0.1052322240833508 0.04183539339313453
000430 fa 41 6f fc c8 de a8 3f e5 48 3d a3 0b 1a c0 3f
       0.04857471543767029 0.1257948443477012
000440 08 02 cb a0 28 17 c1 3f 6c 23 90 73 3f 22 bb bf
       0.13351924754353228 -0.10599133082736295
000450 c6 3f 4c 81 e9 c2 a5 3f 98 4a e6 2f f2 e1 a1 3f
       0.04250268653242943 0.034926956507793594
000460 01 74 6b fa 31 4d cb bf 91 c5 17 86 94 70 c2 bf
       -0.21329331138159094 -0.14406067416670656
000470 5b de 65 6f db 34 ce 3f 7e f3 49 4f 3a 19 b3 3f
       0.23598807277061237 0.07460369525683849
000480 e9 5d e1 f4 f5 c9 cb 3f 4e 9c 21 96 0e a9 b3 bf
       0.21710085351035893 -0.07679835477175453
000490 b8 3d d1 2e b0 0b c0 3f c0 80 ee d2 b4 10 cc bf
       0.12535669599536248 -0.21925983714482378
0004a0 38 49 4e 83 a3 4d b1 bf 6e 8c 96 c8 31 3b b9 3f
       -0.06759092288692592 0.09855948588533334
0004b0 39 02 cc 0c 50 27 ce 3f a3 3e 48 16 b6 4b c1 bf
       0.23557472824906414 -0.13512302482603386
0004c0 7d 6b 05 d8 a2 b5 98 bf db 50 23 8b 12 b3 b1 bf
       -0.024130386767278623 -0.0691386785213725
0004d0 48 21 ca 77 da 10 d5 bf 55 5d d3 75 ad 80 b5 3f
       -0.3291536493129752 0.08399471403696641
0004e0 11 ae 6f 43 eb 0c a4 bf 17 c4 11 0c 56 32 c3 bf
       -0.03916106413074883 -0.14997363652540294
0004f0 12 c1 7d 89 1f 40 b1 3f f6 af d1 f3 68 c8 7f 3f
       0.06738469225615898 0.007759485216507036
000500 55 f1 0c d5 a3 9b 96 bf 07 4a 0c 0b ae 29 a5 3f
       -0.022078094366621077 0.041333617066033716
000510 9c 3d 3b 88 66 d3 b4 bf 3f 75 b4 ad 6c 3f 9f bf
       -0.0813507158848012 -0.030515382864100046
000520 5d 82 e9 58 50 f6 b7 3f e5 a2 d3 b1 22 9f a2 bf
       0.09360220118242908 -0.036370357711182945
000530 30 bf f0 5f 92 2f 9c 3f f9 88 02 0f 45 e4 aa bf
       0.027525221925485954 -0.052522810060752385
000540 53 b8 7e 41 5c 91 d3 bf 17 cd 0d f3 2a 19 bd 3f
       -0.30574709316249943 0.11366527971204153
000550 11 82 d4 a7 6a 62 89 3f ac 0d 5a a2 98 72 ad 3f
       0.012394746062057956 0.05751492482979911
000560 40 16 2a fc a8 93 c5 3f 04 7a 7a 03 6e d0 bd 3f
       0.16856872856821958 0.11646163544580906
000570 14 d5 fb 32 b9 ed a4 3f d2 30 84 af 56 f5 c5 3f
       0.04087618586883415 0.17154964037070514
000580 47 6b 8d eb ce 48 93 bf c3 74 3a ed 7b 45 b7 bf
       -0.018832429053286217 -0.09090399305064793
000590 b3 ea dd 40 6d 52 9f bf bf 31 10 86 ef bd 8e 3f
       -0.030587870678099715 0.01501071098211859
0005a0 77 02 af aa 36 a0 c0 3f 83 7f 14 27 11 7d 9b 3f
       0.12988932928239524 0.026844280252702923
0005b0 19 74 1d 31 e5 7a 9c bf 5a f6 da 12 b5 24 a3 3f
       -0.027812558291191978 0.037389429618525497
0005c0 d5 9d 71 2d a5 ba a1 bf 56 20 1a a9 77 18 be 3f
       -0.03462711505636277 0.11756084326236879
0005d0 f2 86 94 fc 2d d2 70 bf b4 a7 9a a4 63 fa c5 3f
       -0.004106692920034171 0.17170377290068262
0005e0 f3 d8 30 4e 8e 57 cd 3f 7c f5 33 82 fb bc a6 3f
       0.22923449342642463 0.04441057171241433
0005f0 c4 30 a7 ce 97 62 d7 bf b8 8b 07 53 56 15 d2 3f
       -0.36539263897863017 0.2825523196062778
000600 5a be 00 66 0f 37 ce 3f f8 84 28 97 72 cf bc 3f
       0.2360553024350221 0.11254039945972127
000610 3b 1f ac aa 70 91 ac bf 19 d1 59 95 9b 54 bf bf
       -0.0557971199360154 -0.12238476177464398
000620 a0 d4 29 5b 05 5b c1 3f 9c f6 2c 3a 5c 3e c9 bf
       0.13559023810708926 -0.19721558418853113
000630 64 b0 2b 02 b6 87 c1 3f 6c 4b 61 08 45 ca d0 bf
       0.1369540701483657 -0.26234556024899436
000640 cc f4 ee 50 5c fc d7 bf dd c5 13 ee 11 bb c5 3f
       -0.37477786925940104 0.16977142453065044
000650 61 e0 69 f1 57 db ce bf 67 08 94 0d bc f3 cd 3f
       -0.24106883323452435 0.23400068915367742
000660 1e 45 9e 15 6c 99 b6 3f 2e a5 07 f4 28 30 dd 3f
       0.08827853706158748 0.45606445151368546
000670 7c c1 f1 a0 27 dc ba 3f de 49 7c 74 83 35 aa bf
       0.10492179564767484 -0.051189525575086256
000680 94 bb 9b e8 25 c0 78 3f 62 69 6f 5b 91 71 b4 bf
       0.006042621689387757 -0.07985790712647181
000690 28 66 14 19 75 53 8f 3f 66 ea 91 c5 09 ef 97 3f
       0.015295901134368142 0.02337279575702169
0006a0 0b be 62 84 a1 ab c6 bf 2b ee e1 7e 29 9f cc 3f
       -0.1771127602018939 0.22360724158703368
0006b0 cd 5a 5f 6a 6f a9 ae bf 43 bc 95 4b 63 66 b1 bf
       -0.05988643811695269 -0.06796856494268959
0006c0 90 61 76 91 21 ce c2 3f d3 01 06 ba 69 c2 c6 bf
       0.1469156227365258 -0.17780801375557917
0006d0 d1 fd c4 99 66 0c cd 3f cf 07 0a 07 ff c6 94 bf
       0.22694094188953653 -0.02029036026443248
0006e0 81 04 69 57 f8 81 b9 bf 2a 9f 00 29 0e c7 c3 bf
       -0.09963943609274574 -0.15451218607017242
0006f0 11 fd 95 1a 1e 82 cb 3f c4 ce 9a 99 fb 56 ca 3f
       0.21490837381495756 0.20577950477819773
000700 f9 6d e9 b4 b1 83 cc 3f 52 74 18 40 a2 53 b1 3f
       0.22276898702226314 0.06768240036804343
000710 d9 aa d5 6d ce 33 d0 bf f7 18 b2 45 23 92 9e 3f
       -0.25316200948752293 0.029854346398246325
000720 14 2f 4f f8 a2 2a c0 bf 23 e2 9d 10 2f 34 c9 bf
       -0.12630116581419115 -0.19690502463687762
000730 97 f1 8d 5a ff 94 cc 3f 8b ba 20 e3 e1 56 c5 bf
       0.2232970420990454 -0.16671393957354427
000740 f2 8d 90 c7 ec 55 bf bf aa 86 22 3a 05 09 ad bf
       -0.12240486023124911 -0.056709445330182476
000750 77 de 03 f2 13 6b d2 bf 4a 2c ee ce e7 d5 a9 3f
       -0.28778551706589134 0.05046009446149265
000760 f1 55 9a 0b 1a 94 b1 3f 85 92 fa c6 21 f6 c5 3f
       0.06866610320351875 0.1715738507820285
000770 d0 4d 88 fb 23 2e ce 3f d8 11 84 3b 3e 13 c6 bf
       0.23578309804780284 -0.1724622526745765
000780 91 00 f7 eb 98 e6 ba 3f ac ee de b9 0f 99 c9 3f
       0.10508113633022932 0.19998356414531793
000790 3f 56 60 0f 54 00 54 3f 3b 66 81 7f 75 bb bb bf
       0.0012207814120349795 -0.10832914698530598
0007a0 92 c5 80 6d 3b 71 c5 bf 99 eb f7 9d 85 7c c5 3f
       -0.16751807066752328 0.16786260808279677
0007b0 f4 7e c6 50 8d e5 69 bf 82 c7 2b 03 a8 7c bb 3f
       -0.0031612167424127594 0.10737085416238126
0007c0 bd cc ee 6d cb 33 c3 bf 10 f4 b2 8d f0 8e b6 bf
       -0.15001814716160836 -0.08811858615349899
0007d0 6f ec 80 00 5f ff d9 bf 77 8d 9d c7 66 37 c0 3f
       -0.40621161507778586 0.12669071909759186
0007e0 76 0d 7a f2 0d 90 c9 3f 30 c8 2a db 71 36 c3 3f
       0.19970869388280804 0.15009902192611113
0007f0 d8 e6 84 f4 b2 81 b1 bf 08 d2 29 b8 03 46 b5 bf
       -0.068385300347383 -0.08309958692718322

linears.1.bias f8 [60]
000000 1b c1 5d 27 4a c1 98 bf c4 10 fe 71 47 db ba 3f
       -0.02417484154961001 0.1049084332754005
000010 ed cd 8d 5a 00 88 90 3f cc 4d a6 1c 9b 0e 92 bf
       0.01614380409905707 -0.01763384210933143
000020 48 bf a9 2b a7 d8 93 bf a0 6d fb 33 4c 9b a3 3f
       -0.019381153144819835 0.038294202180362946
000030 3c aa fa 9a 3b b2 a5 3f 2f 85 54 3f 5c 1c 6f 3f
       0.04237543360553217 0.0037977029520709564
000040 d4 fe 14 99 36 83 95 bf ad cb 36 55 e3 0f a8 3f
       -0.02100835141504727 0.04699621596537127
000050 7f 4a df 04 1b 2a b4 bf d4 84 10 95 5b 35 a3 bf
       -0.07876747960043849 -0.03751646227488839
000060 43 ea f4 4b 24 49 9a bf 2e a1 75 e1 08 50 a6 bf
       -0.025669638763455415 -0.043579366228018265
000070 11 ae f8 ad af 41 b6 bf 92 17 ba f7 11 9f 90 3f
       -0.08693979260777264 0.016231804604579354
000080 49 6e 78 5a 41 46 96 bf ec 14 5b 0c e2 62 c1 3f
       -0.021752377650143626 0.13583016970930062
000090 5d 7f 32 2b 5f 49 93 3f db b0 fe 8b e9 94 95 bf
       0.018834578525115265 -0.021075867814645526
0000a0 81 f7 48 42 2c 2c 74 bf 56 d4 c6 29 38 c0 98 3f
       -0.0049249390472690955 0.024170758771749533
0000b0 47 0c df 63 0e 8b b4 bf f6 80 b0 f1 98 67 b1 3f
       -0.08024682939780901 0.06798702145215771
0000c0 b5 d3 7b d8 30 bd 82 bf 57 c1 11 9b ea 95 aa 3f
       -0.009149915319975091 0.051925021581044
0000d0 11 11 f5 a8 76 d5 a2 3f 47 a6 6c 10 c2 76 b7 bf
       0.03678484737841548 -0.09165585423456789
0000e0 7d d2 58 a3 1e b8 a1 3f b6 3e 12 49 3b ac a3 bf
       0.03460784667951076 -0.03842339770301122
0000f0 31 69 d5 2f 97 02 b3 3f 9f 68 4c 50 fd ba b0 3f
       0.07425827901662242 0.06535323343669795
000100 9e b9 fa e3 c6 b3 91 3f 58 37 96 d2 dd 3b 86 3f
       0.017287357010610564 0.010856373776529857
000110 ac b0 38 6d ff ce a5 bf 0b f0 4a 88 74 73 a3 3f
       -0.042594892580696125 0.0379902283070522
000120 de 1c 92 2f a1 ac 73 3f 3c 60 8e 66 57 75 a9 bf
       0.004803304321405492 -0.049723368901311876
000130 a0 17 35 6b bb 0e cd 3f 10 08 f6 ec 61 9d b4 3f
       0.22701208815322804 0.08052646670515196
000140 19 9f ff ab ea 5d 92 3f c2 3c 20 4c e8 36 a3 bf
       0.017936388729054096 -0.03752828530570575
000150 06 d1 bf bf fe 1a 90 bf 55 a5 9f 43 ef b3 a8 3f
       -0.015727978185126744 0.04824779224856949
000160 1d 81 14 d1 53 f4 96 bf 4d 76 6d 02 da d4 a5 3f
       -0.02241641009925487 0.04263955382951377
000170 f1 18 d7 b4 c0 c1 b5 3f e8 c5 e1 da a7 4b a0 3f
       0.0849876824860052 0.03182720705889236
000180 14 33 19 4c 6e 5f a4 3f 4a db 7a 7d f2 5b c7 3f
       0.03979057959495527 0.18249350668858205
000190 8b e9 dc fd a4 ca a2 3f 18 21 13 c2 78 55 a6 3f
       0.03670230482971978 0.043620847407114194
0001a0 ee dd e2 cb ab ee 63 bf 27 b4 4b 72 8c 6e 9f bf
       -0.0024331431769402034 -0.030695147014672266
0001b0 e5 c2 8b 9d 2f e7 9d bf 34 ba eb 2f 35 ef 96 3f
       -0.02920221709331629 0.022396880197385907
0001c0 70 33 e3 11 0d 40 9f 3f 95 db 63 09 74 29 a3 bf
       0.030517772881285266 -0.03742563833832616
0001d0 47 bf 59 8c 64 95 7c bf d2 f7 dc 0e 83 44 a1 bf
       -0.006978409544544046 -0.03372582966265693

linears.2.weight f8 [60, 60]
000000 c3 98 d4 53 8a 53 ad 3f 38 85 50 e8 37 fa aa 3f
       0.05727798722573276 0.05269026480551492
000010 8a ff cb e1 73 bc 8d 3f 21 50 0e 5b 50 31 bc 3f
       0.01451960118129116 0.1101274702362507
000020 23 a5 96 9d d6 c7 bd 3f 14 24 01 c4 1b af d6 bf
       0.11633054110884138 -0.35443777218876105
000030 61 32 d6 c1 e3 4d ca bf 7c da bc c2 9f f0 92 3f
       -0.20550200428660317 0.018496032963606343
000040 2c 7c 51 1a ae 87 b8 3f dc 2c 8d e2 13 2e d1 bf
       0.09582031385933537 -0.2684373581329973
000050 e0 f9 ec 88 a1 8c a2 3f 25 c3 64 1a 0a 1e c1 3f
       0.03622917934852743 0.1337292317271245
000060 70 e1 5a a5 fc ee 91 3f e5 23 a1 f9 75 6a d9 3f
       0.01751322516676751 0.39712285402180064
000070 67 81 9f f9 48 2e b1 bf d8 46 fe 46 d6 07 99 bf
       -0.06711250395119848 -0.024443958361706958
000080 c9 ea f7 70 dd 4d b3 3f 5b 73 55 1c e3 6d b8 bf
       0.07540687568681927 -0.09542674485915141
000090 3e ce 71 dc cf 02 bc bf 20 44 bf 86 1c 57 a7 3f
       -0.10941790706584073 0.04558648247587649
0000a0 84 1d 61 8a ef f6 ab 3f 9b 04 e4 ea ac 1c b2 bf
       0.054618344919215495 -0.07075005278240314
0000b0 e1 98 51 f6 2a 3f b2 3f 75 c9 4e 38 43 33 92 3f
       0.07127636445656861 0.01777367621588995
0000c0 be e2 23 1a d0 9d b5 3f 63 48 3a b6 aa 36 b0 3f
       0.08443928373516038 0.06333414982717182
0000d0 32 fc 49 88 44 49 b9 3f a0 c1 81 d3 84 e1 ca 3f
       0.09877422644966385 0.21000728919490275
0000e0 b5 ad e9 cf 76 39 c3 bf 17 db 90 d7 dd 54 5a 3f
       -0.15019116546623726 0.0016071478296574898
0000f0 af f0 ad 3b 9f a1 81 bf 09 ad d2 40 69 54 c9 bf
       -0.008609050759098428 -0.19788852372344248
000100 ad dc 38 c7 27 c2 cb 3f 49 cd 44 9f 49 58 7e bf
       0.21686265208857006 -0.007408416353700994
000110 0e 90 a0 4b ca 85 ae bf 78 8e 33 38 c5 82 d1 bf
       -0.05961448834594317 -0.2736065911142087
000120 fc ec 39 7a e0 32 af 3f 97 cd 6c 3d ec d4 b6 bf
       0.060935034675788174 -0.08918644427904208
000130 3b 06 3a cd e0 81 82 bf f1 37 24 6a bd bc 9b bf
       -0.00903678537656837 -0.027087173083650332
000140 90 af 11 eb 77 ab cd 3f d2 db e7 b0 0f 2b b2 bf
       0.23179530122740433 -0.07096956318842665
000150 c6 52 84 83 95 18 a1 bf cd 66 4e e8 e4 c3 76 bf
       -0.03339068632536661 -0.005557912988388214
000160 3b 65 03 02 a9 86 a0 bf 22 6c 30 ec 62 fd 94 3f
       -0.03227737569404573 0.020497842470018075
000170 f3 9e dc 7e fd f3 b5 3f 23 34 54 4e 8d dc cc bf
       0.08575424525463031 -0.22548071217207263
000180 54 fc 1a 48 5e 8c d7 bf 34 93 7d 60 74 17 b3 3f
       -0.36794240037483417 0.07457663875318304
000190 63 73 76 a2 f3 5a ce bf 70 3c a8 4a c7 85 b9 3f
       -0.2371506255412 0.09969754765210026
0001a0 f8 4d 82 22 b9 0c cb 3f 4b 11 0a d4 9a db b0 3f
       0.2113257807255733 0.06585090328923575
0001b0 d5 22 bd 91 69 07 bd 3f 49 af fb 6b 21 a9 c0 3f
       0.11339435394360049 0.13016145489324973
0001c0 8b 82 98 9f b6 0f b4 3f 07 5a b9 eb de 6a 80 3f
       0.07836476704006594 0.008016339844442845
0001d0 26 03 e6 a7 8a 55 aa 3f ad c0 a8 05 87 0d c0 bf
       0.05143388080160198 -0.12541282440498006
0001e0 3f b1 89 e6 f2 a9 7f 3f e8 c4 8a 2c 73 83 c4 bf
       0.0077304352094922915 -0.16026153254418962
0001f0 72 fc ee 3b ac 91 b9 3f 03 3e d5 89 d1 81 b4 3f
       0.09987904036732845 0.08010587325156142
000200 e7 7c 8b 6c 10 6c c4 bf b0 16 6a d7 aa 76 78 3f
       -0.15954785633127885 0.00597254500337889
000210 b6 14 79 1e 37 06 bd bf 4f b3 58 f2 9f 64 be bf
       -0.1133760880848794 -0.11872291247045762
000220 c1 0b 93 a5 07 9d d4 bf de 7b fe ef b5 ef cc 3f
       -0.32208434266447844 0.2260653898092348
000230 01 48 23 38 c7 ec 8c bf 52 88 0b 08 15 88 cf bf
       -0.014123493576708059 -0.24634039776634836
000240 9d 24 8f 62 96 f6 a7 bf e3 49 3f 61 dd 38 a7 bf
       -0.0468031878768411 -0.04535571872806423
000250 69 bd 47 1c 04 0a bb 3f 11 0d c0 59 57 3f a3 bf
       0.10562158289370917 -0.037592630105814824
000260 57 95 77 09 e1 20 c6 bf 67 72 ac 70 3e fa c6 bf
       -0.17287838899862137 -0.17951183797494538
000270 39 78 d9 b6 ac 22 66 3f 35 8c 92 b4 dd b1 b4 bf
       0.002702081043749718 -0.08083902033335806
000280 9f 58 84 7b d0 1a b0 3f 02 c6 51 c3 13 ac c0 3f
       0.0629091550402756 0.13025137936669756
000290 d7 d1 95 db 45 0d b0 bf 50 91 ea 27 f2 74 c8 bf
       -0.06270252810447317 -0.19106890629803752
0002a0 00 ee 94 44 42 c4 c2 bf d9 80 fa 44 47 45 ca 3f
       -0.1466143450614794 0.2052392088708135
0002b0 a4 d8 ce 58 e1 d6 73 3f 2f 14 b7 7a 51 f2 c2 3f
       0.00484359766135448 0.14801996700239914
0002c0 49 77 eb 1f 8a 2f c8 3f 34 cc 2e 69 84 e8 c7 bf
       0.188950791917643 -0.18678336273078033
0002d0 10 26 ac be 1c 65 c3 3f 2d 78 7d 3a 00 c8 ba 3f
       0.15152320203951364 0.10461427143079112
0002e0 f5 4f f0 04 c2 61 cc 3f 08 dc 00 9f 3b 23 b8 3f
       0.2217333339800686 0.0942876113120833
0002f0 bf 68 5e 12 54 13 d6 3f 3f 86 1e 08 bf 40 cd bf
       0.3449297122366594 -0.22853839775511806
000300 e3 56 0c 92 30 4e c1 3f 50 35 7c ae c4 93 cf bf
       0.13519866114864162 -0.24669703025612444
000310 e8 88 f9 41 6f 56 d8 3f 5d ed b6 7a 84 eb ca bf
       0.3802755493435499 -0.2103124236290154
000320 97 ee db 16 69 6c b9 3f c5 90 92 9f 3d 73 c5 bf
       0.09931046302875256 -0.16757936755778338
000330 af b8 7e f6 0c 29 cf bf af ee 06 9e ee 75 dd bf
       -0.2434402659977812 -0.46032300407726273
000340 32 45 6d fb 1b c3 bb 3f cc 68 e5 3b 63 15 a9 3f
       0.10844588173246875 0.04899129968789992
000350 99 2b d8 20 de bf b8 bf 06 c6 d0 71 7c 2a d5 bf
       -0.09667766858926398 -0.3307181464652732
000360 90 92 52 b8 72 74 ab bf b1 2e 70 fc 69 6c bb 3f
       -0.053622803688346043 0.1071230164818029
000370 93 fb 24 72 f7 d9 c6 3f d5 46 0d 22 28 37 c7 bf
       0.17852681230030196 -0.18137075102509095
000380 eb 96 95 dc 3b 98 de 3f 32 f9 cb 16 0c 1f b6 bf
       0.4780416158813369 -0.08641124302446171
000390 4e 5a 0b 05 3c 06 c4 3f 19 51 01 26 a7 d2 c6 bf
       0.15644026037508002 -0.17830361705512912
0003a0 11 13 49 d8 ed 92 ab 3f 0d 59 c8 67 b0 7a b0 3f
       0.053855354930908324 0.06437208684687708
0003b0 75 57 97 7d 7a 1c c6 bf f0 d6 75 27 34 22 c6 bf
       -0.17274409420377493 -0.17291881491444583
0003c0 dd 00 05 8f 9a cb ba 3f 58 44 dd 4f df 8d c2 bf
       0.1046692465943155 -0.1449545993769188
0003d0 19 43 09 46 93 48 c4 bf 6d 52 4c fb 24 91 c4 bf
       -0.15846482200370174 -0.1606794573823608
0003e0 fd f5 2f a7 6d a7 c4 3f 25 b6 41 87 6b eb a5 bf
       0.16135950721211137 -0.04281173730928981
0003f0 37 63 8e e8 d8 8f a9 bf 64 0e 9c a8 69 de c9 3f
       -0.04992559279270952 0.2020999978341137
000400 ec b0 40 ce 78 08 b4 3f 41 78 97 9d 4f c6 5a bf
       0.07825427089182185 -0.0016341950889606912
000410 a4 0d 88 15 e2 f2 cb bf d4 a1 50 fb 77 7b 96 bf
       -0.218349705232055 -0.02195537063031046
000420 fa 01 7d b7 93 5b c1 3f b0 87 b9 19 dd 6c a8 3f
       0.13560720881834226 0.047705563917375016
000430 7b e2 54 64 57 68 9c bf 4e 31 3f 65 11 89 9d bf
       -0.0277417807567155 -0.028843185238473006
000440 74 64 85 ab b4 84 c1 3f 3a 6c 16 99 00 21 c9 bf
       0.13686235785533862 -0.19631965136508872
000450 69 1d e7 23 60 44 c1 bf fe 1c 5d ec 2f d6 ba 3f
       -0.13489915612283745 0.10483073731039735
000460 45 d3 15 4d c0 21 bd 3f 8a 91 23 aa fc b8 99 3f
       0.1137962520786689 0.025119731792885548
000470 0f 66 67 7d aa ae 65 3f 4c f0 49 9f 10 c7 cf 3f
       0.0026467637901361816 0.24826247957014613
000480 f1 08 09 fb c4 d8 b3 bf 77 1c d9 8a 12 e6 99 3f
       -0.07752638939658475 0.025291719174017815
000490 8d 96 b6 8a 6a c6 a8 bf d2 3d e5 64 1d 0e af bf
       -0.04838879531170646 -0.060654562536565884
0004a0 e4 3f e9 69 1a 4c ac bf 53 72 c0 ed bc e3 c4 3f
       -0.0552681211744355 0.16320001229259393
0004b0 b4 23 1a 43 7c fe 8b 3f b6 16 6f 7c 5a fd bb 3f
       0.013668986127656747 0.1093346170228767
0004c0 87 67 68 49 d5 d1 cd bf cc 94 63 69 19 96 98 3f
       -0.2329660995899838 0.024010083253320144
0004d0 4e 07 f7 dd c8 62 a9 bf 8f c3 d5 0e b5 21 b9 3f
       -0.049581791968661734 0.09817058193381299
0004e0 d4 df 0d 9b 1c 91 ad bf 61 4e fe 46 20 91 bd 3f
       -0.0577477397227423 0.11549569829213048
0004f0 05 c5 25 1e b1 1d c8 bf 0e 16 df c2 f4 41 cd bf
       -0.18840612384841662 -0.22857532038885647
000500 b7 d6 d7 62 76 2b c5 bf 32 c5 67 c6 bf d6 aa bf
       -0.1653888685829565 -0.05241965577068654
000510 e1 3a 59 9f ef 84 bf 3f 92 60 f5 1e 30 cc d1 3f
       0.12312219276757787 0.27808764479915127
000520 5b 82 5d c8 32 ba 86 3f 23 65 45 ed 83 4a 4c bf
       0.011097332706129828 -0.0008633751081489654
000530 62 df 5e 28 e4 39 98 3f 63 fa 4d 80 4f b2 d0 bf
       0.023658337558770788 -0.26088321237322115
000540 4c ed 76 b5 80 49 b5 3f 8c 2c f7 8b fa 45 ac 3f
       0.08315281324660367 0.055221395097384635
000550 9d 42 b7 6b b7 75 a4 3f f5 aa 09 1d fc 44 a0 bf
       0.03996060552492973 -0.03177631239380744
000560 e5 5a f6 9e 20 02 b7 bf 7b 36 44 1f b5 3d ca 3f
       -0.08987621193805813 0.20500816370661198
000570 95 a3 ee 2a a4 74 6b bf ab aa 86 8b 18 d8 9d bf
       -0.0033515173340287843 -0.029144652858728175
000580 06 81 d0 2a b6 99 b8 3f eb 55 2c 4c 74 89 b8 bf
       0.09609545274043194 -0.09584738597580837
000590 ad db e4 69 ae 57 b1 bf 41 b3 a0 e0 24 4a c8 3f
       -0.06774416051199124 0.18976269691611417
0005a0 5b 3f 3c 1e f2 92 be 3f ee 71 f4 e5 a1 89 d8 bf
       0.11942971456687472 -0.3834004159596408
0005b0 53 9b 8d 9f 16 4d 63 3f 60 7b 28 6d 3a 91 ca 3f
       0.00235609453777689 0.20755701379763547
0005c0 c1 fc 57 03 37 dc d1 3f 3c 15 dd 70 09 8d 9a 3f
       0.2790658505109143 0.025928637994430334
0005d0 f9 cf 1e b2 fb fe c2 3f 14 57 30 81 98 bd 81 3f
       0.1484064693191838 0.008662406389742063
0005e0 83 1e f1 67 90 3a d0 3f 9e ae b1 50 db 15 9b 3f
       0.2535744681413023 0.026450564193892682
0005f0 72 70 cb d1 41 84 c0 bf ec 1e af 4f 67 90 98 3f
       -0.12903616660958367 0.023988355864076036
000600 1a 3a dd 0b 65 b8 c3 3f 01 3b 7a ad de 81 d0 bf
       0.15406478003792828 -0.25792662564428787
000610 a2 0f 1c 63 eb 5c d8 3f 96 8e 20 e0 4b 51 ba 3f
       0.3806713550441093 0.10280298444609523
000620 3c e2 e5 7a 2e bd c2 3f 41 f0 7c 1a 2c b8 d4 bf
       0.14639836312177745 -0.323740983836391
000630 b9 f7 78 ce 20 fb c1 bf 80 9a 16 4f 50 f9 82 3f
       -0.14047632295290471 0.009264590657790395
000640 4e f9 51 b0 ff 96 96 3f 7e 84 0f 0b 8a 49 be 3f
       0.022060389649135197 0.11830961961779171
000650 6c 2e 4b 52 88 fb b2 3f 56 d4 d4 80 29 24 c4 bf
       0.07415058144686676 -0.15735358038515085
000660 02 7e 48 85 19 33 8d 3f fe 15 36 ea 05 d7 be bf
       0.014257621173839222 -0.12046849220322284
000670 d0 55 da e9 23 91 c2 bf 00 fa 76 45 27 2b 94 bf
       -0.14505433004948864 -0.019695867171089176
000680 7e 12 98 13 49 dd b8 bf af c5 eb a3 33 d5 d0 bf
       -0.09712654808397223 -0.2630128002920981
000690 a0 49 bf f3 4c 32 af bf 05 bd 16 07 b4 ff ca bf
       -0.0609306380789747 -0.21092844339498398
0006a0 31 4f 23 02 91 2d b5 3f db 6b 43 b5 55 ee bf bf
       0.08272653867907988 -0.12473045039534673
0006b0 85 46 0e 40 9c 3b c6 bf 11 20 6b 48 b4 1d d0 3f
       -0.17369416358683423 0.2518130023204331
0006c0 f1 25 d6 8d 6d 6e c8 bf e4 41 63 45 cf 71 d8 3f
       -0.19086999345408587 0.38194638992447794
0006d0 f1 3a 74 6f 56 eb db bf 2e 79 de 00 bf 97 a4 bf
       -0.43623886951620167 -0.04022023091896397
0006e0 83 92 66 67 36 3c a8 bf eb f4 c1 b5 0c 27 c7 3f
       -0.04733438503470657 0.1808792006958478
0006f0 01 b8 54 37 6f 99 cd 3f d7 f2 cc 66 97 3a d0 3f
       0.23124494744973847 0.2535761360084456
000700 8c a4 a2 d0 7c b4 b7 bf 3e 0b a8 9c 7d 52 d2 bf
       -0.09259777158389876 -0.28628483103254954
000710 34 96 92 39 0b e7 b7 bf 7d 61 5a c5 36 c9 b6 bf
       -0.09336919932919657 -0.08900778120221804
000720 95 52 3c f4 18 7a a1 bf 1d 68 a1 87 27 7d d3 bf
       -0.03413465482131987 -0.30451381917157666
000730 56 1c b9 2d 43 86 77 bf 33 16 72 fa 34 c1 b7 bf
       -0.005743276993206944 -0.092791854042013
000740 99 03 09 89 95 c7 a6 bf 3e 9b ca 65 3e 33 a5 bf
       -0.044491456010752724 -0.04140658371516402
000750 1e c0 23 aa 2d d7 72 3f d5 27 f3 d8 96 16 6b bf
       0.004599741341948542 -0.0033066698302705957
000760 2b 1e cd 7d f2 df 6e bf ef b1 4c a3 19 1f d6 3f
       -0.0037688957367299123 0.3456482023928222
000770 db bd d6 1a e9 3d c1 bf ee f5 00 0a 44 a3 bf 3f
       -0.13470186052789654 0.12358498806221238
000780 b0 90 a5 59 bb 07 46 3f 19 70 be 66 23 d0 6c 3f
       0.0006723084255040503 0.00351721681904672
000790 1f 80 ef 6d 1a 06 ad 3f 82 93 79 8c 4f f7 c6 3f
       0.056687189025751865 0.17942232474447556
0007a0 42 bd 3b 01 2f 9d c1 bf bf 4f 7f de dd 6a c8 bf
       -0.1376093631765603 -0.1907613121426248
0007b0 b3 4e e4 cf c0 b8 c1 bf ec 0b 8d e3 44 46 cb bf
       -0.138450719365769 -0.2130819426621139
0007c0 52 7e 56 46 65 ca b9 3f ae e4 4d 74 c4 81 a1 3f
       0.1007445618365577 0.03419317168931833
0007d0 58 a9 1b 9e 97 cc b7 3f d5 09 f6 66 a8 bf 71 bf
       0.09296558008251077 -0.004333169766484753
0007e0 a4 1d c0 87 f4 3e d0 bf d4 d5 1a 3f c7 ea 4b 3f
       -0.2538424802482615 0.0008519623645130655
0007f0 89 98 93 57 3b 26 b3 3f ea 46 e0 a9 d3 91 c2 bf
       0.07480212104892038 -0.14507528109293527

linears.2.bias f8 [60]
000000 63 b6 21 bd 32 14 aa bf b3 0f 2c 8f 39 a7 9f bf
       -0.05093535002457086 -0.03091134964326132
000010 99 59 72 4c 8f bf 83 bf 1e 78 d6 5c 3b fa a0 bf
       -0.009642714996783751 -0.033159117777572286
000020 68 be ab 61 e2 59 89 bf 7c c9 d2 40 c4 67 9c 3f
       -0.012378471952131778 0.027739588219171094
000030 8c 28 0b f7 f6 9f c8 bf 2c ac fc 53 b4 fd b4 bf
       -0.19238173544573944 -0.08199622202361984
000040 d8 3b 59 27 56 0c 4f 3f ea 5b 0f ad b7 f9 7e bf
       0.0009475155517949486 -0.00756236790126417
000050 dd 52 a5 68 38 36 9b 3f 2e ac 14 92 b9 6f 9d 3f
       0.026574021708557594 0.02874650911432413
000060 c3 85 f2 f1 f8 ad b5 3f 30 00 7d a3 dc 0a ad bf
       0.08468585879247485 -0.056723494488779
000070 4d a3 70 d5 8c 38 92 bf 90 ad fa 76 14 9b 62 bf
       -0.017793846633284805 -0.002271213503112164
000080 c1 d4 92 26 b5 d7 ad 3f fd b1 38 1e d9 de 70 bf
       0.05828634353512419 -0.004118774526017163
000090 07 02 3b f8 8b 4e bf bf 90 60 58 e3 fd b5 a9 3f
       -0.1222922783881658 0.05021661186418769
0000a0 7a 38 94 a5 3f 91 a1 bf bb 01 f4 41 77 d5 a2 3f
       -0.03431128402927271 0.03678486518947773
0000b0 9b ba 6a 67 2c 59 a5 bf 97 35 3b c1 df a4 9f bf
       -0.041695964454779154 -0.03090238205804993
0000c0 35 31 d0 f6 e7 b2 b2 bf 8a a6 87 27 e8 b4 74 bf
       -0.07304239059175617 -0.005055338719537903
0000d0 af aa bc c5 58 51 97 3f 37 b3 18 fa 43 4d 96 bf
       0.022771250790507732 -0.021779119624784484
0000e0 bc 80 54 6f 65 d9 a1 3f 1a 72 d6 e0 fb 7c ab 3f
       0.034861726608370586 0.05368792647934502
0000f0 75 07 f5 03 a4 1c 9e bf 43 62 31 30 f9 97 97 bf
       -0.029406130544209447 -0.02304066998144295
000100 4a 7a cf e6 59 48 54 3f ee 52 38 58 c2 a4 ac bf
       0.0012379529900880142 -0.0559445126238297
000110 c6 d9 8d de 01 eb 77 3f 4d 7f 11 77 ff 2f a3 bf
       0.005839354803234225 -0.037475569996557746
000120 32 3c f2 08 f9 67 9c 3f d2 9b bc 64 f7 6a ab 3f
       0.027740374728235824 0.05355046372124374
000130 02 0d ec 9c 6a f0 a7 bf 82 43 10 98 18 1a ab 3f
       -0.04675610700180678 0.0529334722160746
000140 be 5b 8d 2f 83 6b ac 3f 51 bc 76 8c c9 63 97 bf
       0.05550775485487901 -0.02284159583876672
000150 9c e6 bd 56 65 7e 96 3f 4f 1c b5 10 c3 31 a6 bf
       0.021966536921786614 -0.043348403729901556
000160 69 cd e5 39 ec 8f a2 3f 54 0e 0f ae eb 87 b0 3f
       0.036254293506227615 0.06457398414118504
000170 d1 4a c2 68 0b 99 9b 3f a4 c5 a5 7d 31 f8 99 bf
       0.026951006192187436 -0.02536084489242331
000180 35 11 af 79 69 7e 8a 3f c0 1e 64 b0 1e 53 92 3f
       0.012936424280163375 0.01789520217519569
000190 dc e9 71 c5 33 66 a8 3f 0f 86 c4 dc 75 fe a6 bf
       0.04765474114624954 -0.04491012878339628
0001a0 77 98 28 d2 c8 c1 94 3f 36 3c 9d 1a 76 b2 a3 bf
       0.02027047903734355 -0.038470926998904906
0001b0 65 5e 87 c6 cc 13 52 bf 5d 05 75 c9 13 c4 98 bf
       -0.0011033534775516604 -0.02418547551247251
0001c0 50 63 fd 0b 9c e1 a7 3f 63 32 8b 9a 51 7a 94 bf
       0.046643139327619765 -0.019997859056092426
0001d0 5d 09 0c c6 7a 86 6f bf fa 1e 94 25 96 5b ae 3f
       -0.0038483045503891326 0.059292499625426445
